prefect_pipelines/ML_data_pipeline/src/ml_models/test_model/restored_model_checkpoint/epoch=0-step=4.ckpt (torch, 446167 bytes, 24 tensors)

rnn.weight_ih_l0 f4 [300, 2]
00000000: 344f c2bd 40ed efbc 2f87 81bd b87e a63d
00000010: 8b4c 10bd 862c 353c 1a4e b0bd 7e66 b5bd
00000020: 9e6c 79bd 6b86 8ebc a2d0 a73d a9bd 44bd
00000030: f278 b7bd 60c1 073d 1be8 543d a613 b13c
00000040: 6101 bbbd 25c7 663c 20bf ac3d 2a50 80bd
00000050: 5eaa 303d 72d0 433d ff32 903d b574 a73d
00000060: c800 9dbd dc4f 63bc ba90 d43c bbcf 133d
00000070: 7733 bd3d 4740 ebbb 2304 923d a390 ca3d
00000080: 121d 6d3d 354b 5ebd b779 95bd e4cd 2fbd
00000090: ba34 8cbc f81e cfbc 48f0 223d 02c6 6b3c
000000a0: f884 94bd 9ab5 5dbd fbbe 793d 1496 17bd
000000b0: 4717 9cbd b32d 703b e616 24bc 32d1 d13c
000000c0: c935 6fbd 0307 70bd 25c8 c83c ed7c 9d3d
000000d0: 696f 4f3d 5730 1fbc 9f7f 15bd 6453 f7bc
000000e0: b345 59bc 348a 1dbd fd33 c63d 592c b23d
000000f0: b0d4 b3bd b4f2 883d 9957 b8bd b6cc 5abd
00000100: 3a8d 22bc dcf2 8fbd a0a6 b3bb 663b 8d3d
00000110: b833 98bb 57f6 99bd a205 85bd 0b91 70bd
00000120: a2e6 4fbd b7dc 2d3d 0065 8d3d a729 dabc
00000130: ccd3 c2bd 6f31 063d 4be9 8dbd f9cf b5bd
00000140: c5d7 7c3d 842b 46bc a731 4bbd d312 7bbc
00000150: b081 c2bd 659f 82bb 962f c7bd 44dd 913d
00000160: 43ca b4bb 057b 11bd a5be 363c dce1 babd
00000170: 8700 1c3d 05ab b33d a3b5 86bd 0ee2 97bd
00000180: 20e4 a0bd 82e3 fbbc bdd7 b23d 8cf8 053d
00000190: 2aa4 10bc d59e 183c af04 88ba e5cc b3bd
000001a0: e24a e7bb ed57 883d 92cd 983d f7f7 6ebc
000001b0: c261 69bd c5ce 8fbd a8c1 513d bc44 a1bc
000001c0: cce3 bbbd f3a7 213d e449 40bc e359 ae3d
000001d0: 85e3 97bd 3b9c b43d 5c3a 27bc 79f9 c2bd
000001e0: dfc2 353d 92d8 76bd d0d1 c8bd 368b 9fbd
000001f0: 55ee b7bc 4bce a73d 8ae1 823d 8e5d e63c
00000200: 9f69 62bd 5880 413d cf98 bfbd 325f 26bd
00000210: c7af 6dbd 0196 c73d da6f 1fbd 62aa 46bd
00000220: 3e5a cb3d e255 ba3d d156 71bd abec b6bd
00000230: 3fb2 f83c ffdb a23d ad31 a4bd f2d2 643c
00000240: a260 f53a 09c0 713d b5a1 48bd 3925 b63d
00000250: 83fc 23bd 5293 99bd c0d9 b0bc f691 b5bc
00000260: 824d 8d3d 0fa9 ad39 7425 cd3b d5cb 963d
00000270: 43af 0cbd c90d 9d3d 12e9 bd3d 337c b3bd
00000280: 8471 553d 3795 343d c3fb a23d 50d5 2b3b
00000290: 0908 5b3d b474 c33c ea6d 3fbd f384 143d
000002a0: d7d5 3bbd 49aa c23d b748 9dbd af19 cebc
000002b0: f4d8 863d d9fa 233d e43f 24bd 3d1b bdbd
000002c0: febd 503d 2721 2bbd 5428 8e3d 4b76 84bd
000002d0: febe 63bd aa10 5c3d 3d47 6ebd d5f0 7cbb
000002e0: 6e4d 5bbc ee4a 4e3d c3dc 5bbd 2005 233c
000002f0: 7fd1 1b3d 73d8 69bd c308 713d fe25 1c3c
00000300: 82c4 8a3d ad8e 733d c175 aebc 4a88 a93d
00000310: f2de a43c 4ca8 aebd 7a9f 2f3d 5f5e ac3d
00000320: 6b98 b23d 3b70 04bd 350e 263c 5707 a73d
00000330: 36b7 b23c 2c79 a8bb 6714 8d3d d9c5 563d
00000340: a528 873d b820 423d 2906 b6bb fc0e b83d
00000350: 95ab bc3d 8d60 61bd e37d 19bd d313 b43d
00000360: 9371 a4bb 9bfa 4cbd 122b 18bd b5b6 8d3c
00000370: 5bf6 7a3d 6426 b93d f959 203d 73a6 253d
00000380: f4a0 d3bc e551 ac3d f73e c43c d450 2ebc
00000390: 9bde 213c 836e 95ba 04e1 39bd 910d a13d
000003a0: a8db c03d 8d14 9a3d bf5d ab3d 4547 583d
000003b0: f7af dbbb e3a7 72bb 8051 70bd cacc b6bc
000003c0: e6ec 15bc 04c9 8ebd be21 c73d 96b0 983d
000003d0: bcea 11bd f7ba 88ba fdd0 8e3b a38d 743d
000003e0: a201 9ebd 4e39 6cbc 908b abbd 5877 82bd
000003f0: e037 90bd 47b0 8dbc 70da dabc c583 b83d
-0.09487763 -0.029287934 -0.06324612 0.081296384 -0.035229247 0.0110579785 -0.08608647 -0.088574395
-0.0608946 -0.01739808 0.081940904 -0.048032437 -0.08958615 0.0331434 0.051979166 0.021615814
-0.091311224 0.014085566 0.08434892 -0.0626529 0.043131225 0.04780621 0.07040977 0.08176557
-0.07666165 -0.01387402 0.025947917 0.03608678 0.09238332 -0.0071792933 0.07129695 0.098908685
0.05788905 -0.05427094 -0.07298606 -0.042920962 -0.017114986 -0.025283322 0.03977993 0.01439047
-0.07251924 -0.054128267 0.06097315 -0.03700836 -0.07621627 0.0036648333 -0.010015225 0.025612447
-0.058400903 -0.058600437 0.024509499 0.07689843 0.05064336 -0.009716115 -0.036498662 -0.030191131
-0.0132612465 -0.03846188 0.09677885 0.08699865 -0.08780801 0.06686917 -0.09001083 -0.053417884
-0.009921366 -0.070287436 -0.0054825097 0.06896095 -0.004644837 -0.07517689 -0.06495215 -0.058732074
-0.050757058 0.04244682 0.0690403 -0.02663119 -0.09513053 0.032761987 -0.06929263 -0.08877558
0.06172921 -0.012095336 -0.0496079 -0.015324312 -0.09497392 -0.0039862865 -0.09725873 0.07122281
-0.0055172755 -0.03551771 0.011153852 -0.091251105 0.03808644 0.08772854 -0.06577613 -0.074161634
-0.078560114 -0.030748133 0.08732555 0.032707736 -0.008828202 0.009315212 -0.0010377372 -0.08779315
-0.0070584873 0.066573955 0.074610844 -0.014585487 -0.056977995 -0.0702186 0.051210076 -0.019686095
-0.09174308 0.03946681 -0.011736367 0.08513238 -0.07416443 0.08818861 -0.010206785 -0.095202394
0.044375297 -0.06026513 -0.098056436 -0.07790224 -0.022452513 0.08193644 0.063906744 0.028120782
-0.05527651 0.04724154 -0.09355318 -0.04061813 -0.058028962 0.09745408 -0.03892503 -0.048502333
0.09929322 0.09098412 -0.058920685 -0.089318596 0.030358432 0.07952117 -0.080172874 0.013966309
0.0018720815 0.05902103 -0.04898234 0.088938184 -0.040035736 -0.07498802 -0.021588206 -0.022164326
0.06899549 0.0003312309 0.0062605683 0.073630966 -0.03434683 0.07668645 0.0927297 -0.087639235
0.05211021 0.044087615 0.07958176 0.0026219673 0.05347446 0.02385936 -0.04673568 0.036259603
-0.04585823 0.095051356 -0.07679885 -0.025158731 0.06584349 0.04003415 -0.040099993 -0.09233711
0.05096244 -0.041779663 0.06941286 -0.06467875 -0.055602066 0.05372683 -0.058173407 -0.0038595696
-0.01338516 0.050364427 -0.05367733 0.009949952 0.038041588 -0.057091188 0.058846246 0.009530542
0.06775762 0.059462238 -0.021296384 0.08277948 0.02012584 -0.08528194 0.042876698 0.08416437
0.08720478 -0.032333594 0.010135223 0.08155697 0.021815877 -0.005141398 0.06888657 0.052434776
0.06599549 0.047394484 -0.0055549336 0.08987233 0.09212414 -0.05502372 -0.03747357 0.08792844
-0.005018422 -0.050043683 -0.03715045 0.017299036 0.0612701 0.090405256 0.039148305 0.04044194
-0.025833584 0.08414058 0.023955805 -0.010639388 0.009879733 -0.0011400733 -0.045380607 0.07863916
0.09416896 0.07523451 0.0836749 0.052802343 -0.0067043263 -0.0037026338 -0.058671474 -0.022314448
-0.009150719 -0.069719344 0.09723233 0.07455556 -0.03562425 -0.0010431696 0.0043584094 0.059705388
-0.07715155 -0.014417959 -0.08376229 -0.06370419 -0.07041907 -0.01729597 -0.026715487 0.09009508

rnn.weight_hh_l0 f4 [300, 100]
00000000: 928d 863c e882 dc3c 9112 22bd 995f ccbd
00000010: 04cf a93b 9c6b afbd 6624 ac3d 2828 263d
00000020: 5e34 bb3d ccda 173d 4016 933d 5d57 403d
00000030: b533 73bc 4318 4cbc a751 ac3d b1de bdbc
00000040: 7aec 513d e52f c73d ab65 0e3d 0054 84bd
00000050: f7b1 a6bd 371a 58bd f7cc 823c e9eb 0c3d
00000060: 304f 06bc 00f8 a9bd e121 cbbd 25aa 4d3c
00000070: ea4e afbc 9ca4 3fbd a582 cabd e9cb dd3c
00000080: 6692 c83d 852a 253d b474 68bd 74f6 b2bd
00000090: f0ee cbbd 6ba4 073b 9641 7e3c b930 b23d
000000a0: 3da9 b23d 8ff8 85bd c4da 703d 2112 12bd
000000b0: 5fdb da3b 76a4 223c 7c66 c53d d9c0 81bd
000000c0: 85b2 9fbc 3fea 493d 8498 6fbd ffa5 423d
000000d0: 72f0 583d 5baf 3f3d f688 a73c fafa 6fbd
000000e0: 23c5 85bd 7b7d b23d 0ada 4abd 80d7 fc3a
000000f0: 41bd 34bd 3058 12bd aac2 203d 9052 c8bd
00000100: 2c14 a13d d3dd c73d 534a 453d 24e9 bb3c
00000110: f0e4 97bd 589e 85bd f939 acbd 35ff f0bc
00000120: fc92 9eba ceeb cbbd dbaa 30bd 332a 493d
00000130: 7e2c 983d 3620 a6bd 7b70 83bd 952a b13c
00000140: 7ee6 13bc b2d8 473d 2b08 5a3d 6003 b73d
00000150: de58 4bbd 65ff 45bd 0d64 9b3d 985b b73a
00000160: 024f dcbc 99e7 aabb adf8 a7bd 9ae5 25bc
00000170: 96f9 a33b 2a9d abbd 8d17 39bd de23 dc3c
00000180: 28d0 b6bd 72b3 c4bc 9411 9fbd d694 93bc
00000190: 121d 853d f124 8c3d 50ab 0f3c 040e 453d
000001a0: c40d a43d eeb4 b53b d9b0 f13c b51d ae3b
000001b0: 06ac c23d d3e7 1dbd 527e b43d 152e 383d
000001c0: 612d d9bc a2c0 333d bda5 b73d 65e9 7bbd
000001d0: ac0a 21bc 4628 a438 f268 b6bd 4368 ab3a
000001e0: b776 8abd f933 0b3c 1791 d0bb 5e3d ab3d
000001f0: 4a2f 0a3d 02fa 983c 3fca 37bb a5d3 153d
00000200: 8279 b83d 4a2e 7ebd c001 11bd 72bf 80bd
00000210: ca19 6ebc d1b3 9ebd 819d e8b8 b5ae 97bc
00000220: f1f5 7d3d c97c 8cbd 2287 aabc b61e c6bd
00000230: 3349 0abd 03f3 4cbd af24 c63d 4c39 96bd
00000240: a5ff 073d 3aec 8e3d 1c61 e5ba 8661 c3bd
00000250: 0d60 613d 9c60 893d 0549 a93d abea 84bd
00000260: 0f91 bf3d 46b2 a03d 3c74 483d 5f73 1abd
00000270: 1b5f 34bd 1709 523d 6f4b 82bd 5306 953d
00000280: eb17 563d 6ec9 c8bc 1e93 5e3c eb9d ac3d
00000290: 5b4f 4bbb c86b 843b bc40 c53d e439 72bd
000002a0: 77fb 573d fa1d 813b 6f28 a53d 1074 82bd
000002b0: 6e39 b3bd 0382 90bc dd6c 6b3d 460b 3fbd
000002c0: 83d7 05bd 1dc7 73bd eadf 7abd 7164 7e3d
000002d0: 266e 9c3c 2b98 dabc 76bb 5c3c 6052 583d
000002e0: fb97 ae3d a0d1 a2bd de10 b1bc f1f2 b3bc
000002f0: 4405 80bd 4c7c 863d 32b9 d83b 11d3 163d
00000300: 3b38 4c3d 761a 0fbd 6fd3 c03b a6f8 71bd
00000310: 02b7 07bd 3446 f43c 7451 a0bd 42e7 b4bd
00000320: 8c09 3a3c c457 4f3d 97b4 b63c f6c3 9d3d
00000330: 115b 68bd f9e8 44bd 2e50 b2bc 0951 b9bd
00000340: 9d1d ea3c afc4 a83c 049a ee3b 9385 9c3c
00000350: a659 a53d 32e7 953c 0bda c1bd ba6e 5a3c
00000360: de41 36bc 9baa 2c3c 65ff adbd d696 23bb
00000370: d5ca 91ba 6d5e c73c de87 6b3d 8db8 f63c
00000380: b85e 1a3b 5a01 a2bd 306a 07bc d992 b4bd
00000390: e83a a3bd 33a7 773d d23d a13d 7f74 343d
000003a0: 6b10 95bc 93e9 ec3c 866f 11bd 5f79 3b3d
000003b0: f8e7 5cbd fb68 7ebd 7a55 a2bb 400b ff3c
000003c0: 56d0 c0bd bb6f 973d 2728 1e3d 4d04 903c
000003d0: a094 873d f910 7e3d 9a8e 42bd ac05 55bd
000003e0: 737d adbd 56f7 a63c ff3a a73d 554c 6b3d
000003f0: 6965 a1bc 9c86 8abd 423a a1bc c1c4 be3d
0.016424928 0.02691789 -0.039568488 -0.09979171 0.005182149 -0.08565447 0.0840538 0.04056564
0.091408476 0.037073895 0.07181978 0.046958316 -0.014843871 -0.012456956 0.084140114 -0.023177477
0.051250912 0.09725932 0.034764927 -0.06461334 -0.08139413 -0.052759375 0.015966875 0.03440467
-0.008197591 -0.08299255 -0.09918571 0.012552773 -0.021399934 -0.046787843 -0.098882 0.027074771
0.09793548 0.040323753 -0.05675192 -0.087384135 -0.09957683 0.0020697366 0.015518567 0.08700699
0.08723686 -0.065415494 0.05880238 -0.03566182 0.006678983 0.009926906 0.09638688 -0.06335611
-0.019494304 0.04929566 -0.05849506 0.047521587 0.05296368 0.04679809 0.02045105 -0.05858896
-0.065317415 0.0871534 -0.049524345 0.0019290298 -0.0441258 -0.035728633 0.039248146 -0.097813725
0.078651756 0.097591065 0.048166584 0.022938319 -0.07416713 -0.06524342 -0.08409495 -0.029418567
-0.0012098248 -0.099570855 -0.04313169 0.04911251 0.07430361 -0.081116125 -0.06417938 0.02162675
-0.009027122 0.04879064 0.053230446 0.089361906 -0.049645297 -0.048339266 0.075874425 0.0013989089
-0.026893143 -0.005215597 -0.08201728 -0.010125542 0.005004118 -0.08379586 -0.045188475 0.026872572
-0.089264214 -0.024011347 -0.07767025 -0.018015306 0.06499685 0.068429835 0.008768871 0.04810907
0.08010438 0.00554525 0.029503273 0.0053136 0.09505467 -0.038551163 0.08813156 0.044965822
-0.026510896 0.04388488 0.08967159 -0.06150188 -0.0098292045 7.827631e-05 -0.089067355 0.0013077337
-0.06760924 0.008496278 -0.0063649523 0.08361314 0.033736505 0.0186739 -0.0028044132 0.036578793
0.09007551 -0.062055863 -0.03540206 -0.06286515 -0.014532516 -0.07749141 -0.000110919595 -0.018515924
0.062002126 -0.068597384 -0.02081639 -0.096738264 -0.033761214 -0.05003644 0.096749656 -0.07335147
0.033202786 0.069786504 -0.0017500254 -0.095400855 0.05502324 0.0670788 0.082658805 -0.06490072
0.093538396 0.07846503 0.048938975 -0.037707683 -0.044036012 0.0512782 -0.06362044 0.07276597
0.052268904 -0.024510112 0.01358488 0.08428558 -0.0031022641 0.004041169 0.09631488 -0.05913724
0.05273005 0.003940341 0.08064353 -0.063697934 -0.08751188 -0.01764012 0.057476867 -0.04664161
-0.03267623 -0.05951606 -0.061248697 0.062107507 0.019095492 -0.026683887 0.013472429 0.052812934
0.08525082 -0.07950139 -0.021614488 -0.02196643 -0.06251004 0.065666765 0.006613874 0.036822382
0.049858313 -0.034937344 0.00588458 -0.05907502 -0.033133514 0.029818632 -0.07828036 -0.088331714
0.011354815 0.05062081 0.022302909 0.07703392 -0.056727473 -0.048073743 -0.021766748 -0.09048659
0.028578574 0.020601599 0.0072815437 0.019106662 0.0807374 0.01829872 -0.094654165 0.013332063
-0.011124102 0.010538722 -0.08495978 -0.0024961731 -0.0011123071 0.024337018 0.05750262 0.030117298
0.0023554992 -0.07910414 -0.008265063 -0.088170715 -0.0797022 0.060462188 0.078731194 0.04405641
-0.018196305 0.02891997 -0.035506748 0.045770045 -0.05393216 -0.062111836 -0.0049540373 0.031133294
-0.09414737 0.07394358 0.03861251 0.017580176 0.06620145 0.062027905 -0.047499277 -0.052007362
-0.08471193 0.02038161 0.081655495 0.057445843 -0.019701676 -0.06763956 -0.0196811 0.093148716

rnn.bias_ih_l0 f4 [300]
00000000: 6f71 c63c 8551 8e3d d788 aa3d bdc6 50bc
00000010: 5005 b73d 4b0e 97bd ee00 f0bc 2d95 9cbd
00000020: f681 95bd 7bec 87bd 38c0 42bd b4c1 7fbd
00000030: 1c45 aebd e40a fc3c 9626 ccbc baf7 bbbd
00000040: ad2e 893d 75ed 83bd 072e 903d ecaf 673d
00000050: 2b88 b6bc 9535 013d b2b9 35bb ed97 05bc
00000060: f916 76bd 0659 9fbd af78 e0bc dc62 3dbd
00000070: 104e a53d 6f7e 85bd d77b c7bd ba3a 023d
00000080: 52e9 15bd 32c1 b83d ce5d 8abd ebf6 21ba
00000090: 1912 44bd 190c 56bd bcc3 5abc 8a55 c73c
000000a0: 8c0b a2bd 451c cbbd 784a 92bd b82c 77bd
000000b0: 5806 c5bd 98ef a73d d427 bb3c d0b8 643d
000000c0: abfe 81bd c2eb 7ebd ed5d a1bd 7b84 583d
000000d0: e5bf 9f3d d491 58bd bb87 c43d 2069 353d
000000e0: 3d0e b93c 04e0 fc3c d931 79bc 250e c0bd
000000f0: 5137 ad3d 2616 653d 3bc9 adbc cafa c63d
00000100: 8283 6fbc 8a60 153d af1b 5dbc 3c84 b6bd
00000110: e16e 883d f529 25bd e1a7 91bd b5f1 903d
00000120: 2d45 4fbc 7f40 833d 7af0 c43d 4ee1 3fbb
00000130: 1a99 1c3d 1bb5 b9bd 25f4 973d 4232 213d
00000140: 9909 a83d ac62 cbbd ee0e bdbd d71b 773d
00000150: 51b6 d23c 3413 233c f74c 6a3d 2392 a0bd
00000160: f9f8 af3d b761 6e3d 9381 6ebd 6537 7b3d
00000170: 0511 18bd 9175 9abc 90db a5bd 1a81 5fbd
00000180: 71c7 4cbd 8c11 163d 33fc 5a3d ba97 81bd
00000190: e410 b83d aa36 2cbd e30e 493d ef70 2f3c
000001a0: 05ab 3d3d dd7a 483d 3bd0 48bc 69e0 6f3d
000001b0: bea8 a8bd 796d 963d b3d8 37bd 43d5 c83d
000001c0: 4a8c 32bd 03e2 f33c 88c3 f33c ee7e 7a3d
000001d0: 8ed6 afbd e164 883d 1ede 62bd 4a0a 03bd
000001e0: 7915 113d a494 f93c 358d 3cbd 5032 98bd
000001f0: 2887 5d3d 8f7b 7ebc aa01 82bc 2871 553c
00000200: 5c7a eabc 4ad0 b8bc ff30 b1bb 7abd 51bd
00000210: 91f9 cc3d 61f9 893d c8c6 49bd b480 1dbd
00000220: 4b5b 093c 9a9c 97bd bb2d c3bd 810f 233a
00000230: 48d5 ed3c c670 bdbd 6f1a 3fbd f6b2 95bd
00000240: 6537 95bd 89c2 2e3d 4aae 433d ccc8 d2bc
00000250: 96e4 c83c 7308 a33d 6354 093d ba1c ec3c
00000260: eaa2 8e3d 6dec c5bd e007 373d f483 49bd
00000270: dfff e4bb 5473 98bc 1a1a 8fbd 2028 0e3d
00000280: 62c0 0b3c 07ff 67bd 9d8a 3d3d c132 b93d
00000290: 0fe0 6f3d a281 7cbd 95ae c1bd 56d0 0ebd
000002a0: 9482 253d e941 ab3d 6057 48bc 9484 96b9
000002b0: 8330 8d3d 3947 9cbd 129f 993d 40f2 b73d
000002c0: 0a25 c5bb 09ef 1bbd 2b3f 0f3d cc65 97bd
000002d0: 6aea 833d 959c 923d 70c6 3cbc 088c 853d
000002e0: 47ec 7fbd 8bd0 6c3d 92b1 5fbd c5d3 a1bd
000002f0: ad9f ca3d f312 b4bc 653d ddbc fec6 073d
00000300: 3b8f 093d aa26 50bc d4c4 c5bc df48 6bbd
00000310: c1d0 2fbd 47a7 1f3c dcf2 463b 808e 033d
00000320: d388 ca3d 8cde c8bd ae88 53bc 2439 3fbd
00000330: 2c69 4bbc 0a4a 9bbc c296 ab3d e247 cabd
00000340: 5b3f 903d 1e22 913d dea2 f63c 9712 35bc
00000350: f7a7 9dbd aeb5 ed3b 5ea5 003d 6360 433d
00000360: 60b9 b4bd fc2b 62bb 9cc9 9ebd 6c09 d13c
00000370: d8ae 8b3d 9b2d b2bd 4fe8 88ba a7d1 98bd
00000380: 5231 9b3d 2a9b 9b3c 5d74 82bc 3e44 d63c
00000390: 971b febc 8307 13bd b7a9 613d 96e4 86bb
000003a0: 7f0b 7d3d 6ea3 1cbc e440 1cbd d6cb 05bc
000003b0: 23b2 99bd 5a68 2b3c 81dd 8cbd 68b6 2e3c
000003c0: 20fd 1d3c 4217 073d 6055 623d 46df 603d
000003d0: 7e70 b03d 1ea4 c73d 90bc c8bd d4c4 84bd
000003e0: 2142 c9bd b8b1 60bd 0cbb c43d db8a 2e3c
000003f0: 0835 1abd efdf c63c 5856 933c d73b 88bc
0.024224011 0.06949142 0.083268814 -0.012742695 0.0893656 -0.07375773 -0.029297318 -0.076456405
-0.07300179 -0.06636902 -0.047546595 -0.06244059 -0.08509275 0.030766912 -0.024920743 -0.091781095
0.06698356 -0.06441776 0.07040029 0.056564257 -0.022281727 0.03154524 -0.0027729091 -0.008153898
-0.060080502 -0.07780652 -0.027401296 -0.046236858 0.0807153 -0.06518256 -0.097404175 0.031794287
-0.036599465 0.09021224 -0.06756173 -0.0006178456 -0.04786882 -0.05225763 -0.013352331 0.02433278
-0.07912359 -0.09917501 -0.0714311 -0.06034538 -0.096203506 0.08199996 0.02284614 0.055840313
-0.06347402 -0.062236555 -0.07879243 0.05286072 0.07800273 -0.052873448 0.09596201 0.04428971
0.022589797 0.030868538 -0.0152096385 -0.09377698 0.084578164 0.055929326 -0.021214118 0.09715803
-0.014618756 0.03646902 -0.01349537 -0.089119405 0.066617735 -0.040323216 -0.071120985 0.07077352
-0.01265077 0.06408786 0.0961618 -0.002927858 0.038231947 -0.09067746 0.07419614 0.03935457
0.082049556 -0.099309295 -0.09231363 0.060329285 0.0257217 0.009953309 0.057202306 -0.07840373
0.0859241 0.058198657 -0.05822904 0.061332125 -0.037125606 -0.018854888 -0.08098519 -0.05456648
-0.04999489 0.036637828 0.053463172 -0.06327768 0.08987597 -0.04204432 0.049086463 0.010708078
0.046305675 0.048945297 -0.012256677 0.058563624 -0.0823531 0.07345099 -0.044884395 0.098063014
-0.04359082 0.029770857 0.029756323 0.061156206 -0.08585845 0.06659866 -0.05538761 -0.031992234
0.03542087 0.030466385 -0.046033103 -0.07431471 0.054083973 -0.015532388 -0.015869934 0.013027467
-0.028622799 -0.022560257 -0.005407452 -0.05120609 0.100085385 0.067370184 -0.04926184 -0.03845282
0.008383582 -0.07402916 -0.09530207 0.0006220267 0.029032364 -0.092500255 -0.04665607 -0.07309525
-0.07285956 0.042665992 0.047773637 -0.025730513 0.02452306 0.07960596 0.033527743 0.028822292
0.06964667 -0.09664235 0.044685245 -0.049198106 -0.00698851 -0.01860968 -0.069874 0.034706235
0.008529754 -0.056639697 0.04627477 0.09042884 0.05856329 -0.061647065 -0.09457127 -0.034866653
0.040407732 0.08362181 -0.012227863 -0.00028709008 0.068940185 -0.07630772 0.075010434 0.089817524
-0.0060163783 -0.03806976 0.03497235 -0.07392463 0.06441195 0.07158772 -0.011521921 0.065208495
-0.06248119 0.05781607 -0.054612704 -0.0790172 0.09893737 -0.021981692 -0.027006814 0.033148758
0.03358386 -0.012704531 -0.024141707 -0.057442542 -0.042923693 0.009744472 0.0030357158 0.03211832
0.098893784 -0.098080724 -0.012911005 -0.046685353 -0.012415212 -0.018956203 0.08378364 -0.09876992
0.07043334 0.070865855 0.030106958 -0.011051795 -0.076980524 0.007254324 0.031407706 0.047699343
-0.0882442 -0.003451108 -0.07753298 0.025517188 0.06820458 -0.08700105 -0.001044521 -0.07461863
0.075777665 0.018994886 -0.015924627 0.026155587 -0.031019015 -0.035895836 0.055093493 -0.004116605
0.06177854 -0.009560449 -0.038147822 -0.008166274 -0.0750468 0.010461891 -0.06878186 0.010663606
0.009642869 0.032981165 0.0552572 0.05490043 0.08615206 0.097481 -0.098015904 -0.064828545
-0.09827066 -0.054856986 0.09605989 0.010653223 -0.03764823 0.024276702 0.017985508 -0.016630096

rnn.bias_hh_l0 f4 [300]
00000000: f6dc 6c3c 6990 953d ad92 50bd b9f3 a53d
00000010: 5315 d43b 5ea6 063d 7a32 8c3c d8bc bdbd
00000020: 0be1 803d 8df9 2b3d 5d65 003d a76f 7e3d
00000030: c76d e9bc b0f8 a3bd e3a2 473d d5e8 81bd
00000040: e74c 74bd b7e4 843d a8a0 603d c104 ab3d
00000050: 6390 5b3b def1 74bc b86b a73b ff12 b5bd
00000060: d433 873d 431d 6fbd c9d5 853c 5c04 7abd
00000070: 2e59 af3c d134 c5bd 1515 a53d 757e 27bd
00000080: 0f28 79bd a00a 6bbd 2102 8fbc a528 abbd
00000090: 7be9 823d 406b f23c 049f 4fbc 9d8e 87bd
000000a0: a5ea 753d 6342 57bd d2e4 243d 4af7 073d
000000b0: 35ee b6bd 1618 f3ba 4882 0b3d c4c3 1e3d
000000c0: 34d3 223d 6819 6dbd 8fee b73d b7f4 4e3d
000000d0: d2a6 b93c c1bc 40bd 0574 2ebd c636 443c
000000e0: 8641 55bc 9043 febc 849e 483d adc0 a8bc
000000f0: a3b0 3f3d 6ffb 3d3c 8f45 c4bc 742c 15bd
00000100: 259b a73d cfbb 32bd 0a92 4e3d 261d 60bb
00000110: f2cf 613c b1f1 82bd 3f58 afbb 0817 063d
00000120: e148 71bd 1dfa c3bd 1247 6dbd 6593 7f3d
00000130: 21f1 d0bc 274f e6bb 6d6c 6b3d 9bc2 9c3c
00000140: cbae 18bd fd8d 063d ec7f b6bd 1139 abbd
00000150: bd14 1b3d ac40 4b3c 6e76 32bd 9e62 c3bd
00000160: b0d4 53bd a724 073d 0400 1b3c 1145 7b3d
00000170: 8072 93bc b68f 1d3d 63d1 4c3d 82e0 ca3d
00000180: 6edf c23d 4903 65bd 6fac 22bb 307c ccbc
00000190: 5472 8a3d 0ea0 d93c 8a81 a6bd 54e2 6a3d
000001a0: 7848 323c 34fe 1dbd d6d2 90bb 9ce5 9abd
000001b0: dcc7 a8bd bb70 b03d 3c19 abbd 41c5 30bd
000001c0: c7cd 413c 8cee aabd 87dc 023c e2f6 03bd
000001d0: edc7 053d 5280 06bd 4e6d d6bc 74c6 24bd
000001e0: 90a7 aebd b1bb ccbd 9c9a 973b 11c1 913d
000001f0: 8a88 32bd bbfa d33c 9798 34bd 0e0b c23d
00000200: 5c48 ddbc 52fe f73c 3f24 c6bb 1005 c53d
00000210: d67e 03bd 734f bebd d5b0 88b9 34f7 85bd
00000220: 0b7d 4d3d 5613 a2bd c1a7 9f3c 35bb c3bd
00000230: 10b2 4d3d bb2a c7bd 1094 933c d292 0d3d
00000240: 0529 273d 95db 62bd 8160 c6bb a818 0b3d
00000250: 7691 c2bd c9a2 30bd 677f 1abc 9c4a b63d
00000260: 8c36 46bd 9134 a0bc 5f7a 3dbc e03c 8ebd
00000270: 4a39 1e3d b170 863d fc80 fa3c 4874 553d
00000280: bbdc 9d3d a185 46bd 7753 113c ed52 8dbc
00000290: ebf2 1abd 41fb 8d3d b466 a5bd fc7b 10bd
000002a0: 48e7 aabd 1afe 72bd e4ed 6f3d 4ccd 69bd
000002b0: 7fe6 083d 5f4d 6c3d d9de 0e3d 32f0 b63d
000002c0: 1170 523d c45c 8dbd 2dec 963d a24b cb3d
000002d0: 24e8 f2bc eb9f 79bd 82e4 3aba d2ca c03b
000002e0: 021b 2a3d 6c2e cb3d 99c0 133d 5fed bcbd
000002f0: f3ae 4e3c e9fe 43bd cc64 613d 9749 52bc
00000300: 8940 e5bb 22a4 583d 6c99 c33c 485d 71bd
00000310: 0e59 54bd 1586 c3bc fc8a 78bd 562b b13d
00000320: 47e6 0e3c 6689 833c 307c fb3c 3ee3 8e3d
00000330: cc80 4ebc 5c90 53bd 3e8e b7bc 2f09 c1bd
00000340: bbac 673d cd3b 46bc a07b 1ebc af56 56bd
00000350: 31ff a83c 9a7f 46bc 48f1 cb3b 71e0 b1bd
00000360: 1842 81bd eb12 3fbc 91f4 83bd 5c63 afbd
00000370: b728 94bd 1062 603d cf08 b3bd 0794 aebd
00000380: af67 753d 4b02 c0bd 425d d5bb a9e4 98bd
00000390: e4be 9ebd 95bb e93b 713c cbbc 4c68 bfbc
000003a0: d0ba 92bd a7a7 36bd 4d02 c53a c283 453d
000003b0: 8464 0e3d d85a eebc 4dd0 8c3b cc0a bbbd
000003c0: ed1e 9fbd 5bee 35bd 8282 583d 01c2 a83d
000003d0: 6640 c1bd 8f5e dabc 7fb3 8cbd 54b1 53bd
000003e0: 3b26 a0bd 7b2f 953d 11cd c2bd bf13 00bd
000003f0: ccdc a53d eea6 5b3d ff6d 97bc a863 8bbc
0.014456978 0.07302935 -0.05092113 0.08103127 0.0064722686 0.032873504 0.017113913 -0.09264535
0.062929235 0.041986037 0.031346668 0.0621182 -0.028494729 -0.08006418 0.048739325 -0.06343237
-0.059643652 0.064889364 0.054840714 0.08350516 0.003350281 -0.014950244 0.0051092766 -0.08841514
0.06601682 -0.058377516 0.016337292 -0.061039314 0.021404829 -0.096292146 0.08060662 -0.040892083
-0.06082922 -0.05738318 -0.01745707 -0.08357362 0.06392189 0.029592156 -0.01267219 -0.06618998
0.060038228 -0.052553546 0.040257283 0.033194818 -0.08932153 -0.0018546607 0.034059793 0.038760915
0.0397522 -0.057885557 0.08981048 0.050526347 0.022662554 -0.04705501 -0.042591114 0.01197595
-0.01301611 -0.031038076 0.048979297 -0.020599687 0.046799313 0.011595591 -0.02395895 -0.036419347
0.08183888 -0.04363614 0.050432242 -0.0034197061 0.013782488 -0.06393755 -0.005351096 0.032736808
-0.058907393 -0.0956919 -0.057929106 0.062396426 -0.025505604 -0.0070284787 0.05747645 0.019135764
-0.03727607 0.032850254 -0.08911118 -0.08360494 0.037861574 0.012405556 -0.043569975 -0.09540294
-0.051716506 0.03299394 0.009460453 0.061345164 -0.017998934 0.03846713 0.050004374 0.09906103
0.09515272 -0.055911336 -0.0024822017 -0.024961561 0.067600876 0.026565578 -0.08130176 0.05734475
0.010881536 -0.038572505 -0.004419665 -0.07563326 -0.08241245 0.08615252 -0.083544225 -0.043156866
0.011828846 -0.083462805 0.007987148 -0.032217868 0.032661367 -0.03283722 -0.026175167 -0.040228322
-0.08528054 -0.09996737 0.004626585 0.071169026 -0.043587245 0.025876394 -0.044090834 0.09474765
-0.027012043 0.030272637 -0.0060468013 0.09620106 -0.032103382 -0.092924975 -0.00026071692 -0.06541291
0.05016808 -0.07913844 0.019489171 -0.09557191 0.05021864 -0.09724947 0.018014938 0.034563847
0.040810604 -0.05538519 -0.0060539846 0.03395906 -0.09500401 -0.043123994 -0.009429789 0.08900949
-0.048391864 -0.019556316 -0.01156482 -0.06945205 0.038628854 0.06564463 0.030579083 0.052112848
0.077081166 -0.048467282 0.008869997 -0.017251456 -0.03782932 0.069326885 -0.0807623 -0.03527449
-0.08344895 -0.05932436 0.05857648 -0.057080552 0.033422943 0.057690974 0.034880493 0.08932532
0.051376406 -0.06902459 0.07369266 0.09926535 -0.029651709 -0.060943525 -0.0007129387 0.005883553
0.041529663 0.09920964 0.036072347 -0.092249624 0.012614953 -0.047850523 0.055027768 -0.012834928
-0.0069962186 0.052890904 0.023876868 -0.05892685 -0.05184274 -0.023867646 -0.06067942 0.08650844
0.008721895 0.016056728 0.030698866 0.06976937 -0.01260395 -0.051651344 -0.022406694 -0.0942558
0.056561213 -0.012099219 -0.009673029 -0.05232876 0.020629497 -0.0121153835 0.0062238313 -0.08685387
-0.063114345 -0.011662225 -0.06443132 -0.08563873 -0.07234328 0.05478102 -0.087419145 -0.08524328
0.059913334 -0.09375437 -0.0065113613 -0.074654885 -0.07751253 0.007132957 -0.024809094 -0.023365162
-0.07164538 -0.04459348 0.0015030593 0.048221357 0.034763828 -0.029096052 0.0042972923 -0.09132919
-0.077695705 -0.044416767 0.052858837 0.08240128 -0.09436111 -0.026656417 -0.06870174 -0.051682785
-0.07819792 0.07284447 -0.095117696 -0.03126883 0.08098754 0.053625993 -0.018485067 -0.017015293

fc_out1.weight f4 [50, 100]
00000000: 8aec 813d ed1f 97bd 0e51 97bd b8e9 29bd
00000010: 5db5 a73d 55b6 3fbd cc6f 8c3d ccf1 5cbd
00000020: 9ee5 e83c 5765 a0bc f6a0 56bd 5cd9 cabd
00000030: 687f 2aba d36b 963c 1d94 443d 79ad 54bd
00000040: 11bc a1bd 53a6 a33c 944a 2e3d 5e0e 2bbd
00000050: 0679 a8bd 1f2d a93d 20d2 82bd 0ad1 763d
00000060: 5a6b 19bc c8ed 71bd c640 043d 60a7 583d
00000070: ca8c 4bbd 1868 c43c d9df c93d 1e19 e6bc
00000080: 010e 8dbd 38d1 d7bc 9499 323d be15 ec3c
00000090: ab75 8fbd 19a3 b3bd 7702 98bd 1831 b3bc
000000a0: 2bfe 3b3c 98c5 f7bc c40d d2bc bd0d 953c
000000b0: c7f4 80bb c5aa 72bd b2ea 49bd 9503 93bc
000000c0: f3e6 c33c 8db2 1abd e5a0 73bc b9a1 563c
000000d0: d739 84bc 55cb fb3a 4c16 353d 88c8 6cb9
000000e0: f0c0 70bd 0a76 083d 1d76 a63d 0467 7bbc
000000f0: 6a6d 82bd 5254 613c 89c8 b5bd 1b4c c53d
00000100: 41b4 0abd 5385 0e3d 3355 193c be1f 343d
00000110: 089a c7bc 737f 353d 024b 963c 7593 683d
00000120: 215a cabd 8a9a 67ba 062d 8b3c 3c8d 8c3d
00000130: 8e8c 9b3d ac88 59bd 6aed e43c 0d73 6e3d
00000140: b9db 83bd 9f38 853c 150f 3fbd 8edf c4bd
00000150: a945 9b3d 6dd2 a4bc 000c aabd f803 533d
00000160: 9bd1 31bd e210 943b eb36 123d 3e63 ca3c
00000170: 5d16 a83c bd36 5e3d dff1 c43d f6af 90bd
00000180: 8221 abbd e041 a93d 5484 523c dd2c 383d
00000190: 8348 4d3d ca70 0c3d d589 b8bb 4137 abbd
000001a0: 4720 843b 3ec1 b83b a9dd 43bd 9379 93bd
000001b0: 479c a5bd 1e74 a53d b442 5d3d 63c2 7f3d
000001c0: 1a69 51bd cdaf 16bc e329 cb3d 2217 b73d
000001d0: 393a 8c3d 5664 9b3d a739 0e3c f0b8 853d
000001e0: d15e bd3d 20e0 c73d ccdb b0bd 6fc8 e73c
000001f0: 9d8d f8bc 7789 493d 7db6 993d 8e0c a7bd
00000200: 2830 813c 2fe2 9b3d 69ef 8d3d fb78 843d
00000210: 0f0e 053d 9a48 24bb 3fa8 993d 6c12 5a3d
00000220: f0f4 9bbd adc8 b9bc 802b b9bc 268b 89bd
00000230: 31a4 8fbd 1ddb ecbc e4c2 bc3d 1210 b3bc
00000240: 1015 8bbd 483c 883c d7e5 abbd 844a 503c
00000250: e299 14bd 5cf1 abbd 8cb6 9e3d 6c73 4e3d
00000260: 9343 82bd e70e fcbc f2a6 9e3d 6711 9f3d
00000270: 6b8e 8bbd 594f 083d ba13 1cbd 0db6 aebd
00000280: 9a4e 15bd d5ab c4bd c19c b23d bc00 c03d
00000290: 6c3a c23d 9c39 9c3d b87d 623d 6a26 a63d
000002a0: 9729 a53d baea c53d aafb 693c 8281 05bd
000002b0: f632 84bd 3e0f 983d dd1d 3ebd 9701 b43d
000002c0: 88c7 2d3d 2a38 1dbd 4353 583d 5677 d03c
000002d0: 305a 563d 4f74 6dbd 0759 103d 0424 dfbc
000002e0: 725a 673c 08eb 4ebc 43be a1ba c2b2 61bd
000002f0: 4eef 7abd 68af 98bb 720b 4abc 4d70 5b3c
00000300: da9f 933d a3b7 413c 0b20 96bd 05f2 8a3d
00000310: 032f 43bd 3bcc bfbc 3132 91bc c60c 383b
00000320: 7ba5 d23c 5d88 803d 217b a3bd e8ec 39bd
00000330: 0500 bfbb e80f 1dbd 581f ac3c 4696 9dbd
00000340: 21c2 8b3d 3290 5bbd 8c13 b2bd e7a2 cfbc
00000350: 71d2 2fbc cd16 bcbd 9822 c83d a1ef adbd
00000360: 061d ffbc 6b1c 533d 7b67 183d 9ae5 e8bc
00000370: b589 3f3d 4d78 6fbd d698 fbbb 59af a8bd
00000380: 02a2 15bb 29ee 84bd 9cdc 183d bf80 3a3d
00000390: 50c2 80bd 7b20 3cbc fbe7 b83d 5ccb 943d
000003a0: 0303 503d 77d9 4abd bda0 b1bc 40e6 06bd
000003b0: 4c1b 49bd 5fa0 93bc 79ec 9bbc 0563 4fbb
000003c0: 0543 7b3d 0c04 95bd 623e 8cbd 21d3 47bd
000003d0: 2719 af3c 5266 34bd 426a 45bd 2dc5 88bd
000003e0: 655c b1bd f090 013a 8e5f 8b3d 3df5 c7bd
000003f0: ba4c 6ebd a1b9 55bc 4051 bb3d bdd4 afbb
0.06343944 -0.07379136 -0.07388507 -0.041482657 0.08188889 -0.046804745 0.06857261 -0.053941533
0.028429803 -0.019579573 -0.052399598 -0.09904739 -0.00065039704 0.018361961 0.047992814 -0.05192325
-0.07897199 0.01997677 0.042551592 -0.04176175 -0.082262084 0.08260559 -0.063877344 0.06025795
-0.0093639735 -0.059064656 0.032288335 0.052893996 -0.049694814 0.023975417 0.09857149 -0.028088149
-0.06887437 -0.02634488 0.043603495 0.028818961 -0.07004865 -0.08771343 -0.07422345 -0.021873996
0.011474173 -0.030245587 -0.02564133 0.018195027 -0.0039354297 -0.05924489 -0.04929609 -0.017946044
0.023913836 -0.037767936 -0.014869903 0.013100081 -0.016140861 0.0019210378 0.044210717 -0.00022581418
-0.05877775 0.033315696 0.08127997 -0.015344385 -0.06368525 0.013753014 -0.0887614 0.096336566
-0.03386331 0.034795117 0.009358692 0.043975584 -0.02436544 0.044311 0.018346313 0.05678125
-0.09880472 -0.0008834979 0.016989242 0.06862876 0.07595168 -0.053108856 0.02794524 0.05821519
-0.06438393 0.01626235 -0.046645243 -0.09612952 0.07581646 -0.02011987 -0.0830307 0.051517457
-0.043412786 0.004518614 0.035696905 0.024705525 0.020518476 0.05425142 0.09616446 -0.07064812
-0.083560005 0.08264518 0.012848932 0.04496466 0.05011798 0.03428725 -0.0056316652 -0.08360148
0.004032168 0.0056382706 -0.047818813 -0.07200923 -0.08086448 0.08078788 0.05401869 0.06244124
-0.051125623 -0.009197188 0.09920099 0.08939959 0.068470426 0.07587497 0.008680738 0.06529415
0.092466004 0.09759545 -0.08635673 0.028293816 -0.030340964 0.049203362 0.0750551 -0.081566915
0.015770033 0.076115005 0.069304295 0.06468388 0.03248411 -0.0025067688 0.075027935 0.053240225
-0.076150775 -0.022678697 -0.02260375 -0.067159936 -0.07013739 -0.028913075 0.0921686 -0.021858249
-0.06791127 0.016630307 -0.08393448 0.012713078 -0.036279567 -0.08395645 0.07749662 0.050403044
-0.06360545 -0.030768825 0.07746686 0.07766991 -0.068142734 0.033278797 -0.03810475 -0.08530817
-0.036451913 -0.09603087 0.08721305 0.0937514 0.09483799 0.076281756 0.055295676 0.08112796
0.08064573 0.09663911 0.014281193 -0.03259421 -0.064550325 0.07424782 -0.0464152 0.08789366
0.042426616 -0.03838364 0.05281378 0.025447529 0.052332103 -0.05797225 0.035241153 -0.027238853
0.014120685 -0.012629278 -0.0012340028 -0.055102117 -0.061263375 -0.004659582 -0.01233183 0.013393474
0.07208224 0.011823568 -0.073303305 0.06784443 -0.047652256 -0.023412814 -0.017724128 0.0028083785
0.025713673 0.06276009 -0.07982469 -0.045391947 -0.0058288598 -0.038345248 0.02101104 -0.07694678
0.068241365 -0.053604312 -0.086951345 -0.025346233 -0.0107313255 -0.091840364 0.09772223 -0.08492971
-0.03114177 0.051540773 0.03720806 -0.028429795 0.046762187 -0.058464337 -0.0076781316 -0.0823657
-0.002283216 -0.06490738 0.037319764 0.045532938 -0.06287062 -0.011482353 0.09028622 0.0726535
0.050784122 -0.049523797 -0.021683091 -0.032934427 -0.049098298 -0.018020807 -0.019033657 -0.0031644714
0.06134321 -0.072761625 -0.06847836 -0.048785333 0.021374298 -0.044042893 -0.04819704 -0.06678233
-0.08660201 0.0004942557 0.06805335 -0.09763572 -0.05817864 -0.013044746 0.091463566 -0.0053659366

fc_out1.bias f4 [50]
00000000: 92f6 a63d 4a87 fcbc 27fc b43d 70ef afbd
00000010: cb0a cbbd d6df 0b3c 8192 123d 8af8 523c
00000020: 700a bf3d 1d5b a73c 1799 ae3b bdea 97bb
00000030: f36b 173d d21b 803d fa48 6b3d aab3 2c3d
00000040: 1f45 cb3d 37d0 b63d ab6d c4bd d49d b23c
00000050: eacf 5f3c 626d 14bc b194 febc 1c0c ad3d
00000060: 98ac 9a3d b0e6 18bc 40c2 3bbd 6017 dab6
00000070: e364 c53d c656 c13d 9310 9e3d a1f3 713d
00000080: f093 b6bd 09d1 133d aa73 2a3d 5c9c a33d
00000090: b727 153d b677 1db9 9b6d 8d3d 026e 353d
000000a0: 3d89 a73d 3598 4cbd 62ba 87bd 374b 5dbd
000000b0: 673a 68bd 1760 1abd fdd0 b7bd 686e 593d
000000c0: e151 95bd 1326 9f3d
0.08152498 -0.03082623 0.08837157 -0.08590591 -0.09914168 0.008537253 0.03578425 0.012876639
0.09328163 0.020429188 0.0053283083 -0.0046361373 0.036968183 0.06255306 0.057442643 0.04216353
0.09925293 0.089264326 -0.0959123 0.021803774 0.01366041 -0.009059282 -0.031076761 0.08449575
0.07552451 -0.009332344 -0.045839548 -6.4996275e-06 0.09638383 0.09440379 0.07718005 0.059070233
-0.089149356 0.036088023 0.041614212 0.079888076 0.03641483 -0.00015017283 0.06905671 0.044294365
0.08180473 -0.049949843 -0.066273466 -0.05402681 -0.05669632 -0.037689295 -0.08975408 0.053083807
-0.07291008 0.07770934

fc_out.weight f4 [2, 50]
00000000: ce6c b3bd 18d4 7d3d 80fe 0d3e dc0e 2dbd
00000010: 74aa babd cc04 e23c fdd7 c9bd b755 9a3d
00000020: d5c9 97bb 33c5 9b3b 961d 67bd 3c86 963d
00000030: cc94 e4bd 0195 053c 84de 4c3d baab 1abd
00000040: f2cb 323d 2a31 a7bd c084 a03b bd86 90bc
00000050: 9f27 743d bf32 a9bd 859c 85bc 00db 05be
00000060: 72f2 b3bd 4005 2bbb 178b 733d 9b9b ddbd
00000070: 0386 6d3c 3b87 72bd 527e 0cbe 15dd 543c
00000080: 18ac 483d d98e ef3d 1ace f63d 7e45 ff3d
00000090: 0984 e0bd dfc7 d0bd d8db e8bd 7edd 90bc
000000a0: 1f81 363d 5534 243d f998 c2bd 3c3e 7a3d
000000b0: 1665 9d3d ddbc 89bd 7cb9 95bd dadb a1bd
000000c0: adb8 ce3d 3332 aa3d c9d1 d3bd 0e2b bebd
000000d0: 95d4 5cbd c0e7 39bb cd6e 8ebd cc3e 9ebd
000000e0: 80fc 2abd 3fd8 d23d 2c27 0e3d 2fe8 c6bd
000000f0: 2215 84bd 7c63 94bd d275 11bd a386 76bd
00000100: c9c7 0f3e 8ea5 133d d824 113e 3bf6 b3bd
00000110: 74eb 90bc 272d 58bd 79f9 8dbd 646a 0bbd
00000120: dd9f ecbd 8ecf f23c 1424 cc3c b8cb e03c
00000130: c622 d5bd 6993 de3d 7404 32bd 52ff 94bd
00000140: ecae 18bd 5174 9abd 4b3b 0b3e 421a 62bc
00000150: 44f4 b03d 70ef 013e 44fe 55bd 10e2 d4bd
00000160: 2bd3 fa3d 18ff 753d 4445 2b3d b7b8 0b3c
00000170: b4b4 f43d 0038 5c3c 524d e73d ea33 0e3e
00000180: 7045 803d 2a9e 0c3e 9dbb 80bb 7da2 b2bd
-0.08760987 0.061969846 0.13866615 -0.0422505 -0.091145426 0.027590178 -0.098556496 0.0753588
-0.0046322145 0.0047537326 -0.0564247 0.07349822 -0.11161193 0.008153201 0.050016895 -0.037761427
0.04365153 -0.08163674 0.0048986375 -0.017642373 0.059608098 -0.08261632 -0.016309986 -0.13071823
-0.08786477 -0.0026095659 0.05945882 -0.10820695 0.014497283 -0.059210997 -0.13720062 0.012992163
0.048992246 0.11697168 0.120510295 0.124644265 -0.10962684 -0.101943724 -0.11370057 -0.01768374
0.044556733 0.04008897 -0.095018335 0.061094508 0.07685296 -0.06725476 -0.07310769 -0.079032615
0.10093818 0.08310356 -0.10342748 -0.09285556 -0.05391367 -0.0028366894 -0.06954727 -0.07726821
-0.04174471 0.10295152 0.034705326 -0.09712254 -0.06449343 -0.07245538 -0.035512753 -0.060186993
0.14041056 0.036046557 0.14174211 -0.08787199 -0.017690398 -0.052777436 -0.06932349 -0.03403701
-0.11553929 0.029639985 0.024919547 0.02744089 -0.10407023 0.1086796 -0.043461278 -0.07275261
-0.037276193 -0.07541717 0.13596837 -0.013800206 0.0864034 0.12688994 -0.05224444 -0.103946805
0.12247308 0.06005773 0.041814104 0.008527926 0.11948529 0.013441086 0.112940446 0.13886991
0.06263244 0.1373221 -0.0039286152 -0.087223984

fc_out.bias f4 [2]
00000000: 1650 8c3d ceac b2bd
0.06851213 -0.08724366

exp_avg f4 [300, 2]
00000000: 2a7d d6b5 9fbf 0ab4 ff68 2bb5 c859 0738
00000010: 9d09 e9b6 ca31 a336 e510 d435 8323 4db8
00000020: 5165 d535 5572 36b8 bee3 9c37 12a7 e3b8
00000030: 0c80 70b6 3bc3 b3b8 0eef 1eb8 5e52 f238
00000040: 2007 22b7 4c6c fc38 87c7 9e36 530e 4ab4
00000050: b618 98b6 b7c3 a836 2f0e 45b7 c611 45b8
00000060: 0ac7 3737 4a1c d6b7 1e25 c0b6 fb55 d2b7
00000070: ca75 de36 aa9c 82b7 2dfb 68b7 cd2d ea37
00000080: be8b adb6 7538 9ab7 75b0 0535 8634 8835
00000090: e4cc 87b6 4c69 0438 f1a4 9f36 c243 9538
000000a0: 472d d836 73d9 c637 3488 fc34 ac95 0b37
000000b0: d404 13b7 8af5 c938 6ecc ca36 2c7c 3838
000000c0: 00d5 0137 5462 bab8 938b 12b8 a4fd 1838
000000d0: 0270 3137 801b 65b8 9e44 aab6 8fea 18b8
000000e0: 2b59 d836 3b7c 0b38 aea1 29b7 b7c2 3938
000000f0: 0a83 8eb7 2832 5cb7 12f9 1437 0fa4 9736
00000100: a8af 02b7 1bc3 a6b8 9f62 9ab6 c1ae 2037
00000110: a013 0a37 4b6a 6637 afbb 93b6 4eb9 e4b6
00000120: 8d8a 0537 1070 0d36 5814 67b5 935a 3137
00000130: 8c75 e0b5 1b6b 4035 e8a0 06b7 00e0 b0b6
00000140: 5ae6 e237 8a9a 3cb8 cc24 7035 d517 dc37
00000150: 6643 e836 3692 bfb8 d614 0536 c79b 4738
00000160: 8a6f 0837 2225 0937 7fc3 3536 ae52 aeb6
00000170: 17c8 24b7 1e11 8d39 07cc 0437 a0a5 26b8
00000180: ac17 0c36 4649 b337 a8dc ecb5 f4d1 1838
00000190: 2452 c6b6 5566 69b8 1db9 8ab6 18d6 b536
000001a0: 9ab7 0637 7e5d ebb8 1116 3eb7 6a5f e2b8
000001b0: 8bfa 36b6 81aa 7237 026f 6cb7 aa9d 6938
000001c0: 8e29 47b6 12d5 0f38 9c4c 20b6 f238 3c38
000001d0: 60bf 3e34 8cf7 20b8 94ef 25b7 0bd3 7c38
000001e0: 18a6 03b5 2286 84b7 983b 6fb6 cb06 fc35
000001f0: 119a ba35 8026 a737 5a2e f036 b569 49b7
00000200: 148a 9f37 fda6 aeb8 f90c 13b7 4b24 71b6
00000210: ed5d e436 a572 bdb7 982b 8437 ec5a 9538
00000220: 248c 7bb7 5619 8fb7 51ba fb35 6ce1 1236
00000230: 658b 2c37 cac8 0ab8 2605 78b7 b3fb 6a38
00000240: 97cc 4236 c7ef df38 7007 15b6 7b0d 93b8
00000250: 6396 dc35 acfb d937 fd30 0837 4cfa 5eb8
00000260: 14f4 4bb7 1c2e 27b7 325a 87b7 49d0 9d38
00000270: 08d2 66b7 30d6 09b8 06df a936 4079 a8b6
00000280: e19e 0338 ef6f 0eb9 9117 bf37 632c 2eb8
00000290: 2146 82b6 057b c237 c892 1936 9854 33b6
000002a0: eab1 6237 139f 2637 866a 5336 40ec 73b6
000002b0: 24f6 96b7 b1ce d2b8 0acd cf36 1daf 9337
000002c0: 74e1 6535 d95d 0db7 8f4c e636 156c afb6
000002d0: 569d 4a36 2b32 b837 00bd 0a37 376b 64b8
000002e0: 6816 1f37 ca6b 9037 153d 69b6 58c5 3d38
000002f0: 73dc 8935 b56b d238 07ed ceb6 eb65 26b8
00000300: ed95 1bb6 52ed 2838 4620 de37 18fe 56b8
00000310: 1c61 0fb7 442a 4b37 8ee1 12b7 2ce5 13b8
00000320: a6b8 3935 6fda 1536 375f 05b4 c599 c1b6
00000330: dc6e be34 3ab1 6533 561f 77b4 d5a0 2db4
00000340: 50da b733 61f9 8736 4ed9 88b5 4499 7c36
00000350: a216 cab4 f49a 68b5 4522 8235 d160 5db6
00000360: 057f 5935 1901 b9b6 934f 56b5 994c 0d36
00000370: b4fa 1034 965a 7634 536f 3d35 2b64 ab35
00000380: 9086 5bb4 bdbb c4b5 b032 ff34 7a3a 2c36
00000390: 8bf3 3634 62a8 4f35 f86f 0433 08db 13b6
000003a0: 2b1b 1632 97b2 37b5 fc7d 3c35 e217 dc35
000003b0: d2e1 b434 491d 8435 af83 8eb4 46fc 28b5
000003c0: 1f89 be35 7a7f be36 f647 4b34 a25f 2eb6
000003d0: 3003 c934 af8b c0b5 2c3e f634 3a91 71b6
000003e0: f054 a631 b171 8336 a203 e3b4 1ea1 6535
000003f0: b278 31b3 d97f 8136 51d5 2334 b81d 7e35
-1.598067e-06 -1.2921963e-07 -6.3855254e-07 3.2270123e-05 -6.9450602e-06 4.8635748e-06 1.5800148e-06 -4.890888e-05
1.5899224e-06 -4.349866e-05 1.87027e-05 -0.00010855323 -3.583732e-06 -8.57175e-05 -3.7892773e-05 0.00011554801
-9.657611e-06 0.00012036468 4.731995e-06 -1.8817927e-07 -4.5328297e-06 5.0295744e-06 -1.1745417e-05 -4.6985013e-05
1.0953992e-05 -2.5523961e-05 -5.726367e-06 -2.5073989e-05 6.629828e-06 -1.557016e-05 -1.3886759e-05 2.7916301e-05
-5.17207e-06 -1.838452e-05 4.980314e-07 1.0148076e-06 -4.047166e-06 3.1569318e-05 4.757771e-06 7.1174945e-05
6.4425726e-06 2.3704697e-05 4.7037759e-07 8.319894e-06 -8.763007e-06 9.630162e-05 6.043868e-06 4.3984663e-05
7.738592e-06 -8.887486e-05 -3.49391e-05 3.6475845e-05 1.0576101e-05 -5.4623466e-05 -5.074383e-06 -3.6458074e-05
6.447682e-06 3.325588e-05 -1.0110829e-05 4.428878e-05 -1.6988739e-05 -1.31247e-05 8.879479e-06 4.5192496e-06
-7.789502e-06 -7.951838e-05 -4.6010387e-06 9.577431e-06 8.23001e-06 1.3733817e-05 -4.4027906e-06 -6.816502e-06
7.959677e-06 2.1075866e-06 -8.608381e-07 1.0571111e-05 -1.6723511e-06 7.168143e-07 -8.024486e-06 -5.2712858e-06
2.7048565e-05 -4.496662e-05 8.9460514e-07 2.6237141e-05 6.921985e-06 -9.1348236e-05 1.9830672e-06 4.7590376e-05
8.132201e-06 8.174482e-06 2.7084895e-06 -5.1952293e-06 -9.821749e-06 0.0002690637 7.915317e-06 -3.9731734e-05
2.0875405e-06 2.1372583e-05 -1.764759e-06 3.6435158e-05 -5.9104223e-06 -5.5646833e-05 -4.1342705e-06 5.419144e-06
8.0297705e-06 -0.000112230875 -1.133002e-05 -0.00010794292 -2.7265949e-06 1.4464023e-05 -1.4092542e-05 5.5698365e-05
-2.9677499e-06 3.4292294e-05 -2.388645e-06 4.4875727e-05 1.7764751e-07 -3.837752e-05 -9.8905475e-06 6.027803e-05
-4.9043e-07 -1.5798087e-05 -3.5648463e-06 1.877744e-06 1.3902919e-06 1.992588e-05 7.1579534e-06 -1.2005145e-05
1.9018575e-05 -8.3280705e-05 -8.764903e-06 -3.5932924e-06 6.805864e-06 -2.2583941e-05 1.5755926e-05 7.121809e-05
-1.4993395e-05 -1.7058726e-05 1.8755183e-06 2.1886908e-06 1.0284454e-05 -3.3088763e-05 -1.4783151e-05 5.602436e-05
2.902734e-06 0.00010678131 -2.220706e-06 -7.012017e-05 1.6435046e-06 2.598561e-05 8.117638e-06 -5.316203e-05
-1.2156572e-05 -9.964711e-06 -1.6135255e-05 7.5251395e-05 -1.375797e-05 -3.2862823e-05 5.062556e-06 -5.0209055e-06
3.13808e-05 -0.00013583874 2.2779948e-05 -4.152617e-05 -3.882466e-06 2.3183888e-05 2.2884215e-06 -2.6722319e-06
1.3512074e-05 9.931408e-06 3.1503455e-06 -3.6347337e-06 -1.7996012e-05 -0.000100520796 6.1929504e-06 1.7605309e-05
8.5637225e-07 -8.4261055e-06 6.8634467e-06 -5.227989e-06 3.0191927e-06 2.195787e-05 8.269446e-06 -5.4459288e-05
9.482355e-06 1.721633e-05 -3.475526e-06 4.5244902e-05 1.0271455e-06 0.00010033642 -6.166872e-06 -3.9672403e-05
-2.3184068e-06 4.0275343e-05 2.647949e-05 -5.125822e-05 -8.546074e-06 1.2109584e-05 -8.754794e-06 -3.5260964e-05
6.918657e-07 2.2329875e-06 -1.2421229e-07 -5.7697494e-06 3.547092e-07 5.3479404e-08 -2.3015068e-07 -1.6170391e-07
8.5613124e-08 4.052345e-06 -1.0196034e-06 3.7640139e-06 -3.76419e-07 -8.665222e-07 9.695729e-07 -3.298792e-06
8.102364e-07 -5.5135574e-06 -7.983701e-07 2.1055223e-06 1.350225e-07 2.294349e-07 7.0569985e-07 1.2769646e-06
-2.0444918e-07 -1.4657777e-06 4.753433e-07 2.5664035e-06 1.7038671e-07 7.735854e-07 3.083548e-08 -2.20322e-06
8.737326e-09 -6.8432695e-07 7.021879e-07 1.6398228e-06 3.369192e-07 9.84329e-07 -2.6545374e-07 -6.2951983e-07
1.4196011e-06 5.6772815e-06 1.8932028e-07 -2.5983686e-06 3.7441487e-07 -1.4345768e-06 4.5866307e-07 -3.5996331e-06
4.840892e-09 3.9173397e-06 -4.2284688e-07 8.5543604e-07 -4.1320796e-08 3.859383e-06 1.5258162e-07 9.466562e-07

exp_avg_sq f4 [300, 2]
00000000: 2a48 f829 e224 d928 7b31 ae2a 89d6 212e
00000010: 97b5 ea2b 2216 9e2b aa07 9b2a 4d88 b32e
00000020: c30f ac2a 0576 8c2e d01f 6a2d 1149 dd2f
00000030: 0e37 912b 144b 892f 3642 602e 6ffc f82f
00000040: 7d88 a22c 9935 0730 43ed 532b b09f c029
00000050: a815 6e2b 7d92 812b d4ae e62c d8dc ad2e
00000060: f22a 922c 6048 c32d dcd7 9e2b 6acb c52d
00000070: b9de d62b ba02 142d 7a1e f22c 43f7 eb2d
00000080: 8801 992b 2c78 6b2d ea40 1b28 6894 5a29
00000090: ce2b 622b 48d1 162e b8dd cd2b c15d 3b2f
000000a0: b1b1 ff2b 3657 ab2d a85a 9528 953c 2b2c
000000b0: 6e97 982c 8bc3 ad2f ffe9 c52b bc6a 902e
000000c0: 92a4 392c c40b 922f 96ac 3f2e 276c 4f2e
000000d0: f812 962c 62dd e12e 00f1 a82b 52c9 522e
000000e0: 4731 e22b 1ffe 2f2e e158 872c e81d 922e
000000f0: 30e8 2f2d 5e6a 0a2d d674 3f2c 6d5d 882b
00000100: bb39 422c 1463 6b2f 4150 532b 7745 842c
00000110: 0994 312c a4c9 fc2c 7841 8b2b 0a8c f02b
00000120: 34e1 152c 9d6d 5c2a 6ac6 7529 85b8 8b2c
00000130: 4eca 9a2a 4a7a 6029 5f37 2d2c 8306 f92b
00000140: d891 e02d caf0 972e 38e3 332a 7b7c d32d
00000150: 3b6e 352c f868 9a2f eed1 b62a 85a6 ac2e
00000160: f8aa 472c d27e 882c def2 e12a 9976 8e2b
00000170: 89e0 632d 0fcc 2a31 f5b1 2a2c fe39 712e
00000180: 7a3a 4e2a aa93 892d f413 5c2a 8da2 432e
00000190: f296 c62b 1ff3 ea2e e7ce 452b 4085 b32b
000001a0: ea4b 802c 11be ea2f 6a0e d02c 4a65 dc2f
000001b0: 2690 ba2a d081 002d 2fdf 012d 5128 e82e
000001c0: 7c23 812b 4a7f 372e 4e71 f72a fe7a 952e
000001d0: df50 df2a 4e33 5d2e 0103 8c2c c15f 0c2f
000001e0: 6f4d d829 7562 172d 5852 2d2b 1297 542a
000001f0: f76c 0e2a 37ca 6c2d e48b 112c c616 b22c
00000200: e2f7 732d 3f36 822f e4b5 792c 5664 ad2b
00000210: 919e e22b da5b 982d d7bd 432d 563f 412f
00000220: 7a09 072d ba61 312d 3761 822a dacf 4a2b
00000230: a886 852c 621e 222e ae85 0e2d fdf2 e92e
00000240: 4eb1 202c 1ec5 d92f 0283 7d2b 3a67 382f
00000250: 856e 1c2a 2882 cb2d 5cc4 582c 9af0 d52e
00000260: 2f34 cf2c 3fc0 8a2c be1f 282d f506 552f
00000270: 04fe f12c 6481 492e 24c0 012c 4abb a52b
00000280: 541d 1b2e 3021 2b30 3dcc 9b2d d303 832e
00000290: 0f42 3b2b cd4e a12d 2289 982a 8f5a 8f2a
000002a0: f058 dd2c 195c 952c c016 d02a c463 ad2b
000002b0: 1304 712d b6b5 c22f 54a5 c02b a4fd 692d
000002c0: 4497 6d29 f9c8 3b2c 39df 052c 99e6 8a2b
000002d0: da09 e72a f5d4 9a2d c58c 552c 497a e02e
000002e0: f1c3 652c e613 492d 6e8d a82b 515f 982e
000002f0: 7f05 822b 50eb bb2f e67f c92b 052c 692e
00000300: 47a0 0e2b e339 722e 880d d32d 4039 c32e
00000310: f2a9 8a2c 6398 ce2c f9d8 482c 0342 3d2e
00000320: 202b b428 805d 422a a8c2 e827 665e a22b
00000330: 37eb b227 545b 0b26 9073 1227 1312 fb26
00000340: 5d85 9727 b6d0 222b f364 2d29 efc5 0d2b
00000350: 8964 df27 e4b5 be29 9c20 1929 b6f4 d62a
00000360: a288 e228 3552 902b cb4f cb28 2cb8 2b2a
00000370: fa1e 6526 b261 9327 3cee e128 ab58 8529
00000380: 95d3 ee26 7dbf ba29 06e9 1128 9c35 862a
00000390: 7570 8827 72f3 0129 fc6e 1827 5ec5 5d2a
000003a0: f351 9925 48c6 9128 678c a328 c7a3 ec29
000003b0: 90a5 ad27 8493 2429 6c67 3227 35e2 8328
000003c0: f06c ba29 7bfa 9f2b a143 f526 c91a 802a
000003d0: 3d3e cb27 0478 a029 d56e 7228 fafd f52a
000003e0: c69d 8b26 4fe9 122b 08cb e227 119a e028
000003f0: 0420 aa27 4385 142b ece4 6626 c959 0b29
1.1025931e-13 2.4107835e-14 3.0942943e-13 3.6797707e-11 1.6677101e-12 1.1232718e-12 2.753885e-13 8.1641895e-11
3.0564275e-13 6.3874274e-11 1.3308424e-11 4.0251583e-10 1.031815e-12 2.49735e-10 5.099051e-11 4.5290302e-10
4.61947e-12 4.918888e-10 7.5291525e-13 8.554214e-14 8.458464e-13 9.20666e-13 6.556403e-12 7.906359e-11
4.1543375e-12 2.2201074e-11 1.1286488e-12 2.2486641e-11 1.5267433e-12 8.413431e-12 6.8814373e-12 2.6826213e-11
1.0871729e-12 1.3384887e-11 8.6183044e-15 4.8534446e-14 8.035212e-13 3.429193e-11 1.4627665e-12 1.7040859e-10
1.8168159e-12 1.9479179e-11 1.6581639e-14 2.4334191e-12 4.336912e-12 3.1607458e-10 1.4062639e-12 6.567322e-11
2.6381436e-12 2.6565605e-10 4.358166e-11 4.716241e-11 4.2653624e-12 1.0271141e-10 1.2004009e-12 4.792728e-11
1.6071943e-12 4.0016098e-11 3.8467983e-12 6.644624e-11 9.999154e-12 7.86801e-12 2.720759e-12 9.689312e-13
2.7601105e-12 2.1408325e-10 7.5073633e-13 3.759378e-12 2.5235389e-12 7.1846574e-12 9.894715e-13 1.7091894e-12
2.1299186e-12 1.9577955e-13 5.4573025e-14 3.9711034e-12 2.7496272e-13 4.984406e-14 2.4615516e-12 1.7694321e-12
2.553062e-11 6.909458e-11 1.5977226e-13 2.4043203e-11 2.5782837e-12 2.8087022e-10 3.2475362e-13 7.851234e-11
2.8374508e-12 3.8794324e-12 4.0136552e-13 1.0122624e-12 1.2953313e-11 2.485425e-09 2.425724e-12 5.4848563e-11
1.8316764e-13 1.5640673e-11 1.9546848e-13 4.448224e-11 1.4110642e-12 1.0684275e-10 7.0275594e-13 1.2755699e-12
3.646407e-12 4.2699402e-10 5.913316e-12 4.0089737e-10 3.314026e-13 7.304782e-12 7.382358e-12 1.05573e-10
9.17585e-13 4.1722438e-11 4.3954635e-13 6.797583e-11 3.9668873e-13 5.029515e-11 3.979373e-12 1.2766944e-10
9.6057595e-14 8.605218e-12 6.157622e-13 1.8881796e-13 1.2649938e-13 1.34599476e-11 2.0683394e-12 5.0615926e-12
1.3867992e-11 2.3685406e-10 3.5485998e-12 1.2320238e-12 1.6102277e-12 1.732119e-11 1.112662e-11 1.7575749e-10
7.675966e-12 1.0082985e-11 2.3160095e-13 7.205327e-13 3.795037e-12 3.686152e-11 8.101448e-12 1.0638777e-10
2.2835791e-12 3.961213e-10 9.0065466e-13 1.6771376e-10 1.3893928e-13 2.3136229e-11 3.0804448e-12 9.728858e-11
5.8890874e-12 3.9435395e-12 9.5567426e-12 1.9374709e-10 6.8778334e-12 4.581703e-11 1.8438662e-12 1.1775938e-12
3.526897e-11 6.22566e-10 1.771216e-11 5.9578696e-11 6.652742e-13 1.8338575e-11 2.709578e-13 2.546474e-13
6.291072e-12 4.2450596e-12 3.6964008e-13 1.232008e-12 1.3700169e-11 3.5417508e-10 1.3688308e-12 1.3300836e-11
5.2755773e-14 2.668586e-12 1.902435e-12 9.869493e-13 4.104068e-13 1.7602345e-11 3.0347263e-12 1.0208063e-10
3.2651627e-12 1.14299455e-11 1.1976373e-12 6.929091e-11 9.238581e-13 3.4182301e-10 1.4317408e-12 5.3017164e-11
5.0670964e-13 5.5075843e-11 2.3993932e-11 8.877743e-11 3.9410636e-12 5.8717905e-12 2.8542153e-12 4.3032255e-11
2.0002717e-14 1.72631e-13 6.4603982e-15 1.1536993e-12 4.9659945e-15 4.8349085e-16 2.0324217e-15 1.7421523e-15
4.205551e-15 5.7843606e-13 3.8501276e-14 5.036795e-13 6.2003934e-15 8.469248e-14 3.400111e-14 3.818384e-13
2.5150295e-14 1.0254632e-12 2.2572132e-14 1.5251748e-13 7.9492316e-16 4.0906618e-15 2.5083336e-14 5.921768e-14
1.6571917e-15 8.293277e-14 8.099646e-15 2.384038e-13 3.786951e-15 2.885491e-14 2.1154402e-15 1.9697219e-13
2.65968e-16 1.6184225e-14 1.8157525e-14 1.0508916e-13 4.819665e-15 3.6543265e-14 2.4758527e-15 1.4642023e-14
8.278957e-14 1.1367152e-12 1.7018621e-15 2.2755953e-13 5.6411297e-15 7.126247e-14 1.34577315e-14 4.3696974e-13
9.687827e-16 5.21934e-13 6.2947728e-15 2.4935811e-14 4.721919e-15 5.27651e-13 8.0107527e-16 3.0942076e-14
