test_dagster/lightning_logs/version_1/checkpoints/epoch=9-step=10.ckpt (torch, 448127 bytes, 24 tensors)

rnn.weight_ih_l0 f4 [300, 2]
-0.027449371 -0.09537346 0.005242302 -0.07398628 0.06356096 -0.08255405 -0.02494874 -0.07930777
0.038080435 -0.047509983 -0.006550128 -0.041632425 0.06402804 0.06749066 0.019465458 0.09490276
0.028021926 -0.0095086275 -0.08707166 0.030599535 -0.022031283 0.09790947 -0.01554471 -0.047441665
0.055013597 -0.08134082 0.014651392 -0.020458128 -0.029051896 -0.014674679 -0.09421233 0.015706396
-0.019388745 -0.005126859 -0.006872159 -0.037450854 -0.009676955 -0.0036587943 -0.03562373 0.07587915
0.0074647204 0.082142755 -0.0795797 -0.023020597 0.06768455 -0.08918521 -0.0078773955 0.031146944
-0.09517178 0.05396816 -0.049780723 0.0066450275 -0.0047981744 0.07591664 -0.005712982 0.0036074724
-0.006295113 0.09083763 -0.059483178 0.060962796 0.071911275 0.08559095 -0.0015645098 -0.009292846
0.0065573025 0.030548157 -0.0025423842 -0.046648823 -0.037840653 -0.04909663 -0.03684355 0.063415356
-0.064582534 -0.0933535 -0.016518906 -0.0252802 0.063093185 0.04347885 -0.05873121 0.029903011
-0.08421482 0.093941316 -0.08037752 0.04538633 0.08551753 0.086109504 -0.07378725 -0.046614565
0.06789029 -0.07482806 0.034681875 -0.064649515 0.100362204 0.0746494 0.0998407 -0.082991645
-0.001645365 -0.018666163 -0.0068595503 -0.061641663 0.098445766 -0.09562848 -0.070167854 0.0385635
0.04552053 -0.06848888 0.03478135 0.09170194 0.004637603 0.045111522 -0.04492578 -0.018833764
0.03159802 0.0049879653 -0.08072588 0.007926578 0.07937447 0.09850033 -0.07156426 -0.0013926517
-0.015290881 -0.041661814 0.0664017 -0.07938776 -0.0008920144 -0.081442334 0.07573613 -0.049220275
-0.006566648 -0.09761339 0.09607564 -0.06411089 0.02381786 -0.08724239 0.018463302 0.053903498
0.03340029 -0.045545567 -0.07679932 -0.074032634 0.089025535 0.018452607 -0.00077391433 -0.038742065
-0.03843253 -0.04058331 0.07181803 0.067744195 -0.091367655 -0.053340327 0.058159232 0.015868414
0.011798358 0.013247004 -0.07522134 0.05546939 0.034428053 0.034370743 0.02483491 0.05506949
-0.072564386 -0.08890875 -0.09340892 0.09643412 -0.09898619 -0.034526076 0.054135818 0.0942647
-0.017671704 0.0052294503 0.05455837 -0.058810465 -0.080392934 -0.00971191 -0.02552797 0.08419535
0.075177185 0.035095666 -0.028354451 -0.044452887 -0.067110136 0.0545398 0.042948395 0.058860295
0.09489549 0.02173547 -0.06831438 -0.05214349 0.047543854 0.0312413 0.033213053 -0.001835733
0.06741088 -0.021048328 0.030259222 0.01482843 -0.0369922 -0.09282322 0.028664768 -0.07014526
0.017680913 0.049011525 0.10061844 -0.09605389 0.06141272 0.01281879 -0.04616719 0.08890551
-0.094546504 -0.08545357 0.03198622 0.020472001 0.099067345 -0.057893883 -0.094965816 0.073461816
0.022481129 -0.030118896 -0.03853617 -0.062091198 -0.081687 -0.015388253 -0.00016057413 -0.02712853
-0.091747835 -0.0020083354 -0.04888963 0.022927329 0.0009270877 -0.022085434 -0.025961438 -0.052842982
0.0708724 -0.07029785 0.06629703 -0.08068729 -0.0590804 -0.056695066 -0.08037283 0.041968197
-0.012030272 -0.07994724 0.09447169 -0.01140532 -0.04478132 -0.07043752 -0.011238312 -0.072679386
0.018123329 -0.030755118 -0.0033014189 0.06565489 0.049426172 0.009430563 -0.07325201 -0.037287988
00000000: 81dd e0bc 2953 c3bd 9ec7 ab3b 1e86 97bd
00000010: 402c 823d 1912 a9bd 4d61 ccbc 1d6c a2bd
00000020: 3bfa 1b3d d499 42bd 75a2 d6bb c386 2abd
00000030: 2221 833d 8b38 8a3d 0676 9f3c 615c c23d
00000040: 3d8e e53c 13ca 1bbc a052 b2bd e0ab fa3c
00000050: f37a b4bc c384 c83d 3daf 7ebc 3152 42bd
00000060: f055 613d 0496 a6bd 640c 703c ce97 a7bc
00000070: 3efe edbc 116e 70bc 65f2 c0bd b3aa 803c
00000080: 25d5 9ebc 36ff a7bb d92f e1bb 1166 19bd
00000090: 178c 1ebc 62c8 6fbb 30ea 11bd 8766 9b3d
000000a0: 9d9a f43b 763a a83d affa a2bd b195 bcbc
000000b0: 339e 8a3d bca6 b6bd 3110 01bc e027 ff3c
000000c0: 6ce9 c2bd b80d 5d3d dfe6 4bbd 88be d93b
000000d0: 013a 9dbb 2f7a 9b3d f733 bbbb 586b 6c3b
000000e0: 3c47 cebb 1409 ba3d a2a4 73bd 20b4 793d
000000f0: 3846 933d 4f4a af3d 3d10 cdba 0541 18bc
00000100: a4de d63b 2140 fa3c 219e 26bb d612 3fbd
00000110: cdfe 1abd 8c19 49bd 43e9 16bd e9df 813d
00000120: d943 84bd 1f30 bfbd a852 87bc 6c18 cfbc
00000130: 0037 813d e116 323d 2390 70bd 29f7 f43c
00000140: d278 acbd 4e64 c03d f89c a4bd 04e7 393d
00000150: d123 af3d 2e5a b03d c51d 97bd eaee 3ebd
00000160: 100a 8b3d 743f 99bd 950e 0e3d f766 84bd
00000170: b38a cd3d c9e1 983d 4879 cc3d 86f7 a9bd
00000180: 4aa9 d7ba c8e9 98bc 14c6 e0bb f87b 7cbd
00000190: ef9d c93d ddd8 c3bd 2ab4 8fbd c3f4 1d3d
000001a0: bc73 3a3d e643 8cbd e476 0e3d 3ace bb3d
000001b0: 09f7 973b dcc6 383d 1804 38bd 4449 9abc
000001c0: ed6c 013d 1672 a33b 9c53 a5bd 7ade 013c
000001d0: 158f a23d 8aba c93d 4890 92bd a389 b6ba
000001e0: 9a86 7abc 94a5 2abd 9dfd 873d 0d96 a2bd
000001f0: 13d6 69ba 3dcb a6bd 8b1b 9b3d 339b 49bd
00000200: 092d d7bb 87e9 c7bd 4ec3 c43d 924c 83bd
00000210: ac1d c33c 23ac b2bd 5a40 973c eac9 5c3d
00000220: bece 083d fd8d 3abd f648 9dbd 6c9e 97bd
00000230: 0553 b63d ec29 973c 83e0 4aba 00b0 1ebd
00000240: 6e6b 1dbd af3a 26bd 5515 933d 78bd 8a3d
00000250: f71e bbbd 637b 5abd 6038 6e3d 7afe 813c
00000260: e64d 413c f609 593c a50d 9abd df33 633d
00000270: 6e04 0d3d 56c8 0c3d 9572 cb3c 8c90 613d
00000280: a39c 94bd ca15 b6bd 2d4d bfbd 407f c53d
00000290: 46b9 cabd 376b 0dbd 85bd 5d3d da0d c13d
000002a0: 40c4 90bc cf5b ab3b 9978 5f3d 3ee3 70bd
000002b0: 0da5 a4bd b41e 1fbc 0920 d1bc 9d6e ac3d
000002c0: 7ff6 993d 79c0 0f3d 9847 e8bc 3b14 36bd
000002d0: 0a71 89bd 2065 5f3d a8ea 2f3d 7e17 713d
000002e0: 9158 c23d 960e b23c 69e8 8bbd 6a94 55bd
000002f0: 58bd 423d c1ed ff3c 690a 083d fa9c f0ba
00000300: b70e 8a3d 8b6d acbc 30e2 f73c f1f2 723c
00000310: 2285 17bd 1a1a bebd 60d2 ea3c 51a8 8fbd
00000320: 90d7 903c 4fc0 483d 0a11 ce3d e7b7 c4bd
00000330: e78b 7b3d e705 523c cf19 3dbd 1814 b63d
00000340: 99a1 c1bd 4802 afbd fc03 033d e6b4 a73c
00000350: d2e3 ca3d 2322 6dbd 707d c2bd 2673 963d
00000360: 582a b83c e7bb f6bc 1ad8 1dbd 5753 7ebd
00000370: 844b a7bd 031f 7cbc ca5f 28b9 a73c debc
00000380: 4ae6 bbbd 479e 03bb 7e40 48bd 18d2 bb3c
00000390: cd07 733a 83ec b4bc 15ad d4bc e271 58bd
000003a0: 8d25 913d 52f8 8fbd bdc6 873d 613f a5bd
000003b0: 4afe 71bd 1639 68bd 839a a4bd d8e6 2b3d
000003c0: 9e1a 45bc 61bb a3bd 607a c13d 61dd 3abc
000003d0: 9e6c 37bd 8c41 90bd e620 38bc eed8 94bd
000003e0: 6077 943c 28f2 fbbc 9e5c 58bb 1276 863d
000003f0: 1973 4a3d a682 1a3c 2605 96bd 4abb 18bd

rnn.weight_hh_l0 f4 [300, 100]
-0.027497929 -0.0942151 0.061586794 -0.07247247 -0.07345251 -0.09968479 -0.068943225 0.05403479
0.03892726 0.04434601 0.05821246 -0.033176973 -0.037095334 -0.062377978 0.062435146 -0.026728187
-0.07461249 0.08461448 0.09919687 0.04098875 -0.09304243 -0.016500957 -0.041812062 -0.07322121
-0.026631039 -0.08401947 0.05294024 -0.043878186 -0.054681376 0.07629179 -0.030744221 -0.07341385
-0.020765685 0.07093706 0.0042948094 -0.026156927 0.056447998 -0.074652106 -0.058203686 -0.033393543
-0.09251474 0.06707828 0.08380275 -0.082677245 -0.07796409 0.07297395 0.09055178 -0.066529214
-0.009385197 0.023549283 0.0667548 -0.047119286 0.0034189017 0.025756462 0.08882764 0.07692949
0.05194304 0.075531326 -0.023430979 0.0046369806 -0.094167836 0.089312874 0.0011733198 -0.04084274
-0.07494201 -0.090293124 0.029983975 -0.06807326 -0.007677333 -0.07982491 0.026109291 0.0016370212
0.07617511 -0.062354755 -0.03218608 -0.0836699 -0.012934517 0.012039263 -0.07064236 -0.070392884
-0.096003756 0.048297033 0.072381996 0.012657714 -0.013052006 0.0750188 0.065773 0.062836826
-0.07095721 0.07556376 -0.053517938 -0.10050844 -0.024036482 -0.028389113 -0.07080986 -0.07322556
-0.066580325 -0.015540059 -0.041850667 -0.08400304 -0.049849868 -0.0968038 0.046147928 0.000950574
0.0530153 -0.006744326 0.081896916 0.039721612 0.024041781 0.0063390895 0.09789312 -0.021468272
0.09261001 -0.011468889 -0.039710093 -0.0863703 0.052879542 -0.033568036 0.057983194 0.043863907
-0.031371918 -0.050620463 -0.055461794 -0.064335056 0.066192076 -0.07624179 -0.021723723 -0.08175807
0.033158902 -0.009594509 -0.09214601 -0.005796752 0.09754409 0.038307518 0.042527195 -0.016708408
0.0387011 -0.03813727 -0.02016252 0.027003014 -0.012118386 0.084665634 -0.083701134 -0.07338133
0.049887635 -0.0034105012 0.061396737 -0.07246927 0.0044762045 -0.043038383 -0.050835587 -0.053013686
0.011227114 -0.09666168 0.066175364 0.06638806 -0.014896245 -0.051473845 0.049149286 0.007299571
-0.019082937 0.016681435 0.02575219 -0.04663541 -0.019516945 -0.08320649 -0.037586614 -0.016283471
-0.020531751 0.097696945 -0.050968725 -0.046200097 -0.08454678 0.047700796 0.05638776 -0.057769787
-0.023708139 -0.09601055 0.033042524 -0.09316578 -0.019276716 -0.09533449 0.09416206 -0.046401426
-0.06353032 0.033331245 0.06330798 0.039518468 0.07060522 0.08582261 -0.08993553 0.034608852
0.037701007 0.07974274 0.005902804 0.046532076 0.075886846 -0.07684094 0.06830475 -0.06125369
0.07907971 0.051390797 0.09908867 0.041111264 -0.043011844 0.062160097 -0.0781411 0.08302146
-0.077445254 -0.037992846 0.028545234 -0.06034508 -0.046561677 0.006518168 -0.09213626 -0.020062368
0.0055835326 -0.080892906 -0.04885526 0.040426515 -0.000570474 0.044134747 -0.07567994 0.080080666
-0.08636497 -0.05253887 0.05264654 0.07070316 -0.013383214 -0.08230259 -0.0716482 0.006452328
-0.02730368 0.0487643 -0.09747455 0.014208814 -0.027695315 -0.075185336 -0.09190839 0.05795368
-0.006528169 -0.012013018 -0.052913323 0.075987376 0.08245831 -0.0945889 0.039441578 -0.00053187646
0.0038272499 -0.013421626 0.048999283 -0.0064989063 0.04542558 -0.021167485 0.017801046 -0.04516128
00000000: 5643 e1bc d9f3 c0bd 6f42 7c3d 726c 94bd
00000010: 456e 96bd 8a27 ccbd 1b32 8dbd 9553 5d3d
00000020: 3172 1f3d 29a4 353d 3070 6e3d 94e4 07bd
00000030: 47f1 17bd 0d80 7fbd ffbb 7f3d 12f5 dabc
00000040: 6fce 98bd 5b4a ad3d bb27 cb3d d2e3 273d
00000050: 088d bebd 042d 87bc 2043 2bbd 00f5 95bd
00000060: 5629 dabc 6612 acbd ddd7 583d 9db9 33bd
00000070: 94f9 5fbd df3e 9c3d 4edb fbbc 005a 96bd
00000080: cc1c aabc 7347 913d 79bb 8c3b 0d47 d6bc
00000090: 0436 673d 34e3 98bd fd66 6ebd abc7 08bd
000000a0: 5e78 bdbd 5660 893d c7a0 ab3d b052 a9bd
000000b0: a3ab 9fbd 5e73 953d 3673 b93d 7840 88bd
000000c0: 5fc4 19bc 6dea c03c beb6 883d 2700 41bd
000000d0: a70f 603b 37ff d23c 44eb b53d 358d 9d3d
000000e0: 3ac2 543d 2bb0 9a3d 53f2 bfbc d0f1 973b
000000f0: 11db c0bd abe9 b63d 14ca 993a b84a 27bd
00000100: 327b 99bd 9aeb b8bd f4a0 f53c fe69 8bbd
00000110: 2392 fbbb 3e7b a3bd 27e3 d53c 5191 d63a
00000120: b201 9c3d b367 7fbd 8dd5 03bd 205b abbd
00000130: 4ceb 53bc 5440 453c f1ac 90bd 252a 90bd
00000140: 9e9d c4bd 1cd3 453d 033d 943d 4d62 4f3c
00000150: 15d8 55bc 75a3 993d ffb3 863d 98b0 803d
00000160: 0452 91bd 2cc1 9a3d a035 5bbd 5ed7 cdbd
00000170: 28e8 c4bc 4990 e8bc c304 91bd 48f7 95bd
00000180: 445b 88bd bb9b 7ebc 9b6b 2bbd c909 acbd
00000190: 602f 4cbd 1241 c6bd 9c05 3d3d f12f 793a
000001a0: 9226 593d 82ff dcbb 92b9 a73d 21b3 223d
000001b0: 45f3 c43c 23b8 cf3b 307c c83d 3bde afbc
000001c0: 51aa bd3d 02e8 3bbc 0da7 22bd e9e2 b0bd
000001d0: 3898 583d a37e 09bd c97f 6d3d a4aa 333d
000001e0: d77f 00bd 6757 4fbd e82b 63bd 19c2 83bd
000001f0: b68f 873d a824 9cbd f3f5 b1bc c670 a7bd
00000200: a1d1 073d 4a32 1dbc 0cb7 bcbd aef2 bdbb
00000210: 32c5 c73d 58e8 1c3d ff30 2e3d 12e0 88bc
00000220: 0b85 1e3d d335 1cbd df2b a5bc 6d35 dd3c
00000230: 328c 46bc 2d65 ad3d 806b abbd f348 96bd
00000240: fa56 4c3d b782 5fbb 257b 7b3d c56a 94bd
00000250: 20ad 923b 0449 30bd fa38 50bd e124 59bd
00000260: eef1 373c 8ff6 c5bd f386 873d 77f6 873d
00000270: 610f 74bc 3dd6 52bd c350 493d 3d31 ef3b
00000280: d253 9cbc 81a7 883c 42f6 d23c c604 3fbd
00000290: 00e2 9fbc 2a68 aabd 6cf4 19bd ea64 85bc
000002a0: 3432 a8bc 5615 c83d 95c4 50bd 503c 3dbd
000002b0: dd26 adbd e961 433d daf6 663d 03a0 6cbd
000002c0: 9237 c2bc 2ea1 c4bd 9957 073d b3cd bebd
000002d0: 34ea 9dbc bb3e c3bd 0ad8 c03d 6c0f 3ebd
000002e0: 2f1c 82bd 5886 083d 9da7 813d 1ede 213d
000002f0: 7899 903d c4c3 af3d 1f30 b8bd 03c2 0d3d
00000300: 5f6c 1a3d 2950 a33d 4f6c c13b 6b98 3e3d
00000310: 906a 9b3d c85e 9dbd 5ce3 8b3d 26e5 7abd
00000320: 8bf4 a13d 287f 523d 00ef ca3d 4964 283d
00000330: 302d 30bd 969b 7e3d 7108 a0bd 2807 aa3d
00000340: 9e9b 9ebd 639e 1bbd b2d7 e93c 672c 77bd
00000350: 75b7 3ebd 5b96 d53b efb1 bcbd d659 a4bc
00000360: 11f6 b63b 2eab a5bd 741c 48bd 4696 253d
00000370: dd8b 15ba a3c6 343d 16fe 9abd 5501 a43d
00000380: 1ee0 b0bd 0033 57bd e6a3 573d d1cc 903d
00000390: 4545 5bbc 438e a8bd 4bbc 92bd 0d6e d33b
000003a0: f8ab dfbc 13bd 473d bda0 c7bd 16cc 683c
000003b0: 49e1 e2bc c5fa 99bd 773a bcbd d760 6d3d
000003c0: 40ea d5bb 40d2 44bc a4bb 58bd 459f 9b3d
000003d0: e7df a83d d3b7 c1bd 7e8d 213d a06d 0bba
000003e0: 99d2 7a3b 61e6 5bbc 79b3 483d c7f4 d4bb
000003f0: 2c10 3a3d 6f67 adbc 80d3 913c 09fb 38bd

rnn.bias_ih_l0 f4 [300]
-0.025707416 0.07234195 0.0071361912 -0.052150574 -0.09101264 -0.098760426 -0.087030336 0.09899151
-0.024086311 -0.07111951 -0.0048326817 -0.05265918 -0.056024007 -0.03961461 0.061178215 -0.05513275
-0.06749729 -0.039371226 -0.082757235 -0.056596115 -0.038741793 -0.025510363 0.072794504 -0.08777434
0.08763717 0.049115345 -0.061569247 -0.020446775 -0.094211556 -0.055788495 -0.08506213 -0.07849716
-0.087049246 0.023350943 0.015693 0.05624052 -0.055826697 0.08150156 -0.016176306 -0.06180066
-0.035813607 -0.023404395 0.0659362 -0.08182285 -0.032769665 0.050205704 0.03397952 0.059108466
0.03967176 0.010130917 0.0041776425 -0.0315877 0.0021207756 -0.0013244849 -0.031689283 -0.013450079
-0.049338315 -0.06950369 -0.046799928 -0.037841823 -0.027420856 -0.053849038 -0.023401324 -0.08793477
0.016528532 -0.031170147 0.09394552 0.07842166 0.033054348 0.01571226 0.03853734 -0.0016906421
-0.021458458 -0.08624661 -0.081693895 0.050229702 -0.08034697 0.07704635 -0.023052031 0.055471793
0.020029288 0.02047848 -0.03817471 0.016925367 -0.05981736 0.010460634 -0.08717404 -0.09658875
-0.041406717 -0.07497243 -0.06529003 -0.06473075 0.080903366 -0.08360938 0.027850606 -0.068516165
0.019759342 -0.03385468 0.009114495 0.003928281 -0.08015933 -0.0038834831 -0.07026666 -0.011323851
-0.0075904736 0.097087786 -0.055448838 0.054538175 -0.055721838 0.084128305 0.09194478 0.06978473
-0.062560126 0.08101675 -0.071894035 -0.041500717 -0.0077503514 0.0601673 -0.04988262 -0.028379733
0.055858284 0.05930034 0.0142864315 0.011491656 0.06288511 0.017696843 -0.012168935 -0.026071168
0.028591989 -0.08435503 0.09481195 0.0821898 -0.047896292 0.098141424 -0.037248407 0.05393571
0.014833706 -0.098083116 -0.025775205 -0.072479054 0.073519416 0.041342393 0.052039772 -0.018936729
-0.024697034 -0.071872234 0.034151677 0.037564132 -0.05955915 0.0037364732 -0.019904992 0.007916208
-0.0038687747 -0.07856754 0.072560765 0.013688504 0.041148014 -0.058317255 0.010690194 0.07794176
0.10032723 0.08444867 0.04524833 -0.07410896 0.049102847 -0.03240079 0.08346112 0.068017825
0.07483959 -0.06626731 -0.039612807 0.053736273 0.00039387305 -0.05286088 -0.03535826 0.011614703
0.039809845 0.022092532 -0.017110096 0.02342105 -0.09071284 -0.033491656 0.08876357 0.028031072
-0.04121218 -0.0010812943 0.07721857 0.08208517 0.045899127 -0.016782232 -0.091846116 0.091699265
-0.03593827 -0.05235878 -0.04786789 -0.0032398426 0.08241158 0.09155405 0.0015529447 -0.09509964
0.09237089 0.020404551 0.030758847 -0.07570867 -0.013186371 -0.0735756 -0.07150197 0.01540222
-0.060868323 -0.042627726 -0.03421453 -0.035601422 -0.07939946 -0.08465098 0.078329764 -0.0100796465
0.027616102 -0.0126677705 0.06131889 0.07031456 -0.07228713 0.04448359 0.05809123 -0.035068605
-0.056699853 -0.0761324 0.020203527 -0.012594741 0.0013495329 -0.09742982 0.0813434 0.023178488
-0.0046185716 -0.0030467545 0.07751865 0.09030371 -0.026542418 0.054484986 0.09072774 -0.0185508
-0.07255349 -0.06696824 0.07603225 -0.071308106 -0.07726805 0.096628204 0.017114548 -0.05554284
0.0302696 0.089878954 -0.0065766205 0.019169843 0.047699407 -0.020641644 -0.012616916 -0.019782592
00000000: 5c98 d2bc 0428 943d b6d6 e93b d79b 55bd
00000010: d664 babd e842 cabd f63c b2bd 10bc ca3d
00000020: a850 c5bc 1ba7 91bd 795b 9ebb 27b1 57bd
00000030: 6e79 65bd ee42 22bd 0296 7a3d e1d2 61bd
00000040: 053c 8abd b943 21bd a07c a9bd 54d1 67bd
00000050: b7af 1ebd 1cfb d0bc 4915 953d 08c3 b3bd
00000060: 1e7b b33d 2c2d 493d 0930 7cbd ff7f a7bc
00000070: fdf1 c0bd 7a82 64bd 0e35 aebd 1ec3 a0bd
00000080: e046 b2bd 7a4a bf3c 9b8e 803c 765c 663d
00000090: 89aa 64bd 4aea a63d 2c84 84bc b022 7dbd
000000a0: 4ab1 12bd 93ba bfbc 8f09 873d bd92 a7bd
000000b0: 7c39 06bd 7fa4 4d3d 1c2e 0b3d b81b 723d
000000c0: db7e 223d 25fc 253c 9be4 883b 1b62 01bd
000000d0: b6fc 0a3b 579a adba 9fcc 01bd b85d 5cbc
000000e0: f916 4abd f357 8ebd 48b1 3fbd 0700 1bbd
000000f0: b4a1 e0bc cf90 5cbd 22b4 bfbc 2517 b4bd
00000100: d866 873c 8958 ffbc 8266 c03d 899b a03d
00000110: ff63 073d ffb6 803c 54d9 1d3d 8998 ddba
00000120: a6c9 afbc 10a2 b0bd 214f a7bd a9bd 4d3d
00000130: f48c a4bd 7aca 9d3d 9dd7 bcbc 6436 633d
00000140: 7614 a43c 7cc2 a73c 165d 1cbd 11a7 8a3c
00000150: 0c03 75bd 1463 2b3c 4e88 b2bd 53d0 c5bd
00000160: 179a 29bd 258b 99bd c7b6 85bd 8e91 84bd
00000170: aab0 a53d 653b abbd f426 e43c 3452 8cbd
00000180: 58de a13c 34ab 0abd f654 153c cfb8 803b
00000190: 932a a4bd 0982 7ebb f7e7 8fbd ac87 39bc
000001a0: 82b9 f8bb f6d5 c63d 521e 63bd 6c63 5f3d
000001b0: 953c 64bd 764b ac3d 8b4d bc3d 4ceb 8e3d
000001c0: 861f 80bd 1cec a53d 2e3d 93bd a8fc 29bd
000001d0: a9f6 fdbb fd71 763d b851 4cbd 9d7c e8bc
000001e0: a8cb 643d eae4 723d a311 6a3c 8047 3c3c
000001f0: e9c9 803d f8f8 903c 3660 47bc 3493 d5bc
00000200: bf39 ea3c 54c2 acbd c52c c23d 2053 a83d
00000210: e72e 44bd 5ffe c83d c991 18bd b1eb 5c3d
00000220: 1309 733c cddf c8bd 8626 d3bc e66f 94bd
00000230: 5991 963d a456 293d a827 553d 3321 9bbc
00000240: 6f51 cabc c031 93bd a1e2 0b3d d9dc 193d
00000250: 4cf4 73bd 9edf 743b cb0f a3bc fcb2 013c
00000260: 458b 7dbb 05e8 a0bd bd9a 943d bf45 603c
00000270: d28a 283d 13de 6ebd ec25 2f3c ee9f 9f3d
00000280: 5d78 cd3d 6df3 ac3d 5056 393d 70c6 97bd
00000290: 1120 493d b1b6 04bd aaed aa3d ee4c 8b3d
000002a0: 8045 993d 28b7 87bd 0a41 22bd 911a 5c3d
000002b0: bf80 ce39 a684 58bd d3d3 10bd 984b 3e3c
000002c0: a60f 233d 66fb b43c 792a 8cbc 80dd bf3c
000002d0: a7c7 b9bd 8c2e 09bd adc9 b53d 6ba1 e53c
000002e0: 1ace 28bd 37ba 8dba c524 9e3d 451c a83d
000002f0: b900 3c3d e47a 89bc d119 bcbd d3cc bb3d
00000300: 0234 13bd 2976 56bd 1f11 44bd 8a53 54bb
00000310: 67c7 a83d b180 bb3d 2d8c cb3a 9ac3 c2bd
00000320: f32c bd3d 7227 a73c faf9 fb3c 260d 9bbd
00000330: a60b 58bc ceae 96bd a06f 92bd 9859 7c3c
00000340: 1051 79bd 699a 2ebd 8924 0cbd ccd2 11bd
00000350: 2f9c a2bd 7e5d adbd 5b6b a03d 1a25 25bc
00000360: 2a3b e23c 7b8c 4fbc 8429 7b3d 1401 903d
00000370: 460b 94bd 6d34 363d 12f1 6d3d 19a4 0fbd
00000380: 1b3e 68bd 4eeb 9bbd de81 a53c 2c5a 4ebc
00000390: cfe2 b03a 4989 c7bd 5e97 a63d d0e0 bd3c
000003a0: 6357 97bb 0fac 47bb 19c2 9e3d 27f1 b83d
000003b0: 7c6f d9bc a62b 5f3d 77cf b93d d9f7 97bc
000003c0: ed96 94bd a526 89bd ccb6 9b3d fc09 92bd
000003d0: b63e 9ebd 02e5 c53d cf33 8c3c e480 63bd
000003e0: f4f7 f73c 7512 b83d b180 d7bb 130a 9d3c
000003f0: 7460 433d aa18 a9bc 2eb7 4ebc 1a0f a2bc

rnn.bias_hh_l0 f4 [300]
0.005427999 0.030007474 -0.033999886 -0.01784012 0.09294286 0.025430141 -0.016449952 -0.040572233
-0.074498124 0.069993794 0.010617834 0.010863161 0.013468404 0.062101252 0.09889 0.0695246
-0.0057796775 -0.051854726 -0.0253949 0.014628602 -0.034285214 -0.015364997 -0.09535759 -0.04964828
0.036416274 0.06124179 -0.025833845 0.0031007777 -0.02830435 0.02153969 0.05523044 -0.02816505
0.07640155 -0.08092275 0.007256128 0.048973106 0.04615931 -0.010110646 0.08683253 0.058073033
0.039219234 -0.051484667 -0.03917671 -0.01546529 -0.0093714865 0.08961867 -0.04551645 -0.044961054
-0.08813745 -0.08024523 0.099903345 -0.046406 0.062155113 0.08673269 0.05152903 -0.067050464
0.04953335 -0.010008116 0.011741563 -0.0049120705 0.063122295 -0.004141154 0.030643173 0.035808895
0.06516425 0.044349954 -0.07034633 -0.08071459 -0.014965625 -0.055710103 -0.04772111 0.017179346
0.07889163 -0.076923154 -0.08917354 0.028002856 0.05403721 -0.09664265 -0.08071058 0.040882327
0.09494706 0.07419358 0.057448614 -0.058302574 -0.08765295 0.012212414 0.07931451 0.06458112
-0.09015414 0.09166527 -0.07042738 -0.092207246 -0.038948562 0.051313482 -0.097673714 0.08495772
-0.0076844143 -0.035389688 0.06655402 0.09030198 0.067422144 0.003297113 0.018421493 -0.0069529093
-0.08775553 -0.010591442 -0.06283467 0.09935931 0.08481293 0.014420122 -0.03657611 0.009518134
0.0124310395 -0.07047626 -0.054028038 0.0050135334 0.094559155 -0.093941726 0.01832547 -0.06480768
0.01807088 0.0842929 -0.034172215 0.00039952985 -0.094027214 -0.019148532 -0.009332683 0.03255078
-0.058825742 0.06101632 -0.042579632 0.017288022 -0.024264367 -0.08300712 -0.00041914455 -0.05350072
0.01287778 -0.09935874 -0.041168872 0.007177511 -0.066502824 0.06134173 -0.009640189 0.096183635
-0.021318547 -0.09358927 -0.08037233 -0.08606105 0.094984815 -0.061042413 -0.044035416 -0.09880719
-0.091696106 0.021034298 -0.09186609 -0.041931946 -0.033304125 -0.088474855 -0.057892647 0.058367748
-0.07484279 0.0235615 -0.082198516 -0.051278006 -0.04054124 -0.06614426 0.061010085 -0.019337537
-0.09349502 0.002720259 -0.06605109 -0.09373679 0.032531567 -0.03978194 -0.0921719 -0.07795537
-0.0999362 -0.015597489 0.03449522 -0.08570795 -0.09729025 -0.09560035 -0.04243 -0.04808135
0.07080373 0.058854297 0.086388625 0.06696049 0.0507166 0.012142257 -0.038596086 0.04751154
0.07621658 -0.04715167 0.03631919 -0.007828473 0.03169141 -0.04021696 -0.0423572 0.025893016
0.030597711 0.019371646 0.09007122 -0.020695763 0.08702919 -0.05248291 0.06475806 -0.086455785
-0.020745754 0.06487833 -0.047274593 -0.06934524 0.037320554 0.079928346 0.09666356 -0.08063088
-0.051596798 0.016842516 -0.07472134 0.053874668 0.06809234 -0.021284962 0.0006802052 -0.09179766
-0.05220967 0.06851828 -0.043035626 0.0906488 0.051341727 -0.09785596 0.0861301 0.053307135
0.08223497 -0.024731325 0.07583381 -0.05194348 -0.01321508 -0.08448332 -0.088185124 0.013878719
0.076180376 0.07390301 -0.043274377 0.09368083 0.013944644 0.037403345 0.05024393 0.043071523
-0.058878798 -0.083752975 -0.06010515 0.07947182 -0.03929154 -0.023684714 0.022346733 -0.032458194
00000000: 5bdd b13b 3cd2 f53c 7743 0bbd 7125 92bc
00000010: d458 be3d df52 d03c 0dc2 86bc 122f 26bd
00000020: 7992 98bd e858 8f3d 6cf6 2d3c 66fb 313c
00000030: 95aa 5c3c e25d 7e3d d786 ca3d ea62 8e3d
00000040: 7363 bdbb 9f65 54bd f708 d0bc ceac 6f3c
00000050: a76e 0cbd 78bd 7bbc d74a c3bd ff5b 4bbd
00000060: 3b29 153d acd8 7a3d 80a1 d3bc 6b36 4b3b
00000070: 86de e7bc 0174 b03c 5039 623d 64ba e6bc
00000080: 6a78 9c3d d4ba a5bd d0c4 ed3b 0698 483d
00000090: 8b11 3d3d 1fa7 25bc 41d5 b13d fddd 6d3d
000000a0: 59a4 203d 96e1 52bd c277 20bd 2162 7dbc
000000b0: dd8a 19bc fe89 b73d 756f 3abd 1529 38bd
000000c0: 6881 b4bd 9c57 a4bd 209a cc3d 3814 3ebd
000000d0: 5c96 7e3d e9a0 b13d 1b10 533d c151 89bd
000000e0: 7be3 4a3d 15f9 23bc af5f 403c 6ff5 a0bb
000000f0: 4346 813d 84b2 87bb 6407 fb3c 59ac 123d
00000100: d674 853d 4ca8 353d bd11 90bd b14d a5bd
00000110: 6132 75bc 4730 64bd 3677 43bd b3bb 8c3c
00000120: ef91 a13d e389 9dbd 9ea0 b6bd 3f66 e53c
00000130: 1f56 5d3d 95ec c5bd 974b a5bd 3a74 273d
00000140: 9b73 c23d cef2 973d 3d4f 6b3d aece 6ebd
00000150: 6483 b3bd 9416 483c a56f a23d 1b43 843d
00000160: bca2 b8bd 00bb bb3d 3b3c 90bd 27d7 bcbd
00000170: 8788 1fbd 162e 523d 2809 c8bd 50fe ad3d
00000180: 8acd fbbb c7f4 10bd 794d 883d 3ff0 b83d
00000190: 9f14 8a3d 6114 583b ace8 963c 3bd5 e3bb
000001a0: 2cb9 b3bd ba87 2dbc 77af 80bd e57c cb3d
000001b0: 67b2 ad3d 6042 6c3c d5d0 15bd f3f1 1b3c
000001c0: 8fab 4b3c db55 90bd 814c 5dbd 9148 a43b
000001d0: 3ba8 c13d 8564 c0bd 4c1f 963c e4b9 84bd
000001e0: 6209 943c c2a1 ac3d 2af8 0bbd fd77 d139
000001f0: 5791 c0bd 62dd 9cbc 1ce8 18bc f753 053d
00000200: 43f3 70bd 40ec 793d fb67 2ebd 9c9f 8d3c
00000210: 11c6 c6bc a3ff a9bd a1c0 dbb9 9223 5bbd
00000220: 53fd 523c 987c cbbd b1a0 28bd 5431 eb3b
00000230: a232 88bd 7741 7b3d e2f1 1dbc edfb c43d
00000240: 3ca4 aebc bbab bfbd 409a a4bd c740 b0bd
00000250: 6687 c23d 9c07 7abd 7b5e 34bd 6d5b cabd
00000260: 2bcb bbbd 1f50 ac3c 4a24 bcbd d5c0 2bbd
00000270: e869 08bd 4e32 b5bd d720 6dbd 0513 6f3d
00000280: 2d47 99bd 0c04 c13c b257 a8bd e308 52bd
00000290: 920e 26bd a476 87bd b6e5 793d c169 9ebc
000002a0: 517a bfbd 5f46 323b cb45 87bd 13f9 bfbd
000002b0: d23f 053d 63f2 22bd 9fc4 bcbd 11a7 9fbd
000002c0: 5aab ccbd 9c8c 7fbc dc4a 0d3d a687 afbd
000002d0: 1c40 c7bd 1eca c3bd 14cb 2dbd f3f0 44bd
000002e0: 8c01 913d 3411 713d 85ec b03d 9522 893d
000002f0: 36bc 4f3d 51f0 463c ee16 1ebd 769b 423d
00000300: 7017 9c3d 1c22 41bd 6ec3 143d ff42 00bc
00000310: dace 013d 8aba 24bd be7e 2dbd 971d d43c
00000320: 0da8 fa3c 49b1 9e3c 4377 b83d 298a a9bc
00000330: 5c3c b23d 52f8 56bd e09f 843d bb0f b1bd
00000340: 00f3 a9bc eede 843d 01a3 41bd e104 8ebd
00000350: 70dd 183d 79b1 a33d 8bf7 c53d ce21 a5bd
00000360: 2a57 53bd 51f9 893c 8007 99bd afab 5c3d
00000370: ff73 8b3d cd5d aebc cc4f 323a 6900 bcbd
00000380: cfd9 55bd 5053 8c3d 2046 30bd 14a6 b93d
00000390: b44b 523d b568 c8bd fa64 b03d 9558 5a3d
000003a0: cf6a a83d 5999 cabc c24e 9b3d b0c2 54bd
000003b0: 1084 58bc 9705 adbd 679a b4bd 9163 633c
000003c0: 7504 9c3d 765a 973d 7940 31bd bcdb bf3d
000003d0: 1378 643c 4034 193d 94cc 4d3d c46b 303d
000003e0: e52a 71bd ae86 abbd d130 76bd 1fc2 a23d
000003f0: 2af0 20bd 7206 c2bc 7f10 b73c e2f2 04bd

fc_out1.weight f4 [50, 100]
-0.0834893 0.054028325 -0.09301126 -0.008879864 -0.084155545 -0.045299493 -0.052734926 0.012804708
0.011572247 -0.093549214 0.020821884 0.08835245 -0.04509974 -0.078352675 -0.02661151 -0.056261826
-0.024307018 -0.00093526713 0.09391965 0.07160954 0.06448489 0.009927786 0.05124198 -0.011626458
0.03548123 -0.06688872 0.0688605 0.06724598 -0.07903896 0.093917504 0.09631545 0.0049059773
0.056642123 0.05033804 -0.07330622 0.089498006 0.00902714 -0.085518755 0.011700519 -0.021254467
-0.08076562 -0.09047494 -0.027637217 -0.040274516 -0.011471089 0.049841728 0.07918067 0.057769712
-0.04538227 0.022743288 0.019994792 -0.0825022 -0.051939525 0.025884908 0.018390026 0.02553069
-0.01621172 -0.028199824 0.044478223 -0.0639218 0.035491936 0.019481396 -0.0974013 -0.0320285
-0.09739353 0.03587461 -0.07382539 0.0020912942 -0.06839144 -0.029642617 -0.04901152 0.037305098
0.020513928 -0.064305715 -0.0029015797 -0.031317562 0.045334104 0.008027537 -0.045962717 0.028399456
-0.06032713 -0.03412094 0.04843355 -0.014001655 -0.0905733 0.07639019 0.042446963 -0.08951591
-0.050135043 -0.010363992 0.08006772 -0.062397763 0.028292214 0.03053355 0.09520298 0.08842036
0.06460268 0.09392075 0.06550245 0.091836125 -0.049161315 -0.04026853 -0.032800376 0.024876798
-0.047131624 0.038827408 -0.022515787 0.014048743 0.018735398 -0.042752184 -0.015847612 0.07620599
-0.09981538 -0.07465557 0.0793136 -0.002076769 -0.059310533 -0.06560427 0.049281728 -0.06474459
0.0755859 0.055615366 -0.09395277 0.04269805 0.07455408 0.040730227 -0.06804531 0.0040845512
0.043574106 -0.0717961 -0.06736437 -0.02065804 -0.00087774993 0.09596425 -0.06469178 0.08717536
-0.04040698 -0.091569535 -0.096115194 0.033827294 0.08645345 0.09402863 -0.096455574 0.04132993
0.007792735 -0.04359522 0.013760924 -0.051595856 -0.066429414 -0.0820499 0.0674153 -0.012619066
-0.09878136 -0.08277615 0.059301842 0.08455844 0.08327699 -0.012282908 -0.04675858 0.03471799
0.0050731422 -0.018078972 -0.029283727 -0.04287691 0.05798166 0.020635081 0.073933914 0.07705174
-0.09305239 0.045790303 0.06148218 -0.006512988 0.033739436 -0.0015905381 0.09166143 -0.08502896
-0.077159695 0.03142902 -0.03175647 -0.07405453 0.019191945 0.043177485 -0.039764464 0.0043575885
-0.07074167 0.02931782 -0.033905413 -0.032646395 0.06341646 -0.06682139 -0.0729021 -0.04470209
-0.084961414 0.012563586 0.021038247 -0.06750734 -0.057249427 -0.09173753 -0.0068976763 0.006935287
-0.02372824 -0.098626636 -0.040488232 -0.0012254 -0.0054839374 -0.057904698 0.023918748 -0.08045981
0.030242682 -0.015426016 0.07717717 0.016069924 0.086525895 0.06924798 0.07790971 -0.07401451
-0.0850863 0.037007105 0.046072792 -0.076054685 -0.04800879 -0.068031035 -0.052345168 0.013767409
0.08608251 0.07369192 -0.08822461 0.065341845 0.06518771 0.035923947 0.09287005 -0.044310797
-0.055491865 0.03270931 -0.022913743 0.01996535 -0.0844244 0.09052499 -0.03753935 0.055752028
-0.075549304 0.015721751 -0.03680239 0.08821755 0.07984209 -0.04184389 0.065908626 0.0732191
-0.08055182 0.076690495 -0.05907893 -0.05068152 0.08709941 0.051342905 -0.004567349 0.02147646
00000000: 70fc aabd ce4c 5d3d b07c bebd d97c 11bc
00000010: be59 acbd f68b 39bd 9400 58bd d7ca 513c
00000020: 8699 3d3c bb96 bfbd a892 aa3c 21f2 b43d
00000030: 81ba 38bd 5e77 a0bd 6200 dabc cd72 66bd
00000040: 831f c7bc b72c 75ba f258 c03d 06a8 923d
00000050: a710 843d 27a8 223c 1ce3 513d e67c 3ebc
00000060: c454 113d f4fc 88bd bc06 8d3d 43b8 893d
00000070: 2edf a1bd d257 c03d 0941 c53d 52c2 a03b
00000080: 9201 683d 432f 4e3d 9221 96bd bb4a b73d
00000090: 92e6 133c 7524 afbd 89b3 3f3c d91d aebc
000000a0: 7268 a5bd ed4a b9bd 7267 e2bc e4f6 24bd
000000b0: 3cf1 3bbc d726 4c3d 7a29 a23d ef9f 6c3d
000000c0: c2e2 39bd 2250 ba3c 1ecc a33c eaf6 a8bd
000000d0: 8abe 54bd 960c d43c aea6 963c bd25 d13c
000000e0: 71ce 84bc 5103 e7bc cc2e 363d 6fe9 82bd
000000f0: fe5f 113d 7397 9f3c 557a c7bd 5130 03bd
00000100: 4276 c7bd 41f1 123d c431 97bd 180e 093b
00000110: d010 8cbd 13d5 f2bc 4ec0 48bd 3bcd 183d
00000120: d30c a83c b7b2 83bd 6e28 3ebb d846 00bd
00000130: 41b0 393d ee85 033c 6743 3cbd faa5 e83c
00000140: 9519 77bd 66c2 0bbd 4262 463d 3367 65bc
00000150: 7f7e b9bd 7672 9c3d dedc 2d3d 1e54 b7bd
00000160: 675a 4dbd bccd 29bc 8bfa a33d cc94 7fbd
00000170: 13c5 e73c 7f21 fa3c c8f9 c23d bc15 b53d
00000180: 694e 843d 8659 c03d 2626 863d 9414 bc3d
00000190: 605d 49bd 9df0 24bd b059 06bd 6dca cb3c
000001a0: 170d 41bd 7d09 1f3d 0773 b8bc b32c 663c
000001b0: fa7a 993c ea1c 2fbd dad2 81bc e311 9c3d
000001c0: 026c ccbd 05e5 98bd 2b6f a23d 671a 08bb
000001d0: 9aef 72bd 885b 86bd a3db 493d d098 84bd
000001e0: c8cc 9a3d f0cc 633d 4f6a c0bd 27e4 2e3d
000001f0: cfaf 983d bdd4 263d 575b 8bbd b3d7 853b
00000200: c37a 323d d509 93bd 55f6 89bd 0d3b a9bc
00000210: cd18 66ba e888 c43d 207d 84bd ff88 b23d
00000220: ca81 25bd cf88 bbbd 0bd8 c4bd 7d8e 0a3d
00000230: 820e b13d 1592 c03d 808a c5bd 9349 293d
00000240: 335a ff3b e790 32bd 8075 613c 2d56 53bd
00000250: 250c 88bd c709 a8bd 0811 8a3d 33c0 4ebc
00000260: e24d cabd 8b86 a9bd 7de6 723d fa2c ad3d
00000270: 208d aa3d 403e 49bc ed85 3fbd 7334 0e3d
00000280: 9a3c a63b 5a1a 94bc 6de4 efbc b39f 2fbd
00000290: 2d7e 6d3d e70a a93c aa6a 973d 4dcd 9d3d
000002a0: 4092 bebd 9d8e 3b3d bdd4 7b3d e76a d5bb
000002b0: 5d32 0a3d 9a79 d0ba fdb8 bb3d aa23 aebd
000002c0: e705 9ebd b7bb 003d 1313 02bd e7a9 97bd
000002d0: 6d38 9d3c e0da 303d 10e0 22bd 1aca 8e3b
000002e0: 02e1 90bd ed2b f03c 67e0 0abd 3ab8 05bd
000002f0: 7de0 813d a7d9 88bd b24d 95bd 8a19 37bd
00000300: 4000 aebd 80d7 4d3c 6758 ac3c 4a41 8abd
00000310: 607e 6abd e3e0 bbbd e705 e2bb 6741 e33b
00000320: ba61 c2bc c3fc c9bd fdd6 25bd 9a9d a0ba
00000330: 9ab2 b3bb 7a2d 6dbd 40f1 c33c 1dc8 a4bd
00000340: 80bf f73c 67bd 7cbc 100f 9e3d 13a5 833c
00000350: 7d34 b13d e3d1 8d3d 208f 9f3d eb94 97bd
00000360: ba41 aebd c394 173d d3b6 3c3d 8fc2 9bbd
00000370: dda4 44bd db53 8bbd e367 56bd b390 613c
00000380: 074c b03d caeb 963d 1baf b4bd f2d1 853d
00000390: 2281 853d fd24 133d a732 be3d 3d7f 35bd
000003a0: 704b 63bd 33fa 053d 9ab5 bbbc 608e a33c
000003b0: b3e6 acbd 2a65 b93d ddc2 19bd 3d5c 643d
000003c0: 98b9 9abd e7ca 803c 1abe 16bd 67ab b43d
000003d0: 4084 a33d 8064 2bbd 1afb 863d e5f3 953d
000003e0: 5af8 a4bd e80f 9d3d c0fc 71bd 6d97 4fbd
000003f0: 2d61 b23d f04c 523d b3a9 95bb 67ef af3c

fc_out1.bias f4 [50]
0.09360332 -0.09987817 -0.0702667 -0.095933095 0.05649641 0.013407546 0.027469432 0.033253245
0.09218734 -0.06055894 -0.012125833 0.00650038 -0.06677423 -0.07024387 0.078613564 -0.0047301175
0.06568036 0.045925338 0.025581975 -0.09443851 0.07377124 0.06800563 0.0820918 -0.023220597
-0.04200445 -0.08123404 -0.028810203 -0.029909944 -0.06271412 0.035245746 -0.022029115 0.088349715
0.026425656 0.060509972 0.06396703 0.09809735 0.025415443 0.058658022 0.038226653 0.0987399
-0.042429745 -0.008201242 -0.08949162 -0.0024091436 -0.05253941 0.011198047 -0.0822835 -0.00063334947
0.048167024 0.045666892
00000000: 19b3 bf3d ed8c ccbd fde7 8fbd 9278 c4bd
00000010: c868 673d 53ab 5b3c 9307 e13c 8e34 083d
00000020: b7cc bc3d a70c 78bd 6eab 46bc 2401 d53b
00000030: edc0 88bd 05dc 8fbd 2600 a13d 1aff 9abb
00000040: 6d83 863d 351c 3c3d 4a91 d13c fa68 c1bd
00000050: 6015 973d 8946 8b3d bf1f a83d 1f39 bebc
00000060: dc0c 2cbd 085e a6bd 6003 ecbc b305 f5bc
00000070: 4370 80bd d85d 103d 6776 b4bc b2f0 b43d
00000080: 9e7a d83c 4ed9 773d 2501 833d 43e7 c83d
00000090: 0c34 d03c 6543 703d 8d93 1c3d 2538 ca3d
000000a0: d0ca 2dbd 815e 06bc 6247 b7bd b9e2 1dbb
000000b0: 9033 57bd 0378 373c 4084 a8bd 5d07 26ba
000000c0: c94a 453d 350d 3b3d

fc_out.weight f4 [2, 50]
0.066934735 -0.019330064 -0.03963522 -0.047774788 0.13792048 -0.1294676 0.0071196924 0.14001508
0.0972313 0.09955287 -0.09337904 -0.03686088 -0.06600232 0.02980832 0.042078152 0.02558833
-0.00999888 -0.13096331 0.04440093 -0.08216758 -0.10430396 -0.09064341 -0.037681147 0.02426988
0.08105934 -0.062148508 0.06288325 0.03253113 0.072441824 0.03373962 0.057462998 0.033079386
0.11570736 0.012736676 0.043012135 0.021955019 -0.11244363 0.1100352 0.05044578 -0.12034064
-0.10786827 0.01946113 -0.061915394 -0.03694934 0.07406444 0.06256023 -0.028132534 -0.10777774
0.110872224 0.108867146 -0.07106449 0.062181085 -0.10463987 0.13490187 0.087075196 -0.08172314
0.025072511 -0.01243836 -0.0036262807 0.11179641 -0.027460905 -0.1392724 -0.07559278 -0.050489057
0.0061742146 -0.115559496 0.12817557 0.08335215 0.06607564 0.08073209 -0.09321031 0.09435568
0.12979576 -0.13961981 -0.13285828 0.03477022 0.060814954 -0.04660882 -0.033044312 -0.086437054
0.05420083 0.061023988 -0.10051963 -0.04915594 0.021091936 0.060403533 0.13713214 0.05863313
0.0130607085 -0.046784893 0.015393615 -0.124094844 0.03339492 -0.017557744 0.124420114 -0.040971186
0.08440689 0.11537112 -0.10557778 -0.13850239
00000000: 1415 893d 155a 9ebc 8a58 22bd 7faf 43bd
00000010: 073b 0d3e 2893 04be 4f4c e93b 1d60 0f3e
00000020: 3421 c73d 60e2 cb3d 833d bfbd 6ffb 16bd
00000030: 392c 87bd 9430 f43c 245a 2c3d 9e9e d13c
00000040: 58d2 23bc 3f1b 06be c0dd 353d 7a47 a8bd
00000050: 519d d5bd 41a3 b9bd 8c57 1abd a1d1 c63c
00000060: 7002 a63d 6f8f 7ebd efc8 803d 5d3f 053d
00000070: 615c 943d 8e32 0a3d 525e 6b3d 407e 073d
00000080: fbf7 ec3d 7ead 503c 7e2d 303d 03db b33c
00000090: d948 e6bd 235a e13d 3ca0 4e3d 2775 f6bd
000000a0: 0aea dcbd f36c 9f3c ff9a 7dbd 3158 17bd
000000b0: 19af 973d 941f 803d 3376 e6bc 93ba dcbd
000000c0: fa10 e33d bdf5 de3d 428a 91bd 98b1 7e3d
000000d0: 6e4d d6bd b723 0a3e 7b54 b23d 765e a7bd
000000e0: de64 cd3c 43ca 4bbc e5a6 6dbb 84f5 e43d
000000f0: b1f5 e0bc 6d9d 0ebe 63d0 9abd 9dcd 4ebd
00000100: 1151 ca3b 75aa ecbd 7540 033e 88b4 aa3d
00000110: aa52 873d de56 a53d 0ce5 bebd 8d3d c13d
00000120: 2ee9 043e 7ff8 0ebe 000c 08be 386b 0e3d
00000130: 1a19 793d e4e8 3ebd 7959 07bd e905 b1bd
00000140: b101 5e3d 4af4 793d 3cdd cdbd bd57 49bd
00000150: ffc8 ac3c b269 773d 5e6c 0c3e 4b29 703d
00000160: 95fc 553c 84a1 3fbd 8035 7c3c 7025 febd
00000170: 1dc9 083d 42d5 8fbc f9cf fe3d 67d1 27bd
00000180: 85dd ac3d b247 ec3d 2a39 d8bd 92d3 0dbe

fc_out.bias f4 [2]
-0.02081144 -0.13631167
00000000: c17c aabc 4995 0bbe

exp_avg f4 [300, 2]
0.000112469 0.00011499544 2.920529e-05 1.2874139e-05 2.2366905e-05 2.4825347e-05 2.2292195e-06 -2.487582e-07
-6.784272e-05 -8.050926e-05 0.00012975119 0.00014623132 9.173726e-06 3.851909e-06 -0.0002517506 -0.00025760982
5.0843875e-05 5.0063827e-05 -1.8145494e-05 -1.9545485e-05 1.5416288e-05 1.5196599e-05 -1.975029e-05 -2.3822597e-05
6.700609e-06 6.7749706e-06 1.5623578e-05 7.2143675e-06 2.0860483e-05 -2.4260326e-06 5.950643e-06 1.0370685e-05
0.00020031298 0.00019197693 4.835265e-05 3.6578378e-05 0.00010501971 0.000108387336 -2.2706086e-05 -1.866433e-05
-9.103236e-05 -9.2117836e-05 2.4198875e-05 2.2248127e-05 4.9322434e-06 9.950576e-06 -4.448008e-05 -5.1613006e-05
9.037289e-05 6.826582e-05 -4.577757e-05 -5.022561e-05 -2.7601342e-07 -1.722634e-05 -0.00017530663 -0.00020415075
-2.2661602e-06 -2.7111164e-06 0.00010296561 0.000105803425 -2.949177e-05 -3.415865e-05 -3.5241803e-05 -4.8682807e-05
0.000116839605 0.00011812056 -1.3423318e-06 3.6192534e-06 -0.000105264095 -0.00011352558 0.00014318718 0.0001318425
1.60077e-06 2.6377556e-06 0.00017504607 0.00015831711 -4.044011e-05 -6.424647e-05 1.1560512e-05 1.665221e-05
9.604601e-05 9.298454e-05 -1.967641e-05 -7.987919e-06 -1.5288622e-05 -1.8390025e-05 -0.00016591224 -0.00016975973
4.9975795e-05 4.3081156e-05 0.00011680267 0.00011644529 -3.327306e-05 -1.9065346e-05 -3.6631875e-05 -3.5206325e-05
-2.9434925e-05 -3.881801e-05 0.00037722042 0.00038858928 1.6090138e-05 1.6505697e-05 4.0270876e-05 3.3228098e-05
-2.278441e-05 -2.5537205e-05 1.892411e-05 2.4307057e-05 1.9232533e-07 -3.1123952e-06 -1.8480932e-05 -1.9640647e-05
1.5671316e-05 1.8195007e-05 -5.830279e-05 -7.523142e-05 -2.4720837e-05 -2.5006422e-05 -2.7535865e-05 -2.4592795e-05
2.6088687e-06 -5.305988e-06 2.4346706e-05 3.9334696e-05 -1.4656124e-05 -1.4452161e-05 -0.00020131256 -0.00019484544
-5.9635277e-05 -4.7390793e-05 -0.00013674909 -0.00012620173 2.7386226e-05 5.2955624e-05 3.9032588e-05 3.8814156e-05
6.117569e-05 6.10867e-05 2.334881e-05 2.6883796e-05 -9.546961e-06 -4.108387e-06 1.27740195e-05 7.1257837e-06
5.189701e-06 5.5204614e-06 -7.739485e-06 1.5162688e-06 -5.3664837e-05 -3.810473e-05 2.095732e-05 2.485407e-06
-1.067882e-05 -2.0699057e-05 0.00013193898 0.0001475692 2.4570465e-05 4.498857e-05 0.0001400963 0.000106378655
-5.677347e-05 -5.862542e-05 -0.00024664064 -0.00025240812 -5.2524738e-05 -3.2413114e-05 6.151011e-05 7.397383e-05
0.00012572492 0.00011469499 -4.153502e-06 5.289e-06 -7.710743e-05 -9.1586524e-05 -0.00017305047 -0.0002017837
9.959015e-06 1.1662587e-05 0.00012604076 0.00011335132 2.7710208e-05 2.4818572e-05 -6.404198e-06 -7.158625e-06
-1.6897799e-05 -1.8351368e-05 0.00016296808 0.00017173299 0.0002484932 0.00024796496 1.4160426e-05 1.4271211e-05
8.3993755e-06 2.6428127e-06 -2.0522113e-05 -1.9492842e-05 0.00021276363 0.0001954171 0.0001746408 0.00018265392
-7.5163107e-06 -7.4664053e-06 -1.201133e-06 -4.6436512e-07 -2.2803122e-06 -2.1066073e-06 -1.0564429e-06 -9.363595e-07
-1.6846454e-06 -2.414057e-06 -1.5344951e-05 -1.5443715e-05 -1.4640891e-05 -1.4992069e-05 1.9399517e-06 1.3098638e-06
-8.458583e-06 -8.204306e-06 1.8261493e-06 2.1187345e-06 -1.6783586e-06 -1.5579964e-06 -7.281399e-06 -6.8916424e-06
-5.431532e-07 -1.7652431e-07 9.653363e-06 9.268714e-06 4.2691963e-07 -4.938328e-07 -1.6512333e-05 -1.7724133e-05
-4.4008993e-06 -5.2603514e-06 4.898094e-07 9.393018e-07 2.4347194e-06 2.0152102e-06 -1.1395662e-06 -7.7358044e-07
-1.1086543e-05 -1.13564565e-05 1.7512342e-06 3.2834391e-06 -3.4635284e-06 -3.3279798e-06 -5.1551106e-06 -5.211609e-06
-1.3450604e-05 -1.21648e-05 -1.5769781e-05 -1.720891e-05 9.268002e-07 1.2746523e-06 9.632786e-06 9.668438e-06
00000000: 56dd eb38 b529 f138 e2fd f437 02fe 5737
00000010: 90a0 bb37 0740 d037 b399 1536 118d 85b4
00000020: c846 8eb8 14d7 a8b8 d20d 0839 ac55 1939
00000030: dae8 1937 a53f 8136 65fd 83b9 ce0f 87b9
00000040: 3241 5538 a0fb 5138 2737 98b7 9cf5 a3b7
00000050: 3a52 8137 e5f4 7e37 6dad a5b7 a3d6 c7b7
00000060: cbd5 e036 8e54 e336 610f 8337 f212 f236
00000070: 8cfd ae37 ecce 22b6 a2ab c736 c1fd 2d37
00000080: 1b0b 5239 6a4d 4939 43ce 4a38 bc6b 1938
00000090: 073e dc38 024e e338 f378 beb7 5891 9cb7
000000a0: a0e8 beb8 632f c1b8 b0fe ca37 7da1 ba37
000000b0: a67f a536 66f1 2637 1f90 3ab8 0b7b 58b8
000000c0: 9386 bd38 ef29 8f38 4b01 40b8 57a9 52b8
000000d0: ff2e 94b4 4981 90b7 84d2 37b9 4d11 56b9
000000e0: 5614 18b6 a0f0 35b6 3eef d738 c8e2 dd38
000000f0: 1865 f7b7 9245 0fb8 99d0 13b8 c430 4cb8
00000100: c907 f538 7eb7 f738 2b2a b4b5 4de2 7236
00000110: 3bc1 dcb8 9514 eeb8 8424 1639 343f 0a39
00000120: 0ada d635 4c04 3136 928c 3739 ed01 2639
00000130: 3d9e 29b8 10bc 86b8 05f4 4137 59b0 8b37
00000140: 4f6c c938 b200 c338 c50e a5b7 da03 06b7
00000150: 1140 80b7 4744 9ab7 baf8 2db9 8801 32b9
00000160: 1a9d 5138 0ab2 3438 f5f3 f438 1734 f438
00000170: ad8e 0bb8 85ee 9fb7 2da5 19b8 81aa 13b8
00000180: 05eb f6b7 85d0 22b8 abc5 c539 92bb cb39
00000190: 4ff9 8637 b775 8a37 86e8 2838 665e 0b38
000001a0: 2621 bfb7 bb38 d6b7 37bf 9e37 02e7 cb37
000001b0: fc81 4e34 8bde 50b6 8007 9bb7 f8c1 a4b7
000001c0: e575 8337 7ba1 9837 258a 74b8 90c5 9db8
000001d0: 985f cfb7 e2c4 d1b7 d2fc e6b7 a04c ceb7
000001e0: 0614 2f36 170a b2b6 273c cc37 4ffb 2438
000001f0: 93e3 75b7 8f77 72b7 6e17 53b9 6d4f 4cb9
00000200: e420 7ab8 7ac5 46b8 4e64 0fb9 0555 04b9
00000210: 79bb e537 ab1c 5e38 ecb6 2338 62cc 2238
00000220: 734b 8038 ac1b 8038 30dd c337 8384 e137
00000230: e32b 20b7 c7da 89b6 ff4f 5637 041a ef36
00000240: 3123 ae36 673c b936 d6d8 01b7 9982 cb35
00000250: 2e16 61b8 a4d2 1fb8 81cd af37 f8ca 2636
00000260: 2f29 33b7 e3a2 adb7 1a59 0a39 cebc 1a39
00000270: ac1c ce37 1cb2 3c38 d0e6 1239 9b17 df38
00000280: 0d20 6eb8 91e4 75b8 8c4f 81b9 a555 84b9
00000290: 024e 5cb8 51f3 07b8 fdfe 8038 6622 9b38
000002a0: 07d5 0339 6788 f038 4f5e 8bb6 2a78 b136
000002b0: bcb4 a1b8 2412 c0b8 e274 35b9 e695 53b9
000002c0: a515 2737 6eaa 4337 cf29 0439 07b7 ed38
000002d0: 3873 e837 7a31 d037 a4e3 d6b6 1f34 f0b6
000002e0: bfbf 8db7 43f1 99b7 69e2 2a39 3913 3439
000002f0: 3148 8239 4b01 8239 9192 6d37 626e 6f37
00000300: 0beb 0c37 2d5b 3136 e726 acb7 8f84 a3b7
00000310: 4d19 5f39 e1e8 4c39 c81f 3739 ca86 3f39
00000320: 9e34 fcb6 ef87 fab6 9e36 a1b5 db4d f9b4
00000330: 7707 19b6 3d5f 0db6 1acb 8db5 235a 7bb5
00000340: fa1b e2b5 2f01 22b6 08b9 80b7 208d 81b7
00000350: 26a2 75b7 7286 7bb7 1e30 0236 94ce af35
00000360: 56e9 0db7 3aa5 09b7 031a f535 952f 0e36
00000370: f643 e1b5 591c d1b5 be52 f4b6 c23e e7b6
00000380: 34cd 11b5 a28a 3db4 e1f4 2137 d380 1b37
00000390: 6333 e534 ee8f 04b5 f783 8ab7 49ae 94b7
000003a0: 70ab 93b6 1382 b0b6 727b 0335 5424 7c35
000003b0: 2964 2336 0c3d 0736 32f3 98b5 0ba8 4fb5
000003c0: 5700 3ab7 9c87 3eb7 f30b eb35 0e59 5c36
000003d0: f76e 68b6 4256 5fb6 10fa acb6 61df aeb6
000003e0: e7a9 61b7 6b17 4cb7 5949 84b7 da5b 90b7
000003f0: 3ac9 7835 b814 ab35 809c 2137 a035 2237

exp_avg_sq f4 [300, 2]
2.8423666e-10 2.972671e-10 2.00254e-11 4.0552696e-12 1.1953762e-11 1.45365655e-11 2.0554841e-13 2.3302164e-14
1.4134476e-10 1.890443e-10 3.6479075e-10 4.658e-10 1.8568424e-12 6.745762e-13 1.5396918e-09 1.607329e-09
5.816012e-11 5.6336363e-11 7.258032e-12 8.346282e-12 5.142814e-12 5.0051382e-12 2.4045793e-11 3.065895e-11
2.7570463e-12 2.5459003e-12 5.9795697e-12 1.260353e-12 2.0753503e-11 4.987986e-12 1.4728466e-12 2.86637e-12
8.9516833e-10 8.200335e-10 5.0517587e-11 2.907099e-11 4.0757472e-10 4.2037926e-10 1.1470599e-11 7.63307e-12
2.0284276e-10 2.0565774e-10 1.2808766e-11 1.0761436e-11 5.9989264e-13 2.1450584e-12 4.385022e-11 5.9011886e-11
1.7836331e-10 1.0175545e-10 5.463122e-11 6.476512e-11 6.06342e-13 9.130295e-12 7.034835e-10 9.562642e-10
4.966555e-13 5.2194257e-13 2.5249386e-10 2.6645558e-10 1.909611e-11 2.5213175e-11 2.7985265e-11 5.356889e-11
3.4844455e-10 3.54469e-10 4.414079e-14 3.6954836e-13 2.5318667e-10 2.9695496e-10 4.569683e-10 3.8410006e-10
2.8885499e-13 5.590873e-13 6.9852496e-10 5.6929866e-10 4.4378636e-11 1.0772849e-10 3.972221e-12 6.7068347e-12
2.928403e-10 2.8565778e-10 8.545221e-12 1.3812701e-12 7.7448065e-12 9.877835e-12 6.291492e-10 6.576362e-10
5.389916e-11 4.0109076e-11 3.0458785e-10 3.0460978e-10 3.7253166e-11 1.7032818e-11 3.2170638e-11 2.9556833e-11
1.8764676e-11 3.3080455e-11 3.2447216e-09 3.4486052e-09 5.9540736e-12 6.17317e-12 3.721308e-11 2.4620656e-11
1.1547165e-11 1.468112e-11 8.844861e-12 1.4739434e-11 4.4995844e-14 2.317085e-13 9.987096e-12 1.1328803e-11
5.3278276e-12 7.2007027e-12 7.423971e-11 1.2554113e-10 2.0746387e-11 2.065765e-11 2.0086054e-11 1.6052333e-11
1.1736844e-12 1.0802572e-12 1.4763666e-11 3.75432e-11 1.0964082e-11 1.041561e-11 8.9235863e-10 8.342435e-10
9.3943936e-11 6.1765246e-11 4.258621e-10 3.6098802e-10 1.6303639e-11 6.1987616e-11 3.6151096e-11 3.5815965e-11
8.112024e-11 8.111968e-11 1.2511312e-11 1.6660534e-11 2.1234039e-12 3.809846e-13 3.903286e-12 1.1270322e-12
5.135134e-12 4.6279816e-12 2.0531261e-12 3.0158363e-13 8.5300336e-11 4.5179548e-11 9.624604e-12 3.2432344e-13
4.389897e-12 9.844215e-12 3.9461132e-10 4.9629323e-10 1.3138031e-11 4.443666e-11 4.842011e-10 2.8389918e-10
7.1982476e-11 7.648073e-11 1.3905302e-09 1.4574871e-09 7.759545e-11 3.2484865e-11 8.4817785e-11 1.2345072e-10
4.034768e-10 3.5074932e-10 4.2656604e-13 6.2012537e-13 1.5144097e-10 2.082616e-10 7.3006895e-10 9.890536e-10
3.6601733e-12 4.3309705e-12 3.5458028e-10 2.854966e-10 1.7813221e-11 1.430132e-11 8.9136175e-13 1.1179098e-12
7.630809e-12 8.32114e-12 5.819339e-10 6.4866534e-10 1.3558887e-09 1.3504355e-09 4.601286e-12 4.654395e-12
1.6835708e-12 1.524247e-13 3.6702374e-11 3.622137e-11 1.1118743e-09 9.483373e-10 7.472535e-10 8.1976476e-10
1.2266547e-12 1.2080673e-12 3.3426292e-14 7.546165e-15 1.1342644e-13 9.644908e-14 2.4324286e-14 1.9664632e-14
8.351997e-14 1.4347859e-13 5.1252076e-12 5.197127e-12 4.7478063e-12 4.9742654e-12 1.43822e-13 8.129366e-14
1.5742248e-12 1.4800752e-12 7.2273994e-14 9.70028e-14 6.1336055e-14 5.270073e-14 1.1456592e-12 1.028686e-12
1.1280555e-14 4.1713514e-15 2.145841e-12 1.966565e-12 1.1884239e-14 2.0881608e-14 6.1771664e-12 7.1163596e-12
4.1797715e-13 5.980068e-13 5.291223e-15 1.9571845e-14 1.2835703e-13 8.80349e-14 2.8107513e-14 1.2955438e-14
2.8641109e-12 3.0246695e-12 1.2498866e-13 3.286518e-13 2.6102896e-13 2.423636e-13 6.50755e-13 6.723538e-13
4.1980937e-12 3.4574045e-12 5.520366e-12 6.567235e-12 1.8545483e-14 3.524799e-14 2.1280215e-12 2.1521038e-12
00000000: c142 9c2f a06c a32f 3125 b02d 9fae 8e2c
00000010: f54a 522d dfba 7f2d 4c6d 672a 22e3 d128
00000020: 0369 1b2f 3ddb 4f2f bc8b c82f c309 0030
00000030: e6a9 022c 57e0 3d2b 179d d330 dde8 dc30
00000040: 79ca 7f2e 1bc5 772e 8a5e ff2c 50d4 122d
00000050: 5af2 b42c 471a b02c 5082 d32d e9d6 062e
00000060: 8802 422c dd26 332c 2d63 d22c 0161 b12b
00000070: bc8c b62d c97f af2c e448 cf2b eeb3 492c
00000080: df0f 7630 ba68 6130 bf2d 5e2e 0db6 ff2d
00000090: 0b11 e02f 1f1b e72f fcca 492d 4b48 062d
000000a0: 2907 5f2f 821f 622f 8e55 612d 3351 3d2d
000000b0: d2da 282b f0f1 162c f5da 402e bdc4 812e
000000c0: cf1c 442f 3ac3 df2e 4945 702e 856b 8e2e
000000d0: 8cab 2a2b 319f 202d 405f 4130 8e6d 8330
000000e0: cdcb 0b2b ede9 122b 5acf 8a2f 4a7c 922f
000000f0: 9ef8 a72d 06c7 dd2d 3729 f62d 3599 6b2e
00000100: 368f bf2f 14df c22f deca 4629 8809 d02a
00000110: db30 8b2f b240 a32f 9238 fb2f 4729 d32f
00000120: 649c a22a 7c5e 1d2b 5302 4030 d57c 1c30
00000130: e72d 432e c0e5 ec2e 96c2 8b2c ccf9 eb2c
00000140: 9cfd a02f c20a 9d2f 4154 162d 8065 c22b
00000150: 823f 082d d0c5 2d2d 70f0 2c30 09c5 3430
00000160: 0f0d 6d2e ce66 302e ee72 a72f 0476 a72f
00000170: 56d7 232e 7fd2 952d eb7c 0d2e 09fe 012e
00000180: 4b0e a52d 487d 112e bff9 5e31 81fc 6c31
00000190: 877d d12c f932 d92c 34aa 232e ca90 d82d
000001a0: cf23 4b2d f122 812d b699 1b2d 41a6 812d
000001b0: ada4 4a29 b770 822a e2b1 2f2d 654c 472d
000001c0: ce74 bb2c 2a5a fd2c 3e41 a32e b008 0a2f
000001d0: b67c b62d e4b4 b52d c6ad b02d a432 8d2d
000001e0: 702e a52b 5e08 982b d2dc 812d e31d 252e
000001f0: d6e1 402d bd3b 372d 284a 7530 ab50 6530
00000200: bc95 ce2e bed2 872e c31e ea2f 8c74 c62f
00000210: 8868 8f2d ed4f 882e 84fe 1e2e 3185 1d2e
00000220: a362 b22e 5262 b22e f119 5c2d 308c 922d
00000230: d86b 152c ab79 d62a ad55 892c 9d9d 9e2b
00000240: 2dad b42c 27d5 a22c d579 102c c8c6 a92a
00000250: d293 bb2e a6b3 462e 5d51 292d ef93 b62a
00000260: ad74 9a2c 672e 2d2d 9bf0 d82f 886b 0830
00000270: 6e20 672d 3b6f 432e a018 0530 4213 9c2f
00000280: 884a 9e2e d32e a82e ef1c bf30 c550 c830
00000290: 5ba2 aa2e b5de 0e2e 2b84 ba2e 4abc 072f
000002a0: 50d0 dd2f 94d3 c02f a522 f02a be8c 2e2b
000002b0: d882 262f 6efc 642f 09ae 4830 3bef 8730
000002c0: e9c7 802c ea61 982c bdee c22f 13f4 9c2f
000002d0: cfaf 9c2d 6b97 7b2d 62e5 7a2b f254 9d2b
000002e0: 1c3e 062d 1563 122d f5f5 1f30 c44d 3230
000002f0: 185a ba30 3a9a b930 b3e4 a12c 10c3 a32c
00000300: 08f1 ec2b 6e9d 2b2a 336b 212e a34d 1f2e
00000310: 99d0 9830 a756 8230 4a67 4d30 d155 6130
00000320: e5a2 ac2b 3605 aa2b e489 1629 8bf0 0728
00000330: e469 ff29 1c2f d929 fc17 db28 8e1f b128
00000340: fc11 bc29 e38a 212a c453 b42c 8fdb b62c
00000350: 700c a72c 3304 af2c dfed 212a 9b0e b729
00000360: 6d8d dd2b 544d d02b 1fbf a229 4f6e da29
00000370: d41d 8a29 ce57 6d29 b93c a12b 52c6 902b
00000380: 6136 4b28 ed49 9627 0900 172c 7c62 0a2c
00000390: 6116 5628 b615 bc28 f856 d92c 7862 fa2c
000003a0: db4c eb2a ee52 282b eba2 be27 9a49 b028
000003b0: 6584 102a aa3c c629 832b fd28 6a62 6928
000003c0: 3c8b 492c 9ad7 542c 87b9 0c2a b703 b92a
000003d0: 3df2 922a 4770 882a d72b 372b 3240 3d2b
000003e0: 11b5 932c 104b 732c 093b c22c 6510 e72c
000003f0: f90a a728 2abe 1e29 07bf 152c db70 172c
