dagster_ais/mlruns/0/38cff59ba7a14b0b95d71135afde002b/artifacts/prediction_model/data/model.pth (torch, 157327 bytes, 8 tensors)

weight_ih_l0 f4 [300, 2]
000000 63 d5 9e bd f3 a7 08 bd fd 19 b2 bd 9d 43 a1 bd
       -0.07755544 -0.033363294 -0.08696363 -0.07874224
000010 ad e3 1f 3d 00 ee 01 bc 7f a4 84 bd 4d cd 61 3d
       0.039035488 -0.007930279 -0.06476688 0.05512743
000020 b3 ee aa 3d c2 ef 8c 3d 67 f8 b1 3a 0d 8e de bc
       0.083463095 0.06881668 0.0013578058 -0.027167344
000030 cd 01 11 3d ea a0 0e 3d 42 84 b6 bd e5 fd 86 bd
       0.035402108 0.03482143 -0.08911945 -0.06591395
000040 db dc b6 3d 8d 95 76 bc 9b 90 ca bd 70 89 94 3d
       0.089288436 -0.015050304 -0.098908626 0.072527766
000050 50 41 1e bd 15 42 a7 bd 1a 6f 48 3d eb ed a2 bd
       -0.038636506 -0.08166901 0.04893408 -0.079555355
000060 e7 01 e2 3b 22 e8 93 bd c0 58 25 bd cd a9 df bc
       0.0068971994 -0.0722201 -0.04036784 -0.027302647
000070 c7 f7 d4 bc a3 4e 31 bd 73 a2 2a bc b0 86 00 bd
       -0.025997056 -0.043287884 -0.0104147075 -0.031378448
000080 bb 85 b6 bd 5a 0d fb bc 93 60 7d bd fd 7c 8f 3d
       -0.08912226 -0.030646015 -0.06185968 0.070062615
000090 65 9e bb bd 8a 58 a6 bd a3 de 98 3d ba c7 42 3d
       -0.09161071 -0.08122356 0.074643396 0.047553755
0000a0 5a 88 b7 bc 9a 09 e0 3a 4d d4 8c bb f7 a9 3a bd
       -0.022403885 0.0017092705 -0.004297769 -0.045572247
0000b0 cd 8a aa bc dd bf 6b 3d 3a 26 88 bc 7a b1 b4 3c
       -0.020818138 0.057556022 -0.01661979 0.022057284
0000c0 20 22 c3 3c 23 f1 b6 bd aa a5 7f bd ed 4d a5 bd
       0.023819983 -0.08932712 -0.06241385 -0.08071504
0000d0 90 39 b1 bd ed e8 5f bd df 33 c7 3d f7 73 63 3d
       -0.08653557 -0.054665495 0.097266905 0.055530515
0000e0 4d 70 9c bc 33 d6 69 3b 87 04 a4 bc 70 85 53 3d
       -0.019096518 0.0035680651 -0.02002169 0.051640928
0000f0 03 66 49 3d 8d 1c 8b bc e5 4b b5 3d fd 2b a8 3d
       0.04916955 -0.016981388 0.08852366 0.08211515
000100 0d 55 7d bd 08 cb c8 bd dd 58 8f bd 1d 1b 34 3d
       -0.06184869 -0.0980435 -0.06999371 0.04397117
000110 00 51 76 3d 0a 85 36 3d f3 42 b6 bc b3 11 ec bb
       0.06013584 0.04456047 -0.02224872 -0.0072042583
000120 ed 90 b6 3c 2d 1d a3 3c cd d0 bd bb 87 2a a3 bd
       0.022285903 0.019911373 -0.0057927133 -0.07967096
000130 cd ae 91 bd a7 8c 15 3c 3d 18 99 3d e3 ac 76 3d
       -0.07113419 0.009127772 0.07475326 0.06022347
000140 20 55 18 3d 0d 6c 43 bc 33 12 25 bb f0 2b 4a 3d
       0.037190557 -0.011927617 -0.002518785 0.04935831
000150 03 ba 05 bd 55 5d b9 bd da 75 59 3d 03 4e 2f 3d
       -0.032648098 -0.09051005 0.053090908 0.042799007
000160 5a 8e 78 3d f2 fe 9c 3d 80 eb 15 bc ed bb a4 bd
       0.060682632 0.076658145 -0.009150386 -0.080436565
000170 fb 39 c6 3d 68 70 b3 3d f3 90 e8 3c 18 76 90 bd
       0.09679028 0.08761674 0.02838943 -0.070537746
000180 f2 f0 c8 3d 00 8d 34 3b 48 4e 82 bd c8 f6 a4 bd
       0.09811582 0.0027549863 -0.06362587 -0.08054882
000190 ad e9 be 3c 9a cf a2 bc 1b ef 9a 3d 13 0c 32 bd
       0.023304785 -0.019874383 0.07565137 -0.043468546
0001a0 fd 25 3f bd 5b d7 b2 bd 93 dc de 3c 70 4f a3 bd
       -0.046667088 -0.08732482 0.027204787 -0.07974136
0001b0 b5 06 8a bd b3 65 20 3c ed 5c ca bc cd 7a 0c 3b
       -0.067395605 0.009789872 -0.024702514 0.00214355
0001c0 9a 36 24 bd f3 bb 59 3d 80 65 62 3d 6f 98 93 bd
       -0.040091135 0.053157758 0.05527258 -0.07206809
0001d0 13 a0 5a 3d 30 06 44 3d 2a 53 0d 3d 1d 78 97 3d
       0.053375315 0.047857463 0.03450314 0.07395957
0001e0 40 ec 67 3d 30 9f 28 bd 93 b1 4b bd 45 d5 96 bd
       0.05662179 -0.041167438 -0.049729895 -0.07364897
0001f0 65 1e b6 bd 1a ec b8 bd 1d 25 4c 3d b3 69 4e bd
       -0.08892516 -0.09029408 0.04984008 -0.05039377
000200 87 b4 b0 3c c7 ca 11 bd fb 02 bf 3d b0 be 21 bd
       0.021570457 -0.035593774 0.0932674 -0.039488494
000210 ca 44 4a 3d f3 f5 81 3c f0 da 4e bd 00 b0 11 3d
       0.04938201 0.015864348 -0.050501764 0.035568237
000220 5d 64 60 bd 67 76 56 b9 80 fa 47 bd 73 0a 30 bd
       -0.054783214 -0.00020452739 -0.04882288 -0.042978715
000230 62 f2 86 bd e0 d2 eb 3c 22 49 8d 3d fd de 17 3d
       -0.065891996 0.028787076 0.068987146 0.037077893
000240 5b 31 b5 bd c5 b2 c4 3d 7d 42 3d bd 9a cb 6d bc
       -0.088473044 0.0960441 -0.046205986 -0.014513874
000250 a0 9e 05 3d 8a b3 6c 3d 93 ca 40 3d 60 29 8b 3d
       0.03262198 0.05778841 0.04706819 0.06795001
000260 93 44 74 bd b2 3d ac 3d cd 84 3d bc 33 86 a0 bd
       -0.05963571 0.08410205 -0.011567307 -0.078380965
000270 50 14 53 bd cb cf b2 bd df c1 8b 3d cd f5 69 3c
       -0.051533043 -0.087310396 0.06824087 0.014279795
000280 cd c2 38 3c 30 ad 4e bd 00 3c 38 bd 8f 41 c3 3d
       0.011276913 -0.050458133 -0.044979095 0.09533989
000290 b3 ec 20 3c a7 2e 5a 3d 00 d8 3e bd b0 8c 6c bd
       0.0098220585 0.053267147 -0.046592712 -0.057751358
0002a0 e3 88 7d bd bb c0 a0 3d 4a 5a b8 3d 00 1c c7 3d
       -0.061898123 0.078492604 0.09001596 0.097221375
0002b0 87 ec af 3d a3 5c 8e bd 88 b0 92 bd f3 b9 98 bc
       0.08590036 -0.06951263 -0.07162577 -0.018643355
0002c0 13 05 83 bd fa 7d 97 3d 1d fb 7b 3d cd f6 a5 bb
       -0.06397452 0.07397075 0.061518777 -0.0050648213
0002d0 b3 c9 d4 3b d7 5b 7c bd 10 e6 30 bd 5a a5 18 3c
       0.006493771 -0.061611023 -0.043188155 0.009316767
0002e0 4d 58 ca bd ea 52 79 bd 2a 17 45 bd c0 22 24 3c
       -0.09880123 -0.06087009 -0.048117794 0.010018051
0002f0 ad 66 19 3d 27 47 6c bd a7 2c b3 bc 83 7c 01 3d
       0.037451435 -0.057685044 -0.021871878 0.031612884
000300 50 f6 03 bd 9a 31 3e 3c 9d db 62 3d 6f c5 ac bd
       -0.032217324 0.011608506 0.05538522 -0.08436095
000310 ca 66 36 bd 4d f4 19 3d b3 b5 69 3c 00 a6 68 3d
       -0.04453162 0.0375865 0.014264512 0.056798935
000320 37 66 32 bd 97 1b a9 3d 67 26 b0 3a 6d bd b7 3c
       -0.04355451 0.082572155 0.0013439179 0.022429192
000330 cd 71 01 bd 9a be be bc e7 21 83 3b 00 e8 bd b9
       -0.03160267 -0.023284245 0.004001844 -0.00036221743
000340 e7 57 82 bd d8 19 ab bd 93 e7 9d 3d 70 5c 8d bd
       -0.06364422 -0.08354539 0.07710185 -0.06902397
000350 70 cb 75 3d e7 41 c0 bb f8 fc b5 bd 00 7c ab bb
       0.060008466 -0.005867231 -0.088861406 -0.005233288
000360 00 96 c6 ba 17 21 1b bd c7 86 00 3d f0 8f 99 bd
       -0.0015150905 -0.037873354 0.031378534 -0.07498157
000370 5a 70 f3 3c 3d f0 7f bd df 65 bc 3d 67 b7 7c bb
       0.02971666 -0.06248497 0.09199118 -0.0038561465
000380 3a 10 cc 3c cd e0 54 3b 40 7c 3e bd 1f df ad 3d
       0.024910081 0.0032482625 -0.046505213 0.084898226
000390 d5 b5 bf bd 1f 0b 9e 3d 6b 5c 9a 3d 4f 34 9d bd
       -0.093608536 0.07716965 0.075371586 -0.07675993
0003a0 65 a2 be 3d 53 d0 60 bd 00 2f 9c 3b da 19 fd bc
       0.09308318 -0.054886173 0.004766345 -0.030896116
0003b0 0d 5c 40 bc 6d 8c 3f bd 47 87 cf bc 63 d2 3f bd
       -0.011740697 -0.04676478 -0.02533306 -0.0468315
0003c0 ba b9 88 3c 07 5b bd 3c 23 3a 1d 3d 8d 52 af 3c
       0.016690124 0.023114694 0.03838552 0.021401668
0003d0 10 2d 8a bd ad 32 3e 3d ed 35 1d bd 08 b6 cb bd
       -0.06746876 0.046435047 -0.038381506 -0.09946829
0003e0 00 38 4f 3c 60 96 8a bd ed 26 3a bd 5d 6e 91 3d
       0.012647629 -0.06766963 -0.04544728 0.07101128
0003f0 9a 47 42 bd fb 52 b6 3d a7 5f 02 3d e7 93 b9 bc
       -0.047431566 0.08902546 0.031829502 -0.022653533

weight_hh_l0 f4 [300, 100]
000000 57 3c 78 bd ad c7 7f bd 60 98 c5 bd 6d 0f 88 bd
       -0.06060442 -0.062446285 -0.09648204 -0.06643567
000010 73 ff b3 3d 6a 9c 9b 3d 7d 2c 7f bd f3 f2 5d 3c
       0.087889574 0.07598193 -0.062298287 0.013546693
000020 e7 98 a4 3b f7 a5 cc 3d b3 ba c7 3d 27 9a 43 3d
       0.00502311 0.09992593 0.09752407 0.047754433
000030 48 a5 c1 3d 5b 2d b8 bd 4d d7 37 3c eb 23 97 bd
       0.09455353 -0.08993026 0.011220765 -0.07379898
000040 da dc 45 bc 07 c1 a0 3d dd be 90 3d 77 67 4e bd
       -0.012076581 0.07849317 0.07067654 -0.05039164
000050 80 48 db bb dd 0a bc bd 6a 92 95 3d 07 03 e7 bc
       -0.0066919923 -0.091817595 0.07303317 -0.028199686
000060 33 31 8e 3c 85 50 83 bd 40 2f e4 3c c0 f8 ae 3c
       0.017357444 -0.06411842 0.027854562 0.021358848
000070 ba ba ae bc 40 ae 2d bd 35 83 ae bd 05 2b ac 3d
       -0.021329273 -0.042402506 -0.085211195 0.08406643
000080 4d eb d0 bc 1a d0 b0 bd ea 7a 61 bd 42 52 82 bd
       -0.025502825 -0.08633442 -0.05504886 -0.06363346
000090 e7 9b ff bc 1a a2 8b bc e0 c6 a8 3c c7 ec a9 3d
       -0.03120227 -0.01704507 0.020602643 0.08297115
0000a0 87 7e 67 3d d7 1f 19 bd 70 f7 5f bd 1a 6d 9f bd
       0.05651715 -0.03738388 -0.054679334 -0.07784481
0000b0 43 fd 90 bd 9a 2e 2a 3c 27 d5 57 3d 08 e3 b3 3d
       -0.07079556 0.010387087 0.052693512 0.08783537
0000c0 f3 c6 fe bc f7 a0 78 bd e7 a0 06 3d 00 36 dd 3c
       -0.031100726 -0.060700383 0.032868292 0.027003288
0000d0 4a 89 0d 3d ab 3a ae 3d 1d 47 74 bd a7 2c 39 3c
       0.034554757 0.08507284 -0.05963813 0.01130215
0000e0 dd 31 34 3d 70 82 8f 3d fa 67 a5 bd 5b bb c2 bd
       0.043992866 0.07007301 -0.080764726 -0.095083915
0000f0 82 6f c3 bd 8d 05 62 3d 9f 7c bb bd 3d cd 43 3d
       -0.09542753 0.055181075 -0.09154629 0.047803152
000100 08 3b 87 3d 2d 3e 91 bd 67 97 f9 3c b7 24 4a bd
       0.06603056 -0.07091937 0.030467702 -0.04935142
000110 1a 2a 60 bd 3d 37 55 3d cd 92 48 3d ea a1 a0 bd
       -0.05472765 0.052054632 0.048968125 -0.07843383
000120 6d fc f4 bc 1a fa 09 bc 93 eb 9a 3d 93 be 7b 3d
       -0.029905522 -0.008421445 0.075644635 0.061461043
000130 00 e1 4b 3d b3 54 be 3b 32 f1 c5 3d 70 52 3a bd
       0.049775124 0.005808437 0.09665145 -0.045488775
000140 ef 90 96 3d 60 bd c1 3c c7 ca e3 3c 27 8b 38 3d
       0.07351863 0.023649871 0.027806653 0.04505458
000150 a7 28 74 bc 9d 3b 0a bd 07 71 99 bd 5a e0 c6 bd
       -0.01490227 -0.033748258 -0.074922614 -0.097107604
000160 70 af 49 3d ba 97 7f bd f2 a4 93 bd 47 d8 57 3d
       0.049239576 -0.062400557 -0.07209195 0.052696493
000170 cd 90 40 ba 00 00 5a 3c ba 86 f1 3c ad 16 f9 3c
       -0.0007345796 0.013305664 0.029483188 0.03040632
000180 c0 1e 3e bc e0 62 46 3d a0 4f f8 bc dd 8b 01 bd
       -0.011604011 0.04843414 -0.030311406 -0.031627525
000190 00 23 69 3d 13 c4 51 bd 27 f1 dc 3c 77 bc 6e 3d
       0.056918144 -0.05121238 0.02697046 0.058285203
0001a0 3d 08 9b bd ad 5b c4 3d 83 57 29 3d 12 e7 c5 3d
       -0.07569931 0.09587798 0.041343223 0.09663214
0001b0 88 f3 b9 3d 67 ff 8c 3d b0 3c 9e bd 02 4a b9 3d
       0.09079653 0.06884652 -0.07726419 0.09047319
0001c0 1a 08 0d bc 20 2a 6c bd 0d 07 85 bd 1a 98 b4 3b
       -0.008607889 -0.05765736 -0.064954855 0.005511296
0001d0 93 52 ad bd 73 90 be 3d a0 44 9d bd aa 2d b2 3d
       -0.084630154 0.09304895 -0.07679105 0.08700116
0001e0 4d 4a fb bb bd 7c 71 bd 00 2c 31 ba 50 05 c8 bd
       -0.0076687695 -0.05895685 -0.00067585707 -0.09766638
0001f0 2a ae 90 3d 7d cc 53 bd d0 5a 33 bd 67 57 f0 3c
       0.07064469 -0.051708687 -0.043787777 0.029338552
000200 95 d1 86 bd c3 de 43 bd 5b 51 b4 3d 1a 85 84 3b
       -0.06582943 -0.047819864 0.0880458 0.0040441873
000210 32 0e 93 bd 23 f7 52 bd a7 f3 9b bd ca 34 0f 3d
       -0.07180442 -0.05150522 -0.07614832 0.034962453
000220 67 a0 55 3c 60 7a 92 3c 0d a8 f4 3c 1a 09 98 3c
       0.013038731 0.017880619 0.02986529 0.018559027
000230 77 7d cb bd a0 c2 52 3d 43 07 20 bd 1a ba 51 bd
       -0.0993604 0.05145514 -0.039069425 -0.05120287
000240 da 67 70 3c d0 aa cc 3d 43 e8 c7 3d 63 4e 9e 3d
       0.014673198 0.099935174 0.09761097 0.07729795
000250 f8 bb 81 bd 8d e5 fe 3c 40 98 11 3d f5 30 86 bd
       -0.0633468 0.031115318 0.035545588 -0.065523066
000260 e7 3e 9b 3d cd 51 16 3c 80 64 b9 bc 28 d8 ab 3d
       0.07580357 0.009174776 -0.02263093 0.08390838
000270 e2 01 a8 bd 57 69 7f bd 0f 64 98 bd 5d 72 3d bd
       -0.08203484 -0.06235632 -0.0744096 -0.046251643
000280 e3 83 6d 3d 8f 17 ab 3d cd 9a 3d bd 13 9e 19 3d
       0.057987105 0.08354103 -0.046290208 0.037504267
000290 0d 11 06 3c 03 13 3e bd 53 bd 7f bd 0d 02 47 bd
       0.008182776 -0.04640485 -0.062436413 -0.04858594
0002a0 e3 9e 38 bd 2d 46 c9 bd 67 04 ec 3b 6d e0 19 3d
       -0.0450734 -0.09827838 0.0072026732 0.037567545
0002b0 47 ab 60 bd 80 8f 68 3c 72 d8 b4 bd a0 77 27 3d
       -0.054850843 0.014194369 -0.08830346 0.040885568
0002c0 e0 d3 89 3c 4b ce a6 3d ba 3e f8 3c ca 86 25 3d
       0.016824663 0.08144816 0.030303348 0.040411748
0002d0 d8 9a 84 bd b5 c6 be bd 37 56 10 3d 80 05 4c 3d
       -0.064748466 -0.09315244 0.03523847 0.049809933
0002e0 87 4f ad 3c ad 3e 7d 3d 93 b6 f7 3c d8 c6 aa 3d
       0.021156086 0.06182735 0.030238425 0.08338708
0002f0 6a fa 4d 3d c0 c7 d8 3c 2d 91 8d bc 2d 4e 8a bd
       0.05028764 0.026462436 -0.01728114 -0.06753192
000300 1d 20 94 bd 00 8a 96 3c 3f 39 c8 bd 40 2d b7 bc
       -0.072326876 0.01837635 -0.09776544 -0.022360444
000310 87 5b 70 bd 9a e5 ee bc fa 3c 52 bd 67 06 6d 3b
       -0.058681037 -0.029162217 -0.051327683 0.0036167146
000320 f7 4a 43 3d 03 11 2c 3d 8d 28 29 3c 40 7d 46 3d
       0.047678914 0.04200841 0.0103246095 0.04845929
000330 63 73 87 bd 8a 9e c1 bd f3 27 5e bc c0 f4 7b 3d
       -0.06613805 -0.09454067 -0.013559329 0.06151271
000340 ed ec ab 3d 2d 9c 66 3d 12 b4 91 bd 07 4b c6 bc
       0.083947994 0.056301285 -0.07114424 -0.024205698
000350 40 33 a1 bc aa 8f 30 3d 17 5b 6e bd d0 22 98 bd
       -0.019677758 0.04310576 -0.05819234 -0.07428515
000360 aa 8a 5f bd 80 e3 b1 bd 23 b2 31 bd db c2 b7 bd
       -0.0545756 -0.0868597 -0.043382775 -0.089727126
000370 87 79 bd bc d7 92 9f 3d 30 07 0f bd 80 d1 be 3c
       -0.023129238 0.07791679 -0.034918964 0.023293257
000380 2d c8 e6 bc 7a ef 2f bd 40 06 7b 3c 7b 90 98 bd
       -0.028171623 -0.042952992 0.015321314 -0.074494325
000390 cd d1 0d 3c a0 74 33 3d 67 ef 3d 3d 68 29 a4 bd
       0.008655977 0.043812394 0.04637089 -0.0801571
0003a0 e5 35 b1 3d 3a 75 be bc 43 a3 0f bd 33 58 66 3d
       0.08652858 -0.023249257 -0.035067808 0.056236457
0003b0 9f 87 99 bd 4d a1 dd 3c 4b 0b c2 3d 27 3a b7 3c
       -0.07496571 0.027054453 0.0947481 0.022366596
0003c0 cd 5c dc b9 67 e0 be bb a7 42 59 3d b3 84 70 bc
       -0.00042030812 -0.0058250907 0.05304208 -0.014680075
0003d0 ad 60 6b 3d ba 64 33 bd 0b 28 9a bd 1f 09 b0 3d
       0.057465244 -0.043797232 -0.07527169 0.0859549
0003e0 33 19 92 3d ba f9 9b bc e7 c8 6d bd 13 b5 47 3d
       0.071337126 -0.019039977 -0.058052924 0.04875667
0003f0 a7 91 d3 3c 6a 23 90 bd 90 96 53 bd 33 68 30 bd
       0.025826288 -0.07038005 -0.05165726 -0.043068122

bias_ih_l0 f4 [300]
000000 e0 d0 6f bd 8a e7 1c 3d a7 4a b5 bd 77 58 68 3d
       -0.058548808 0.03830675 -0.088521294 0.05672499
000010 2d 85 21 3d a7 3a 03 bd 7d a9 cc bd 00 12 ab 3c
       0.039433647 -0.032038357 -0.09993265 0.020882607
000020 a3 51 29 3d 92 2d b5 bd 4d 3b b7 3c 00 d3 d8 3b
       0.04133762 -0.088465825 0.022367144 0.00661695
000030 0d 22 97 3c d7 67 4d 3d e5 c5 c3 bd 67 60 12 3c
       0.018448854 0.050147858 -0.0955923 0.008934117
000040 af af b1 bd 4b 68 a4 3d e3 17 83 3d 00 be 87 3b
       -0.08676087 0.08027705 0.064010404 0.004142523
000050 8a e9 02 bd aa a8 95 bd 7d f7 a4 3d dd cd 64 3d
       -0.031961 -0.07307561 0.08055017 0.05586039
000060 df 16 80 bd 45 04 c0 bd 2f 2c 81 3d 17 40 61 bd
       -0.06254362 -0.09375814 0.063072555 -0.05499276
000070 e0 f1 b5 bd 53 eb 09 bd 9a fe 88 3c b3 00 dc 3b
       -0.088840246 -0.03367169 0.016722966 0.0067139505
000080 87 c9 98 3c 33 fb 26 ba 67 b6 d4 bc a7 6a 4d 3c
       0.018650783 -0.0006369829 -0.025965882 0.012537635
000090 6d 09 96 3c a0 98 65 3d 53 90 c9 3d 6a 36 4f 3d
       0.018315041 0.056053758 0.09841981 0.050589003
0000a0 7a 46 8e 3d 5a 3a cf bc 68 fe 97 bd 48 74 bb 3d
       0.06947036 -0.025296379 -0.07421571 0.09153038
0000b0 05 8e 81 3d 4d d0 07 3d 20 f0 2d 3d 33 9a 0b 3d
       0.06325916 0.033157635 0.04246533 0.034082603
0000c0 00 b0 be 3c 07 d7 6a 3d 2b c5 9e bd 33 19 b1 bd
       0.023277283 0.057333972 -0.077524506 -0.086473845
0000d0 9a b9 aa 38 60 7c 1e 3d da a6 a1 bc 42 5f c1 3d
       8.140803e-05 0.038692832 -0.019732881 0.09441997
0000e0 6d 6f d7 bc 75 41 c7 bd 33 0a 3a bd b0 f4 00 3d
       -0.02629825 -0.09729282 -0.045419883 0.031483352
0000f0 a0 01 1d 3d b7 72 c7 bd a7 f2 35 bc 8d 20 8e 3c
       0.038331628 -0.09738677 -0.011105216 0.017349506
000100 45 8d a1 bd 73 90 22 3d e0 b2 18 3d 67 48 33 bc
       -0.07888273 0.03968854 0.037279963 -0.010942555
000110 23 12 a4 3d 60 bf 3a 3d da 2a 32 bc bd 14 60 bd
       0.08011272 0.045592666 -0.010874474 -0.054707278
000120 03 52 0d 3d 3d aa 68 bd a3 70 94 bd 75 43 ca 3d
       0.03450204 -0.056802977 -0.07248046 0.09876148
000130 2a f0 4f bd e0 3c e5 3c fd 7b ab 3d 0a 1c 3b 3d
       -0.050766148 0.027983129 0.08373258 0.045681037
000140 4d f5 3a 3c 43 a4 66 bd 40 48 34 bc da 06 6b bc
       0.011411023 -0.056308996 -0.011003554 -0.014344895
000150 cd 16 c7 3a a0 7c 9f bd 80 a6 65 bd 37 37 ca bd
       0.001518929 -0.07787442 -0.05606699 -0.09873813
000160 3a 0a 99 3d 78 d2 a8 3d 52 e1 a0 3d 1a 74 a9 3d
       0.07472654 0.08243269 0.078554764 0.08274098
000170 ed 91 28 bd 10 16 2c bd 2a bb 35 bd 7b a9 9d 3d
       -0.04115479 -0.042013228 -0.044367947 0.076983415
000180 b7 d4 13 bd 20 55 57 3d 40 8a f1 bc 17 fc 58 bd
       -0.036091533 0.052571416 -0.029484868 -0.052974787
000190 ff 21 b9 bd 1a 20 2c bd 07 af bf 3d 9f e2 c7 3d
       -0.09039687 -0.042022802 0.09359556 0.097600214
0001a0 40 49 88 3d f3 cb 38 3c 2a a1 60 3d d5 35 a8 bd
       0.06654596 0.011279094 0.054841198 -0.08213393
0001b0 cd ea 81 3c 5a 41 83 3c 00 54 67 bd a7 b4 2d bd
       0.015859032 0.016022373 -0.056476593 -0.04240861
0001c0 37 d2 8b 3d 93 5f 8c bd f0 43 55 3d 5d b9 33 3d
       0.06827205 -0.06854167 0.052066743 0.043877948
0001d0 4d a9 85 bc 68 68 82 3d aa 41 38 3d 07 ed 5b bd
       -0.01631608 0.0636757 0.044984497 -0.053692844
0001e0 6a a8 9b 3d 1a 7a c5 3b 80 24 d0 bc 20 6b 16 bd
       0.07600482 0.0060265185 -0.02540803 -0.036723256
0001f0 1a c1 02 bd 67 5b 26 3d 9a d9 f0 b8 67 a9 d2 bb
       -0.031922437 0.04061451 -0.00011484623 -0.0064288857
000200 35 c9 b9 3d 08 38 9c bd 65 9d 95 3d 9a b7 e1 bb
       0.0907158 -0.076278746 0.07305411 -0.006888342
000210 e5 c6 95 bd 73 69 51 bd b3 e8 a3 3d 90 c1 1f bd
       -0.07313327 -0.051125955 0.08003368 -0.039002955
000220 d8 05 ae bd 87 a2 b5 3d 5a 80 82 3d 5d 06 7a 3d
       -0.08497208 0.0886889 0.06372137 0.061041225
000230 57 74 92 3d 00 5c 2c bb 33 d3 ba 3c fa 28 ac 3d
       0.07151096 -0.0026299953 0.022805786 0.08406253
000240 aa 7b 14 bd 33 26 be 3b b7 96 bd 3d e7 f5 42 bd
       -0.036250748 0.0058028935 0.09257262 -0.047597792
000250 67 5b ae 3b 88 29 ab 3d 57 95 2f bd c0 e6 0c 3c
       0.0053209546 0.08357531 -0.04286703 0.008599937
000260 b3 05 66 3c 8f c9 99 bd ba bb e6 3c fa a0 b8 bd
       0.014039445 -0.075091474 0.028165687 -0.09015079
000270 67 ad 0e 3c 9d ab 7a 3d 07 06 ae 3c 1a 4a de 3b
       0.0087083345 0.06119882 0.021243108 0.006783736
000280 23 49 87 3d 3d 61 5d bd 08 95 8e bd 9a 8e 45 bc
       0.066057466 -0.05404781 -0.06962019 -0.012057925
000290 ed c1 bc bd c7 e5 c0 3c dd cd 69 3d 1a 85 07 bd
       -0.09216676 0.023547066 0.057081092 -0.03308592
0002a0 f0 50 6f 3d 7f 74 99 3d e7 83 b6 bd 4d 7e 97 3b
       0.058426797 0.07492923 -0.08911877 0.0046232105
0002b0 80 ec ee 3b 20 90 c5 3d 2d be 9b bd 9a 28 3a bd
       0.0072913766 0.0964663 -0.076046325 -0.045448877
0002c0 c0 c2 00 3d 13 bd 03 bd 1a ed c3 3c 73 0a 83 3d
       0.031435728 -0.032162737 0.02391677 0.063984774
0002d0 57 84 2a bd 9a 70 10 bc f3 bb a2 3c 77 36 19 3d
       -0.041630115 -0.008815909 0.019865012 0.037405457
0002e0 1a e1 04 bc 30 a9 21 3d 00 cc da 3a d7 5f 5a bd
       -0.008110309 0.03946799 0.0016692877 -0.053314056
0002f0 5a 66 b9 bd c0 25 49 bd 33 1c a1 bc 4d d7 1d 3d
       -0.09052725 -0.049108267 -0.019666767 0.038535405
000300 9a 91 c6 3b c0 2a 2d bd a0 34 40 3d cb c8 b8 3d
       0.0060598375 -0.042277098 0.046925187 0.09022673
000310 6f d6 be 3d db c1 bb bd aa 73 90 3d e0 e8 43 bd
       0.09318244 -0.09167834 0.07053311 -0.04782951
000320 40 26 8e 3c 67 71 96 3b 5d cc 00 bd 67 95 21 3d
       0.017352223 0.0045911553 -0.031444896 0.03944912
000330 f7 bb 81 3d e7 7c 0d bd fa 7a 09 bd b7 0d 71 bd
       0.063346796 -0.034542944 -0.033564545 -0.05885097
000340 c0 8d f1 3c 20 c2 4c 3d 4d b6 8f 3b 93 c3 bf bd
       0.029486537 0.04998982 0.0043857456 -0.09363475
000350 e8 ba 8e bd ba d0 af bd 35 83 81 3d ad 5c 79 bd
       -0.06969243 -0.08584733 0.06323854 -0.060879398
000360 2d 7f 70 3d ed 01 f7 bc 2d 00 0c 3d 50 0d b7 3d
       0.058715034 -0.030152285 0.034179855 0.08938086
000370 0f 03 8c bd 55 56 93 3d ea c4 03 3d 33 f4 04 3b
       -0.06836521 0.07194201 0.032170214 0.0020287156
000380 f3 15 d1 3c 3b 89 8c bd 25 03 a7 bd bd 6c ba 3d
       0.025523162 -0.06862112 -0.08154897 0.091027714
000390 fa 0b 29 3d 00 6b b4 bd 07 28 ae 3c ca 92 a4 bd
       0.041271187 -0.08809471 0.02125932 -0.0803581
0003a0 65 6a ae 3d e7 02 9e 3d 0f a2 8f bd 33 e2 cc 3b
       0.08516387 0.07715397 -0.07013332 0.006252551
0003b0 fa 9f f4 3c b7 41 67 3d 6a 5b 5e 3d 88 b3 be 3d
       0.029861439 0.056459155 0.054286398 0.093115866
0003c0 13 a2 be bd 67 3d 99 3b b3 fa 68 bd cd 0e 04 3c
       -0.09308257 0.004676509 -0.05687971 0.008060169
0003d0 fa 16 09 3d fa 4d a5 bd e7 9a 8d 3d 53 4b 7f bd
       0.033469178 -0.080715135 0.06914311 -0.062327694
0003e0 ed 5a 59 3d 90 f9 03 bd 00 56 4a bb 82 16 a3 3d
       0.05306523 -0.032220423 -0.0030874014 0.079632774
0003f0 0d 18 3b bd e3 79 05 bd 82 bb 99 bd f2 34 bf bd
       -0.045677233 -0.032586943 -0.075064674 -0.093362704

bias_hh_l0 f4 [300]
000000 33 9d 0c bc 17 41 bd 3d 55 97 9e 3d 8d b8 8f bc
       -0.008582401 0.092409305 0.07743708 -0.017544055
000010 c7 bb 1c 3d b8 89 a6 bd b2 55 b4 3d 20 49 0b bd
       0.038265016 -0.081317365 0.088054076 -0.034005284
000020 23 f1 98 bd 5d 68 b6 3d 42 2d ac bd e0 29 97 bd
       -0.07467868 0.089066245 -0.0840707 -0.07381034
000030 47 d6 ea 3c 1b 5c c9 3d 80 c7 62 bd 60 62 6e 3d
       0.028666629 0.09832021 -0.05536604 0.058199286
000040 03 84 52 3d 3b 7a 8c 3d cd 14 2b bc da ce 93 bd
       0.051395427 0.06859251 -0.010441971 -0.07217188
000050 30 2a 6d bd cd 97 98 bd d5 44 8a 3d 93 a0 5e 3d
       -0.05790156 -0.07450829 0.0675141 0.054352354
000060 a0 d4 bb bd f7 a2 93 3d 33 f3 f0 38 a7 33 5b 3d
       -0.091714144 0.072088175 0.00011489391 0.053516056
000070 07 22 c1 3d fd bf 96 3d 67 e2 7d bd 63 c1 05 3d
       0.09430318 0.073608376 -0.061983492 0.03265513
000080 3a 5e c6 3d 6d 16 84 bd 67 52 0b 3b 3a 45 14 3d
       0.09685941 -0.0644959 0.0021258832 0.036198832
000090 a8 fd 9c 3d 00 5e ac bc aa eb b1 3d 5a d3 0f bc
       0.076655686 -0.021040916 0.086875275 -0.0087784175
0000a0 5a df 32 bd 13 69 1e 3d c0 db bf bd da 4f 8a 3d
       -0.043670036 0.038674425 -0.09368086 0.06753512
0000b0 e7 9a 09 3d 20 75 98 3c ba 2e b3 bc 0a 91 4f bd
       0.033594992 0.018610537 -0.021872867 -0.05067543
0000c0 d2 30 a1 bd 12 fd b9 bd a7 9c 5d bc 40 6d 8e bd
       -0.0787064 -0.090814725 -0.013526118 -0.069544315
0000d0 20 b8 e7 3c 5f 23 ac bd a8 32 84 bd d8 dd b6 3d
       0.02828604 -0.08405184 -0.064549744 0.08929032
0000e0 7a b1 d1 bc 7a 75 b6 bc 1a 3e 9f 3b 72 26 9d 3d
       -0.025597323 -0.022272814 0.004859698 0.076733485
0000f0 f3 ff 2c bd 50 75 bb bd 97 f8 05 bd aa d2 75 3d
       -0.04223628 -0.09153235 -0.032707777 0.060015358
000100 e3 f4 01 3d 17 01 a1 bd 67 69 c4 bd f3 b5 55 bd
       0.031727683 -0.07861536 -0.095904164 -0.052175473
000110 5f e4 a2 bd 32 cd a2 3d 9a 8f 9f 3d e7 a7 94 3c
       -0.079537146 0.07949294 0.07791062 0.018146468
000120 80 9f 58 3c 05 e1 c0 3d a7 a0 15 bc af 79 a9 3d
       0.0132216215 0.09417919 -0.009132541 0.082751624
000130 c7 97 ed 3c 87 03 75 3d 1f 7c c0 bd a7 3e b2 3c
       0.029003037 0.059817817 -0.09398674 0.02175839
000140 07 e7 60 bd 92 7e ad 3d 77 30 3f 3d ef 67 c9 3d
       -0.054907825 0.08471407 0.04667708 0.09834277
000150 cd 28 e1 3c f3 9f bd 3c 45 e0 ad bd 9a 25 85 ba
       0.027485276 0.023147559 -0.08490042 -0.0010158301
000160 93 ed a0 bd 37 23 41 3d d0 da 8e bd 0d 83 b4 3c
       -0.07857814 0.047152724 -0.06975329 0.022035146
000170 bd 0a a2 3d d0 9a 94 3d 3a 70 a3 bd 3d c6 32 3d
       0.079122044 0.07256091 -0.0798039 0.043646086
000180 13 c9 5a bd cd 30 90 ba 00 d3 22 bd 40 b4 9d 3d
       -0.053414416 -0.0011000872 -0.039752007 0.077003956
000190 40 de 1c bc 35 7b 88 3d b0 8e 63 3d cb 30 bb 3d
       -0.009574473 0.06664125 0.055556 0.09140166
0001a0 1a 69 0c bd b3 d8 a0 bb 73 4e 1d bd fd 97 6f 3d
       -0.03427992 -0.004908645 -0.038404893 0.058494557
0001b0 6d 2a 61 bd 88 01 84 3d b7 e5 9a 3d 9a 87 0e bd
       -0.0549721 0.064456046 0.07563346 -0.03479729
0001c0 4d 69 6f bd 33 0e 25 3b 8d 91 67 bc 0d 5b b6 bd
       -0.058450032 0.0025185465 -0.014133823 -0.08904085
0001d0 d7 8c 72 bd 9a c0 1e 3c 4d 09 a5 3d 4b b7 96 bd
       -0.059216347 0.0096894745 0.080584146 -0.07359179
0001e0 3f fb 81 3d 1d 9b 9e 3d 90 d6 6a bd 57 03 2d 3d
       0.063467495 0.07744429 -0.05733353 0.042239513
0001f0 b5 73 bb bd 33 d7 8e ba 6d a6 f5 3c 23 9c be bd
       -0.09152929 -0.0010897875 0.029986585 -0.093071245
000200 6d 80 aa 3c 9a 34 fe bc 5d 68 44 3d 93 1b 95 3c
       0.020813191 -0.031030942 0.04795109 0.018201625
000210 73 ed 3a 3c 3a 6f 84 bc 62 a7 ca bd 10 82 0b bd
       0.011409151 -0.016166318 -0.09895207 -0.034059584
000220 85 92 c9 bd 00 a9 8b 3b 08 61 b8 bd 87 5c b8 3d
       -0.098423995 0.0042620897 -0.09002882 0.09002023
000230 55 c5 b7 bd cd 36 36 bd 8b 0a 8e 3d 8b 4e 9c bd
       -0.08973185 -0.044485856 0.06935605 -0.076321684
000240 42 a6 b3 bd 77 8a 58 bd c0 44 e3 3c ed 7a 9a bc
       -0.087719455 -0.052866425 0.027742743 -0.018857444
000250 9d b2 c4 bd cf 26 bd bd 0a c6 a8 3d 07 51 12 3d
       -0.0960438 -0.09235918 0.08240898 0.035721805
000260 33 60 5d 3c 8d 0e 30 bc e0 f3 9a bc ea 26 94 3d
       0.013511705 -0.010745657 -0.018915117 0.07233985
000270 bf 44 94 bd a7 89 6c bd 2d 85 34 bd 8d b4 34 bd
       -0.07239675 -0.057748463 -0.04407232 -0.0441175
000280 17 6f 29 3d 5a bf 14 bd 67 9e c2 ba 97 9d 07 bd
       0.04136571 -0.0363153 -0.0014848233 -0.033109274
000290 b0 7c 11 bd 82 9c bb bd dd f6 44 bd 73 39 89 bc
       -0.035519302 -0.09160711 -0.04808699 -0.016751027
0002a0 6f a1 83 3d 8d a2 2d 3c 8d e9 2a 3c a3 97 04 3d
       0.064272754 0.010597837 0.010431659 0.032371175
0002b0 87 b6 85 3c 3a 35 cb bc 6d f1 b8 3d 62 23 81 bd
       0.016322387 -0.024805654 0.09030423 -0.06305577
0002c0 47 9a 00 bd 5b b0 8d bd 00 b6 b1 bb b3 56 b2 bb
       -0.03139713 -0.06918403 -0.0054233074 -0.0054424643
0002d0 bd c5 a2 3d 13 80 95 3c 03 a1 68 bd 73 17 64 3c
       0.07947872 0.018249547 -0.056794178 0.013921606
0002e0 5a f4 37 bc aa 1d 59 3d fd fc a0 3d 07 da d7 bc
       -0.011227692 0.053006805 0.07860754 -0.02634908
0002f0 73 55 8b bd 7f 76 9f bd 8a 97 9b bd b2 43 8e 3d
       -0.068034075 -0.07786273 -0.07597263 0.069465056
000300 d3 31 b6 3c 87 36 4e bd df aa cc bd ba 5d ba 3d
       0.022240555 -0.05034497 -0.099935286 0.09099908
000310 7a bc be bc 93 e1 c6 bd 90 6a 46 bd 07 50 ad bc
       -0.023283232 -0.097109936 -0.04844147 -0.021156324
000320 33 d5 b1 3b 33 63 ca 3c 75 aa c5 3d 67 97 39 3b
       0.0054270267 0.024705505 0.09651653 0.0028319003
000330 2f e4 b7 3d 90 46 bb 3d b3 1f 4d 3c 20 26 45 3d
       0.089790694 0.09144318 0.012519765 0.048132062
000340 40 91 7f bc 70 85 0d bd 47 c0 65 3d 3b 0c a2 3d
       -0.015598595 -0.034551084 0.056091573 0.07912489
000350 10 2d 30 3d 73 4f 2b 3d 67 95 6c 3c e3 fb 02 bd
       0.043011725 0.041823816 0.014439917 -0.0319785
000360 d3 54 be bc 7d bb 45 bd db 53 b5 3d 0a e4 5c bd
       -0.023233807 -0.048274506 0.08853885 -0.053928412
000370 67 b6 fe b9 cd 5c 18 3c a0 54 26 3d 5a 43 e9 bc
       -0.00048582556 0.009299469 0.04060805 -0.028474499
000380 5d 31 92 bd 53 18 92 3c 7a 87 a9 3d 5f fd b4 bd
       -0.071383215 0.017833864 0.08277793 -0.08837389
000390 ba 63 bd 3d 93 a6 a2 3d 70 9a b3 3d 8b 2d b4 3d
       0.09247537 0.07941928 0.08769691 0.08797749
0003a0 80 c7 43 3d 03 6c cb 3d 07 82 bf 3c a0 bd 71 bd
       0.04779768 0.09932711 0.023377432 -0.05901873
0003b0 73 45 1e 3d 8d 2d 2d 3c c0 b5 b6 bc 63 e4 45 3d
       0.03864045 0.010569942 -0.022303462 0.04831351
0003c0 27 de 30 bc d8 6c af bd 00 e3 df 3b 00 90 bc 3d
       -0.010795153 -0.08565682 0.0068324804 0.09207153
0003d0 4a 49 88 3d 33 d8 cb bc 32 65 bf 3d 83 5c 73 3d
       0.06654604 -0.024883365 0.09345473 0.059414398
0003e0 57 5a ad 3d 53 21 ae 3d 8d 03 df 3c f3 43 45 3c
       0.084644966 0.0850245 0.027223373 0.012040126
0003f0 27 1d 4f bc 67 41 5e bd c0 65 3c 3c 18 87 85 3d
       -0.012641228 -0.05426159 0.011498868 0.06519908

weight f4 [50, 100]
000000 c7 ee 92 3d da 5e 33 3d 93 f7 91 bd 10 e8 84 3d
       0.071744494 0.04379163 -0.07127299 0.06489575
000010 33 53 ec bc 43 24 1f 3d 67 bf 92 3d 70 7a 62 3d
       -0.028848266 0.03885294 0.07165413 0.055292547
000020 33 48 6a 3b cd f9 f9 3b a7 ac c9 bd ca 4e 9d 3d
       0.00357486 0.0076286555 -0.09847384 0.076810434
000030 9a 07 ca bc e0 79 c0 bc c3 9c 4b 3d 27 e5 bd 3c
       -0.024661828 -0.023495615 0.049710046 0.023180557
000040 e8 66 85 bd 0d 39 a8 3c b5 24 91 bd e0 7a a6 3d
       -0.065137684 0.020535016 -0.070870794 0.08128905
000050 9a f1 88 bd 8a d4 7a bd c8 fc 82 3d 7a 82 ac 3d
       -0.06686707 -0.06123785 0.063958704 0.08423324
000060 93 ae 42 bd c3 f4 71 bd 17 f5 2d bd 92 57 82 3d
       -0.04752977 -0.059071314 -0.042470064 0.06364359
000070 30 86 c9 3d fa b5 e9 3c e0 82 b8 3d f8 b2 9d 3d
       0.09840047 0.028529156 0.090093374 0.07700151
000080 0d ae 67 3c 40 62 30 bd e0 85 d8 3c 73 b0 4a 3d
       0.014140618 -0.04306245 0.026431024 0.04948468
000090 13 10 23 bd ff f9 b9 3d fd f6 c7 3d 87 6c a6 3d
       -0.03981025 0.09080886 0.09763906 0.08126169
0000a0 47 cb a9 3c 12 0e b8 3d 7a 44 9a 3d 9d ee a3 bd
       0.020726813 0.08987059 0.07532592 -0.08004496
0000b0 9a f8 4d 3d e7 0c 1a bc 4f c2 a8 3d c7 5d 14 3d
       0.050285913 -0.00940249 0.082401864 0.036222246
0000c0 3a 38 dc bc 98 3a b8 3d e7 2a 4e bc 20 5c 43 bd
       -0.02688228 0.08995551 -0.012583471 -0.04769528
0000d0 fa f0 ae 3c f0 c7 32 bd e0 6f fd bc 7a 1b c1 3d
       0.021355141 -0.043647707 -0.030937135 0.09429069
0000e0 27 4f a4 bc 1a 52 5e 3d 4d e1 e2 bc 1a 44 3a bd
       -0.020057274 0.054277517 -0.027695322 -0.045475103
0000f0 5d 22 c1 3d 65 b1 99 bd 4a ca b2 bd ed eb 07 3d
       0.094303824 -0.075045384 -0.0872999 0.03318398
000100 9a 29 ea 3a b5 b3 ad 3d 2a 34 2c 3d ca 0a 21 3d
       0.0017865181 0.08481542 0.042041935 0.03931693
000110 bb 20 86 3d 93 23 4a bd bd 70 8d bd 5d 2c 67 bd
       0.065492116 -0.049350332 -0.06906269 -0.056438792
000120 b3 df 71 bc 67 16 db bc 87 31 81 bc 4a 78 c2 3d
       -0.014762807 -0.02674408 -0.015770687 0.094955996
000130 b3 b3 bb 3b 67 24 5d bd d7 5b 57 bd c2 67 9c bd
       0.005728209 -0.053989794 -0.05257782 -0.07636978
000140 b0 7f 28 3d 57 48 43 bd 40 18 cd 3c c0 f7 f9 3c
       0.041137397 -0.04767641 0.025035977 0.030513644
000150 c0 9d 5d bc a0 cf af bd 87 dd 1b bd 8d 64 b2 3d
       -0.01352638 -0.08584523 -0.03805306 0.08710585
000160 da 0d c7 3c 77 4d 55 bd 07 7a b1 bc 2d ed cb 3d
       0.024298597 -0.05207583 -0.021664632 0.09957347
000170 00 b9 bc 3d 60 ce f9 3c cd de f3 3c ba 2f f6 bc
       0.092149734 0.030493915 0.029769326 -0.030052055
000180 b2 87 c2 bd 90 54 5d 3d 00 4b 82 bd c0 c5 7f 3c
       -0.09498538 0.054035723 -0.06361961 0.015611112
000190 87 de 92 3d 83 4f 09 3d 00 10 ae bb e5 94 88 bd
       0.0717135 0.033523094 -0.005311966 -0.066690244
0001a0 9a 62 bf 3d d0 c8 55 bd d0 22 c2 3d cd 33 2a 3b
       0.09344979 -0.052193463 0.09479296 0.0025970817
0001b0 b3 79 41 bc cd ca a3 3d 52 10 ba 3d 13 c8 78 3d
       -0.0118088005 0.079976656 0.09085144 0.06073768
0001c0 7a e2 c5 3c 0a 26 62 3d aa d6 5d 3d 83 27 a3 bd
       0.024155844 0.055212058 0.054159798 -0.07966521
0001d0 c0 81 57 bd f3 40 e1 bc e7 2e b7 3c 93 07 fa bc
       -0.052613974 -0.02749679 0.022361232 -0.03052119
0001e0 63 79 0b 3d 1a 6b f0 3b a5 5e 81 bd 78 89 96 bd
       0.03405131 0.0073369863 -0.0631688 -0.07350439
0001f0 00 4b ad bc 4d 53 38 3d 65 2a c9 bd 88 36 97 3d
       -0.021153927 0.045001317 -0.09822539 0.07383448
000200 4f ec a3 3d 5b 5c a0 bd db c2 a6 3d f3 7a 89 bd
       0.08004057 -0.078301154 0.081426345 -0.06712904
000210 93 2e 0b bd 87 fb 10 3d cd ea b4 ba aa 73 6f 3d
       -0.033979964 0.035396125 -0.0013802886 0.058459915
000220 d5 46 a8 bd dd 2a 42 bd a0 94 83 bc 37 21 9d 3d
       -0.08216635 -0.04740416 -0.01606208 0.07672351
000230 e3 66 1a bd 07 bf 97 bd 87 90 9a 3d 33 b1 84 ba
       -0.037695777 -0.074094824 0.07547098 -0.001012361
000240 2f 6f c1 bd f3 35 2a 3d 6a 8b 04 bd 5d 8d 0c bd
       -0.09445035 0.041555356 -0.032359518 -0.034314502
000250 20 02 df bc 42 f3 92 bd 73 58 de 3c 60 31 b4 bc
       -0.027222693 -0.07175304 0.027141785 -0.0219962
000260 da ad 20 3c e0 41 ef 3c 93 62 94 3c d2 ee c7 3d
       0.009807074 0.029206216 0.01811341 0.09762348
000270 e0 54 17 3d f3 b7 ec 3c 22 88 8f 3d 48 de 86 bd
       0.036946177 0.028896308 0.07008387 -0.065853655
000280 e7 14 00 3c 07 8b d6 bc 73 a4 9b 3c bd b5 75 3d
       0.0078174835 -0.02618934 0.018999314 0.059987772
000290 2d 72 b0 bc d3 44 76 3d bb 48 c5 bd cd 65 1f 3c
       -0.021538818 0.06012423 -0.09633013 0.009728861
0002a0 3f 7d 85 bd d8 b4 be bd 7d 2c 34 bd 67 82 69 bc
       -0.065180294 -0.09311837 -0.04398774 -0.014252282
0002b0 33 0c e9 bc c7 72 cc 3c 50 44 a2 bd e7 6e 8f 3d
       -0.0284482 0.024957074 -0.07923186 0.07003575
0002c0 2b a6 ba 3d 75 de 99 3d 38 f9 88 3d 68 b7 bd 3d
       0.09113725 0.075131334 0.0668816 0.092634976
0002d0 45 b3 b9 bd e7 17 bd bd 2d 93 b0 bc b2 9d bc 3d
       -0.09067396 -0.09233075 -0.021554554 0.092097655
0002e0 ea 80 44 bd 67 b2 0b 3a c7 b0 e0 bc f3 3a 06 bc
       -0.047974505 0.0005329013 -0.027428044 -0.0081927655
0002f0 67 e8 25 bd 13 64 ac bc 08 a0 c8 3d 00 2c af ba
       -0.04050484 -0.021043813 0.097961485 -0.0013364553
000300 90 e2 32 3d 53 48 99 bc 4d 9a 99 bd ca e0 13 bd
       0.043673098 -0.018711245 -0.07500134 -0.036103047
000310 ad 1a 90 bd 6d d7 b9 3d 00 6c e5 bb 58 d7 92 bd
       -0.07036338 0.09074292 -0.0070014 -0.0716998
000320 07 7d a4 bd b0 ae 3e bd 87 d9 ca bd 0d 0e 35 bd
       -0.080316596 -0.046553314 -0.09904771 -0.044202853
000330 93 11 bb 3d 15 b9 94 bd 47 23 2a bd 27 d6 ff bc
       0.091342114 -0.07261864 -0.04153755 -0.031230045
000340 4d 94 f9 bb f0 47 89 bd ba 5c 91 bc 0a 77 69 bd
       -0.007616556 -0.06703174 -0.01774441 -0.05699829
000350 33 57 b7 bd e7 d7 7a bc ef 30 8f bd e7 f8 4e bd
       -0.08952179 -0.015310264 -0.06991755 -0.05053034
000360 37 97 b6 bd 9b dc 93 bd fa 1e c8 3c e3 0d 10 3d
       -0.08915561 -0.072198115 0.024428833 0.035169493
000370 8f 5c 85 3d e0 e6 89 bd 70 74 69 bd a2 eb 9d bd
       0.06511795 -0.06733489 -0.05699581 -0.07710959
000380 e0 35 c6 3c 3f 7d c4 3d 4d 3e c3 bc 85 36 c0 3d
       0.024195611 0.09594201 -0.023833418 0.09385399
000390 ed b5 49 3d e3 63 55 3d 9a 1b 0b 3c 40 de 56 bc
       0.049245764 0.052097213 0.008490467 -0.013114512
0003a0 b3 37 77 3d 40 94 e8 bc 18 76 c6 bd 3a d2 09 bd
       0.060355853 -0.028391004 -0.09690493 -0.033647753
0003b0 73 bb b9 3c e8 e5 ab 3d c5 92 cc bd 27 c0 77 3c
       0.02267239 0.083934605 -0.099889316 0.015121496
0003c0 40 58 25 bd ed d9 ba 3d 68 3d c3 bd e7 9d 94 3b
       -0.040367365 0.09123597 -0.09533197 0.004535425
0003d0 33 70 b0 bd 5a 07 62 3c 87 eb 98 bd ff bc 97 bd
       -0.0861515 0.013795698 -0.07466798 -0.07409095
0003e0 1a 2d fc 3b 40 82 25 bc 0f 61 a9 3d 47 ef 3b bd
       0.007695806 -0.010101855 0.082704656 -0.04588249
0003f0 ad e0 8e bc 0d 57 6f bc 20 42 a4 3d fb 57 8d bd
       -0.017441118 -0.014608157 0.08020425 -0.069015466

bias f4 [50]
000000 a8 2d 90 bd ad 4c b3 bd 33 b1 9e bd cd ab f7 bc
       -0.07039958 -0.08754859 -0.07748642 -0.030233288
000010 67 c3 c9 bd 00 38 51 3c 8d 00 74 3c 43 57 76 bd
       -0.09851723 0.012769699 0.014892709 -0.060141813
000020 1a 5e 8c 3b 5d c1 66 bd 2a 25 87 bd 9a 97 77 bd
       0.0042836787 -0.05633675 -0.06598885 -0.060447313
000030 17 66 14 3d 9f a6 89 bd dd 43 24 bd 92 d5 88 3d
       0.036230173 -0.067212336 -0.040103782 0.0668136
000040 eb 07 a2 bd d7 8c 7e bd 40 0d 55 bd b3 49 ce 3b
       -0.079116665 -0.062146034 -0.05201459 0.0062954067
000050 02 ac ad 3d f5 a9 90 bd ab f7 ba 3d 00 23 b7 bd
       0.084800735 -0.07063667 0.0912927 -0.089422226
000060 2d d6 05 3d 0b cb b2 3d 27 47 cc 3c 9a 8a a8 bd
       0.032674957 0.087301336 0.024936272 -0.08229561
000070 30 54 19 3d fd 5d 1d 3d 9a b3 93 3c fa 58 5c bd
       0.037433803 0.038419712 0.018029977 -0.053795792
000080 47 bc b4 3c fa ce c8 3c 4d 90 3d bc 65 fb 87 bd
       0.022062434 0.024512757 -0.0115700485 -0.066397466
000090 f2 d8 c3 bd b3 dd 0d 3c 0d 09 40 bc ba ce 60 3d
       -0.095628634 0.008658814 -0.011720908 0.05488465
0000a0 0d 64 6b 3d 33 c9 96 bd e5 03 87 3d ba 2b a9 bc
       0.057468463 -0.073625945 0.0659254 -0.020650733
0000b0 40 2d 2d bd 28 4f 89 bd 2d 36 9d 3c 17 cc 1f bd
       -0.042279482 -0.06704551 0.019190872 -0.039012995
0000c0 0f 99 a0 bd 3a c0 83 bd
       -0.078416936 -0.06433149

weight f4 [2, 50]
000000 4a d4 da 3d b3 a6 98 bd 4b d4 e2 bd 3a 25 7d 3d
       0.10685022 -0.0745367 -0.11075648 0.06180308
000010 dd 0b df bb 30 7c 0f be 31 5b 2d bd 9c e8 7e 3d
       -0.006806834 -0.14012218 -0.042323295 0.062233552
000020 15 27 72 bd 43 47 07 3c e6 6e 99 bc 9c 2a 73 3d
       -0.059119303 0.008256736 -0.018729638 0.059366807
000030 80 45 ed bd 7f bf eb bc e7 23 44 3d 1d be c3 bb
       -0.11585522 -0.028777836 0.0478858 -0.005973591
000040 c5 71 a5 bd f5 64 e4 bd ed 01 0c 3e 9b a2 f1 bd
       -0.080783404 -0.111520685 0.1367261 -0.11798593
000050 3e ec 03 be 82 eb 99 bd 0b cf c2 bd ac 45 90 bc
       -0.12883088 -0.07515623 -0.095121466 -0.017611347
000060 06 ca a8 3b 0d 7d 65 3d a7 3d 3f 3d 85 ac a7 3d
       0.005151036 0.05602746 0.046689656 0.08187202
000070 b6 b7 df bd 6c c9 00 3c d7 85 21 bd e9 8e 54 3c
       -0.10923712 0.007860523 -0.03943428 0.012973526
000080 1a db ff bd f2 1f f9 ba 35 38 15 bd 42 d8 7a bd
       -0.12492962 -0.0019006713 -0.036430556 -0.061241396
000090 e1 4d fa 3b 3a 17 c5 bd 16 6c f1 3d 2e 38 e3 3d
       0.0076386784 -0.09623571 0.11788194 0.110947
0000a0 08 11 f0 bd bf 7f 3a 3d 93 fc 4a bd 76 d6 5e bd
       -0.117219985 0.045531984 -0.04955728 -0.054403745
0000b0 29 d2 4e bd a6 f1 95 3c a7 3a 44 bd 05 bf c8 bd
       -0.050493393 0.018303704 -0.047907498 -0.09802059
0000c0 e8 3c 0d 3e 91 4c b4 3d e6 af c7 bc 95 c3 b0 3c
       0.13792765 0.088036664 -0.024375867 0.021577636
0000d0 6f 45 ea bd f1 33 0c 3e 7e 93 b8 3c 55 16 87 3b
       -0.11439025 0.13691689 0.022531267 0.004122535
0000e0 7b 47 d7 3d b0 eb 00 3e e4 0c 3e 3d eb 63 89 3b
       0.10511681 0.12589908 0.046399012 0.0041928194
0000f0 71 b6 da 3d 1c b5 8b 3d 0b ed 07 3d 1b ff da bb
       0.10679329 0.06821653 0.033185046 -0.006683243
000100 e8 b0 90 3c 92 81 ee 3d b7 d0 9c bb 7e 5e 90 3a
       0.01766248 0.11645807 -0.004785623 0.0011014489
000110 7a b1 ed bd 19 23 99 bd 80 e3 05 be fa f6 eb 3d
       -0.116061166 -0.074773975 -0.13075066 0.115217164
000120 5c 5c 89 3d 82 7f ad bd d5 4f db bd 48 e5 ea bd
       0.06707069 -0.08471586 -0.10708586 -0.11469513
000130 86 1b 18 3b ce 03 0a 3e 35 ed 57 bd ef 65 9e 3d
       0.0023209765 0.13478014 -0.052716453 0.07734286
000140 dc 92 e1 bd 24 bb a7 bd be bd 4e 3d 6a e9 c3 3d
       -0.11014339 -0.08189991 0.05047392 0.095660046
000150 76 48 4d 3b a2 ef cc 3d 28 4e 88 3d 4b 97 b1 bc
       0.0031323708 0.10006644 0.06655532 -0.021678587
000160 b1 b1 aa 3d be d8 0a be b3 26 bf 3d f8 2d 82 bd
       0.08334673 -0.13559243 0.09333553 -0.06356424
000170 a4 52 ba bd cd a9 db 3d bd f8 f4 bd 0f 0d 05 3e
       -0.09097794 0.10725746 -0.119615056 0.12993263
000180 92 3a a9 bd 34 7a 9d 3d c5 b2 d5 bd bc 74 fa bc
       -0.082631245 0.07689324 -0.10434488 -0.030573241

bias f4 [2]
000000 67 59 3a 3d dc 74 2d 3d
       0.045495417 0.042347774
