test_dagster/mlruns/0/72ffb72eb2e1422889928fa9548ac7bf/artifacts/prediction_model/data/model.pth (torch, 155663 bytes, 8 tensors)

weight_ih_l0 f4 [300, 2]
00000000: 276b c8bc e058 2abd b317 903c 2aeb 17bd
00000010: 4b4b b6bd cd69 a6bd f7ea b93d 7fae bebd
00000020: 381a 89bd 27c9 b0bd 77ab 85bd 0021 9abb
00000030: 47ce 12bd a099 5f3d b269 9abd a02d 3dbd
00000040: 6714 e53a 4fb0 813d 503b 203d 2077 213d
00000050: 9309 783d 208d 5cbd 3378 ccbb 079e 653d
00000060: 2252 b93d 33f8 193b 3a47 343d da90 043c
00000070: 60fd c3bd 0359 c43d 03ed 8a3d f331 4fbd
00000080: 1ae2 793d 92b6 9bbd 1276 b93d b3bb 9d3c
00000090: aac0 86bd 1d51 bbbd e70d 1abc e005 0f3d
000000a0: 52a7 c5bd 4789 913d f35a 56bd 8781 ab3d
000000b0: 8dde b73d 5256 a7bd 3322 e8bb b3db a23c
000000c0: d0ea 81bd fa29 94bd c2f1 86bd cb2a b03d
000000d0: b0d3 823d 0dce 9fbc cd93 17bd a004 393d
000000e0: e708 e2bb cdd6 c83d bba9 a33d 5a3c 483d
000000f0: 00ad ed3b 67f9 0e3b 6acd 84bd ba7f 093d
00000100: 3302 74bc 9ada 793b c56f c1bd 8d8a b73c
00000110: a830 923d 73b7 5e3c 33cb c2ba da27 56bc
00000120: 30b3 66bd 6382 5b3d 3aae 9e3c faee 97bc
00000130: daf7 d53c 97ee 2bbd c363 5d3d 7724 0b3d
00000140: fd4e 7cbd eb53 a33d d3f7 593d 4d47 893d
00000150: ba48 3a3d 439b 1c3d 20a9 453d 703b 353d
00000160: 52a8 c03d f300 253d 4a1f 993d bbce 80bd
00000170: 234f 693d 234b 8dbd d23f bc3d ba9f d83c
00000180: cd2a ddba 6249 abbd 6a8e 9e3d 339b 73bd
00000190: 87e6 fdbc c270 823d 6aa4 28bd d74c 32bd
000001a0: 0744 23bd 8ded 433d 58b2 96bd 77c6 483d
000001b0: 20aa 8c3c 9b7a 95bd a091 31bd 0ada 16bd
000001c0: 9a76 163d 2a61 733d 330f 8fbd 17a4 3f3d
000001d0: ea77 66bd cd8d c7bb 20fc f23c b0ba 25bd
000001e0: 2bd3 c53d b379 bbbb e715 ffbb 3db4 963d
000001f0: 1df9 3b3d 80dc b03c 8df4 f03c cdae 9f3d
00000200: 27f1 9d3c 73b8 41bd 5a71 1bbc 1aa6 833b
00000210: b350 433c a871 c73d 0af3 b6bd e72d f2bc
00000220: 632b 513d 13f3 80bc f883 9a3d a726 14bd
00000230: 3b74 b43d 4700 883d caa0 a8bd dac6 563d
00000240: ba88 b6bc da5c 4abc 0dc8 173d 9a96 c43c
00000250: b7fd 243d 4db0 5e3d 5a43 75bc cd4e bfba
00000260: 1390 a33c 9350 15bd 0052 8eba cd50 c73d
00000270: 6fc3 be3d dde4 82bd 5afe af3d 0215 88bd
00000280: 13a8 0f3d 5356 a23d f33f 7c3d c71d c0bd
00000290: ed4b bdbd 2005 a0bd bd38 283d 7347 b7bc
000002a0: b0c3 243d 40c0 bebc 9d59 a13d f020 60bd
000002b0: 4dce 0d3c 3ae3 a6bd 37de a2bd 138c 573d
000002c0: 7a12 98bd 8000 4ebd d227 8ebd e7dc ad3c
000002d0: 225a a7bd 3733 613d f8ae 95bd 902a 85bd
000002e0: caed 153d 2746 60bc a0e8 9b3d 7a18 bcbc
000002f0: 2d81 593d 5fae 94bd 9aee 153c f238 9ebd
00000300: cd2b 683d 671b b93b 3af5 bbbd 4df3 f1bb
00000310: 9009 7a3d 4dd5 b43c 0039 8b3d 33ab e93b
00000320: e7ed 63bd 1ad7 8e3c 6d16 3d3d 0dbd 493c
00000330: 80e3 703d fde2 b7bd cd32 c63c 7710 71bd
00000340: 9d7b b43d 0080 feba 12a7 cabd 27f2 7bbd
00000350: 60f6 b03c 003c 8ebb 5a38 53bd fdbf 1e3d
00000360: 200b 4a3d d3c1 fb3c f3c3 6a3c 9576 a03d
00000370: e738 a7bb 50e1 293d bae9 a4bc 5076 74bd
00000380: d394 fabc 60cc e2bc 8dea 6fbd e770 58bd
00000390: ed36 523d 030f 82bd d282 96bd 1f05 a0bd
000003a0: ea0e 713d bab3 b3bc c74f 043d 1ad4 34bc
000003b0: 50b4 98bd 680f bdbd d7f6 083d f79d 13bd
000003c0: baf8 913d 9a63 5bbd edb3 273d fd8c 303d
000003d0: 834a 76bd 539a 383d 477f a83c 2b31 96bd
000003e0: 1322 cbbd 335d 263b 0a08 50bd f76c a7bd
000003f0: 0058 49ba cd01 55bb ed5f b6bd 0b4e b1bd
-0.024465157 -0.041588664 0.017589426 -0.037089504 -0.0890108 -0.08125649 0.09078019 -0.09310626
-0.06694454 -0.08632117 -0.06526845 -0.004703641 -0.035841253 0.054589868 -0.07539691 -0.04618609
0.0017477394 0.06332456 0.039119065 0.039420247 0.060556006 -0.053845525 -0.006239915 0.05605891
0.09048869 0.0023493886 0.04401324 0.008091176 -0.09569812 0.0958729 0.06783488 -0.050584745
0.061006643 -0.07603182 0.09055723 0.019254541 -0.065797165 -0.091463305 -0.009402729 0.034917712
-0.096510544 0.07106262 -0.05233283 0.08374315 0.08977995 -0.08170761 -0.007084155 0.019880151
-0.06343615 -0.07234569 -0.065890804 0.08601912 0.063880324 -0.019507432 -0.03700619 0.045170426
-0.006898034 0.09806595 0.07991358 0.04888568 0.007253289 0.0021816136 -0.06484492 0.033569075
-0.014893102 0.0038124681 -0.094451465 0.022404933 0.07138187 0.013593542 -0.0014861583 -0.013071025
-0.05632323 0.053591143 0.019370187 -0.01854657 0.026119161 -0.041975584 0.05405022 0.033970322
-0.061598767 0.079749905 0.05321486 0.06703053 0.045479514 0.038234007 0.048256993 0.044246137
0.094071046 0.04028411 0.07476671 -0.06289431 0.056960236 -0.06899097 0.0919186 0.026443351
-0.0016873718 -0.08363606 0.07742007 -0.05947418 -0.030993713 0.06369163 -0.041172422 -0.04353031
-0.039859798 0.047833968 -0.07358235 0.049017396 0.017170966 -0.07298776 -0.04335177 -0.036829032
0.0367342 0.059418835 -0.06985321 0.046787348 -0.056266703 -0.006089902 0.029661238 -0.040461242
0.09659418 -0.005721295 -0.0077845934 0.073585965 0.04589187 0.021589518 0.029413486 0.077970125
0.01928003 -0.047295045 -0.009487474 0.0040176036 0.011921096 0.09738475 -0.08933075 -0.029562904
0.051066767 -0.015740907 0.07544702 -0.036169674 0.08811232 0.06640678 -0.08233793 0.052435733
-0.022281993 -0.012351239 0.037056018 0.023997594 0.040281024 0.054367352 -0.014969671 -0.0014595628
0.01996616 -0.036453795 -0.0010858178 0.097322084 0.0931462 -0.063913085 0.085934356 -0.06644632
0.035072397 0.07926621 0.061584424 -0.093806796 -0.09242997 -0.078134775 0.041069735 -0.022372937
0.040225685 -0.023285031 0.078784205 -0.05471891 0.008655143 -0.08148809 -0.0795254 0.05262382
-0.07425399 -0.050293446 -0.06941189 0.021223499 -0.08171488 0.054980483 -0.07308763 -0.06502259
0.036603726 -0.013688601 0.07612729 -0.02296089 0.053101707 -0.07259821 0.009151125 -0.07725705
0.056682397 0.0056490186 -0.09177633 -0.00738374 0.061044276 0.022074366 0.06797981 0.0071310042
-0.055646803 0.017436553 0.046163965 0.01231314 0.05881071 -0.089788415 0.024194146 -0.058853593
0.0881264 -0.0019416809 -0.098951474 -0.06151023 0.021601856 -0.0043406487 -0.051567413 0.038757313
0.049327016 0.030732071 0.0143289445 0.07835118 -0.005103219 0.04147464 -0.02013098 -0.059683144
-0.030588543 -0.027685344 -0.058573294 -0.052842047 0.051321913 -0.063505195 -0.07349171 -0.07813477
0.058852114 -0.021936286 0.032302644 -0.011036897 -0.07456267 -0.09231454 0.03343853 -0.03603932
0.07127519 -0.053561784 0.040943075 0.043103207 -0.060129654 0.04506905 0.020568503 -0.07333597
-0.099186085 0.002538514 -0.050788917 -0.0817508 -0.00076806545 -0.0032502294 -0.08905015 -0.08657464

weight_hh_l0 f4 [300, 100]
00000000: 9302 52bd 4d37 793d 5336 833c 68fb b73d
00000010: d314 1dbd d528 9e3d caaf 413d 6764 b5bd
00000020: 086a c43d bd1e 8cbd f056 0b3d bb12 97bd
00000030: 3d69 bb3d 8016 86bc 4048 3fbd 6793 2d3c
00000040: fab5 7e3d 9a39 cb3a 1d7e acbd c05a 8ebc
00000050: 0278 91bd 30e3 a9bd 9a81 4a3b 0744 ba3c
00000060: 6d52 213d 0de7 a53c 07e2 42bd f3ed 093d
00000070: 4a74 08bd 08a6 a5bd 50e8 9e3d 67b3 b3bb
00000080: 9fb7 c93d 4d5d f63b 3fdb 843d ea01 953d
00000090: eba6 97bd 33b1 893c c397 b03d 6756 3c3d
000000a0: 6bc9 a03d 67da 123b bdc3 0abd 330c edbc
000000b0: f36a a23d 6d85 06bd 6316 503d 9b10 8abd
000000c0: df53 ae3d 7321 633d 0de4 463c bd98 873d
000000d0: fb8b babd 6a7f 643d 4de6 d03c 5799 1bbd
000000e0: f53c b7bd 4d23 e6bc 5ab7 653d 5561 a9bd
000000f0: 3399 e93c 2af2 0a3d ba5b 513d 3534 8fbd
00000100: 4734 c83c 23ee bf3d 70ce 4a3d adbd 983c
00000110: 25a7 bbbd ba95 b2bd ed7b 543d cabf 603d
00000120: f332 72bc e743 893b 67ff 663b 3af8 96bc
00000130: 435e 33bd 2089 963d 029e ac3d 1006 b73d
00000140: 7331 183d 6350 c63d d07a 3cbd 9d13 0ebd
00000150: 33db 923d 67b2 39bc 9add a83d 007d cbbd
00000160: c067 6abd 9d63 133d 005c 25bc 85dc 90bd
00000170: d74d 443d 035b 75bd eaea 753d 83dc 983d
00000180: 5a7d 72bc c0a4 2f3d 5390 25bd e324 4e3d
00000190: 086c 8dbd 4736 74bd a096 bdbd 8b95 c63d
000001a0: 4719 4a3d 3374 a5bb 6552 bbbd bba4 a03d
000001b0: da45 a83c 7776 9e3d b79a a4bd ef7e 9abd
000001c0: 4a77 7dbd 9b85 cb3d 2363 423d d2bc 953d
000001d0: 5f8a bfbd 42a7 aebd 15a3 a23d ea46 083d
000001e0: 4d39 de3b 4d7c 59bc 37d7 b63d 8726 bcbc
000001f0: 1d42 1bbd d045 06bd fa27 f33c 575c 3f3d
00000200: cf3f c3bd 4ded 953c 4269 90bd 83d0 46bd
00000210: d3e0 0b3d 40f4 2f3d 834b b03d 5596 953d
00000220: 771f 0b3d 4db1 0bbd 3a46 603d 8032 abbd
00000230: 0d0b 1abd 0090 4aba 3fb5 afbd af2a 903d
00000240: e500 b23d f7c6 75bd c786 e0bc b35b bbbd
00000250: 3d42 753d a0d0 3bbd 0da6 38bc b7c6 603d
00000260: b30d f43c b3dd 13bd a89d c2bd b3ee 1b3c
00000270: ed43 943c 9ad8 7b3b 3a64 f93c 4fdc 963d
00000280: 9ad0 e8bb 2f06 8f3d 47bc 2f3d 1b43 8ebd
00000290: ea09 153d e730 8bbc 8725 81bd c025 033c
000002a0: ffcc adbd 826f 8e3d e080 a6bd 50cd 4a3d
000002b0: 9358 3abd 6053 3c3d 27ca a8bd e8a0 8b3d
000002c0: c09f 673c e7c4 f7bc 2d93 7dbd aba4 80bd
000002d0: 8a00 bfbd 802a a8bd 903f c4bd e77b 16bc
000002e0: 7aa6 4d3d e7f0 21bd 1adc a43c 5dee 683d
000002f0: 9a3b 0b3c 7318 08bc 2227 80bd f709 583d
00000300: a756 f3bc b81d 95bd d313 053d 8b76 b8bd
00000310: c017 03bd 67e6 0dba 23eb 34bd 332e 25bc
00000320: 97d1 303d 15f7 ba3d c39f 853d 1a27 7cbc
00000330: a7c7 1bbd 177c 39bd d33a c0bc bb79 8d3d
00000340: 3785 583d 87de 8bbd fae3 0b3d 80d9 47bc
00000350: d7e2 52bd e76c 19bc 0026 10bc 3d18 093d
00000360: 20d1 f9bc b323 a7bb f321 e23c d33c e63c
00000370: ed2c 5b3d 1d56 933d 05d8 b03d 72d7 b6bd
00000380: 6f15 9b3d a085 0b3d fabc 7f3d 4d97 813c
00000390: d733 5c3d 2d1b 293d 3f1d a6bd f3ab a3bc
000003a0: 0d11 b5bd 3357 f03b c36e 7ebd db2b cbbd
000003b0: ea7b 00bd 03b1 29bd 8b00 b4bd c72e 463d
000003c0: 6731 433c c013 07bc e000 a13d ca3a cb3d
000003d0: ed01 13bd 7312 41bc e8f1 83bd 57a5 97bd
000003e0: 003b 17bd ab77 98bd cd6b bd3d 400f d43c
000003f0: 273a e73c 451c 923d 5a72 b8bc c0a0 90bc
-0.051271986 0.060843755 0.016017115 0.08983499 -0.038349938 0.07722632 0.047286786 -0.08857041
0.09590536 -0.068418 0.034018457 -0.073766194 0.09150932 -0.01636815 -0.046699762 0.0105942255
0.062185265 0.0015504838 -0.08422492 -0.017377257 -0.07102968 -0.08295286 0.0030900002 0.022737516
0.039385248 0.020251775 -0.047578838 0.03367419 -0.033314027 -0.080883086 0.07759154 -0.005484033
0.09849476 0.0075184465 0.064871304 0.07275756 -0.07404884 0.016808128 0.08622696 0.045980837
0.078509174 0.002240801 -0.033878077 -0.028936481 0.07930555 -0.03284209 0.0508026 -0.067414485
0.08512091 0.05545182 0.0121393325 0.066209294 -0.091087304 0.055785574 0.025500441 -0.037988033
-0.089471735 -0.028093005 0.05608306 -0.08270518 0.028515434 0.033922352 0.051112868 -0.069923796
0.02443899 0.09371593 0.04951328 0.018645132 -0.0916274 -0.08719964 0.051875997 0.054870404
-0.014782655 0.004189003 0.0035247447 -0.01842891 -0.043791067 0.07350373 0.08428575 0.08936703
0.037156533 0.09683301 -0.04601556 -0.034686673 0.07170715 -0.011334038 0.08245392 -0.09935951
-0.05722785 0.03598367 -0.010092735 -0.07073311 0.047925796 -0.05990125 0.060038485 0.07463934
-0.014800394 0.042881727 -0.04042084 0.050328147 -0.06905371 -0.059622075 -0.09257245 0.09696492
0.049340513 -0.0050492524 -0.09146575 0.0784392 0.02054112 0.07737439 -0.08037322 -0.07543742
-0.06188134 0.099375926 0.047457825 0.07311405 -0.09352564 -0.08527996 0.07941262 0.033270754
0.006781733 -0.0132742645 0.08927768 -0.02296759 -0.037904847 -0.032781422 0.029682148 0.04671892
-0.09533655 0.01830163 -0.07051326 -0.048538696 0.034149956 0.042957544 0.08608153 0.07304064
0.033965554 -0.034104634 0.054754473 -0.083592415 -0.037608195 -0.0007727146 -0.08579492 0.07039391
0.08691577 -0.0600042 -0.027408017 -0.091483496 0.059877623 -0.045853257 -0.011270058 0.05487701
0.029791689 -0.0361001 -0.09502727 0.00951736 0.018098796 0.0038428665 0.0304433 0.07366239
-0.0071049454 0.06983601 0.042904165 -0.06946393 0.036386408 -0.016991092 -0.06305986 0.008004606
-0.084863655 0.06954862 -0.0813005 0.049512208 -0.045494627 0.04597795 -0.082416825 0.068178
0.014137208 -0.030245258 -0.061907936 -0.06281408 -0.09326275 -0.08211231 -0.09582436 -0.009184814
0.050207593 -0.039536383 0.020124484 0.056867946 0.008498097 -0.00830661 -0.06257464 0.05274388
-0.029704405 -0.07281059 0.03248961 -0.09006985 -0.03200507 -0.0005413056 -0.044169556 -0.0100818155
0.04316863 0.091291584 0.06524613 -0.015390182 -0.0380322 -0.045284357 -0.02346555 0.06907984
0.05286142 -0.06829553 0.034152962 -0.012197852 -0.051485863 -0.009364343 -0.008798122 0.03347038
-0.030495226 -0.005100691 0.027604079 0.028105175 0.05350964 0.07194159 0.086349525 -0.08927812
0.075724475 0.03406298 0.06243608 0.015819216 0.053760376 0.041285682 -0.08111047 -0.019979453
-0.08841143 0.0073346137 -0.06211735 -0.09920474 -0.031368174 -0.041428577 -0.08789166 0.048384454
0.011913634 -0.008244455 0.07861495 0.099233225 -0.03589051 -0.011784184 -0.06442624 -0.07404583
-0.0369215 -0.074447 0.09249077 0.025886178 0.028225971 0.07134298 -0.022515465 -0.017654777

bias_ih_l0 f4 [300]
00000000: 5a66 a8bd 4d24 993d 23a1 973d 75f8 8abd
00000010: 7348 58bd cde8 f2bb fdd7 523d 47de 823c
00000020: 3574 b0bd 4afa 09bd 0d96 ca3c 1a66 24bc
00000030: cbd8 bfbd e02b a9bc 1a0b be3d 9030 43bd
00000040: 003e 023c 4327 8bbd 3333 ab38 2abc 6d3d
00000050: 151d 81bd 8fba 95bd cd65 203d e7e0 2abd
00000060: e7de 263c 3d6b 2d3d 00e3 c6bb b34a 0c3c
00000070: 9d98 4f3d 673d babb 3383 0fbd 07e1 bc3d
00000080: 7d05 b53d 924d 9b3d 0078 37bc cd08 23bd
00000090: 3356 c83b faaf 263d 601c 59bd 85ca 90bd
000000a0: a059 423d 605c b03d 8ab0 00bd 3a61 8abd
000000b0: a531 85bd 4fb6 b1bd edd1 bcbd 3d69 2e3d
000000c0: a390 833d 6724 343d 1b90 99bd e723 303c
000000d0: 9a87 e6bc 8f90 aebd 9a69 16bd a371 7c3d
000000e0: 1d95 09bd 9a7e 223c 1a77 463c 936a 383d
000000f0: 3a1e a33c c71a 1cbd 1b5c a2bd b0da a23d
00000100: 9d45 5cbd 47f1 54bd bd60 783d daab b03d
00000110: c0e3 a4bd 878f 56bd 9ddc c3bd 3865 bb3d
00000120: f374 303c e031 fd3c a5c3 9bbd 733d 073d
00000130: 1d98 c03d 7a6f a73d 0b60 af3d c522 a6bd
00000140: 1abb 15bd 0028 06ba 6bc9 973d 67bc b1ba
00000150: 0348 c0bd 659a cbbd f7e8 003d e730 c0bd
00000160: 4f05 87bd 4065 a63d fa44 00bd 379b 6fbd
00000170: f328 2f3c 6d66 fbbc 2741 bbbc 07b6 c3bd
00000180: 73e6 623d 334a 903c 9395 c1bd 78a1 92bd
00000190: f3ff 193c 3bad 89bd 677b ffbb c20d 82bd
000001a0: 6098 9c3c 37b3 a13d 1fe3 86bd 0097 a93c
000001b0: 0dfd 0dbc 8ddf 183c eab2 7ebd d52b b5bd
000001c0: 8088 213d 1aa5 a43c 8765 9d3d 0d43 7b3d
000001d0: dab4 3cbc 27f9 30bc 2064 0cbd cd6e 6abb
000001e0: 3036 31bd d350 913d 93f2 833d 0dd1 03bc
000001f0: a7c5 bc3c 90b4 0b3d ad1d bd3d 000f 443c
00000200: a037 f3bc faf1 3a3d cdf3 4d3d 6db6 1e3d
00000210: 1387 61bd 00f9 5dbd d2c6 b4bd 4acd 0abd
00000220: 4d9e b9bc 7737 af3d 6722 543b 17b8 a9bd
00000230: 17a9 4e3d e098 acbc 5848 ccbd b070 01bd
00000240: 679c d03a 5090 ccbd 808c b93c d89b b83d
00000250: 0d6a 72bc 9554 c8bd 0321 763d e87e b23d
00000260: 073b 523d f8f7 a93d d7c1 1c3d 7ad7 943d
00000270: 2de4 153d 9d00 603d 8df1 8abd 0754 493d
00000280: cd0b 113c 93fd 9bbd 6734 78bc b3c1 593d
00000290: 67b6 b3ba 471b 21bd 07ca 1f3d 276e 78bd
000002a0: c024 3ebd 8a8a 173d b747 55bd 337d e93a
000002b0: 770a 7fbd 2ab5 b03d d3ba 9b3d 2df0 893c
000002c0: d741 803d 5d17 023d 6379 c03d a063 9fbd
000002d0: 337d 90bb 97d9 75bd ba5a 913c e74c 623d
000002e0: 4007 01bd a74b 663d 2d30 30bd a0b3 ce3c
000002f0: 0096 da3a 276f 39bd a3aa 68bd 7fb0 c2bd
00000300: ab0a 933d efd1 9cbd 7df9 3dbd 8094 edbb
00000310: 10a4 3e3d 7fe2 b4bd 0597 95bd a0b8 2abd
00000320: 1790 aabd 9a7d 7cbd dbe2 9b3d aa39 483d
00000330: bd14 20bd b802 923d 4bf9 92bd 0085 093c
00000340: 3adb bbbc 47a6 5fbd 0d8b c6bc c01b 903d
00000350: 0d77 873c 6080 053d 9f11 ae3d f0bc 013d
00000360: b56d a03d 3300 1a3c 9016 c33d cacb 2bbd
00000370: 3a52 a9bc 2794 1a3c b3a2 aebc a344 6a3d
00000380: c5d1 893d c0b1 573d fad5 1d3d 1228 9cbd
00000390: a5d3 8abd 605e 6e3d b0a2 033d 7a76 c8bd
000003a0: 87dd 9b3d 6763 05bb 1a63 1fbc facb ca3d
000003b0: e7d7 3c3c 9d14 103d d012 a1bd 98de a2bd
000003c0: 18b2 b33d c79d bcbc 1791 68bd e8a4 b33d
000003d0: ada8 0d3d 6a1e 15bd bfa3 ccbd 2395 3ebd
000003e0: 4066 b6bd cd7d 2c3d 20ca 9cbd 6f03 b6bd
000003f0: da45 bcbc adf1 413d adad 0dbd 8a3b 943d
-0.08222647 0.07477627 0.07403781 -0.06785671 -0.052803468 -0.007413006 0.051475514 0.01597513
-0.08615915 -0.03368596 0.024729753 -0.010034109 -0.09367522 -0.020650804 0.09279461 -0.047653735
0.007949352 -0.06794598 8.163452e-05 0.058040775 -0.06304375 -0.07310974 0.039159585 -0.04171839
0.01018498 0.0423386 -0.006069541 0.008562732 0.050682653 -0.0056835893 -0.03503723 0.09222608
0.088389374 0.07583155 -0.011198044 -0.039803315 0.0061137914 0.040695168 -0.053005576 -0.070698775
0.047448754 0.08611369 -0.03141836 -0.06756826 -0.065036096 -0.08677351 -0.09219728 0.04258083
0.06424072 0.04398003 -0.07498189 0.010750747 -0.028140832 -0.08523666 -0.036721803 0.06163181
-0.03358947 0.0099178795 0.012113357 0.045023512 0.019911874 -0.038111474 -0.07927724 0.079518676
-0.053777326 -0.051987913 0.06063913 0.08626528 -0.08051252 -0.052382972 -0.09563563 0.09150165
0.01077007 0.030907571 -0.076056756 0.033017587 0.09404013 0.08175559 0.085632406 -0.081121005
-0.036555387 -0.0005117655 0.07411464 -0.0013560177 -0.09388735 -0.09941558 0.031472173 -0.093843274
-0.065928094 0.08124781 -0.03131578 -0.058497634 0.010690915 -0.030688489 -0.022858215 -0.09556203
0.055395555 0.017613506 -0.09452357 -0.07159704 0.009399402 -0.06722494 -0.007796693 -0.0635028
0.019115627 0.07895511 -0.06586289 0.020701885 -0.008666289 0.009330642 -0.062182344 -0.08846251
0.039436817 0.020098258 0.076853804 0.06134324 -0.011517728 -0.01080159 -0.034275174 -0.0035771609
-0.043264568 0.07095494 0.06442752 -0.008045447 0.023043467 0.034107745 0.09234176 0.011966467
-0.02968961 0.045640923 0.050281335 0.038748194 -0.055060457 -0.054192543 -0.088269845 -0.033887185
-0.022658492 0.08555501 0.0032369138 -0.082870655 0.050454225 -0.02106899 -0.09974736 -0.031601608
0.0015915752 -0.09988463 0.022650003 0.090141 -0.014795792 -0.09781758 0.060090076 0.08715612
0.051325824 0.082992494 0.038270798 0.072676614 0.03659456 0.054688085 -0.067843534 0.0491524
0.008852911 -0.07616725 -0.015149212 0.05316324 -0.0013710976 -0.039332654 0.039011028 -0.060651924
-0.046421766 0.036997356 -0.052070346 0.0017813802 -0.06226584 0.08628304 0.07603993 0.016838158
0.06262558 0.031760562 0.09398153 -0.07782674 -0.004409456 -0.060021963 0.017743457 0.05524912
-0.031501055 0.05622449 -0.043014694 0.025232136 0.0016676784 -0.04527202 -0.056803357 -0.0950632
0.07179769 -0.07657229 -0.04638051 -0.0072503686 0.04654318 -0.08832263 -0.07304195 -0.04167998
-0.08328264 -0.06164322 0.076116286 0.048883118 -0.039082278 0.07129425 -0.07176455 0.008393526
-0.022931684 -0.054601934 -0.024236226 0.07036543 0.01653626 0.03259313 0.08499455 0.031674325
0.07833425 0.009399462 0.09525788 -0.041942395 -0.020669091 0.009434736 -0.021317815 0.057194363
0.067294635 0.05265975 0.038534142 -0.0762483 -0.06778649 0.05819547 0.032137573 -0.097882226
0.07610612 -0.0020353438 -0.0097282175 0.09902187 0.0115260845 0.03517591 -0.07864916 -0.07952613
0.08774203 -0.023024453 -0.056778993 0.08771688 0.03458469 -0.03640596 -0.099921696 -0.046528947
-0.089062214 0.04211216 -0.0765574 -0.08887374 -0.022982527 0.04734962 -0.03458946 0.07237919

bias_hh_l0 f4 [300]
00000000: 5a9e e9bc 9379 c73d a0b3 09bd 10fc bbbd
00000010: 00ff c33b 2358 103d cd80 863d d852 c63d
00000020: 2771 ea3c 77c8 bf3d 30c4 0a3d 5770 723d
00000030: 8a85 47bd 62d3 943d cbe6 c0bd e747 ff3b
00000040: cd8c 86ba 45a0 bf3d 07c9 c63c 5a69 513d
00000050: 6737 0a3b 0d88 973d dd45 843d 7ac6 b1bc
00000060: 22f1 933d 0d23 22bd 88b7 833d a737 123c
00000070: 471b febc 5f6d 9abd f023 7bbd 0597 a6bd
00000080: 8d3f 12bd 07be 883c 535d 0ebd 8796 68bd
00000090: bd5a b1bd b85a 993d a7fb 2abd 5a51 37bd
000000a0: 0072 a33c b381 ebbc 100f 073d 9fd2 8e3d
000000b0: 80ff c73b 506d cabd 18b6 973d a7da 56bc
000000c0: b5ba 8b3d c73e 623d 6d92 bfbc c75e a73c
000000d0: 17da 42bd b096 bbbd a76e 383d 2d04 76bd
000000e0: 3347 00bb adf6 ff3c fd40 45bd 1217 91bd
000000f0: 2ba5 803d b376 eebc b54f c13d 00f8 65bd
00000100: cd49 a23c cdf4 ac3b 80d1 7dbc 4da5 373d
00000110: 1a78 413c 931a 873c 488f 8dbd dabc 553d
00000120: cf9c b1bd 8dd1 14bd 5fe5 adbd 3de0 87bd
00000130: a721 593c 9a1b a43c bf2f 8ebd eb91 ac3d
00000140: 33b5 573d 73b5 6bbc badc 583d 9bbb a1bd
00000150: a090 663d 6ba3 c4bd 231b 083d 300f 873d
00000160: df01 95bd 2752 4ebc f368 f1bc 0051 f03b
00000170: a781 833c b32d dabc 6710 ceba e77c e93b
00000180: b032 1cbd ea9c a33d eac2 323d 7a17 d63c
00000190: e31b 033d 4db6 b03c 73e0 e13c 4292 b13d
000001a0: 3340 3abc d5d3 a13d 1370 943d 33aa 1bbd
000001b0: da73 71bc 0d17 6d3d 358b be3d 7a78 1cbd
000001c0: 0077 ef3b f3f1 dabc d203 a13d ffea 90bd
000001d0: ca8d 503d 0abc 38bd efbe ab3d 4382 a63d
000001e0: a7cb 5bbd a394 adbd 3a35 d2bc 53bb 66bd
000001f0: 47a5 f03c a394 68bd 70df 10bd e7d1 7e3d
00000200: ed0d b5bc 5acb 603d 70f0 cb3d 6820 b6bd
00000210: b34c b13d 7359 003d 9031 6ebd 37f7 923d
00000220: 93d8 5c3d 3b7f c23d 9548 8c3d 634f 633d
00000230: cd53 3dbb 4f23 b0bd f770 8cbd a7cc 963c
00000240: 6fa7 aabd 47dc 89bd 3730 5b3d 7a55 85bd
00000250: 001b 3dbd 07a6 993d 453d cbbd 4335 783d
00000260: 7de3 08bd 807b 61bc 4074 b1bc 273e 12bd
00000270: 525e a73d fde3 3fbd 3a23 963c d7bb 2bbd
00000280: 2742 15bc ed52 4a3d da0c b73c 8daa 86bc
00000290: 2f73 99bd da04 d53c dab3 a9bd 074f 4abd
000002a0: 0032 48bb ed39 f3bc a39d 5c3d e7d2 b93d
000002b0: 1abe 8f3c 6fc8 cbbd 0df1 a53d fda6 9c3d
000002c0: 3d7c 26bd 5758 c9bd 08c7 a53d 00f8 9f3c
000002d0: 8d6b e0bc 48f5 86bd 8056 8f3d c073 babc
000002e0: 6d68 883d 6ac9 88bd 6388 a83d 6090 5dbd
000002f0: 82bc b83d 3566 983d 7ab0 b7bd 3dd7 98bd
00000300: 0309 6f3d 4fbf a5bd 2d06 91bc 22e1 94bd
00000310: e8b6 8b3d 0d76 96bd 33d6 a63d 8b95 c1bd
00000320: 23b1 37bd c0ab 533c cd94 d33c 138f 32bd
00000330: e78e 9bbb 8d02 b0bc e7b3 bbbc 1f4a 93bd
00000340: 33e5 0ebb 8086 e03c dabe 18bd e7e6 ee3b
00000350: 9a64 65bd 0b1d b43d bada 393d c74b 3f3d
00000360: 7dae a4bd e3e3 4d3d 0014 c93d 0ddf 77bd
00000370: 2227 873d f377 a13c 3a95 093d 40bb 823d
00000380: 3bf0 913d 5a15 053c 9a72 323d 93ee b13d
00000390: e39d 6b3d 8a68 923d b3b8 d6bb 4726 553d
000003a0: 10f5 803d c799 463d ad66 bebd 9f5a c03d
000003b0: b5c3 b23d 4d9a 3cbc cd3e b43c ba70 0abd
000003c0: 5fa7 a8bd 8ab3 be3d 0dfc 273c d30a c7bc
000003d0: ddc6 a83d a07c c03d 4dc8 7b3d 5047 193d
000003e0: 9d66 9dbd 9bb6 a1bd dd72 7cbd daf5 213c
000003f0: 6d82 d33c 3a46 bd3c 4bed bd3d 9a7e 4f3c
-0.02851789 0.09739985 -0.03361857 -0.091789365 0.005981326 0.035240304 0.065675355 0.0968377
0.028618408 0.093644075 0.033878505 0.059189167 -0.048711337 0.072668806 -0.0941902 0.007790554
-0.001026535 0.09356741 0.02426578 0.05112586 0.0021090151 0.073989965 0.06458638 -0.021701086
0.07223727 -0.03958421 0.0643149 0.008924401 -0.031018866 -0.07540392 -0.06131357 -0.081342734
-0.035705138 0.016692175 -0.03475697 -0.05678418 -0.08659885 0.07488006 -0.0417439 -0.044755317
0.01995182 -0.028748369 0.03297335 0.069737665 0.006103456 -0.09884131 0.074077785 -0.013113654
0.06822721 0.05523565 -0.023385251 0.020430936 -0.047571268 -0.09159601 0.0450274 -0.060062576
-0.0019573688 0.031245554 -0.04815768 -0.070844784 0.06281503 -0.029109335 0.09439031 -0.056144714
0.019810582 0.005278206 -0.015491843 0.044835377 0.01180842 0.016492164 -0.06912094 0.052182056
-0.08672487 -0.036332656 -0.08491015 -0.06634567 0.013252652 0.020032693 -0.069427006 0.08426269
0.05266304 -0.014386523 0.052944876 -0.07897111 0.05629027 -0.09601482 0.033229005 0.06594694
-0.072757475 -0.012592829 -0.029468989 0.0073338747 0.016053034 -0.02663312 -0.0015721441 0.007125485
-0.038134277 0.07988913 0.043642916 0.026134241 0.032009017 0.021571303 0.027572846 0.086704746
-0.011367845 0.07901732 0.07247939 -0.03800411 -0.014737094 0.05788331 0.093038954 -0.038200833
0.007307887 -0.026726699 0.07862057 -0.07076072 0.05091647 -0.045101203 0.08386027 0.08130314
-0.053661015 -0.08475616 -0.025660146 -0.05633099 0.029375685 -0.056782376 -0.035369337 0.062211897
-0.022101367 0.05488143 0.09957969 -0.088929 0.08657207 0.031335305 -0.058152735 0.07176059
0.05391748 0.094969235 0.068497814 0.05549563 -0.002888906 -0.086004846 -0.06857484 0.018408133
-0.08332717 -0.06731468 0.053512778 -0.06510444 -0.046168327 0.0750237 -0.099237956 0.06059767
-0.033420075 -0.013762355 -0.021661878 -0.035703804 0.08172287 -0.046848286 0.018327344 -0.041927185
-0.00911001 0.04939549 0.022344995 -0.016438747 -0.07492673 0.02600329 -0.08286257 -0.049391773
-0.003054738 -0.029690707 0.05386127 0.090734296 0.017546702 -0.09950339 0.081026174 0.07649038
-0.040645827 -0.098313026 0.08094603 0.019527435 -0.027395034 -0.065897524 0.069989204 -0.022760272
0.06660543 -0.06679042 0.08229139 -0.054092765 0.0902033 0.074413694 -0.08969207 -0.074629284
0.058358204 -0.0809313 -0.01770314 -0.07269503 0.06821996 -0.07346735 0.08146324 -0.09452351
-0.044846665 0.012919366 0.02582779 -0.043593477 -0.00474726 -0.021485591 -0.022912933 -0.07191872
-0.0021804094 0.027407885 -0.037291385 0.0072907093 -0.056004144 0.08794602 0.04537461 0.046703126
-0.080410935 0.050266158 0.09818268 -0.060515452 0.06599261 0.019710517 0.03358958 0.06383371
0.071258985 0.008122766 0.043566324 0.086880825 0.05752362 0.071488455 -0.0065527796 0.052038457
0.06296742 0.048486497 -0.092969276 0.093922846 0.087287344 -0.011511398 0.022002602 -0.03379891
-0.082350485 0.09311588 0.010252965 -0.024297154 0.08241055 0.0939877 0.06147032 0.037421525
-0.076855876 -0.07896157 -0.06163298 0.009885276 0.025819028 0.023104776 0.09273776 0.0126644615

weight f4 [50, 100]
00000000: 20a0 47bd 0d4b 3e3d 4b27 abbd 9b0a a53d
00000010: 35fc a83d 9adf 183d a5b3 b5bd 177e 493d
00000020: d27e a83d a757 15bc 22a4 95bd fd8d 943d
00000030: 7331 01bc 2da3 ef3c 7a20 533d 6f8f be3d
00000040: 95c3 98bd 8084 e63c 95ef adbd 1790 2d3d
00000050: e7c5 c13b 6736 85bc 57ba 2f3d 0de6 58bc
00000060: 4d9a 553d f079 ae3d 0b4c b2bd ba44 2abd
00000070: 8a7d 79bd d838 b2bd d2e9 c23d a085 453d
00000080: 7ab4 c03d 0d2a c7bd 6738 63bd 8856 bebd
00000090: 705a 6d3d e567 84bd 5b89 a4bd 0845 80bd
000000a0: 67fe 9fba cbec 84bd 730b 093d 35ee ae3d
000000b0: 9aed be3a 17bf b7bd 9aaf 77bd fdec 4c3d
000000c0: 57b4 74bd 621c ad3d 6392 c93d e781 c6bb
000000d0: 47bd 2b3d 3312 a93d f3e4 6c3c 8893 953d
000000e0: 8d8f 25bc 3376 02bb 4086 853d 1a23 a7bc
000000f0: 9d12 93bd ad9d a7bd c7cd 11bd 6530 c0bd
00000100: b331 c2bb edac 8ebc 9abb 5d3c e386 92bd
00000110: 97ea a33d 503f a63d a3f8 123d a87f 8dbd
00000120: e7da 91bd faa3 2a3d 17d8 48bd 73fc 443d
00000130: 27ef 0c3c da43 123d c5d1 bdbd e3fb 7abd
00000140: e7ae 1dbd a336 093d dd49 233d 9353 5c3d
00000150: f027 783d 1343 463d 3836 c33d 6394 3abd
00000160: 9329 bebd 5829 8d3d 0a52 13bd e027 9ebc
00000170: 603d fb3c e021 34bd 2d88 1bbd 83cc 63bd
00000180: 8d05 febc 336c 833c ad6d e9bc 4d3a adbb
00000190: 4d81 343c 00ef 1d3c cd49 9c3c ba29 723d
000001a0: 07f7 7abd 10f5 063d d272 983d e70d 133d
000001b0: e5a5 c5bd 3d2b a83d 55c6 c83d c8a7 933d
000001c0: 8d45 0cbc 489b b0bd 67a2 05bd 0de0 633c
000001d0: 80ae 3fbc 13b7 d7bc 28c6 80bd 7a65 493d
000001e0: 73eb 27bd 7b23 b63d ed5a 343d 6206 cabd
000001f0: fdbe 8abd fde9 c0bd 073d 1e3d 0000 0a3a
00000200: 7352 1a3c 0029 98bc ad61 8cbc fa3d 84bd
00000210: 9078 a1bd da38 71bd dac3 573c 87ce 6fbd
00000220: c0e9 6cbd ba6c bfbd 3a4b 963c 301a 4f3d
00000230: 67a1 22bc ed24 dbbc 97c0 133d 33ab 21ba
00000240: 1a81 10bc 67b8 3e3c 7a8f c43d 8a06 c6bd
00000250: 67ff 8c3b c788 bfbc 4a49 b73d 7739 0dbd
00000260: f358 3bbc 0060 2ab9 dd11 29bd 8d1b c73d
00000270: 6021 e43c f799 aebd 40f3 d8bc b345 a7bb
00000280: 208e ba3d 071f bd3d 951d aabd c044 15bd
00000290: c7f9 a43d 2016 7abd 7500 803d 4d9f 87bd
000002a0: b58e b9bd 0705 9bbd 2afd 49bd 980e a43d
000002b0: e811 aebd adbf c83d 1d65 3a3d d2d6 a7bd
000002c0: 0785 803d 8af4 053d 8752 6cbd 339b 55bc
000002d0: 6383 623d a828 b3bd fd54 593d 5f57 c1bd
000002e0: e794 1d3d 3304 123c c3b0 463d e706 f2bb
000002f0: 8020 4e3d c3e2 bcbd 68b1 a8bd 775d 613d
00000300: 3045 7f3d 3326 04bb 9a99 d7ba 332a 14bb
00000310: f5ac 90bd d017 9a3d 1dcd 6f3d e3a6 2e3d
00000320: 0d25 4ebc dde1 a5bd b355 653c 1a45 693d
00000330: 205f 183d 2a2b 43bd ad74 943d 02ea 8bbd
00000340: 9a9d d0ba a382 7d3d 9a9a c6bc 5a35 90bc
00000350: 2b77 883d abeb 9dbd 0047 e83c 334c cebc
00000360: 1a44 a5bb 1f48 a2bd 8d01 6ebc 9070 793d
00000370: 7b31 b0bd 0d71 6b3d a74b afbc e35f 48bd
00000380: d090 703d 0d59 c4bd a71c a2bd c2e8 b6bd
00000390: 7f70 993d 478d 363d b794 04bd f3be 263d
000003a0: cd36 a83a a578 b13d db6a 95bd c5dc 843d
000003b0: 4f46 a6bd 6f9b a93d 3a5a fc3c 1f16 9dbd
000003c0: f5c3 83bd 28ec b5bd 8d2a 4a3c df7f 913d
000003d0: 1d5c c63d bd5a 67bd 5320 c13d 7aa3 5fbd
000003e0: 134c bd3c b821 80bd 2d12 97bd 3303 0b39
000003f0: 32ef b4bd 9aa8 2abb bb17 b13d 2dd0 f4bc
-0.04873669 0.046458293 -0.08357104 0.080586635 0.0825123 0.037322618 -0.08872155 0.049192514
0.08227314 -0.009115136 -0.073066965 0.072536446 -0.007885325 0.029252613 0.051544644 0.093047015
-0.07459179 0.028139353 -0.08492962 0.042373743 0.0059134844 -0.016261293 0.042902317 -0.013238442
0.052149106 0.085193515 -0.0870591 -0.04156945 -0.06091074 -0.08702248 0.09517254 0.048223138
0.09409423 -0.097248174 -0.05547371 -0.09293848 0.057947576 -0.06465129 -0.08034011 -0.06263167
-0.0012206555 -0.06490477 0.033458184 0.08541528 0.001456666 -0.08971994 -0.0604702 0.050030697
-0.059742298 0.08452679 0.09842374 -0.006057966 0.041928556 0.08255424 0.014458883 0.0730353
-0.010105026 -0.0019906878 0.06519747 -0.02040248 -0.071812846 -0.08184371 -0.035596635 -0.093842305
-0.0059263348 -0.017416442 0.013533497 -0.07154634 0.08003729 0.08117545 0.03588165 -0.06909114
-0.071218304 0.041660286 -0.049034204 0.048092317 0.00860194 0.03570924 -0.09268526 -0.061275374
-0.038496878 0.03349937 0.039865363 0.05379064 0.060584962 0.04840381 0.09531826 -0.04555167
-0.092852734 0.06892651 -0.03596691 -0.019306123 0.030668914 -0.04397762 -0.037971664 -0.05561496
-0.031008506 0.016042804 -0.02849468 -0.005286491 0.011017156 0.009639502 0.01907816 0.059121825
-0.06127074 0.032948554 0.07443775 0.03590193 -0.096507825 0.08211372 0.09803454 0.07209736
-0.008561504 -0.086233675 -0.032625582 0.013908398 -0.011699319 -0.026332414 -0.06287795 0.04916904
-0.040996026 0.08893486 0.044032026 -0.09864499 -0.067747094 -0.0941963 0.03863242 0.0005264282
0.0094190715 -0.018574238 -0.01713642 -0.064571336 -0.078843236 -0.05889211 0.013169253 -0.05854657
-0.05784011 -0.0934691 0.018346418 0.050562084 -0.009926177 -0.026751006 0.03607234 -0.0006167173
-0.008819843 0.011640645 0.095976785 -0.09669216 0.0043029073 -0.02338065 0.08949526 -0.03447863
-0.011434781 -0.00016248226 -0.0412768 0.09722052 0.027847946 -0.0852546 -0.026483178 -0.0051047443
0.091091394 0.092344336 -0.083064236 -0.03644252 0.08055454 -0.061056256 0.06250087 -0.06622181
-0.09060422 -0.07569318 -0.0493137 0.08010596 -0.08499509 0.09802184 0.045506585 -0.081952706
0.06275373 0.032703914 -0.05769589 -0.013037491 0.05530108 -0.08747989 0.053059567 -0.09440493
0.038472082 0.008912134 0.048508417 -0.0073860767 0.050323963 -0.09222939 -0.082369626 0.055020776
0.06232184 -0.002016437 -0.0016448975 -0.002260816 -0.07064239 0.07524073 0.05854522 0.042639624
-0.012582076 -0.080997206 0.013997483 0.056950666 0.037200093 -0.047648586 0.07248817 -0.06831743
-0.001591611 0.061892163 -0.024243642 -0.017603565 0.066633545 -0.07710966 0.028354168 -0.025182819
-0.0050435187 -0.07923912 -0.014526737 0.060898364 -0.08603188 0.05748086 -0.021398379 -0.04891957
0.058731854 -0.095872976 -0.07915621 -0.08931114 0.0749216 0.044568326 -0.032368388 0.040709447
0.0012833715 0.08665589 -0.07295772 0.06487421 -0.08118879 0.082816 0.030804742 -0.07670235
-0.0643386 -0.08882934 0.012339246 0.071044676 0.09685538 -0.05648302 0.094299935 -0.054599263
0.023107564 -0.06256431 -0.07376514 0.00013257265 -0.088346854 -0.0026040436 0.08647104 -0.029884422

bias f4 [50]
00000000: cd69 a5bb 3a31 873d 978d 3e3d e0df 21bd
00000010: 3a01 c83d 3384 6e3d 0dba d53c 5f49 c33d
00000020: ea6e b6bd 3dba 973d 6395 84bd ad4e 213d
00000030: cb53 b23d 2769 54bd 7776 483d 907a abbd
00000040: 0afd 8dbd 9a15 5b3d 07a8 d73c 706c 7abd
00000050: 45b3 8a3d fa84 e8bc cd22 96bc 80e6 62bc
00000060: 5fb3 c9bd e29a b23d cdf6 a33b f331 f73c
00000070: bd11 07bd 7adb 803c f708 043d 1ac4 f03b
00000080: cdd3 133d 7377 c4bd 4de1 c0bd 80e8 933c
00000090: fdae 533d 87bd 8abd f377 763d aa63 57bd
000000a0: d7c6 2cbd 5272 953d 70f5 c73d bdc0 453d
000000b0: 37c9 42bd 5fc6 9dbd e3ec 023d 672c 0ebb
000000c0: ddb2 3dbd 9a36 e23b
-0.005048013 0.06601186 0.04652175 -0.039520144 0.09765859 0.058231544 0.026089692 0.09535479
-0.08907874 0.07408569 -0.06473806 0.03938167 0.087073885 -0.051858094 0.048941102 -0.08372986
-0.06933029 0.053487398 0.026325239 -0.06113857 0.06772474 -0.02838372 -0.018327141 -0.013848901
-0.098486654 0.08720948 0.005003786 0.030175185 -0.0329759 0.015729655 0.032235112 0.007347596
0.03609066 -0.09593096 -0.09417973 0.0180552 0.051680554 -0.06774431 0.060172986 -0.05258528
-0.042181816 0.072971955 0.0976361 0.048279513 -0.047555175 -0.07703852 0.031964194 -0.0021693946
-0.046313155 0.0069034817

weight f4 [2, 50]
00000000: fcd9 96bd 61dc 083e 695f aabc d4c7 d73d
00000010: 1dc2 3fbd a1c3 783d 2842 923a dd5c 94bc
00000020: 9945 99bd b0db cebc 9742 84bd 1275 8fbd
00000030: 362b e63d 3504 44bd efb2 cf3c 9828 333d
00000040: c6a0 72bd dbe2 98bd ffb4 3dbd 4773 bfbd
00000050: dc26 ea3c 3ecf afbc 007d 0dbe e193 bebd
00000060: 6427 853d 62eb d5bd 5962 5bbd 831b 913d
00000070: d996 e8bd 9564 00be 79c0 233c db1e 843d
00000080: 7f07 b5bb e2a5 5ebd e4a7 f1bd 34b5 f13d
00000090: be78 40bd 466c 863c 68a8 8c3d 303b a83d
000000a0: c4b4 e03c fc19 b93c f109 cf3d 1a9e 083e
000000b0: 8570 9f3d 6f18 3ebd b77c 033e 6032 8bbd
000000c0: e5e3 03be 7ff2 f5bd e10f 913d 4959 5cbd
000000d0: e2ac f6bc 6882 8f3c 481d ad3c bc1a 9bbb
000000e0: adf1 47bd faac f93d 3343 c6bd 605a b13c
000000f0: 6052 db3d ace2 e5bd 2fe1 c83d bb73 de3d
00000100: 6402 93bd cf12 803d b794 adbb d0a6 bdbd
00000110: 0836 adbc 481f 07be 3303 db3d f1f6 f83d
00000120: d363 f93b bc94 c1bc e072 fcbd 5f66 8bbd
00000130: 957a 0abe 4e4d 0abe a167 e03d 1354 44bd
00000140: beda b93c 6cd8 32bd 7c8e 1f3d 21c7 d0bc
00000150: fddc 0b3e 3b3d c7bd 9d8b a73c ea9d ed3d
00000160: ba34 e13d 29b0 ab3d 1e8c f2bd b37a 0ebe
00000170: ed35 efbd d645 ef3d 3b7b 1a3d 1b76 ae3c
00000180: 6944 bd3c 8cc0 f73c 7026 e8bd fbed 863d
-0.07365796 0.13365318 -0.020797448 0.10536161 -0.04681598 0.06073344 0.0011158632 -0.018110687
-0.07483978 -0.02525124 -0.064580135 -0.07004751 0.112387106 -0.047855575 0.025353877 0.043739885
-0.059235357 -0.07465144 -0.04631519 -0.09348159 0.028582983 -0.021461125 -0.13817215 -0.093055494
0.06501654 -0.10445286 -0.05356059 0.070853256 -0.11356897 -0.12538369 0.0099946195 0.06451198
-0.0055245752 -0.054357417 -0.11799601 0.1180214 -0.04699015 0.01640905 0.068680584 0.08214414
0.027429946 0.022595398 0.10109318 0.13341561 0.07785133 -0.04641002 0.12840544 -0.06796718
-0.12879904 -0.12009143 0.07083107 -0.053796086 -0.030111734 0.017518237 0.021132126 -0.0047334116
-0.048814464 0.12191196 -0.09680786 0.02164954 0.10709071 -0.11224875 0.09808575 0.108619176
-0.0717819 0.062535875 -0.005297269 -0.092603326 -0.021143928 -0.13195527 0.106939696 0.12156475
0.007610777 -0.023630492 -0.12326598 -0.06806635 -0.13523324 -0.13506052 0.10957266 -0.047931742
0.022687312 -0.043663427 0.038954243 -0.025485577 0.13658519 -0.09728476 0.020452315 0.11602385
0.10996385 0.08383209 -0.118431315 -0.13913994 -0.116802074 0.11683242 0.037715178 0.021296551
0.02310391 0.03024318 -0.11335456 0.0658836

bias f4 [2]
00000000: 179a 05be cb34 ba3c
-0.13047062 0.022730252
