prefect_ais/ML_data_pipeline/lightning_logs/version_5/checkpoints/epoch=152-step=306.ckpt (torch, 448063 bytes, 24 tensors)

rnn.weight_ih_l0 f4 [300, 2]
00000000: 548b 0bbd edd9 3c3d 3c4d 9dbd 619d 1f3d
00000010: e5d0 e7bc 3f35 c13d d920 adbd cf57 ccbd
00000020: 8575 bb3d 7b72 a73d ff03 2f3c ba25 dfbc
00000030: 0d2f a93d f9a8 d43c c053 82bd 35c2 9cbd
00000040: 5d06 81bd 5418 bcbd 1da8 343b f410 273d
00000050: 6b93 8d3d e464 e1bd d0b3 9b3d 8aef e5bd
00000060: f977 8fbd da7c c1bd 5683 943c 643d 2cbd
00000070: 7a73 00bd 7d8f 033d a446 833c 21be 97bc
00000080: 7f75 753a 7b7d 66bb 6bd7 1d3c bb49 5f3d
00000090: e0af 15bd ef91 5bbc ad81 893d 04ca eabd
000000a0: d78d 933d c2c2 8a3b 3992 8dbd e0f3 353d
000000b0: 8510 83bd 1188 afbd b407 453c 9467 c9bd
000000c0: a00e 8a3d 5a37 5a39 32ce cebd 8e31 673d
000000d0: b563 733d 5915 15bd 5991 b3bd 7d65 893c
000000e0: 4bdc 82bd c931 65bd f584 afbd ecbf 31bd
000000f0: d406 89bd 6027 7c3d 4cd3 723d 5c5b 73bd
00000100: f72c 8d3d d27a eabb 69f1 32bd 12da efbd
00000110: aca8 73bd 0507 bbbd 7217 11bc 3c11 e8bc
00000120: d503 9f39 f6ae 12bd b7b0 293d 57c4 b13d
00000130: cd96 92bb a8ef c6bd 8f89 703d 4b28 013d
00000140: 9e83 a3bc 4825 ffbb 5fd0 1ebd 5cb9 d0bd
00000150: d9e4 173c 97ec e3bd 3239 543d 6841 223d
00000160: 08d1 afbd c50d abbd be8b 8b3d b7cd 973d
00000170: 62fd 5bbd f16b 81bd 89e0 413d c84c 753d
00000180: fe4c d3bc f216 0a3d de6a 723d 7fc7 a3bd
00000190: ea9e 073d 8c86 403d 2893 1dbd a356 8c3c
000001a0: 6653 17bc 1022 d4bd 6108 2fbd 1b86 103d
000001b0: 00c9 a23c b5fe 503d 59d8 d6bd 5d1a 84bc
000001c0: 05c4 593d 3a58 e2bc a4d4 39bd b5da f83c
000001d0: 3959 d83d 35a0 cbbc d99c 8e3d ac7c f5bc
000001e0: cf27 6e3d 2e47 cb3c d494 c8bd 6495 8dbc
000001f0: b65a aa3b 7ea0 d3bd 9e82 adbb 28de 66bd
00000200: 89ce 933c b26c 39bd a089 acbd 0dd9 8c3d
00000210: d856 bdbd 950e b53d 7e39 cebd d08b 89bd
00000220: bb37 04bd 5f06 27bd 115a d2bd 5243 e1bd
00000230: 8796 c9bc f8af 003c afa5 d5bd 23da 303d
00000240: 33a2 9abb 8a22 6f3d 5384 5dbd 2e7e 7dbd
00000250: e6ea 003d e230 b6bd 28f8 183c 7cf1 64bd
00000260: 67e6 903d bfc7 523d b225 3c3c 62be a6bc
00000270: 5853 9a3b 7ea1 48bd 8c86 a53d 99ae b93d
00000280: 10f8 73bc 86e2 08bd 0ab2 6cbd c011 61bb
00000290: 1352 acbd 0fec c63c 4710 a0bd 29bd b5bc
000002a0: 91ae b1bc 123d 813d 20e8 aabd d37d a43d
000002b0: fd3d 85bc 0def 1fbc 7e2c 86bd c43a e53c
000002c0: 5475 85bd efbf 373d 5d4e b4bc 6594 3dbd
000002d0: 80cd a0bd 2281 b5bc aca8 b33c 7117 eabc
000002e0: e2df ecbd 0080 3dbd 64e9 353d b7b2 293d
000002f0: 0b0e 0ebd 89fa 393d f01d b33d 0ab9 b13d
00000300: 29f1 a7bd 8e8a 903d a1a3 9f3d bfba 11bd
00000310: f5af d23c f253 e4bb 8ed6 acbc fc70 9ebd
00000320: e7e9 ca3d 5731 c7bc 78b2 933d dcab 573d
00000330: 832e ac3d b7e2 e1bc 7d77 e4bc 7de4 a53d
00000340: d3c4 a83d 97a9 8ebd a877 3e3d 06ef 3fbd
00000350: 5d64 c83c 2517 94bd b44a 55bd 385e 6b3d
00000360: 9040 bebc 930c 99bd 1d25 56bc a71a 813d
00000370: 30b6 4eba 2a38 153d 4a4c 9fbd fe8b 73bb
00000380: 93d8 3cbc 7c7d 08bd 8248 afbd 9158 2b3d
00000390: 28f3 4f3b 2b63 4fbc e6ce 83bd d04a 00bd
000003a0: 9b66 7bbd ad60 983d 2296 72bd 209a d23d
000003b0: dab2 1ebc 00fa 0e3d 7f9c 4e3d 5bb7 c83d
000003c0: 49bc c63d 0223 adbd 751a 043c d72c a63d
000003d0: 1061 a7bc b320 86bd 30ec 51bd 1207 aa3d
000003e0: 86b0 a53d 9e0a b03d 77cf 063d bea5 9e3d
000003f0: 28d1 543d 9d74 c0bc 35f1 513d f709 f43d
-0.03406842 0.046106268 -0.07680747 0.038968448 -0.02829785 0.09433984 -0.08453531 -0.09977686
0.091532744 0.08176132 0.010682105 -0.02723967 0.08260927 0.025959479 -0.0636363 -0.076542296
-0.06300042 -0.09184328 0.0027566024 0.040787652 0.06912883 -0.110055715 0.07602656 -0.11227329
-0.07005305 -0.09447642 0.018129032 -0.042050734 -0.031360127 0.032119263 0.016024895 -0.018523278
0.00093635166 -0.0035170007 0.009633879 0.054513674 -0.03654468 -0.0134014925 0.06714187 -0.11464313
0.07204788 0.0042346427 -0.069126554 0.04442203 -0.06399635 -0.085708745 0.012025762 -0.09834209
0.06741071 0.0002081072 -0.100979224 0.056443743 0.05942126 -0.03639731 -0.08767957 0.016772026
-0.06389674 -0.055955682 -0.085702814 -0.04339592 -0.066907555 0.06156099 0.05928354 -0.0594133
0.06893342 -0.0071557546 -0.043687258 -0.117115155 -0.05948703 -0.09132198 -0.008855687 -0.02832853
0.00030329698 -0.035811387 0.041428294 0.08680027 -0.0044735433 -0.097136796 0.058724936 0.031532567
-0.01996022 -0.0077864267 -0.038772937 -0.101916045 0.00927087 -0.1112911 0.05181236 0.039613158
-0.085847914 -0.08352236 0.06813763 0.07412284 -0.05370844 -0.06319416 0.047333274 0.059887677
-0.025793549 0.03371329 0.059183948 -0.07997035 0.033110537 0.047003314 -0.038470417 0.017131155
-0.009236192 -0.103580594 -0.0427326 0.035284143 0.019871235 0.051024158 -0.10490484 -0.016125852
0.053165454 -0.02762996 -0.045368806 0.030377725 0.10563893 -0.024856666 0.0696351 -0.029966675
0.058143433 0.024814215 -0.09794012 -0.017283149 0.005198802 -0.10333346 -0.005295112 -0.05636421
0.01804282 -0.045269676 -0.084246874 0.06877337 -0.0924508 0.08840672 -0.100695595 -0.0671612
-0.03227971 -0.04077756 -0.10271085 -0.109991685 -0.02460791 0.007854454 -0.10431992 0.04317678
-0.0047190427 0.05838255 -0.054081272 -0.061887912 0.031474017 -0.088960424 0.009336509 -0.05589436
0.07075196 0.051460024 0.011483597 -0.020354453 0.0047096424 -0.048982136 0.080823034 0.09066505
-0.014890686 -0.033419155 -0.05778698 -0.0034342855 -0.08414092 0.024282483 -0.07815605 -0.022184925
-0.021689685 0.06310476 -0.083450556 0.080318116 -0.01626491 -0.009761584 -0.06551455 0.027982123
-0.06516519 0.044860777 -0.022010023 -0.0462841 -0.07851696 -0.022156302 0.021931015 -0.02857563
-0.1156614 -0.04626465 0.04441203 0.0414302 -0.03468136 0.045404945 0.087459445 0.086778715
-0.082002945 0.07057677 0.077948816 -0.035578486 0.025718668 -0.006968015 -0.021098401 -0.07736394
0.099078946 -0.02431552 0.072117746 0.052654132 0.08407309 -0.027573926 -0.027889008 0.08100221
0.08240666 -0.069659404 0.04650083 -0.04685881 0.02446192 -0.07230977 -0.052073196 0.0574629
-0.023224145 -0.074731015 -0.013070372 0.06303912 -0.00078854244 0.036430515 -0.07778223 -0.00371623
-0.011526245 -0.033322796 -0.08558752 0.04183251 0.0031730626 -0.012657921 -0.06435947 -0.031321347
-0.06137715 0.074403144 -0.05922521 0.10283303 -0.009686196 0.034906387 0.050442215 0.09800597
0.09703881 -0.08453943 0.0080629485 0.08114021 -0.020432025 -0.06549206 -0.051250637 0.0830213
0.0809031 0.08595775 0.032912698 0.077464566 0.05195728 -0.023493106 0.051255424 0.11915963

rnn.weight_hh_l0 f4 [300, 100]
00000000: 4173 aa3c d68a b63d 7218 f63d 515d b2bc
00000010: e60b b4bd bf07 6fbd 1b3c 37bd 1f76 42bd
00000020: 628a 96bc 4fbd 3cbc 6c59 e8bc a405 a2bc
00000030: d1be 78bd 9289 c03c d187 93bd 25fa 4bbd
00000040: d707 2ebc 0536 d43c 55a7 d5bc 1a68 60bd
00000050: fa7a ccbc 53d0 5dbd b7ab 9a3d 4ae7 583d
00000060: 0741 833d d20a e0bd 321d 8bbd dddc 463c
00000070: d5b7 213c 2c82 053c 02ce 53bd 5e70 4dbc
00000080: 0f20 adbd be5e f93c ad49 97bd d0c4 06bd
00000090: 3012 cdbd d045 cfbc 599f 9c3c e707 f43d
000000a0: ba46 afbd 3021 ed3c a5eb 39bc 3f83 013d
000000b0: a26e f43c e8c7 15bd 5af9 603c 3781 14bd
000000c0: d338 debc 6a06 d9bd 85f1 6a3d 9d15 4f3d
000000d0: 9511 bfbd cf7c 66bb 9068 3ebd 640f d2bd
000000e0: 4f60 9cbd 1d90 c43d 2a61 aebd 41e8 8d3d
000000f0: 05e4 aabd 6e6e 2b3d 3984 4b3c efa2 1cbc
00000100: 9369 8b3d 380f a93b fd1c 383d feb1 7f3c
00000110: 527b 05bb 8b61 a5bd 914d 443c 8256 c7bd
00000120: f03f d33d 00f6 38bd 616a d23c 57b6 6a3d
00000130: fde9 4d3c 6fdf 39bd 9e70 a9bd 3d1b aebd
00000140: 769e a63d d189 83bc f280 d13d 35bc 0fbd
00000150: 9d58 1cbc 2970 743d b2e4 8cbd 8653 ecbc
00000160: 2d8a 4bbd e428 58bd 8580 8a3d 550f 2dbb
00000170: 37e7 0cbd ea64 6c3d 8d10 9fbd 1c20 80bd
00000180: 64ca a6bd f42d e73c 703b 92bc 3927 4f3d
00000190: 4253 cbbd ef03 ea3d d6a0 edbc c0aa a7bd
000001a0: 5ad2 51bc d269 69bd a22d c63c fc35 9c3d
000001b0: 71a7 6abd 0477 05bc 797e 71bc 6d1c 93bc
000001c0: 488e 983c 2faa 743d 2838 363d e188 b53a
000001d0: f5e6 4cbd be0b 97bd 8292 0a3c a668 1e3d
000001e0: a9b1 ed3d 0764 f4bc ae9a 993a 6256 94bd
000001f0: 209e b03d b721 91bb 32e3 443d 226f bbbb
00000200: 7196 d73d 6fe5 853c 1e72 483d b598 973d
00000210: 9057 d13b 11bd 123d 5a20 acbc 97bc 783c
00000220: ff82 c63c 2d19 a93d 3c81 8b3a 29cd f8bc
00000230: 1d03 e9bc c395 783d 63f0 5fbd 74a3 ed3d
00000240: 66ed 953d 4109 acbc 8b05 3a3d fda8 db3c
00000250: f1dd bc3c 9dd3 8fbc e234 6ebd bcb4 a7bd
00000260: c472 623d 6c42 eb3d b60e 9a3d a900 2fbd
00000270: 4d2b 8fbd e293 233d 8d20 c6bc b798 0e3d
00000280: f6a0 a0bd 34af 1ebd c0f6 a13c 1acf 703d
00000290: ebed 0a3d ee50 b53d 4c83 edbd 494f c63d
000002a0: 0523 953c c748 0dbd 9613 84bd a680 35bd
000002b0: af82 1e3d 308d ed3d 23c2 803c 3699 b83c
000002c0: c38b 75bd c22b 15bd 2621 d2bd 0313 a3bc
000002d0: 668a 8a3d 1649 d8bc 6c7b 183d 76e5 c2bc
000002e0: fe94 f9bc 2143 e7bc 1659 33bd 5968 f1bc
000002f0: 7e1b 2fbd 8c3e 7bbd 726c b9bc f5bd 763d
00000300: 4b93 cbbd 11a5 563d 7612 8bbd 2231 26bd
00000310: f9bf c0bd 5062 d93d ab1b 31bd ac1e 0ebd
00000320: bf7e a7bd 36d9 bcbd 999a 1c3d d697 ac3d
00000330: aede 6b3d 54e4 f9bc b018 a03c 9956 2d3d
00000340: 03ba 85bc ba37 8fbd f1f1 96bd 2011 c83b
00000350: efee 6e3d 1849 a3bc b5d5 2e3d c0b8 ac3d
00000360: 2be2 8f3d ac9b 313d ff97 bb3d 58fc 05bd
00000370: 561d 1a3d 044f afbb dc16 0f3d d181 c3bd
00000380: e7c6 b5bc 17a2 c63c 3436 2f3d e1ac 26bb
00000390: 59e5 b3bd 12d6 98bd 0a6d 6d3d adcd 2e3d
000003a0: a801 a8bc fd94 653d ab8d 50bd ac90 13bd
000003b0: 2fce a3bd 40e5 d1bd b6e9 8b3d aba6 f23c
000003c0: c305 c2bd c92a a03b 5790 86bd 9a56 b53d
000003d0: ecad 5cbd 49d1 bcbd f2d7 7f3d 14a1 6dbd
000003e0: 9965 8e3d c662 d53c 1b1a 5ebd cd94 26ba
000003f0: f3ae 4ebc 6011 1e3d 3ca3 013d 7a8c f93b
0.02080691 0.089131996 0.12016381 -0.021773012 -0.08791332 -0.058356997 -0.044735055 -0.04747593
-0.018376533 -0.011519744 -0.028362952 -0.01977808 -0.06072885 0.023503099 -0.07203639 -0.049799103
-0.010621986 0.025904665 -0.026080767 -0.05478678 -0.024960984 -0.05415375 0.07552283 0.05295495
0.06408887 -0.10939564 -0.06792678 0.012137619 0.009870489 0.008148711 -0.051710136 -0.012538997
-0.0845338 0.030440684 -0.073870994 -0.03290254 -0.100132346 -0.025301844 0.019118952 0.1191557
-0.08558412 0.02894649 -0.011347686 0.031619307 0.02983791 -0.0365676 0.013731325 -0.03625604
-0.027126705 -0.105969265 0.057359237 0.05055772 -0.093295254 -0.0035169607 -0.046486437 -0.10256842
-0.07635557 0.095978 -0.08514626 0.069290645 -0.083442725 0.04185336 0.012421661 -0.009560331
0.06807246 0.005159285 0.04494952 0.0156064015 -0.0020367694 -0.080752455 0.011981384 -0.09733297
0.103149295 -0.04515648 0.025685491 0.0573028 0.012567994 -0.0453791 -0.08273433 -0.08501289
0.08135693 -0.016056927 0.102296725 -0.035091598 -0.009542611 0.059677277 -0.06879558 -0.02884842
-0.04969232 -0.05277337 0.067627944 -0.0026406844 -0.03440019 0.057713427 -0.07766829 -0.062561244
-0.08144072 0.028220154 -0.017850608 0.050574515 -0.099279895 0.114265315 -0.029007357 -0.08186865
-0.012806499 -0.056985684 0.024191681 0.07627484 -0.05728859 -0.008146051 -0.014739626 -0.01795789
0.018622532 0.059732612 0.04448715 0.0013849997 -0.050024945 -0.073752865 0.008457782 0.03867402
0.116061516 -0.029832853 0.0011719072 -0.07243039 0.0862391 -0.004429068 0.048068233 -0.005720035
0.10526741 0.016344754 0.048936956 0.074021734 0.006388612 0.03582484 -0.02101152 0.015181682
0.024232386 0.08256755 0.0010643373 -0.030371265 -0.028443867 0.0606897 -0.05467261 0.11603442
0.07320671 -0.021000506 0.045415442 0.026813978 0.023055049 -0.01755696 -0.0581559 -0.08188769
0.05528523 0.11487278 0.07522337 -0.04272524 -0.06990681 0.039935954 -0.024185443 0.03481361
-0.07843201 -0.038741305 0.01977098 0.058791257 0.033918303 0.08853327 -0.115973085 0.09683091
0.018205175 -0.034493234 -0.06449048 -0.04431214 0.03869885 0.11599195 0.015717572 0.022533994
-0.05994774 -0.036418684 -0.10260229 -0.019906526 0.06764679 -0.026402038 0.03722708 -0.023791056
-0.030466553 -0.028230252 -0.04378613 -0.029468702 -0.042750828 -0.061338946 -0.022634719 0.06023975
-0.09940203 0.052403513 -0.067906305 -0.0405742 -0.09411616 0.10614455 -0.043239277 -0.03469722
-0.08178472 -0.09221117 0.038233373 0.08427398 0.05758541 -0.030504383 0.019543022 0.042318914
-0.016324049 -0.06993051 -0.073703654 0.006105557 0.058333334 -0.019932315 0.042684276 0.08433676
0.0702556 0.04336135 0.0915985 -0.032711357 0.037625633 -0.0053499956 0.03493391 -0.09546245
-0.02218957 0.024247212 0.0427763 -0.0025432634 -0.08783979 -0.07462706 0.057965316 0.042676616
-0.020508602 0.05605029 -0.050916355 -0.03602664 -0.07998311 -0.10248804 0.06831686 0.02962049
-0.09473755 0.004887913 -0.065704994 0.088544086 -0.053876802 -0.092196055 0.0624618 -0.058014944
0.06952972 0.026048075 -0.054224115 -0.00063545705 -0.012614953 0.03859079 0.031649813 0.007615623

rnn.bias_ih_l0 f4 [300]
00000000: d4a7 193d 7f11 ea3d 4708 afbd aa92 1d3d
00000010: 1997 513d 2c80 8c3d 30d1 0a3d 452e 8e3d
00000020: f437 a7bd 707d 8abd 9b7d 6e3d f323 023c
00000030: f946 093d df12 d73c e81c 333d 345c a73d
00000040: 57f9 d23d 0ecf 72bd 61f1 70bd 7ddd 0bbd
00000050: 2f1f c23d edbc 05ba 63df f13c 17d9 8abc
00000060: 41dd 87bd 4b1e 72bd 357f 16bd ef5c 0d3b
00000070: f608 0abb 805f b93d dd60 4cbd 2e84 30bc
00000080: 8ef6 b83d 965a b63c b2b9 c03d 4a9f 12bc
00000090: c747 7f3d c614 a73d 9194 503c 1c4d b1bb
000000a0: 5b6d 9ebd 9639 633d 0d2e 2f3b a38d 40bd
000000b0: a00d c63d c81b 983d 01a0 8e3d 4566 7bbd
000000c0: 48ba 743d 1f4f 013d e371 aa3d ebe4 ad3d
000000d0: 7f85 4f3d 47c9 a33c 6b9e 70bd b804 e43d
000000e0: 00bf 04bd cb22 38bc 8c66 8e3d 0e90 6cbd
000000f0: c496 83bd 1769 7abd ce22 073d 859e 8abd
00000100: aef1 88bd 838f e13d 7f1d 49bb b9d7 aa3c
00000110: aeb5 5ebd 9145 7c3d 7389 303d d8a0 4d3b
00000120: 3c92 933d 8ea9 3f3d 73b0 013e 794c e23d
00000130: 29d9 12bd cbd8 763d 29e3 ccbd 5873 1f3d
00000140: c2d1 eabc 68fa 02bd eb4b 4abb d02c 5b3c
00000150: 908f 833d 12fa 1b3d 8f20 9b3d 446a a8bd
00000160: 9d6c 473d 27ee 283a 7e90 9c3d 864b aabc
00000170: e89c 8d3d 4e82 2abd 6726 2fbd 4e32 ed3a
00000180: 954e 833d 4bc8 ae3d 5a9e b4bd d0ab 9b3d
00000190: e908 d8bd 7124 6abd ab94 47bd ab2b 3bbd
000001a0: 42aa c4bd fcb4 513d 0574 34bd 718b 8cbd
000001b0: ec98 a9bd e617 0a3d b6d6 853d 7cbe 29bd
000001c0: c092 c0bc 6718 8bbd b6d2 1f3d 00f3 8bbd
000001d0: 8bdf 85bd df19 c5bd 26ba d3bd b8fb 6bbc
000001e0: 35bb fdbc e5a8 993d 6e0e f8bd c337 96bd
000001f0: 9a80 a8bd 27ee 803d cad6 19bc 0a80 083c
00000200: 2620 26bd f833 8f3d 54f6 03bd 48bc aebd
00000210: 5165 763d e684 153d be96 ef3b 383f 96bd
00000220: 4d0d 83bd a0d3 3bbc 00cc c33c 9863 993a
00000230: 067b b5bd 840f a4bd 3b7f dd3c ac95 a23d
00000240: 346a b6bd 3212 343d 1e25 ffbc 707d 3abb
00000250: 1f09 d1bd ef0d 153d a9e7 cf3c bf41 a1bd
00000260: 247c cdbb 4536 823d 7cc3 de3c a598 aabd
00000270: f0d0 b1bc a7ee f1bc 1fcc 46ba b69f 6dbc
00000280: 421b 22bd d92d edbd 6643 0a3d c960 6e3d
00000290: ea08 b5bd e5d8 5c3a 40a2 563d 6d1c b83d
000002a0: 568c e4bd 2efa ad3c 362f cdbd c63c 983c
000002b0: 0de8 efbd 6b5b 70bc c5e2 b33c 471d 8ebd
000002c0: 9580 903d bfe7 213c f6e5 6f3d b640 d33b
000002d0: 7e76 a23d ab02 603d 049f acbc 859d 77bd
000002e0: 72e0 923d a701 0d3d 61ca e8bc 1386 20bd
000002f0: 8550 743d e4bc a03d dcb7 713d b4d8 8dbd
00000300: b74c 30bd 4260 03bd 1e98 04bd 9134 413b
00000310: 69d4 5e3d ce59 a3bc 8c1b 8c3c f098 00bc
00000320: d768 c43b 074f 433b 3e5a 353d 1e42 943d
00000330: ef65 033c 0659 983d a99f 1ebd a54f 9ebd
00000340: 4e95 37bd 796c 2a3d 52b3 24bd 3895 963d
00000350: 38d2 d5bd 1176 ca3d ee14 483d ecaf 553d
00000360: 34a9 92bd 9218 023d e894 a43d e62a cebd
00000370: 65a2 ca3d c812 9bbd b8a9 e0bd d1a0 d43d
00000380: d39e 12bd 814c a73d 4a38 9a3d 1029 b73c
00000390: 5e47 a1bd e194 da3d e4ca 56bd b520 953d
000003a0: 9cbb 3dbd a72e 753c de42 c53c b966 9ebd
000003b0: 64d2 42bd 0292 b23c d5f0 93bd a095 b63d
000003c0: 1217 4a3d 3ada febc 06ce 25bd b474 e73c
000003d0: 2e6f 88bd edf8 9abd 74c1 b43d 3b56 b3bc
000003e0: 580c 873d ec21 39bd b680 c03d e9ec 303d
000003f0: 379c 24bd fd75 543d 3dd9 ac3c 3233 7dbd
0.03751357 0.11429118 -0.08546501 0.038469948 0.05116949 0.06860384 0.033890903 0.06942419
-0.08164969 -0.067622066 0.058225255 0.007943141 0.03351495 0.026254116 0.04372874 0.08171883
0.10301464 -0.059279494 -0.058823947 -0.034146775 0.09478604 -0.00051016995 0.029525464 -0.01694922
-0.06633998 -0.05911092 -0.036742408 0.0021570285 -0.002106247 0.09051418 -0.049897064 -0.010773702
0.090314016 0.022259992 0.094104186 -0.00894911 0.06232431 0.08158259 0.0127307335 -0.0054108035
-0.07735702 0.05547484 0.002673033 -0.047010075 0.096705675 0.07427174 0.06964112 -0.06137683
0.059747964 0.031569596 0.083225034 0.08490928 0.05066442 0.019993437 -0.05874483 0.111337125
-0.032408714 -0.011238764 0.06953153 -0.05775457 -0.06425241 -0.061135378 0.032992177 -0.067685165
-0.06686722 0.11013701 -0.0030687747 0.020854818 -0.054372482 0.06158978 0.04309983 0.0031376388
0.07205626 0.04679256 0.12664966 0.11049742 -0.03585163 0.060265344 -0.10004265 0.03892836
-0.028664473 -0.031977087 -0.0030868005 0.013377383 0.06423867 0.038080283 0.075745694 -0.082233936
0.048687566 0.0006444179 0.07644747 -0.020787966 0.06914693 -0.041628174 -0.042761233 0.0018096657
0.06411473 0.085342966 -0.08819266 0.0760113 -0.105485745 -0.05716366 -0.048725765 -0.045695942
-0.096027866 0.05119799 -0.044055957 -0.06862534 -0.08281121 0.033714198 0.065350935 -0.041441426
-0.023507476 -0.06791764 0.03901931 -0.06833458 -0.06536778 -0.09624075 -0.10338239 -0.014403276
-0.030973056 0.07502917 -0.12112127 -0.073348545 -0.08227654 0.06295424 -0.009389589 0.008331308
-0.040558003 0.06992334 -0.03221734 -0.085320055 0.060155217 0.036503695 0.007311671 -0.07336277
-0.06399021 -0.01146403 0.023900986 0.0011702655 -0.088613555 -0.08010772 0.027038207 0.07938704
-0.089069754 0.043962665 -0.031145629 -0.0028456114 -0.10206818 0.03639024 0.025379019 -0.07873868
-0.006270902 0.06358007 0.027192824 -0.08329896 -0.021706074 -0.029532744 -0.0007583517 -0.01450341
-0.039576776 -0.1158101 0.033755682 0.05819777 -0.08839591 0.0008424654 0.052400827 0.08989797
-0.111595795 0.021237459 -0.100187704 0.018583667 -0.11714182 -0.014670233 0.021958718 -0.06939178
0.07055775 0.009881913 0.058568917 0.006446923 0.07932757 0.054690044 -0.021071918 -0.060452957
0.07171716 0.034425404 -0.028416814 -0.039190363 0.059647102 0.07848528 0.059013233 -0.069260985
-0.04304191 -0.03207422 -0.032371633 0.0029480795 0.05440179 -0.019940283 0.01710298 -0.007848963
0.005993943 0.0029801743 0.044275515 0.07239173 0.008019908 0.07438855 -0.038726483 -0.07730035
-0.044820122 0.041607354 -0.040210076 0.0735268 -0.10440487 0.09885801 0.048848085 0.052169725
-0.07161179 0.031761713 0.08036214 -0.10066776 0.098942555 -0.075719416 -0.10969871 0.10382236
-0.035795998 0.08168889 0.075302675 0.022358447 -0.0787494 0.10672928 -0.052439585 0.07281629
-0.046321496 0.014964736 0.024079736 -0.077344365 -0.047563925 0.021798138 -0.072236694 0.089152575
0.049338408 -0.031109918 -0.040479682 0.02825389 -0.06661831 -0.0756701 0.08825961 -0.021891704
0.06594151 -0.045198366 0.0939955 0.043194685 -0.04018804 0.051870335 0.021099681 -0.0618164

rnn.bias_hh_l0 f4 [300]
00000000: 60b5 36bd 5166 8a3d bd62 883d f2a5 aebc
00000010: a83d 913d dc57 5bbd f3f0 53bd b65a 203d
00000020: 8902 813d 938d 8abd 954e 95bd 45f5 c53c
00000030: df60 7b3c a542 ea3c e568 c23d d35d 6a3c
00000040: 9d00 573d 1db6 d43d 1165 503d 38df 8e3d
00000050: 0ff9 a23c e472 ff3c c4b5 8cbd a376 8c3d
00000060: 004e f6bb e752 3c3c f8e3 e83c 7c15 83bc
00000070: 3298 e73c 233c a93d 97db 46bd d3ea c43d
00000080: e2e1 8b3d 04e3 ce3d 70a8 9cbd e155 853d
00000090: 8c52 663d 6a1d 88bd e194 883d 023b aebc
000000a0: 0b8f 973d 140d 1dbd ee60 bd3d ed03 a13d
000000b0: 32c8 c63c cc93 d0bd 4bfc dc3d bf13 a63d
000000c0: d44d b13d 2ce9 bbbc 63ea 7c3d 5a42 b4bc
000000d0: abce 353d c967 a5bc 7e3d 3fbd b912 b2bc
000000e0: aa69 9c3d d073 61bc f6fc 153b 8e0d e73c
000000f0: 9c12 41bd bf8d a33d dc8f 533d 935d 2fbd
00000100: 0c1d 6dbd 7506 8e3d c103 ebbc dcdd acbd
00000110: 8b04 a03c 5731 b9bc c140 8d3d 8770 0abd
00000120: 5899 193d 73ae 18bd 028c 133d 302e 98bc
00000130: 2407 65bd 2df0 6c3d ddcb 983c 40e2 41bd
00000140: 0fec 663d 567b ccbb 1140 ec3d 76a1 56bd
00000150: 0d7b a93d f464 c3bc 901e d13b d9d7 b2bd
00000160: 3617 30bd d33c 893c af7b 083d 0423 abbc
00000170: 0316 5d3c 0189 67bc fac3 b53d e240 a2bc
00000180: be92 9dbd 2379 de3d 507d f13b 6b13 a83d
00000190: 8065 513d 9c68 dfbd f4b4 81bb 2c48 133c
000001a0: 0585 88bd f5a1 483c 51fd d83b 2767 c53d
000001b0: 1369 01bd 6a67 a43d 2be5 48bd 71e0 8cbc
000001c0: 8f9a 4bbd 6689 353d 1864 553c e9cb 293d
000001d0: 96c4 afbd b009 c9bd 837f 33bd 253f 08bd
000001e0: b41e 9e3d 78df 893d bc40 e7bd dfe3 6b3d
000001f0: 115f bdbb 9f57 2abd 0861 2cbd 7f73 8b3d
00000200: 39d4 5b3d 9f91 a0b8 1600 f1bc c52d b73c
00000210: e4d9 0f3b db5b b0bd 984e 84bd 5c40 243a
00000220: 55ec 8f3d 1b4b b4bd 42d5 213d 6f4a b8bd
00000230: 0f72 5d3d cb7f 75bd e59a 49bd c694 cebc
00000240: 8fcd e8bc 0798 4ebd 3f75 883c a05a 50bc
00000250: 0a85 36bd 1d74 ccbd ea29 b0bc 8846 993d
00000260: a220 01bd 0a33 8cbd c26a eb3b 73f2 fbba
00000270: 20ec 393b 20e7 21bd b032 9d3c ed5e fbbc
00000280: 3b9f ce3d 19cd 493c a008 fabd f872 7bbd
00000290: 635d d9bd 7f70 5e3d cfec 9cbc ba74 f4bc
000002a0: 022f 953c b1d9 7a3d 635c 363d 029a 0cbb
000002b0: 7e55 02bc c213 98bc f0b1 683d 0a83 b9bd
000002c0: f3e0 073d 2465 aebc 91b8 9b3b 72ba 6f3d
000002d0: f34d 64bd f051 47bd 1a8b c5bd 9c85 7c3c
000002e0: a502 a33d 6ff0 43bd 24f0 8ebc 42c2 bebd
000002f0: 5aba 003d 2fe9 8e3d 0c8b 59bd 90e5 553c
00000300: aefc 3c3d 028a e2bd fca8 74bd 9910 d6bd
00000310: 985a c8bd 6200 81bd a79b d3bd 8104 3b3d
00000320: e40b 72bb a745 cd3d dc3c 403d a2a0 073c
00000330: a8e9 8d3c 3af3 853d ccd4 3b3d 8304 89bd
00000340: 0f11 873b 376f 2bbc aa18 ca3c 1bdb 873d
00000350: bb72 db3c 775b d4bc 9939 df3a 8766 ed3b
00000360: 8804 883d e7ce f5bc 7eca a9bd 50bc 16bd
00000370: 4d49 d53d e5d7 12bd 385f 0e3a 76be 043d
00000380: ba78 19bd b753 b0bd 3c14 dbba 151b 893d
00000390: fcd5 573c f7c3 6e3c b7e0 9b3d 75f2 b7bd
000003a0: b7f9 96bd 5930 4f3d 0223 bdbd dd21 85bd
000003b0: d17e b1bd b288 aa3d 7dac a93d 33e7 67bd
000003c0: 2428 653d 524d 99bd fdd1 a8bd 8f26 d93d
000003d0: 4c0a 8f3d 51d9 973d 840b 89bd d8df 023d
000003e0: 9731 4dbc 0143 a43c 0bd0 eabc f3e9 b13d
000003f0: a558 dcbd 6f6d 88bc 00db c03c 2cf8 15bd
-0.044606566 0.067577966 0.06659458 -0.021319363 0.07091838 -0.053550586 -0.05174346 0.03914901
0.06299312 -0.067652844 -0.07290379 0.024164805 0.01534292 0.028596232 0.09492663 0.014304596
0.05249082 0.10386298 0.050877634 0.06976169 0.019894151 0.031182714 -0.068706065 0.06858566
-0.0075166225 0.011494375 0.028429016 -0.016001455 0.028270815 0.08263423 -0.04854926 0.09615102
0.06830193 0.101018935 -0.076493144 0.06510521 0.056231067 -0.06646235 0.066690214 -0.021268371
0.0740033 -0.03834255 0.092470035 0.07862077 0.024265382 -0.1018444 0.107903086 0.08109235
0.08657423 -0.022938333 0.061746966 -0.022004295 0.044386547 -0.02019109 -0.046689503 -0.021737443
0.07637341 -0.013760522 0.0022886372 0.028204706 -0.047136888 0.0798602 0.051650867 -0.04281385
-0.05788903 0.06934825 -0.028688313 -0.08440754 0.019533416 -0.022606535 0.068971165 -0.03379872
0.037499756 -0.037275743 0.036022194 -0.018576711 -0.055915013 0.057846237 0.018651897 -0.04733491
0.056377467 -0.0062402887 0.11535657 -0.052400075 0.08275423 -0.02385185 0.006381817 -0.08732576
-0.042990886 0.016752636 0.03332108 -0.02089072 0.0134940175 -0.014131785 0.0887527 -0.01980633
-0.076940045 0.10862949 0.0073696747 0.08206829 0.05112219 -0.109086245 -0.003958339 0.008989375
-0.066659965 0.012245645 0.0066219945 0.096388154 -0.031594347 0.08027537 -0.049046677 -0.017196866
-0.049707945 0.044320486 0.0130243525 0.04145423 -0.08582418 -0.09816301 -0.043822777 -0.033263344
0.077207 0.067320764 -0.11291644 0.05759036 -0.005779155 -0.04158747 -0.042084724 0.068091385
0.05366919 -7.6565186e-05 -0.029418986 0.022360692 0.0021949941 -0.0861127 -0.06460303 0.0006265694
0.07027499 -0.08803388 0.03951002 -0.08998572 0.054063853 -0.059936326 -0.049219985 -0.025217425
-0.02841833 -0.050437953 0.01665747 -0.012716919 -0.04456047 -0.09983084 -0.021504361 0.07484156
-0.03152526 -0.068456724 0.0071843574 -0.0019222036 0.0028369501 -0.03952706 0.019189209 -0.030684913
0.100889646 0.0123169655 -0.12208676 -0.06138894 -0.10613515 0.054306503 -0.019155888 -0.029840816
0.018210892 0.061242763 0.0445217 -0.00214541 -0.007954953 -0.018564109 0.05681032 -0.09058197
0.033173513 -0.021288462 0.0047522266 0.058527417 -0.0557384 -0.048662126 -0.09645672 0.015412714
0.07959489 -0.047836717 -0.017448492 -0.093143955 0.03142772 0.0697807 -0.05311112 0.01305522
0.04613941 -0.11061479 -0.05973147 -0.104523845 -0.097829044 -0.06298901 -0.10332423 0.045658592
-0.0036933357 0.10023051 0.04693304 0.008278044 0.01732333 0.065405324 0.045857236 -0.06690314
0.0041219066 -0.010463527 0.024669964 0.06633588 0.026788106 -0.02592252 0.0017030715 0.007244888
0.06641489 -0.030005885 -0.082905754 -0.036800683 0.10414372 -0.035850424 0.0005431059 0.0324082
-0.03746865 -0.08609717 -0.0016714404 0.066946186 0.013173576 0.014573089 0.0761122 -0.08981792
-0.07371848 0.050583217 -0.09235193 -0.065005995 -0.086667664 0.08326854 0.08284853 -0.056616973
0.055946484 -0.07485451 -0.08243177 0.106030576 0.06984386 0.07414497 -0.066916496 0.031951755
-0.01252403 0.020051481 -0.028663656 0.086872004 -0.10759095 -0.016653745 0.023541927 -0.03661363

fc_out1.weight f4 [50, 100]
00000000: c8ee dd3d 272f b03d ce17 96bd c728 a9bc
00000010: 709c e23d 4d40 ccbc ed18 50bd 84d9 b33b
00000020: 6f27 263d 4df8 83bd f9d1 8fbd 7c14 cebd
00000030: af1b 473d ec56 40bc efd7 383d 890f 973d
00000040: ea47 03bd a2c3 8a3d 443f 873c bd23 78bc
00000050: 90db 46bd e64e 27bd df07 a2bd 7498 2abd
00000060: 1b7f b0bc 3e0f 0c3c b739 a33d 5e7b 0a3c
00000070: 0944 83bd 3776 f73c db47 ba3d 9805 8fbb
00000080: c8e4 7d3d c26e d7bd fd89 4abc cd27 ec3c
00000090: 8ceb b53d d87e 6e3d ad56 67bd e490 90bd
000000a0: 0465 513d 0adc 42bd ed10 0ebd a42b c2bc
000000b0: c8c9 a5bd faee b3bd 3942 b43c baf9 573d
000000c0: ef5b bc3d 089f 9738 d4bb 63ba 3c02 c63c
000000d0: 1469 77bd 1ce7 b93d f61c e6bb 28a1 6b3d
000000e0: 2388 8fbd 8c8d 6abd be0d 9dbd f304 ae3d
000000f0: 0b9f c53c 6e2f 2538 7254 683d c66a 99bd
00000100: 12e5 d3bd 53f2 453d e364 8c3c 2b9f 993d
00000110: 3dc5 1a3d 5bd3 3d3d 9c57 673c 0d09 d83c
00000120: 0384 883d c45b c4bd 959a 83bc a482 64bd
00000130: 89fd 40bc d8f3 b83d 6546 9dbd 33bf 0abd
00000140: 88ca 33bd 7d48 ebbd 291e 46bd 75a5 c7bc
00000150: 71d6 b73d 55ff 673d 8ea1 a63c 70c7 983d
00000160: fb3b ef3d 41e3 dd3d 46a0 f3bc a9af 3fbd
00000170: 7a12 81bd b00c c03d ef1a 82bd d6d4 8a3d
00000180: d86a d7bc 9e83 d0bd 1bc7 bcbd d6ec ffbc
00000190: eda6 09bd 93a4 bdbd f3dc 64bc 5a13 d83c
000001a0: a34c bfbd e096 abbd cdec 3cbc 805a b6bd
000001b0: 9f72 9cbd 6d21 7d3d 132d cbbd 7f53 bcbd
000001c0: d062 613d 6340 873d e848 b8bd d382 b83c
000001d0: 9a9f 953c 625f 843d e341 61bd 33ef 803c
000001e0: ad8b bbbc caa2 6a3d 1d1a 72bd 6553 cc3d
000001f0: 40eb f53c cdcd f93c a0fc 223d 1af0 eebb
00000200: 0022 95ba 6359 36bd 731e 6cbd 5263 bc3d
00000210: eb1a a53d 9a80 f83b c5cd ba3d 67f1 983d
00000220: 206b 263d 5ad0 343c 9759 853d 170a 15bd
00000230: b514 ac3d c0bf 403c 1fcd 843d 9aa6 5cbc
00000240: e2cb b83d 5f37 8bbd 1368 203d f38b 353d
00000250: 07ad 84bc 7a33 fbbc 3387 af3b 0d75 503d
00000260: 35e1 c7bd 8715 123d 2708 193c 00f8 c1b9
00000270: cd53 523c 6d7f abbd 536c 8a3c 0002 703b
00000280: 0d54 34bc fa44 5abd 6b9b b03d 5782 a73d
00000290: 1d2a 0c3d 8de6 39bd 4d0d 91bc 888b b23d
000002a0: bf22 833d 4db8 dfbb 5f0f c8bd c074 cfbc
000002b0: 5ac5 493d 930e babc 63d2 bf3d 4ac8 0c3d
000002c0: 73d4 f9bc b370 e03b 9b28 bdbd 7a47 4fbd
000002d0: 0251 8bbd e316 0ebd 6a20 79bd 1d48 1f3d
000002e0: 7a71 9ebd 35d8 bdbd 9aab a3bd 8032 43bc
000002f0: bad3 483d 00df 4a3b 8a97 8abd 3323 483c
00000300: 9510 a13d ed2c 1fbd 0044 8c3d 1369 bb3d
00000310: f0f5 b23d 8d2a aebc ad11 193d 3051 a3bd
00000320: ec00 25bd 6795 c8bc b37a ac3d 4e79 d13d
00000330: 710b 173d b77e 113c 85a6 9e3d 1e92 63bd
00000340: b57a 95bd b743 d53c 5476 4f3d 9b28 a8bd
00000350: 176a 2d3d 3dee 51bd de17 69bd 4201 d8bd
00000360: af3c 9cbd 13f3 47bc e3f9 d2bc dd9d 203d
00000370: 99ee 7fbd 2449 15bc f336 61bc b154 b33d
00000380: 323b 9dbd cd05 453d 2fa2 d1bc dd66 ae3d
00000390: e9c9 e4bd a232 2bbd 47a8 9dbc fa95 e93d
000003a0: fb22 363d 20e5 103b aeea cc3d 073d 68ba
000003b0: 4848 02bc d67c b63d a283 aa3d 579a 5cbd
000003c0: 1168 39bb ffe3 c0bc 765d 193d a4e4 ac3d
000003d0: ac9a 443d 1a92 97bd a5f3 8d3d 3d4d 533d
000003e0: fb3b 913d a09d ba3d a035 02bd e926 a83d
000003f0: 14a5 a23d 7d2b 983d f101 843d 1382 69bd
0.108365595 0.086027436 -0.07328759 -0.020649327 0.11064994 -0.024933005 -0.05080502 0.0054885764
0.04056495 -0.06443844 -0.07022471 -0.10062501 0.048610386 -0.011739474 0.045127805 0.0737601
-0.032051004 0.06775595 0.01650966 -0.015145239 -0.048549235 -0.040846728 -0.079116575 -0.041649297
-0.021544984 0.008548556 0.079699926 0.008452265 -0.06409461 0.030207736 0.090957366 -0.0043646805
0.06198576 -0.10519172 -0.0123620005 0.028827572 0.088828176 0.058226436 -0.056479145 -0.07058886
0.051121727 -0.047573127 -0.03468411 -0.02370245 -0.08095127 -0.087858155 0.022004234 0.052728392
0.091972224 7.229863e-05 -0.00086873514 0.024170987 -0.060402945 0.09077284 -0.0070224954 0.057526737
-0.07008388 -0.057263896 -0.07668637 0.08497038 0.02412369 3.9383238e-05 0.05672116 -0.074910685
-0.10346426 0.0483268 0.01713795 0.07501062 0.037785757 0.046344142 0.014120009 0.026371503
0.06665804 -0.095878154 -0.016064921 -0.05578865 -0.0117791975 0.090308845 -0.07679442 -0.033873748
-0.04389432 -0.114884354 -0.048368607 -0.024370888 0.08976448 0.056639988 0.020340707 0.07459915
0.11681362 0.10834361 -0.02973951 -0.046798382 -0.06302352 0.0937742 -0.063527934 0.067788765
-0.026296064 -0.10181354 -0.09217664 -0.031240862 -0.03360646 -0.09259906 -0.013968694 0.026376415
-0.09340789 -0.083783865 -0.011531067 -0.0890398 -0.0763905 0.061799455 -0.099207066 -0.09195613
0.055025876 0.06604078 -0.08998281 0.02252332 0.01826458 0.06463505 -0.054994475 0.01573906
-0.022893751 0.057284154 -0.059106935 0.09976844 0.030019403 0.030493641 0.039791703 -0.007291806
-0.0011377931 -0.04451884 -0.057646226 0.09198631 0.08061775 0.00758369 0.09121279 0.07467919
0.040629506 0.011036003 0.065112285 -0.036386576 0.08402387 0.011764467 0.06484436 -0.013467455
0.090232626 -0.067976706 0.039161753 0.04432292 -0.016195787 -0.030664194 0.005356693 0.05089288
-0.09759752 0.03566506 0.009340323 -0.00036996603 0.0128373625 -0.08373914 0.016897356 0.0036622286
-0.011006367 -0.053288437 0.086233936 0.08179157 0.03421985 -0.045385886 -0.017706538 0.0871802
0.06403112 -0.0068273903 -0.09768557 -0.025324225 0.049260475 -0.022712028 0.093663 0.034370698
-0.030496811 0.0068493723 -0.092362605 -0.050605275 -0.068025604 -0.034689795 -0.060821928 0.038887132
-0.07736488 -0.09269754 -0.07991715 -0.011913896 0.049030043 0.0030955672 -0.06767185 0.012215423
0.07864491 -0.038861204 0.068489075 0.09150901 0.08738315 -0.021260524 0.037370373 -0.0797447
-0.040284082 -0.024485303 0.084218405 0.10228215 0.036876146 0.008880309 0.07746605 -0.05555927
-0.07298795 0.026033266 0.050649956 -0.0821087 0.042337503 -0.051252592 -0.056907527 -0.10547115
-0.07628762 -0.0122039495 -0.02575392 0.03921305 -0.062483404 -0.009111676 -0.013746011 0.08756388
-0.07677306 0.048101235 -0.02559003 0.08515713 -0.11171324 -0.041796334 -0.01924528 0.11405559
0.044466954 0.0022109225 0.10005699 -0.00088591914 -0.0079518035 0.08910529 0.08325888 -0.053858127
-0.0028290788 -0.023546217 0.037442647 0.08442047 0.04799907 -0.074009135 0.06931237 0.051587332
0.070915185 0.09112096 -0.031789422 0.082105465 0.079416424 0.0743017 0.06445683 -0.057008814

fc_out1.bias f4 [50]
00000000: dc5c 96bc 8282 c1bd d8b5 ba3d c70a ca3c
00000010: 08d1 523d 9afa 83bc 177b 9ebd 0da3 0bbc
00000020: 698b 563c 3812 883d fcea fdbb e20b 6bbd
00000030: aa06 383d da95 20bd 45a9 b13d 1add 93bd
00000040: 777b 3cbd 505b 5d3d 0494 313d 77b5 73bd
00000050: e8c5 063d f438 78bd d818 573d a130 343d
00000060: 7139 b2bd cb49 373c 8342 c3bd 4f46 53bd
00000070: 6cca 613d 4fa1 0b3c 75fd 9c3d 34bc bcbd
00000080: f4fc 943c 3a1f d7bc 822d cbbd bb16 bd3d
00000090: 97e8 e0bc fcd0 86bd 0d21 c53d bc3d a7bc
000000a0: 02f9 663d 2b85 aa3d d753 7d39 5bac 9fbd
000000b0: 32ea 553a 4a3a 6abd 6b63 5a3d 8a94 893c
000000c0: 7b27 983d 917b 4cbd
-0.018354826 -0.094487205 0.09116715 0.024663342 0.05146888 -0.016110707 -0.07738321 -0.008522761
0.013094761 0.066441 -0.0077489596 -0.05738438 0.04492823 -0.03920541 0.08674864 -0.07219906
-0.046016183 0.05404216 0.04335405 -0.05949923 0.03290358 -0.06060119 0.052513927 0.04399169
-0.08702362 0.011187027 -0.095341705 -0.051580723 0.055124685 0.008522346 0.076655306 -0.092155844
0.018187024 -0.026260007 -0.09920789 0.09232851 -0.027454657 -0.06582829 0.096254446 -0.02041518
0.056389816 0.08326181 0.00024159193 -0.07796546 0.0008160203 -0.057184495 0.05331747 0.016794462
0.07429405 -0.04992253

fc_out.weight f4 [2, 50]
00000000: 4eb1 383d 114c 63bd e671 4f3d 40ee bb3d
00000010: 997b e2bd 94dd 983d b97a e9bd e5ce c0bd
00000020: 0285 d33d 78bb 923b 3cc0 12be 576a 0cbd
00000030: 64ee a73d a425 053e 0451 6fbd b4cb cabb
00000040: eb53 eebd 6195 e7bd 3652 d4bd d144 e3bd
00000050: 1753 2e3e 8e7e 1abd a66d 133e e004 d63b
00000060: d187 0f3e 2432 113e 7695 5e3d 955e 013e
00000070: 4c4a a1bd 21f9 55bc 58e7 c5bc 704d 15be
00000080: c8a2 dabd 0ef0 623d fd71 d43c 1a06 123e
00000090: bf40 a0bd f932 703d 36e6 cb3d dee9 77bd
000000a0: 2753 d6bd e70f ca3d c8f9 0bbe 156c d83d
000000b0: 816f d0bd 33c3 18bc 8e00 db3c f6d6 ddbd
000000c0: 0d5a 9ebd af7c ebbd a622 1e3e 7e53 013e
000000d0: 31f2 d03d 0659 fb3c 84db 83bd 56c6 aabd
000000e0: 0667 02be 6009 3a3d 6701 87bd 6935 b73d
000000f0: d177 0ebd 827f 3b3e c8b9 11be c2e3 043e
00000100: 0377 19bd 3cd0 70bd c84f 00bc ec69 edbd
00000110: 54ca bfbd 8997 e6bd ae71 cebd 3879 f6bc
00000120: 92cb 0cbd 45fa e43d 8a31 e5bd e604 283e
00000130: 2e2d d53d 2b76 67bc dfb6 a4bd 68d9 f03c
00000140: b36e 8abd 603d d7bd bf4f e43d 4c58 cabd
00000150: 2bb9 273d f87e ca3c aa4f d2bd 6120 2b3e
00000160: 46cb 04bc 3ffa 34bd 36bd 953c 7d24 68bd
00000170: 2293 903c fa0b c43d 7d15 803c 1f5e 933d
00000180: ce55 7ebd 465f 5abd ae5d f3bd 4e81 13be
0.045090966 -0.055492464 0.05064573 0.09176302 -0.11058731 0.07464138 -0.114003606 -0.09414462
0.103281036 0.0044779144 -0.14331144 -0.0342811 0.08199766 0.1300264 -0.058426872 -0.006188834
-0.116371 -0.11307789 -0.10367243 -0.1109711 0.17023884 -0.03771835 0.14397296 0.006531343
0.14016654 0.14179283 0.054341756 0.12633736 -0.07875499 -0.013059885 -0.024158165 -0.14580321
-0.10675579 0.055404715 0.02593326 0.1426014 -0.07824849 0.05864236 0.099560186 -0.060525768
-0.10465079 0.098663144 -0.13669503 0.1056749 -0.10177518 -0.009323883 0.026733663 -0.10832016
-0.077320196 -0.11498391 0.15442905 0.12629506 0.10202444 0.030682098 -0.06438354 -0.08338611
-0.12734613 0.045419097 -0.06592064 0.08945734 -0.034782235 0.18310359 -0.14231026 0.12977508
-0.037467014 -0.058792338 -0.007831521 -0.115924686 -0.09364763 -0.11259372 -0.100802764 -0.030087098
-0.034373827 0.111805476 -0.111910895 0.16408119 0.10409008 -0.0141272945 -0.080426924 0.029400542
-0.067593955 -0.10509753 0.11148023 -0.098801225 0.040948074 0.024718747 -0.10269101 0.1671157
-0.008105105 -0.044183966 0.0182787 -0.056675423 0.017648283 0.09572597 0.015635246 0.071956865
-0.06209355 -0.053313516 -0.11883102 -0.14404795

fc_out.bias f4 [2]
00000000: 0aff 4dbd 2f20 c23d
-0.050292052 0.09478795

exp_avg f4 [300, 2]
00000000: bf7f 15b8 a2dd e2b8 0285 f4b8 59ae 8137
00000010: b361 23b8 4b11 beb6 f3b6 ed35 17b6 5236
00000020: d980 09b9 b4b7 e6b8 1b54 43b8 375b a1b7
00000030: e97f 4fb9 ef4c fdb8 8782 15b8 5a23 f036
00000040: e0f7 60b8 e97a 99b8 ee47 ceb8 d3da 5d38
00000050: 4e0d e2b8 5518 aab7 2d7a bfb7 f46e 3d36
00000060: d5d2 bab8 a099 c436 0b13 1fb9 1fe2 a0b8
00000070: f968 b8b8 4729 d2b7 e611 bdb4 ec46 f3b5
00000080: 7e16 97b8 c833 74b7 2817 29b9 f10e f8b8
00000090: 2e83 3538 fd72 5bb8 5fab 05b9 6ff0 2538
000000a0: 9db1 65b8 f4aa 0e38 db70 07b8 5672 dab7
000000b0: 6eed 04b9 8bc6 20b9 c121 9cb8 16ed 9b38
000000c0: ef5f 89b9 5b4d 02b9 c4fc 14b9 fdf9 32b9
000000d0: 97bb 35b8 a6fc 04b8 68a1 a4b8 2dd8 8cb8
000000e0: 7fba 1cb9 26ff 02b9 8480 9bb8 700a bd37
000000f0: 6a26 3bb8 6f28 86b8 75f3 58b9 5382 d0b8
00000100: d7e6 62b6 fe4c 91b7 0b97 9cb8 6aba 86b8
00000110: 4e8a d7b8 8f03 6738 3379 23b8 ce5f b9b6
00000120: 7eac 9e37 9f19 c0b8 ada7 84b9 5c1d 7c37
00000130: 3925 f937 42c9 f3b8 bf9f 72b8 9033 5e35
00000140: 0548 f5b8 8085 27b9 0155 78b8 8498 c8b6
00000150: 11c3 edb8 29b9 a3b8 f4f2 5c37 b19d 6cb6
00000160: 9a1b 65b8 bd3e 16b8 2ff3 3637 2f2b e936
00000170: 0770 4fb8 7568 29b8 8399 aab8 98b9 cab8
00000180: a900 c2b8 1244 84b8 2bc4 4fb8 be37 2eb8
00000190: 6bab d2b8 9a65 a3b8 bfc6 7cb8 48c7 bab7
000001a0: 5853 dab8 8f59 a137 babd 0838 01bd d3b6
000001b0: c704 1fb8 7844 31b8 f1c1 3e36 57c3 97b5
000001c0: e71e 5cb8 2e4e 71b8 4abe b3b8 7a07 8438
000001d0: 7e7e 52b8 e4a8 dbb7 b803 b6b8 27c9 71b8
000001e0: cda1 1738 38e9 32b8 0c1b edb8 df1d d3b8
000001f0: a50c 0fb9 1b2f acb7 8b62 b537 600b 5736
00000200: 8a5c bdb8 3d97 04b8 f555 0e37 3b87 b4b6
00000210: e656 44b7 5537 6ab8 3c5f 3736 666d cdb7
00000220: c380 feb8 3090 05b9 b0fe 63b8 1224 a637
00000230: 2861 46b8 58f6 19b8 028a 20b9 48ff c938
00000240: c65e aab8 8244 69b8 3e02 5eb7 2b9c 5bb8
00000250: 87d2 a7b8 afe4 89b8 1b91 51b8 0963 3bb8
00000260: 9f8c 46b9 6070 29b8 aae5 1bb9 f754 34b9
00000270: f5c2 5a36 e971 3637 fb82 69b9 8c04 17b9
00000280: 45be cbb7 a085 1438 ce32 08b9 dcb3 07b9
00000290: 5a9d a7b8 6cdc 6db8 7af0 e0b7 f407 6a37
000002a0: 04d9 8737 ebc6 3637 5956 91b7 6fe4 04b8
000002b0: fb0f fab7 67a5 a637 595c 9bb7 0ee7 1db8
000002c0: 4a19 03b9 1d44 e3b8 9258 f8b7 bb25 0eb9
000002d0: 450b e837 b84b 8eb7 74dc afb8 e8e5 27b8
000002e0: f075 0fb8 0347 43b8 9a5d aeb8 ac40 fdb7
000002f0: 205d 87b8 ecf7 02b9 530c 68b8 e2a5 0e37
00000300: d63b 86b8 1c0f a437 19dd 95b8 d612 21b9
00000310: faeb 12b8 3697 a837 1a64 05b8 8f94 4bb7
00000320: baff f737 b6a8 b337 77f7 0438 1d66 4a37
00000330: fa15 5737 3c34 c136 2217 3f36 4714 8536
00000340: 1b30 0038 03a5 0238 094a 8b37 edfc 7a36
00000350: 1da6 7838 6519 0538 6e1c f436 0472 3c36
00000360: 23c6 b637 f30b ab37 6716 c537 51a2 e6b6
00000370: d488 0838 0996 1737 fd80 ab37 5efb 5037
00000380: 8c57 ed37 7aec 3bb5 de7e 2338 49d9 0538
00000390: 4775 1838 dda9 8637 d01a cb36 0881 2736
000003a0: 39ba b337 c0fb 8a37 5250 2a38 c1df 0538
000003b0: 224d fb36 3daf b336 780a d837 3c76 09b7
000003c0: 512c 5a36 7776 87b6 a215 5837 8603 3a37
000003d0: 4877 1a38 94c5 2638 f7ae 9837 5e59 0bb7
000003e0: 7e8c 6138 a69b 0738 10c3 be38 7ac5 8538
000003f0: 3dfb 7637 6bf7 1737 f75a e837 161b a337
-3.564334e-05 -0.00010817802 -0.00011659601 1.5459185e-05 -3.8953218e-05 -5.6644544e-06 1.7711121e-06 3.1398429e-06
-0.00013113338 -0.00011001472 -4.6569952e-05 -1.923517e-05 -0.00019788709 -0.0001207831 -3.564593e-05 7.156673e-06
-5.3636613e-05 -7.318502e-05 -9.8362434e-05 5.2894302e-05 -0.00010778998 -2.027691e-05 -2.2825867e-05 2.8227778e-06
-8.908442e-05 5.8591395e-06 -0.00015170516 -7.671513e-05 -8.7933564e-05 -2.5053172e-05 -3.5217016e-07 -1.8125552e-06
-7.2044306e-05 -1.455559e-05 -0.00016125722 -0.000118283446 4.3275933e-05 -5.232076e-05 -0.00012747709 3.9562987e-05
-5.476327e-05 3.401465e-05 -3.2291613e-05 -2.6040867e-05 -0.0001267695 -0.00015332752 -7.444947e-05 7.435137e-05
-0.00026202152 -0.00012426583 -0.00014208542 -0.0001706853 -4.332847e-05 -3.170655e-05 -7.850194e-05 -6.715986e-05
-0.00014946795 -0.00012492816 -7.414914e-05 2.2535416e-05 -4.462005e-05 -6.397149e-05 -0.0002069006 -9.942488e-05
-3.381099e-06 -1.73212e-05 -7.4667936e-05 -6.42434e-05 -0.0001027776 5.5078006e-05 -3.8975104e-05 -5.524583e-06
1.891539e-05 -9.160046e-05 -0.0002530193 1.5027206e-05 2.9700446e-05 -0.0001162463 -5.784607e-05 8.277648e-07
-0.00011695925 -0.00015976094 -5.9206974e-05 -5.9782196e-06 -0.000113373746 -7.8069344e-05 1.3169589e-05 -3.525853e-06
-5.462356e-05 -3.5821216e-05 1.0904666e-05 6.9489683e-06 -4.945698e-05 -4.0390023e-05 -8.1348255e-05 -9.66668e-05
-9.250764e-05 -6.3069296e-05 -4.953534e-05 -4.1536747e-05 -0.000100455094 -7.7913704e-05 -6.026658e-05 -2.2265725e-05
-0.00010410574 1.92344e-05 3.2601623e-05 -6.310293e-06 -3.7913003e-05 -4.2263855e-05 2.8425095e-06 -1.1307228e-06
-5.2480867e-05 -5.7531688e-05 -8.570829e-05 6.295643e-05 -5.0185707e-05 -2.618548e-05 -8.679129e-05 -5.7646215e-05
3.6151894e-05 -4.265571e-05 -0.000113060785 -0.00010066828 -0.00013642253 -2.0525933e-05 2.1622769e-05 3.2044118e-06
-9.029459e-05 -3.1612104e-05 8.483873e-06 -5.380161e-06 -1.1702743e-05 -5.584148e-05 2.7324559e-06 -2.4488847e-05
-0.000121356476 -0.00012737582 -5.4358214e-05 1.9805539e-05 -4.7297362e-05 -3.6707468e-05 -0.00015310201 9.631977e-05
-8.1238846e-05 -5.561533e-05 -1.3232753e-05 -5.235911e-05 -8.002394e-05 -6.575265e-05 -4.9964623e-05 -4.4676508e-05
-0.00018935137 -4.0397397e-05 -0.00014867508 -0.0001719779 3.2598011e-06 1.0874567e-05 -0.00022269406 -0.00014402176
-2.4288087e-05 3.5410398e-05 -0.00012988897 -0.00012941606 -7.9924896e-05 -5.6710487e-05 -2.6814861e-05 1.3949339e-05
1.619431e-05 1.089436e-05 -1.7325556e-05 -3.1683998e-05 -2.9809764e-05 1.9865764e-05 -1.8520443e-05 -3.7646903e-05
-0.00012502554 -0.000108368906 -2.9605148e-05 -0.00013556231 2.7661803e-05 -1.6962978e-05 -8.385713e-05 -4.003002e-05
-3.4203695e-05 -4.6557758e-05 -8.314401e-05 -3.0190065e-05 -6.4546475e-05 -0.00012490124 -5.5324588e-05 8.502482e-06
-6.400763e-05 1.955736e-05 -7.146056e-05 -0.00015361173 -3.5028883e-05 2.0097574e-05 -3.1802898e-05 -1.2134332e-05
2.9563776e-05 2.1417025e-05 3.1701722e-05 1.2063913e-05 1.2820115e-05 5.757929e-06 2.8474683e-06 3.9660695e-06
3.056238e-05 3.1148094e-05 1.6604567e-05 3.7400125e-06 5.9282513e-05 3.173332e-05 7.2750763e-06 2.808055e-06
2.1788355e-05 2.0390353e-05 2.3494662e-05 -6.8734303e-06 3.2552358e-05 9.035234e-06 2.0444853e-05 1.2456292e-05
2.8293369e-05 -7.000705e-07 3.8980383e-05 3.1912034e-05 3.6348847e-05 1.6053144e-05 6.052993e-06 2.4960045e-06
2.142518e-05 1.6568112e-05 4.0605963e-05 3.1918058e-05 7.4893624e-06 5.355016e-06 2.5754081e-05 -8.193365e-06
3.2510327e-06 -4.0371046e-06 1.287964e-05 1.1087284e-05 3.682755e-05 3.9761493e-05 1.8201286e-05 -8.305853e-06
5.3775024e-05 3.2331467e-05 9.096239e-05 6.378717e-05 1.4721239e-05 9.057908e-06 2.7698914e-05 1.9443727e-05

exp_avg_sq f4 [300, 2]
00000000: 987d 4532 09d6 5932 079c b833 d4bc ec33
00000010: 973f 8631 ddf6 8331 0fb4 282f fc87 022f
00000020: f479 7431 b693 6b31 6655 b731 05cb ad31
00000030: 5bd5 5832 d5e0 5932 cf3d 2030 35d0 a530
00000040: 44da 6133 2df9 6633 ab48 0f34 8924 3434
00000050: 18bd 9432 52c9 ad32 06e0 1233 ea6d 1a33
00000060: 99c7 b932 d004 e132 ecd1 ea31 2957 1d32
00000070: 5506 4a31 e606 8531 1f6a 0231 5668 1931
00000080: 5d0e 3733 b229 7333 5e90 9433 036a a133
00000090: f231 d530 3075 bf30 6e9f c530 7707 7830
000000a0: 1d16 6f32 4aac 9a32 3a00 ef31 181f fa31
000000b0: e4a5 5b32 4dc6 3c32 dec0 0e33 ed13 4433
000000c0: 9c74 4432 93ba 1f32 74c5 5134 8599 5c34
000000d0: a0a4 ad32 b325 da32 aa0c da32 4422 ec32
000000e0: bf10 f732 18c9 fc32 f66a 9c31 7a03 0532
000000f0: 51f8 6130 78c1 7c30 d267 9633 4df2 bf33
00000100: 12d0 a12e a9e1 dd2e 171e 2732 54df 2932
00000110: eda2 7132 012e ef32 eccd 6132 36c5 7332
00000120: 3098 0b33 001a d332 7140 0132 9646 1731
00000130: 3a8b 2734 fd72 0834 692a 9d30 7b83 ca30
00000140: d55d 1833 ae80 2633 5b29 a42f ae9d 2f2f
00000150: 9b01 ee32 1bd8 0133 a8d7 8430 f8b9 1231
00000160: bb24 0a32 e5e7 dd31 e3db 4130 7158 7e30
00000170: 1d14 2133 37e7 3633 f329 a832 ad60 ab32
00000180: bdba fa32 5c04 2d33 e78f 2d31 a04f 5831
00000190: 61f2 d432 68e1 e132 3887 e131 a4e5 0132
000001a0: 28d2 b032 cb0e d232 4123 1e32 5ac3 4132
000001b0: 4a8f a933 ba9e ae33 4d54 4f31 63e7 5031
000001c0: 7180 6e31 d3cd 3331 2444 b931 aa53 2132
000001d0: ae8c b430 25b2 ae30 ffc7 0732 b584 3932
000001e0: 7e59 a231 6909 0b32 1bff 6433 afbb 6d33
000001f0: d187 0e33 ef09 3233 1ece 2a30 6455 0330
00000200: f51f af32 c748 0d33 673d 0432 9ac2 0e32
00000210: 08ce 1430 c61e 6130 a7a4 0532 f8fe e731
00000220: 6e90 4232 256b 5232 6280 dd32 2a4f c832
00000230: 83a4 1c31 e192 1731 996d 1733 bc76 6433
00000240: a5f3 a130 ea7f 8530 4b20 1933 e9a5 2c33
00000250: 4841 9130 ed63 5e30 e651 8531 c384 a331
00000260: f00f 0334 d2ed 2434 0c4a a631 66b1 ab31
00000270: 94f4 dd2e bd4d 392f 70fe 7131 b4bc 5631
00000280: fce5 0033 8ead ed32 3ae4 b732 99a3 c032
00000290: 4051 4132 7774 7732 1dc3 bd31 293e d931
000002a0: 7395 fe30 795f 0131 03b2 6233 1b19 4133
000002b0: 7c32 ee32 291d 2133 14c2 9531 6996 9531
000002c0: 485b 0032 0094 2032 99bb f832 b573 ee32
000002d0: 9691 b030 fd4e cd30 34f8 f232 2ed5 2133
000002e0: 171f 0e32 80c7 0232 4d88 a031 5e4b 9a31
000002f0: b616 b032 bc66 c732 5ac2 2a31 a413 4431
00000300: 9261 c531 c570 2f32 f661 9832 807c 9132
00000310: 9364 3531 bfb8 8b31 2dd8 9432 9b04 a132
00000320: 92bd 8730 f367 9d30 50b6 2c31 3c6c 4931
00000330: b61c 9e2f 92ff be2f 27a1 602e e4f9 cc2e
00000340: 59f6 922f 771d 9f2f ff96 802f eb33 9b2f
00000350: 091f 1231 1ce1 2731 5c54 9b2e 73b4 f62e
00000360: c69f 7c31 4069 8431 b326 9231 01ba c131
00000370: 6a1d d230 1a26 f830 fbd0 3031 db3e 4031
00000380: 5d52 1631 96fa 3d31 f400 5e2f 9b3c 5a2f
00000390: 4849 a130 4d23 bd30 7598 ac2f e126 c62f
000003a0: 6e7c 3530 b6a7 4b30 3ea0 3c31 c0a9 4c31
000003b0: 5308 1d2f b1c7 372f 8837 012f 0344 0d2f
000003c0: 414e 982e 16b3 c72e d3c5 4c30 5350 6030
000003d0: 51c4 9b2f 05af 9d2f 721c 0f31 b144 3231
000003e0: e78f da2f 13d9 ba2f ab3a c731 7a0b d331
000003f0: 1514 1931 32dc 3631 c7ad db30 6dea fe30
1.1495466e-08 1.2679728e-08 8.596549e-08 1.1023954e-07 3.9071426e-09 3.840667e-09 1.534348e-10 1.1871742e-10
3.5575995e-09 3.4280965e-09 5.3357097e-09 5.0580433e-09 1.2621366e-08 1.2682183e-08 5.8295496e-10 1.2064506e-09
5.2585406e-08 5.3777672e-08 1.3344349e-07 1.6777098e-07 1.7315458e-08 2.02314e-08 3.4197022e-08 3.5955885e-08
2.1627601e-08 2.6195636e-08 6.8341617e-09 9.158421e-09 2.9398468e-09 3.8715937e-09 1.8977813e-09 2.2323738e-09
4.262107e-08 5.6615768e-08 6.918047e-08 7.51643e-08 1.5511985e-09 1.3930386e-09 1.4378949e-09 9.023248e-10
1.3916659e-08 1.8006308e-08 6.9558412e-09 7.2794926e-09 1.2785197e-08 1.0988129e-08 3.3237363e-08 4.565293e-08
1.1435215e-08 9.29744e-09 1.9536475e-07 2.0544947e-07 2.0214713e-08 2.5395684e-08 2.5384299e-08 2.7489598e-08
2.87622e-08 2.9428108e-08 4.5523576e-09 7.742409e-09 8.22074e-10 9.1952e-10 7.003804e-08 8.938205e-08
7.358393e-11 1.0090002e-10 9.727521e-09 9.887874e-09 1.4065091e-08 2.7844182e-08 1.3143545e-08 1.4189302e-08
3.2501873e-08 2.4575456e-08 7.5234405e-09 2.2013515e-09 1.5603737e-07 1.270782e-07 1.1435307e-09 1.4734803e-09
3.5475598e-08 3.876692e-08 2.986081e-10 1.5972176e-10 2.7707577e-08 3.02317e-08 9.665557e-10 2.1351507e-09
8.041009e-09 6.45831e-09 7.052547e-10 9.2530344e-10 3.7504027e-08 4.2585466e-08 1.957685e-08 1.9950983e-08
2.918875e-08 4.0283666e-08 2.5256612e-09 3.1477398e-09 2.479027e-08 2.629595e-08 6.5637344e-09 7.5610025e-09
2.0584665e-08 2.4453945e-08 9.204826e-09 1.1278496e-08 7.89574e-08 8.1313786e-08 3.0170384e-09 3.0399512e-09
3.4706569e-09 2.6164926e-09 5.3919553e-09 9.390456e-09 1.3136707e-09 1.2710798e-09 7.903508e-09 1.0798591e-08
4.7249946e-09 8.0930045e-09 5.3317404e-08 5.535156e-08 3.3185476e-08 4.145289e-08 6.213855e-10 4.777887e-10
2.0387214e-08 3.289531e-08 7.6973725e-09 8.309735e-09 5.4134874e-10 8.1898255e-10 7.7790565e-09 6.7519714e-09
1.1325126e-08 1.2247971e-08 2.5786168e-08 2.3319064e-08 2.2794502e-09 2.2056883e-09 3.5257106e-08 5.3193375e-08
1.178354e-09 9.713379e-10 3.565246e-08 4.0197765e-08 1.0568693e-09 8.090513e-10 3.8801202e-09 4.7590176e-09
1.2206124e-07 1.5360209e-07 4.839654e-09 4.996923e-09 1.0093362e-10 1.685327e-10 3.5214747e-09 3.1248364e-09
3.0011492e-08 2.7669355e-08 2.140779e-08 2.2426137e-08 1.1252553e-08 1.4403773e-08 5.5228058e-09 6.322598e-09
1.8523408e-09 1.882624e-09 5.2781626e-08 4.4959148e-08 2.7729804e-08 3.7512255e-08 4.358535e-09 4.3535704e-09
7.4713356e-09 9.346877e-09 2.895631e-08 2.7759464e-08 1.2847063e-09 1.4938163e-09 2.8285378e-08 3.767962e-08
8.272557e-09 7.612357e-09 4.6721085e-09 4.490558e-09 2.0499424e-08 2.3213367e-08 2.4848732e-09 2.8532918e-09
5.744547e-09 1.02119815e-08 1.7739676e-08 1.6936838e-08 2.6396136e-09 4.0664356e-09 1.7327773e-08 1.8744961e-08
9.876422e-10 1.1452798e-09 2.5132927e-09 2.9310874e-09 2.8760433e-10 3.4742392e-10 5.1074835e-11 9.3212355e-11
2.6732286e-10 2.8942868e-10 2.3390354e-10 2.8231226e-10 2.1263438e-09 2.4429658e-09 7.063569e-11 1.1218839e-10
3.6761647e-09 3.853671e-09 4.253559e-09 5.6381855e-09 1.5287871e-09 1.8055204e-09 2.5730162e-09 2.7975406e-09
2.187469e-09 2.7645561e-09 2.0191121e-10 1.9848516e-10 1.173512e-09 1.3761593e-09 3.1394945e-10 3.6043615e-10
6.602424e-10 7.40893e-10 2.7448688e-09 2.9782399e-09 1.4282024e-10 1.6714698e-10 1.175221e-10 1.2848038e-10
6.9260604e-11 9.081284e-11 7.4495893e-10 8.1604873e-10 2.8333827e-10 2.8682492e-10 2.0825408e-09 2.5941456e-09
3.9756218e-10 3.3987443e-10 5.798332e-09 6.142213e-09 2.2275846e-09 2.6609652e-09 1.5983738e-09 1.854756e-09
