test_dagster/mlruns/0/246b9464ec5a4466bc3e1674ddbe0b62/artifacts/restored_model_checkpoint/epoch=9-step=10.ckpt (torch, 448127 bytes, 24 tensors)

rnn.weight_ih_l0 f4 [300, 2]
0	0x3d90f009	0.07077033
1	0x3da66059	0.081238456
2	0x3c7c8d8a	0.015414605
3	0x3d533bcc	0.0515707
4	0xbdaa822b	-0.08325609
5	0x3c2a83d4	0.010407407
6	0x3d9ecae5	0.07753543
7	0xbd89ab00	-0.06722069
8	0x3daff1e4	0.08591059
9	0x3d1dd7c7	0.03853586
10	0x3c51da26	0.012808358
11	0x3cc9a968	0.024616912
12	0xbc91cb3f	-0.01779711
13	0xbcd3a123	-0.025833672
14	0xbd940fc5	-0.0722957
15	0xbd7b3b6e	-0.061335973
16	0x3da7eac9	0.081990786
17	0xbd8a8ff9	-0.06765742
18	0xbdb7904e	-0.08963071
19	0x3dbc736c	0.092017025
20	0x3d3e2938	0.046426028
21	0xbd279df4	-0.04092212
22	0xbd64e44b	-0.05588178
23	0xbbf73183	-0.007543744
24	0x3d4ba590	0.04971844
25	0xbd4aef95	-0.04954489
26	0x3c43814a	0.01193268
27	0xbdb202ba	-0.08691926
28	0x3cf035d3	0.02932254
29	0x3cb5a03b	0.02217113
30	0x3d1c607f	0.038177963
31	0x3d9bf541	0.07615138
32	0xbb36f4d6	-0.002791693
33	0xbd0d649f	-0.034519788
34	0xbda247c4	-0.079238445
35	0xbb05532b	-0.0020343761
36	0x3c4b7bf2	0.012419688
37	0x3d06a1cc	0.032869145
38	0xbdae5b19	-0.08513469
39	0x3ca29210	0.019845039
40	0x3ce2ce42	0.027686242
41	0x3dc55ef2	0.0963725
42	0xbc837d96	-0.016051095
43	0x3d8a39ee	0.067493305
44	0x3d93d452	0.07218231
45	0xbc7b6b6f	-0.015345438
46	0xbd015463	-0.031574618
47	0xbdbc6f3d	-0.092009045
48	0x3d7f86c7	0.062384393
49	0xbda50ba9	-0.080588646
50	0xbdc62226	-0.09674482
51	0xbdc3a474	-0.09552851
52	0xbce93a70	-0.028470248
53	0x3d8aa303	0.06769373
54	0xbd99e0d7	-0.07513588
55	0xbc685645	-0.0141807245
56	0xb99e6b76	-0.00030216173
57	0x3a96acb5	0.0011495563
58	0x3c93819a	0.018006135
59	0xbc98ce66	-0.018653106
60	0x3c055287	0.008137352
61	0xbd569636	-0.052389346
62	0x3cfc7d2a	0.030821402
63	0x3c2858b6	0.010275057
64	0xbdaccbdf	-0.08437323
65	0xbdad4a68	-0.084614575
66	0x3dbed91b	0.09318753
67	0xbc3ca2dc	-0.011513438
68	0x3cb2e3e8	0.02183719
69	0xbd3c5b4d	-0.04598551
70	0xbdb55c2a	-0.088554695
71	0x3daff52e	0.08591686
72	0x3d82f526	0.063944146
73	0xbd8b1d45	-0.06792692
74	0xbdbf5f28	-0.093443215
75	0xbc6065f6	-0.013696184
76	0x3d54db4a	0.051966943
77	0x3d646cd4	0.05576785
78	0xbd29567d	-0.041342247
79	0xb9a397d7	-0.00031202912
80	0x3be2bfb6	0.0069198264
81	0x3baa1b6f	0.0051912586
82	0xbd3aa695	-0.04556902
83	0x3d9a981a	0.07548542
84	0xbbe4a30d	-0.006977445
85	0x3d66b569	0.05632535
86	0xbcf7809e	-0.030212697
87	0x3d0e473d	0.034735907
88	0x3d3cc010	0.046081603
89	0x3d8be7d6	0.068313286
90	0xbc49e15b	-0.012321795
91	0xbd03bf57	-0.032164898
92	0xbcaea632	-0.021319482
93	0xbbbb5794	-0.0057172272
94	0xbb3e5eaa	-0.0029048123
95	0xbd0b52df	-0.03401458
96	0x3bdd3ada	0.0067514004
97	0xbd8faf93	-0.0701591
98	0xbd9cff34	-0.07665864
99	0x3d8d3b35	0.068960585
100	0xbda9c3be	-0.08289288
101	0x3bc56506	0.006024006
102	0x3da6209c	0.081116885
103	0x3d8851b9	0.06656212
104	0x3d7e6ab0	0.062113464
105	0xbd7d7b23	-0.06188501
106	0x3d33d82d	0.043907333
107	0xbceb549d	-0.02872687
108	0xbd413569	-0.047170077
109	0x3d27fd11	0.041012827
110	0x3c515934	0.012777615
111	0xbda5afe1	-0.08090187
112	0x3cf4acf7	0.029867632
113	0x3cc91b4d	0.02454915
114	0xbc2bd7a5	-0.010488425
115	0xbd95a896	-0.07307546
116	0x3d6ed93d	0.058312643
117	0xbc6037c0	-0.013685167
118	0x3d28be89	0.041197333
119	0x3d1601d4	0.036622837
120	0x3c6713a1	0.014103801
121	0xbd06b445	-0.032886762
122	0x3d408b36	0.047007762
123	0x3d854139	0.06506581
124	0x3bd5941e	0.006517901
125	0xbd898930	-0.067156196
126	0x3dae63b7	0.08515113
127	0x3d4afa2c	0.04955499
128	0x3bd82142	0.0065957615
129	0xbd3dc6f0	-0.0463323
130	0xbd8af888	-0.06785685
131	0x3d5f2777	0.054480996
132	0xbc3f1372	-0.011662351
133	0x3dba67c8	0.09101826
134	0xbc5a4077	-0.013321034
135	0xbd4a8102	-0.049439438
136	0xbd1c2541	-0.038121466
137	0xbdb568c5	-0.08857874
138	0x3da847f7	0.08216851
139	0xbc865fc2	-0.016403083
140	0xbdbe6135	-0.092958845
141	0x3d9a145b	0.07523414
142	0xbd825726	-0.063642785
143	0xbdad8e61	-0.08474422
144	0xbd85c934	-0.06532517
145	0xbca909f0	-0.020634621
146	0x3d045035	0.032303054
147	0x3b42bc27	0.0029714198
148	0xbdb67314	-0.08908668
149	0xbbe7c783	-0.007073344
150	0xbd4b82f7	-0.049685445
151	0xbcceb71b	-0.025233796
152	0xbd949283	-0.072545074
153	0x3c9e08e3	0.019291347
154	0x3ce2f061	0.027702512
155	0xbcb069c0	-0.0215348
156	0x3ca98ecf	0.02069798
157	0x3cb885f9	0.02252482
158	0x3dab7c4b	0.083733164
159	0x3d908d87	0.07058244
160	0xbd9398f6	-0.07206909
161	0xbdb32f1b	-0.08749219
162	0x3d9e5f04	0.077329665
163	0xbdc9a06f	-0.098450534
164	0x3d2b9fd6	0.04190048
165	0x3d393f4c	0.04522638
166	0x3cec9e15	0.028883973
167	0x3c5aefb8	0.0133628175
168	0xbd977d0d	-0.073968984
169	0xbda9d2a3	-0.08292129
170	0x3dbb114b	0.09134158
171	0x3d67ec2c	0.056621715
172	0xbdc4b032	-0.09603919
173	0x3d98c315	0.07459084
174	0xbca1be55	-0.019744078
175	0x3d3bc34c	0.045840546
176	0xbccba456	-0.024858635
177	0xbdb306c2	-0.08741523
178	0xbd8ff584	-0.0702925
179	0xbdbe7a86	-0.09300713
180	0x3dbdcc45	0.09267477
181	0xbd5ef025	-0.05442824
182	0xbc9a5767	-0.018840505
183	0x3d1bcd8b	0.038037818
184	0xbd31ad44	-0.04337813
185	0x3ce13f50	0.02749601
186	0xbd5ac603	-0.053411495
187	0x3db97119	0.09054775
188	0x3d283aaf	0.04107159
189	0xbdb85e2c	-0.09002337
190	0xbd98f8bb	-0.074693166
191	0xbd0f78cc	-0.03502731
192	0x3c7e7d56	0.015532812
193	0x3d78bc3b	0.060726386
194	0xbdc491ca	-0.095981196
195	0x3bba52cd	0.00568614
196	0xbd904524	-0.070444375
197	0x3daa1c4e	0.0830618
198	0xbd81d6a3	-0.06339767
199	0x3d827666	0.06370239
200	0xbd216e97	-0.039412107
201	0xbd45452c	-0.04816167
202	0xbd1f9cb6	-0.03896781
203	0x3d8606dd	0.06544278
204	0x3bb01171	0.005373173
205	0x3d1e8a66	0.038706206
206	0xbc68ce9b	-0.014209415
207	0x3cd5ce0a	0.026099224
208	0x3d1fc4bf	0.03900599
209	0x3db4d334	0.08829346
210	0x3daa666b	0.08320316
211	0x3dabdb6c	0.08391461
212	0x3af46289	0.0018645088
213	0xbd753f0e	-0.059874587
214	0x3d6723d7	0.056430664
215	0xbd388981	-0.04505301
216	0xbdb75bb9	-0.089530416
217	0xbd010e05	-0.03150751
218	0xbd803adc	-0.062612265
219	0x3d42ebab	0.04758803
220	0xbd0ddccf	-0.034634408
221	0xbbc97531	-0.0061480035
222	0x3d4786d3	0.048712563
223	0xbd398135	-0.045289237
224	0xbc9d46b7	-0.019198759
225	0xb9d6eb32	-0.00040992495
226	0xbdad0189	-0.084475584
227	0xbc6ccd40	-0.014453232
228	0x3dbc8802	0.09205629
229	0x3d40a9af	0.047036823
230	0xbd287551	-0.041127507
231	0xbdb834d5	-0.08994452
232	0xbd99b6e4	-0.07505587
233	0xbcd41738	-0.025889978
234	0x3db9f15f	0.09079241
235	0xbdc14b5f	-0.09438204
236	0xbd545694	-0.05184038
237	0xbd6fe2e9	-0.058566008
238	0x3da426c7	0.08015209
239	0xbd8787a9	-0.06617672
240	0x3b372034	0.0027942779
241	0xbc2289dd	-0.0099205645
242	0x3cfc61b1	0.030808302
243	0xbd678912	-0.056527205
244	0xbd931c52	-0.07183136
245	0xbc9c850b	-0.019106409
246	0x3d011f9b	0.031524282
247	0xbdcb6702	-0.099317566
248	0x3d970fc3	0.07376053
249	0x3dc69d70	0.096979976
250	0xbda09366	-0.07840614
251	0x3d6057f6	0.054771386
252	0xbc31d09a	-0.010852957
253	0xbd2e593c	-0.04256557
254	0x3b8d60be	0.004314511
255	0xbcfe0e7b	-0.031012764

rnn.weight_hh_l0 f4 [300, 100]
0	0xbdab1b3e	-0.083548054
1	0x3d33aceb	0.04386608
2	0x3d8805e4	0.066417485
3	0x3d4b9fc1	0.0497129
4	0xbd8d1b45	-0.06889967
5	0x3a9f7b27	0.001216744
6	0x3da9d80c	0.08293161
7	0xbd9f804d	-0.07788143
8	0xbca2dda5	-0.019881079
9	0xbdc9450d	-0.098276235
10	0xbc4396b4	-0.011937786
11	0xbdacdca9	-0.08440525
12	0xbc9998fd	-0.018749708
13	0x3ce1a88b	0.027546188
14	0x3d174fd8	0.03694138
15	0xbdbec79b	-0.093154155
16	0xbcc54e1e	-0.0240851
17	0xbcb9077b	-0.022586575
18	0x3bb686f7	0.0055702883
19	0xbd0b659e	-0.034032457
20	0x3d1fb543	0.038991224
21	0xbd92e148	-0.07171875
22	0xbd6704ff	-0.05640125
23	0xbd948c50	-0.07253325
24	0x3d11fd0c	0.035641715
25	0xbd9dc5b3	-0.07703724
26	0xbd363757	-0.04448637
27	0x3d68c6a9	0.056830082
28	0xbd7ea3cb	-0.062167924
29	0x3b37e8ce	0.0028062346
30	0x3ce99b33	0.028516388
31	0xbdabf493	-0.08396258
32	0xbc212d62	-0.00983748
33	0xbd2d06aa	-0.042242683
34	0x3d8e066d	0.06934819
35	0x3d8d6145	0.06903318
36	0xbd981569	-0.07425959
37	0x3c48fe81	0.01226771
38	0x3bc1d59e	0.0059153577
39	0x3db35421	0.08756281
40	0x3cc298ab	0.023754438
41	0xbd6c4702	-0.057684906
42	0x3c5dc762	0.013536306
43	0xbd945fda	-0.07244845
44	0xbd5626ee	-0.05228322
45	0x3cd61f36	0.02613793
46	0xbdbd4679	-0.09241957
47	0x3dc72f43	0.09725811
48	0x3d0316c5	0.032004137
49	0xbca0975f	-0.01960343
50	0x3da5ba06	0.08092122
51	0xbd0ad914	-0.033898428
52	0xbae19795	-0.0017211313
53	0x3db10c2c	0.086449
54	0xbd9aad23	-0.075525545
55	0xbdbb15a2	-0.091349855
56	0xbdc0536a	-0.0939091
57	0x3c618b62	0.013766142
58	0xbd9752a3	-0.073888086
59	0x3d5e2426	0.054233693
60	0xbb7e2752	-0.003878076
61	0x3d3c2611	0.04593474
62	0x3c8ec0a9	0.017425852
63	0x3cab0287	0.020875229
64	0xbc424bd8	-0.011858903
65	0x3c85e63f	0.016345141
66	0xbdbcd78f	-0.09220802
67	0xbdaa1b58	-0.08305997
68	0x3d95987b	0.07304474
69	0xbc13a14d	-0.009010625
70	0x3d2143f6	0.039371453
71	0xbac580a6	-0.0015068247
72	0x3c88e805	0.016712198
73	0x3da1e957	0.07905834
74	0xbd55d094	-0.05220087
75	0xbd36a884	-0.044594303
76	0xbc2ad1f3	-0.010426032
77	0xbb2f3446	-0.0026734038
78	0xbcd0bdc2	-0.025481109
79	0xbd2b491d	-0.041817773
80	0xbc61db51	-0.013785199
81	0xbd8d2258	-0.06891316
82	0x3d56fde4	0.052488223
83	0x3cc15190	0.023598462
84	0xbc1f55ee	-0.009725077
85	0xbd4fb47d	-0.050709236
86	0x3d977dbd	0.073970295
87	0x3da3ac44	0.079918414
88	0x3d9aa9c6	0.07551913
89	0x3d2e564d	0.04256277
90	0x3d325235	0.04353543
91	0x3d99e6ad	0.07514701
92	0xbd395dda	-0.04525552
93	0x3d98d054	0.074616104
94	0x3cb12eba	0.021628726
95	0xbd871340	-0.065954685
96	0x3bc1256c	0.0058943536
97	0xbd97ec86	-0.0741816
98	0xbcc21e4b	-0.023696085
99	0x3d8dd3a1	0.06925131
100	0x3da50f8b	0.08059605
101	0x3c6e9b28	0.014563359
102	0xbc91b299	-0.017785357
103	0xbd1e86d5	-0.038702805
104	0xbdbc7057	-0.092011146
105	0xbcc714f2	-0.02430198
106	0xbb669b00	-0.0035187602
107	0xbd0590f5	-0.032608945
108	0xbd15d6af	-0.03658169
109	0xbd53ed00	-0.051739693
110	0x3d10c2cf	0.035342034
111	0x3d8d2fdd	0.06893895
112	0x3ccfee07	0.025382055
113	0xbdaf0d81	-0.085474975
114	0x3d924eca	0.07143934
115	0x3d4e77f9	0.050407384
116	0xbdacd356	-0.08438747
117	0xbd633078	-0.055466145
118	0xbd0feadd	-0.035136092
119	0x3d85fc1e	0.06542228
120	0x3da7e5d5	0.08198134
121	0xbdad052a	-0.084482506
122	0xbd6d2991	-0.05790097
123	0x3dcb853c	0.09937522
124	0x3c2bf6a2	0.010495814
125	0xbb9e9ff1	-0.004840844
126	0x3da6d263	0.08145597
127	0xbc33a4b8	-0.010964565
128	0x3d45167e	0.048117153
129	0x3d181f8e	0.037139468
130	0xbdaaba04	-0.08336261
131	0x3d6d355a	0.05791221
132	0xbd86d77e	-0.065840706
133	0xbc03a3f3	-0.008034694
134	0xbd6685ae	-0.05627983
135	0x3db0019e	0.085940585
136	0xbc1dcc0c	-0.009631168
137	0xbcb5e11e	-0.02220207
138	0xbcfabca8	-0.030607536
139	0x3d55329d	0.05205022
140	0x3d645f94	0.055755213
141	0xbcf32657	-0.029681368
142	0xbcb9d931	-0.022686573
143	0xbd4a6ad7	-0.049418297
144	0xbd7b652c	-0.061375782
145	0xbd9948af	-0.074845664
146	0xbcd175c3	-0.025568848
147	0x3d032048	0.032013208
148	0xbd989061	-0.07449413
149	0xbd6d0fed	-0.057876516
150	0xbcbcdb65	-0.023053834
151	0xbd730a91	-0.05933625
152	0x3ca1d3ed	0.019754374
153	0xbd4c4bc5	-0.049876947
154	0x3d261ccf	0.040554818
155	0xbc73bca5	-0.014876519
156	0xbd9e185c	-0.0771949
157	0x3d10108d	0.035172034
158	0x3c528a97	0.012850425
159	0x3d907287	0.07053094
160	0xbd016c6f	-0.03159755
161	0x3d5fe05a	0.054657318
162	0x3d1414d2	0.03615267
163	0x3d55a8b6	0.05216285
164	0x3d62c067	0.05535927
165	0x3db7e419	0.08979053
166	0xbcc4c6f0	-0.024020642
167	0x3db3d8f0	0.08781612
168	0x3d01cf68	0.03169194
169	0xbd5b41b2	-0.05352945
170	0x3dbb5b50	0.09148276
171	0x3da37753	0.07981744
172	0xbc0415f0	-0.008061871
173	0xbd40316e	-0.04692214
174	0xbdc3be3e	-0.0955777
175	0xbd3b711b	-0.045762163
176	0x3da6804d	0.0812994
177	0xbdb37ed4	-0.08764425
178	0xbd51a10f	-0.051178988
179	0x3b3bde29	0.0028666353
180	0x3c65db3c	0.01402932
181	0x3d414eec	0.047194406
182	0x3d529e11	0.051420275
183	0x3c8a2dae	0.016867485
184	0xbdae7e03	-0.085201286
185	0x3d5fef4c	0.05467157
186	0xbb60226e	-0.003420021
187	0x3cc09a5c	0.023511104
188	0xbce5e878	-0.028064951
189	0x3c8f6bba	0.017507423
190	0x3d866d55	0.06563822
191	0x3da7b766	0.08189277
192	0xbd3d0356	-0.04614576
193	0x3d5383e6	0.05163946
194	0x3b62d85c	0.0034613824
195	0x3ca5f2cc	0.020257376
196	0xbda2b1be	-0.07944058
197	0x3d218fc8	0.03944376
198	0xbcc4496f	-0.023960797
199	0xbd8b77d5	-0.068099655
200	0xbd9747eb	-0.07386764
201	0x3dadd206	0.084873244
202	0x3da3408c	0.07971296
203	0x3da71023	0.08157375
204	0xbcb23808	-0.021755233
205	0xbdb75cfc	-0.08953282
206	0xbcab8b6a	-0.020940501
207	0x3d4cbffc	0.049987778
208	0xbcf30d20	-0.029669344
209	0xbd70124e	-0.058611207
210	0xbc84e88f	-0.016224174
211	0xbb949304	-0.004534127
212	0xbbd415c9	-0.0064723236
213	0xbd593fac	-0.053039238
214	0xbd96536c	-0.0734013
215	0xbd34f9c5	-0.04418351
216	0xbcc898ce	-0.024486925
217	0xbd1b0f07	-0.037856128
218	0xbd3d544b	-0.046222966
219	0x3d707ba4	0.058711663
220	0xbdc30158	-0.09521741
221	0x3d0bdef3	0.034148168
222	0xbd0b9851	-0.034080807
223	0x3d571cf7	0.052517857
224	0xbd0aefb8	-0.03392002
225	0xbd8d87ac	-0.06910643
226	0xbd37d5bd	-0.04488157
227	0xbdc8357e	-0.09775828
228	0x3d509b84	0.05092956
229	0xbcc383c9	-0.023866551
230	0xbd638078	-0.05554244
231	0x3ca54cc2	0.020178203
232	0x3d2b8766	0.041877173
233	0xbd0c48e4	-0.0342492
234	0x3ca0e31d	0.019639546
235	0xbc5c3147	-0.013439483
236	0xbba16aa2	-0.0049260417
237	0xbdb3f56a	-0.087870434
238	0x3dbb0c73	0.09133234
239	0x3d1a1d08	0.037625343
240	0x3b86ad45	0.004110011
241	0xbbf4f217	-0.0074751484
242	0xbb138c71	-0.002251413
243	0x3dac18cf	0.08403169
244	0x3c5d0d39	0.013491922
245	0x3d63e4b3	0.055638026
246	0x3dbb2ae9	0.09139044
247	0xbd6bf022	-0.057602055
248	0xbd635ac4	-0.055506483
249	0x3dac4fa2	0.08413626
250	0x3af7ac96	0.0018896039
251	0xbd61347f	-0.054981705
252	0xbd8deb1d	-0.0692961
253	0xbd3b61b9	-0.045747492
254	0x3cdf87af	0.027286379
255	0x3d0be5d7	0.03415474

rnn.bias_ih_l0 f4 [300]
0	0x3dac558c	0.08414754
1	0xbd9b356c	-0.07578549
2	0x3d39e2e7	0.045382407
3	0xbd202131	-0.039094154
4	0x3c031f65	0.0080030905
5	0xbd2c58f3	-0.042077016
6	0x3d8ae25b	0.06781455
7	0xbd7d2c3d	-0.061809767
8	0x3dbdb32b	0.09262689
9	0xbc4ef24f	-0.012631013
10	0xbd685048	-0.056717187
11	0xbdbdd3af	-0.09268891
12	0xbd873d26	-0.0660346
13	0xbd17274a	-0.036902703
14	0x3dcbea6d	0.099568225
15	0x3d6f60fe	0.05844211
16	0xbda48c83	-0.08034613
17	0xbdadeeae	-0.0849279
18	0x3d33640f	0.043796595
19	0xbc6c6cae	-0.014430208
20	0xbbcb6980	-0.006207645
21	0xbd6db38d	-0.05803256
22	0x3c750ef2	0.0149571765
23	0xbbddd45e	-0.006769701
24	0x3d1e6652	0.0386718
25	0xbca7af79	-0.020469414
26	0xbdc7ebef	-0.09761798
27	0x3d17c0fe	0.037049286
28	0xbd8ee668	-0.0697754
29	0x3ce2c22c	0.027680479
30	0x3da15ee2	0.078794256
31	0xbda877ce	-0.08225976
32	0xbd17e26d	-0.03708117
33	0x3c8965da	0.0167722
34	0x3d889562	0.066691175
35	0x3d5d1c74	0.053982213
36	0x3d88fa9f	0.06688427
37	0xbdc165f9	-0.09443278
38	0x3d2a06f4	0.041510537
39	0x3c7c1fb9	0.015388423
40	0xbd3a5ad1	-0.045496766
41	0xbd42dc92	-0.047573633
42	0xbdc12489	-0.09430797
43	0xbc42f390	-0.01189889
44	0x3d7cf794	0.061759546
45	0x3ccca277	0.024979813
46	0xbcd504d9	-0.026003288
47	0xbd0a356a	-0.033742346
48	0x3dc3a30d	0.09552584
49	0xbd9c7306	-0.076391265
50	0x3d37a590	0.044835627
51	0xbdcc7bfa	-0.09984584
52	0x3c3e2360	0.011605114
53	0x3cc6251b	0.024187615
54	0x3d760910	0.060067236
55	0xbc003d3a	-0.007827098
56	0x3d39897c	0.04529713
57	0xbd775491	-0.060383383
58	0x3d820b3e	0.063498005
59	0xbd84e764	-0.06489447
60	0x3d48caaf	0.04902142
61	0x3c81671c	0.015796237
62	0xbd116dfe	-0.035505287
63	0x3c80c7d3	0.015720284
64	0x3bcc6ee1	0.0062388037
65	0xbd1b9aea	-0.037989534
66	0xbc977d0c	-0.018492244
67	0x3da0dffb	0.07855221
68	0xbd0f5b69	-0.034999285
69	0xbd727818	-0.05919656
70	0x3da9937b	0.08280083
71	0x3cb4559d	0.02201348
72	0x3d143cfc	0.03619097
73	0x3d938a77	0.072041444
74	0x3c153425	0.0091066705
75	0x3d2048d7	0.039131965
76	0x3cdfc9fb	0.027317991
77	0x3b7e2569	0.0038779622
78	0xbdab1db7	-0.08355277
79	0xbb891645	-0.004183563
80	0x3da3cf77	0.07998555
81	0xbd226feb	-0.039657515
82	0x3d1c76e0	0.038199306
83	0xbdb1ff06	-0.0869122
84	0x3d25c349	0.04046944
85	0xbd0cca95	-0.034372885
86	0xbc585232	-0.013203191
87	0xbb8b8e33	-0.004258895
88	0x3c4e5cf7	0.012595407
89	0x3d94afd0	0.07260096
90	0x3d00c7ff	0.03144073
91	0xbd41f47d	-0.047352303
92	0x3d866d5f	0.0656383
93	0xbcb66303	-0.02226401
94	0xbd9947f4	-0.07484427
95	0x3c6e2cbd	0.014537034
96	0x3dc8573d	0.097822644
97	0xbd4d963f	-0.050192114
98	0x3a5a3e5e	0.00083253335
99	0xbd36f3c9	-0.044666085
100	0xbd911aa0	-0.070851564
101	0x3ca31caa	0.019911129
102	0x3c82a0f7	0.015945895
103	0x3c8491d7	0.016182823
104	0x3cd120e7	0.025528384
105	0x3d37ec1a	0.0449029
106	0x3ca9bf3d	0.020721072
107	0xbd2d41fe	-0.042299263
108	0x3d99b1df	0.07504629
109	0xbd412b5a	-0.047160484
110	0x3d5701ba	0.05249188
111	0xbda08387	-0.07837587
112	0x3d97634e	0.07391988
113	0xbcecb9fc	-0.028897278
114	0x3dc08eef	0.094022624
115	0x3d9eb32e	0.077490196
116	0xbd815001	-0.06314088
117	0x3d956554	0.072947174
118	0xbd800fe4	-0.06253031
119	0x3dbebf88	0.093138754
120	0x3bd6dfc5	0.006557437
121	0xbd9581dc	-0.07300159
122	0x3c96026c	0.018311702
123	0xbb385bfb	-0.0028130997
124	0x3d086435	0.03329869
125	0xbdceadb3	-0.10091724
126	0xbd646185	-0.055757064
127	0xbd109170	-0.03529495
128	0xbd6a6f42	-0.05723501
129	0x3d828d02	0.06374551
130	0x3cf5999d	0.029980475
131	0xbc7b5c9e	-0.015341906
132	0x3d7bc4e9	0.061467085
133	0x3d8e3fc3	0.06945755
134	0xbc82dd57	-0.015974684
135	0xbda9783e	-0.082748875
136	0xbd872762	-0.065993086
137	0xbcbe8a77	-0.023259385
138	0x3d7eb5ca	0.062185086
139	0xbc40c73c	-0.011766251
140	0xbd853530	-0.06504285
141	0xbd3c9cbb	-0.046047907
142	0xbd6aa045	-0.05728175
143	0xbdbfe052	-0.093689576
144	0xbd993f6a	-0.074827984
145	0xbd805cd7	-0.06267708
146	0x3d81bd63	0.06334951
147	0x3d51379a	0.051078416
148	0xbda16dad	-0.07882247
149	0x3da57195	0.08078305
150	0x3d088bde	0.033336513
151	0x3ceb9c0c	0.028760932
152	0x3b22c405	0.0024836075
153	0x3d597d2b	0.053097885
154	0xbcd5ff7d	-0.026122803
155	0xbc4d5191	-0.012531654
156	0x3d8b23d0	0.0679394
157	0x3dc918d1	0.098191865
158	0x3d65d63a	0.056112505
159	0xbd513b6e	-0.051082067
160	0x3cc11138	0.02356778
161	0xbd89ba34	-0.067249686
162	0xbd11b401	-0.035572056
163	0x3dac7d6f	0.08422362
164	0x3dcd42c1	0.10022498
165	0x3cbdb4ba	0.023157466
166	0x3d17c1c6	0.03705003
167	0xbd7aaaec	-0.06119816
168	0x3d051442	0.032490022
169	0xbd90f147	-0.0707727
170	0xbda0f820	-0.07859826
171	0xbd3ce435	-0.046116073
172	0xbc61edc2	-0.013789596
173	0x3d9181a6	0.071048066
174	0xbd9acdaf	-0.07558762
175	0xbd893d49	-0.06701142
176	0xbda73fde	-0.081664786
177	0x3dc03d05	0.093866386
178	0x3dbb9a41	0.09160281
179	0x3c590e63	0.013248059
180	0x3d8c5242	0.06851627
181	0xbd10792f	-0.03527182
182	0xbaef0576	-0.001823588
183	0xbd91b1bc	-0.07113978
184	0x3c9e6a64	0.01933784
185	0xbd19f292	-0.03758485
186	0xbd947ed3	-0.07250752
187	0xbc4c8f44	-0.012485329
188	0xbdb8cc47	-0.09023338
189	0xbd7cbf91	-0.06170613
190	0xbc43582d	-0.011922878
191	0xbc074984	-0.008257274
192	0x3d05dbbc	0.03268026
193	0xbc89c6c8	-0.01681842
194	0xbd894e89	-0.067044325
195	0x3d8cd41c	0.06876394
196	0xbd938db2	-0.072047606
197	0x3d592a5f	0.053018924
198	0xbd895fe5	-0.067077436
199	0x3bf173b7	0.0073685306
200	0xbdb2e09a	-0.087342456
201	0x3ce73fde	0.028228696
202	0xbdb0d0f3	-0.08633604
203	0x3ca97bc5	0.0206889
204	0x3d71b9dd	0.059015144
205	0xbc68eb21	-0.014216215
206	0xbd5b0a53	-0.053476643
207	0xbd8278f3	-0.063707255
208	0xbc29339b	-0.010327245
209	0xbd709f79	-0.058745835
210	0x3d8efc77	0.069817476
211	0xbc9f3da4	-0.019438572
212	0x3d919a32	0.071094885
213	0x3dbcc1d8	0.0921666
214	0xbda0c0ad	-0.0784925
215	0xbcef0517	-0.029177232
216	0xbd9aa5ac	-0.07551131
217	0xbdb0231c	-0.086004466
218	0x3d5227cb	0.05130748
219	0x3d9ebf54	0.07751337
220	0x3cbe8c1f	0.023260174
221	0xbd31ca74	-0.043405965
222	0xbd006be9	-0.03135291
223	0x3c91907d	0.017769093
224	0x3da01cd7	0.07818001
225	0xbd4d951a	-0.050191022
226	0x3d92f575	0.071757235
227	0xbb98132b	-0.004640957
228	0x3c76f2d0	0.015072539
229	0xbcefa58b	-0.029253742
230	0x3db6a9ee	0.0891913
231	0x3c82ffb3	0.015991068
232	0xbdbf8e41	-0.09353305
233	0xbd07d2c5	-0.03315999
234	0xbd10f30c	-0.035388038
235	0xbd91765f	-0.071026556
236	0xbdb7bb0e	-0.08971225
237	0x3b96520d	0.004587418
238	0x3da01926	0.07817297
239	0x3dc3d755	0.09562556
240	0xbd36c961	-0.044625644
241	0x3d727d9a	0.059201814
242	0xbd8a1c69	-0.067437
243	0x3d8f8f14	0.07009712
244	0x3dbcd10e	0.092195615
245	0xbdbad2f7	-0.091222696
246	0xbdbd7e21	-0.09252573
247	0x3b054d88	0.0020340402
248	0x3d0e7585	0.034780044
249	0xbcb4b0c3	-0.022056943
250	0x3c37c48a	0.011216292
251	0xbd969975	-0.07353488
252	0x3d35c6c1	0.044379
253	0x3da91ae9	0.08257086
254	0x3dba19ed	0.09086976
255	0x3c14841d	0.009064701

rnn.bias_hh_l0 f4 [300]
0	0xbccd3dec	-0.02505394
1	0x3d20be61	0.03924406
2	0x3bdaa9ce	0.0066730743
3	0xbbb15e15	-0.005412827
4	0xbdcd1838	-0.10014385
5	0x3d0107b7	0.031501498
6	0x3dc0f971	0.09422577
7	0xbd31d22f	-0.043413337
8	0x3db4ab2b	0.0882171
9	0xbd9c923c	-0.076450795
10	0xbc87e622	-0.016589228
11	0xbd2900b3	-0.041260432
12	0xbc839a54	-0.0160648
13	0x3daa71e1	0.08322502
14	0xbd2770ce	-0.040879063
15	0xbdc5d91f	-0.09660553
16	0x3bd509b5	0.0065014013
17	0xbc687144	-0.014187161
18	0xbc24e285	-0.010063772
19	0xbd327ce6	-0.043576144
20	0xbdae8746	-0.08521895
21	0xbd9100b5	-0.07080213
22	0xbd86ea73	-0.065876864
23	0xbcbb8a89	-0.022893207
24	0xbd8afba3	-0.06786277
25	0xbdaf465a	-0.0855834
26	0x3db75b0b	0.08952912
27	0x3d213bce	0.039363675
28	0xbcb44327	-0.022004677
29	0x3dc31e93	0.09527316
30	0x3dac34e4	0.084085256
31	0xbdcde800	-0.10054016
32	0xbd92ff08	-0.071775496
33	0xbdb93ba6	-0.0904458
34	0xbc8ce852	-0.017200623
35	0xbca3586b	-0.019939622
36	0xbcc6b961	-0.024258317
37	0xbd1e1c51	-0.038601223
38	0xbd81fc02	-0.06346895
39	0x3bfb448e	0.0076680845
40	0xbdc618e5	-0.09672717
41	0xbb8cb77a	-0.004294333
42	0x3da95eac	0.0827001
43	0xbb39656f	-0.002828922
44	0xbd029d9f	-0.0318886
45	0xbcb1d483	-0.021707779
46	0xbd6daef7	-0.058028188
47	0xbd1b59f1	-0.03792757
48	0xbd978375	-0.0739812
49	0x3cac598d	0.021038795
50	0xbcf14134	-0.029450037
51	0xbd59ba58	-0.053156227
52	0x3db16037	0.0866093
53	0x3dbacd94	0.09121242
54	0x3d1a9f54	0.037749603
55	0x3d1d97e7	0.038474943
56	0xbbaf209a	-0.0053444626
57	0x3c424536	0.0118573215
58	0xbd966950	-0.073443055
59	0xbc47d753	-0.012197333
60	0x3d9d2fdb	0.07675143
61	0xbd48e5bc	-0.049047217
62	0x3d52a3af	0.051425632
63	0x3cddca93	0.027074134
64	0xbd554495	-0.052067358
65	0xbd77c98a	-0.060494937
66	0xbbd5cbfc	-0.006524561
67	0x3d35b96b	0.04436628
68	0xbd81dd3a	-0.06341024
69	0xbbec16bf	-0.00720486
70	0x3dbe3ecd	0.09289322
71	0x3d16280b	0.03665928
72	0x3dab0b0a	0.08351715
73	0xbdc7ad90	-0.09749901
74	0x3dcc0288	0.0996142
75	0x3d4b9ad7	0.049708214
76	0xbccfef05	-0.025382528
77	0xbda1c5b0	-0.07899034
78	0x3ca989d0	0.020695597
79	0x3d507bf1	0.05089945
80	0x3d8e8d75	0.069605745
81	0xbd56173e	-0.05226826
82	0x3dbed230	0.09317434
83	0xbd44d2c7	-0.048052575
84	0xbd8d2ba0	-0.068930864
85	0xbb79e9bf	-0.0038133708
86	0xbd9c4670	-0.076306224
87	0x3ce78454	0.028261341
88	0xbceb0a45	-0.02869142
89	0xbcacabbb	-0.021077981
90	0xbdbbcc8f	-0.09169876
91	0xbd185103	-0.037186634
92	0xbce6d421	-0.028177323
93	0x3cee6b03	0.029103762
94	0x3d5e104f	0.05421477
95	0xbdb9b45b	-0.09067603
96	0xbd0cb80b	-0.034355205
97	0x3c718674	0.014741529
98	0x3bc97f19	0.0061491844
99	0x3d969e3e	0.07354401
100	0x3d35be2e	0.044370823
101	0x3db9924c	0.09061107
102	0x3afb0911	0.0019152482
103	0xbb0fd9b0	-0.002194982
104	0xbd7ea068	-0.062164694
105	0xbd8c984c	-0.06864986
106	0x3c18a330	0.009316251
107	0xbdb39eae	-0.087705
108	0x3c48acdc	0.012248244
109	0xbcdbec68	-0.026846126
110	0xbd40f467	-0.04710808
111	0xbd80fe6f	-0.06298529
112	0x3d4490d1	0.04798967
113	0xbd233d8e	-0.039853625
114	0x3d453c7c	0.048153386
115	0xbd0b0ff4	-0.03395076
116	0x3d553f32	0.05206222
117	0x3dc660ef	0.09686457
118	0x3dbfceb3	0.093655966
119	0xbcb65937	-0.022259338
120	0xbb90ec08	-0.0044226684
121	0xbd0cd390	-0.03438145
122	0xbd2c2ed5	-0.04203685
123	0xbda31f69	-0.079649754
124	0x3c5b33c5	0.013379042
125	0x3cedb394	0.029016294
126	0x3bb7ade8	0.005605448
127	0xbda77409	-0.08176429
128	0x3db45af6	0.08806412
129	0xbd53cabc	-0.051707014
130	0x3dcd0552	0.100107804
131	0xbcfd55e5	-0.030924747
132	0x3db3a300	0.08771324
133	0xbd8c862f	-0.06861531
134	0xbda793c4	-0.08182481
135	0x3dad7dee	0.08471285
136	0xbc82c993	-0.015965259
137	0xbc8715d7	-0.016489906
138	0xbdb4cf7c	-0.08828637
139	0x3bb98ed5	0.005662779
140	0x3c1d6a28	0.009607829
141	0xbd34ae28	-0.0441114
142	0xbd5eea5b	-0.054422718
143	0xbcd34e41	-0.02579415
144	0xbdb28faa	-0.08718808
145	0xbd2f8b9c	-0.04285775
146	0xbd8c6e5d	-0.068569876
147	0xbd48fb36	-0.0490677
148	0xbd908bd0	-0.07057917
149	0x3d252762	0.04032076
150	0xbd7abd79	-0.06121585
151	0xbd952bab	-0.0728372
152	0xbd2db543	-0.042409193
153	0xbb8fdc7e	-0.0043902984
154	0x3d8f7825	0.070053376
155	0xbdc44355	-0.09583155
156	0xbd9c9ec8	-0.076474726
157	0x3bb873ee	0.0056290543
158	0x3d597e17	0.053098764
159	0x3da04575	0.07825748
160	0x3c0f5887	0.008749134
161	0xbc59fa42	-0.013304295
162	0xbd5f3714	-0.054495886
163	0xbd2c5ab1	-0.042078678
164	0x3be4c9e0	0.006982073
165	0xbd95a94e	-0.07307683
166	0xbcb79869	-0.022411542
167	0xbb839593	-0.0040156334
168	0xbdc59531	-0.09647597
169	0x3b93c37d	0.004509388
170	0xbd99e7d5	-0.075149216
171	0xbd308deb	-0.043104094
172	0xbda9a600	-0.08283615
173	0x3c8c330b	0.017114183
174	0xbd9fdcbc	-0.078057736
175	0x3b8bab43	0.0042623593
176	0xbced8bd6	-0.028997343
177	0x3d57ebd6	0.052715145
178	0x3dc734a9	0.09726841
179	0xbdb8d278	-0.09024519
180	0x3c8024b8	0.015642509
181	0xbd7d6d99	-0.0618721
182	0x3d2c2706	0.042029403
183	0xbda475ca	-0.08030279
184	0x3d67c82d	0.056587387
185	0xbc43e307	-0.011955983
186	0x3d867131	0.06564558
187	0xbdc2b725	-0.09507588
188	0xbc940637	-0.01806937
189	0xbd81d6d7	-0.063398056
190	0xbdaf9988	-0.08574206
191	0x3d4532a3	0.048143994
192	0x3d45c132	0.04827995
193	0xbb9353a1	-0.0044960533
194	0xbceb5cf2	-0.028730843
195	0x3ce545a1	0.027987303
196	0xbd67a9e7	-0.056558516
197	0xbd901382	-0.07034971
198	0xbd36fed8	-0.04467663
199	0x3c13280f	0.008981719
200	0x3c93c8c2	0.018040065
201	0xbc4526d1	-0.01203318
202	0x3dca0cc0	0.09865713
203	0xbd116158	-0.035493225
204	0x3dbf06fd	0.09327505
205	0xbce37e57	-0.027770204
206	0xbc043a28	-0.008070506
207	0xbd4014ee	-0.04689496
208	0x3dbacf55	0.09121577
209	0x3cfdf2b1	0.030999513
210	0x3dbc6f6c	0.092009395
211	0xbd6eeb32	-0.05832977
212	0xbd125a3a	-0.035730578
213	0xbc6ebfe9	-0.014572122
214	0xbcc42c2c	-0.023946844
215	0xbd8848e6	-0.06654529
216	0x3d823eb1	0.06359614
217	0x3d042442	0.03226114
218	0x3d343d52	0.044003792
219	0x3d4878ce	0.048943333
220	0xbdcbbe45	-0.099484004
221	0xbcf6b5a6	-0.030115914
222	0x3cd2142b	0.025644382
223	0xbdac2508	-0.08405501
224	0x3dcbe273	0.09955301
225	0xbd94549b	-0.072427
226	0x3d59defc	0.05319117
227	0xbd74e828	-0.059791714
228	0x3d4ec009	0.050476108
229	0x3d258361	0.040408496
230	0x3b913fe0	0.0044326633
231	0x3d5c7cbe	0.0538299
232	0x3d7f3e85	0.062315483
233	0xbd9391cb	-0.07205542
234	0x3d9e9d92	0.07744898
235	0x3da0fab8	0.07860321
236	0xbdc4e032	-0.09613074
237	0xbd918d44	-0.071070224
238	0xbdadf1a6	-0.084933564
239	0x3d63e3b8	0.05563709
240	0xbd7a37fa	-0.06108854
241	0x3d33c6e4	0.04389085
242	0x3b33c444	0.0027430216
243	0xbc4f4bcf	-0.0126523515
244	0x3c9f9ae8	0.019483045
245	0xbd0155d0	-0.031575978
246	0x3cba1d9c	0.022719197
247	0xbd570a3a	-0.052499987
248	0x3db89717	0.09013193
249	0x3d15d332	0.036578365
250	0xbd4ef118	-0.050522894
251	0x3c661dc1	0.01404518
252	0xbdb5639c	-0.088568896
253	0x3cc06459	0.02348535
254	0xbd8e7eb7	-0.06957763
255	0xbd2a8891	-0.041634146

fc_out1.weight f4 [50, 100]
0	0xba51ea4a	-0.0008007629
1	0xbd21f23a	-0.039537646
2	0x3dc1b7f2	0.09458913
3	0xbc77485a	-0.015092934
4	0xbd19945b	-0.037495
5	0x3d91d853	0.07121339
6	0xbdb09bda	-0.08623476
7	0xbd627092	-0.055283137
8	0x3d8f548c	0.06998548
9	0xbda8a772	-0.08235063
10	0xbd82278b	-0.063551985
11	0xbcf8dc26	-0.030378412
12	0x3d478187	0.04870751
13	0x3cabeb32	0.020986173
14	0x3d357946	0.04430511
15	0x3d7784af	0.06042927
16	0x3d5c88bc	0.053841338
17	0xbc56687d	-0.013086435
18	0x3cd73388	0.02626969
19	0xbdc9f39a	-0.098609164
20	0xbd6242bb	-0.05523942
21	0xbccbc7f5	-0.02487562
22	0xbd810c3e	-0.06301163
23	0x3d06fabe	0.03295397
24	0x3c909a8c	0.017651819
25	0x3a201994	0.0006107327
26	0xbdb5e488	-0.088814795
27	0xbd383264	-0.04496993
28	0x3da4fb50	0.080557466
29	0x3be1d87d	0.0068922625
30	0x3c574ea5	0.013141309
31	0xbb79c406	-0.0038111224
32	0xbc064c6e	-0.008196933
33	0xbdbe4006	-0.09289555
34	0xbd81030f	-0.062994115
35	0x3dcb703a	0.09933515
36	0x3d0f1948	0.03493622
37	0xbccc3df2	-0.024931882
38	0x3d66d425	0.05635466
39	0x3d36b840	0.04460931
40	0xbd234a84	-0.039865986
41	0x3bb56253	0.005535403
42	0xbc8b899b	-0.017033389
43	0x3d3710e1	0.04469383
44	0x3d613379	0.05498073
45	0x3cb97c65	0.022642324
46	0x3c8ef2be	0.017449733
47	0xbd4fd337	-0.05073854
48	0x3d3ed579	0.046590302
49	0xbc58af62	-0.013225408
50	0xbc817a72	-0.015805457
51	0xbd759d66	-0.05996456
52	0xbd5331e8	-0.051561266
53	0x3d0c2085	0.0342107
54	0x3d8cc9bf	0.068744175
55	0x3c9dfcb4	0.019285537
56	0x3d82cb3b	0.063864194
57	0xbd7675ad	-0.060170818
58	0x3c7cc913	0.015428799
59	0xbdc75d6a	-0.09734614
60	0x3b879959	0.0041381535
61	0x3d638f60	0.055556655
62	0xbd11c0e9	-0.035584364
63	0x3db518da	0.08842631
64	0x3c2e0838	0.010622077
65	0xbd9d5634	-0.076824576
66	0xbdb79d61	-0.089655645
67	0x3dc03c2a	0.093864754
68	0xbda0ae49	-0.07845742
69	0xbdbce3bd	-0.09223125
70	0x3be3e20e	0.006954438
71	0x3c804dac	0.015662037
72	0x3c38e355	0.011284669
73	0xbca5911e	-0.020210799
74	0xbcb849b0	-0.022496074
75	0x3d1c70c8	0.038193494
76	0xbcd684da	-0.026186395
77	0xbd5916e1	-0.053000335
78	0x3d828d4e	0.06374608
79	0x3c49955c	0.012303676
80	0x3cd2cd28	0.025732592
81	0x3da64796	0.08119123
82	0x3c976cb7	0.018484456
83	0x3cb58d86	0.02216221
84	0xbd844e4d	-0.06460247
85	0xbc11a5b0	-0.008889601
86	0xbda4eeae	-0.08053337
87	0x3d06a000	0.03286743
88	0xbdaf1b03	-0.08550074
89	0xbd6a5b37	-0.057215896
90	0xbc52b6b3	-0.012860942
91	0xbdc73e52	-0.097286835
92	0x3caa9525	0.02082307
93	0xbd5d5d69	-0.05404416
94	0x3ce95f81	0.028487923
95	0xbd0a6b8d	-0.033793975
96	0x3b00e2bb	0.0019666392
97	0xbd67833b	-0.056521636
98	0x3cc0e7fd	0.02354812
99	0x3bc5c2ab	0.006035169
100	0x3d796373	0.060885858
101	0xbd08421a	-0.033266164
102	0x3d102a90	0.03519684
103	0xbb4ca9cd	-0.003122914
104	0xbcc5f3ad	-0.024164045
105	0x3d2a79b7	0.041619983
106	0x3cfa189a	0.030529309
107	0xbc8845a0	-0.016634762
108	0xbdb1fee7	-0.08691197
109	0x3c92e9da	0.017933775
110	0x3d32d117	0.043656435
111	0x3b2c7fcd	0.0026321292
112	0x3d3b673a	0.04575274
113	0xbc38078d	-0.011232269
114	0x3d5ca407	0.053867366
115	0x3ca7691a	0.020435859
116	0x3d16bf6a	0.03680364
117	0x3dc2d57a	0.09513374
118	0xbda039cf	-0.07823526
119	0xbb974c00	-0.004617214
120	0xbd9a60ff	-0.07538032
121	0x3ccf44ad	0.025301302
122	0xbd830828	-0.0639804
123	0x3dad24e8	0.08454305
124	0xbd99fd28	-0.07518989
125	0x3da1c5a2	0.078990236
126	0x3d0c60d0	0.034272015
127	0xbce18f47	-0.02753414
128	0xba5c9333	-0.00084142684
129	0xbccacfe0	-0.024757326
130	0xbd832f3d	-0.06405494
131	0xbdb16972	-0.0866269
132	0xbd876658	-0.066113174
133	0xbdcc9b48	-0.09990555
134	0x3d7430ed	0.05961697
135	0x3d2bd05a	0.041946746
136	0x3d8391a8	0.06424266
137	0xbda5957f	-0.08085155
138	0xbdb6f612	-0.08933653
139	0xbd0867e7	-0.033302214
140	0xbcec86d3	-0.028872883
141	0x3d11b010	0.035568297
142	0x3d8e4f40	0.069487095
143	0x3d9ea848	0.07746941
144	0xbd15b10d	-0.036545802
145	0xbd975102	-0.07388498
146	0xbd92da2a	-0.07170518
147	0x3d504f6a	0.050856985
148	0xbd854128	-0.06506568
149	0x3d706803	0.058692943
150	0x3dca77e7	0.09886151
151	0x3d0b7f8d	0.03405719
152	0xbc3f2e0d	-0.011668694
153	0xbd536407	-0.051609065
154	0x3d7af990	0.061273158
155	0xbd9521da	-0.07281847
156	0x3d55b327	0.052172806
157	0xbcebbb07	-0.028775705
158	0xbd957560	-0.07297778
159	0x3d1524dd	0.03641211
160	0xbd8ec545	-0.0697122
161	0xbdc66e3b	-0.096889935
162	0xbb0ab8cd	-0.0021167279
163	0x3cd1e553	0.025622046
164	0x3cfe9020	0.031074584
165	0x3d67d1aa	0.056596436
166	0xbd812d3f	-0.06307458
167	0x3c4c7067	0.012477971
168	0xbc90bdf3	-0.0176687
169	0x3dc84518	0.097788036
170	0x3d806995	0.06270138
171	0x3b1c89cd	0.0023885847
172	0x3ceedea0	0.02915889
173	0xbdab25c5	-0.08356813
174	0xbdca6738	-0.09882969
175	0x3bd5c2b3	0.006523454
176	0xbd9062b3	-0.070500754
177	0x3d8c80ad	0.068604805
178	0x3d92d042	0.07168628
179	0x3d5ea2ed	0.054354597
180	0x3d9302b0	0.07178247
181	0xbdc76047	-0.0973516
182	0x3d899087	0.067170195
183	0xbdc117df	-0.09428381
184	0xbd0ab3d3	-0.0338629
185	0xbd0ab3c7	-0.033862855
186	0x3dc75698	0.09733313
187	0x3d8cbf62	0.06872441
188	0xbdc6cc33	-0.09706917
189	0xbdcb27af	-0.099196784
190	0x3d239700	0.039938927
191	0xbd87bf23	-0.06628253
192	0xbd48f347	-0.049060132
193	0xbdb36658	-0.08759755
194	0xbda0e6b0	-0.078565
195	0xbdc7897a	-0.097430184
196	0x3d19346d	0.037403513
197	0x3dafc79f	0.085829966
198	0x3db39c88	0.0877009
199	0x3c36cba7	0.011156953
200	0x3d9f4998	0.07777709
201	0x3c324184	0.010879878
202	0xbd448d4b	-0.04798631
203	0xbd9e1236	-0.07718317
204	0x3da32419	0.079658695
205	0xbb006899	-0.0019593595
206	0xbd7f2c88	-0.062298328
207	0x3d7cdfc5	0.06173684
208	0x3d81d1b7	0.06338828
209	0x3d8b9d40	0.068171024
210	0x3d320be0	0.043468356
211	0x3c090b47	0.008364505
212	0xbd7781b2	-0.06042642
213	0x3daf08aa	0.085465744
214	0x3cbdc02f	0.02316293
215	0xbd13ba61	-0.036066417
216	0xbd627488	-0.055286914
217	0xbd4fcd3d	-0.05073284
218	0x3db8f82d	0.09031711
219	0x3ba5240b	0.005039697
220	0x3d50ff6a	0.05102483
221	0x3baeba0e	0.005332238
222	0xbd5685b0	-0.052373588
223	0xbd4e0549	-0.05029801
224	0xbd423187	-0.047410514
225	0xbd1b0b5e	-0.037852637
226	0x3dc6bb94	0.097037464
227	0xbc09f42e	-0.008420033
228	0x3d922b87	0.071372084
229	0x3d4a8d30	0.049451053
230	0x3dc94806	0.098281905
231	0xbd024edc	-0.031813487
232	0xbdbbcd86	-0.0917006
233	0xbda85ea8	-0.08221179
234	0xbda5c686	-0.08094506
235	0xbd8a9e95	-0.06768528
236	0x3d506cba	0.05088494
237	0xbd9fef9f	-0.07809376
238	0x3c96c5c4	0.018404849
239	0xbcd06493	-0.025438583
240	0x3d85f06e	0.06539999
241	0x3d896cc3	0.06710198
242	0xbcbd275f	-0.023090063
243	0x3dc48398	0.09595412
244	0x3db7e68d	0.08979521
245	0x3d14466d	0.036199976
246	0xbd94b763	-0.07261541
247	0xbcdb3027	-0.02675636
248	0x3dc10ae7	0.094259076
249	0xbdbcce03	-0.09218981
250	0x3ca42619	0.020037698
251	0x3dc4fda0	0.09618688
252	0x3cb92592	0.022600923
253	0xbd7dd441	-0.06197
254	0xbd254de4	-0.040357485
255	0xbdb00175	-0.08594028

fc_out1.bias f4 [50]
0	0x3daef468	0.085427105
1	0xbda138fb	-0.07872196
2	0x3cdfbed8	0.027312681
3	0x3d77f184	0.06053306
4	0x3db3ac77	0.087731294
5	0xbd217177	-0.03941485
6	0xbc8119f3	-0.015759444
7	0xbd8b03cd	-0.06787834
8	0x3d56cb66	0.05244007
9	0xbdae6e4b	-0.085171305
10	0xbd83dfc8	-0.06439167
11	0x37f9c57c	2.9775074e-05
12	0xbd840e3f	-0.0644803
13	0x3ceea867	0.029133035
14	0xbdb8e260	-0.090275526
15	0x3d4c3759	0.04985747
16	0x3da3f7f2	0.08006276
17	0x3da42919	0.08015651
18	0xbd6961c0	-0.056977987
19	0x3dc46653	0.09589829
20	0x3db7f786	0.08982758
21	0xbcf68cf3	-0.030096507
22	0xbd8f5e2a	-0.07000382
23	0xbd8c468f	-0.068493955
24	0xbc157454	-0.009121973
25	0x3cd96034	0.026535131
26	0xbc042b7f	-0.008067011
27	0xbd7c8557	-0.0616506
28	0xbccc2af4	-0.024922825
29	0x3d7cef73	0.061751794
30	0xbd8f8a1b	-0.070087634
31	0xbda06a8b	-0.078328215
32	0x3d0b00c2	0.03393627
33	0xbd28cc5a	-0.04121051
34	0xbd0e1114	-0.034684256
35	0xbd81538f	-0.06314766
36	0x3dae6756	0.085158035
37	0xbca7be17	-0.020476384
38	0xbdc44062	-0.095825925
39	0x3dc41266	0.09573822
40	0xbd819c7f	-0.063286774
41	0xbd750890	-0.05982262
42	0xbd94e9a2	-0.072711244
43	0xbd86a342	-0.06574108
44	0xbd4b2260	-0.04959333
45	0x3c88698b	0.01665189
46	0x3d05514a	0.032548226
47	0x3cc2503e	0.023719903
48	0x38eb1e94	0.00011211369
49	0x3dadb144	0.08481076

fc_out.weight f4 [2, 50]
0	0x3d503a84	0.050837055
1	0x3cf3231d	0.02967983
2	0xbda279cf	-0.079333894
3	0xbe0de034	-0.13855058
4	0x3dcf58ff	0.101243965
5	0x3df059f1	0.11735905
6	0x3e038a0b	0.12845628
7	0x3c96836e	0.018373217
8	0xbdb3fca0	-0.08788419
9	0xbcabff03	-0.020995623
10	0x3db85cbc	0.09002063
11	0x3d531ce0	0.05154121
12	0x3d170a08	0.0368748
13	0x3d88f739	0.06687779
14	0x3d657e45	0.056028623
15	0xbcbc824c	-0.02301135
16	0xbd60a913	-0.05484874
17	0x3beeac6f	0.0072837393
18	0x3db51ffb	0.088439904
19	0x3c231a3e	0.009954987
20	0xbe112ddc	-0.1417765
21	0xbc4ba745	-0.012430017
22	0xbdc173ba	-0.09445901
23	0x3df020e8	0.11725026
24	0xbde73968	-0.11290246
25	0xbca2f90c	-0.019894145
26	0x3db300d0	0.08740389
27	0xbd1ed05d	-0.03877293
28	0x3e049c98	0.12950361
29	0xbdf85bdf	-0.12126898
30	0x3ca3f3f4	0.020013787
31	0xbd5c7076	-0.05381819
32	0x3a938b16	0.0011256661
33	0xbcefef3f	-0.029288886
34	0xbd3f4a85	-0.046701927
35	0x3caaed0b	0.020864984
36	0xbd19ef2b	-0.037581604
37	0xbdf95f9b	-0.121764384
38	0xbe08a512	-0.1334422
39	0x3d01994b	0.031640332
40	0x3dc28d4c	0.094996065
41	0xbc050d32	-0.008120822
42	0xbdfd37e2	-0.123641744
43	0xbe02be10	-0.12767816
44	0x3d24ac54	0.040203407
45	0xbcb81f89	-0.022475975
46	0x3d675d58	0.056485504
47	0x3daf9e98	0.08575171
48	0xbe09e7f0	-0.13467383
49	0x3d4820e5	0.048859496
50	0xbd612478	-0.05496642
51	0x3b4c63ed	0.003118749
52	0xbe0269ef	-0.12735723
53	0xbdf9ab67	-0.121908955
54	0xbc85fcb1	-0.016355844
55	0x3de11048	0.109894335
56	0xbdf78f28	-0.12087852
57	0x3cbf6995	0.023365775
58	0xbdc7a4a5	-0.097482
59	0xbc84984f	-0.016185908
60	0x3dad619a	0.08465882
61	0xbd85b3c4	-0.06528428
62	0xbdfcdc70	-0.123467326
63	0x3d4ac278	0.049501866
64	0xbdeb3f95	-0.11486737
65	0xbcd0cda5	-0.025488684
66	0x3c9ed2a8	0.019387558
67	0x3cea4dcf	0.028601555
68	0x3d2330af	0.03984135
69	0xbd7bab0d	-0.061442424
70	0x3c116b3b	0.008875663
71	0xbdc002a5	-0.093755044
72	0xbd19bd5f	-0.037534114
73	0x3c154dab	0.009112756
74	0x3db49bf9	0.08818812
75	0xbdafef0f	-0.08590519
76	0x3e0b4312	0.13599804
77	0xbc91cbb7	-0.017797334
78	0xbe01986f	-0.12655805
79	0x3d3b807f	0.04577684
80	0x3d0a3041	0.033737425
81	0x3d4b8675	0.049688775
82	0x3c2bc2c1	0.010483445
83	0xbdbef880	-0.09324741
84	0xbd79e8e9	-0.061013136
85	0x3d5cae68	0.053877264
86	0xbdc3718c	-0.09543142
87	0x3ca2fdbf	0.019896386
88	0x3dd850d3	0.10562291
89	0x3d4e8689	0.05042127
90	0x3d96a93d	0.073564984
91	0xbd7a2334	-0.06106873
92	0xbd097559	-0.033559177
93	0xbd42feaf	-0.047606166
94	0xbca26b70	-0.01982662
95	0x3d6229ed	0.055215765
96	0x3dd7c077	0.10534757
97	0x3a091c23	0.0005230328
98	0xbd3bee66	-0.04588165
99	0xbdc85f27	-0.09783774

fc_out.bias f4 [2]
0	0x3dda2105	0.10650829
1	0x3d2e9432	0.0426218

exp_avg f4 [300, 2]
0	0xb8529190	-5.0203467e-05
1	0xb849596f	-4.8005426e-05
2	0xb8f24800	-0.0001155287
3	0xb8eda05d	-0.00011330911
4	0xb9ac8f35	-0.00032913094
5	0xb9a6b904	-0.00031799835
6	0x38352eaa	4.3197222e-05
7	0x381d9fec	3.7580656e-05
8	0xb791744c	-1.7339502e-05
9	0xb725a782	-9.873767e-06
10	0xb75aa277	-1.3031639e-05
11	0xb7541066	-1.2640003e-05
12	0xb911eaa9	-0.00013915695
13	0xb913fe77	-0.00014113808
14	0x39a6ea6b	0.00031836642
15	0x39a7129c	0.00031866587
16	0x36cd7a31	6.123701e-06
17	0x36ecb751	7.054689e-06
18	0x388edbc5	6.812023e-05
19	0x38876e44	6.45784e-05
20	0x38bf52b2	9.122993e-05
21	0x38c376f9	9.320485e-05
22	0xb882307a	-6.2079125e-05
23	0xb8718388	-5.7581376e-05
24	0x386a6da8	5.5892073e-05
25	0x386aaaf7	5.594917e-05
26	0xb8a3ae43	-7.8049045e-05
27	0xb8a210f3	-7.727919e-05
28	0x3834d07e	4.3109518e-05
29	0x3835e520	4.3367152e-05
30	0xb8ef7379	-0.000114179165
31	0xb901c62e	-0.00012376226
32	0xb872676a	-5.7793608e-05
33	0xb87097db	-5.7361885e-05
34	0xba0e337b	-0.00054245413
35	0xba0abd6a	-0.0005292507
36	0x39b3eb3a	0.00034316798
37	0x39b5304e	0.00034559
38	0x3881f6de	6.197182e-05
39	0x388c5003	6.6906236e-05
40	0x38cc11f1	9.73082e-05
41	0x38ecefde	0.00011298036
42	0xb8895bcd	-6.549768e-05
43	0xb89c791d	-7.461219e-05
44	0x392d910b	0.00016552598
45	0x392f362c	0.00016709481
46	0x3789a733	1.640953e-05
47	0x371fc54a	9.5230735e-06
48	0x388b1ef4	6.633802e-05
49	0x38d2439a	0.00010026172
50	0x3951a409	0.00019992901
51	0x3972bfb0	0.00023150328
52	0xb83d00a3	-4.5061704e-05
53	0xb80bc3af	-3.3322427e-05
54	0x38fc1b67	0.000120214005
55	0x390c7407	0.00013394664
56	0xb7b8e85d	-2.2042712e-05
57	0xb7da1610	-2.5997899e-05
58	0x38dea67b	0.00010616794
59	0x38e44616	0.00010884942
60	0xb8237eff	-3.8980503e-05
61	0xb82179bf	-3.8498776e-05
62	0xb81877e8	-3.6351295e-05
63	0xb839ea85	-4.432585e-05
64	0xb97b91c7	-0.00023991532
65	0xb9634bd7	-0.0002167666
66	0x392de3da	0.00016583447
67	0x392ab7b0	0.00016280892
68	0xb8d20968	-0.000100153324
69	0xb8cbe4a4	-9.722382e-05
70	0xb956cc97	-0.00020484846
71	0xb9571501	-0.00020511822
72	0xb798a96b	-1.8198703e-05
73	0xb7765c01	-1.4684164e-05
74	0xb7a862e6	-2.0073214e-05
75	0xb7a2858f	-1.9374098e-05
76	0xb7ae4b10	-2.077737e-05
77	0xb7d6245f	-2.5527725e-05
78	0x37755d32	1.4624837e-05
79	0x37d597e3	2.5462306e-05
80	0xb9478530	-0.00019027735
81	0xb94890ce	-0.0001912743
82	0xb6bd6ce8	-5.6453173e-06
83	0xb77299ca	-1.4460131e-05
84	0xb88fc167	-6.854795e-05
85	0xb8964dda	-7.167058e-05
86	0x39104d2f	0.00013761663
87	0x3910c719	0.0001380708
88	0xb9069d08	-0.00012837735
89	0xb90914ff	-0.0001307316
90	0xb6d65dbf	-6.3886105e-06
91	0xb72a16ca	-1.0138096e-05
92	0x37cbf1f8	2.4312161e-05
93	0x37b5b85d	2.1662732e-05
94	0x39c69045	0.00037872992
95	0x39cbcf4d	0.00038873628
96	0xb91c7413	-0.0001492056
97	0xb92ef9a8	-0.00016686937
98	0x396e4216	0.00022722068
99	0x396e24ca	0.00022711154
100	0xb7d357fb	-2.519413e-05
101	0xb81075b7	-3.4441906e-05
102	0xb4fa9201	-4.667236e-07
103	0xb591038e	-1.0804376e-06
104	0xb7891da4	-1.6345475e-05
105	0xb7400cdd	-1.1447087e-05
106	0xb7a4dd8e	-1.9653493e-05
107	0xb7bab634	-2.2257773e-05
108	0xb92a47e2	-0.00016239242
109	0xb930b9d3	-0.00016853893
110	0x36c54a49	5.8797054e-06
111	0x36a286f3	4.8436864e-06
112	0x3901f2ce	0.0001239285
113	0x3906f14a	0.00012869123
114	0xb5605c64	-8.358095e-07
115	0xb4b432d0	-3.3564584e-07
116	0xb8cff8c2	-9.916864e-05
117	0xb8ce2d34	-9.831265e-05
118	0xb9a1163b	-0.00030724876
119	0xb99be7bb	-0.00029736556
120	0x38904333	6.878972e-05
121	0x38831054	6.249608e-05
122	0xb71efa8a	-9.475867e-06
123	0xb738f1ab	-1.1023522e-05
124	0x383715be	4.365085e-05
125	0x383f85fe	4.566274e-05
126	0x389233d3	6.9714755e-05
127	0x389c6a9c	7.458517e-05
128	0xb97e51da	-0.0002425382
129	0xb987a3f2	-0.00025871355
130	0x39336d26	0.00017111431
131	0x390b1138	0.00013262487
132	0x38057c60	3.1825504e-05
133	0x38091947	3.2686887e-05
134	0xb8903cdb	-6.87779e-05
135	0xb86f73de	-5.708995e-05
136	0xb6b1dbf1	-5.3006156e-06
137	0xb6a1f712	-4.8269367e-06
138	0xb822a281	-3.8775153e-05
139	0xb81e07db	-3.767745e-05
140	0xb7d98709	-2.5931296e-05
141	0xb7dfca79	-2.6677955e-05
142	0xb88ce015	-6.717459e-05
143	0xb888e96c	-6.5284636e-05
144	0x37a3cbea	1.9526069e-05
145	0x37b40b83	2.1463033e-05
146	0x3719f61d	9.176813e-06
147	0x372dc480	1.0357355e-05
148	0x396e57a7	0.00022730102
149	0x396eb63a	0.00022765333
150	0x391e702f	0.00015109846
151	0x3915a58e	0.00014271421
152	0x38581d66	5.1525793e-05
153	0x38405e55	4.586422e-05
154	0x38ed9d0a	0.000113302915
155	0x38cae22b	9.674238e-05
156	0xb6965b34	-4.480966e-06
157	0x3637096a	2.7274605e-06
158	0xb9946005	-0.000283003
159	0xb996c752	-0.00028758735
160	0x38714544	5.7523386e-05
161	0x3842c777	4.643897e-05
162	0x3808673d	3.2521075e-05
163	0x37b5172d	2.1587673e-05
164	0xb7d6c799	-2.5603733e-05
165	0xb7c5d9e2	-2.358569e-05
166	0xb81f3e2a	-3.796645e-05
167	0xb81d3914	-3.7484875e-05
168	0x3a15679d	0.00056993385
169	0x3a18d981	0.00058307505
170	0xb8e01ecd	-0.000106868894
171	0xb9005700	-0.00012239441
172	0x38b40c2a	8.5853346e-05
173	0x38a2dc35	7.765779e-05
174	0x3703ccfc	7.855935e-06
175	0x3713da5e	8.812725e-06
176	0x38055122	3.1785232e-05
177	0x3802d3b9	3.1191597e-05
178	0x3896d430	7.1920804e-05
179	0x38a75c1f	7.9803394e-05
180	0x382b6a22	4.086842e-05
181	0x38305b71	4.204683e-05
182	0x399123ea	0.00027683313
183	0x398b2d20	0.00026545767
184	0xb9405998	-0.00018343923
185	0xb9428c9f	-0.00018553667
186	0x3978735d	0.00023694099
187	0x39698faa	0.0002227413
188	0xb7dea45a	-2.6540994e-05
189	0xb7c9eb47	-2.4070627e-05
190	0x3986eab9	0.00025733354
191	0x398795f7	0.0002586094
192	0xb63c0d98	-2.8022096e-06
193	0xb5cd8c73	-1.5314566e-06
194	0xba2735e6	-0.0006378576
195	0xba22637f	-0.00061946356
196	0x3810f188	3.455722e-05
197	0x37c83eb3	2.3871055e-05
198	0x390fddc9	0.00013720164
199	0x390df0b7	0.00013536481
200	0x372bb592	1.0234669e-05
201	0x37255da7	9.8565715e-06
202	0x37b3dab4	2.1440304e-05
203	0x37b4d922	2.1558782e-05
204	0x362325f2	2.431098e-06
205	0x363a33a4	2.7746219e-06
206	0xb40f13de	-1.332514e-07
207	0x34817e91	2.4120212e-07
208	0x36af7378	5.2288487e-06
209	0x369769e3	4.5124775e-06
210	0x364f9928	3.0934552e-06
211	0x362e545c	2.5977124e-06
212	0x37b207b1	2.1222835e-05
213	0x37b3b919	2.1424656e-05
214	0xb79cd235	-1.8694534e-05
215	0xb79f1042	-1.8961848e-05
216	0xb2b85f49	-2.146375e-08
217	0xb22ff14e	-1.0241207e-08
218	0x342e3dd4	1.6227506e-07
219	0x348053d3	2.3902848e-07
220	0xb6ed4a4f	-7.071801e-06
221	0xb6f2b8d4	-7.233679e-06
222	0xb64a63ed	-3.015851e-06
223	0xb64c73a3	-3.0465678e-06
224	0x369aa33e	4.6085615e-06
225	0x36921f68	4.3547952e-06
226	0xb6f0f903	-7.181546e-06
227	0xb6fec809	-7.593077e-06
228	0xb686ed42	-4.0211316e-06
229	0xb6969dd2	-4.488721e-06
230	0x36b51c69	5.3975277e-06
231	0x36d0b547	6.2199865e-06
232	0xb6147a12	-2.2124773e-06
233	0xb622a2b5	-2.423459e-06
234	0x37ba35b9	2.2197944e-05
235	0x37b917ff	2.2064893e-05
236	0xb77c63bf	-1.5043594e-05
237	0xb77b0dbd	-1.49639645e-05
238	0xb76be604	-1.4060646e-05
239	0xb7755a35	-1.4624141e-05
240	0x36d4e7e3	6.3450875e-06
241	0x36e09d0c	6.694003e-06
242	0x373b6491	1.11694835e-05
243	0x37420ac6	1.15658095e-05
244	0xb72303a7	-9.7164075e-06
245	0xb727ba43	-9.997343e-06
246	0x36c30aa6	5.8126925e-06
247	0x36c6f366	5.929195e-06
248	0xb7a98b80	-2.021133e-05
249	0xb7b37ceb	-2.1396632e-05
250	0xb7272039	-9.961478e-06
251	0xb74386a5	-1.1654255e-05
252	0xb4da4835	-4.0658202e-07
253	0xb5b05541	-1.3137834e-06
254	0xb5f23681	-1.8046268e-06
255	0xb611a9bb	-2.170548e-06
