airflow_ais/mlruns/0/c44337f89073429ba1f882587bc517f7/artifacts/prediction_model/data/model.pth (torch, 155599 bytes, 8 tensors)

weight_ih_l0 f4 [300, 2]
0.071288995 0.059036803 -0.024265205 0.049575247 0.006666577 -8.198023e-05 -0.06522665 0.039319884
-0.035559308 0.05136143 -0.071557574 0.023170043 -0.089906834 0.07431217 -0.09278395 -0.08142467
-0.014004338 -0.067494966 0.011387802 -0.038712095 0.039790522 -0.08095638 0.046645153 0.039739944
0.05061164 -0.022636319 0.07527983 -0.06326367 -0.08400265 0.05150776 0.018166257 -0.06110493
-0.09704478 0.0060492395 0.08620812 0.00928191 -0.07162716 0.081446804 0.094578646 0.021091748
-0.031567562 0.035808563 0.023061669 -0.0016576768 0.06479996 0.06251645 -0.042556014 -0.05324613
-0.0722237 -0.07259276 0.008626485 -0.006873405 0.0999011 -0.08789533 0.0983748 0.01128639
-0.054526415 -0.04039222 -0.060879733 0.02126968 0.06275719 0.009115756 -0.050873876 -0.055132866
0.026613176 -0.08966849 0.026653696 0.0026984096 -0.007445538 -0.07408517 -0.029304994 0.05595498
-0.06671363 -0.094502226 -0.08635383 0.097494915 -0.03635789 -0.0074317935 0.047170617 0.07771911
-0.07669174 -0.036787223 -0.03982258 0.08780854 -0.071237616 0.09597315 -0.05445386 0.07367498
-0.09868678 -0.018573476 0.06558237 0.029724097 0.069533005 -0.06883036 -0.09896608 -0.036881473
-0.09550668 -0.068472445 -0.09859047 0.029584957 0.018019963 -0.05592809 0.046037972 0.093211666
0.07156426 0.017967094 -0.020710994 -0.08791883 0.0035158277 -0.040022243 0.09507122 0.05757053
0.0009203553 -0.0079386 -0.09330185 -0.07729458 -0.07877284 -0.048076488 -0.034574103 -0.05257956
-0.0024899244 -0.058274627 0.01777525 -0.079220824 0.030537665 0.026197387 -0.059575368 -0.059289347
-0.06886671 -0.0031685114 -0.097382896 -0.09333735 0.0252851 -0.04249821 0.07767899 -0.030890763
0.018845368 -0.042082656 0.0037459494 0.014569104 0.08673918 0.021498883 0.03645649 -0.07052823
-0.020480586 0.08953937 0.028596437 -0.008692312 -0.09112751 0.028542865 0.052076437 0.046835817
0.08002478 0.03906348 0.08474006 -0.019920683 0.04427029 0.002834916 -0.06500459 -0.05346639
0.07907492 0.00083070993 0.0073707937 0.04664085 0.06539297 0.0721538 -0.03941084 -0.005685866
0.054512586 -0.0943221 -0.07145449 0.08622334 -0.09110718 0.033073273 0.07626998 -0.02013786
-0.010140288 0.05623859 -0.013230765 0.025085116 -0.060380567 -0.09905501 0.09705734 -0.009893346
0.030663788 0.009390736 0.0179307 0.046880282 -0.065821506 0.05643442 -0.06347573 -0.012317896
0.03108654 -0.048081636 0.025495267 0.02167417 -0.024785077 -0.0032416463 -0.0739513 0.03826951
-0.0106062535 0.032511856 0.06316513 -0.031368256 -0.019819355 0.061537337 0.031159794 0.023465443
0.04448397 -0.015662968 0.0063644648 -0.02467258 0.06697438 0.07290139 0.077865064 0.008065725
-0.08929582 0.073778585 0.019498408 -0.049548913 0.09541837 0.014926362 -0.053423822 0.04753847
0.014427805 0.011575055 -0.04416367 0.029148389 0.035679974 -0.060229063 -0.07388878 0.036408197
0.06564802 -0.07690728 0.012407744 -0.056070697 0.026117278 -0.062046777 -0.025323678 -0.0343784
0.08531069 0.023781383 -0.030247677 0.05367353 0.05121833 -0.092036866 0.00052357913 0.0030383826
0.09743706 0.07454854 -0.04760995 0.059985828 -0.005291033 0.099358834 0.014223516 -0.014880419
00000000: f7ff 913d 93d0 713d d3c7 c6bc 6a0f 4b3d
00000010: 4d73 da3b cdec abb8 8d95 85bd e30d 213d
00000020: a3a6 11bd 5d60 523d c78c 92bd 1acf bd3c
00000030: 1321 b8bd fb30 983d 8305 bebd fac1 a6bd
00000040: 7372 65bc cd3a 8abd e793 3a3c 9390 1ebd
00000050: 63fb 223d 75cc a5bd fd0e 3f3d 5ac6 223d
00000060: 274e 4f3d cd6f b9bc 502c 9a3d 6290 81bd
00000070: 9509 acbd cdf9 523d 67d1 943c 2a49 7abd
00000080: 6abf c6bd b338 c63b e28d b03d 2713 183c
00000090: 43b1 92bd 95cd a63d 73b2 c13d 9ac8 ac3c
000000a0: fd4c 01bd 00ac 123d d3eb bc3c 6746 d9ba
000000b0: d7b5 843d a008 803d 374f 2ebd 9d18 5abd
000000c0: 05ea 93bd 83ab 94bd 1a56 0d3c 4d3a e1bb
000000d0: f398 cc3d 7702 b4bd ba78 c93d 8dea 383c
000000e0: 1757 5fbd 5072 25bd 075d 79bd c03d ae3c
000000f0: d786 803d 405a 153c 2061 50bd 00d3 61bd
00000100: e003 da3c 1da4 b7bd da58 da3c cdd7 303b
00000110: b3f9 f3bb f7b9 97bd 0711 f0bc 0d31 653d
00000120: 28a1 88bd 628a c1bd 47da b0bd 6aab c73d
00000130: 03ec 14bd 6786 f3bb fa35 413d 322b 9f3d
00000140: 8f10 9dbd 33ae 16bd 001d 23bd f7d4 b33d
00000150: 07e5 91bd 928d c43d 030b 5fbd e8e2 963d
00000160: 4b1c cabd 6727 98bc 0d50 863d f37f f33c
00000170: 5267 8e3d eff6 8cbd baae cabd 0711 17bd
00000180: 0299 c3bd 483b 8cbd cde9 c9bd 275c f23c
00000190: 9a9e 933c da14 65bd 5092 3c3d c2e5 be3d
000001a0: 4890 923d ba2f 933c 1aaa a9bc ca0e b4bd
000001b0: cd69 663b 5dee 23bd b3b4 c23d 13cf 6b3d
000001c0: 0044 713a e710 02bc 0a15 bfbd 9f4c 9ebd
000001d0: a853 a1bd daeb 44bd 939d 0dbd aa5d 57bd
000001e0: 002e 23bb 60b1 6ebd 679d 913c 873e a2bd
000001f0: 202a fa3c e79b d63c 4d05 74bd 63d9 72bd
00000200: fd09 8dbd cda6 4fbb af70 c7bd a727 bfbd
00000210: b322 cf3c 9a12 2ebd 2a16 9f3d a00e fdbc
00000220: 9a61 9a3c dd5e 2cbd 9a7e 753b 40b3 6e3c
00000230: 50a4 b13d 6d1e b03c 6753 153d 1b71 90bd
00000240: e7c6 a7bc 6b60 b73d 1343 ea3c 336a 0ebc
00000250: 0fa1 babd bad2 e93c 1a4e 553d ead6 3f3d
00000260: 08e4 a33d 0701 203d 328c ad3d b330 a3bc
00000270: c354 353d 00ca 393b 2021 85bd 93ff 5abd
00000280: 08f2 a13d 00c4 593a b386 f13b 7a0a 3f3d
00000290: c0ec 853d 5fc5 933d 436d 21bd 8050 babb
000002a0: 9748 5f3d f22b c1bd bb56 92bd dd95 b03d
000002b0: 6796 babd d777 073d 6f33 9c3d 27f8 a4bc
000002c0: 7323 26bc 705a 663d dac5 58bc 4d7f cd3c
000002d0: 9d51 77bd 5add cabd 00c6 c63d b317 22bc
000002e0: a032 fb3c 9adb 193c 67e3 923c 8a05 403d
000002f0: 6dcd 86bd c727 673d 90ff 81bd 00d1 49bc
00000300: 33a9 fe3c 40f1 44bd 73db d03c 078e b13c
00000310: 130a cbbc cd71 54bb c773 97bd 7dc0 1c3d
00000320: dac5 2dbc 272b 053d b85c 813d 007c 00bd
00000330: 335c a2bc 930e 7c3d d342 ff3c 9a3a c03c
00000340: d334 363d a04f 80bc 008d d03b 271e cabc
00000350: dd29 893d 534d 953d b877 9f3d 1a26 043c
00000360: bae0 b6bd 3a19 973d 20bb 9f3c cdf3 4abd
00000370: b56a c33d b38d 743c f0d2 5abd b3b7 423d
00000380: 9a62 6c3c 4da5 3d3c f7e4 34bd 9ac8 ee3c
00000390: 2a25 123d c0b2 76bd 0053 97bd c320 153d
000003a0: 7872 863d 9081 9dbd da49 4b3c 63aa 65bd
000003b0: e7f3 d53c c324 7ebd 9a73 cfbc 5dd0 0cbd
000003c0: 5fb7 ae3d 2dd1 c23c fac9 f7bc c7d8 5b3d
000003d0: 50ca 513d d37d bcbd cd40 093a 9a1f 473b
000003e0: 158d c73d e8ac 983d a702 43bd b3b3 753d
000003f0: 6760 adbb a57c cb3d c009 693c 00cd 73bc

weight_hh_l0 f4 [300, 100]
-0.03840933 -0.098203234 -0.037953675 -0.035143733 0.03709328 0.034179308 -0.01250726 0.03379741
0.060166683 0.015655685 0.09548098 0.09902157 0.070425905 -0.07693366 -0.08618341 -0.095098294
-0.011982739 0.099484496 0.00888437 0.040963795 0.00017925502 -0.036756672 -0.07344984 0.04919479
-0.019490076 0.09583759 0.058376398 -0.060722876 -0.037728142 -0.09370419 0.09757127 -0.022418035
0.08268825 0.07475233 0.04127766 -0.054745343 0.013012111 -0.0912736 0.07703134 0.06983352
0.057015635 -0.089648776 0.046236243 -0.030167436 0.022822166 -0.09112195 -0.055970777 -0.08385717
-0.067310505 0.0032812 0.029100288 0.07346584 -0.0039522885 -0.076748244 0.09180751 -0.040271044
-0.09465901 -0.045850076 0.06374239 -0.05276532 0.06065538 0.099336766 -0.078503706 -0.007904792
-0.0051334025 0.0036715388 -0.094413675 -0.052435946 -0.052398015 0.036608078 -0.064320445 -0.06489135
-0.03442533 0.054237403 0.091417305 0.061360598 0.0052980185 0.03974391 -0.0059297443 -0.04940441
0.04925826 -0.03846798 0.057526685 0.07011639 -0.039709795 0.032082308 0.030741787 -0.050245132
-0.036702838 -0.07013615 -0.010660923 -0.010769677 -0.06207794 0.09419538 0.019406904 -0.0063753724
0.0685515 0.07740597 0.07298167 0.023490882 -0.020550251 0.04567368 -0.07544333 0.033178985
-0.00022753478 -0.087922 -0.09495888 -0.004261315 0.009114921 -0.0110078575 0.07806057 -0.06963223
-0.058009364 0.09874338 0.09311112 -0.006628871 -0.095631324 -0.08658941 0.0018859744 -0.053349067
-0.00016828776 -0.052890267 -0.057494115 -0.010722399 -0.08231362 -0.054879498 0.052396048 -0.08077916
0.0979329 -0.097443715 0.051291335 -0.064899795 0.09205665 0.040217664 0.029950095 -0.071065344
0.02625264 0.07784466 -0.020578993 0.057084348 -0.066667296 -0.028669382 -0.047347642 -0.08683258
0.08185046 -0.08082874 -0.08716225 0.06129552 -0.02818433 0.099313036 -0.008342671 0.07266734
-0.024268914 0.050056614 0.069772854 0.07869991 0.07389387 -0.05167072 0.03967769 0.04188806
0.046712425 -0.021703184 0.03795674 -0.07197517 0.053807925 -0.062313583 0.01120981 -0.07660722
0.022539187 -0.09351673 0.09833763 0.023486733 0.077951334 -0.045031633 0.056706667 -0.018007947
0.085394464 -0.032869067 -0.06879207 0.08286207 -0.010074401 -0.027569724 0.024462987 -0.07981113
-0.0026280284 -0.07190948 0.047503497 -0.08198108 0.0626628 0.09581615 0.08923794 0.07493173
0.01652875 0.07701849 -0.088795304 0.09525783 0.0436574 -0.09825224 -0.035957027 0.015633691
0.09508254 -0.011192704 0.032950293 0.0071848514 0.08962005 0.015225637 0.03953421 0.008985079
0.044657826 0.014261735 -0.034746982 0.0011613489 -0.096168004 -0.025686348 -0.0018033981 0.08041493
-0.075263634 -0.014294172 0.03883929 -0.018665135 0.032872964 -0.08789035 -0.025372684 0.04374806
-0.019688834 -0.06075063 -0.051351096 -0.03939238 -0.010605931 -0.052044895 0.0645617 0.08768
0.0461725 -0.07995279 0.09327395 0.06173874 0.006686306 -0.009743094 -0.08304838 0.037129056
-0.066044286 0.015923416 0.027918829 -0.042823043 -0.048653033 0.06482239 0.046461917 0.08696153
-0.068704605 0.06257162 -0.023219956 -0.02764002 -0.034578156 -0.042132344 0.045657314 -0.039809324
00000000: 1a53 1dbd c71e c9bd 5075 1bbd e0f2 0fbd
00000010: 20ef 173d 9aff 0b3d 40eb 4cbc 276f 0a3d
00000020: 5771 763d 5a40 803c 888b c33d d2cb ca3d
00000030: 753b 903d 658f 9dbd ed80 b0bd e5c2 c2bd
00000040: 4053 44bc 87be cb3d c08f 113c a7c9 273d
00000050: 67f6 3b39 2a8e 16bd df6c 96bd 7a80 493d
00000060: a7a9 9fbc 8046 c43d 171c 6f3d 8db8 78bd
00000070: d388 1abd fbe7 bfbd 72d3 c73d 07a6 b7bc
00000080: 7558 a93d c017 993d c312 293d a73c 60bd
00000090: c030 553c a7ed babd 9bc2 9d3d e004 8f3d
000000a0: 3a89 693d c799 b7bd 3762 3d3d b321 f7bc
000000b0: 8df5 ba3c 259e babd 9d41 65bd 4fbd abbd
000000c0: 17da 89bd 6709 573b ba63 ee3c 4275 963d
000000d0: 3382 81bb 2f2e 9dbd 9305 bc3d 40f3 24bd
000000e0: 95dc c1bd 4acd 3bbd 5f8b 823d 7320 58bd
000000f0: c771 783d 1371 cb3d 8dc6 a0bd 1a83 01bc
00000100: 1a36 a8bb 339e 703b f55b c1bd 13c7 56bd
00000110: 4d9f 56bd 5af2 153d 70ba 83bd c2e5 84bd
00000120: 9301 0dbd 0a28 5e3d ff38 bb3d 4055 7b3d
00000130: 009b ad3b 83ca 223d 4d4e c2bb 475c 4abd
00000140: 07c3 493d 9a90 1dbd 1aa1 6b3d 2f99 8f3d
00000150: bda6 22bd bd68 033d 33d6 fb3c d7cd 4dbd
00000160: b755 16bd 8ba3 8fbd 27ab 2ebc 4d73 30bc
00000170: 7045 7ebd 82e9 c03d 3afb 9e3c 80e8 d0bb
00000180: bb64 8c3d 0587 9e3d 6a77 953d f36f c03c
00000190: 0059 a8bc 5314 3b3d 0882 9abd b0e6 073d
000001a0: 6796 6eb9 7310 b4bd cd79 c2bd 80a2 8bbb
000001b0: c056 153c 4d5a 34bc 38de 9f3d 589b 8ebd
000001c0: 3a9b 6dbd f839 ca3d 0bb1 be3d 0037 d9bb
000001d0: 5bda c3bd ca55 b1bd cd32 f73a 8d84 5abd
000001e0: 6776 30b9 77a3 58bd f37e 6bbd 00ad 2fbc
000001f0: 0b94 a8bd 53c9 60bd 3d9d 563d 8b6f a5bd
00000200: 0b91 c83d 9290 c7bd dd16 523d 2fea 84bd
00000210: 3288 bc3d 47bb 243d e759 f53c b58a 91bd
00000220: c70f d73c 056d 9f3d 4795 a8bc 47d1 693d
00000230: dd88 88bd 0ddc eabc 9aef 41bd 48d5 b1bd
00000240: 37a1 a73d 8a89 a5bd 1f82 b2bd 0311 7b3d
00000250: d3e2 e6bc a264 cb3d b3af 08bc 9dd2 943d
00000260: 9acf c6bc 2a08 4d3d 12e5 8e3d 6b2d a13d
00000270: ab55 973d ada4 53bd 1385 223d d092 2b3d
00000280: 8755 3f3d e0ca b1bc 8778 1b3d b867 93bd
00000290: b365 5c3d 873c 7fbd 5aa9 373c 3fe4 9cbd
000002a0: 1aa4 b83c b385 bfbd 3d65 c93d 4067 c03c
000002b0: f3a4 9f3d 1773 38bd 4045 683d 6785 93bc
000002c0: 4be3 ae3d b7a1 06bd dbe2 8cbd 97b3 a93d
000002d0: 1a0f 25bc e7d9 e1bc 9a66 c83c 0574 a3bd
000002e0: 003b 2cbb 4745 93bd 0793 423d b2e5 a7bd
000002f0: 5b55 803d 423b c43d 62c2 b63d cf75 993d
00000300: 4d67 873c dfbb 9d3d 50da b5bd 8a16 c33d
00000310: 1ad2 323d 7838 c9bd ad47 13bd 3a12 803c
00000320: a2ba c23d 9a61 37bc e3f6 063d e76e eb3b
00000330: b78a b73d f374 793c a0ee 213d 2736 133c
00000340: 20eb 363d 0daa 693c da52 0ebd 6738 983a
00000350: bbf3 c4bd 2d6c d2bc 0060 ecba 95b0 a43d
00000360: d223 9abd 1a32 6abc f315 1f3d a0e7 98bc
00000370: cda5 063d dbff b3bd 60da cfbc 2a31 333d
00000380: 7a4a a1bc a7d5 78bd 8755 52bd e759 21bd
00000390: 80c4 2dbc 072d 55bd ed38 843d 9291 b33d
000003a0: 601f 3d3d 4abe a3bd 6a06 bf3d c3e1 7c3d
000003b0: cd18 db3b 80a1 1fbc 4515 aabd a314 183d
000003c0: 3a42 87bd d371 823c 07b6 e43c 3767 2fbd
000003d0: 6748 47bd 9ac1 843d da4e 3e3d e318 b23d
000003e0: 00b5 8cbd 8d25 803d c737 bebc 536d e2bc
000003f0: d3a1 0dbd f792 2cbd 2a03 3b3d 1a0f 23bd

bias_ih_l0 f4 [300]
0.04806577 -0.012588131 -0.088138774 0.02427329 -0.03994442 0.06568598 0.05955043 0.09022117
-0.05031042 0.027349843 -0.08420036 -0.06676477 -0.03633014 -0.025805747 -0.012673378 0.08054636
-0.05911366 0.09287055 0.044353534 0.015539325 -0.013063669 -0.03943944 -0.07289194 -0.046551753
-0.02446692 0.015582872 -0.021750188 0.0131046055 0.013044953 -0.007985127 -0.01100626 0.02891456
0.038311373 0.0046540857 -0.09305196 -0.089517735 -0.00830251 -0.09036767 0.027076209 -0.022676123
-0.035505652 -0.029170943 -0.03163469 -0.06276598 0.029113222 0.0690574 0.05331334 -0.04833386
0.046970557 7.6758864e-05 0.04868379 0.015652467 -0.063841574 0.07845848 0.016497958 -0.06367806
0.048288215 0.047060706 -0.09712645 -0.07131709 -0.09539534 -0.09542968 -0.020734048 -0.08676877
0.018533397 0.042103257 -0.016938223 0.06566616 -0.09577252 0.04247886 -0.059790947 -0.04797372
-0.079529226 0.07576028 -0.09506074 -0.05839119 -0.0034619332 0.0047018765 0.03594723 -0.08934891
0.0877999 -0.007085538 0.009707212 -0.057666887 -0.09392013 -0.09131228 -0.0071654916 0.09628592
-0.015737249 -0.08391853 -0.032084633 -0.029993558 -0.077151574 0.017434394 -0.09423991 -0.07631516
-0.022183359 -0.025724161 0.0655783 0.042855468 0.07556601 0.0008894682 -0.055959582 0.029263068
0.057347357 -0.005639255 0.018210638 -0.046046603 0.022668635 -0.043115437 -0.026375879 0.03969839
-0.026544595 0.008635557 -0.0888016 -0.0025717379 0.055853393 -0.05697726 -0.0040264726 -0.064296745
0.03860345 0.073101476 0.04725293 -0.080762565 -0.022203494 -0.034093298 -0.06107508 0.0649189
-0.07738185 -0.08844655 0.008066344 -0.05337688 -0.064131714 -0.012707138 0.06548896 -0.077309124
-0.0661261 -0.029267145 -0.05327729 -0.095763735 -0.0016536713 0.02374208 0.040221643 0.07608049
-0.024753273 0.09636402 -0.00957005 0.031513978 -0.063467525 0.036770236 0.02985604 -0.07740301
0.04952929 -0.021666348 -0.069177166 0.07482946 -0.053658117 -0.051332045 0.038313355 0.09660047
0.019250883 -0.09796389 0.014573514 -0.008281506 0.05929475 -0.06750613 0.08341867 0.0891785
-0.06542962 -0.060976364 0.06613102 0.03903929 0.0026245117 -0.018302059 -0.006493223 -0.06480074
0.06899249 -0.03106681 -0.011636329 0.058796324 0.09322157 0.015662385 -0.05149777 0.08755143
-0.023938274 -0.038870562 -0.07991167 0.029815806 0.021938061 -0.025980353 0.027488543 0.08038664
0.009718895 -0.05779636 -0.058354594 -0.004665613 0.039603677 0.030443061 -0.07514005 -0.06989385
-0.058351424 0.09329923 0.043662705 -0.07934489 -0.08281159 0.057296444 0.01707592 0.0006041289
-0.025077129 -0.0032405497 -0.085990146 -0.05030923 0.07016184 -0.079409674 0.03819835 -0.01954149
0.023575282 -0.0048017264 0.08259056 -0.042028334 0.04941404 0.04998518 0.060406744 0.08200091
0.052028 0.07788511 -0.00057537557 -0.06613582 -0.018451655 0.03008858 0.09597023 0.07556283
-0.04340414 -0.08252247 0.0709488 -0.044470966 -0.09680028 -0.045160558 -0.07109886 -0.06372752
0.08962327 0.0091931345 0.05957588 -0.07714609 -0.0665391 0.007908118 -0.029116703 -0.07339092
-0.046416044 0.022023499 -0.053164363 -0.035515334 0.0935859 0.06873938 0.019066025 0.0990771
00000000: 9de0 443d 733e 4ebc 1a82 b4bd c7d8 c63c
00000010: c39c 23bd 5f86 863d 27eb 733d e0c5 b83d
00000020: 4d12 4ebd c70c e03c 3d71 acbd f8bb 88bd
00000030: eace 14bd 9366 d3bc 00a4 4fbc 7df5 a43d
00000040: 2a21 72bd ea32 be3d 0dac 353d a798 7e3c
00000050: 0009 56bc 408b 21bd 5f48 95bd 0dad 3ebd
00000060: da6e c8bc 4d4f 7f3c 732d b2bc b3b4 563c
00000070: 80ba 553c 0dd4 02bc 9a53 34bc 3ade ec3c
00000080: 63ec 1c3d 4d81 983b 0792 bebd 1355 b7bd
00000090: 4007 08bc af12 b9bd edce dd3c 47c3 b9bc
000000a0: 606e 11bd e7f7 eebc 6093 01bd 738b 80bd
000000b0: da7e ee3c f76d 8d3d 175f 5a3d baf9 45bd
000000c0: 3364 403d 9af9 a038 a768 473d 9a39 803c
000000d0: 5fbf 82bd d7ae a03d ba26 873c a569 82bd
000000e0: ddc9 453d bac2 403d 3bea c6bd b20e 92bd
000000f0: a25e c3bd a370 c3bd 73da a9bc d3b3 b1bd
00000100: 5ad3 973c 7774 2c3d 07c2 8abc fb7b 863d
00000110: 6224 c4bd 50fe 2d3d 5ae7 74bd 1780 44bd
00000120: 38e0 a2bd 3528 9b3d 35af c2bd 9a2b 6fbd
00000130: 9ae1 62bb 3312 9a3b 673d 133d 90fc b6bd
00000140: 6fd0 b33d cd2d e8bb 000b 1f3c 1d34 6cbd
00000150: 3259 c0bd ef01 bbbd 80cc eabb 8d31 c53d
00000160: 67eb 80bc 7add abbd 2d6b 03bd 0db5 f5bc
00000170: a501 9ebd 93d2 8e3c db00 c1bd 1f4b 9cbd
00000180: e0b9 b5bc 7abb d2bc ea4d 863d 3789 2f3d
00000190: 5ac2 9a3d 332b 693a e035 65bd 1ab9 ef3c
000001a0: 10e5 6a3d 80c9 b8bb 7a2e 953c 5d9b 3cbd
000001b0: 93b3 b93c d099 30bd 3a12 d8bc c79a 223d
000001c0: 0d74 d9bc 277c 0d3c 9ddd b5bd 9a8a 28bb
000001d0: 87c6 643d fd60 69bd 80f0 83bb 03ae 83bd
000001e0: a71e 1e3d 3ab6 953d 4a8c 413d d866 a5bd
000001f0: 1ae4 b5bc 6aa5 0bbd dd29 7abd 33f4 843d
00000200: 607a 9ebd 7723 b5bd b328 043c b7a1 5abd
00000210: 7d57 83bd 9a31 50bc 131f 863d 3f54 9ebd
00000220: 1f6d 87bd a7c1 efbc 4a39 5abd c71f c4bd
00000230: 00c0 d8ba c07e c23c 73bf 243d 17d0 9b3d
00000240: 60c7 cabc 805a c53d b3cb 1cbc cd14 013d
00000250: 43fb 81bd 639c 163d a794 f43c 7885 9ebd
00000260: 3adf 4a3d a07d b1bc c2ac 8dbd 3040 993d
00000270: 9dc8 5bbd 8d41 52bd 77ee 1c3d 78d6 c53d
00000280: 07b4 9d3c 4ba1 c8bd c0c5 6e3c 27af 07bc
00000290: 0ddf 723d a740 8abd 68d7 aa3d 38a3 b63d
000002a0: f7ff 85bd 5ac2 79bd b36f 873d aae7 1f3d
000002b0: 0000 2c3b 33ee 95bc 1ac5 d4bb 40b6 84bd
000002c0: ef4b 8d3d d37f febc 4da6 3ebc 6ad4 703d
000002d0: f3ea be3d 674e 803c 53ef 52bd 2a4e b33d
000002e0: 331a c4bc bd36 1fbd bba8 a3bd 4740 f43c
000002f0: 73b7 b33c c0d4 d4bc a72f e13c c0a1 a43d
00000300: 003c 1f3c e0bb 6cbd 3a05 6fbd 00e2 98bb
00000310: 7737 223d ba63 f93c 07e3 99bd 8224 8fbd
00000320: e701 6fbd ab13 bf3d aad7 323d 937f a2bd
00000330: 1f99 a9bd adaf 6a3d cde2 8b3c 675e 1e3a
00000340: 8d6e cdbc 675f 54bb 9a1b b0bd 0d11 4ebd
00000350: 03b1 8f3d 8aa1 a2bd e075 1c3d 7a15 a0bc
00000360: f320 c13c cd57 9dbb 3d25 a93d e725 2cbd
00000370: 6066 4a3d 43bd 4c3d 106d 773d 18f0 a73d
00000380: 501b 553d 3b82 9f3d cdd4 16ba 3772 87bd
00000390: ed27 97bc 537c f63c 0a8c c43d afc0 9a3d
000003a0: 8ac8 31bd 8a01 a9bd 9b4d 913d 3027 36bd
000003b0: 3a3f c6bd 47fa 38bd 479c 91bd 9383 82bd
000003c0: 688c b73d cd9e 163c d705 743d c5fe 9dbd
000003d0: a745 88bd 0d91 013c 2786 eebc fb4d 96bd
000003e0: c01e 3ebd a06a b43c e0c2 59bd 8778 11bd
000003f0: f7a9 bf3d 3bc7 8c3d 5a30 9c3c efe8 ca3d

bias_hh_l0 f4 [300]
0.07931937 0.077622406 -0.052346706 -0.0370304 0.045993473 0.03155283 -0.0065801027 -0.095994584
0.013024271 0.04702891 0.010730195 -0.09999587 0.040091645 0.02873528 -0.04755677 0.03239279
0.05705098 0.07369597 0.0034356953 0.06688281 -0.07447343 -0.07092609 -0.07287265 -0.0738522
-0.053431094 0.07810625 0.055252075 0.035121787 0.07892603 -0.048360564 0.094325066 -0.09980839
0.090860225 0.053840842 -0.017410636 0.028764619 0.092578724 -0.057117786 -0.057914045 0.051035967
-0.08442211 -0.09780618 -0.064064674 0.07660939 -0.0025826932 -0.0032809258 0.080684625 0.0058769467
-0.039355613 -0.023011519 0.017395461 0.0043335557 0.09545576 0.08551516 -0.061201025 0.0648334
-0.04818672 0.074429475 0.0058772448 -0.033489417 -0.036371887 -0.082846574 -0.037204362 -0.06558557
0.06267112 -0.06064811 0.055517256 0.06468382 -0.063234724 0.09731431 0.03097899 -0.008821571
-0.025923276 0.018698443 0.024701132 -0.08104254 -0.038500965 0.06646886 0.054822005 0.054513346
-0.011509585 0.0013260007 0.09483156 -0.0048988345 0.009077787 -0.048888423 -0.06369702 -0.064131975
-0.09832322 -0.005357921 -0.08877293 0.07593747 -0.06982177 -0.059405982 0.072081804 0.047148824
-0.08548273 0.08404595 0.04325534 -0.061555173 -0.06137004 0.083548404 0.076751985 0.080764234
0.022449626 0.041979562 0.06313821 -0.095914476 0.09966921 0.089843504 0.022820998 0.07194841
-0.011731005 0.08553894 0.064747386 0.007827139 -0.00818745 0.0015900731 -0.008327044 -0.0008880258
-0.0076720836 0.030964864 0.02871709 -0.08291018 -0.053030957 0.027350748 0.014020264 0.052311923
-0.054165103 -0.030693471 0.09334719 0.08326169 0.06900793 0.076573186 -0.09371765 0.051098097
0.07967611 0.09380907 -0.040492978 -0.047133315 -0.0937961 -0.011457408 0.0058926228 -0.06439538
0.0779225 0.063400745 0.07974829 0.02623024 -0.060099542 0.08168012 0.050519954 -0.09788895
-0.024057461 -0.028749311 -0.011785949 -0.060573675 0.053075206 0.050053846 -0.0292395 -0.046146918
0.07495618 -0.06396731 -0.026970541 -0.09916671 0.03840239 0.012933827 -0.011311543 -0.04346936
-0.047215033 -0.054975726 0.009560215 -0.017127538 0.09159682 -0.078164555 0.023081768 0.06500297
0.067300595 0.007735837 0.04489806 -0.07411938 0.045329787 0.012251592 -0.08599891 -0.010025633
-0.06276517 0.019712973 0.0072873235 -0.09031077 0.021600341 0.025422717 0.0857622 -0.032488227
0.029137183 0.055160057 -0.007828903 0.012023914 -0.08101974 -0.06473267 -0.09295442 -0.051863026
-0.010321665 0.038792647 -0.09710655 -0.06987115 0.025961293 0.037972618 0.049329437 -0.036288895
0.054027535 0.04999105 0.050849177 -0.034853306 0.006175995 -0.06640939 -0.08077017 -0.04605626
0.036657322 0.019080615 -0.09733198 -0.026346052 -0.03406154 0.07100327 0.0027108432 0.023113335
0.09657138 -0.080212235 0.096657775 0.05486841 0.021731187 -0.07023259 0.04121504 0.04693085
0.037867583 -0.03163129 0.015832603 -0.089777045 0.0049566627 0.06559867 0.08933947 0.078122795
0.022998309 -0.0034467222 -0.046797704 0.0007536769 -0.08791312 0.07504641 0.08397458 -0.018812073
-0.06472961 0.050662886 -0.07833996 -0.051655795 0.07702636 0.03088268 0.0876115 -0.014216053
00000000: 3272 a23d 7ff8 9e3d 8069 56bd 30ad 17bd
00000010: a763 3c3d 8a3d 013d e79d d7bb cf98 c4bd
00000020: c063 553c 63a1 403d b3cd 2f3c a2ca ccbd
00000030: 2337 243d 4066 eb3c e3ca 42bd 4dae 043d
00000040: 4aae 693d eaed 963d 6729 613b dbf9 883d
00000050: 8785 98bd b341 91bd 423e 95bd d23f 97bd
00000060: 90da 5abd 2bf6 9f3d 0050 623d dddb 0f3d
00000070: f8a3 a13d ba15 46bd 802d c13d 5768 ccbd
00000080: ed14 ba3d 3788 5c3d c0a0 8ebc c7a3 eb3c
00000090: ea99 bd3d 57f4 69bd 4737 6dbd 170b 513d
000000a0: 80e5 acbd 9b4e c8bd 5734 83bd 62e5 9c3d
000000b0: 6742 29bb cd04 57bb fb3d a53d 6793 c03b
000000c0: 5a33 21bd a782 bcbc ed80 8e3c 8000 8e3b
000000d0: 4f7e c33d 9222 af3d edad 7abd 60c7 843d
000000e0: 705f 45bd 7b6e 983d e795 c03b 332c 09bd
000000f0: b0fa 14bd 77ab a9bd 9a63 18bd ba51 86bd
00000100: b759 803d 276a 78bd 1066 633d f378 843d
00000110: 3581 81bd ba4c c73d a7c7 fd3c 5a88 10bc
00000120: 0d5d d4bc 7a2d 993c 075a ca3c a2f9 a5bd
00000130: 30b3 1dbd d320 883d 0a8d 603d 6349 5f3d
00000140: b392 3cbc 33cd ad3a 0d37 c23d 6786 a0bb
00000150: 00bb 143c 3a3f 48bd 9573 82bd a057 83bd
00000160: af5d c9bd 8091 afbb 95ce b5bd 1b85 9b3d
00000170: b7fe 8ebd b053 73bd a09f 933d 201f 413d
00000180: 9211 afbd 4820 ac3d 832c 313d 4721 7cbd
00000190: 275f 7bbd 6d1b ab3d 2530 9d3d b867 a53d
000001a0: 47e8 b73c c3f2 2b3d 9b4e 813d cf6e c4bd
000001b0: 5f1f cc3d dfff b73d 1af3 ba3c b059 933d
000001c0: 6733 40bc 0a2f af3d 479a 843d 673d 003c
000001d0: a724 06bc 006a d03a 276e 08bc 67ca 68ba
000001e0: 1a66 fbbb 07aa fd3c 1a40 eb3c d0cc a9bd
000001f0: fd36 59bd ad0e e03c 40b5 653c 0745 563d
00000200: 3adc 5dbd e070 fbbc d02c bf3d 1b85 aa3d
00000210: 0854 8d3d 67d2 9c3d 0aef bfbd 3d4c 513d
00000220: 3a2d a33d f81e c03d f7db 25bd dd0e 41bd
00000230: 2b18 c0bd dab7 3bbc e716 c13b bae1 83bd
00000240: d595 9f3d 40d8 813d 1253 a33d cde0 d63c
00000250: f02a 76bd e847 a73d 03ee 4e3d 007a c8bd
00000260: 2714 c5bc ad83 ebbc da19 41bc 1a1c 78bd
00000270: 6365 593d 4305 4d3d ad87 efbc 8d04 3dbd
00000280: a082 993d 4b01 83bd 53f1 dcbc eb17 cbbd
00000290: d34b 1d3d 67e8 533c 0d54 39bc ed0c 32bd
000002a0: 8d64 41bd 3a2e 61bd 73a2 1c3c 0d4f 8cbc
000002b0: 1d97 bb3d bd14 a0bd fa15 bd3c 4720 853d
000002c0: e5d4 893d e77c fd3b 07e7 373d e7cb 97bd
000002d0: baab 393d e7ba 483c 3220 b0bd 8d42 24bc
000002e0: 078b 80bd 1a7d a13c 80ca ee3b daf4 b8bd
000002f0: 33f3 b03c 4d43 d03c 18a4 af3d 6012 05bd
00000300: 1ab1 ee3c 83ef 613d cd44 00bc f3ff 443c
00000310: aded a5bd 9092 84bd e35e bebd 536e 54bd
00000320: 331c 29bc 0ae5 1e3d cddf c6bd 9b18 8fbd
00000330: c7ac d43c 2d89 1b3d aa0d 4a3d aaa3 14bd
00000340: fa4b 5d3d 6ac3 4c3d 3a47 503d 57c2 0ebd
00000350: 0060 ca3b a501 88bd d56a a5bd 7da5 3cbd
00000360: fd25 163d f34e 9c3c fd55 c7bd add3 d7bc
00000370: 1d84 0bbd 2a6a 913d 67a8 313b 2d58 bd3c
00000380: 37c7 c53d 5046 a4bd 83f4 c53d b3bd 603d
00000390: 9a05 b23c 1bd6 8fbd 1ad1 283d 903a 403d
000003a0: 0a1b 1b3d d08f 01bd 60b3 813c 07dd b7bd
000003b0: 806b a23b 9858 863d 9df7 b63d d8fe 9f3d
000003c0: f366 bc3c 67e2 61bb f3ae 3fbd 6792 453a
000003d0: cb0b b4bd efb1 993d ddfa ab3d c71b 9abc
000003e0: f590 84bd e383 4f3d b370 a0bd 0795 53bd
000003f0: ffbf 9d3d adfd fc3c a86d b33d 73ea 68bc

weight f4 [50, 100]
-0.07616674 0.07352763 -0.07026315 0.094414786 0.024344003 -0.020530188 -0.076896526 -0.015365946
-0.0963935 -0.011401367 -0.032734513 0.057995357 -0.0027046204 -0.09368297 -0.04020443 0.04103477
0.00082689524 0.022720862 -0.0061441422 -0.06364091 -0.0596637 -0.09655116 -0.013889134 -0.09472992
-0.049357843 -0.010069561 -0.043189716 -0.06767338 0.08438086 0.066424526 -0.0931324 0.087842025
-0.09913527 0.019099487 -0.022634877 0.02898612 0.016315138 0.058267545 0.050669122 0.040474642
-0.016447915 -0.016146874 -0.03870182 0.025724268 -0.012589586 -0.011767447 0.09226177 -0.07413925
-0.08478939 0.0846489 -0.059361245 -0.0510059 -0.004674375 -0.0581185 -0.098798715 0.04090066
-0.07262625 0.01118015 0.019539714 -0.0739577 -0.025305009 -0.04236225 -0.0010119558 0.01996212
-0.099017955 0.008681202 0.018991137 0.011702574 0.00494833 0.02233696 0.056220688 -0.022910763
-0.025190724 -0.01667428 0.079120755 0.09153923 0.08555698 -0.07049707 0.08625692 0.08895725
-0.08778407 -0.09435183 -0.0656594 0.0145866275 0.038616527 0.047465872 0.058462083 0.090571485
-0.030364597 0.08822121 -0.008827627 0.0640428 -0.015168035 -0.034618545 -0.0008719683 0.04941691
-0.012441337 -0.043952692 0.051423192 0.009636379 0.04839907 0.016275788 0.08024124 0.01883812
-0.02424376 0.02469231 -0.02986877 -0.092489935 -0.056475915 -0.02678951 0.0937395 -0.043986153
0.0022031188 -0.02449206 -0.081867136 0.099760614 0.0074273944 0.036456075 0.046439316 0.0438746
-0.050985347 -0.01916343 -0.020916332 0.058140565 -0.05837133 -0.0722633 0.08903845 -0.014527607
-0.044250585 -0.09019517 -0.028341388 -0.012513828 0.0027829648 0.017460525 0.055354394 -0.012612618
0.06750683 -0.02756517 0.051739253 0.025316477 -0.05302122 0.033859205 0.05245508 0.060631394
0.044508256 -0.019698167 0.038280487 -0.0349522 0.0008980751 0.08537459 -0.013542652 0.02474091
-0.08235037 -0.07668175 -0.014104867 -0.096256614 0.051712442 -0.030294621 0.0934599 0.08021132
0.07733219 0.0866461 0.019742226 -0.018987417 0.035105374 0.018756641 -0.036023796 0.035163045
0.08946848 0.048287 0.049141467 -0.08052498 -0.08350264 0.086235456 0.04538839 0.059299946
0.026320029 0.06344954 -0.0045424104 0.0755946 0.08701169 0.006775701 0.008261549 0.025022794
-0.07347538 -0.07674042 -0.039971795 -0.024832178 -0.08817476 0.040821552 0.0023281814 -0.060296156
-0.08830799 0.06852155 -0.09983706 0.08436208 -0.08816512 -0.025050163 -0.013574446 0.076939635
-0.0066639544 0.038535524 0.009531307 -0.06545111 0.039167322 0.033600595 -0.036517013 -0.034997333
-0.0067250966 -0.053738486 0.09804477 0.07076011 0.043843057 0.07373363 0.045508087 0.07277208
0.0070624473 0.060143568 0.012419248 -0.013684464 0.07470409 0.026156986 -0.011987055 -0.069205895
-0.032240238 0.058849096 0.099846385 0.0065232157 0.029347945 -0.011277544 -0.023244262 -0.07200029
0.055541575 -0.05477507 -0.07806579 0.08789283 0.07443749 -0.043483116 -0.03439796 -0.095015444
-0.05188146 -0.05547912 0.058150638 0.089828886 0.016463876 0.09985011 0.099902056 0.08654038
-0.0492813 -0.04665308 0.026414251 0.05840838 0.04007256 0.03441186 0.059334766 -0.053770866
00000000: 4ffd 9bbd a795 963d 20e6 8fbd 8a5c c13d
00000010: 136d c73c ed2e a8bc ed7b 9dbd 73c1 7bbc
00000020: f569 c5bd cdcc 3abc a014 06bd 8a8c 6d3d
00000030: 0040 31bb dbdc bfbd 67ad 24bd 1314 283d
00000040: 00c4 583a 1a21 ba3c cd54 c9bb 2a56 82bd
00000050: ed61 74bd 9dbc c5bd 408f 63bc c301 c2bd
00000060: 732b 4abd cdfa 24bc b3e7 30bd 5798 8abd
00000070: dfcf ac3d 9509 883d 33bc bebd 85e6 b33d
00000080: 6f07 cbbd 8776 9c3c c76c b9bc 4d74 ed3c
00000090: 53a7 853c f3a9 6e3d 6d8a 4f3d bdc8 253d
000000a0: c7bd 86bc 7346 84bc cd85 1ebd b3bb d23c
000000b0: 8d44 4ebc 40cc 40bc bdf3 bc3d 52d6 97bd
000000c0: 0fa6 adbd 675c ad3d c724 73bd 90eb 50bd
000000d0: 802b 99bb aa0d 6ebd fb56 cabd 7387 273d
000000e0: 12bd 94bd f32c 373c c011 a03c 2277 97bd
000000f0: 734c cfbc 0a84 2dbd 9aa3 84ba 9a87 a33c
00000100: edc9 cabd 9a3b 0e3c 4d93 9b3c 27bc 3f3c
00000110: 9a25 a23b 00fc b63c aa47 663d 5aaf bbbc
00000120: c75c cebc 8098 88bc 100a a23d eb78 bb3d
00000130: 7f38 af3d c560 90bd 78a7 b03d 382f b63d
00000140: 22c8 b3bd 883b c1bd 6f78 86bd c0fc 6e3c
00000150: 5d2c 1e3d 936b 423d f075 6f3d 8b7d b93d
00000160: 2dbf f8bc 52ad b43d c0a1 10bc df28 833d
00000170: 5a83 78bc 2dcc 0dbd cd94 64ba 6369 4a3d
00000180: c0d6 4bbc bd07 34bd 20a1 523d e7e1 1d3c
00000190: 1a3e 463d cd54 853c 8555 a43d 6752 9a3c
000001a0: da9a c6bc 8747 ca3c 5aaf f4bc 5d6b bdbd
000001b0: 4a53 67bd ad75 dbbc 7ffa bf3d d32a 34bd
000001c0: 3362 103b 93a3 c8bc f5a9 a7bd 4b4f cc3d
000001d0: 8061 f33b f752 153d 2737 3e3d dab5 333d
000001e0: 03d6 50bd a0fc 9cbc ba58 abbc cd24 6e3d
000001f0: c716 6fbd c8fe 93bd ca59 b63d 3305 6ebc
00000200: 1a40 35bd 3fb8 b8bd 332c e8bc cd06 4dbc
00000210: 6762 363b 6009 8f3c 4abb 623d 27a5 4ebc
00000220: 0541 8a3d 5ad0 e1bc 8aec 533d 8064 cf3c
00000230: c72c 59bd f3af 0a3d 23db 563d a058 783d
00000240: 4a4e 363d 0d5e a1bc 00cc 1c3d 0a2a 0fbd
00000250: cd6c 6b3a dfd8 ae3d 00e2 5dbc 73ad ca3c
00000260: 50a7 a8bd 520b 9dbd 1a18 67bc 3022 c5bd
00000270: 6dd0 533d 6d2c f8bc e767 bf3d d545 a43d
00000280: 5760 9e3d 8373 b13d 73ba a13c 808b 9bbc
00000290: a7ca 0f3d 87a7 993c b08d 13bd 2007 103d
000002a0: 403b b73d 97c8 453d 9048 493d 48ea a4bd
000002b0: 6f03 abbd 379c b03d 2de9 393d 80e4 723d
000002c0: 1a9d d73c d5f1 813d 80d8 94bb 57d1 9a3d
000002d0: 2f33 b23d b306 de3b 735b 073c 9afc cc3c
000002e0: 437a 96bd 152a 9dbd 77b9 23bd da6c cbbc
000002f0: f894 b4bd 8034 273d 6794 183b 1af9 76bd
00000300: d2da b4bd 0755 8c3d 5f77 ccbd 07c6 ac3d
00000310: ea8f b4bd 0036 cdbc 5a67 5ebc 8792 9d3d
00000320: 4d5d dabb 6dd7 1d3d 3329 1c3c 3b0b 86bd
00000330: ea6d 203d c7a0 093d dd92 15bd 5d59 0fbd
00000340: 335e dcbb e31c 5cbd b2cb c83d adea 903d
00000350: c794 333d a801 973d b066 3a3d 8709 953d
00000360: 1a6c e73b 1a59 763d 1a7a 4b3c cd34 60bc
00000370: 75fe 983d 2d47 d63c 5a65 44bc d2bb 8dbd
00000380: 570e 04bd c00b 713d 437c cc3d b3c0 d53b
00000390: 1a6b f03c 73c5 38bc c06a bebc e374 93bd
000003a0: 907f 633d d35b 60bd f5e0 9fbd 2801 b43d
000003b0: af72 983d 5a1b 32bd e0e4 0cbd 7597 c2bd
000003c0: a781 54bd 133e 63bd 5d2f 6e3d 35f8 b73d
000003d0: 40df 863c 377e cc3d 7399 cc3d 153c b13d
000003e0: 30db 49bd 4d17 3fbd b362 d83c a03d 6f3d
000003f0: 2023 243d 73f3 0c3d 0309 733d d73e 5cbd

bias f4 [50]
0.026511956 0.07545187 0.026704943 0.07393539 -0.044074476 0.021956122 0.0049837115 0.019178176
0.030847823 -0.016894568 0.07224093 -0.096623674 0.067343056 0.033157613 0.08698207 -0.035387065
0.018583788 0.02597518 0.09814326 -0.09329301 -0.04433277 -0.03353056 -0.08030995 -0.050830342
0.08066066 -0.024293173 0.008440673 -0.0013877392 -0.06201321 -0.003234613 0.08987824 0.05505383
-0.081231594 0.084832944 -0.058757067 -0.055974055 0.00444659 -0.012878167 0.08272659 0.09040083
-0.052263916 -0.0040280344 0.040691733 -0.039983 0.011749292 0.03887851 -0.063955486 0.077899806
0.04815649 -0.042385723
00000000: 9a2f d93c 8386 9a3d 53c4 da3c 706b 973d
00000010: 7087 34bd 53dd b33c 674e a33b 8d1b 9d3c
00000020: 93b4 fc3c 7a66 8abc 0df3 933d a2e2 c5bd
00000030: 28eb 893d 47d0 073d a823 b23d 07f2 10bd
00000040: 073d 983c e7c9 d43c 55ff c83d 6810 bfbd
00000050: 4796 35bd 5757 09bd 8b79 a4bd 7a33 50bd
00000060: 6b31 a53d 7a02 c7bc c04a 0a3c cde4 b5ba
00000070: 9001 7ebd cdfb 53bb 1512 b83d 2080 613d
00000080: c05c a6bd e5bc ad3d 40ab 70bd 0d45 65bd
00000090: b3b4 913b f3fe 52bc 8f6c a93d 1224 b93d
000000a0: b012 56bd 9afd 83bb 60ac 263d 37c5 23bd
000000b0: 1a80 403c 133f 1f3d 18fb 82bd ef89 9f3d
000000c0: bd3f 453d a79c 2dbd

weight f4 [2, 50]
0.095627174 -0.1039368 -0.06779977 -0.002665114 -0.08271604 0.10592335 -0.09509373 0.058394276
-0.040729184 0.04489098 0.036216855 -0.04144 0.00020889664 0.051070113 0.020480469 -0.12472155
0.10567454 0.11269223 -0.08382096 0.09893757 -0.12696882 -0.0073390477 -0.03612341 0.06794084
-0.11442125 -0.11932525 0.035754606 -0.12273794 0.12039612 -0.07395297 0.06026032 -0.0073767607
-0.12857467 -0.063211374 0.034293123 0.067851864 -0.001047973 -0.01852671 -0.07258399 -0.06974365
-0.07263116 0.1376096 -0.03779008 0.13704187 -0.07611925 -0.08103624 0.12068294 0.07501078
0.052679617 0.036996994 0.075623944 -0.060556155 -0.006670464 0.09526709 0.13338225 -0.05336752
0.053494908 0.061808575 0.01139489 -0.11256001 0.033614725 0.054752164 -0.08085057 -0.095133565
0.008644943 0.008981797 0.028111039 -0.08030062 -0.08263306 0.057996225 0.074340805 -0.032761406
0.13351259 -0.12403953 -0.12477976 -0.12498539 0.013072301 0.044934798 -0.101508416 0.07248722
-0.11167855 0.023083981 -0.06901245 -0.1268316 0.06862332 0.0818418 -0.010233036 0.111631446
-0.119849056 0.053416718 0.110668086 -0.12689431 0.10428602 -0.079175115 -0.08090599 -0.04236593
0.03447041 -0.028466152 -0.053776618 -0.038537413
00000000: 2ed8 c33d d1dc d4bd 9bda 8abd 31a9 2ebb
00000010: 0767 a9bd 57ee d83d 80c0 c2bd d62e 6f3d
00000020: a5d3 26bd 9bdf 373d 2058 143d fdbc 29bd
00000030: 440b 5b39 e52e 513d a8c6 a73c 036e ffbd
00000040: e56b d83d 2fcb e63d 53aa abbd c89f ca3d
00000050: 1d04 02be 657c f0bb 24f6 13bd 9124 8b3d
00000060: b055 eabd cc60 f4bd 6c73 123d 075e fbbd
00000070: 3e92 f63d a874 97bd 86d3 763d c1b8 f1bb
00000080: 14a9 03be f774 81bd f276 0c3d ebf5 8a3d
00000090: 245c 89ba 54c5 97bc eaa6 94bd c2d5 8ebd
000000a0: a5bf 94bd 88e9 0c3e c5c9 1abd b454 0c3e
000000b0: 69e4 9bbd 54f6 a5bd 9e28 f73d 409f 993d
000000c0: 95c6 573d 298a 173d bae0 9a3d bb09 78bd
000000d0: e893 dabb 641b c33d 5b95 083e e797 5abd
000000e0: 7a1d 5b3d fd2a 7d3d a2b1 3a3c dd85 e6bd
000000f0: 98af 093d ce43 603d fc94 a5bd 63d5 c2bd
00000100: 85a3 0d3c 6328 133c 1f49 e63c a774 a4bd
00000110: 863b a9bd 738d 6d3d fe3f 983d d330 06bd
00000120: 86b7 083e 7008 febd 888c ffbd 57f8 ffbd
00000130: 342d 563c 8d0d 383d a5e3 cfbd 2e74 943d
00000140: b9b7 e4bd 9e1a bd3c 6656 8dbd 25e0 01be
00000150: 628a 8c3d ac9c a73d 77a8 27bc 079f e43d
00000160: 6c73 f5bd 7dcb 5a3d f3a5 e23d 95f0 01be
00000170: e993 d53d 9026 a2bd 0ab2 a5bd e687 2dbd
00000180: d830 0d3d d931 e9bc df44 5cbd 68d9 1dbd

bias f4 [2]
0.13036063 -0.086799905
00000000: 427d 053e 26c4 b1bd
