test_dagster/lightning_logs/version_4/checkpoints/epoch=9-step=10.ckpt (torch, 448127 bytes, 24 tensors)

rnn.weight_ih_l0 f4 [300, 2]
0	0x3d7807e8	0.060554415
1	0xbd1caa9a	-0.038248636
2	0x3d962f85	0.073332824
3	0xbcbca6ce	-0.023028757
4	0x3d190a58	0.03736338
5	0x3d7090ea	0.05873195
6	0xb9486a40	-0.00019113068
7	0xbd7d4326	-0.061831616
8	0xbd7e13e0	-0.062030673
9	0xbacde66d	-0.0015708931
10	0x3d96351b	0.07334348
11	0x3cd26f85	0.025687942
12	0xbd3efa8f	-0.04662567
13	0x3db11607	0.086467795
14	0x3d5ca7f6	0.053871118
15	0xbda96f20	-0.082731485
16	0xbcc1570b	-0.023601076
17	0xb9d250c9	-0.0004011451
18	0xbd7d64cc	-0.061863706
19	0xbd148443	-0.036258947
20	0xbd9a71c4	-0.0754123
21	0x3db0fb38	0.08641666
22	0xbd8bcd00	-0.0682621
23	0xbda74f46	-0.08169417
24	0xbb29a0f0	-0.002588328
25	0x3cdd09cd	0.026982212
26	0xbd8c506d	-0.068512775
27	0x3d878906	0.06617932
28	0x3c9ad83f	0.018901942
29	0xbcb32b69	-0.021871286
30	0x3db8100e	0.08987437
31	0x3d14404e	0.03619414
32	0x3bad7f1e	0.0052946946
33	0x3da080c9	0.07837064
34	0x3c0f7415	0.008755703
35	0xbda096ac	-0.078412384
36	0x3dc7bdde	0.09753011
37	0x3dc32a39	0.09529538
38	0xbae92f2b	-0.0017790546
39	0x3c087543	0.008328739
40	0xbcb004d9	-0.021486687
41	0x3d986b05	0.07442287
42	0x3ca511d9	0.020150112
43	0x3d802277	0.06256574
44	0x3c1ce3f0	0.009575829
45	0xbdabc347	-0.083868556
46	0x3dc6afae	0.09701477
47	0x3d93d4d5	0.07218329
48	0x3c40f8ec	0.011778098
49	0x3d965441	0.07340289
50	0x3dc30299	0.0952198
51	0xbd7ed0b8	-0.06221077
52	0xbd9a2519	-0.07526607
53	0x3db44029	0.088013
54	0xbd0e53d4	-0.034747913
55	0x3dc252e6	0.09488468
56	0x3dbcfa0d	0.09227381
57	0xbd21e66d	-0.03952639
58	0x3daa6b61	0.08321262
59	0xbd0e8d78	-0.034802884
60	0x3ced41e1	0.028962078
61	0xbb7ae6ce	-0.0038284543
62	0x3da0a7e7	0.07844525
63	0x3cf794a1	0.030222239
64	0x3dae20b0	0.085023284
65	0xbd683da9	-0.05669943
66	0xbc9a0347	-0.01880039
67	0xbdc919d0	-0.098193765
68	0x3bb3a8f3	0.005482787
69	0xbd62d53b	-0.055379134
70	0xbdc5e776	-0.09663288
71	0x3ce89e60	0.028395832
72	0xbdaa52fd	-0.0831661
73	0xbc96b613	-0.018397367
74	0x3d90932c	0.07059321
75	0xbdaeb26a	-0.085301235
76	0x3d9c80a5	0.076417245
77	0xbdcb9fb1	-0.09942568
78	0x3d2c4d0b	0.04206566
79	0xbdbd394a	-0.09239443
80	0xbcd40824	-0.025882788
81	0xbd367744	-0.044547334
82	0x3d22018b	0.039552253
83	0xba76a10b	-0.00094081525
84	0xbca8899f	-0.020573435
85	0x3db67504	0.08909038
86	0x3d54a1f9	0.05191228
87	0x3d1bb9af	0.03801888
88	0x3dc6cc90	0.09706986
89	0xbcde5c1f	-0.027143536
90	0x3d9780b2	0.073975936
91	0xbb7cf172	-0.003859606
92	0x3d7d0f24	0.061782017
93	0xbb7200fa	-0.0036926852
94	0xbc7f4fca	-0.015582988
95	0xbb132eed	-0.002245839
96	0xbdc07a74	-0.09398356
97	0x3da34897	0.0797283
98	0x3d934d0d	0.07192431
99	0x3c2e7625	0.010648285
100	0x3d2d0483	0.04224063
101	0x3c3c3169	0.01148639
102	0xbd2cd666	-0.042196654
103	0xbdb25226	-0.08707075
104	0x3c116095	0.008873125
105	0x3c50540c	0.012715351
106	0x3daf5437	0.085609846
107	0xbdc9a795	-0.09846417
108	0xbcb9a405	-0.022661218
109	0x3db39abe	0.08769749
110	0x3c07eb04	0.008295778
111	0x3d3d1f46	0.046172403
112	0x3d1f1843	0.038841497
113	0x3d5c157a	0.05373142
114	0xbd6a63c9	-0.05722407
115	0x3ca6b0ee	0.020348039
116	0xbc81e598	-0.01585655
117	0x3c61102e	0.013736768
118	0xbcb273b9	-0.021783696
119	0xbd86bd24	-0.065790445
120	0x3d64d0fc	0.055863366
121	0xbc45ea8a	-0.012079844
122	0x3c510370	0.012757167
123	0xbbfa77ba	-0.007643667
124	0xbcc20f41	-0.023688914
125	0x3ce60baa	0.028081734
126	0xbd6d475c	-0.05792938
127	0xbc657232	-0.014004277
128	0x3cdced23	0.026968544
129	0x3da25232	0.07925834
130	0xbb95c939	-0.0045711068
131	0xbdb29431	-0.087196715
132	0x3d748435	0.059696395
133	0xbd3fd815	-0.04683693
134	0x3cb8c4e6	0.022554826
135	0xbc0b95f9	-0.008519643
136	0xbdcc3aa7	-0.099721245
137	0xbd3a6d53	-0.045514416
138	0x3dc07411	0.09397138
139	0x3d552a69	0.0520424
140	0xbd14804e	-0.036255173
141	0xbc1f1047	-0.009708471
142	0x3c90501c	0.017616324
143	0xbdc85749	-0.09782273
144	0x3d012213	0.031526636
145	0x3cdc17a3	0.02686674
146	0x3cf1001b	0.029418996
147	0x3d205920	0.039147496
148	0xbc628cbb	-0.013827498
149	0xbd6f5971	-0.058434907
150	0xbc4cb5a6	-0.01249448
151	0xbd859356	-0.06522243
152	0x3d22a6e7	0.03970995
153	0x3d03d886	0.032188915
154	0x3d26dc11	0.040737215
155	0xbda2dc5b	-0.07952186
156	0xbd4c9d9c	-0.049954996
157	0xbd0e644e	-0.034763627
158	0xbc281fe0	-0.010261506
159	0xbcd0ec53	-0.025503313
160	0xbcfea43d	-0.031084174
161	0xbc944ac6	-0.018102061
162	0xbd38a5f9	-0.04508016
163	0x3d7ebe10	0.062192976
164	0xbc865ea2	-0.016402546
165	0xbcbcf9e1	-0.02306837
166	0x3d694d68	0.056958586
167	0xbd92a9b8	-0.071612775
168	0xbcce3b4c	-0.02517476
169	0x3dae30b0	0.0850538
170	0xbc350e2e	-0.011050744
171	0xbdc82409	-0.09772498
172	0x3d2fc589	0.042912994
173	0x3d0b57a2	0.03401912
174	0x3d078f8a	0.033095874
175	0xbd98bfc5	-0.07458452
176	0x3dc3f22f	0.09567677
177	0xbd8610e2	-0.06546189
178	0xbd611fd2	-0.054961987
179	0xbd2bba4d	-0.041925717
180	0x3d9f049d	0.07764552
181	0xbdc2d70b	-0.095136724
182	0x3cca8390	0.024720937
183	0xbd71d17b	-0.059037667
184	0xbcbff978	-0.023434386
185	0x3d55a82a	0.052162327
186	0xbd9e130f	-0.07718479
187	0x3c69fb1e	0.014281062
188	0x3d3fc29c	0.046816453
189	0x3bfd33fa	0.0077271434
190	0xbd650b74	-0.055919126
191	0xbd6bc68b	-0.057562392
192	0xbcdc5443	-0.026895648
193	0xbd56c2e5	-0.05243196
194	0xbdca5571	-0.09879578
195	0xbd666c7f	-0.056255814
196	0x3d837a93	0.064198636
197	0x3d6a34ad	0.05717914
198	0xbc4a1a1a	-0.012335325
199	0xbdbdf142	-0.09274532
200	0x3d5294a5	0.05141129
201	0xbda2dd70	-0.07952392
202	0x3d45d041	0.04829431
203	0x3d97e650	0.074169755
204	0x3ceea112	0.029129539
205	0x3c52a6b7	0.012857131
206	0xbd54539e	-0.051837556
207	0x3d523abe	0.051325552
208	0xbd134e29	-0.03596321
209	0xbdad2cda	-0.084558204
210	0x3d6ebfb7	0.058288302
211	0xbc62490a	-0.013811359
212	0xbca5321e	-0.0201655
213	0x3db6f675	0.08933727
214	0xb8676164	-5.5165394e-05
215	0xbd32cf89	-0.043654952
216	0xbd9c2d73	-0.07625856
217	0xbdc4f498	-0.09616965
218	0x3cf2043a	0.029543031
219	0x3d5d173e	0.053977244
220	0x3d410a13	0.04712875
221	0x3cdbded1	0.026839646
222	0x3d076d69	0.033063326
223	0x3dc85d4d	0.09783421
224	0x3c645e37	0.013938478
225	0x3c995bde	0.018720564
226	0x3d214558	0.039372772
227	0xbd809f79	-0.06280417
228	0xbc42260e	-0.011849893
229	0xbd940b09	-0.07228667
230	0x3d9526fd	0.07282827
231	0x3db71031	0.08938635
232	0xbda60248	-0.08105904
233	0x3cbb4dda	0.022864271
234	0x3d99ed52	0.075159684
235	0xbc9538fa	-0.018215645
236	0x3da4b43e	0.08042191
237	0xbd1621ae	-0.036653213
238	0x3d88ac0f	0.066734426
239	0x3d1f9cd9	0.03896794
240	0x3d9bda3e	0.07609986
241	0x3d5adcca	0.053433217
242	0xbd7a5cd8	-0.0611237
243	0x3da05272	0.07828225
244	0xbd0e7e6b	-0.03478853
245	0x3b3d9fb6	0.0028934306
246	0xbd941685	-0.07230858
247	0x3d8a6fbf	0.06759595
248	0xbcc22d49	-0.023703234
249	0xbd45d19e	-0.04829561
250	0xbdc54093	-0.09631457
251	0xbcae012c	-0.021240793
252	0xbcf60c5a	-0.030035187
253	0x3b607700	0.0034250617
254	0x3d6fec90	0.058575213
255	0x3ae5458c	0.001749204

rnn.weight_hh_l0 f4 [300, 100]
0	0xbda49a85	-0.08037285
1	0x3d862077	0.06549161
2	0xbda06e10	-0.07833493
3	0xbda78099	-0.08178825
4	0x3d4b43e1	0.04962528
5	0x3db3d01c	0.08779928
6	0x3d7ffc8e	0.062496714
7	0xbdb9c052	-0.09069885
8	0x3cfaa810	0.030597717
9	0x3dbed850	0.09318602
10	0xbd2ddf33	-0.042449187
11	0xbc846c56	-0.01616494
12	0xbc8c5af5	-0.017133215
13	0xbce85836	-0.028362375
14	0x3aadb5f6	0.0013253081
15	0x39309db5	0.00016843418
16	0xbd5f5afa	-0.05453012
17	0xbd72d7aa	-0.059287705
18	0xbb771d91	-0.0037706832
19	0xbd983756	-0.074324295
20	0xbd360cbf	-0.04444575
21	0x3dbef8a6	0.0932477
22	0xbd0cb2a0	-0.034350038
23	0xbd952e30	-0.072842
24	0x3d164e3f	0.036695715
25	0xbdc338ae	-0.09532295
26	0xbdbc93a7	-0.0920785
27	0x3d2b8afc	0.041880593
28	0x3d84fe60	0.06493831
29	0xbd45ed51	-0.048322026
30	0x3c4646eb	0.012101869
31	0x3cf25bb4	0.029584743
32	0xbd5442e5	-0.051821608
33	0x3db5f327	0.08884268
34	0x3d9f5c6b	0.07781299
35	0x3d3820f5	0.044953305
36	0x3d2155d1	0.03938848
37	0xbd48a5f8	-0.048986405
38	0xbc51cc92	-0.012805121
39	0xbc8c4af3	-0.017125582
40	0x3dc7ee2c	0.097622246
41	0xbdae9817	-0.085251026
42	0x3d783968	0.060601622
43	0xbd9b5bc7	-0.075858645
44	0xbbe6e012	-0.007045754
45	0xbdc3bdd5	-0.09557692
46	0xbd362f88	-0.044478923
47	0xbdbfa1a5	-0.09357003
48	0x3d943d38	0.07238239
49	0x3db26c3f	0.087120526
50	0x3d97a45f	0.07404398
51	0x3d81a57d	0.063303925
52	0x3c8fdc78	0.017561182
53	0x3cfb4c9d	0.03067618
54	0x3d2a5c9c	0.041592225
55	0x3dba3728	0.090925515
56	0x3b137af6	0.002250371
57	0xbccab62b	-0.024745068
58	0x3bf9b1a6	0.0076200543
59	0xbce34ab4	-0.027745582
60	0x3ce0449c	0.027376465
61	0xbba6105f	-0.0050678696
62	0xbd8d3ace	-0.06895982
63	0x3c2a2618	0.010385059
64	0xbd60de43	-0.054899465
65	0x3db879ee	0.09007631
66	0x3da55672	0.08073129
67	0xbd0c55e0	-0.034261584
68	0xbd9ef46f	-0.07761466
69	0xbc594b60	-0.0132626
70	0x3d4c3c37	0.049862113
71	0x3d2a77b8	0.04161808
72	0x3d8c5134	0.06851426
73	0x3d3744f4	0.044743493
74	0x3dc9830e	0.0983945
75	0x3cc0c9cf	0.02353373
76	0x3d036da6	0.03208699
77	0xbd88bf2c	-0.06677088
78	0x3da6c0a0	0.08142209
79	0x3da85050	0.082184434
80	0xbd106afa	-0.03525827
81	0xbd988136	-0.0744652
82	0xbc2ed481	-0.010670782
83	0xbd1b6b0c	-0.037943885
84	0xbdc2e48a	-0.095162466
85	0x3dc3ebd2	0.095664635
86	0x3d79ad4d	0.060956288
87	0xbbf2b512	-0.007406839
88	0x3da2bbe3	0.07945993
89	0x3db303a7	0.08740931
90	0xbd96997a	-0.07353492
91	0xbd678701	-0.056525234
92	0x3d470c38	0.048595637
93	0x3b59feef	0.0033263525
94	0x3dae3dd2	0.08507885
95	0x3c145efe	0.009055851
96	0xbd27dbc1	-0.040981058
97	0x3d593711	0.05303103
98	0x3c5dfaeb	0.013548593
99	0xbd0481fd	-0.03235053
100	0xbdbdbc1a	-0.09264393
101	0xbdb23460	-0.08701396
102	0xbd3f6e3a	-0.04673598
103	0xbd07fea8	-0.033201844
104	0x3cfb06b1	0.03064284
105	0x3b89af0d	0.004201776
106	0xbd9ad473	-0.07560053
107	0x3d1a3312	0.03764636
108	0x3d476342	0.048678644
109	0x3cefe42a	0.029283602
110	0x3daf4007	0.08557134
111	0x3d00d1f8	0.03145024
112	0x3d5efff4	0.054443315
113	0xbc4995b8	-0.012303762
114	0xbdc4446e	-0.095833644
115	0x3d272d66	0.04081478
116	0x3d4dad0d	0.050213862
117	0xbc1b640f	-0.009484305
118	0x3dbddd80	0.092707634
119	0xbd30ed2c	-0.043194935
120	0xbd1e9a61	-0.038721446
121	0xbdc78918	-0.097429454
122	0xbd819647	-0.06327491
123	0x3d0a5125	0.03376879
124	0x3bf4a4fe	0.0074659577
125	0xbdc27c12	-0.09496321
126	0x3b42940f	0.00296903
127	0xbd8add53	-0.067804955
128	0xbd4f15b6	-0.050557815
129	0xbcc37d8e	-0.02386358
130	0xbd61cf4a	-0.055129327
131	0xbd8d277a	-0.06892295
132	0xbbc417e9	-0.0059842956
133	0xbd670112	-0.056397505
134	0xbd0dbd4e	-0.034604363
135	0xbcd39066	-0.02582569
136	0xbd81a8a7	-0.06330996
137	0x3cab21c1	0.020890119
138	0xbc03d95b	-0.008047427
139	0x3cd6190a	0.026134986
140	0x3d985ec8	0.07439953
141	0xbd3ef658	-0.04662165
142	0xbd423b88	-0.047420055
143	0xbd3d00d3	-0.046143364
144	0x3d968d18	0.0735113
145	0x3da961d0	0.082706094
146	0xbd67e996	-0.05661925
147	0x3d149439	0.03627417
148	0x3d6ba472	0.057529874
149	0x3cadf627	0.021235539
150	0x3dbf8a96	0.09352605
151	0xbd72ae7f	-0.059248444
152	0xbdaed633	-0.08536949
153	0xbcc8766c	-0.02447053
154	0xbcafb8db	-0.02145045
155	0x3d02ce56	0.03193506
156	0x3cc8c64c	0.024508618
157	0xbda34b72	-0.079733744
158	0x3bf0ea71	0.0073521663
159	0xbd9f0f67	-0.0776661
160	0x3d161a0e	0.03664594
161	0x3ccaef1b	0.024772217
162	0xbdb2ab5e	-0.08724092
163	0x3dc6b686	0.09702782
164	0xbba96791	-0.005169817
165	0xbc4c08c0	-0.012453258
166	0xbd7dff84	-0.062011257
167	0xbd18bbab	-0.03728835
168	0xbdad912e	-0.084749565
169	0xbd5840c5	-0.052796144
170	0x3bc3bb6d	0.0059732706
171	0x3d217724	0.039420262
172	0x3dc10142	0.09424068
173	0x3d5ec0aa	0.054382958
174	0xbdc1736f	-0.09445845
175	0x3d32616b	0.043549936
176	0x3d7bb813	0.061454844
177	0xbcd58920	-0.026066363
178	0x3ce532fd	0.027978415
179	0x3d1258c1	0.035729174
180	0x3d4da100	0.05020237
181	0xbd9d9357	-0.076941185
182	0x3d99fc9d	0.07518885
183	0x3daa3826	0.08311491
184	0xbc72a1df	-0.014809101
185	0xbdb39b43	-0.08769848
186	0xbca8025d	-0.02050894
187	0xb9226e6a	-0.00015490656
188	0x3d15d67b	0.036581498
189	0x3d1e6865	0.038673777
190	0x3d37e3e9	0.044895086
191	0x3dc18d25	0.09450749
192	0xbd519c41	-0.051174406
193	0x3d836a17	0.064167194
194	0xbd8a37ae	-0.06748901
195	0xbb9e0ab4	-0.0048230533
196	0x3d694a29	0.05695549
197	0xbc3f951a	-0.011693263
198	0x3bda6aac	0.0066655483
199	0x3d0531b1	0.032518093
200	0xbb0ad0ae	-0.0021181512
201	0xbdbd3183	-0.09237959
202	0xbdc7be67	-0.09753113
203	0x3d7cb13e	0.06169247
204	0x3d557b9f	0.052119847
205	0x3d36044a	0.044437684
206	0xbab011c8	-0.0013433034
207	0x3b8316b4	0.004000509
208	0xbbd954a7	-0.006632406
209	0x3dcd2999	0.100177
210	0xbc3b150d	-0.011418593
211	0xbdc78fa1	-0.09744192
212	0x3cf66661	0.030078115
213	0xbd3a44a5	-0.04547562
214	0xbd97d311	-0.074133046
215	0xbd8f7546	-0.0700479
216	0x3d9b0947	0.07570129
217	0x3c8ee264	0.017441936
218	0x3d6f3ec3	0.058409464
219	0xbd620f30	-0.055190265
220	0xbd59c7ae	-0.053168945
221	0x3a9ee47a	0.0012122535
222	0xb9bde218	-0.00036217342
223	0x3d00a555	0.031407673
224	0x3dbe9424	0.09305599
225	0xbcb35884	-0.021892793
226	0xbd28e610	-0.04123503
227	0x3d806129	0.06268532
228	0x3d1cb347	0.03825691
229	0x3d04e113	0.03244121
230	0xbda771b7	-0.08175986
231	0x3ca1560a	0.019694347
232	0x3d8ec765	0.06971625
233	0x3cdeb756	0.02718703
234	0xbda31e7a	-0.07964797
235	0xbcb660f0	-0.02226302
236	0xbd731142	-0.05934263
237	0xbcd585e2	-0.026064817
238	0x3db6921a	0.089145854
239	0xbd8da446	-0.06916098
240	0x3dcab2c9	0.09897382
241	0xbd8a9c35	-0.067680754
242	0xbdb8db0a	-0.090261534
243	0x3d102784	0.035193935
244	0xbd09de76	-0.03365942
245	0x3bd9ba75	0.006644542
246	0xbdc31205	-0.09524921
247	0xbd8d9ed9	-0.069150634
248	0x3c99b46a	0.018762786
249	0xbd875835	-0.06608621
250	0x3d29aa9c	0.04142247
251	0x3d640fc8	0.055679113
252	0xbcce0fad	-0.02515396
253	0x3c8c6659	0.017138647
254	0x3d0060f0	0.031342447
255	0x3d3dc244	0.046327844

rnn.bias_ih_l0 f4 [300]
0	0x3c335029	0.010944405
1	0xbd111e8e	-0.03542953
2	0xbd851d75	-0.06499759
3	0xbdc37398	-0.09543532
4	0x3db88544	0.090097934
5	0x3da96146	0.082705066
6	0x3c3eb24b	0.011639188
7	0x3ce7fb09	0.028317945
8	0x3dbd3545	0.09238676
9	0xbd8f94f5	-0.07010833
10	0x3d2f6c99	0.042828176
11	0xbd839423	-0.06424739
12	0x3d317a5a	0.043329574
13	0xba0f3a97	-0.00054637477
14	0xbdc5f0dc	-0.09665081
15	0x3c54d162	0.012989374
16	0x3caaf985	0.020870933
17	0x3db9519f	0.09048771
18	0xbcfd5396	-0.030923646
19	0x3d7d8a4b	0.061899465
20	0xbc9f270a	-0.019427795
21	0xbd2cb65b	-0.042166095
22	0x3c3c3631	0.01148753
23	0x3c069c73	0.008216011
24	0xbdb01f65	-0.08599738
25	0x3db22311	0.08698095
26	0x3ca0382a	0.019558031
27	0xbdc670f5	-0.096895136
28	0x3d733e62	0.059385665
29	0xbd87f696	-0.066388294
30	0x3b542402	0.0032370095
31	0xbd8da691	-0.06916536
32	0x3d139132	0.03602714
33	0xb9fa4645	-0.0004773607
34	0x3da90bb0	0.08254182
35	0xbd89a7f6	-0.06721489
36	0xbdb743f2	-0.089485064
37	0xbcf5272d	-0.029925907
38	0xbdb2df38	-0.08733982
39	0x3d6688b1	0.056282703
40	0xbd8f192e	-0.069872245
41	0x3ccdc039	0.025116073
42	0xbda976e8	-0.08274633
43	0x3cc7a580	0.024370909
44	0xbcf3122d	-0.029671753
45	0x3dc170b3	0.09445324
46	0xbdcdee7c	-0.10055253
47	0x3b7d300c	0.0038633374
48	0xbd62193a	-0.05519984
49	0xbd690ebb	-0.056898814
50	0x3c9ca2d2	0.019120608
51	0xbd7a15c3	-0.06105591
52	0xbd2321ca	-0.039827146
53	0x3d65dae1	0.056116942
54	0xbdae34ef	-0.0850619
55	0xbd5724ed	-0.05252545
56	0x3d2c931e	0.04213249
57	0xbdab0cb2	-0.08352031
58	0x3d6cbad9	0.05779538
59	0x3ce8db50	0.028424889
60	0x3cf02585	0.029314766
61	0x3da095b0	0.078410506
62	0x3d0b04d1	0.03394014
63	0x3cad9bc4	0.021192439
64	0xbd8e5a22	-0.06950785
65	0xbd24c479	-0.040226433
66	0xbd836279	-0.064152665
67	0xbce6ec29	-0.028188782
68	0x3bf4429e	0.0074542305
69	0x3be1a446	0.006886038
70	0xbd8f529b	-0.069981776
71	0x3ca990dc	0.020698957
72	0xbd220a4a	-0.039560594
73	0x3d2804df	0.04102027
74	0xbd5a7310	-0.05333239
75	0xbd344bd2	-0.04401762
76	0xbd961887	-0.07328897
77	0x3dbed939	0.09318776
78	0x3d5c29af	0.05375069
79	0x3db16336	0.08661501
80	0x3a991ada	0.0011680976
81	0xbd4f7cc2	-0.050656088
82	0x3d432dfa	0.04765127
83	0xbc51b74e	-0.012800051
84	0xbd69109a	-0.056900598
85	0xbd27df20	-0.040984273
86	0xbd596a62	-0.05307997
87	0xbbdea78e	-0.0067948764
88	0x3dc61a73	0.096730135
89	0xbd7c9f23	-0.061675202
90	0x3db2d046	0.08731131
91	0x3ca466b4	0.020068504
92	0x3cc39f9e	0.023879822
93	0x3d3ac75f	0.04560029
94	0x3d8f5d41	0.07000209
95	0x3ca3bed6	0.019988459
96	0x3d0cb5db	0.03435312
97	0xbda88809	-0.08229072
98	0x3cdc0c26	0.026861262
99	0x3d9ef1f9	0.07760996
100	0xbda5d76e	-0.080977306
101	0xbc4280ff	-0.011871575
102	0x3d1177fa	0.03551481
103	0x3b57cf65	0.0032930013
104	0x3cf4c7de	0.02988046
105	0xbd105e07	-0.03524592
106	0xbcf58354	-0.029969849
107	0x3bb763dd	0.0055966214
108	0xbdc90a3e	-0.09816407
109	0x3db4ec03	0.08834078
110	0xbd6731ed	-0.056444097
111	0x3bc6ad9a	0.0060631754
112	0x3d293476	0.041309796
113	0xbd70d10e	-0.05879312
114	0xbca96cc7	-0.020681752
115	0x3cc5ed1f	0.02416092
116	0xbda78a4c	-0.08180675
117	0xbcdd963d	-0.027049178
118	0x3d07d8b8	0.033165663
119	0xbda75449	-0.08170373
120	0x3c41fd9b	0.011840249
121	0xbd4ddcfd	-0.05025958
122	0x3c1d914b	0.00961716
123	0xbdaf60ac	-0.085633606
124	0x3d4b404f	0.049621876
125	0xbced9835	-0.029003242
126	0xbd1684fe	-0.036747925
127	0xbd4c744f	-0.049915608
128	0x3d9108f8	0.07081789
129	0x3cfa1a2e	0.030530062
130	0x3d803201	0.062595375
131	0xba964520	-0.0011464693
132	0x3d031217	0.031999674
133	0xbdc64646	-0.09681372
134	0x3c15b26c	0.009136777
135	0xbd9b4045	-0.07580618
136	0xbd5cf529	-0.05394474
137	0x3da2ee3d	0.079555966
138	0x3c7335e4	0.0148443915
139	0x3d1e015e	0.038575523
140	0x3a00d97c	0.000491522
141	0x3d056348	0.032565385
142	0xbb1245ea	-0.0022319504
143	0x3d27dc18	0.040981382
144	0x3c805667	0.0156662
145	0xbda9d493	-0.082924984
146	0xbc588252	-0.0132146645
147	0x3da4cf46	0.08047347
148	0x3c12154b	0.008916209
149	0x3da96db2	0.08272876
150	0x3d770602	0.060308464
151	0xbd7e02d1	-0.062014405
152	0xbd1d69bf	-0.038430925
153	0xbc92640b	-0.01786997
154	0x3d9b0380	0.07569027
155	0x3dbaa3f1	0.091133006
156	0x3d05b814	0.032646254
157	0x3c4eebff	0.012629508
158	0x3d8b9887	0.06816202
159	0xbcce46cc	-0.025180243
160	0xbda39941	-0.07988215
161	0x3da14ff3	0.07876577
162	0x3d47e131	0.048798744
163	0xbd33d592	-0.04390485
164	0x3da56255	0.08075396
165	0x3c9ac29f	0.01889163
166	0xbcdf6017	-0.027267499
167	0x3d964dc5	0.07339052
168	0x3d66e6bb	0.056372385
169	0xbda0a756	-0.07844417
170	0x3d28c346	0.041201852
171	0x3da3027e	0.0795946
172	0xbc3a7a64	-0.011381719
173	0xbd8d0b1d	-0.06886885
174	0x3db75f33	0.08953705
175	0x3cc81e4d	0.024428511
176	0xbd1b56b2	-0.037924476
177	0x3c8a9625	0.016917298
178	0xbdc9c6da	-0.09852381
179	0xbaa135c0	-0.0012299344
180	0xbdcaf948	-0.09910828
181	0x3d97a185	0.07403854
182	0xbc53b704	-0.012922052
183	0x3d8f7f25	0.07006673
184	0xbcc70253	-0.0242931
185	0xbdac9c0e	-0.084282026
186	0xbda1852b	-0.07886728
187	0x3bfc24ba	0.007694808
188	0xbc3eb532	-0.01163988
189	0x3dc88a4e	0.097920045
190	0xbd6ed65a	-0.05830989
191	0xbc983648	-0.01858057
192	0xbc18730e	-0.009304775
193	0xbc4f6118	-0.012657426
194	0x3c188032	0.009307908
195	0xbd2253cd	-0.0396307
196	0xbdb8d16f	-0.09024321
197	0xbd422e27	-0.047407296
198	0xbdc1ff4c	-0.09472522
199	0xbd162204	-0.036653534
200	0xbd2fb477	-0.042896714
201	0x3d558a6e	0.05213397
202	0xbd902114	-0.07037559
203	0x3cc6127a	0.024178732
204	0x3d256c63	0.04038657
205	0x3c9bfd5e	0.019041713
206	0x3baf8cd9	0.0053573665
207	0xbc285d8b	-0.010276209
208	0xbd9100fc	-0.07080266
209	0xbc23a0cd	-0.009987068
210	0xbc09f682	-0.008420588
211	0x3cdfe83d	0.02733242
212	0xbcaa73ee	-0.020807233
213	0xb9f0cd3f	-0.00045929287
214	0xbd1b3498	-0.037891954
215	0xbd7075f3	-0.058706235
216	0x3ca45b37	0.020063026
217	0xbdb5c81a	-0.08876057
218	0x3d669caa	0.05630175
219	0xbd2acfc2	-0.04170204
220	0xbd361b2b	-0.044459503
221	0x3d8de592	0.06928553
222	0x3da3d7c4	0.080001384
223	0x3cdb2dfb	0.026755324
224	0x3c4dfc79	0.012572401
225	0x3c960062	0.01831073
226	0x3ca8640d	0.02055552
227	0x3c590446	0.013245648
228	0xbab81de3	-0.0014046993
229	0x3c89bc22	0.016813342
230	0x3d843688	0.064557135
231	0x3d3c3edb	0.04595838
232	0x3d8ca510	0.06867421
233	0xbd8e36c7	-0.06944042
234	0x3dc58603	0.09644701
235	0x3cdce2cb	0.026963612
236	0x3cd8f0da	0.026482034
237	0x3cb99f1d	0.022658879
238	0x3d8018a8	0.06254703
239	0x3d352c06	0.044231437
240	0xbd8e46a7	-0.069470696
241	0xbd5b5003	-0.053543102
242	0x3dae9c82	0.08525945
243	0x3d8d05b7	0.06885856
244	0xbc1eb88c	-0.009687554
245	0xbac0fe85	-0.001472429
246	0x3b55ea21	0.0032640772
247	0xbc335ed4	-0.010947902
248	0x3cd160ce	0.025558855
249	0x3d7b3608	0.061330825
250	0x3dc6f1d1	0.097140916
251	0x3dcaa6c3	0.098950885
252	0x3d072404	0.03299333
253	0x3d8fb056	0.07016055
254	0x3dbd4e6e	0.09243475
255	0xbd77fd83	-0.060544502

rnn.bias_hh_l0 f4 [300]
0	0xbb26fc28	-0.0025479887
1	0x3d943a6b	0.07237705
2	0x3d920af2	0.07130994
3	0xbd12d5a7	-0.035848286
4	0xbd39fb09	-0.04540542
5	0xbd974cdf	-0.07387709
6	0x3dbe88ed	0.0930346
7	0x3d2239c7	0.039605882
8	0xbd6bab8c	-0.057536647
9	0xbc23a658	-0.00998839
10	0x3d937ac9	0.07201154
11	0x3be3ab9f	0.006947949
12	0x3ae09acf	0.001713598
13	0x3a9c1d1a	0.0011910528
14	0x3d82a14d	0.06378422
15	0xbdc055cb	-0.09391364
16	0x3c957725	0.01824529
17	0xbcc9b442	-0.024622086
18	0xb905eb57	-0.0001277154
19	0xbbedf9b1	-0.0072624316
20	0x3dcc72bf	0.099828236
21	0x3a35f511	0.000694112
22	0x3c411fbe	0.011787353
23	0x3d668698	0.056280702
24	0x3d0b07f3	0.033943128
25	0xbd49a356	-0.049228035
26	0x3d8bf799	0.06834335
27	0xbdb79716	-0.08964364
28	0x3db2e733	0.08735504
29	0xbd8f2f5c	-0.06991455
30	0xbd1e5861	-0.038658503
31	0x3d5ccc02	0.053905495
32	0xbd901f5e	-0.07037233
33	0xbca9671f	-0.020679055
34	0x3da40133	0.08008041
35	0xbdbcc4d1	-0.09217227
36	0xbd06a624	-0.032873288
37	0xbd3c604e	-0.04599028
38	0xbd624942	-0.055245645
39	0xbc1dc5d0	-0.009629682
40	0x3d423d4a	0.04742173
41	0x3c7a203e	0.015266476
42	0x3b32ee94	0.0027302848
43	0xbdab5428	-0.08365661
44	0xbc86e3c0	-0.016466022
45	0xbcf1bf4e	-0.029510166
46	0xbb95ea9d	-0.004575087
47	0xbdb468ba	-0.088090375
48	0xbd3eeaed	-0.04661076
49	0x3dc70a85	0.09718803
50	0xbdc77069	-0.097382374
51	0x3b2730de	0.0025511305
52	0xbd2a96e1	-0.041647796
53	0xb9bca1d8	-0.00035978737
54	0xbd9a5825	-0.075363435
55	0x3c697bb9	0.014250689
56	0x3d8458dd	0.06462262
57	0x3d174269	0.036928568
58	0x3d8d2d95	0.0689346
59	0x3d0aebb3	0.033916187
60	0xbd62adf2	-0.05534167
61	0xbdcb619c	-0.09930727
62	0x3d325eb5	0.04354735
63	0xbdb4321a	-0.087986186
64	0xbdcc3bc5	-0.09972338
65	0x3da827a5	0.082106866
66	0x3c797850	0.015226439
67	0x3d784dca	0.06062106
68	0x3db83d3f	0.08996057
69	0x3b9febac	0.004880389
70	0xbc69a3a8	-0.01426021
71	0x3d9c5c5b	0.07634803
72	0x3c8dfccb	0.017332455
73	0x3d83663b	0.06415983
74	0x3d137a64	0.036005393
75	0xbdc8cecf	-0.098050706
76	0xbd1e982d	-0.038719345
77	0xbd72df19	-0.059294794
78	0x3d4e61a6	0.050386094
79	0x3c532b53	0.012888747
80	0x3d65067a	0.05591438
81	0x3d2f3ca2	0.042782433
82	0xbd577a49	-0.052606855
83	0x3d797ecc	0.06091194
84	0x3dc0a350	0.094061494
85	0xbce945e0	-0.028475702
86	0xbd19be15	-0.037534792
87	0xbdc33b42	-0.09532787
88	0x3da09df2	0.07842626
89	0xbcbc52ef	-0.022988765
90	0xbbf3cfd9	-0.007440549
91	0x3d673052	0.056442566
92	0x3ba4a95f	0.0050250734
93	0xbdb7428f	-0.08948242
94	0xbc81379a	-0.015773583
95	0xbd7f5c7e	-0.062344067
96	0x3d2eda28	0.04268852
97	0xbd3720a9	-0.04470888
98	0xbcab451a	-0.020906974
99	0x3c794c46	0.015215939
100	0xbca5299a	-0.020161439
101	0xbd90adfd	-0.07064436
102	0x3da13201	0.078708656
103	0xbc4debb4	-0.012568403
104	0x3dadc0c0	0.0848403
105	0xbb67e545	-0.0035384458
106	0x3cc12986	0.02357937
107	0x3d01d3b5	0.03169604
108	0x3d8afe91	0.06786836
109	0x3d89e12a	0.067324
110	0xbd39bb1d	-0.04534446
111	0xbd721921	-0.059105996
112	0x3d4eb022	0.050460942
113	0x3dc2a3cc	0.09503898
114	0xbd60f30f	-0.0549193
115	0xbd9d1ef7	-0.07671922
116	0xbd69f1a3	-0.05711521
117	0xbc9e2736	-0.019305807
118	0x3d87fa6d	0.06639562
119	0x3d5096d2	0.050925083
120	0x3d338bf7	0.043834653
121	0x3d98ce80	0.07461262
122	0x3dce1280	0.10062122
123	0x3cb43687	0.021998657
124	0xbb67943d	-0.003533616
125	0xbd618ae2	-0.05506409
126	0x3d95670a	0.07295044
127	0xbd9af521	-0.07566286
128	0x3d80ad24	0.06283024
129	0xbd543272	-0.05180592
130	0x3c5baec0	0.013408363
131	0xbcb4219f	-0.021988688
132	0xbdaef1aa	-0.085421875
133	0xbd55041d	-0.052005876
134	0x3dc932be	0.098241314
135	0x3d3ef4b2	0.04662008
136	0xbda606b0	-0.08106744
137	0xbbdb4824	-0.0066919494
138	0xbd2126e5	-0.039343733
139	0xbcd3e655	-0.025866667
140	0x3d9d220b	0.07672509
141	0x3d3f2d55	0.04667409
142	0xbd8a7301	-0.067602165
143	0xbdaa2ea5	-0.08309678
144	0xbd37e6d0	-0.044897854
145	0x3ccb8e9c	0.024848275
146	0xbd0e0a55	-0.034677822
147	0xbdb0ea17	-0.08638399
148	0xbcee08c3	-0.029056912
149	0xbc9cfbfc	-0.019163124
150	0x3db8c5bd	0.090220906
151	0x3a16752f	0.00057395076
152	0x3db6c0e2	0.08923508
153	0xbb82b762	-0.003989146
154	0x3c8e22d5	0.017350594
155	0xbd830b48	-0.06398636
156	0x3d87cc94	0.06630817
157	0x3d6de753	0.058081936
158	0xbd5b79a3	-0.0535828
159	0xbdcbce8a	-0.099515036
160	0xbdbee6ee	-0.0932139
161	0xbd56dad6	-0.052454792
162	0x3d414177	0.047181573
163	0xbd4c26d5	-0.04984172
164	0x3db7a9ee	0.089679584
165	0x3daef6f8	0.08543199
166	0xbb9369c2	-0.0044986913
167	0x3dbd327d	0.092381455
168	0x3d4f276e	0.050574712
169	0x3b3329ee	0.0027338224
170	0xbdadd7c0	-0.08488417
171	0x3c483a1b	0.012220885
172	0x3dc99d29	0.09844429
173	0xbd9ae6bc	-0.0756354
174	0x3cddf756	0.027095478
175	0x3d4c3a79	0.04986045
176	0x3d84e292	0.06488527
177	0x3d8284fc	0.06373021
178	0xba05e17e	-0.00051071483
179	0xbd135ad3	-0.03597529
180	0x3d4e8dca	0.05042819
181	0xbd9944ad	-0.07483802
182	0xbcff145b	-0.031137636
183	0xbd63d6f2	-0.05562491
184	0x3d431b8e	0.0476337
185	0xbc65f067	-0.014034367
186	0xbd2d65c2	-0.042333372
187	0x3d56ce17	0.052442636
188	0x3d9a5106	0.07534985
189	0x3c97d314	0.018533267
190	0xbc27f914	-0.010252256
191	0xbd23aa2e	-0.039957218
192	0xbc6e489b	-0.014543678
193	0x3d26be41	0.040708784
194	0x3cf0f760	0.029414833
195	0x3d1dc804	0.038520828
196	0xbd7e5b6a	-0.062098898
197	0x3d7d4146	0.061829828
198	0x3d5c5d5e	0.05379998
199	0x3dc40217	0.09570711
200	0xbd4f2297	-0.050570097
201	0x3d14a00c	0.036285445
202	0xbcd7fae2	-0.026364747
203	0xbca245c0	-0.01980865
204	0xbc73d43c	-0.014882144
205	0xbd93817f	-0.07202434
206	0x3d8bdc73	0.06829157
207	0xbd77d056	-0.06050142
208	0x3d5815b4	0.052755073
209	0xbd333f58	-0.04376158
210	0xbd8dce16	-0.069240734
211	0x3d4b8b86	0.049693607
212	0x3d28161c	0.04103671
213	0xbbe5193b	-0.006991533
214	0xbc5647ac	-0.013078611
215	0xbb062ca6	-0.002047339
216	0xbd739388	-0.05946687
217	0x3d14ed03	0.036358844
218	0x3c804d52	0.01566187
219	0xbd426e73	-0.047468614
220	0x3d7b4008	0.06134036
221	0x3da5ca0d	0.08095179
222	0x3c6e8ae1	0.0145594785
223	0x3d2fef8d	0.042953063
224	0x3ba1ca8a	0.0049374746
225	0xbda6e3fa	-0.08148952
226	0x3cc8960d	0.024485612
227	0x3cee1dac	0.029066883
228	0x3dad6401	0.0846634
229	0x3db2e590	0.08735192
230	0x3d302c4d	0.043011
231	0xbd00cbbf	-0.031444307
232	0xbd82b309	-0.063818045
233	0xbd9c7e1d	-0.07641242
234	0x3d3e6328	0.04648128
235	0x3d935cd5	0.07195441
236	0xbcd2f0fd	-0.025749678
237	0xbd7fb652	-0.062429734
238	0x3dce221f	0.10065102
239	0xbd9a79a4	-0.07542732
240	0x3d98b8e6	0.074571416
241	0xbd9c11e4	-0.076206
242	0xbd096460	-0.03354299
243	0xbcffccd8	-0.031225607
244	0x3caab616	0.020838778
245	0xbc6895ed	-0.014195901
246	0xbd225703	-0.039633762
247	0x3d41df95	0.047332365
248	0x3daf14a0	0.08548856
249	0x3dc54ec2	0.096341625
250	0xbd1c6e0d	-0.03819089
251	0xbd201fd9	-0.039092872
252	0x3b1bbf7d	0.002376526
253	0x3c7b6acd	0.0153452875
254	0xbd9b35f3	-0.07578649
255	0x3dab5525	0.083658494

fc_out1.weight f4 [50, 100]
0	0x3daa672d	0.083204605
1	0x3d102fb0	0.03520173
2	0x3d38a993	0.045083594
3	0x3dc30f40	0.09524393
4	0x3c39f09a	0.011348868
5	0xbd042bf0	-0.032268465
6	0x3d2288bd	0.039681185
7	0x3d7b9cad	0.061428715
8	0x3d24328a	0.04008726
9	0xbd87589a	-0.06608696
10	0xba0fd0cd	-0.0005486131
11	0x3dc24a0b	0.09486779
12	0xbd91cb07	-0.071188025
13	0x3d25ffa7	0.040527012
14	0x3be4884d	0.006974256
15	0xbd905d23	-0.070490144
16	0xbd5612c7	-0.052264
17	0xbd6f732d	-0.05845945
18	0x3ca0eca7	0.019644095
19	0xbd595a30	-0.053064525
20	0x3d926178	0.07147497
21	0xbd9928fd	-0.07478521
22	0xbdaf979a	-0.085738376
23	0xbd40d01a	-0.04707346
24	0x3da48f97	0.080352
25	0xbc8c1613	-0.01710037
26	0x3c81b360	0.015832603
27	0xbd3d9a0a	-0.04628948
28	0x3be8291a	0.007084978
29	0xbd6ed8fa	-0.058312394
30	0xbbab4fe7	-0.005228031
31	0x3bdb9633	0.0067012548
32	0x3d610a93	0.054941725
33	0x3b94d467	0.004541922
34	0xbd7ac0d7	-0.061219063
35	0x3d678967	0.05652752
36	0xbd8c0cd8	-0.06838387
37	0x3d0d760d	0.03453641
38	0xbd455f63	-0.04818667
39	0xbd377917	-0.044793215
40	0xbb08bccd	-0.0020864487
41	0x3db82c03	0.089927696
42	0xbce57140	-0.028008103
43	0x3dc8d0cd	0.098054506
44	0x3d8de21f	0.06927895
45	0xbb17679a	-0.0023102523
46	0x39e53e67	0.00043724777
47	0xbc3fdcda	-0.01171037
48	0xbd8afad7	-0.06786125
49	0x3d83aa17	0.064289264
50	0xbd90d1b8	-0.07071251
51	0x3dbfdc5a	0.093682006
52	0x3cf4fead	0.029906595
53	0xbd1a637a	-0.037692524
54	0x3cd145b3	0.02554593
55	0x3d4ae500	0.049534798
56	0x3c29a367	0.0103539
57	0x3da998ff	0.08281135
58	0x3c9b2de0	0.018942773
59	0x3d3dc5e7	0.046331313
60	0xbd2a5a6a	-0.04159013
61	0x3d4f902a	0.050674595
62	0xbba8cc80	-0.0051513314
63	0xbcc02c27	-0.023458553
64	0xbbcd479a	-0.006264639
65	0xbcf98f0d	-0.03046372
66	0x3d640e1a	0.05567751
67	0xbc2d2bc0	-0.010569513
68	0x3db4287a	0.08796783
69	0x3a8caccd	0.0010732651
70	0xbd36ce8a	-0.044630565
71	0xbb4c059a	-0.0031131268
72	0x3dc5c498	0.09656638
73	0xbc0ad98d	-0.00847472
74	0x3d7c466d	0.0615906
75	0xbd20b4bd	-0.039234865
76	0xbca7bd60	-0.020476043
77	0x3da5b887	0.080918364
78	0x3d76921d	0.06019794
79	0x3c6c949a	0.014439726
80	0x3dbe2ebf	0.0928626
81	0xbc8cb47a	-0.017175902
82	0x3d75a1fa	0.059968926
83	0xbdcb3767	-0.099226765
84	0x3d0c26cd	0.03421669
85	0x3d57b09d	0.052658666
86	0x3cd25c93	0.025678908
87	0x3cfe7380	0.031060934
88	0x3d7e8123	0.062134873
89	0x3d23bda3	0.039975774
90	0x3d6bb3c7	0.057544496
91	0x3cc1f4b3	0.023676252
92	0xbd0f5f9a	-0.035003282
93	0xbd62fdc3	-0.055417787
94	0x3dc2f685	0.09519676
95	0x3dae64b5	0.08515302
96	0x3d905e67	0.07049256
97	0xbd835c73	-0.06414118
98	0x3ccb82e0	0.02484268
99	0x3d27cce7	0.040966894
100	0x3cbce0ce	0.023056414
101	0xbd70fde3	-0.058835875
102	0x3da52d5a	0.08065291
103	0x3d51a53d	0.051182974
104	0x3d267436	0.04063817
105	0xbd8df210	-0.069309354
106	0x3dc538d8	0.09629983
107	0xbcaba4bb	-0.020952573
108	0xbd1969f0	-0.037454545
109	0xbd1126e5	-0.035437483
110	0xbc548db5	-0.012973239
111	0xbd709ee0	-0.058745265
112	0xbc039672	-0.008031474
113	0xbd13835e	-0.036013953
114	0x3dae7569	0.08518488
115	0xbdb495c1	-0.08817626
116	0x3cff3d50	0.031157166
117	0x3d8833c4	0.066504985
118	0x3d63adaa	0.05558554
119	0x3da6e127	0.08148413
120	0x3dae8b3b	0.0852265
121	0x3d73ab40	0.05948949
122	0xbd7e2c23	-0.06205381
123	0xbd48760e	-0.04894071
124	0xbd005790	-0.031333506
125	0xbd1e8a0b	-0.038705867
126	0xbc59ca6f	-0.013292893
127	0x3cb756a0	0.022380173
128	0x3daa1b50	0.08305991
129	0x3d969782	0.073531166
130	0x3d796d5f	0.06089532
131	0xbce9cd74	-0.02854035
132	0xbc8297e2	-0.015941564
133	0x3dc9d004	0.09854129
134	0x3d8d92e8	0.06912786
135	0x3d4f63c7	0.050632264
136	0x3c95aabb	0.018269887
137	0x3d5d016e	0.05395644
138	0xbda95fcc	-0.08270225
139	0x3d96c4b8	0.0736174
140	0x3d5dd96d	0.05416243
141	0xbdc70a13	-0.097187184
142	0xbd6890da	-0.056778766
143	0xbd9cd845	-0.07658438
144	0xbdb5a66d	-0.08869634
145	0x3d2453b0	0.040118873
146	0xbd1e5901	-0.0386591
147	0x3c94ba66	0.018155288
148	0x3d740030	0.05957049
149	0xbd974b58	-0.073874176
150	0xbca2283c	-0.019794576
151	0x3d390aee	0.04517644
152	0x3d9d9680	0.07694721
153	0x3d991829	0.07475311
154	0x3c70634b	0.014672111
155	0x3c82f338	0.015985116
156	0xbdc08cba	-0.094018415
157	0x3dc3977e	0.09550379
158	0xbda6a8b6	-0.08137648
159	0xbd48abfd	-0.048992146
160	0x3d1b366d	0.0378937
161	0xbcb36915	-0.021900693
162	0xbbb07e38	-0.00538614
163	0xbd9398bd	-0.07206867
164	0xbd96e232	-0.07367362
165	0xbcc59dec	-0.024123155
166	0xbd279ab5	-0.040919024
167	0x3d175d3f	0.03695416
168	0x3da4e183	0.080508254
169	0x3ced3183	0.028954273
170	0xbd93634f	-0.07196676
171	0x3d4120be	0.047150366
172	0xbdab2631	-0.08356894
173	0x3c729451	0.014805869
174	0xbc30fd2d	-0.010802549
175	0x3cc449c5	0.023960957
176	0x3d9f3826	0.07774381
177	0x3c687a05	0.014189248
178	0xbc9d1ee3	-0.019179767
179	0xbd8cccb3	-0.06874981
180	0xbd30e1ee	-0.043184213
181	0xbdadfef0	-0.08495891
182	0x3dc18c28	0.09450561
183	0xbd92f8a3	-0.0717633
184	0x3db54087	0.08850198
185	0x3db58c11	0.08864606
186	0x3d2315bc	0.03981565
187	0x3b48cd50	0.0030639954
188	0x3d33abcf	0.04386502
189	0x3d2d2230	0.042268932
190	0x3ae8dc2f	0.0017765815
191	0x3db18c4b	0.08669337
192	0x3d523c3b	0.05132697
193	0x3ca2233b	0.01979219
194	0xbdb3d6f0	-0.087812304
195	0xbbba416c	-0.0056840684
196	0xbda20a9d	-0.079121806
197	0x3daa98de	0.08329938
198	0x3d02b28f	0.031908568
199	0x3db81f13	0.08990302
200	0x3d860c32	0.06545295
201	0x3db9332c	0.090429634
202	0xbd10e620	-0.035375714
203	0x3cf6d68e	0.030131605
204	0x3d08bad2	0.03338129
205	0xbdafa186	-0.0857573
206	0xbdb7411c	-0.089479655
207	0xbd792486	-0.060825847
208	0xbcff1986	-0.0311401
209	0x3cded4b6	0.027201038
210	0x3d8a8e2f	0.067654006
211	0x3ccf124a	0.025277276
212	0xbcb809ac	-0.02246555
213	0x3d9912e7	0.074743085
214	0xbdc89971	-0.097948916
215	0x3d99639b	0.07489701
216	0xbdb96832	-0.09053077
217	0x3d5c9df8	0.05386159
218	0xbda1823b	-0.078861676
219	0x3d5c64f3	0.05380721
220	0xbd7fd6ff	-0.062460896
221	0xbd19acb1	-0.037518207
222	0xbd199a6b	-0.03750078
223	0x3d28e3bd	0.041232813
224	0x3cc8e001	0.024520876
225	0xbdb9f1a4	-0.090792924
226	0xbd8f7512	-0.07004751
227	0x3cacd70a	0.021098632
228	0xbc9b9d6c	-0.018995963
229	0xbda95830	-0.082687736
230	0x3d9e2739	0.07722325
231	0x3b90527e	0.004404365
232	0xbd89247b	-0.06696411
233	0xbd9c1271	-0.07620705
234	0xbc914fc0	-0.017738223
235	0xbd7d7f13	-0.061888766
236	0x3d2d711f	0.04234421
237	0x3d38f58f	0.045156058
238	0xbdbb1e55	-0.09136645
239	0x3ca155bb	0.0196942
240	0xbd3439e9	-0.04400054
241	0xbd6c3064	-0.057663336
242	0x3c82b000	0.015953064
243	0x3d5392f2	0.05165381
244	0x3989d715	0.00026290925
245	0xbd077779	-0.033072922
246	0x3d670d32	0.05640907
247	0x3cd4c12c	0.025971018
248	0xbbdbdd2d	-0.006709716
249	0x3c9090a4	0.017647095
250	0xbcaaf48f	-0.020868568
251	0x3c3b2060	0.011421293
252	0xbd1eb31f	-0.038745042
253	0x3d7ecb0b	0.062205356
254	0x3d601d3b	0.054715376
255	0x3c9c75a2	0.01909906

fc_out1.bias f4 [50]
0	0xbc5dcd27	-0.013537682
1	0x3c20db4b	0.0098179085
2	0x3d9fd5b7	0.07804435
3	0x3d3e0068	0.046387106
4	0xbc0458ea	-0.008077839
5	0x3cebe5f4	0.028796174
6	0x3db36ab7	0.087605886
7	0xbcb31995	-0.021862784
8	0x3dcb5af7	0.099294595
9	0xb8a30667	-7.773638e-05
10	0xbda28160	-0.079348326
11	0x3d18f441	0.037342314
12	0x3c69a3b2	0.014260219
13	0xbb15432d	-0.0022775636
14	0xbcb0023e	-0.021485444
15	0x3dc215c3	0.09476807
16	0xbd9d4217	-0.07678621
17	0x3c820c49	0.015874999
18	0x3d8e3738	0.06944126
19	0xbdbc02e8	-0.09180242
20	0xbd1cd0f6	-0.03828522
21	0x3d270c60	0.040783286
22	0xbb8216b3	-0.003969991
23	0x3d4b7a1f	0.04967701
24	0xbc6d377f	-0.014478563
25	0x3d98cd5c	0.07461044
26	0x3dbfdd51	0.09368385
27	0xbda39688	-0.07987696
28	0xbdaf0935	-0.08546678
29	0xbdbf1f8a	-0.093321875
30	0x3d84e0f0	0.06488216
31	0xbdb5c455	-0.08875338
32	0x3d87c81f	0.06629967
33	0x38f9bf83	0.00011908917
34	0xbcbf3015	-0.023338357
35	0x3d40dbce	0.047084622
36	0x3dbc0304	0.09180263
37	0x3d9a4d9e	0.075343356
38	0xbc2821cb	-0.010261963
39	0x3d7639a3	0.06011356
40	0x3cc80f5f	0.024421392
41	0xbd45c1be	-0.04828047
42	0x3dae6af2	0.08516492
43	0xbd9350b4	-0.07193127
44	0xbd1bea4f	-0.03806525
45	0x3bf10c33	0.0073561906
46	0xbbde0382	-0.0067753205
47	0x3d9e33cb	0.077247225
48	0x3dbd4fc6	0.09243731
49	0x3d9f9b78	0.07793325

fc_out.weight f4 [2, 50]
0	0x3d1879f5	0.037225682
1	0x3d437ebb	0.04772828
2	0xbd3163de	-0.04330813
3	0xbd46aa3f	-0.048502203
4	0x3dafa0f6	0.08575623
5	0xbdea8f86	-0.11453156
6	0xbe00dcc9	-0.12584223
7	0x3db20de3	0.08694055
8	0xbbd422de	-0.006473883
9	0x3dc12609	0.09431083
10	0x3cf14ca4	0.02945549
11	0x3e09a1ca	0.13440624
12	0x3e0b7745	0.13619716
13	0x3dc2da8a	0.09514339
14	0x3d55ecb0	0.052227676
15	0xbd3d0383	-0.046145927
16	0xbc77de7a	-0.015128726
17	0xbc60f276	-0.013729682
18	0x3c06e871	0.008234129
19	0xbd5ec2db	-0.054385047
20	0xbd875f58	-0.06609982
21	0x3d0c7583	0.034291755
22	0xbe08ea24	-0.13370568
23	0xbde6a62a	-0.11262162
24	0x3d090642	0.033453234
25	0xbdc60d03	-0.096704505
26	0xbdd0db35	-0.101980604
27	0x3df04f34	0.11733857
28	0xbdfe72de	-0.12424253
29	0xbdd18ed5	-0.10232321
30	0x3dc7d62a	0.097576454
31	0xbda6aa6d	-0.08137975
32	0x3dafcada	0.08583613
33	0xbbe6f5d2	-0.007048347
34	0xbccbbda4	-0.024870701
35	0xbdb526d3	-0.08845296
36	0x3d86c5e9	0.06580717
37	0x3e0f0a49	0.13968767
38	0x3c255d1b	0.010092999
39	0xbdbd0c51	-0.09230865
40	0xbcf8a957	-0.030354185
41	0x3d98feb4	0.07470456
42	0xbd213e90	-0.039366305
43	0xbc1d8778	-0.009614818
44	0x3c86a1da	0.016434599
45	0xbce1b78c	-0.027553342
46	0x3d618b66	0.05506458
47	0xbddedb32	-0.10881652
48	0xbc923ec3	-0.017852193
49	0xbdd69ec5	-0.10479502
50	0xbdc3f5fc	-0.09568402
51	0x3d7dda1f	0.061975595
52	0xbd2a77aa	-0.041618027
53	0x3dd6f147	0.10495239
54	0xbd155976	-0.03646227
55	0x3db3925b	0.087681495
56	0x3d36e809	0.04465488
57	0xbdaff1ac	-0.08591017
58	0xbc339c4c	-0.010962557
59	0x3dff6a34	0.124714285
60	0xbdb70e98	-0.089383304
61	0xbda79b4a	-0.08183916
62	0x3db00860	0.085953474
63	0x3b22850f	0.0024798547
64	0xbde2f906	-0.11082654
65	0x3d69d9d3	0.0570925
66	0xbdfb4959	-0.12269849
67	0xbd169b85	-0.03676941
68	0xbd83f063	-0.064423345
69	0xbca64d10	-0.020300418
70	0xbcfde5fd	-0.030993456
71	0x3cee9fb3	0.029128885
72	0x3e0c0471	0.1367357
73	0x3d837c42	0.06420185
74	0xbdf772ff	-0.12082481
75	0x3cfeca0b	0.031102201
76	0xbd353945	-0.04424407
77	0xbde00701	-0.10938836
78	0xbdf0da88	-0.117604315
79	0x3dced1d8	0.10098618
80	0x3ce7d5b9	0.028300153
81	0x3db50d2e	0.088404045
82	0x3e09941f	0.1343541
83	0x3dbe8b8f	0.093039624
84	0xbd1a1c8e	-0.037624888
85	0xbdf6baba	-0.12047334
86	0xbe0edb82	-0.13950923
87	0x3d924c4d	0.071434595
88	0xbded473c	-0.115858525
89	0x3e0c6553	0.13710527
90	0x3dcc2675	0.099682726
91	0xbd1c1ecd	-0.03811531
92	0x3e0e242c	0.13880986
93	0xbcb8b4ee	-0.022547211
94	0xbd020e11	-0.031751696
95	0x3d01bc5a	0.031673767
96	0x3d8c179c	0.06840441
97	0xbdfd9d57	-0.12383526
98	0x3db8df61	0.09026981
99	0x3dc3cc00	0.09560394

fc_out.bias f4 [2]
0	0x3de525f1	0.111888774
1	0x3d4d3d0c	0.050107047

exp_avg f4 [300, 2]
0	0x388f4d35	6.833152e-05
1	0x387d4e24	6.0392675e-05
2	0x37751985	1.460908e-05
3	0x3778bdb8	1.4826124e-05
4	0xb883882c	-6.271931e-05
5	0xb8853b64	-6.3529966e-05
6	0x37b0b278	2.1063941e-05
7	0x3718c408	9.105548e-06
8	0x36428099	2.8983106e-06
9	0x36754d1d	3.655273e-06
10	0x37b17c9b	2.1158068e-05
11	0x3768a43a	1.3866515e-05
12	0xb93c9e4f	-0.00017988052
13	0xb93e4560	-0.00018145656
14	0x3794e361	1.7748856e-05
15	0x379a21be	1.8373943e-05
16	0x3874c3c7	5.8356465e-05
17	0x38b3e828	8.5786276e-05
18	0x37c70d7f	2.3728933e-05
19	0x380ef417	3.4082765e-05
20	0xb8a630f6	-7.9246165e-05
21	0xb8afe4e8	-8.3872874e-05
22	0x38e9c34c	0.00011146683
23	0x38ccb5d9	9.76135e-05
24	0x37f5741b	2.9260342e-05
25	0x38133ba6	3.5103083e-05
26	0xb8ba5efa	-8.886862e-05
27	0xb8a8fa85	-8.057527e-05
28	0x373ec3f6	1.1370508e-05
29	0x3705446d	7.943349e-06
30	0x38859a01	6.37062e-05
31	0x38957cdb	7.12813e-05
32	0x3813e2ac	3.5258636e-05
33	0x3825bccb	3.9514893e-05
34	0x38db0531	0.00010443701
35	0x38cc41e1	9.739749e-05
36	0x38194df0	3.6550628e-05
37	0x3888f3d5	6.5304026e-05
38	0xb7c2ebce	-2.3236407e-05
39	0xb7b32628	-2.135623e-05
40	0x38589875	5.16404e-05
41	0x386072a4	5.351253e-05
42	0xb8421b03	-4.627836e-05
43	0xb848bb86	-4.785836e-05
44	0xb79728cf	-1.8019606e-05
45	0xb79ee595	-1.8941975e-05
46	0x37a2b070	1.9394065e-05
47	0x370f3022	8.534671e-06
48	0x38b3b14e	8.568411e-05
49	0x38b70de1	8.728705e-05
50	0x35638b59	8.476687e-07
51	0xb70ba788	-8.324052e-06
52	0x375a8a86	1.3026065e-05
53	0x377b673b	1.4984801e-05
54	0xb705f7da	-7.985125e-06
55	0x36ab60ff	5.107489e-06
56	0x38ccd87b	9.767801e-05
57	0x382dd6f7	4.1446616e-05
58	0x39907e26	0.00027559808
59	0x3972c180	0.00023151003
60	0xb6b38f34	-5.3512867e-06
61	0xb711fea2	-8.70196e-06
62	0xb853a171	-5.0456674e-05
63	0xb841ae19	-4.6176927e-05
64	0x37ed219e	2.8268256e-05
65	0x36f00fdc	7.1544036e-06
66	0x39b42243	0.00034357802
67	0x39c763cd	0.00038030595
68	0xb925b7ab	-0.00015804048
69	0xb92c2b03	-0.00016419221
70	0x381930f5	3.6523637e-05
71	0x38267834	3.9689432e-05
72	0x348cb950	2.6211865e-07
73	0x35291f05	6.3002545e-07
74	0x36366dbf	2.7183994e-06
75	0xb623f039	-2.442872e-06
76	0x39917164	0.00027741038
77	0x398bd9ab	0.0002667432
78	0x381ddb53	3.763598e-05
79	0x38163580	3.5812613e-05
80	0xb9456c09	-0.0001882763
81	0xb947e99c	-0.00019065145
82	0xb973e7ca	-0.00023260634
83	0xb96d6887	-0.00022641021
84	0xb8d2c921	-0.000100510435
85	0xb8f1967a	-0.00011519804
86	0xb6a4f219	-4.9157647e-06
87	0x35a40c1f	1.222248e-06
88	0x39acaa3b	0.00032933228
89	0x39b46afe	0.0003441199
90	0x38009777	3.065864e-05
91	0x386a9927	5.593258e-05
92	0xb7c95ee6	-2.4005258e-05
93	0xb7b4339d	-2.1481706e-05
94	0xb86ae4ed	-5.600315e-05
95	0xb86f96a3	-5.712233e-05
96	0x3830cc94	4.2152198e-05
97	0x3871ba32	5.7632285e-05
98	0x381f2a7e	3.7948128e-05
99	0x381d5184	3.7507634e-05
100	0xb6330a68	-2.6679136e-06
101	0xb5ec8950	-1.7623333e-06
102	0x38309d13	4.2107957e-05
103	0x38372254	4.366257e-05
104	0x389898bf	7.276376e-05
105	0x38addf0f	8.290831e-05
106	0xb6ed5338	-7.0728383e-06
107	0xb57dac28	-9.4500365e-07
108	0xb950c0cb	-0.00019908247
109	0xb95bc335	-0.00020958188
110	0xb862392d	-5.3935848e-05
111	0xb835de8d	-4.336103e-05
112	0x397eadff	0.00024288146
113	0x397be38e	0.00024021996
114	0x393b7b90	0.0001787974
115	0x3934040d	0.00017167647
116	0x37bc29f8	2.243089e-05
117	0x37c58008	2.354385e-05
118	0x3a0caeeb	0.0005366641
119	0x3a10a9e4	0.000551848
120	0xb8e86168	-0.000110807654
121	0xb8dabe1d	-0.000104304614
122	0xb6cf8674	-6.184733e-06
123	0xb733e6a5	-1.07229325e-05
124	0x37121ee2	8.709469e-06
125	0x36a4081e	4.888526e-06
126	0x37a065af	1.9120836e-05
127	0x379acfa1	1.8454915e-05
128	0xb77ac4f3	-1.4947017e-05
129	0xb78d6d81	-1.6859502e-05
130	0xb729599c	-1.0094049e-05
131	0xb70ba0f5	-8.322521e-06
132	0xb714a76c	-8.860468e-06
133	0xb6980277	-4.53024e-06
134	0xb7e87cca	-2.7714665e-05
135	0xb7dcbee2	-2.631493e-05
136	0x38078368	3.230889e-05
137	0x380e89db	3.3983826e-05
138	0x38f55969	0.00011699164
139	0x38bd0aca	9.014232e-05
140	0xb61f0125	-2.3693513e-06
141	0x379f0980	1.89587e-05
142	0x38524536	5.013236e-05
143	0x3856ea46	5.123976e-05
144	0x38489a6b	4.782753e-05
145	0x380ffa0e	3.432674e-05
146	0x36f4adb6	7.2919893e-06
147	0x37814dc3	1.5414209e-05
148	0xb8afbf03	-8.380229e-05
149	0xb8c701b7	-9.489379e-05
150	0xb8322597	-4.2473515e-05
151	0xb83e2bf9	-4.5340483e-05
152	0x375f8682	1.3323153e-05
153	0x379b8877	1.8540986e-05
154	0x37ecb2a6	2.8216582e-05
155	0x380849b4	3.2493568e-05
156	0x38b67539	8.700271e-05
157	0x38a408ae	7.821746e-05
158	0xb915e282	-0.00014294128
159	0xb90f7a5c	-0.00013683125
160	0xb88dfb18	-6.770174e-05
161	0xb89dd9b3	-7.526893e-05
162	0xb8b7f44c	-8.771624e-05
163	0xb8aed74e	-8.33707e-05
164	0xb89b8523	-7.4157746e-05
165	0xb893d761	-7.049624e-05
166	0x3912e32e	0.00014008276
167	0x39257920	0.00015780749
168	0xb983cf96	-0.0002514093
169	0xb987a8fd	-0.00025875113
170	0xb8fb0143	-0.00011968848
171	0xb8f1877f	-0.000115170136
172	0x37f5d4dc	2.9305396e-05
173	0x380cf174	3.3603472e-05
174	0xb7ed6c67	-2.830308e-05
175	0xb7e8a10c	-2.7731548e-05
176	0x38ef06c6	0.0001139767
177	0x38c0be19	9.190682e-05
178	0x387221fe	5.7728954e-05
179	0x38635597	5.420073e-05
180	0xb7a73ef3	-1.9937264e-05
181	0xb7e213bc	-2.6950489e-05
182	0xb8972d58	-7.208687e-05
183	0xb8812e0b	-6.1597755e-05
184	0x37fe5ba6	3.0321837e-05
185	0x37fe0ad9	3.028421e-05
186	0xb89e9154	-7.5610966e-05
187	0xb89ea9cf	-7.5656564e-05
188	0x38609561	5.354488e-05
189	0x38c9f9b8	9.6309406e-05
190	0x38be388f	9.070441e-05
191	0x38c6c33b	9.47774e-05
192	0xb5fb483d	-1.8721981e-06
193	0x371250e5	8.721113e-06
194	0x3837a526	4.3784406e-05
195	0x3898dae4	7.288696e-05
196	0x3735f0c8	1.0844502e-05
197	0x3851a6c9	4.9984814e-05
198	0xb881ae4f	-6.183667e-05
199	0xb84e7ab7	-4.9228514e-05
200	0xb65294ba	-3.1379009e-06
201	0xb6621ad5	-3.3692243e-06
202	0xb629395f	-2.5216357e-06
203	0xb5ea13ff	-1.7440178e-06
204	0x37017edf	7.718539e-06
205	0x3704b03c	7.908846e-06
206	0xb5aeb849	-1.3017644e-06
207	0xb3d2da03	-9.818543e-08
208	0x369ffd1c	4.768035e-06
209	0x369a049d	4.5900947e-06
210	0xb4f4a3ec	-4.556781e-07
211	0xb4ee8570	-4.4428043e-07
212	0x370c7560	8.371979e-06
213	0x370d04e3	8.405393e-06
214	0xb68f07d7	-4.262645e-06
215	0xb68b1754	-4.1452386e-06
216	0x35d6aeb4	1.5995088e-06
217	0x357bb6ba	9.377069e-07
218	0xb6a8aa7d	-5.0266376e-06
219	0xb6b59ad6	-5.4122456e-06
220	0x34c5ad18	3.6820052e-07
221	0x34d84c90	4.0288842e-07
222	0xb65c3933	-3.281585e-06
223	0xb60aed5b	-2.0701762e-06
224	0x36c52b16	5.8760734e-06
225	0x36d49159	6.335013e-06
226	0x36bf757d	5.705921e-06
227	0x36a991ac	5.053551e-06
228	0xb5428306	-7.2461296e-07
229	0xb4fb9839	-4.686315e-07
230	0x3491a6d4	2.7129738e-07
231	0xb436747e	-1.699245e-07
232	0xb7116eaf	-8.668444e-06
233	0xb71f0d52	-9.48024e-06
234	0x357e0b31	9.463866e-07
235	0xb438f53a	-1.7225548e-07
236	0x3592c7c8	1.0935992e-06
237	0xb656ad3a	-3.1989316e-06
238	0x34202b23	1.4916854e-07
239	0xb4125d62	-1.3631282e-07
240	0x3695aaf7	4.460449e-06
241	0x36a51ce1	4.920745e-06
242	0xb62f50a1	-2.6123964e-06
243	0xb6457318	-2.942228e-06
244	0x378bc72b	1.6662836e-05
245	0x378ea09d	1.700251e-05
246	0xb6232951	-2.4312942e-06
247	0xb5151eee	-5.5551834e-07
248	0xb66a048c	-3.4871364e-06
249	0xb6881ba9	-4.056336e-06
250	0xb52be7d9	-6.4039847e-07
251	0x36208f59	2.3925297e-06
252	0x360063b3	1.913152e-06
253	0x36130833	2.190948e-06
254	0x37112566	8.651381e-06
255	0x370120b3	7.696613e-06
