test_airflow/mlruns/0/c44337f89073429ba1f882587bc517f7/artifacts/restored_model_checkpoint/epoch=9-step=10.ckpt (torch, 448127 bytes, 24 tensors)

rnn.weight_ih_l0 f4 [300, 2]
0	0x3d940647	0.0722776
1	0x3d75dd47	0.06002548
2	0xbccf1910	-0.025280505
3	0x3d46e668	0.048559576
4	0x3bb930c9	0.0056515676
5	0xba8fccd6	-0.001097108
6	0xbd879456	-0.0662009
7	0x3d1d0b74	0.038341
8	0xbd0d961f	-0.034566995
9	0x3d567116	0.05235394
10	0xbd949be8	-0.07256299
11	0x3cb5826a	0.022156913
12	0xbdb60f5c	-0.08889648
13	0x3d9a4299	0.07532234
14	0xbdc01215	-0.09378449
15	0xbda61054	-0.08108583
16	0xbc75b013	-0.014995593
17	0xbd8c42fb	-0.06848713
18	0x3c4b19ee	0.012396319
19	0xbd1a6d3a	-0.037701823
20	0x3d1edd84	0.038785473
21	0xbda7db59	-0.08196134
22	0x3d42fd77	0.047605004
23	0x3d26b57d	0.040700424
24	0x3d4b33c5	0.04960992
25	0xbcc1a579	-0.023638474
26	0x3d981cd7	0.07427376
27	0xbd83a244	-0.06427434
28	0xbdae15ea	-0.085002735
29	0x3d4ee180	0.050508022
30	0x3c8cb0df	0.017174182
31	0xbd7e58a9	-0.06209627
32	0xbdc4c28a	-0.09607418
33	0x3be5fcef	0.0070186774
34	0x3db28770	0.08717239
35	0x3c264182	0.010147454
36	0xbd90b009	-0.07064826
37	0x3da8ce5c	0.08242485
38	0x3dbfa7a1	0.093581446
39	0x3ca49df9	0.020094858
40	0xbcfa7e5c	-0.030577831
41	0x3d16b944	0.036797777
42	0x3cb4cc2a	0.02207001
43	0xbb2d9b5b	-0.0026490304
44	0x3d82a754	0.063795716
45	0x3d7bf574	0.06151338
46	0xbd325d26	-0.043545865
47	0xbd5e26b1	-0.054236118
48	0xbd95e586	-0.07319169
49	0xbd96b5ae	-0.073588714
50	0x3c1d96fa	0.009618515
51	0xbbc0bf2e	-0.0058821654
52	0x3dcea474	0.10089961
53	0xbdb1f69a	-0.08689614
54	0x3dc76c40	0.09737444
55	0x3c288779	0.010286205
56	0xbd5fb151	-0.05461246
57	0xbd25cc1a	-0.04047785
58	0xbd75354c	-0.05986528
59	0x3cb68eca	0.022284884
60	0x3d7cf897	0.06176051
61	0x3c0506fd	0.008119342
62	0xbd548a19	-0.051889513
63	0xbd65fbfd	-0.056148518
64	0x3cd1b1c4	0.02559746
65	0xbdb9b890	-0.09068406
66	0x3cd21fca	0.025649924
67	0x3ade3091	0.001695173
68	0xbc0a9faf	-0.008460923
69	0xbd99ce05	-0.07509998
70	0xbcf83ea4	-0.030303307
71	0x3d6119a8	0.05495611
72	0xbd8694cd	-0.0657135
73	0xbdbf7d69	-0.09350092
74	0xbdb2ec15	-0.08736435
75	0x3dc59aae	0.096486434
76	0xbd18ff80	-0.03735304
77	0xbc029068	-0.007968999
78	0x3d3d2942	0.046181925
79	0x3d9d248a	0.07672985
80	0xbd9f1381	-0.07767392
81	0xbd1a8277	-0.037722077
82	0xbd272488	-0.040806323
83	0x3db1d2c9	0.08682782
84	0xbd93f0e1	-0.072236784
85	0x3dc2808f	0.09497177
86	0xbd63315f	-0.055467006
87	0x3d94cf9a	0.07266159
88	0xbdcc311b	-0.099703036
89	0xbca07953	-0.019589102
90	0x3d843f89	0.06457431
91	0x3ceb3da0	0.028715909
92	0x3d8c6447	0.06855064
93	0xbd8efa0c	-0.069812864
94	0xbdccc06e	-0.099976406
95	0xbd1b3600	-0.037893295
96	0xbdc1a4c8	-0.09455258
97	0xbd8a4965	-0.0675228
98	0xbdcbd9b3	-0.09953632
99	0x3ced7f8e	0.028991487
100	0x3c9bb8a0	0.019008934
101	0xbd610922	-0.05494035
102	0x3d40a4ee	0.04703229
103	0x3dc0ef0c	0.094205946
104	0x3d949b31	0.07256163
105	0x3c9b5d91	0.018965514
106	0xbcb1eb4f	-0.02171865
107	0xbdb61f1c	-0.088926524
108	0x3b47e50d	0.0030501515
109	0xbd256e6e	-0.040388517
110	0x3dc0b7b4	0.094100386
111	0x3d67d6fe	0.056601517
112	0xb8c11712	-9.207254e-05
113	0xbc12a779	-0.008951061
114	0xbdbd01c8	-0.09228855
115	0xbd9c399b	-0.07628175
116	0xbda3612c	-0.079775184
117	0xbd4906af	-0.04907864
118	0xbd11b8c7	-0.035576608
119	0xbd5b4ccd	-0.05354004
120	0xbb6504d6	-0.003494551
121	0xbd72ce57	-0.059278812
122	0x3c99c4ed	0.01877066
123	0xbda03368	-0.07822305
124	0x3cf1e1f4	0.029526688
125	0x3cce5dcb	0.025191208
126	0xbd6ff26a	-0.058580793
127	0xbd6ec627	-0.05829444
128	0xbd8ba855	-0.06819216
129	0xbb5da506	-0.0033820285
130	0xbdc9811e	-0.0983908
131	0xbdc13802	-0.09434511
132	0x3cc6f6ca	0.0242876
133	0xbd322890	-0.043495715
134	0x3d9d0611	0.07667173
135	0xbd02a386	-0.03189423
136	0x3c922847	0.017841471
137	0xbd307ae2	-0.04308594
138	0x3b8a9ab6	0.0042298688
139	0x3c77e67c	0.015130635
140	0x3daf935c	0.085730284
141	0x3ca7d8c7	0.02048911
142	0x3d112fbe	0.03544592
143	0xbd9282e0	-0.07153869
144	0xbcb00913	-0.021488702
145	0x3db54faa	0.08853085
146	0x3ce1fccd	0.027586365
147	0xbc1ef6ea	-0.009702424
148	0xbdb8f4bf	-0.090310566
149	0x3cf12661	0.029437246
150	0x3d56a517	0.052403536
151	0x3d3bc224	0.045839444
152	0x3da1d054	0.079010636
153	0x3d1bda1f	0.038049813
154	0x3dab7c02	0.08373262
155	0xbcab71a4	-0.020928212
156	0x3d315cac	0.04330127
157	0x3af39273	0.0018583074
158	0xbd8704d7	-0.0659272
159	0xbd5ef1d0	-0.05442983
160	0x3d9ffef0	0.07812297
161	0xb9032997	-0.00012508627
162	0x3c09009b	0.008361961
163	0x3d431911	0.047631327
164	0x3d84368b	0.06455716
165	0x3d924316	0.07141702
166	0xbd1d59af	-0.038415607
167	0xbb99c70a	-0.0046929168
168	0x3d634fdb	0.055496078
169	0xbdbf27c1	-0.09333754
170	0xbd9456c4	-0.07243112
171	0x3dae9898	0.08525199
172	0xbdb88de4	-0.090114385
173	0x3d0b8758	0.03406462
174	0x3d9b8bf7	0.075950556
175	0xbc9d1279	-0.019173848
176	0xbc159f06	-0.009132152
177	0x3d6a7a5e	0.057245605
178	0xbc696904	-0.014246229
179	0x3cc52dee	0.024069753
180	0xbd738f87	-0.05946305
181	0xbdc8f0d4	-0.09811559
182	0x3dc5a481	0.09650517
183	0xbc249d5f	-0.010047286
184	0x3d01aeaa	0.031660713
185	0x3c2a2f2a	0.010387221
186	0x3c8a9586	0.016917001
187	0x3d3bddb4	0.04586573
188	0xbd88df64	-0.066832334
189	0x3d6303c2	0.055423506
190	0xbd7fe18f	-0.06247097
191	0xbc395722	-0.011312278
192	0x3d037db2	0.032102294
193	0xbd40d43f	-0.047077414
194	0x3cd90855	0.02649323
195	0x3cb9bc4e	0.022672798
196	0xbcc2e4c0	-0.023790717
197	0xbb134843	-0.0022473491
198	0xbd95709f	-0.072968714
199	0x3d20c84c	0.039253518
200	0xbc3e0fb5	-0.011600425
201	0x3d0118cc	0.03151779
202	0x3d83704b	0.064179026
203	0xbcf8a979	-0.030354248
204	0xbca6964f	-0.020335345
205	0x3d7a7cde	0.06115424
206	0x3d022b00	0.03177929
207	0x3cc70cae	0.024298038
208	0x3d3a4e0c	0.045484588
209	0xbc703a82	-0.014662387
210	0x3bf163f3	0.007366651
211	0xbcc1e7b3	-0.023670053
212	0x3d8b372c	0.067976326
213	0x3d975aa1	0.07390333
214	0x3d9d6ff2	0.076873675
215	0x3be7c93a	0.0070735486
216	0xbdb8c550	-0.090220094
217	0x3d9524ab	0.072823845
218	0x3c9788d0	0.018497854
219	0xbd4f0b5a	-0.050547935
220	0x3dc304e9	0.09522421
221	0x3c7e8066	0.015533542
222	0xbd5ebead	-0.05438106
223	0x3d3eca67	0.046579745
224	0x3c5d13df	0.013493507
225	0x3c2e797b	0.01064908
226	0xbd38021f	-0.044923898
227	0x3ce8e27e	0.028428312
228	0x3d0e174d	0.03469019
229	0xbd7ac0c9	-0.06121901
230	0xbd954987	-0.07289415
231	0x3d193321	0.037402276
232	0x3d88843d	0.066658475
233	0xbd9b7088	-0.07589823
234	0x3c3b057a	0.01141488
235	0xbd69bae1	-0.057062987
236	0x3cde36b1	0.027125688
237	0xbd7a035d	-0.061038364
238	0xbcc73d1e	-0.024321135
239	0xbd08b562	-0.033376105
240	0x3dacb31a	0.084325984
241	0x3cbac14c	0.02279725
242	0xbcef92c7	-0.029244794
243	0x3d5ff323	0.054675233
244	0x3d55e92e	0.05222433
245	0xbdba6eb0	-0.09103143
246	0x3ac838fd	0.0015275773
247	0x3b8472d5	0.0040420094
248	0x3dc595be	0.09647702
249	0x3d96c097	0.07360952
250	0xbd3edddd	-0.046598304
251	0x3d79d871	0.06099743
252	0xbb8cbdf1	-0.0042951037
253	0x3dcd8651	0.100353844
254	0x3c799f8c	0.015235793
255	0xbc6338a9	-0.013868489

rnn.weight_hh_l0 f4 [300, 100]
0	0xbd195f17	-0.0374442
1	0xbdcb262b	-0.09919389
2	0xbd1766ca	-0.03696326
3	0xbd0be11c	-0.034150228
4	0x3d1bfeb5	0.038084704
5	0x3d07f00f	0.033187922
6	0xbc5d0a6d	-0.013491255
7	0x3d06917a	0.03285358
8	0x3d7260bf	0.059174296
9	0x3c70635a	0.014672125
10	0x3dc58dd3	0.096461914
11	0x3dc8fcef	0.09813868
12	0x3d8e35af	0.06943833
13	0xbd9b8883	-0.07594397
14	0xbdb2854d	-0.08716831
15	0xbdc0b93c	-0.09410331
16	0xbc5468bc	-0.012964424
17	0x3dcdc234	0.10046807
18	0x3c21786a	0.009855369
19	0x3d23ba5b	0.039972644
20	0x3a96ec4b	0.0011514513
21	0xbd1a9c93	-0.037746977
22	0xbd9873da	-0.07443972
23	0x3d4570f6	0.04820343
24	0xbca7c5f5	-0.020480135
25	0x3dc23e28	0.094845116
26	0x3d6b10a7	0.057388928
27	0xbd74afd6	-0.059738003
28	0xbd1e9075	-0.038711984
29	0xbdc1efe6	-0.09469585
30	0x3dc5cc02	0.09658052
31	0xbcbfe8d5	-0.023426453
32	0x3dab61d3	0.08368268
33	0x3d9b209e	0.075745806
34	0x3d252a36	0.04032346
35	0xbd5c2a9b	-0.05375157
36	0x3c654ec1	0.013995827
37	0xbdb8e906	-0.09028821
38	0x3d9bba00	0.07603836
39	0x3d90f2fe	0.07077597
40	0x3d657cf3	0.056027364
41	0xbdb78406	-0.08960728
42	0x3d395f1e	0.045256726
43	0xbcef0d78	-0.029181227
44	0x3cc31924	0.023815699
45	0xbdbca9e8	-0.092120945
46	0xbd613391	-0.05498082
47	0xbda9b3cd	-0.082862474
48	0xbd87dd45	-0.06634001
49	0x3b1631aa	0.0022917786
50	0x3cf658d5	0.030071655
51	0x3d9469ac	0.07246718
52	0xbba1a677	-0.0049331742
53	0xbd9f30d9	-0.07772989
54	0x3dbe03bb	0.09278055
55	0xbd28fe61	-0.04125822
56	0xbdbfd462	-0.09366681
57	0xbd3fec34	-0.04685612
58	0x3d808443	0.06275227
59	0xbd5411f9	-0.051774953
60	0x3d746202	0.05966378
61	0x3dc9adac	0.098475784
62	0xbd9ebfe9	-0.07751448
63	0xbbe2c4ed	-0.006920448
64	0xbbc8b21e	-0.006124749
65	0x3b2ff8e1	0.0026851224
66	0xbdbf527e	-0.09341906
67	0xbd52ca21	-0.051462296
68	0xbd528bd1	-0.05140287
69	0x3d19fe2c	0.037595913
70	0xbd85c19a	-0.06531067
71	0xbd82dd3b	-0.063898526
72	0xbd08f292	-0.033434458
73	0x3d5a0f97	0.053237524
74	0x3db93f19	0.09045238
75	0x3d77488e	0.060371928
76	0x3b8d2280	0.0043070912
77	0x3d1ed16f	0.03877395
78	0xbbe29adb	-0.006915433
79	0xbd4e6ab9	-0.050394747
80	0x3d45b4f9	0.048268292
81	0xbd21ac53	-0.03947098
82	0x3d6791ef	0.056535657
83	0x3d919ed2	0.07110371
84	0xbd26b12d	-0.04069631
85	0x3cfefe9e	0.03112727
86	0x3d02061c	0.031744108
87	0xbd51d4b6	-0.051228248
88	0xbd123785	-0.03569748
89	0xbd91b3be	-0.07114361
90	0xbc1e7f63	-0.009673926
91	0xbc409c17	-0.011755965
92	0xbd810536	-0.06299822
93	0x3dc2f115	0.09518639
94	0x3c989c48	0.018629208
95	0xbbb08e1c	-0.0053880345
96	0x3d8a5e5f	0.06756281
97	0x3d9c83cf	0.07642328
98	0x3d977f68	0.07397348
99	0x3cc85c47	0.024458064
100	0xbcb08a84	-0.021550424
101	0x3d3f3cc0	0.046688795
102	0xbd9c9649	-0.07645852
103	0x3d03bf06	0.032164596
104	0xbaa2c616	-0.0012418653
105	0xbdb1fc72	-0.08690728
106	0xbdc066f7	-0.09394639
107	0xbb5632c2	-0.0032684063
108	0x3c25f8d2	0.010130124
109	0xbc23c4e9	-0.0099956775
110	0x3d9dcbb4	0.07704869
111	0xbd8cd2f8	-0.068761766
112	0xbd697322	-0.056994565
113	0x3dc825b5	0.09772817
114	0x3dc0c4a4	0.09412506
115	0xbbfa75bf	-0.007643431
116	0xbdc1c78d	-0.094618894
117	0xbdb36969	-0.0876034
118	0x3a656444	0.00087505975
119	0xbd565c0f	-0.052333888
120	0xba9a7a58	-0.0011785729
121	0xbd547b05	-0.051875133
122	0xbd675649	-0.056478772
123	0xbc1f0a79	-0.009707087
124	0xbda67fdc	-0.08129856
125	0xbd5ca0a7	-0.053864148
126	0x3d5ac56f	0.053410944
127	0xbda7832c	-0.08179316
128	0x3dcaa413	0.09894576
129	0xbdc57d01	-0.09642983
130	0x3d563f33	0.052306365
131	0xbd82d72e	-0.063886985
132	0x3dba7463	0.0910423
133	0x3d209397	0.039203253
134	0x3cfd7b20	0.0309425
135	0xbd939eae	-0.07208
136	0x3ccec308	0.025239483
137	0x3d9d5929	0.076830216
138	0xbca045f9	-0.019564616
139	0x3d65bd68	0.056088835
140	0xbd867540	-0.065653324
141	0xbcf208ca	-0.029545207
142	0xbd3dcc66	-0.046337508
143	0xbdb3e931	-0.08784712
144	0x3da58d9e	0.08083652
145	0xbda375a8	-0.079814255
146	0xbdb49675	-0.0881776
147	0x3d76e90e	0.060280852
148	0xbcef1e51	-0.02918926
149	0x3dcd78d1	0.100328095
150	0xbc1920a0	-0.009346157
151	0x3d96e37d	0.07367609
152	0xbcbe8f8e	-0.023261812
153	0x3d512cce	0.05106812
154	0x3d8cdbbb	0.06877848
155	0x3da34157	0.07971447
156	0x3d95417d	0.072878815
157	0xbd4f8990	-0.0506683
158	0x3d26ad9e	0.040692918
159	0x3d276a3b	0.040872794
160	0x3d437e32	0.04772777
161	0xbcaa9888	-0.020824686
162	0x3d175056	0.03694185
163	0xbd957a7e	-0.07298754
164	0x3d608e2f	0.054823097
165	0xbd7b1495	-0.061298925
166	0x3c270be3	0.010195705
167	0xbd9ef54b	-0.0776163
168	0x3cb05797	0.021526141
169	0xbdc199bf	-0.09453153
170	0x3dcb7992	0.09935297
171	0x3cb8166f	0.022471635
172	0x3d9d90d1	0.07693637
173	0xbd344bb3	-0.044017505
174	0x3d6c6455	0.05771287
175	0xbc8b3856	-0.016994637
176	0x3db0f754	0.08640924
177	0xbd027fe6	-0.031860255
178	0xbd8acef1	-0.06777752
179	0x3dabc799	0.083876796
180	0xbc146d84	-0.009059314
181	0xbcd98d56	-0.026556652
182	0x3cd0b585	0.02547718
183	0xbda5881d	-0.08082602
184	0xbad3891d	-0.0016138885
185	0xbd913fa7	-0.07092219
186	0x3d3e6c8a	0.04649023
187	0xbda5d30e	-0.08096896
188	0x3d815e51	0.063168176
189	0x3dc64e2b	0.09682878
190	0x3db4ae99	0.08822364
191	0x3d9b8976	0.07594578
192	0x3c7f22c1	0.015572251
193	0x3d9ba786	0.07600312
194	0xbdb7e30b	-0.08978852
195	0x3dc10294	0.0942432
196	0x3d36f8d0	0.04467088
197	0xbdc72608	-0.09724051
198	0xbd177040	-0.036972284
199	0x3c6fb73c	0.014631089
200	0x3dc0aa96	0.09407537
201	0xbc26c097	-0.010177753
202	0x3d02ce94	0.03193529
203	0x3bca3175	0.0061704465
204	0x3db576d1	0.08860553
205	0x3c850a87	0.016240371
206	0x3d261588	0.040547878
207	0x3c239111	0.009983317
208	0x3d3b137a	0.04567287
209	0x3c7a4554	0.015275318
210	0xbd12792a	-0.035760082
211	0x3b0bea73	0.002134946
212	0xbdc2dfb5	-0.09515325
213	0xbcdabcc6	-0.026701342
214	0xba4ee0f8	-0.00078917993
215	0x3da29caa	0.079400375
216	0xbd981084	-0.07425025
217	0xbc7acf82	-0.015308263
218	0x3d1af2bc	0.037829146
219	0xbc9096d3	-0.017650044
220	0x3d0281b4	0.031861976
221	0xbdb1ebb8	-0.08687538
222	0xbcc789a7	-0.02435763
223	0x3d375982	0.044763096
224	0xbc98f9fc	-0.01867389
225	0xbd74ad41	-0.05973554
226	0xbd4e2d72	-0.05033631
227	0xbd25816e	-0.040406637
228	0xbc1d2a55	-0.009592612
229	0xbd510528	-0.051030308
230	0x3d864d0a	0.06557663
231	0x3db59fec	0.08868393
232	0x3d38f7b6	0.04515811
233	0xbda5d21f	-0.08096718
234	0x3dc10f2c	0.09426722
235	0x3d78b9e7	0.060724165
236	0x3bb9dfc8	0.0056724288
237	0xbc30404c	-0.010757517
238	0xbda8014e	-0.08203374
239	0x3d140001	0.036132816
240	0xbd852e5b	-0.06502982
241	0x3c818cb3	0.01581416
242	0x3ced00f2	0.028931115
243	0xbd338f12	-0.043837614
244	0xbd4b6fb8	-0.04966709
245	0x3d86d4ff	0.065835945
246	0x3d3a267c	0.045446858
247	0x3db00502	0.08594705
248	0xbd8ec621	-0.06971384
249	0x3d8239a5	0.06358651
250	0xbcc67bbc	-0.024228923
251	0xbcda1e7f	-0.02662587
252	0xbd097dc4	-0.033567205
253	0xbd286ccf	-0.041119393
254	0x3d36e0ac	0.044647858
255	0xbd1ee72a	-0.038794674

rnn.bias_ih_l0 f4 [300]
0	0x3d40d341	0.047076467
1	0xbc3d9d28	-0.0115731135
2	0xbdb26dfe	-0.087123856
3	0x3ccec84a	0.02524199
4	0xbd27a8ff	-0.04093265
5	0x3d8896fa	0.066694215
6	0x3d6fc4dc	0.05853735
7	0x3db6d569	0.089274235
8	0xbd4a1496	-0.04933604
9	0x3cd7c51a	0.026339103
10	0xbdaa62d3	-0.083196305
11	0xbd8ab312	-0.06772436
12	0xbd10b616	-0.0353299
13	0xbccb23b1	-0.024797292
14	0xbc3f44a1	-0.011674077
15	0x3da6fe18	0.08153933
16	0xbd761b64	-0.060084715
17	0x3dbc2a25	0.09187726
18	0x3d31a99a	0.043374635
19	0x3c87791e	0.016537245
20	0xbc663d70	-0.014052734
21	0xbd1d7fb7	-0.038451876
22	0xbd933855	-0.07188479
23	0xbd3aa350	-0.045565903
24	0xbcd0af4c	-0.025474213
25	0x3c6f3a3a	0.014601285
26	0xbcba5616	-0.022746127
27	0x3c67181e	0.014104871
28	0x3c576bb9	0.013148242
29	0xbc0daa3b	-0.008646543
30	0xbc2405b8	-0.010011129
31	0x3ce50a60	0.027959049
32	0x3d1b18a7	0.037865307
33	0x3bb97d19	0.0056606648
34	0xbdbc7df3	-0.092037104
35	0xbdb54ac1	-0.08852149
36	0xbc186b52	-0.009302931
37	0xbdb705c0	-0.089366436
38	0x3ce61cf2	0.028089974
39	0xbcb1a62c	-0.021685682
40	0xbd0d5754	-0.03450711
41	0xbce6e483	-0.028185135
42	0xbcfaf79a	-0.030635644
43	0xbd7cef55	-0.061751682
44	0x3cf6cef0	0.030127972
45	0x3d8f7f3b	0.07006689
46	0x3d5e6ad5	0.0543011
47	0xbd41d2d5	-0.047320206
48	0x3d3c7ff7	0.046020474
49	0x3a8b6fca	0.0010638174
50	0x3d435b7a	0.04769466
51	0x3c70311b	0.014660145
52	0xbd84c5ed	-0.06483064
53	0x3da2bf12	0.079466
54	0x3c8ce103	0.017197138
55	0xbd806cd6	-0.06270759
56	0x3d49f0c5	0.04930188
57	0x3d3ca383	0.046054374
58	0xbdc4de23	-0.09612682
59	0xbd9001d5	-0.070315994
60	0xbdc14f65	-0.094389714
61	0xbdc579ba	-0.09642358
62	0xbca18e9e	-0.019721325
63	0xbdb3bcc0	-0.087762356
64	0x3c90cbad	0.017675245
65	0x3d309551	0.04311115
66	0xbc829954	-0.015942253
67	0x3d888bf3	0.06667318
68	0xbdc2173a	-0.09477086
69	0x3d2eb771	0.042655412
70	0xbd70c3e3	-0.058780562
71	0xbd405c28	-0.046962887
72	0xbda0d023	-0.07852199
73	0x3d9d398e	0.07676993
74	0xbdc3c7ad	-0.095595695
75	0xbd72e0af	-0.059296306
76	0xbb20604a	-0.0024471455
77	0x3bbb302a	0.0057125287
78	0x3d1716b0	0.03688687
79	0xbdb6a8e7	-0.08918934
80	0x3db5c087	0.08874612
81	0xbc0451fd	-0.008076188
82	0x3c2ca5d3	0.010537582
83	0xbd704673	-0.058660936
84	0xbdc25c74	-0.0949029
85	0xbdb906f0	-0.09034526
86	0xbc0592c8	-0.008152671
87	0x3dc6d760	0.09709048
88	0xbc892fd3	-0.016746437
89	0xbda9ca44	-0.08290532
90	0xbd072132	-0.032990642
91	0xbcfd7552	-0.030939732
92	0xbda00b87	-0.07814699
93	0x3c971ef7	0.018447382
94	0xbdbeeed7	-0.09322899
95	0xbd9e5ccb	-0.077325426
96	0xbcada3cc	-0.021196268
97	0xbcdaed40	-0.026724458
98	0x3d8444c9	0.06458432
99	0x3d2b86df	0.04187667
100	0x3d9ccb1d	0.07655928
101	0xb902bf20	-0.00012468966
102	0xbd677a64	-0.056513205
103	0x3cee8caf	0.029119818
104	0x3d66cb8e	0.05634647
105	0xbbd9a4b4	-0.0066419486
106	0x3c8cfd5d	0.017210657
107	0xbd388abd	-0.045054186
108	0x3cc0ca6e	0.023534026
109	0xbd2c7fff	-0.042114254
110	0xbce04f05	-0.02738143
111	0x3d269607	0.04067042
112	0xbcd1c6bb	-0.025607457
113	0x3c176c70	0.009242162
114	0xbdb3d6e3	-0.08781221
115	0xbb69be41	-0.0035666379
116	0x3d60a18d	0.054841567
117	0xbd654ce3	-0.055981528
118	0xbba527bb	-0.0050401366
119	0xbd85bc03	-0.06530001
120	0x3d22276f	0.039588388
121	0x3d93a713	0.07209601
122	0x3d3d6c1d	0.046245683
123	0xbda774d2	-0.081765786
124	0xbcadf1af	-0.021233408
125	0xbd0fca1b	-0.035104852
126	0xbd7e4095	-0.06207331
127	0x3d82e1ba	0.0639071
128	0xbd9dcb97	-0.07704847
129	0xbdb7329c	-0.089452
130	0x3be78515	0.007065425
131	0xbd5697b9	-0.052390788
132	0xbd856a98	-0.06514472
133	0xbc60b218	-0.013714336
134	0x3d840bfe	0.064476
135	0xbda06496	-0.07831685
136	0xbd855bfe	-0.06511687
137	0xbcf80dfa	-0.030280102
138	0xbd561a94	-0.05227144
139	0xbdc625ca	-0.096751764
140	0xbb2d73e8	-0.002646679
141	0x3cba799c	0.022763066
142	0x3d28c308	0.04120162
143	0x3d9dd959	0.077074714
144	0xbcc329e6	-0.02382369
145	0x3dc3460b	0.09534844
146	0xbc2d1019	-0.01056292
147	0x3cfa2ef0	0.03053996
148	0xbd801376	-0.06253712
149	0x3d14dad2	0.036341496
150	0x3cfca8c9	0.030842202
151	0xbd9f2d6f	-0.07772338
152	0x3d46c4cd	0.048527528
153	0xbcb9c0d0	-0.022674948
154	0xbd8fbb1a	-0.07018109
155	0x3d99c084	0.075074226
156	0xbd5fe86b	-0.05466501
157	0xbd5661ac	-0.05233924
158	0x3d18d9a8	0.03731695
159	0x3dc3c44b	0.09558924
160	0x3c9564b0	0.018236488
161	0xbdc6bcc9	-0.09703977
162	0x3c5e348e	0.013562335
163	0xbc181f59	-0.009284818
164	0x3d76eee6	0.060286425
165	0xbd885cd9	-0.06658334
166	0x3da8cacf	0.08241808
167	0x3db49911	0.088182576
168	0xbd881051	-0.06643737
169	0xbd77933d	-0.06044315
170	0x3d855e9a	0.065121844
171	0x3d1bbfb7	0.03802463
172	0x3ad3a87c	0.0016148235
173	0xbc920632	-0.01782522
174	0xbbb52f37	-0.00552931
175	0xbd82a679	-0.063794084
176	0x3d8b3785	0.06797699
177	0xbd03666e	-0.032080106
178	0xbc315424	-0.010823283
179	0x3d6cad09	0.057782207
180	0x3dbce392	0.09223093
181	0x3c886c95	0.016653338
182	0xbd4ef5fd	-0.05052756
183	0x3db55231	0.088535674
184	0xbcbbf722	-0.02294499
185	0xbd1ba574	-0.037999585
186	0xbda5bccb	-0.0809265
187	0x3cf90a37	0.030400379
188	0x3cbbbffc	0.022918694
189	0xbcdc70ac	-0.026909195
190	0x3ce93e4a	0.028472085
191	0x3da2a5f1	0.07941807
192	0x3c2f35cb	0.010693978
193	0xbd70e0a7	-0.058807995
194	0xbd6b0b77	-0.05738398
195	0xbb6fe2e5	-0.0036603746
196	0x3d1e1591	0.038594786
197	0x3d00cd37	0.031445708
198	0xbd9bf6b9	-0.07615418
199	0xbd8d2363	-0.06891515
200	0xbd6aef5b	-0.057357173
201	0x3dc126dd	0.09431241
202	0x3d2eafcf	0.042648133
203	0xbda4779c	-0.08030626
204	0xbdaba192	-0.083804265
205	0x3d6ecae6	0.058298968
206	0x3c8394d2	0.016062174
207	0xb9cfec34	-0.00039658102
208	0xbcc58444	-0.02411092
209	0xbb8b51f7	-0.0042517143
210	0xbdae1120	-0.0849936
211	0xbd5202df	-0.05127227
212	0x3d8da8f4	0.06916991
213	0xbda49934	-0.08037034
214	0x3d185fd2	0.037200756
215	0xbca82e9b	-0.020530036
216	0x3cb9052f	0.02258548
217	0xbb78ea19	-0.003798133
218	0x3dab3026	0.08358793
219	0xbd281118	-0.041031927
220	0x3d4e7470	0.050404012
221	0x3d50c647	0.050970342
222	0x3d7b8aa0	0.0614115
223	0x3da9f098	0.08297843
224	0x3d51d77b	0.05123089
225	0x3da190f3	0.07888975
226	0xbace271d	-0.0015728209
227	0xbd856a4b	-0.065144144
228	0xbc96523e	-0.018349763
229	0x3cfe6f88	0.031059042
230	0x3dc69370	0.0969609
231	0x3d9ccf90	0.07656777
232	0xbd35ef5f	-0.044417735
233	0xbdab0e4e	-0.08352338
234	0x3d8f3971	0.06993378
235	0xbd3a392b	-0.045464676
236	0xbdc43026	-0.09579496
237	0xbd34d795	-0.044150908
238	0xbd8f896f	-0.07008635
239	0xbd807d1e	-0.06273864
240	0x3db58424	0.088630944
241	0x3c26afa0	0.010173708
242	0x3d6ff340	0.05858159
243	0xbd9bf0ac	-0.07614264
244	0xbd89a148	-0.06720215
245	0x3c11fed8	0.008910857
246	0xbcf66c1e	-0.030080851
247	0xbd985615	-0.07438294
248	0xbd3a373f	-0.045462843
249	0x3cbc9ee1	0.023024978
250	0xbd55b153	-0.052171063
251	0xbd0d60c7	-0.034516122
252	0x3dbd9c94	0.092583805
253	0x3d8ab930	0.06773603
254	0x3ca26a77	0.019826157
255	0x3dc8ed95	0.0981094

rnn.bias_hh_l0 f4 [300]
0	0x3da06b83	0.07833006
1	0x3da10ca9	0.07863743
2	0xbd52414a	-0.051331796
3	0xbd13b56f	-0.0360617
4	0x3d38576b	0.045005243
5	0x3d055ec3	0.032561075
6	0xbbf8d042	-0.0075931856
7	0xbdc68946	-0.096941516
8	0x3c655a92	0.013998644
9	0x3d3c7d8d	0.046018172
10	0x3c404100	0.011734247
11	0xbdcec1bc	-0.10095546
12	0x3d284ff7	0.041091885
13	0x3cf3a922	0.029743735
14	0xbd3eb30b	-0.046557467
15	0x3d08bf82	0.03338576
16	0x3d65b410	0.056079924
17	0x3d94e525	0.07270268
18	0x3b21022b	0.0024567943
19	0x3d8b050e	0.067880735
20	0xbd9a8c15	-0.0754625
21	0xbd8f3bed	-0.06993852
22	0xbd932e38	-0.0718655
23	0xbd953af1	-0.07286633
24	0xbd5efac9	-0.054438386
25	0x3d9df388	0.077124655
26	0x3d5e3bb1	0.054256145
27	0x3d13f4b7	0.03612205
28	0x3da1da1f	0.079029314
29	0xbd48cb47	-0.049021985
30	0x3dc3373c	0.095320195
31	0xbdce5d4c	-0.10076389
32	0x3db92b0f	0.09041416
33	0x3d60a7b2	0.054847427
34	0xbc865071	-0.01639578
35	0x3cf3cd0f	0.029760865
36	0x3dbb8d68	0.091578305
37	0xbd65da7e	-0.056116574
38	0xbd691045	-0.05690028
39	0x3d5519a2	0.0520264
40	0xbdaad9fb	-0.08342358
41	0xbdc649c2	-0.09682037
42	0xbd81288d	-0.063065626
43	0x3d9ef92a	0.07762368
44	0xbacd8361	-0.0015679413
45	0xbb14dc38	-0.0022714268
46	0x3da743da	0.081672385
47	0x3be1ca8e	0.0068906015
48	0xbd251796	-0.040305696
49	0xbcb46ca5	-0.022024462
50	0x3c866697	0.01640634
51	0x3b5af89e	0.0033412348
52	0x3dc177c1	0.09446669
53	0x3db132cd	0.086522676
54	0xbd77d0c8	-0.060501844
55	0x3d86c42f	0.06580388
56	0xbd413888	-0.047173053
57	0x3d965ede	0.07342313
58	0x3be15782	0.006876887
59	0xbd05127b	-0.032488327
60	0xbd10dc39	-0.03536627
61	0xbdabb48e	-0.083840474
62	0xbd143db0	-0.036191642
63	0xbd885aa7	-0.066579156
64	0x3d7d2f99	0.06181297
65	0xbd74494d	-0.059640218
66	0x3d677a69	0.056513224
67	0x3d8688eb	0.06569084
68	0xbd7ee81a	-0.062233068
69	0x3dc7a94b	0.09749087
70	0x3d03074a	0.031989373
71	0xbbfff133	-0.0078107356
72	0xbccc1cb7	-0.024916036
73	0x3ca172e0	0.019708097
74	0x3cc5f827	0.02416618
75	0xbda7d42a	-0.08194764
76	0xbd198b1b	-0.037486177
77	0x3d8a32b2	0.067479506
78	0x3d646653	0.055761646
79	0x3d5ff0b6	0.05467292
80	0xbc2d11ee	-0.010563357
81	0x39afd1e4	0.00033534982
82	0x3dc3ea68	0.09566194
83	0xbbc11914	-0.005892882
84	0x3c04a0f1	0.008095012
85	0xbd44493a	-0.047921397
86	0xbd847927	-0.064684205
87	0xbd81b1cd	-0.06332741
88	0xbdcb6ec9	-0.0993324
89	0xbb8e5e17	-0.0043447125
90	0xbdb7a998	-0.08967894
91	0x3d99950c	0.074991316
92	0xbd910899	-0.07081718
93	0xbd6f2d7e	-0.058392994
94	0x3d95b1a4	0.07309273
95	0x3d3cfbc9	0.04613856
96	0xbdad0c0d	-0.08449564
97	0x3daa13d8	0.08304566
98	0x3d2d1a43	0.042261373
99	0xbd8011cf	-0.06253397
100	0xbd774d9e	-0.060376756
101	0x3da907b7	0.082534246
102	0x3d9c0de3	0.07619836
103	0x3da51c9d	0.08062098
104	0x3cafb544	0.021448739
105	0x3d27d75b	0.040976863
106	0x3d7e84a6	0.062138222
107	0xbdc2667d	-0.09492204
108	0x3dcde516	0.1005346
109	0x3dba0cc7	0.09084468
110	0x3cb2b64f	0.021815447
111	0x3d955752	0.07292046
112	0xbc30d8c2	-0.010793867
113	0x3db06d12	0.086145535
114	0x3d86a101	0.06573678
115	0x3bdfe0fb	0.0068322397
116	0xbc16b889	-0.00919927
117	0x3b2976a6	0.0025858073
118	0xbc1909c5	-0.009340708
119	0xbaf7e56f	-0.0018912981
120	0xbbdb1fd9	-0.006687146
121	0x3cf56d6f	0.029959409
122	0x3ce2ffbc	0.027709834
123	0xbdabdaca	-0.0839134
124	0xbd553dc6	-0.052060865
125	0x3cd7c54e	0.0263392
126	0x3c555a65	0.01302204
127	0x3d522019	0.051300142
128	0xbd5c7ea6	-0.05383172
129	0xbd01d6bb	-0.031698924
130	0x3dbd200c	0.09234628
131	0x3dac8a1c	0.0842478
132	0x3d8b40ed	0.06799493
133	0x3d9ac257	0.07556599
134	0xbdc2021f	-0.09473061
135	0x3d4d2b8d	0.05009036
136	0x3da53e5b	0.08068534
137	0x3dbe0be3	0.09279611
138	0xbd21bd41	-0.039487127
139	0xbd451ae2	-0.04812134
140	0xbdc220ca	-0.0947891
141	0xbc4bc223	-0.0124364225
142	0x3be13391	0.0068726023
143	0xbd81d878	-0.06340116
144	0x3da17d34	0.07885209
145	0x3d7f8797	0.062385168
146	0x3da14a85	0.078755416
147	0x3ccee624	0.025256224
148	0xbd725b59	-0.059169147
149	0x3da66721	0.08125139
150	0x3d52f814	0.051506117
151	0xbdc921f7	-0.098209314
152	0xbccd4901	-0.025059225
153	0xbcf3c6dd	-0.029757911
154	0xbc518c95	-0.012789865
155	0xbd771b6f	-0.060328897
156	0x3d554595	0.05206831
157	0x3d48e524	0.04904665
158	0xbcf7b14a	-0.030235905
159	0xbd4128ea	-0.04715816
160	0x3d976eca	0.07394178
161	0xbd811cc9	-0.063043185
162	0xbce539eb	-0.027981719
163	0xbdcd25f3	-0.10017004
164	0x3d215bac	0.039394066
165	0x3c6306dc	0.013856616
166	0xbc49b8cc	-0.012312125
167	0xbd36213b	-0.044465285
168	0xbd458543	-0.04822279
169	0xbd5eff1d	-0.054442514
170	0x3c0c19b3	0.008551049
171	0xbc949ef3	-0.0181422
172	0x3db985be	0.090587124
173	0xbd9f1abe	-0.077687725
174	0x3cc4fb73	0.024045682
175	0x3d87300e	0.066009626
176	0x3d87c07b	0.066285096
177	0x3bdc48bc	0.006722538
178	0x3d3b3b91	0.045711104
179	0xbd99df97	-0.075133495
180	0x3d359cf6	0.044339143
181	0x3c58f746	0.013242548
182	0xbdae2386	-0.08502869
183	0xbc14224f	-0.009041383
184	0xbd7d0485	-0.06177189
185	0x3ca89faa	0.020583946
186	0x3bcd89a9	0.006272514
187	0xbdb7c25e	-0.089726195
188	0x3cb8fbbc	0.022580974
189	0x3cc8a761	0.024493875
190	0x3db1a7c2	0.086745754
191	0xbd0909ff	-0.0334568
192	0x3cf6adff	0.030112265
193	0x3d5dcabc	0.05414842
194	0xbbe0bb78	-0.0068582855
195	0x3c55783a	0.0130291525
196	0xbda7fe9e	-0.08202861
197	0xbd8284e4	-0.06373003
198	0xbdc07295	-0.09396855
199	0xbd506c15	-0.050884325
200	0xbc18d2bc	-0.009327587
201	0x3d230b7a	0.039805867
202	0xbdc8f3b8	-0.09812111
203	0xbd9110c6	-0.070832774
204	0x3ccc8b7e	0.024968859
205	0x3d1fa477	0.038975205
206	0x3d45e6bb	0.048315745
207	0xbd18bd02	-0.037289627
208	0x3d61421e	0.054994695
209	0x3d489f1a	0.048979856
210	0x3d545c74	0.051845983
211	0xbd12b3ec	-0.035816118
212	0x3ba9ddb1	0.0051838984
213	0xbd89f968	-0.067370236
214	0xbda7760b	-0.08176812
215	0xbd40b232	-0.04704494
216	0x3d121845	0.035667676
217	0x3ca4869a	0.020083714
218	0xbdc54b2a	-0.09633477
219	0xbccfa97e	-0.025349375
220	0xbd077624	-0.033071652
221	0x3d936ed3	0.071988724
222	0x3b73863e	0.0037158872
223	0x3cc55b61	0.024091424
224	0x3dc5312e	0.09628521
225	0xbda237ac	-0.07920775
226	0x3dc3e9b8	0.09566063
227	0x3d64cdc2	0.05586029
228	0x3cb2d997	0.02183227
229	0xbd8dd8f6	-0.06926148
230	0x3d2ce033	0.042206
231	0x3d44583f	0.04793572
232	0x3d16f433	0.03685398
233	0xbd05a9ab	-0.03263251
234	0x3c72c4de	0.014817445
235	0xbdb9e614	-0.09077087
236	0x3bc35ccb	0.0059619895
237	0x3d886a1b	0.06660863
238	0x3db90a72	0.090351954
239	0x3da20583	0.079112075
240	0x3cb445d5	0.022005955
241	0xbb2196e9	-0.00246566
242	0xbd43c1cc	-0.04779224
243	0x3ae65541	0.0017573015
244	0xbdb5f0ad	-0.08883796
245	0x3d9bbfc2	0.07604934
246	0x3daa012f	0.08301007
247	0xbca23e7e	-0.01980519
248	0xbd829cfb	-0.06377598
249	0x3d539cfe	0.05166339
250	0xbd9e6808	-0.07734686
251	0xbd4f7d9f	-0.05065691
252	0x3d9bb2bd	0.07602451
253	0x3cf4c53b	0.029879203
254	0x3db4fa8c	0.088368505
255	0xbc78c6e4	-0.015184138

fc_out1.weight f4 [50, 100]
0	0xbd9a48bc	-0.07533404
1	0x3d94bf7c	0.07263085
2	0xbd8e0bc5	-0.069358386
3	0x3dc32d28	0.09530097
4	0x3ccecbfd	0.025243754
5	0xbcaf8b9b	-0.021428874
6	0xbd9f4ce9	-0.07778341
7	0xbc852d49	-0.016256945
8	0xbdc7444b	-0.09729823
9	0xbc4961f2	-0.012291418
10	0xbd027a3b	-0.03185485
11	0x3d69cebb	0.05708192
12	0xbb6c1ad5	-0.0036026735
13	0xbdbe0521	-0.09278322
14	0xbd285ec3	-0.041105997
15	0x3d2bbf16	0.04193028
16	0xb883125c	-6.2499865e-05
17	0x3cc18029	0.023620682
18	0xbbab7efe	-0.0052336445
19	0xbd8432f0	-0.06455028
20	0xbd70b316	-0.05876454
21	0xbdc79260	-0.09744716
22	0xbc724c4c	-0.014788698
23	0xbdc3d7bf	-0.09562635
24	0xbd4dd7e7	-0.05025473
25	0xbc33c11e	-0.010971336
26	0xbd34949e	-0.044087045
27	0xbd88c2e6	-0.06677799
28	0x3daafde9	0.08349211
29	0x3d86270d	0.06550417
30	0xbdc09285	-0.094029464
31	0x3db2384f	0.08702146
32	0xbdc932a9	-0.09824116
33	0x3ca3b5eb	0.019984206
34	0xbcbec745	-0.023288378
35	0x3cf4c28c	0.029877923
36	0x3c8ce57a	0.017199267
37	0x3d72593d	0.059167136
38	0x3d4bcda9	0.04975668
39	0x3d2989b9	0.04139111
40	0xbc8e1141	-0.017342212
41	0xbc7aa19c	-0.01529732
42	0xbd221a2f	-0.039575752
43	0x3cda11a7	0.026619745
44	0xbc3fc8b6	-0.011705568
45	0xbc4f8c76	-0.012667766
46	0x3dbeccbb	0.09316393
47	0xbd95ffe4	-0.07324198
48	0xbdabe853	-0.08393922
49	0x3dab84d8	0.08374947
50	0xbd6fbee9	-0.058531675
51	0xbd54c5f9	-0.051946614
52	0xbbb3fb36	-0.005492593
53	0xbd71a5da	-0.05899606
54	0xbdc87a80	-0.0978899
55	0x3d23dcb9	0.04000542
56	0xbd92e0ca	-0.07171781
57	0x3c27c66d	0.0102401795
58	0x3c98b91b	0.018642953
59	0xbd959ead	-0.07305656
60	0xbcd6aaec	-0.026204549
61	0xbd2fd319	-0.042925928
62	0xb8da61ff	-0.00010413303
63	0x3caacd20	0.020849764
64	0xbdcca616	-0.09992616
65	0x3bff0c22	0.0077834288
66	0x3ca30e6d	0.01990434
67	0x3c4deb38	0.012568288
68	0x3bbff299	0.0058577773
69	0x3cbe4f52	0.023231182
70	0x3d629770	0.055320203
71	0xbcb45e77	-0.0220177
72	0xbcc6fc5b	-0.024290254
73	0xbc8fdfd7	-0.01756279
74	0x3da02482	0.07819463
75	0x3db9ab4c	0.090658754
76	0x3dad636d	0.084662296
77	0xbd922e0f	-0.07137691
78	0x3daecfb9	0.08535714
79	0x3db45ce7	0.08806782
80	0xbdb59d81	-0.08867932
81	0xbdc2f06d	-0.09518514
82	0xbd884f6e	-0.06655775
83	0x3c7dafab	0.015483777
84	0x3d1a824f	0.03772193
85	0x3d3f447c	0.04669617
86	0x3d732dc0	0.059369802
87	0x3db7a30f	0.08966648
88	0xbcf0aa19	-0.029377984
89	0x3db2e2cb	0.087346636
90	0xbc020476	-0.007935634
91	0x3d815094	0.06314197
92	0xbc83c371	-0.016084405
93	0xbd0a1dc9	-0.03371981
94	0xbad1c206	-0.0016003258
95	0x3d4e136e	0.0503115
96	0xbc5aa51b	-0.013345028
97	0xbd37b09b	-0.04484616
98	0x3d564f3f	0.05232167
99	0x3c2c2b6b	0.0105083985
100	0x3d426203	0.047456753
101	0x3c8d8765	0.017276475
102	0x3da2489a	0.07924004
103	0x3c921bc5	0.017835507
104	0xbccece95	-0.02524499
105	0x3cd27b07	0.02569343
106	0xbcec8b0a	-0.028874893
107	0xbdbb6aeb	-0.09151252
108	0xbd6337d2	-0.055473156
109	0xbcd34f2f	-0.025794594
110	0x3dbdf3e9	0.09275038
111	0xbd302677	-0.043005433
112	0x3b51d0ca	0.0032015317
113	0xbcd0d511	-0.025492223
114	0xbda59f0f	-0.08086979
115	0x3dca408c	0.098755926
116	0x3c09f37e	0.0084198695
117	0x3d113e96	0.035460077
118	0x3d3a2864	0.045448676
119	0x3d37d0e2	0.04487694
120	0xbd54e62e	-0.05197733
121	0xbc94ca9c	-0.018163018
122	0xbca326bf	-0.019915937
123	0x3d723ed6	0.059141956
124	0xbd6afdf4	-0.057371095
125	0xbd91f10b	-0.071260534
126	0x3db86534	0.09003678
127	0xbc7e56c9	-0.015523621
128	0xbd312b7c	-0.04325436
129	0xbdb6aa6d	-0.08919225
130	0xbcdff95d	-0.027340585
131	0xbc471165	-0.012150143
132	0x3ae92e11	0.0017790218
133	0x3c86d2f4	0.016458012
134	0x3d5ed5df	0.054403182
135	0xbc5f1481	-0.013615728
136	0x3d883820	0.0665133
137	0xbce9fb78	-0.028562292
138	0x3d5808b0	0.05274266
139	0x3cc762c8	0.024339095
140	0xbd5515dc	-0.0520228
141	0x3d072a36	0.03299924
142	0x3d5ae5d0	0.053441823
143	0x3d744345	0.059634466
144	0x3d3232cf	0.043505486
145	0xbc991c58	-0.018690273
146	0x3d18b295	0.037279684
147	0xbd134710	-0.035956442
148	0xb887ca00	-6.474927e-05
149	0x3db0e532	0.086374655
150	0xbc6d35db	-0.014478172
151	0x3cd2ee55	0.025748411
152	0xbda6c002	-0.08142091
153	0xbd9b04d2	-0.07569279
154	0xbc776ad6	-0.015101155
155	0xbdc3171b	-0.095258914
156	0x3d4fb4bf	0.050709482
157	0xbcefe2b8	-0.029282913
158	0x3dc1745f	0.09446024
159	0x3da2391b	0.07921048
160	0x3da06d98	0.07833403
161	0x3db02315	0.08600441
162	0x3c9986d6	0.018741053
163	0xbca3af7d	-0.01998114
164	0x3d13e548	0.03610733
165	0x3ca1d35a	0.0197541
166	0xbd17ab97	-0.037028875
167	0x3d0c05d3	0.034185242
168	0x3db52c19	0.088463016
169	0x3d41b172	0.047288366
170	0x3d4d61d7	0.050142135
171	0xbda6f7f9	-0.08152766
172	0xbdad1071	-0.084504016
173	0x3db2ad2f	0.087244384
174	0x3d3dfbf0	0.046382844
175	0x3d76fb88	0.060298473
176	0x3cdfcfe8	0.027320817
177	0x3d83f51e	0.06443237
178	0xbb684d36	-0.0035446412
179	0x3d9cdde3	0.07659509
180	0x3db43f8b	0.08801182
181	0x3bff43f2	0.007790082
182	0x3c17c35c	0.009262886
183	0x3cc4cf25	0.024024555
184	0xbd946f6f	-0.07247817
185	0xbd9b5b08	-0.07585722
186	0xbd27ddbd	-0.04098295
187	0xbcc33eed	-0.023833716
188	0xbdb6a6ea	-0.08918555
189	0x3d2b5e06	0.041837715
190	0x3aae6d0c	0.0013307645
191	0xbd72e229	-0.059297714
192	0xbdb2d4c4	-0.08731988
193	0x3d8a4820	0.06752038
194	0xbdca9bf0	-0.09893024
195	0x3daabae2	0.08336426
196	0xbdb28303	-0.08716395
197	0xbcc50f56	-0.024055164
198	0xbc6ed0fa	-0.014576191
199	0x3d9b9320	0.07596421
200	0xbbfb6974	-0.007672483
201	0x3d21fe4f	0.03954917
202	0x3c0b8b64	0.00851712
203	0xbd881e6b	-0.06646427
204	0x3d1c4616	0.038152777
205	0x3d0dc872	0.034614988
206	0xbd116b9f	-0.035503026
207	0xbd0b3602	-0.033987053
208	0xbbbb316e	-0.0057126796
209	0xbd57f579	-0.052724335
210	0x3dc6b83e	0.0970311
211	0x3d92fb04	0.07176784
212	0x3d37bc2c	0.04485719
213	0x3d94ee04	0.072719604
214	0x3d3e8e72	0.046522565
215	0x3d92f7a1	0.07176138
216	0x3c04533d	0.008076486
217	0x3d723153	0.05912907
218	0x3c3adc58	0.011405073
219	0xbc4f978e	-0.012670411
220	0x3d96eabd	0.073689915
221	0x3cde945c	0.027170353
222	0xbc33c8f1	-0.010973201
223	0xbd8ba8c0	-0.06819296
224	0xbcffce8f	-0.031226425
225	0x3d75314f	0.059861477
226	0x3dce8fe2	0.10086037
227	0x3bb484af	0.005508981
228	0x3cf8b5c3	0.030360108
229	0xbc282560	-0.010262817
230	0xbcb61c14	-0.022230186
231	0xbd916239	-0.070988126
232	0x3d5f5931	0.05452842
233	0xbd648165	-0.055787463
234	0xbd9fe0aa	-0.07806523
235	0x3db1edb9	0.0868792
236	0x3d965f37	0.073423795
237	0xbd3642f2	-0.044497438
238	0xbd08bd4f	-0.033383664
239	0xbdc4a5ac	-0.09601912
240	0xbd505a12	-0.050867148
241	0xbd673f19	-0.05645666
242	0x3d7255d7	0.059163895
243	0x3db5e495	0.08881489
244	0x3c7d271c	0.015451219
245	0x3dce920d	0.10086451
246	0x3dca85eb	0.09888824
247	0x3daf2881	0.085526474
248	0xbd4dfe66	-0.05029144
249	0xbd3aefea	-0.045638956
250	0x3cd02006	0.025405895
251	0x3d73652f	0.059422668
252	0x3d284618	0.04108247
253	0x3d111a1a	0.035425283
254	0x3d6efbc9	0.05834559
255	0xbd58179b	-0.052756887

fc_out1.bias f4 [50]
0	0x3cd1dea0	0.025618851
1	0x3d9c9234	0.076450735
2	0x3ce31295	0.027718822
3	0x3d955f61	0.07293583
4	0xbd348770	-0.044074476
5	0x3cabb3d2	0.020959768
6	0x3bc432ae	0.005987487
7	0x3c94eeb5	0.01818023
8	0x3d02729f	0.031847592
9	0xbc8a667a	-0.016894568
10	0x3d91e80f	0.0712434
11	0xbdc5e2a2	-0.096623674
12	0x3d8bf766	0.06834297
13	0x3d03bd54	0.03216298
14	0x3db01944	0.08598569
15	0xbd10f207	-0.035387065
16	0x3c90102f	0.017585842
17	0x3ccc9d7d	0.02497744
18	0x3dcb0b0c	0.099142164
19	0xbdbf1068	-0.09329301
20	0xbd359647	-0.04433277
21	0xbd053907	-0.03252509
22	0xbda4798b	-0.08030995
23	0xbd5447da	-0.051826335
24	0x3da73d12	0.08165945
25	0xbcc7027a	-0.024293173
26	0x3bf3e7b1	0.0074433913
27	0xb9cba6b6	-0.00038843387
28	0xbd7e0190	-0.06201321
29	0xbb119fe2	-0.0022220542
30	0x3db609f4	0.08888617
31	0x3d5d7f6d	0.0540766
32	0xbda85a69	-0.08220369
33	0x3dafc8a0	0.08583188
34	0xbd70ab40	-0.058757067
35	0xbd65450d	-0.055974055
36	0x3bb2a861	0.0054522012
37	0xbc429b8e	-0.011877907
38	0x3dab7846	0.0837255
39	0x3db92412	0.09040083
40	0xbd5612b0	-0.052263916
41	0xbba44e69	-0.00501423
42	0x3d2ab5d7	0.041677322
43	0xbd23c537	-0.039983
44	0x3c50ddf3	0.012748229
45	0x3d1b2580	0.03787756
46	0xbd82fb18	-0.063955486
47	0x3d9d7ee4	0.07690218
48	0x3d412ac4	0.047159925
49	0xbd2d9ca7	-0.042385723

fc_out.weight f4 [2, 50]
0	0x3dc237ec	0.094833225
1	0xbdd6ee6b	-0.10494693
2	0xbd8ce5c3	-0.06879761
3	0xbb6fd2c4	-0.0036594132
4	0xbda96707	-0.08271604
5	0x3dd6f95e	0.10496782
6	0xbdc4d54d	-0.096109964
7	0x3d6b3650	0.057424843
8	0xbd2af0bb	-0.041733485
9	0x3d37df9b	0.04489098
10	0x3d1044b0	0.035221756
11	0xbd29bcfd	-0.04144
12	0xba50ad4a	-0.00079603924
13	0x3d4d117f	0.050065514
14	0x3c9f9c31	0.019483658
15	0xbdff6e03	-0.12472155
16	0x3dd66407	0.104682975
17	0x3de4c135	0.11169664
18	0xbdadb7c7	-0.08482318
19	0x3dca9fc8	0.09893757
20	0xbe02041d	-0.12696882
21	0xbc08dea0	-0.008353859
22	0xbd13f624	-0.03612341
23	0x3d891309	0.06693084
24	0xbdec638b	-0.11542424
25	0xbdf460cc	-0.11932525
26	0x3d0e6355	0.0347627
27	0xbdfd6ff7	-0.12374871
28	0x3df6923e	0.12039612
29	0xbd99845a	-0.07495947
30	0x3d72baa4	0.059260026
31	0xbc092e2f	-0.008372827
32	0xbe04944a	-0.12947193
33	0xbd8383a9	-0.064215966
34	0x3d0c76f2	0.034293123
35	0x3d8af5eb	0.067851864
36	0xbb064d84	-0.002049298
37	0xbc9ff2c8	-0.019524947
38	0xbd96b4db	-0.07358714
39	0xbd8ed5c2	-0.06974365
40	0xbd94bfa5	-0.07263116
41	0x3e0bf6fa	0.13668433
42	0xbd1ef150	-0.038804352
43	0x3e0c54b4	0.13704187
44	0xbd9df399	-0.07712478
45	0xbda3f051	-0.08004821
46	0x3df7289e	0.12068294
47	0x3d979508	0.07401472
48	0x3d53bdf9	0.051694844
49	0x3d178a29	0.036996994
50	0x3d99ed9b	0.07516023
51	0xbd7c31f2	-0.06157107
52	0xbbba9d39	-0.005695012
53	0x3dc111cf	0.09427225
54	0x3e08955b	0.13338225
55	0xbd5e8621	-0.054327134
56	0x3d56f3e3	0.052478682
57	0x3d79524e	0.060869507
58	0x3c2a3a6d	0.010389906
59	0xbde685dd	-0.11256001
60	0x3d059c2e	0.032619648
61	0x3d6043ce	0.054752164
62	0xbda7a495	-0.081856884
63	0xbdc0cee8	-0.09414464
64	0x3bfa9c4c	0.0076480266
65	0x3c132863	0.008981797
66	0x3cde26e6	0.027118158
67	0xbda67ecd	-0.08129654
68	0xbdab4920	-0.08363557
69	0x3d6d8d73	0.057996225
70	0x3d983ffe	0.074340805
71	0xbd0a58dc	-0.03377615
72	0x3e08b786	0.13351259
73	0xbdfc7a80	-0.123280525
74	0xbe00cd55	-0.12578328
75	0xbdfff857	-0.12498539
76	0x3c45ec79	0.012080305
77	0x3d33e996	0.043923937
78	0xbdcfe3a5	-0.101508416
79	0x3d925ffb	0.07147213
80	0xbde6c7ae	-0.11268555
81	0x3cb4f25a	0.022088218
82	0xbd8b75ba	-0.06809564
83	0xbe02e800	-0.12783813
84	0x3d8c8a62	0.06862332
85	0x3da79cac	0.0818418
86	0xbc381242	-0.011234822
87	0x3de6b12e	0.11264263
88	0xbdf78239	-0.12085385
89	0x3d5acb7d	0.053416718
90	0x3de2a5f3	0.110668086
91	0xbe02e30f	-0.12781928
92	0x3dd7a47e	0.10529421
93	0xbda22690	-0.079175115
94	0xbda7c1f8	-0.081912935
95	0xbd297bca	-0.04137782
96	0x3d0d30d8	0.03447041
97	0xbcf15ba6	-0.029462647
98	0xbd603e31	-0.05474681
99	0xbd1dd968	-0.038537413

fc_out.bias f4 [2]
0	0x3e047783	0.12936215
1	0xbdb3cfb4	-0.087798506

exp_avg f4 [300, 2]
0	0xb962dbc5	-0.0002163491
1	0xb9667e77	-0.00021981621
2	0x38ded277	0.00010624987
3	0x38d14c51	9.980112e-05
4	0x3970fae9	0.00022981655
5	0x396a8f49	0.00022369357
6	0x389f7dcf	7.6051445e-05
7	0x38bc620c	8.982801e-05
8	0xb8d70d8d	-0.00010254523
9	0xb8dd5707	-0.00010554311
10	0x37cd1332	2.4446843e-05
11	0x369189f8	4.3373984e-06
12	0xb83e008d	-4.5300043e-05
13	0xb84cd2e4	-4.8833797e-05
14	0x37306c9c	1.0515705e-05
15	0x3635aec8	2.7072838e-06
16	0x3880819b	6.1276565e-05
17	0x3887d8d0	6.477686e-05
18	0xb8746714	-5.8270132e-05
19	0xb837b6f9	-4.3801007e-05
20	0x39443260	0.00018710783
21	0x3935de40	0.000173443
22	0xb8a9ba9c	-8.093307e-05
23	0xb8aa3dc4	-8.1177364e-05
24	0x378ec5f1	1.7019893e-05
25	0x378dfeae	1.6927104e-05
26	0x38803b3b	6.114548e-05
27	0x388d986c	6.751795e-05
28	0x391d1054	0.0001497877
29	0x392e8b5a	0.00016645846
30	0x38f34b2f	0.00011601147
31	0x38eab2aa	0.00011191268
32	0xb80ae1fc	-3.311223e-05
33	0xb7f595f0	-2.9276096e-05
34	0xb754b2e5	-1.2677837e-05
35	0xb65d30e1	-3.2960018e-06
36	0xb8a2632e	-7.7432356e-05
37	0xb89df253	-7.53148e-05
38	0x391150c0	0.0001385836
39	0x390f9cb6	0.00013695922
40	0xb9ef8d7c	-0.00045691046
41	0xb9e57e90	-0.0004377258
42	0x39b0d9a5	0.00033731494
43	0x39b7de48	0.00035070092
44	0x3891ccb4	6.952268e-05
45	0x38a9ac81	8.090679e-05
46	0x39aab327	0.00032558406
47	0x39ac5fe8	0.00032877852
48	0x37832733	1.563467e-05
49	0x3881ef31	6.195752e-05
50	0xb9129681	-0.00013979712
51	0xb914b01b	-0.00014179984
52	0xb9a86c65	-0.00032124217
53	0xb9a5e98a	-0.00031645253
54	0x396c605c	0.0002254261
55	0x3961dae4	0.00021539215
56	0x3880a6c4	6.134578e-05
57	0x387c3a2d	6.0135662e-05
58	0xb89a856c	-7.368144e-05
59	0xb8b163de	-8.4586194e-05
60	0x39e06a52	0.00042803824
61	0x39dae7c7	0.00041752888
62	0x379d85fa	1.8778246e-05
63	0x3796c407	1.7972676e-05
64	0x37bb08ef	2.2296297e-05
65	0x379bdabc	1.8579296e-05
66	0x38f2dcfb	0.0001158062
67	0x390004ad	0.00012208773
68	0x37cf7b3b	2.4733707e-05
69	0x37c5cda2	2.3579985e-05
70	0x39864dc0	0.000256164
71	0x398f76bc	0.0002736355
72	0xb83a5501	-4.442502e-05
73	0xb838e799	-4.408471e-05
74	0x388005dc	6.104607e-05
75	0x389e5bc3	7.551119e-05
76	0x3802b6fa	3.1164825e-05
77	0x37c03bf0	2.2916094e-05
78	0x38d453e7	0.00010124576
79	0x38c44a05	9.3597955e-05
80	0x3738e976	1.10216115e-05
81	0x36b03e55	5.252465e-06
82	0x3816545a	3.5841345e-05
83	0x380215be	3.1014664e-05
84	0x380da47d	3.377021e-05
85	0x3817e9ee	3.621907e-05
86	0x38b73a86	8.737021e-05
87	0x38b33a94	8.546296e-05
88	0x3854a623	5.0699466e-05
89	0x38663094	5.4881515e-05
90	0x39bf5ebe	0.00036500947
91	0x39b629ce	0.00034744892
92	0x37e9271b	2.7793974e-05
93	0x37e13caa	2.6850339e-05
94	0x380f9c40	3.4239376e-05
95	0x381a1408	3.6735117e-05
96	0xb9022678	-0.00012412097
97	0xb8e93e09	-0.00011121861
98	0x38e12887	0.00010736385
99	0x38c93942	9.595092e-05
100	0xb92e5c31	-0.00016628277
101	0xb92de89b	-0.00016585218
102	0xb965ea07	-0.00021926324
103	0xb9643e1c	-0.00021766912
104	0xb87b8f7e	-5.99767e-05
105	0xb88326a4	-6.253764e-05
106	0x39584968	0.00020626711
107	0x39579942	0.00020561091
108	0xb735ee02	-1.0843856e-05
109	0xb74b993e	-1.2135422e-05
110	0x38989acc	7.276758e-05
111	0x388f53be	6.8343696e-05
112	0x38505212	4.96675e-05
113	0x385108c2	4.983764e-05
114	0xb7478ccf	-1.1894109e-05
115	0xb7418116	-1.1533752e-05
116	0x38dd276c	0.00010545444
117	0x38c84387	9.549321e-05
118	0x374d5613	1.2238993e-05
119	0x3711eeb0	8.698247e-06
120	0x392b7197	0.00016350146
121	0x3930d03a	0.00016862238
122	0xb86ed129	-5.6938417e-05
123	0xb835dc15	-4.335873e-05
124	0x38b8b983	8.808358e-05
125	0x3900bf79	0.0001227836
126	0xb97ee6bc	-0.00024309283
127	0xb970244e	-0.00022901708
128	0x368feee1	4.2895413e-06
129	0x37cd6049	2.448274e-05
130	0x38c94bed	9.598569e-05
131	0x38c54ec2	9.408362e-05
132	0x39897301	0.0002621636
133	0x3984c10b	0.0002532083
134	0x380f25c5	3.4129032e-05
135	0x379c81ba	1.8657058e-05
136	0x38a6e676	7.9584235e-05
137	0x38a54128	7.8799494e-05
138	0x36a6e88e	4.9742584e-06
139	0x363e8e1b	2.8394923e-06
140	0x399307b7	0.00028043773
141	0x39863176	0.00025595323
142	0x3944dc2e	0.0001877404
143	0x393bce26	0.00017910506
144	0x3981f7b4	0.0002478935
145	0x3981c902	0.0002475456
146	0x394cd105	0.00019532822
147	0x3945a06d	0.00018847147
148	0xb77af578	-1.4958314e-05
149	0xb81b4f75	-3.702888e-05
150	0x3774407e	1.4558549e-05
151	0x380837b4	3.2476804e-05
152	0x3a02ec6f	0.0004994338
153	0x3a0ba90f	0.0005327621
154	0x39630616	0.00021650674
155	0x395ffd6f	0.00021361349
156	0x38918c31	6.9402515e-05
157	0x38b50bf0	8.632976e-05
158	0x3938b75e	0.00017615917
159	0x393fded5	0.00018298191
160	0x39093468	0.00013084861
161	0x390d4511	0.00013472537
162	0xb9a36654	-0.00031166023
163	0xb99d47f1	-0.00029998974
164	0x376f8c36	1.42781555e-05
165	0x3657f23a	3.217849e-06
166	0xb7cd0d81	-2.4444193e-05
167	0xb77a6465	-1.4924536e-05
168	0xb8f20c4f	-0.00011541752
169	0xb8f33d67	-0.0001159858
170	0x389b22ee	7.397482e-05
171	0x3886aa9d	6.421397e-05
172	0xb94320f7	-0.0001860893
173	0xb93e3d26	-0.00018142592
174	0xb7741c03	-1.4550055e-05
175	0xb7fcfc37	-3.0158188e-05
176	0xb8327ad6	-4.2552907e-05
177	0xb84872e5	-4.779072e-05
178	0x38df26c7	0.000106406915
179	0x38c80a17	9.5386225e-05
180	0xb7b8dac1	-2.2036375e-05
181	0xb7f53ec8	-2.923551e-05
182	0xb6a7c18d	-4.99952e-06
183	0xb732b340	-1.0651362e-05
184	0xb95b4d55	-0.00020914276
185	0xb9441868	-0.00018701109
186	0x39b878a0	0.00035185087
187	0x39a2ced4	0.00031053147
188	0x3887dfab	6.478963e-05
189	0x3883a784	6.277769e-05
190	0xb95a7a1b	-0.00020835588
191	0xb94428cf	-0.00018707219
192	0xb780dda0	-1.5361991e-05
193	0xb88f5811	-6.835175e-05
194	0xb95a74c4	-0.00020833599
195	0xb956953a	-0.00020464222
196	0xb8e871a3	-0.000110837886
197	0xb8e4d32f	-0.00010911223
198	0xb937346f	-0.00017471773
199	0xb937cf97	-0.00017529573
200	0x378006b4	1.526191e-05
201	0x378358cd	1.5657768e-05
202	0xb7e95f91	-2.7820266e-05
203	0xb7e5ad25	-2.7379554e-05
204	0xb56a4fa0	-8.728766e-07
205	0xb5a0384e	-1.1937316e-06
206	0x3407c037	1.2642782e-07
207	0xb456c277	-2.0001049e-07
208	0xb6b5f3e6	-5.422614e-06
209	0xb6c791dc	-5.9476424e-06
210	0xb76fa085	-1.4282884e-05
211	0xb740c38e	-1.1489623e-05
212	0xb6d61bf3	-6.3809507e-06
213	0xb6c46944	-5.8535097e-06
214	0x36527011	3.135767e-06
215	0x3651d592	3.1267741e-06
216	0x35af29b1	1.305065e-06
217	0x360e1dc0	2.1176966e-06
218	0x36b46447	5.376092e-06
219	0x36967f9a	4.485203e-06
220	0xb56ff7b3	-8.939489e-07
221	0xb5ed4a0d	-1.7679428e-06
222	0x36cdb24f	6.130234e-06
223	0x36d3d794	6.3133866e-06
224	0x360d1434	2.1022397e-06
225	0x35f424ca	1.8190124e-06
226	0x35279da6	6.2441757e-07
227	0x3440623e	1.7917134e-07
228	0x36ecbd5c	7.0553924e-06
229	0x36f293ac	7.2293533e-06
230	0xb706f329	-8.0436375e-06
231	0xb7005049	-7.648087e-06
232	0xb678d3dc	-3.7078198e-06
233	0xb682b503	-3.8953744e-06
234	0x36fd8794	7.555771e-06
235	0x36f81045	7.39287e-06
236	0xb7753588	-1.4615602e-05
237	0xb75facc2	-1.3332059e-05
238	0xb7cdee17	-2.4548774e-05
239	0xb7cc4b63	-2.43538e-05
240	0x37b257bb	2.1260106e-05
241	0x37abf98c	2.0500993e-05
242	0xb7953528	-1.7786937e-05
243	0xb79b5935	-1.851898e-05
244	0xb80bd3c4	-3.3337405e-05
245	0xb8133bb1	-3.5103123e-05
246	0xb7dddd17	-2.6448206e-05
247	0xb7e3c71b	-2.7153224e-05
248	0x36f8f601	7.4196146e-06
249	0x36a4873f	4.9033256e-06
250	0xb79c888c	-1.8660234e-05
251	0xb79b592a	-1.851896e-05
252	0xb6c25d6f	-5.7925276e-06
253	0xb6b965f0	-5.5252967e-06
254	0xb71911ea	-9.123682e-06
255	0xb71a22f9	-9.187258e-06
