dagster_ais/mlruns/0/beab2cef574c4399949d7ba75d1d7f4d/artifacts/prediction_model/data/model.pth (torch, 157327 bytes, 8 tensors)

weight_ih_l0 f4 [300, 2]
0	0x3dbbef23	0.09176471
1	0xbceaa4cd	-0.028643036
2	0x3d1eea77	0.03879782
3	0x3d0abe9a	0.033873178
4	0x3c444cc0	0.011981189
5	0xbd9016fd	-0.07035635
6	0x3cf5c153	0.02999941
7	0xbd5409cd	-0.05176716
8	0xbdc311c3	-0.09524872
9	0x3d4d3e57	0.05010828
10	0x3b82ae80	0.003988087
11	0xbc4b8a27	-0.012423075
12	0xbd061b6d	-0.032741
13	0xbd79c120	-0.060975194
14	0xbdc8847d	-0.09790895
15	0xbda4da63	-0.080494665
16	0x3db02f93	0.08602824
17	0xbc2ef5b3	-0.010678696
18	0x3dc231d0	0.09482157
19	0x3d86cd75	0.065821566
20	0x3ca3d620	0.019999564
21	0x3c2de467	0.010613537
22	0x3dbd472a	0.09242089
23	0x3dabee08	0.0839501
24	0xbcfc0940	-0.03076613
25	0xbd9ee3a0	-0.0775826
26	0xbdae28a2	-0.08503844
27	0xbdaf0dcb	-0.08547553
28	0x3b9ad5cd	0.004725194
29	0x3d95fc27	0.07323485
30	0xbcddbce0	-0.027067602
31	0x3d1e0067	0.038574602
32	0x3b70099a	0.0036626817
33	0xbd516ada	-0.051127292
34	0xbd5e1970	-0.054223478
35	0xbda3c7b8	-0.07997078
36	0xbdc95a88	-0.098317206
37	0x3ad16067	0.0015974165
38	0xbd8178fb	-0.06321903
39	0x3dbbc5ad	0.09168563
40	0xbbd6bd4d	-0.006553328
41	0x3daf5958	0.08561963
42	0x3d59f930	0.05321616
43	0xbd7b70c3	-0.061386835
44	0x3dcb956d	0.0994061
45	0x3dbfa6e0	0.09358001
46	0xbd7d6fda	-0.061874248
47	0xbd880617	-0.066417865
48	0x3dc34b1a	0.09535809
49	0xbb903ce7	-0.0044017914
50	0xbb222b9a	-0.0024745227
51	0xbc01feb3	-0.00793426
52	0xbcc8a100	-0.024490833
53	0x3b80c0e7	0.0039292458
54	0xbdc34162	-0.09533955
55	0xbd3b0780	-0.04566145
56	0xbd9d8328	-0.07691032
57	0x3cc1a5ba	0.023638595
58	0x3dc169f0	0.09444034
59	0xbd159ea3	-0.03652824
60	0xbc009773	-0.007848608
61	0x3c0de340	0.008660138
62	0x3d85a98b	0.065264784
63	0xbd84effa	-0.064910844
64	0xbd76456a	-0.060124792
65	0xbd3eb0a7	-0.046555188
66	0x3d9c8ff5	0.07644645
67	0x3d9675ad	0.073466636
68	0xbce1f94d	-0.027584696
69	0xbcf14167	-0.029450132
70	0x3d04f5a0	0.03246081
71	0x3da698e3	0.081346296
72	0x3dc6428d	0.09680662
73	0xbd710b6a	-0.058848776
74	0x3d6ef43d	0.058338393
75	0xb9781ccd	-0.00023661852
76	0xbd03e96d	-0.032205034
77	0xbdabee80	-0.083951
78	0xbcee839a	-0.029115487
79	0x3bf5dd9a	0.0075032236
80	0x3d983c22	0.074333444
81	0x3d78a427	0.060703423
82	0x3d9e0535	0.07715837
83	0x3d216787	0.039405372
84	0x3ca5bcb3	0.02023158
85	0x3d8fa743	0.070143245
86	0x3d81a152	0.063295975
87	0x3da84337	0.08215945
88	0xbdae2153	-0.0850245
89	0x3db0695a	0.08613844
90	0x3d1f7bda	0.038936473
91	0xbcdf846d	-0.027284825
92	0x3da45817	0.08024614
93	0x3d11f27a	0.035631634
94	0xbc950d80	-0.018194914
95	0x3d92db17	0.07170694
96	0x3d5e3d33	0.054257583
97	0xbd242ac0	-0.040079832
98	0x3d371aaa	0.044703163
99	0x3d0a5c2a	0.0337793
100	0xbdbea75d	-0.09309266
101	0xbd7c32f3	-0.061572026
102	0x3c60b9c0	0.013716161
103	0xbc973953	-0.018459952
104	0xba8e5933	-0.0010860324
105	0x3c7e7c0d	0.015532506
106	0xbd083a00	-0.033258438
107	0x3d7ba30a	0.061434783
108	0x3c2d8940	0.010591805
109	0xbcc5b1fa	-0.024132717
110	0xbd984b1a	-0.074361995
111	0xbd364da0	-0.044507623
112	0x3da94f7a	0.08267112
113	0x3ca7cb07	0.020482553
114	0x3dc0d94a	0.094164446
115	0xbdc31bc0	-0.09526777
116	0x3db97173	0.09054842
117	0x3ce13ed3	0.027495777
118	0xbdcbcd22	-0.09951235
119	0xbd380553	-0.044926953
120	0xbcde5ff3	-0.027145362
121	0x3d1d0337	0.038333144
122	0xbdbeae20	-0.093105555
123	0x3dc39738	0.09550327
124	0xbdc801c2	-0.0976596
125	0xbdc2ba52	-0.09508194
126	0x39c0b333	0.00036754608
127	0x3d09e893	0.033669066
128	0x3da10aff	0.078634255
129	0x3c19b9a7	0.009382642
130	0xbdaecaaf	-0.085347526
131	0xbd9dcf7f	-0.07705592
132	0xbc06ad27	-0.008219994
133	0xbd86a305	-0.06574062
134	0x3d153600	0.03642845
135	0x3d14be7d	0.036314476
136	0xbdbb9047	-0.09158378
137	0x3c7ff940	0.015623391
138	0xbd121ea0	-0.035673738
139	0xba228400	-0.0006199479
140	0xbd52de6a	-0.05148164
141	0x3d98d2b3	0.07462063
142	0x3d851daa	0.064997986
143	0x3dad5b33	0.084646605
144	0xbd656eda	-0.05601392
145	0xbd7e4d17	-0.062085237
146	0x3d3b2147	0.045686033
147	0xbd0e76fa	-0.034781434
148	0xbda92ef3	-0.08260908
149	0x3cd44820	0.025913298
150	0x3da0643f	0.078316204
151	0xbd6d6520	-0.05795777
152	0xbd0a5d8d	-0.033780623
153	0x3db53762	0.08848454
154	0x3d91a798	0.07112044
155	0x3d87106d	0.0659493
156	0x3d867a80	0.06566334
157	0xbcdab767	-0.026698781
158	0xbc7ead33	-0.015544224
159	0xbd1cc1f0	-0.03827089
160	0x3d9c0b15	0.07619301
161	0x3d040d5d	0.032239307
162	0xbdc4ae6d	-0.096035816
163	0xbdaa376b	-0.083113514
164	0xbcdd4da7	-0.027014567
165	0x3d6eb110	0.05827433
166	0x3da5ee1a	0.08102055
167	0x3d3d106d	0.046158243
168	0xbda97d07	-0.082758
169	0xbdacede3	-0.08443811
170	0x3d54fee7	0.052000906
171	0x3d3608cd	0.044441987
172	0xba9aef9a	-0.0011820674
173	0xbd29b4da	-0.04143224
174	0xbcdbda8d	-0.026837612
175	0x3cb9bc4d	0.022672797
176	0x3cf9e43a	0.030504335
177	0x3cf32513	0.029680764
178	0x3d7c03aa	0.06152693
179	0xbc6a8140	-0.014313042
180	0x3d294193	0.041322302
181	0x3d1add3d	0.037808646
182	0xbc3b62e7	-0.011437154
183	0x3c864107	0.01638843
184	0xbd3c5120	-0.045975804
185	0x3dc438c7	0.09581142
186	0xbdbe9a57	-0.09306782
187	0x3d92d23d	0.07169006
188	0x3d93c70f	0.07215702
189	0x3dbba69b	0.09162637
190	0xbd175270	-0.036943853
191	0xbd64aa07	-0.055826213
192	0x3dbfea65	0.09370879
193	0x3a84b0cd	0.0010123492
194	0xbca41ab3	-0.020032262
195	0x3dcb99c0	0.09941435
196	0xba0e9ccd	-0.0005440235
197	0xbd19c513	-0.03754146
198	0x3d9ad4ea	0.075601414
199	0xbd34af87	-0.04411271
200	0xbdc7dd93	-0.09759059
201	0x3d8a69b5	0.06758443
202	0x3cf6f8da	0.030147959
203	0xbdb697e7	-0.08915692
204	0xbd60ec2a	-0.054912724
205	0xbdcbc8f2	-0.09950437
206	0xbda9b4a5	-0.08286408
207	0xbd0f0a4a	-0.03492192
208	0xba71e267	-0.0009227157
209	0xbc498667	-0.01230011
210	0xbd94ce0a	-0.07265861
211	0x3af3199a	0.0018547059
212	0x3d162413	0.036655497
213	0xbdc23ed0	-0.09484637
214	0xbdca213a	-0.09869619
215	0x3dca2abf	0.098714344
216	0xbd986dd8	-0.07442826
217	0xbce28ad3	-0.027654087
218	0xbd7a072d	-0.061042
219	0x3d5e4f2a	0.054274715
220	0x3c86001a	0.01635747
221	0x3d1de22d	0.038545776
222	0xbd013477	-0.031544175
223	0xbd92c438	-0.07166332
224	0xbd518350	-0.05115062
225	0x3d63f7ca	0.055656232
226	0x3d854e2f	0.06509053
227	0x3c9382cd	0.018006707
228	0x3be23fe7	0.0069045904
229	0xbcea8c40	-0.02863133
230	0xbdcaf065	-0.09909133
231	0x3dca20b2	0.098695174
232	0xbd6bf690	-0.057608187
233	0x3db7bf85	0.08972076
234	0x3bd1a267	0.0063975337
235	0x3d0f6a50	0.035013497
236	0x3d9df89a	0.077134326
237	0x3d426273	0.04745717
238	0x3d39c8f3	0.045357656
239	0x3cf8f093	0.030388152
240	0x3d709910	0.05873972
241	0xbdbcb1c0	-0.092135906
242	0xbb299d00	-0.0025880933
243	0x3da5fe53	0.08105149
244	0x3d95df6b	0.07318004
245	0x3d5c2bad	0.05375259
246	0x3da81b8d	0.0820838
247	0x3d29c840	0.04145074
248	0x3d7a1f8a	0.061065234
249	0xbcca75c7	-0.024714364
250	0x3dbcab8f	0.0921241
251	0xbbb72dcd	-0.0055901767
252	0xbdba4c47	-0.0909658
253	0x3c3eaf73	0.01163851
254	0xbc6b5b27	-0.014364994
255	0xbd92e487	-0.071724944

weight_hh_l0 f4 [300, 100]
0	0xbd5f525a	-0.054521896
1	0xbd9fdc8a	-0.07805736
2	0xbc8df78d	-0.017329955
3	0xbdb64970	-0.08900726
4	0xbc875f2d	-0.016524876
5	0xbd97d133	-0.074129485
6	0xbd5cfb87	-0.053950813
7	0x3d124d13	0.035718035
8	0xbd84136d	-0.06449018
9	0xbd939792	-0.07206644
10	0xbdac7635	-0.08420984
11	0x3d724467	0.059147265
12	0x3d480640	0.048834085
13	0xbdbc2c37	-0.09188121
14	0x3c98acd3	0.018637097
15	0xbd74e7f7	-0.05979153
16	0x3d2009ea	0.039071955
17	0x3c83c480	0.01608491
18	0xbc870420	-0.01648146
19	0xbdae9c1a	-0.08525868
20	0x3dad3fb0	0.08459413
21	0x3d80205d	0.06256173
22	0xbcc60260	-0.024171054
23	0xbdbc8ff2	-0.09207143
24	0xbc737c9a	-0.01486125
25	0x3d856d67	0.065150075
26	0x3d2bd46d	0.041950632
27	0xbdc6de6d	-0.09710393
28	0x3d1ab75d	0.037772525
29	0xb9d53e67	-0.0004067302
30	0x3cfbf553	0.030756628
31	0xbbc8cb1a	-0.006127727
32	0xbbf5cf67	-0.007501531
33	0xbd24d80d	-0.040245105
34	0x3dcc4607	0.09974294
35	0xbd3f1c0d	-0.04665761
36	0xbcbec140	-0.023285508
37	0xbc5e6700	-0.013574362
38	0x3d2502e0	0.040285945
39	0x3db8f112	0.090303555
40	0x3d8bac8d	0.06820021
41	0xbbd59e80	-0.006519139
42	0x3d892b35	0.06697694
43	0xbd8821b8	-0.06647056
44	0x3db9830d	0.09058199
45	0xbc9053c7	-0.017618073
46	0x3c4ec78d	0.012620819
47	0xbdcbdae7	-0.09953862
48	0x3d54084d	0.05176573
49	0x3c4124b3	0.011788535
50	0x3d6d37ed	0.057914663
51	0xbd97e5bd	-0.07416866
52	0x3cfb11a0	0.030648053
53	0xbdb1873b	-0.08668371
54	0x3ab7199a	0.0013969422
55	0x3db6a56a	0.08918269
56	0x3d4dcd77	0.050244775
57	0x3d71072d	0.058844734
58	0xbd81bc43	-0.06334736
59	0xbcca4d67	-0.024695111
60	0x3d826730	0.06367338
61	0x3d683a83	0.056696426
62	0xbd97ac53	-0.07405915
63	0x3ce512e0	0.027963102
64	0xbba5c533	-0.0050589084
65	0xbcde8cfa	-0.027166832
66	0xbc7c7740	-0.015409291
67	0x3c3c8cf3	0.011508214
68	0x3c80ad20	0.015707552
69	0x3ca1d63a	0.019755471
70	0xbdacfa5d	-0.084461905
71	0x3cf4ad0d	0.029867673
72	0x3b0c3333	0.0021392822
73	0x3d84383d	0.06456039
74	0xbd601d9d	-0.05471574
75	0xbdc9c0d5	-0.09851233
76	0x3c975647	0.018473757
77	0x3d91e46b	0.071236454
78	0x3c59c173	0.013290751
79	0xbdb1980f	-0.08671581
80	0xbd18710a	-0.037217177
81	0xbd38583d	-0.045006026
82	0x3d871483	0.06595709
83	0x3b79029a	0.0037995935
84	0xbcb80d27	-0.022467209
85	0xbd399ed7	-0.045317497
86	0xbcd30793	-0.025760448
87	0x3d80d9ed	0.06291566
88	0xba7c34cd	-0.0009620905
89	0xbd0f0807	-0.034919765
90	0x3d8b0b5d	0.06789277
91	0x3d8c28b8	0.06843704
92	0x3d1cf983	0.03832389
93	0x3d982675	0.0742921
94	0xbcf69267	-0.030099107
95	0x3dab7925	0.08372716
96	0xbcb394da	-0.021921564
97	0xbdb87bda	-0.09007998
98	0xbd9ad27f	-0.0755968
99	0xbd21c99a	-0.039498903
100	0xbdaaa7fd	-0.083328225
101	0x3d2b9823	0.041893136
102	0x3ca2a9c7	0.019856347
103	0xbd9d7495	-0.07688252
104	0x3d9e4e65	0.07729796
105	0xbd94c7a2	-0.072646394
106	0xbdb23c10	-0.08702862
107	0xbd11420d	-0.03546338
108	0x3b448167	0.0029984356
109	0xbd6cc2d0	-0.057802975
110	0x3ca20b8d	0.019780898
111	0xbd485d87	-0.04891732
112	0xbdc572d5	-0.09641043
113	0xbd37505d	-0.044754375
114	0xbcc9cffa	-0.024635304
115	0xbd8627e0	-0.06550574
116	0x3d24fe43	0.040281545
117	0x3d2480d0	0.040161908
118	0xbd9e7c1d	-0.077385165
119	0x3d081ae0	0.033228755
120	0x3c91d580	0.017802
121	0x3d0f2f60	0.03495729
122	0xbc23c833	-0.009996462
123	0x3c1a410d	0.009414923
124	0xbd8d525b	-0.06900474
125	0x3d4b7f0a	0.0496817
126	0x3d2e38f3	0.04253478
127	0x3dca921a	0.09891148
128	0x3d907ea7	0.07055407
129	0xbc98ebe7	-0.018667175
130	0xbcdfee8d	-0.02733543
131	0x3dc00655	0.09376208
132	0xbb01839a	-0.0019762279
133	0x3bddbc00	0.006766796
134	0x3d855348	0.06510025
135	0x3d9ab1ff	0.07553481
136	0xbd433cbd	-0.047665346
137	0xbd2adb1d	-0.04171287
138	0xbd9138aa	-0.07090886
139	0xbdc93de5	-0.098262586
140	0x3d32d58d	0.04366069
141	0x3da8f1fa	0.08249278
142	0xbd8115bd	-0.063029744
143	0x3cebd540	0.028788209
144	0x3cd9b560	0.026575744
145	0xbdc3b190	-0.09555352
146	0xbad8b267	-0.001653266
147	0x3cf48327	0.029847695
148	0x3db8fe37	0.09032863
149	0xbd834ea8	-0.06411487
150	0xbda8b825	-0.08238248
151	0x3d8e9448	0.06961876
152	0xbc907560	-0.017634094
153	0x3d04e8da	0.032448627
154	0x3d8ae2ea	0.06781562
155	0x3ce3fb87	0.027829899
156	0xbdcaf8e8	-0.09910756
157	0xbdadec3a	-0.08492322
158	0xbd828453	-0.06372895
159	0x3acdc333	0.0015698433
160	0x3ce79847	0.028270854
161	0xbcf3107a	-0.029670943
162	0xbcf7b613	-0.030238187
163	0xbd68aa13	-0.05680282
164	0xbdbf2577	-0.09333318
165	0x3c7f85e7	0.01559589
166	0xbd45ebe0	-0.04832065
167	0x3d8ab5e7	0.06772976
168	0x3d614210	0.054994643
169	0x3cee58e7	0.029095126
170	0x3ca08540	0.019594789
171	0xbd40a32d	-0.047030617
172	0xbd3e1cea	-0.046414293
173	0xbd31e28d	-0.043428946
174	0xbb944b9a	-0.004525614
175	0x3cea3e4d	0.02859416
176	0xbccc30ba	-0.024925578
177	0xbdb27a85	-0.08714775
178	0x3dcca73d	0.09992836
179	0x3d9496e7	0.07255345
180	0x3da68fa5	0.08132867
181	0xbc65c30d	-0.0140235545
182	0x3cfdc60d	0.030978227
183	0xbd2a975a	-0.041648246
184	0x3d0c4e13	0.034254145
185	0x3ba3209a	0.0049782516
186	0x3d9d4317	0.07678812
187	0xbd43a610	-0.04776579
188	0x3c4e248d	0.012581957
189	0x3d87a26b	0.06622776
190	0x3db42b48	0.08797318
191	0xbcec57da	-0.028850485
192	0x3dc07430	0.09397161
193	0xbdb72f3d	-0.08944557
194	0xbd96551f	-0.07340454
195	0xbc8944e7	-0.016756488
196	0xbd2d49ca	-0.0423067
197	0xbda3e2b5	-0.08002225
198	0xbca87167	-0.020561887
199	0xbd958a2a	-0.07301743
200	0x3c9fcad3	0.019505894
201	0x3d559887	0.052147415
202	0xbcb3f533	-0.021967506
203	0xbd35a053	-0.04434235
204	0xbda765a5	-0.08173684
205	0xbdc464ea	-0.0958956
206	0xbdb4e73a	-0.088331655
207	0xbd9f1d22	-0.077692285
208	0x3c297bb3	0.010344434
209	0xbcd27087	-0.025688423
210	0xbc165a4d	-0.009176803
211	0x3d4eac4d	0.050457288
212	0x3dc8dc9f	0.09807705
213	0x3d6dab3d	0.058024634
214	0xbdb4a6b3	-0.08820858
215	0xbcd9d793	-0.026592052
216	0xbd39f430	-0.04539889
217	0xbd77d467	-0.060505297
218	0xbd0fbb6d	-0.035090853
219	0xbda7c177	-0.08191197
220	0xbdbf2baa	-0.093345
221	0xbdcb39cf	-0.099231355
222	0xbd051a03	-0.03249551
223	0xbd925313	-0.071447514
224	0xbdc278a7	-0.09495669
225	0x3d09baca	0.0336254
226	0x3d5bcdf0	0.053663194
227	0xbd86c5d0	-0.065806985
228	0x3cb343f3	0.021882987
229	0x3dad40fb	0.0845966
230	0x3b85464d	0.0040672184
231	0xbdc5b0ea	-0.09652884
232	0x3c7af55a	0.015317285
233	0xbd450b80	-0.04810667
234	0x3d9b78c7	0.07591396
235	0xbd16408a	-0.036682643
236	0x3dc0546f	0.093911044
237	0x3cc06aa7	0.023488356
238	0xbdab457b	-0.08362862
239	0x3d49dd77	0.04928347
240	0x3cf0c200	0.029389381
241	0xbaa81b33	-0.0012825489
242	0xbc462227	-0.0120931035
243	0xbd1ace6a	-0.037794508
244	0xbd746af0	-0.059672296
245	0x3d074c8d	0.03303199
246	0xbdcc520f	-0.09976589
247	0xbd29fa93	-0.04149873
248	0xbd0eb940	-0.034844637
249	0x3d3b8ba3	0.045787465
250	0xbd420680	-0.04736948
251	0x3ca74727	0.02041967
252	0x3dc1b905	0.09459118
253	0xbdcbae90	-0.099454045
254	0xbd3b830d	-0.045779277
255	0xbd3f256a	-0.04666654

bias_ih_l0 f4 [300]
0	0xbda259af	-0.07927262
1	0x3db23bd7	0.0870282
2	0x3d2d62bd	0.042330492
3	0x3c932287	0.0179608
4	0xbd85fda2	-0.06542517
5	0x3d72dfe7	0.05929556
6	0xbdba8023	-0.091064714
7	0xbd1dcb5a	-0.03852401
8	0xbbd8a0e7	-0.006610978
9	0xbd666a03	-0.056253444
10	0x3d8c3490	0.06845963
11	0x3d88c45f	0.0667808
12	0x3c8e9cc7	0.017408742
13	0x3d8b146b	0.06791004
14	0xbcba150d	-0.022715116
15	0x3dc13fa8	0.094359696
16	0x3dad3773	0.08457842
17	0x3d2fd2a0	0.042925477
18	0x3dc21252	0.094761506
19	0x3d9ebabb	0.0775046
20	0xbd7c22d7	-0.061556663
21	0xba8db8cd	-0.0010812521
22	0x3d246393	0.040134024
23	0x3dbc3bf8	0.09191126
24	0x3cbd2373	0.023088193
25	0xbdc2754b	-0.09495028
26	0x3da19295	0.078892864
27	0xbd4c7463	-0.049915683
28	0x3cab276d	0.020892823
29	0x3d837933	0.06419601
30	0x3af56d9a	0.001872468
31	0x3da20f8f	0.07913124
32	0x3c709d33	0.014685917
33	0x3d86e210	0.06586087
34	0x3d223f60	0.03961122
35	0x3b978580	0.0046240687
36	0x3d65b763	0.056083094
37	0xbd348397	-0.044070806
38	0xbcec83c0	-0.028871417
39	0xbd3a47e0	-0.0454787
40	0x3d251137	0.04029962
41	0x3baddbcd	0.0053057433
42	0xbcad80a0	-0.021179497
43	0x3d8b81c8	0.06811863
44	0xbdbc614d	-0.09198246
45	0xbd466700	-0.048438072
46	0xbca11d9a	-0.019667435
47	0xbd4a9753	-0.04946072
48	0x3d2f6f33	0.042830657
49	0x3dc0e5d2	0.09418835
50	0xbd1b58a3	-0.037926327
51	0xbd409817	-0.047020044
52	0xbd99a747	-0.07502609
53	0x3d47dc87	0.048794296
54	0x3cf446e0	0.029818952
55	0xbd541ac3	-0.051783334
56	0x3c371f1a	0.011176849
57	0x3d8eb4e2	0.069680944
58	0xbd87445f	-0.066048376
59	0x3d35483d	0.044258345
60	0xbd0cd14d	-0.034379292
61	0xbdb0094a	-0.08595522
62	0xbd7cde2a	-0.06173531
63	0x3d4cc843	0.049995672
64	0xbd87d31d	-0.066320635
65	0x3dae6523	0.08515384
66	0xbd6b5d6a	-0.057462133
67	0xbd85eef7	-0.065397196
68	0xbd71f0fd	-0.059067715
69	0x3b821133	0.0039693355
70	0xbd8e260f	-0.06940853
71	0x3dc1a1d2	0.09454693
72	0x3dc766c2	0.09736396
73	0xbdc84513	-0.097788
74	0xbd7c0357	-0.061526623
75	0x3dc7ede3	0.0976217
76	0x3cd4adcd	0.02596178
77	0x3d7c68ed	0.061623503
78	0x3da618f7	0.081102304
79	0xbd669e80	-0.0563035
80	0xbdbf36e3	-0.09336641
81	0x3c4a2b00	0.012339354
82	0x3da4e7c5	0.08052019
83	0x3d8495c5	0.06473879
84	0xbd6ee47a	-0.05832336
85	0x3d4ee8c7	0.050514963
86	0xbd70c75d	-0.058783878
87	0xbc65e140	-0.014030755
88	0x3d422a6a	0.04740373
89	0xbc26760d	-0.010159981
90	0x3d9e0247	0.07715278
91	0xbdae0210	-0.08496487
92	0x3c39e5cd	0.011346293
93	0x3d946db2	0.07247485
94	0xbc8e4887	-0.017368568
95	0xbda3bef2	-0.07995404
96	0x3dc63482	0.09677984
97	0x3b804f33	0.0039156913
98	0xbd66abe0	-0.056316257
99	0x3d96190d	0.07328997
100	0x3c999f80	0.018752813
101	0x3daa858b	0.083262525
102	0x3d9d956b	0.07694515
103	0xbd4ad3b3	-0.0495183
104	0x3d7726da	0.060339786
105	0xbda9b8e5	-0.08287219
106	0x3d3bc830	0.04584521
107	0x3cf6254d	0.030047083
108	0xbd94d3d8	-0.072669685
109	0xbdc15333	-0.09439697
110	0xbd524a10	-0.051340163
111	0xbd5f5b9a	-0.054530717
112	0xbd90cb87	-0.0707007
113	0x3d91ca00	0.071186066
114	0xbc82a85a	-0.015949417
115	0x3d311520	0.043233037
116	0xbdc8dd0a	-0.09807785
117	0x3d340637	0.04395124
118	0xbc03501a	-0.008014703
119	0xbd656160	-0.056001067
120	0xbd93be53	-0.07214036
121	0x3d870b47	0.06593948
122	0xbba20cb3	-0.0049453615
123	0xbd569d27	-0.052395966
124	0x3d06f393	0.032947134
125	0x3d2adefa	0.041716553
126	0xbd4778b3	-0.048699092
127	0xbd89b9b5	-0.06724874
128	0x3d880432	0.06641425
129	0xbcc904e0	-0.024538457
130	0x3cf381cd	0.02972498
131	0xbce8b073	-0.02840445
132	0x3d242d3a	0.040082194
133	0xbcfb3980	-0.030667067
134	0x3d5866f0	0.052832544
135	0x3d8b1915	0.067918934
136	0x3d48ba20	0.049005628
137	0xbd196790	-0.03745228
138	0xbdbb437d	-0.09143732
139	0xbd6b20da	-0.057404377
140	0xbd3d8ec0	-0.046278715
141	0x3c5715b3	0.013127732
142	0xbd8c9f28	-0.06866294
143	0x3ce91ecd	0.02845707
144	0xbd192487	-0.03738835
145	0x3db479f7	0.088123254
146	0xbcae239a	-0.02125721
147	0x3d529f6a	0.05142156
148	0xbd25f47a	-0.040516354
149	0xbdaa128b	-0.08304318
150	0xbdc4a82b	-0.09602388
151	0xbd5e37e3	-0.054252516
152	0x3d9d2020	0.07672143
153	0xbd041453	-0.032245945
154	0xbd956890	-0.07295334
155	0xbdbdb137	-0.09262317
156	0x3d9f8cca	0.07790525
157	0xbdb5b41d	-0.088722445
158	0x3bf193b3	0.0073723434
159	0xbc9c7efa	-0.019103516
160	0x3dc3308f	0.09530746
161	0xbd819a3f	-0.06328248
162	0x3d8f4ac2	0.06996681
163	0xbd96d7da	-0.07365389
164	0xbc8cf7e0	-0.01720804
165	0xbd5c091d	-0.05371963
166	0x3c9df5d3	0.019282257
167	0xbdb3705a	-0.08761664
168	0xbd309233	-0.043108176
169	0xbdc18dfa	-0.09450908
170	0x3d61f13d	0.055161703
171	0xbbc11280	-0.005892098
172	0x3da1ee27	0.07906752
173	0xbd87cfb2	-0.066314116
174	0x3d831f55	0.064024605
175	0xbc9bc373	-0.019014096
176	0xbd9bb5ed	-0.07603059
177	0xbdb37f1a	-0.08764477
178	0xbd2099e0	-0.039209247
179	0x3d081267	0.033220675
180	0xbdaf5488	-0.08561045
181	0x3d06ef8a	0.032943286
182	0xbd74980a	-0.05971531
183	0xbd072a1a	-0.032999136
184	0xbc48f880	-0.012266278
185	0x3c1fe140	0.009758294
186	0x3d33db9a	0.0439106
187	0x3c0b0367	0.008484698
188	0x3d8713f2	0.06595601
189	0xbc87bd4d	-0.016569758
190	0x3cfebfed	0.031097377
191	0xbcf020c0	-0.029312491
192	0xbca6b8ba	-0.020351756
193	0xbd86915a	-0.06570692
194	0x3d9ab190	0.075533986
195	0xbd262980	-0.04056692
196	0xbda4ebe8	-0.08052808
197	0xbd474253	-0.048647236
198	0xba727ccd	-0.0009250164
199	0x3da3f393	0.080054425
200	0x3c087400	0.008328438
201	0xbd8c2f3d	-0.068449475
202	0x3d8eda6f	0.06975257
203	0xbcf6d627	-0.030131413
204	0x3dbb93cd	0.0915905
205	0xbd1c7b20	-0.03820336
206	0x3d12a393	0.035800528
207	0xbd523917	-0.051323976
208	0xbc0eb073	-0.008709061
209	0xbd7cb31a	-0.061694242
210	0xbd865077	-0.06558316
211	0x3a40a267	0.00073484186
212	0xbd6ea4cd	-0.058262635
213	0x3d69cbad	0.057079006
214	0xbd02af27	-0.03190532
215	0xbcc87033	-0.024467563
216	0xbd350757	-0.044196453
217	0x3d80455f	0.062632315
218	0xbbe331cd	-0.006933427
219	0x3dc0023f	0.093754284
220	0xbb90fa80	-0.004424393
221	0xbdafd042	-0.08584644
222	0xbce05c2d	-0.027387703
223	0xbdca34fd	-0.09873388
224	0x3d1162d0	0.035494626
225	0xbcbf9ce7	-0.023390247
226	0xbd89d2f3	-0.067296885
227	0x3dbeb87b	0.093125306
228	0xbdb2fc9a	-0.08739586
229	0xbaa09c67	-0.0012253643
230	0xbda47e93	-0.080319546
231	0xbd943ed7	-0.07238548
232	0x3d7847d0	0.06061536
233	0xbd8478bf	-0.06468343
234	0xbda4221a	-0.08014317
235	0x3cb2e980	0.021839857
236	0xbb4bf59a	-0.0031121732
237	0x3cb72f2d	0.022361362
238	0x3d893df3	0.06701269
239	0xbd9b7f8a	-0.075926855
240	0x3cec92ad	0.028878534
241	0x3ce505b3	0.02795682
242	0xbdb1e468	-0.08686143
243	0x3b981c9a	0.0046420814
244	0xba676f33	-0.00088285207
245	0xbc1de940	-0.009638131
246	0x3d25bb0d	0.04046159
247	0xbb148267	-0.0022660734
248	0xbd7f2cc0	-0.062298536
249	0x3d61dae0	0.055140376
250	0x3d1d3473	0.038380098
251	0x3b04999a	0.0020233155
252	0x3c0fe6f3	0.00878309
253	0x3dc36e85	0.09542564
254	0xbdabafbd	-0.08383129
255	0x3daed185	0.085360564

bias_hh_l0 f4 [300]
0	0x3db96800	0.090530396
1	0xbdb93ab5	-0.090444006
2	0x3da93917	0.08262842
3	0x3da4d218	0.08047885
4	0xbda1c080	-0.078980446
5	0x3d90ea10	0.07075894
6	0xbd8378c3	-0.06419518
7	0x3dc2a77a	0.095046
8	0x3d93f428	0.072243035
9	0xbc60965a	-0.013707722
10	0xbd7ebafa	-0.062190033
11	0xbd09e5e0	-0.03366649
12	0x3c94e5ad	0.018175924
13	0x3dc805ab	0.09766706
14	0x3d5779ad	0.052606273
15	0x3dacee32	0.0844387
16	0xbd440e03	-0.047864925
17	0x3d65da83	0.056116592
18	0xbd49fc47	-0.049312856
19	0x3d893617	0.0669977
20	0xbcd10273	-0.025513863
21	0x3d9bf605	0.07615284
22	0xbd067a77	-0.032831635
23	0x3d53f9ba	0.05175183
24	0x3db38d1a	0.08767147
25	0x3da0961a	0.078411296
26	0x3d93d097	0.0721752
27	0x3da643d7	0.08118408
28	0x3da3c6bb	0.07996889
29	0x3cdbf51a	0.026850272
30	0xbdb06c70	-0.08614433
31	0xbcb28fc7	-0.021797074
32	0x3da83270	0.08212745
33	0xbd2ae9da	-0.041726924
34	0xbd8cd2b8	-0.06876129
35	0x3c744b9a	0.014910603
36	0xbd2bb4f3	-0.041920613
37	0xbd8d817a	-0.06909461
38	0xbcc3246d	-0.02382108
39	0x3bba6700	0.005688548
40	0xbd9519d7	-0.07280319
41	0xbcc9615a	-0.024582554
42	0x3dafa0f2	0.0857562
43	0x3c5e8dda	0.013583625
44	0xbdc5e140	-0.09662104
45	0xbda87448	-0.08225304
46	0x3cece460	0.028917491
47	0x3d4c77d3	0.04991896
48	0x3db523aa	0.08844693
49	0x3cbb666d	0.022875989
50	0xbdb1ac63	-0.08675458
51	0x3db29a4f	0.08720838
52	0xbca1fc67	-0.019773675
53	0xbc20c2e7	-0.009812093
54	0x3d82662f	0.06367146
55	0x3d9b5fe3	0.07586648
56	0xbdbaad77	-0.09115117
57	0xbca1cb4d	-0.019750262
58	0x3b978ab3	0.0046246885
59	0xbc890220	-0.016724646
60	0x3db10638	0.08643764
61	0x3dc3231a	0.095281795
62	0x3dbf4400	0.09339142
63	0xbdad7c92	-0.084710255
64	0xbcecf1ba	-0.028923858
65	0xbcb4b5a7	-0.022059275
66	0x3c73afa7	0.014873422
67	0xbca4947a	-0.02009033
68	0x3ce96133	0.028488731
69	0xbd9f4efa	-0.077787355
70	0x3d6cf773	0.057853173
71	0x3d8a6f2f	0.06759488
72	0xbd671ec0	-0.05642581
73	0x3c6d724d	0.014492583
74	0xbd1cb9ad	-0.03826301
75	0xbda6dae8	-0.08147222
76	0xbbf5ea33	-0.0075047254
77	0x3dc17d9d	0.09447787
78	0x3dbd2707	0.092359595
79	0x3d7d6b00	0.06186962
80	0x3c134e73	0.008990872
81	0xbd1ae787	-0.037818458
82	0xbbeee4e7	-0.007290471
83	0xbd7e2a8a	-0.062052287
84	0x3d73d96d	0.059533525
85	0x3dcc25dd	0.09968159
86	0x3da1d1b7	0.07901328
87	0xbdb8189a	-0.089890674
88	0x3d1ae62d	0.03781717
89	0xbd7b2f13	-0.06132419
90	0x3d821d9d	0.063533045
91	0xbc33f8a7	-0.010984576
92	0xbda8cc27	-0.08242064
93	0xbdc3d09a	-0.09561272
94	0x3d342640	0.04398179
95	0x3c8e4653	0.017367518
96	0x3d6bdb4a	0.057582177
97	0x3a3fb19a	0.00073125365
98	0xbda8d4d8	-0.08243722
99	0x3cf6356d	0.030054772
100	0x3d5aca00	0.0534153
101	0xbc7478c0	-0.014921367
102	0xbdb06db2	-0.08614673
103	0xbc339d27	-0.010962761
104	0x3daeb84d	0.08531246
105	0xbd21d4d3	-0.039509606
106	0x3991299a	0.0002768755
107	0xbbcc4500	-0.0062338114
108	0xbd98e29f	-0.074650995
109	0x3d87ad5b	0.06624862
110	0x3da0c6db	0.07850429
111	0xbcc56620	-0.024096549
112	0xbdb8320f	-0.08993923
113	0xbd5ca4ba	-0.053868033
114	0x3d9753fb	0.07389065
115	0xbd99fffd	-0.07519529
116	0xbda90ad2	-0.08254017
117	0x3d7ed45a	0.062214233
118	0x3cf4e8da	0.029896189
119	0xbc0285a7	-0.0079664355
120	0x3d649ec3	0.05581547
121	0xbdb6373f	-0.08897256
122	0x3cb2137a	0.021737803
123	0xbdbdae12	-0.09261717
124	0x3ca94307	0.020661844
125	0x39e1d19a	0.0004307151
126	0x3d620427	0.05517974
127	0xbae61d9a	-0.0017556429
128	0x39ceb800	0.00039428473
129	0xbc59145a	-0.013249481
130	0xbbd7781a	-0.0065755965
131	0x3d76ea5a	0.06028209
132	0xbc6d0f5a	-0.014468992
133	0xbd05bb97	-0.032649603
134	0x3dbc18b3	0.091843985
135	0x3d19c7bd	0.037544
136	0x3db259e3	0.08708551
137	0xbda71f8b	-0.08160313
138	0x3ce55340	0.027993798
139	0x3b5f1d67	0.0034044625
140	0xbd0f5080	-0.03498888
141	0x3d7a748a	0.061146297
142	0x3d96a055	0.073548
143	0x3d32bd1d	0.043637384
144	0x3da3cea0	0.07998395
145	0xbdbc0b2b	-0.091818176
146	0xbd4b4cf7	-0.049633946
147	0x3d7d59dd	0.06185328
148	0x3d022d43	0.031781446
149	0x3aa50000	0.0012588501
150	0x3d396413	0.045261454
151	0xbdb3d5d5	-0.087810196
152	0x3c7c9c5a	0.0154181365
153	0x3db0ba9a	0.086293414
154	0xbd262a03	-0.04056741
155	0xbdafaf7a	-0.085783914
156	0xbcfb8a93	-0.030705726
157	0x3d849d37	0.06475299
158	0x3d3861b7	0.045015063
159	0xbd20e077	-0.039276566
160	0x3d8deab5	0.069295324
161	0xbcee4a1a	-0.029088069
162	0x3d8a394a	0.06749208
163	0x3d760e6a	0.06007234
164	0xbcacd893	-0.021099364
165	0xbd7081ed	-0.058717657
166	0x3c8d74ad	0.01726755
167	0x3da413b8	0.080115736
168	0x3d18af57	0.037276592
169	0x3d525c6d	0.051357675
170	0x3cd5119a	0.02600937
171	0xbd9888d0	-0.0744797
172	0xbd82b283	-0.06381705
173	0xbd3cb91a	-0.046074964
174	0xbdc75a55	-0.09734026
175	0xbd910218	-0.070804775
176	0xbd0b9233	-0.034074973
177	0xbccb2427	-0.024797512
178	0x3d03cbfd	0.03217696
179	0x3d500ced	0.050793577
180	0xbbf517cd	-0.007479644
181	0xbd33fc4a	-0.043941773
182	0xbdbf131f	-0.09329819
183	0x3d8ccd57	0.06875103
184	0xbcff615a	-0.03117435
185	0x3cb22c1a	0.021749545
186	0x3d98815f	0.074465506
187	0xbc9e48e0	-0.019321859
188	0x3b8941b3	0.00418874
189	0xbd9b3698	-0.07578772
190	0xbd821c5d	-0.06353066
191	0xbdba7722	-0.09104754
192	0x3c92ba6d	0.01791116
193	0x3cd3f14d	0.025871897
194	0xbc696640	-0.01424557
195	0xbd536723	-0.05161203
196	0x3cfb6e67	0.030692292
197	0xbc8e6ffa	-0.017387379
198	0xbd967137	-0.07345813
199	0xbd8b389a	-0.06797905
200	0x3dbc33f2	0.09189595
201	0xbda294d5	-0.07938544
202	0x3d59de90	0.053190768
203	0xbc9a666d	-0.018847669
204	0x3db174bf	0.08664846
205	0xbd4275a7	-0.047475483
206	0xbd87681f	-0.066116564
207	0xbc80d8d3	-0.01572839
208	0xbdc09b40	-0.094046116
209	0x3d09c8e7	0.03363886
210	0xbcda484d	-0.026645804
211	0xbda8e00a	-0.08245857
212	0xbd93fcd7	-0.0722596
213	0x3dbfd83b	0.093674146
214	0x3dbf1b8d	0.09331427
215	0xbdbfaa82	-0.09358694
216	0x3db0fc4b	0.08641871
217	0x3d2847c7	0.041084077
218	0xbd2e751a	-0.042592146
219	0xbc4ae04d	-0.012382579
220	0xbd16f0d7	-0.036850777
221	0x3c6da467	0.014504529
222	0x3d10ea87	0.035379913
223	0xbda2239f	-0.079169504
224	0xbce0efa7	-0.027458025
225	0xbc91e000	-0.017807007
226	0x3d43b587	0.04778054
227	0xbda855d0	-0.082194924
228	0x3d738497	0.05945262
229	0x3d6c6897	0.057716932
230	0x3ca90373	0.020631528
231	0xbdc17323	-0.09445789
232	0xbd3f3770	-0.04668373
233	0xbcce4d13	-0.025183236
234	0x3d772b93	0.06034429
235	0x3d65bc0a	0.05608753
236	0xbcd314ad	-0.025766695
237	0xbbd21433	-0.0064110993
238	0xbd65c983	-0.05610038
239	0xbcf82053	-0.03028885
240	0x3db7365f	0.08945917
241	0xbdaac99b	-0.083392344
242	0xbd9889c8	-0.07448155
243	0x3db03833	0.08604469
244	0xbdc4b558	-0.09604901
245	0xbcd843a7	-0.026399447
246	0xbd2e0d4d	-0.042493153
247	0x3c8fc433	0.01754961
248	0xbda277cb	-0.07933005
249	0x3c3dd5c0	0.0115866065
250	0xbcfbf83a	-0.030758012
251	0x3c47ab00	0.012186766
252	0xbda439e3	-0.080188535
253	0x3db2602a	0.08709748
254	0xbd2bd20a	-0.041948356
255	0xbd9615c0	-0.07328367

weight f4 [50, 100]
0	0x3d30d1fd	0.04316901
1	0xbd4ca0d0	-0.04995805
2	0x3db907dd	0.09034703
3	0xbdca2bc2	-0.098716274
4	0x3ca57413	0.02019695
5	0x3d88c1c2	0.06677581
6	0x3c0753c0	0.008259714
7	0xbd4accb7	-0.049511638
8	0xbd807a52	-0.06273331
9	0xbdc00a03	-0.093769096
10	0xbc4c318d	-0.012462986
11	0x3dc0dde7	0.094173245
12	0x3d80a875	0.06282131
13	0xbce972cd	-0.028497124
14	0x3d91ca3f	0.071186535
15	0xbd01e5d7	-0.031713333
16	0x3d544303	0.05182172
17	0xbbb29f80	-0.005451143
18	0x3d515550	0.05110675
19	0x3d86cf67	0.065825276
20	0xbd218a8a	-0.03943876
21	0xbbcabd00	-0.0061870813
22	0x3d9d9a25	0.07695416
23	0xbc64c68d	-0.013963354
24	0xbb97f833	-0.004637742
25	0xbd8d865b	-0.06910392
26	0x3d958f3f	0.07302713
27	0xbd3883b3	-0.045047473
28	0xbca2a33a	-0.019853223
29	0xbd6c5440	-0.057697535
30	0x3d192590	0.037389338
31	0x3caff93a	0.021481145
32	0x3d095160	0.03352487
33	0x3d01d617	0.031698313
34	0x3d86e712	0.06587042
35	0x3d4b177d	0.049582947
36	0x3d9509db	0.072772704
37	0xbd5b319a	-0.0535141
38	0x3da30a8d	0.07960997
39	0x3d2fe300	0.042941093
40	0x3caa2fcd	0.020774746
41	0x3d09d747	0.03365257
42	0xba479ccd	-0.00076146127
43	0xbdb237ad	-0.087020256
44	0xbca602fa	-0.020265091
45	0x3d2d217a	0.042268254
46	0xbcb12bcd	-0.021627331
47	0xbd9e57ad	-0.077315666
48	0x3ca284e7	0.019838763
49	0xbd1c81f0	-0.038209856
50	0x3d43fb9a	0.047847368
51	0xbdc72018	-0.09722918
52	0x3db17437	0.08664744
53	0xbc161c00	-0.009161949
54	0xbd77afda	-0.06047044
55	0x3d6fca4a	0.058542527
56	0xbd0760fd	-0.03305148
57	0x3d91c793	0.07118144
58	0x3db7c727	0.08973532
59	0xbb9f0a80	-0.0048535466
60	0x3d609040	0.054825068
61	0xbc706acd	-0.014673901
62	0xbd162950	-0.036660492
63	0xbd95cf17	-0.0731489
64	0x3cb630a0	0.022239983
65	0xbc25d99a	-0.010122681
66	0xbd2cc93d	-0.042184103
67	0xbd99db6f	-0.07512557
68	0xbd0ae0a3	-0.033905637
69	0xbc5dbf67	-0.013534403
70	0x3d7c6c40	0.061626673
71	0x3c8dbc5a	0.017301727
72	0xbc7656a7	-0.015035308
73	0xbdc88ced	-0.097925045
74	0x3da89168	0.08230859
75	0xbd2ff1f3	-0.04295535
76	0xbc99adba	-0.018759597
77	0x3c837acd	0.016049767
78	0x3d12088d	0.035652686
79	0xbd459b0d	-0.04824357
80	0x3dadda62	0.08488919
81	0xbdc152fb	-0.094396554
82	0x3dada193	0.084780835
83	0xbbc9341a	-0.006140244
84	0x3d17c0e0	0.037049174
85	0xbb250833	-0.002518189
86	0xbc1b599a	-0.009481812
87	0x3dc9def7	0.0985698
88	0xbd961a9f	-0.07329296
89	0x3d17eb6a	0.037089743
90	0x3d5accc0	0.05341792
91	0x3d59bd13	0.05315883
92	0xbcaa684d	-0.020801688
93	0x3db1a4b8	0.08673996
94	0xbd9813c5	-0.07425646
95	0x3cbb5453	0.022867357
96	0xbad68a00	-0.0016368032
97	0x3c8b813a	0.017029393
98	0x3d4eb62d	0.050466705
99	0xbbf26733	-0.007397556
100	0x3c37c1e7	0.0112156635
101	0xbdc4877d	-0.09596155
102	0xbdb0b290	-0.08627808
103	0x3d9f9fe0	0.077941656
104	0xbc2c665a	-0.010522449
105	0x3d4aacd3	0.049481224
106	0x3db8a1e8	0.09015256
107	0x3ce4e04d	0.027938986
108	0xbbe80967	-0.007081199
109	0x3d4d0883	0.050056946
110	0xbcf197cd	-0.02949133
111	0xbcdd2b4d	-0.026998186
112	0x3dba8fea	0.09109481
113	0x3d4952cd	0.04915123
114	0xbda532d5	-0.08066336
115	0x3c418467	0.011811352
116	0xbd0f1583	-0.034932625
117	0xbda39ba3	-0.0798867
118	0xbd36ed6a	-0.04466001
119	0xbd6540d7	-0.05597004
120	0x3d7ff63d	0.06249069
121	0xbd9dd03a	-0.07705732
122	0x3c1db380	0.009625316
123	0x3d0b2613	0.033971857
124	0xbd837caa	-0.06420262
125	0x3d3d8f8d	0.04627948
126	0x3d49e2e7	0.049288657
127	0x3d614b00	0.055003166
128	0x3ccc7800	0.024959564
129	0x3d48ea87	0.049051788
130	0x3d266573	0.040624093
131	0xbbfcc19a	-0.007713509
132	0xbd1c6e87	-0.038191345
133	0xbd71657d	-0.058934677
134	0xbd95cce2	-0.07314469
135	0xbd8f5117	-0.069978885
136	0x3d13ccbd	0.036083926
137	0x3da315d8	0.07963151
138	0x3cededb3	0.029044008
139	0xbd1524c7	-0.036412027
140	0xbbad1667	-0.0052822116
141	0xbdb3dedb	-0.08782741
142	0xbd81af32	-0.06332244
143	0xbc340e40	-0.010989726
144	0x3dbbbd45	0.0916696
145	0xbd9e363b	-0.077251874
146	0x3d2d05fa	0.042242028
147	0xbdbe83e5	-0.09302501
148	0xbd999e7b	-0.07500931
149	0x3b4f1a9a	0.003160155
150	0x3ced719a	0.028984834
151	0xbcc20b47	-0.023687018
152	0x3d7f7f07	0.062377002
153	0x3d611f0d	0.054961253
154	0x3c8841a7	0.016632868
155	0x3d5bb687	0.05364087
156	0x3d1f9be7	0.03896704
157	0x3d00df3a	0.031462885
158	0xbd1b2fa3	-0.037887227
159	0x3ca7909a	0.020454694
160	0x3c2a075a	0.010377729
161	0xbd1e9487	-0.038715865
162	0xbc890d33	-0.016729927
163	0xbd39aa33	-0.04532833
164	0x3d6f2fd3	0.058395218
165	0xbdc46d1d	-0.09591124
166	0x3d49d5e0	0.049276233
167	0xbd88c953	-0.066790245
168	0xbdba297d	-0.090899445
169	0xbdbeef6b	-0.09323009
170	0x3d23bbc7	0.039974
171	0x3d2436cd	0.040091325
172	0x3da6f193	0.081515454
173	0x3da3080d	0.0796052
174	0x3db3f3b7	0.08786719
175	0x3da691ab	0.08133253
176	0xbcb40f93	-0.021980083
177	0xbd6ebc2d	-0.058284927
178	0xbd92aac0	-0.07161474
179	0x3b45f7cd	0.0030207515
180	0x3d74e7c3	0.059791338
181	0x3dbf4635	0.09339563
182	0x3d07cb23	0.03315271
183	0xbdb657ef	-0.08903491
184	0xbceb3dda	-0.028716017
185	0xbd59c9da	-0.053171016
186	0xbdb8cb68	-0.09023172
187	0x3db3b0b5	0.087739386
188	0x3b885e9a	0.004161668
189	0xbc84a00d	-0.0161896
190	0xbbe8e2e7	-0.007107127
191	0xbcd946d3	-0.02652303
192	0xbda4ed02	-0.08053018
193	0xbd24821d	-0.04016315
194	0xbbdd684d	-0.0067568184
195	0x3d04ba40	0.032404184
196	0x3c97bb00	0.018521786
197	0x3c4c8f4d	0.012485337
198	0xbd17a317	-0.03702077
199	0x3d85f920	0.065416574
200	0xbca4dd7a	-0.02012514
201	0x3aa7bb33	0.0012796879
202	0x3dacb21f	0.084324114
203	0x3d78faa0	0.06078589
204	0xbd5c81ba	-0.053834654
205	0xbd90141d	-0.07035086
206	0x3d7ec29a	0.062197305
207	0xbdcb329a	-0.09921761
208	0xbd94941d	-0.07254813
209	0xbc75805a	-0.014984215
210	0xbcdbaa60	-0.02681464
211	0xbd5deaf7	-0.054179158
212	0x3d16acb7	0.036785807
213	0x3cee40cd	0.029083634
214	0x3d9fc1cb	0.07800635
215	0x3d338a1a	0.043832876
216	0x3d659c33	0.056057166
217	0x3c931727	0.017955376
218	0xbd5cf5fd	-0.05394553
219	0xbbb96900	-0.005658269
220	0x3ccb1053	0.024788057
221	0x3b510767	0.0031895281
222	0x3d467ffd	0.048461903
223	0xbd3e614a	-0.0464795
224	0x3daa7a1a	0.0832407
225	0x3da3759f	0.07981419
226	0xbce673a0	-0.028131306
227	0x3daa9f70	0.083311915
228	0xbc2b1527	-0.010442055
229	0xbd65dec7	-0.05612066
230	0xbd1a53ea	-0.037677683
231	0x3dbd0f3a	0.0923142
232	0x3d5be1fd	0.053682316
233	0xbd9c480b	-0.076309286
234	0x3d8e1f20	0.069395304
235	0x3c1ff35a	0.009762609
236	0xbc39399a	-0.011305237
237	0x3dc91643	0.09818699
238	0x3d816cdd	0.06319592
239	0xbc94ab7a	-0.018148173
240	0x3d80df08	0.0629254
241	0x3c7495da	0.0149283055
242	0xbd882475	-0.066475786
243	0xbbda78cd	-0.0066672326
244	0xbd831e3f	-0.06402253
245	0x3aad3c67	0.0013216854
246	0x3c39c05a	0.011337364
247	0xbd03d803	-0.032188427
248	0xbccd16e7	-0.025035335
249	0xbd971d35	-0.07378618
250	0xbd8a0fad	-0.06741271
251	0xbc2514e7	-0.010075784
252	0x3d96f76b	0.0737141
253	0xbd6b718a	-0.057481326
254	0x3d382cc7	0.044964578
255	0x3dbff71f	0.093733065

bias f4 [50]
0	0x3d3ca2a0	0.04605353
1	0x3d8ab33b	0.06772467
2	0xbdc7de35	-0.097591795
3	0xbd9c5022	-0.076324716
4	0xbdbf3978	-0.09337133
5	0xbd0b0ec0	-0.033949614
6	0x3dacfe65	0.084469594
7	0xbd60ec13	-0.054912638
8	0x3ca0e32d	0.019639576
9	0x3d1319a0	0.03591311
10	0xbcfb18ed	-0.030651534
11	0xbdb6908d	-0.089142896
12	0xbb0b5c00	-0.0021264553
13	0xbda8fe95	-0.08251683
14	0xbd87170d	-0.065961935
15	0x3aa28800	0.001240015
16	0xbd58965d	-0.052877773
17	0xbcfbd333	-0.030740356
18	0xbd6d2a07	-0.05790141
19	0x3dc8d90f	0.09807026
20	0x3be59833	0.007006669
21	0xbd260fda	-0.04054246
22	0x3d6560f3	0.05600066
23	0xbdaa0342	-0.08301403
24	0xbd9da4ca	-0.07697447
25	0xbdbe15c8	-0.09281498
26	0xbdaf3213	-0.08554473
27	0x3d0ae37d	0.033908356
28	0x3cbad7da	0.022808004
29	0x3d606667	0.05478516
30	0x3dae6d98	0.08516997
31	0x3d64cc7a	0.055859067
32	0x3cdba68d	0.026812816
33	0xbdb04903	-0.08607676
34	0xbd9422d5	-0.07233206
35	0x3d957f1a	0.07299633
36	0xbd80f488	-0.06296641
37	0x3b8d47e7	0.00431155
38	0x3d761410	0.060077727
39	0x3dc44807	0.095840506
40	0x3da9a21a	0.082828715
41	0xbcbc31f3	-0.022973036
42	0xbdc2eb20	-0.09517503
43	0xbc5a2867	-0.013315297
44	0x3cc4cb67	0.024022771
45	0xbd2a028a	-0.041506328
46	0x3d90925a	0.07059164
47	0x3cbe4a6d	0.023228848
48	0x3dacf8eb	0.08445915
49	0x3c946c93	0.018118178

weight f4 [2, 50]
0	0x3d9f0514	0.077646405
1	0x3d25817d	0.040406693
2	0x3da3dd41	0.08001185
3	0x3dbe04f2	0.09278287
4	0xbd5f1e20	-0.05447209
5	0x3d101bc3	0.035182726
6	0xbdb8b15c	-0.090182036
7	0x3de49f7f	0.11163234
8	0xbc504c33	-0.01271348
9	0xbc009e92	-0.007850306
10	0x3df0bd09	0.117548056
11	0xbd6e7cd2	-0.058224507
12	0x3defe465	0.11713485
13	0x3dd4ebda	0.103965476
14	0x3da01fde	0.07818578
15	0xbdd46e98	-0.103726566
16	0x3d9036e1	0.07041717
17	0x3b4f6fb9	0.0031652285
18	0x3e094fdc	0.1340937
19	0x3c8b8ef6	0.017035943
20	0x3c7f10dc	0.015567984
21	0xbd8c0c15	-0.06838242
22	0x3cbd8f02	0.02313948
23	0x3de8fbe5	0.1137617
24	0xbde3afd9	-0.11117525
25	0xbdff8c44	-0.124779254
26	0x3d1d7c11	0.038448397
27	0x3ddf32a9	0.108983345
28	0xbc2494d1	-0.010045246
29	0x3de61ab8	0.11235565
30	0x3d45442c	0.048160717
31	0xbdb2c582	-0.08729078
32	0xbd450386	-0.048099063
33	0xbda14ab5	-0.07875577
34	0xbd89328b	-0.066990934
35	0xbda143e4	-0.07874277
36	0x3ce907e1	0.02844614
37	0x3b91a9fc	0.0044453125
38	0xbd8b184f	-0.06791746
39	0x3d1869bb	0.037210207
40	0x3d7d367f	0.06181955
41	0x3e0b4d46	0.13603696
42	0x3c246b19	0.0100353
43	0x3d1dc3c9	0.038516793
44	0xbd6787e3	-0.056526076
45	0x3d733baf	0.05938309
46	0x3d8ac243	0.06775334
47	0x3adc63c5	0.0016814402
48	0x3dcdd0c2	0.10049583
49	0xbafdf1b4	-0.0019374401
50	0xbdc527ef	-0.09626757
51	0x3d419543	0.047261488
52	0x3be54421	0.006996647
53	0xbd892dd1	-0.06698192
54	0xbde1be7d	-0.11022661
55	0xbdd37fae	-0.10327087
56	0xbd5ec4b2	-0.054386802
57	0x3df11434	0.117714316
58	0x3df21bb3	0.118216895
59	0x3cbd4bba	0.023107398
60	0xbd8224e5	-0.06354693
61	0x3dc8a374	0.09796801
62	0x3d59888d	0.05310874
63	0xbd9a64f5	-0.07538787
64	0xbd8dd61a	-0.06925602
65	0xbaa31f77	-0.001244529
66	0xbdca4689	-0.09876735
67	0xba820068	-0.0009918334
68	0x3e108c1d	0.14115949
69	0x3ce91f0a	0.028457183
70	0x3c98168a	0.018565435
71	0xbe0d4fba	-0.13799945
72	0x3dc654af	0.09684121
73	0xbd1a6026	-0.03768935
74	0x3e02e457	0.12782417
75	0xbde9bb12	-0.11412634
76	0x3da92c79	0.082604356
77	0x3bc26214	0.005932102
78	0xbd0a7e95	-0.033812124
79	0x3d8575f4	0.065166384
80	0xbc1cc5f8	-0.009568684
81	0x3e01a1fa	0.12659445
82	0x3c60b24a	0.013714382
83	0x3cd509a1	0.026005568
84	0x3d1553b7	0.03645679
85	0xbdca846d	-0.098885395
86	0x3d52b2bf	0.051439997
87	0xbdd7e072	-0.105408564
88	0x3e08a91f	0.13345765
89	0xbd1cd6ec	-0.038290903
90	0x3d979e2e	0.07403217
91	0x3d870018	0.06591815
92	0x3cb478ce	0.02203026
93	0xbcefa3c6	-0.029252898
94	0xbc9a7a39	-0.018857108
95	0xbd46a9dd	-0.048501838
96	0xbd315806	-0.043296836
97	0x3d4e7790	0.050406992
98	0xbd963947	-0.073351435
99	0x3decf504	0.115701705

bias f4 [2]
0	0x3d0679a3	0.032830846
1	0xbd8bab6c	-0.068198055
