test_dagster/mlruns/0/3d93246a68314b53b1cea4771e5983b1/artifacts/prediction_model/data/model.pth (torch, 155663 bytes, 8 tensors)

weight_ih_l0 f4 [300, 2]
000000 60 57 ad bd 72 a6 98 3d f3 06 82 bd 33 de 57 3d
       -0.08463931 0.07453622 -0.06348982 0.05270214
000010 33 64 8d bb cd 98 e4 bc bd 72 95 3d e8 d7 c9 bd
       -0.004314923 -0.027904892 0.07297275 -0.09855634
000020 80 ce 40 bd 3d 51 14 bd a0 52 4f bd 40 ff 86 bd
       -0.047071934 -0.036210287 -0.050615907 -0.06591654
000030 fa 9e 03 bd 50 f1 5c bd d3 b9 b8 3c 1a 75 f9 3b
       -0.032134034 -0.05394107 0.022549545 0.0076128365
000040 cd d1 13 bc ba ee 1f bd 0f c0 8b 3d ba 9b 70 bd
       -0.009022188 -0.039046027 0.06823742 -0.058742262
000050 b3 b6 9b bb 80 00 9e bc 8d 04 45 bc 57 08 44 bd
       -0.004752004 -0.019287348 -0.012025011 -0.047859516
000060 17 9d 54 bd 1a 00 ba bd 5a d3 27 bc 72 f2 a5 3d
       -0.051907625 -0.090820506 -0.010243261 0.081028834
000070 40 81 a4 3c db 9b ab 3d 73 ee 3e 3d 33 79 a1 3a
       0.020081162 0.083793364 0.04661412 0.0012319445
000080 9d ef 83 3d e5 b8 c5 3d 90 f4 08 3d df 35 89 3d
       0.06442187 0.096544065 0.033436358 0.06699728
000090 60 40 90 bc cd 5c 0d b9 17 2d 4f 3d 13 bc 96 bc
       -0.017608821 -0.00013481379 0.05058011 -0.018400228
0000a0 15 c6 89 3d 67 64 ad bd cd ed b2 3b 0d d5 38 3d
       0.06727234 -0.08466416 0.005460477 0.045125056
0000b0 35 0c a7 3d 00 d4 ab 3a 9a 18 2b 3d 57 dd 12 3d
       0.08156625 0.0013109446 0.04177151 0.035855617
0000c0 3a de 38 3d 5d 26 5c bd 07 db 59 bd 75 89 a2 bd
       0.045133807 -0.053747524 -0.053187396 -0.07936374
0000d0 77 d0 81 bd fb fe c4 3d 9f 9f c0 3d 43 f0 31 3d
       -0.0633859 0.09618946 0.09405445 0.043442022
0000e0 2d 5f ba 3d ad bf 2a 3d b7 0c 7e 3d ef b9 98 bd
       0.091001846 0.041686703 0.062023845 -0.07457339
0000f0 50 e9 5e 3d d3 01 4d bd 40 8b 0b 3d 0d 4e 9b bd
       0.054421723 -0.050050568 0.034068346 -0.075832464
000100 e2 9f a4 bd 1a b4 c5 3b 00 1f 1c 3d cd 68 a3 3a
       -0.08038308 0.0060334327 0.0381155 0.0012467146
000110 dd b9 ad bd 63 78 75 3d 00 1d b9 3c 9a 99 f4 bc
       -0.08482716 0.059929263 0.022596836 -0.0298584
000120 18 2f b0 bd ba d5 b6 bd 3b b3 ba bd b3 19 ed bc
       -0.086027324 -0.08927484 -0.09116217 -0.028942918
000130 73 86 9a 3d a2 4e ca 3d 0a 06 00 3d 4f 97 a9 3d
       0.075451754 0.09878279 0.03125576 0.08280813
000140 87 54 c5 bc 50 af 0e 3d 00 50 5a bd e7 83 13 bc
       -0.024088157 0.03483516 -0.05329895 -0.009003616
000150 8d f3 f7 3c 6d f0 e1 3c 60 3b 6e bd dd e3 a0 3d
       0.030267501 0.027580464 -0.058162093 0.078559615
000160 9a ec fa 3c 55 c6 9d bd 57 43 b0 3d e7 f4 8d bc
       0.030630399 -0.077038445 0.08606594 -0.017328693
000170 fa 0a 9c bd d3 9e e7 bc 47 a1 d8 3c 27 de b5 3c
       -0.07619281 -0.028273975 0.02644409 0.022200657
000180 67 93 e9 bc c0 cc 77 bd 57 f2 b1 3d 1a 3a 41 3d
       -0.02851267 -0.060498 0.08688801 0.04717455
000190 5d 36 2a 3d a3 ae 12 3d c2 9f a3 bd 1d 66 c0 bd
       0.04155575 0.035811078 -0.07989456 -0.093944766
0001a0 e2 3e a4 bd 27 31 04 bd 83 50 45 3d 27 55 36 bc
       -0.080198064 -0.032273438 0.048172485 -0.0111287
0001b0 3a 3c d6 bc 73 f8 bf bd 8d 44 91 3d cd 42 90 bc
       -0.026151765 -0.0937356 0.07093153 -0.017609978
0001c0 4f 8d 88 3d 8d 3f 4b bd 3f 6b bd 3d e0 2e 1b bd
       0.066675775 -0.049621154 0.09248971 -0.0378865
0001d0 3d 3c b1 3d c8 fa ab 3d 9a f9 36 3d b3 0c d4 3c
       0.08654068 0.08397442 0.044671632 0.025884962
0001e0 80 ca a7 3b cb 45 b5 3d b3 b3 c0 bd 28 2a 92 3d
       0.0051205754 0.088512026 -0.09409275 0.07136947
0001f0 00 01 57 bd b0 fb 92 bd 67 76 f1 3b 67 a5 4c bc
       -0.052491188 -0.07176912 0.007368851 -0.012490607
000200 f0 c1 56 bd c7 ae 9b 3c 57 79 82 3d 5a 40 70 3d
       -0.052431047 0.019004239 0.063708 0.05865512
000210 02 ee ba 3d ea 9d 12 bd 97 3d b7 bd 40 60 27 bd
       0.09127428 -0.03579513 -0.08947294 -0.040863276
000220 da db f7 bc 33 9e 2c 3c f0 f7 c1 3d 77 bb b3 3d
       -0.0302562 0.0105357645 0.094711185 0.087759905
000230 9a 28 0b 3c fa 56 44 bd 2d 16 9c 3c 5b 5a a6 3d
       0.008493567 -0.04793451 0.019053543 0.08122703
000240 2a e9 70 3d 4a b5 67 3d 72 f0 b2 3d 03 ec 3a 3d
       0.058816113 0.056569375 0.087372676 0.045635235
000250 c0 c4 90 bc e7 f1 a3 bb 40 ca 6a 3c 9a 5e 26 3d
       -0.017671943 -0.0050032022 0.014330447 0.040617563
000260 63 e0 b8 3d c2 eb bb 3d ed fb f7 bc e0 27 60 bd
       0.09027173 0.091758266 -0.030271495 -0.054725528
000270 ab 02 c3 bd 8d 50 80 bd 67 e3 a3 bb 73 a3 5e 3d
       -0.09521993 -0.06265364 -0.0050014737 0.054355096
000280 d2 b1 a7 3d 5a 96 5c bd f7 05 39 bd d2 87 a4 bd
       0.081882134 -0.053854324 -0.045171704 -0.08033718
000290 23 96 74 bd dd bb cb bd 47 07 b2 bc 60 a9 cc bd
       -0.059713494 -0.099479415 -0.021731986 -0.09993243
0002a0 65 44 97 3d ba ec 5e 3d 4d 8d c1 3c 40 7e bd bd
       0.07386092 0.05442498 0.023626948 -0.09252596
0002b0 9a 91 31 ba 9a f3 2c bd c5 a4 9b bd e0 cc dc bc
       -0.00067737105 -0.042224504 -0.07599787 -0.02695316
0002c0 67 f1 7d bd 80 b6 37 3d b3 b2 c9 3b 7a db 9e bd
       -0.061997797 0.04485178 0.006155336 -0.077567056
0002d0 a0 94 7b bd 13 fa 91 3c e0 a7 00 3d 33 20 f4 3b
       -0.061421037 0.01781944 0.031410098 0.0074501275
0002e0 1a 8e 84 3b 23 5e 4f 3d c7 26 3d bd 9d 38 78 bd
       0.00404526 0.050626885 -0.04617956 -0.060600866
0002f0 40 c9 90 3c 13 7d d5 bc 63 9d 56 bd 43 8b 19 bd
       0.017674088 -0.026060617 -0.05239619 -0.037486326
000300 52 fc bb 3d e0 54 5e 3d 33 7e 77 bd 0a 06 7a bd
       0.09178986 0.05428016 -0.060423087 -0.061040916
000310 13 63 46 3d fd 16 bd bd cd 8e 59 bb 85 0c 99 bd
       0.04843433 -0.092329 -0.0033196688 -0.07473091
000320 63 26 b2 3d 77 42 08 3d 73 00 5f 3c da 0d a4 3c
       0.08698728 0.03326651 0.013610947 0.020026136
000330 25 f7 ad 3d 33 33 0b 3c 85 d9 b4 3d 67 d2 91 bc
       0.08494405 0.008496094 0.08830551 -0.017800523
000340 43 39 0e bd 52 69 b8 bd 27 ca 7d 3c e7 01 e9 3c
       -0.034722578 -0.09004463 0.015490091 0.02844329
000350 80 46 72 bc b0 3d 05 3d 32 bf c7 3d cd de 81 bb
       -0.014787316 0.032529533 0.097532645 -0.0039633275
000360 8f df 85 bd 3a bc 54 bd 80 6d 2b bc f7 36 02 3d
       -0.06536781 -0.05193732 -0.010463119 0.0317907
000370 d7 0b 38 3d 22 ec ac bd 4d ac 96 3d 6b ba 97 bd
       0.044933166 -0.08443476 0.073570825 -0.07408603
000380 f7 98 08 bd 9a 41 e4 3c 9d c4 6b bd 25 36 9e 3d
       -0.033349004 0.027863313 -0.057560552 0.07725171
000390 58 46 bc bd 80 53 cf 3c 90 13 14 bd 3d e4 ab bd
       -0.091931045 0.02530837 -0.03615147 -0.08393142
0003a0 c0 38 42 bd fd 16 72 bd c7 8b 29 bd 33 86 a1 3b
       -0.047417402 -0.059103955 -0.041393068 0.004929328
0003b0 f3 04 b1 bc 33 4e 61 bb e7 02 10 3c a0 04 dc 3c
       -0.021608805 -0.0034378886 0.0087897545 0.026857674
0003c0 67 8a 97 bd 6d 9f 8c bc 5b d0 86 bd b8 ab b4 3d
       -0.07399445 -0.017165864 -0.065827094 0.08821815
0003d0 f3 e9 08 bd 7d 85 82 3d 00 41 9e bc 1d 2e 4b bd
       -0.033426236 0.06373117 -0.019318104 -0.049604524
0003e0 03 be 10 3d b0 ff 94 3d dd a1 78 3d c0 da 97 3c
       0.03533746 0.07275331 0.06070124 0.018536925
0003f0 2a 16 6c bd ea 6d b1 3d c0 c8 5e bc a5 d5 8c bd
       -0.057638325 0.086635426 -0.013597667 -0.06876687

weight_hh_l0 f4 [300, 100]
000000 8d 08 7d bc 70 12 89 bd 18 85 95 bd 80 17 94 bc
       -0.015443933 -0.0669297 -0.07300776 -0.018077612
000010 cd 2c 09 b9 88 51 9d 3d 8d 0c 07 bd 20 ec 30 bd
       -0.00013082028 0.076815665 -0.032970954 -0.043193936
000020 60 b9 c5 bc 9a 65 92 bb a7 44 6b bc 53 b9 df 3c
       -0.024136245 -0.0044676783 -0.01435963 0.02731005
000030 05 f2 a1 bd 60 62 bf bd 48 9d bf 3d 67 42 4c bc
       -0.0790749 -0.093449354 0.09356171 -0.012467003
000040 47 a6 bb bd 30 e7 7d 3d 33 b4 17 3c 5f 5b 9d 3d
       -0.09162574 0.061988056 0.009259271 0.07683443
000050 e8 37 bb bd 50 58 08 bd 2f 9f 9a bd 60 7d eb 3c
       -0.09141523 -0.033287346 -0.07549893 0.028746307
000060 e7 7e 62 3c 4d bc 8a bd df c9 a0 3d 80 55 4c bd
       0.013824201 -0.06774197 0.07851004 -0.049886227
000070 9a 62 f2 3c ea 6d 66 3d 33 5d b6 bd af b3 96 3d
       0.029588033 0.056257166 -0.08904495 0.07358491
000080 c0 c4 fa 3c 9b e8 ca bd fd 44 94 bd 9b a5 b9 bd
       0.030611396 -0.09907647 -0.07239721 -0.0906479
000090 9a 74 af bd 67 35 e9 bb c7 2e bf 3d 6d 1f 5d 3d
       -0.08567162 -0.0071169618 0.09335094 0.053985048
0000a0 4d 9f 2f 3d b3 ae a3 bd 33 8d 6b bd cd c3 17 bc
       0.04287653 -0.079923056 -0.057507705 -0.009262991
0000b0 dd be a5 3d 23 5c c1 bd ad 46 2f 3d 4d 0c 5b bd
       0.08093045 -0.09441402 0.04279201 -0.053478528
0000c0 87 c9 bc 3c 27 1b cc bc c3 53 94 bd 6a a5 3a bd
       0.023045314 -0.024915291 -0.07242539 -0.045567907
0000d0 e0 65 94 bd b3 0d eb 3b a0 33 1c 3d a7 ee 1a 3c
       -0.072459936 0.007173264 0.03813517 0.009456313
0000e0 1a 49 51 3c da 7d 18 bd 6d 83 cf bc 3d 4a 5a bd
       0.012773776 -0.037229396 -0.025331223 -0.053293455
0000f0 4d 86 1f bd ea 84 8e 3d 1f 37 c0 3d 37 23 34 3d
       -0.03894644 0.06958945 0.093855135 0.043978896
000100 1a 1f bb 3b 33 91 88 bc 23 4f 96 3d cd 2e b6 3b
       0.0057104947 -0.016670799 0.07339313 0.0055597783
000110 d8 3f 87 3d bd 51 3b bd cd 1c 5f bd 00 b0 e8 3b
       0.06603974 -0.04573225 -0.054470826 0.007101059
000120 23 0f 4f 3d 80 ce c8 bd 6d 91 00 bd 7a f2 a3 bd
       0.050551545 -0.09805012 -0.03138869 -0.08005233
000130 93 67 31 bd cd ce 88 bd 22 22 93 bd f3 b8 fc 3c
       -0.043311667 -0.06680069 -0.07184245 0.03084991
000140 4f 24 c6 bd d7 7a 7d 3d aa 31 87 3d f0 d5 11 3d
       -0.09674894 0.061884727 0.066012695 0.035604417
000150 ba 9e c8 3d 1d 1b 1a bd f3 2d 88 bd 33 58 cc 3d
       0.097959 -0.037623513 -0.06649389 0.0997776
000160 ca 06 6f 3d 43 76 11 bd b3 ec 4d bc f3 e2 9a bd
       0.058356084 -0.035513174 -0.0125686405 -0.075628184
000170 e7 59 ad 3c 98 49 c8 3d 75 b6 a4 3d 03 f2 65 bd
       0.021161033 0.09779662 0.080426134 -0.056139003
000180 90 93 9a bd 8d 5e 13 bc 5a 56 81 3d 4a 84 a6 3d
       -0.075476766 -0.008994711 0.063152984 0.08130701
000190 4d 1e 2b 3d 0d 98 2b bd fa 3f 2c bd cd 95 cc bb
       0.041776944 -0.041893054 -0.0420532 -0.0062434436
0001a0 5a ca 9a bd b3 a8 dc 3b b2 d1 8d 3d 75 76 b7 bd
       -0.07558127 0.0067339777 0.06924762 -0.08958141
0001b0 9d d3 8b 3d 00 6f 07 bc e3 2e 8c 3d 5d fa ad 3d
       0.068274714 -0.008266211 0.068448804 0.08495019
0001c0 40 db 68 3c 00 5b b8 3c 92 cc bb bd 2d f7 a4 3c
       0.0142124295 0.02250433 -0.09169878 0.020137394
0001d0 e7 52 c2 3c f3 0b 06 3d 9a 8c cb bc 7a d0 45 bd
       0.023721172 0.03272624 -0.024847317 -0.048294522
0001e0 77 44 6c bd 5d 36 25 bd cd 47 cf bc dd e3 6f 3d
       -0.05768248 -0.040335048 -0.025302792 0.058566917
0001f0 87 18 7c 3d bd 4e 30 bd f7 cb 47 bd 60 ab 91 3c
       0.06154683 -0.04304384 -0.0487785 0.017781913
000200 63 b4 06 3d 5a 85 10 3c 9a b2 91 bc b3 1c 2e bc
       0.032886874 0.008820856 -0.01778536 -0.01062696
000210 ea e5 ba 3d 6a 93 3f 3d 27 bb a6 bc 87 ed b8 bd
       0.09125884 0.046771444 -0.020352913 -0.0902968
000220 d3 77 c0 3c 43 77 38 bd 80 5b 5d bd d3 7c 8f bc
       0.023494637 -0.04503561 -0.05404234 -0.017515576
000230 9a 9d b9 bd 3d 8a b1 bd 1d 02 12 bd b5 b3 97 bd
       -0.09063263 -0.08668945 -0.035646547 -0.07407323
000240 75 29 c1 bd 0d de 26 bc c3 0f b2 bd 67 13 0a 3b
       -0.094317354 -0.010184777 -0.086944126 0.0021068694
000250 00 8d f9 bb ed 93 e2 3c 67 b4 9a bb 28 97 c5 bd
       -0.0076156855 0.027658427 -0.0047212127 -0.096479714
000260 57 d1 7c bd 73 ed b5 3d 2a d4 83 bd 02 7f af bd
       -0.06172308 0.088831805 -0.064369515 -0.08569147
000270 ad 9f 68 3d 03 e2 0a bd c7 2f 8a 3d 13 b5 f7 3c
       0.056792904 -0.033906948 0.06747394 0.03023771
000280 a7 b2 14 bc 37 80 52 3d 4f bf b1 3d 8d 4c 49 bd
       -0.009075797 0.051391806 0.08679067 -0.04914527
000290 d2 91 a4 3d 3d d1 0c 3d 0a 85 bb 3d da a3 e5 3c
       0.080356255 0.034379233 0.091562346 0.028032232
0002a0 f2 83 be 3d 05 69 a1 bd 27 55 1b bc 80 e2 73 bc
       0.0930251 -0.07881359 -0.009480751 -0.014885545
0002b0 9a 1c 88 bb 1a d0 52 3c 27 1e e6 bc 37 fb 33 bd
       -0.0041538 0.012866998 -0.02809055 -0.04394075
0002c0 87 62 f8 bc 1a b3 4f 3d c5 13 87 3d a2 08 b3 bd
       -0.030320419 0.050707914 0.065955676 -0.08741881
0002d0 e7 dd 68 3c 0d 0b 8d 3c e5 71 9a 3d e3 22 7b bd
       0.014213062 0.017217183 0.07541255 -0.061312567
0002e0 73 d3 6f 3c 25 3b 80 3d 8d 12 e2 3c 03 eb be 3d
       0.014637816 0.06261281 0.027596736 0.09322169
0002f0 73 27 06 3c 00 24 dd bb e3 52 b8 3d a3 7a 1b bd
       0.008188116 -0.0067486763 0.090001844 -0.037958752
000300 c7 0f 1c 3d 4d a2 8f bb 97 c9 5a bd 90 fb 37 3d
       0.038100984 -0.0043833614 -0.053414907 0.044917643
000310 6b 3c b1 3d 9a b9 4e bb 5a 3a 57 bd 13 0a c3 3d
       0.08654102 -0.0031543733 -0.052545883 0.09523406
000320 2f 31 bd bd f5 a5 bf bd 6d 7a d9 bc a7 6c 7c bc
       -0.09237897 -0.09357826 -0.026547635 -0.015406764
000330 20 d0 06 bd 80 38 de bc 6a 56 71 3d 9a 6b e3 ba
       -0.032913327 -0.02712655 0.0589203 -0.0017350793
000340 ca 96 75 3d 05 ca 92 bd 9d 48 0f bd da 8d 4a bd
       0.059958257 -0.071674384 -0.03498136 -0.049451686
000350 a8 aa bb bd e7 6e 1e 3d 33 05 c9 ba 80 53 93 3c
       -0.091634095 0.038679983 -0.0015336632 0.017984152
000360 0a c6 af bd 20 d9 d7 bc 22 ec 80 bd e7 37 06 3d
       -0.08582695 -0.02634865 -0.06295039 0.032768156
000370 c7 52 be bc 43 3d c4 bd 93 8a 96 bd 33 ee 42 bc
       -0.02323283 -0.09581997 -0.0735065 -0.011897611
000380 7a 7a 7b 3d 10 de 81 3d 67 23 66 3d c0 20 92 bd
       0.0613961 0.06341183 0.056186106 -0.07135153
000390 fa 95 a7 bd a0 0b bb bd 27 b1 66 3c ba 78 ba 3c
       -0.08182903 -0.09133077 0.014080322 0.022762645
0003a0 a2 51 c4 bd 33 5f 44 ba 5a 38 0c 3d 9a 40 7c 3d
       -0.09585883 -0.00074909924 0.03423343 0.061585046
0003b0 53 9f 8c 3c 4d c6 96 bd 33 dd 0c bd b3 db fd 3c
       0.017165815 -0.073620416 -0.03439064 0.03098855
0003c0 d0 87 36 3d 73 86 99 3c 33 07 b9 bb 4a 0d 92 3d
       0.044563115 0.018740868 -0.00564661 0.07131441
0003d0 b3 94 cb 3c e7 15 4b 3c cd f8 53 3d cd 60 e2 bc
       0.024851179 0.012395359 0.051750947 -0.027634049
0003e0 2a f2 0e 3d d3 2a 2d bd c7 0f ae bd 97 ee 8a 3d
       0.034898914 -0.04227717 -0.08499103 0.06783789
0003f0 6d 6d 7f 3d 57 66 7a bd 7a 3b 8b bd 32 eb b4 bd
       0.062360216 -0.061132755 -0.06798454 -0.088339224

bias_ih_l0 f4 [300]
000000 07 22 c9 3c 33 87 e9 bc 6a 2e 9a bd 43 a4 88 bd
       0.024552358 -0.02850685 -0.07528384 -0.066719554
000010 9a b9 b3 b8 23 36 8d 3d 97 82 bf bd 9a 0b 5e 3c
       -8.569956e-05 0.068950914 -0.0935108 0.013552571
000020 90 59 5b 3d a8 9e 82 3d 15 6e c5 bd cd 87 0b 3c
       0.05355221 0.063779175 -0.09640137 0.008516264
000030 73 5b 91 bc 6f b9 b3 bd 53 1e ad bc 6a c3 72 3d
       -0.017743802 -0.08775603 -0.021132624 0.059268393
000040 f7 1f b3 bd d0 a5 13 3d bd 12 54 bd ab 25 c2 bd
       -0.08746331 0.036046803 -0.051775683 -0.09479841
000050 2a 5f c5 3d 40 24 83 bd fa f3 b9 3d 2a 63 1d bd
       0.09637292 -0.064033985 0.09079738 -0.03842465
000060 65 98 9f bd a0 2a bb bc 7b 1b 94 3d 5a 91 5e bc
       -0.07792739 -0.022847474 0.07231804 -0.013584459
000070 2b 2e 99 bd 5a 3f 7f bd c5 07 9f bd 87 f1 8d 3d
       -0.07479509 -0.062316276 -0.07765154 0.06930833
000080 a0 bd 45 bd 4d cc 80 3d 73 d3 15 3c b0 d3 3e 3d
       -0.048276544 0.06288967 0.009144652 0.0465886
000090 5d f0 55 bd 37 87 ae bd 67 a2 07 bd 80 f9 ea 3b
       -0.05223118 -0.08521884 -0.033113863 0.007170856
0000a0 3a b2 84 3d 48 95 82 bd 1a ff d8 3c e7 12 4a bd
       0.064793065 -0.063761294 0.02648883 -0.049334433
0000b0 3a 08 ff 3c cd 1b f8 bc 4b 8e 98 3d cd e0 31 bc
       0.031131852 -0.030286694 0.07449015 -0.010856819
0000c0 bf c1 9a 3d 5a 13 a3 bc 4a 59 3a bd 5a d7 cb bd
       0.075564854 -0.019906688 -0.04549531 -0.099531844
0000d0 4d d0 c1 3b 9d d6 22 3d 80 fc e6 bb e0 a3 8b bd
       0.005914724 0.039755452 -0.0070491433 -0.06818366
0000e0 27 aa 22 3c d0 cd a1 bd 5d 75 c9 3d 67 80 4d 3c
       0.009928263 -0.07900584 0.098368384 0.012542821
0000f0 97 48 01 bd e3 b1 21 bd 4d b4 41 bc 70 84 57 3d
       -0.031563368 -0.039476287 -0.011822772 0.052616537
000100 eb 86 8b 3d 07 fe 6e bd 40 6f ed bc 83 54 8c bd
       0.06812843 -0.058347728 -0.028983712 -0.06852057
000110 e7 24 46 bd fa 45 a3 3c 27 6e 25 3d bd 84 ca 3d
       -0.048375037 0.019930828 0.040388253 0.09888599
000120 da a3 de 3c f7 a5 57 3d 4d 81 eb 3c 27 0b 6c 3d
       0.02717774 0.05264851 0.028748179 0.057627823
000130 32 b5 a7 3d 17 24 82 bd 07 03 a3 bd 92 fc 97 3d
       0.08188857 -0.0635454 -0.07959562 0.07421221
000140 ea bc 55 3d 60 d7 87 bd 67 e6 42 3b 9a 9d 00 bd
       0.052182116 -0.066328764 0.0029739381 -0.0314003
000150 30 5b 7b 3d b7 43 18 bd 45 2f 88 bd 1a 91 95 bb
       0.06136626 -0.037173953 -0.06649641 -0.0045644166
000160 9d 3b 13 3d bd dc 14 3d 47 e5 19 bd 7d d0 32 3d
       0.035945524 0.036343325 -0.03757217 0.04365586
000170 0a c4 aa bd 38 a8 a3 bd ad 80 93 3c c0 d7 1d bd
       -0.08338173 -0.079910696 0.018005693 -0.038535833
000180 2f 20 87 3d e8 b8 95 bd a7 82 3d 3c 40 97 c6 bd
       0.065979354 -0.07310659 0.0115667945 -0.096968174
000190 5a f2 fe bc 4d 42 d1 3b 73 04 22 bc cd 70 2a ba
       -0.031121422 0.0063860775 -0.009888756 -0.0006501794
0001a0 9a 49 9c bd fb 22 97 3d ba 5a f0 bc b0 4b 99 bd
       -0.07631226 0.07379719 -0.029340137 -0.07485139
0001b0 b3 23 8f bb e7 be 30 bd e7 8c 9d bd 5d ab 62 bd
       -0.0043682694 -0.04315081 -0.076928906 -0.055339206
0001c0 13 42 dd bc e3 78 63 3d 1a 33 89 bb 27 4d a9 3d
       -0.027009046 0.05553521 -0.004187 0.08266669
0001d0 7f 92 9b 3d 0d cc 37 3d c0 f9 7b bc 4d 97 4a 3c
       0.07596301 0.044872332 -0.015379369 0.0123651745
0001e0 ed 36 e1 bc 08 63 85 3d a0 76 2c 3d d3 8f 88 3c
       -0.027492011 0.06513029 0.042105317 0.016670143
0001f0 73 ed 9d bc c3 a9 0c 3d 0b 89 b6 3d 0d 3d 64 bc
       -0.019278264 0.034341585 0.089128576 -0.013930571
000200 9a ea 64 3c bd e0 0e bd 72 84 b0 bd 0a b4 31 3d
       0.013971949 -0.034882296 -0.08619012 0.04338459
000210 e3 aa 3d bd 10 e3 3a 3d 2d 57 ea 3c 93 1b b3 3d
       -0.04630555 0.0456267 0.028606022 0.08745494
000220 0f c3 99 3d 67 d0 3c 3d 60 1d 1a bd a7 a9 1d bc
       0.075079076 0.046097185 -0.03762567 -0.009622968
000230 a7 f0 a6 3d 90 57 3a 3d 8d 22 b5 bd 55 f5 b9 bd
       0.081513695 0.045493662 -0.08844481 -0.090799965
000240 80 2c 88 bb 27 84 1c bd 00 2c 74 3a 00 4f 2b 3b
       -0.0041556954 -0.038211968 0.0009314418 0.0026139617
000250 db 48 91 bd c7 a2 cc bd 87 ec 50 bd 4a 90 4d 3d
       -0.07093974 -0.09991985 -0.05100682 0.050186433
000260 bf e1 ba bd 33 fe 6b 3b f3 48 67 3c 00 0c ac bc
       -0.09125089 0.003600967 0.014116514 -0.021001816
000270 60 01 0d 3d 50 6a 6b 3d 9a 1d 53 bb 33 d9 06 3b
       0.03442514 0.057474434 -0.0032213689 0.0020576238
000280 3d 46 3d 3d 33 5b 59 3a cd 77 48 3d 80 1a f6 3b
       0.046209563 0.0008291483 0.048942376 0.0075104833
000290 80 90 f7 bb 80 af 59 3c a0 1a bd 3d e0 79 44 bd
       -0.0075550675 0.013286471 0.09233594 -0.04796779
0002a0 b0 68 26 3d 80 25 13 bc cd f0 c9 3d 40 87 5e bd
       0.04062718 -0.008981109 0.09860382 -0.054328203
0002b0 d3 8d 81 3c a8 d7 be bd 0d 67 a6 bc fd 1e a6 3d
       0.015814697 -0.09318477 -0.02031281 0.08111379
0002c0 93 e4 7a 3d cf 5c bd bd aa fa 99 bd 6f ea 89 bd
       0.06125314 -0.092462175 -0.075185135 -0.06734168
0002d0 c7 07 f3 bc 43 76 58 3d 93 cf 58 bd cd a1 a7 3b
       -0.029666794 0.05284716 -0.052932333 0.0051157237
0002e0 3b e4 cb bd 5d 27 51 3d 6f ef b6 3d 33 2f 05 3c
       -0.09955641 0.05106293 0.08932387 0.008128929
0002f0 27 bf 92 bc 80 72 a3 3d f3 7e 0b 3c a3 5f 25 bd
       -0.017913414 0.079808235 0.008514154 -0.04037441
000300 f7 7d ca 3d 43 61 be 3d 33 d2 9d 3b b3 9b d2 bb
       0.09887307 0.09295895 0.0048163175 -0.006427252
000310 82 09 b8 3d ef a2 96 3d 97 24 65 bd a7 97 e8 bc
       0.089861885 0.07355296 -0.055943098 -0.028392626
000320 40 ce 06 bd 1a 24 23 3d 15 14 8d 3d c3 f6 22 3d
       -0.03291154 0.03982935 0.06888596 0.03978611
000330 62 73 c9 3d 73 8f 9b 3d e7 3c 4e 3d 58 a0 8c bd
       0.09836461 0.0759572 0.05035105 -0.06866521
000340 12 05 90 3d 4d 60 b6 3d bd a3 90 3d 07 9d 9f bd
       0.07032217 0.08905087 0.070624806 -0.077936225
000350 fa 65 ef 3c 6a e5 00 bd f0 2e 5f 3d 77 21 44 3d
       0.02922343 -0.031468786 0.054488122 0.047883477
000360 e7 b3 a6 3b 40 de e7 bc 4d e1 b9 bc 33 18 e6 bc
       0.005087364 -0.02830422 -0.02269044 -0.028087711
000370 cd b4 13 bd 70 0e 88 bd c0 03 a7 3d ed 1a e4 3c
       -0.036061097 -0.06643379 0.08155012 0.02784487
000380 f5 6e be 3d 8d 50 33 bd 4d 70 a5 3b e0 21 99 3d
       0.09298507 -0.04377799 0.0050487877 0.07477164
000390 00 32 b7 3c 9a 01 9f ba 25 a5 8a 3d 73 21 ab 3d
       0.022362709 -0.0012131215 0.0676978 0.08355989
0003a0 77 51 24 bd 5a 54 15 bc 5a 04 91 bc 27 38 cb 3c
       -0.040116753 -0.009114349 -0.01770227 0.024807049
0003b0 00 9c 02 3b e7 13 e4 bc 8f 34 a8 bd 7d a5 c5 bd
       0.001992941 -0.027841521 -0.0821315 -0.09650705
0003c0 7a 12 8c 3d 7a 7b 8a bd e0 59 04 3d cd 3d e1 3c
       0.068394616 -0.067618325 0.032312274 0.02749529
0003d0 10 30 59 bd fd a3 ac bd 4a b1 89 bd e7 06 f6 bb
       -0.05302435 -0.08429716 -0.06723268 -0.007508147
0003e0 f0 11 01 bd 13 f6 8a 3c f0 cb a5 bd 3a ff bc bc
       -0.031511247 0.01696304 -0.080955386 -0.02307092
0003f0 c7 a1 4b 3d e0 81 9c bc 27 f4 89 bc 12 0e 93 bd
       0.04971483 -0.019104898 -0.016840054 -0.07180418

bias_hh_l0 f4 [300]
000000 43 54 93 bd 5d 84 82 bd aa 25 05 3d 42 20 b3 bd
       -0.07193806 -0.063729025 0.032506622 -0.08746387
000010 c3 29 08 bd 33 dd 47 3d 52 33 93 3d 8b ea ae bd
       -0.033242952 0.048794936 0.07187523 -0.08540829
000020 18 22 af bd dd d5 24 bd 97 4b 76 3d e7 a3 cb bd
       -0.08551425 -0.04024302 0.06013068 -0.09943371
000030 95 53 b5 3d 67 3c 22 bd 2d 0f 73 bd ed 9d 93 bc
       0.08853833 -0.039608385 -0.059340645 -0.01801964
000040 bf b5 ac bd 8b 12 cb 3d 40 4c fd bc c0 7e 61 3c
       -0.08433103 0.09915646 -0.030920148 0.01376313
000050 1a e7 cd 3c 20 04 b4 3d 93 23 ef 3c 8d b4 fd bc
       0.025134612 0.08789849 0.029191768 -0.030969882
000060 2d b8 69 3d 07 b4 02 bd 57 19 57 3d 38 e0 aa 3d
       0.05706041 -0.03190997 0.0525144 0.083435476
000070 20 78 88 3d af f6 c4 3d 83 e4 ba 3d 88 ce aa bd
       0.06663537 0.09617364 0.091256164 -0.08340174
000080 a7 18 70 bc b3 f5 4a 3d 7a 37 94 3c 97 d3 10 3d
       -0.014654315 0.049550723 0.01809286 0.035358038
000090 a7 98 49 bc 2d 7e 86 3d f2 4d 88 3d 48 da 86 bd
       -0.012304462 0.06567035 0.06655492 -0.065846026
0000a0 4d 00 19 bd c3 7e a4 3d b5 e3 96 3d ea 97 7d bd
       -0.037353802 0.080319904 0.073676504 -0.061912455
0000b0 ed 01 b2 bc a3 f2 59 3d ad 4a c1 bc 7d 97 36 3d
       -0.021729434 0.053209912 -0.023595178 0.044578064
0000c0 30 4a b8 3d 03 07 ba bd 67 a9 85 bb 27 8c 7f 3c
       0.08998525 -0.09083369 -0.004079032 0.01559738
0000d0 b0 51 78 bd 67 d1 5d bc cd 5d bd bc 92 d9 96 bd
       -0.06062478 -0.013538695 -0.023116017 -0.07365717
0000e0 00 a2 5c 3b ab 49 bf bd 85 2b 8d bd 2d 25 54 bd
       0.0033665895 -0.09340223 -0.06893066 -0.051793266
0000f0 fd 08 55 bd 02 53 a2 bd 32 c6 c6 bd 4d 09 cc bb
       -0.052010525 -0.07925989 -0.097057715 -0.0062266947
000100 ad 3b 3a 3d 53 c2 a9 3d 4a 86 a9 bd e7 8a ed bc
       0.045467068 0.082890175 -0.08277567 -0.028996898
000110 67 94 c8 3b 00 c1 17 bb 72 31 af bd ad 4a 50 3d
       0.0061212066 -0.0023155808 -0.08554353 0.050852466
000120 47 c8 8d 3d 4d 14 66 bc 13 d9 b9 3c fd 61 9b bd
       0.069229655 -0.014042926 0.022686517 -0.07587049
000130 70 22 58 3d 87 33 fb bc 20 6e b8 bd cd e0 1e 3d
       0.052767217 -0.030664219 -0.0900538 0.038788605
000140 d3 93 59 bd 88 85 98 bd d0 4a 4b 3d 87 57 43 3d
       -0.05311949 -0.07447344 0.049631894 0.047690894
000150 c0 e1 bd bd b3 68 85 3c a7 2e b2 bd a0 a5 ba 3d
       -0.09271574 0.016285276 -0.087003045 0.09113622
000160 dd 7d cb bd 9a f3 68 3d 7a 89 9c bc 13 22 57 3d
       -0.09936116 0.05687294 -0.019108523 0.05252273
000170 68 87 b2 3d a5 01 bf bd 20 d4 ad bd 57 21 90 bd
       0.08717233 -0.093264855 -0.08487725 -0.07037609
000180 d2 89 a4 bd 60 ae 51 bd 67 7f 9d bc 13 8e 8f bc
       -0.080341 -0.051191688 -0.01922579 -0.017523801
000190 73 d1 02 bd 10 3a 4d bd 12 e7 b8 bd 8d 0e 4c 3c
       -0.031938028 -0.0501042 -0.09028448 0.012454641
0001a0 25 4f a2 3d 30 89 93 bd fa cb 31 bd fb eb 9a 3d
       0.07925252 -0.07203901 -0.043407418 0.07564541
0001b0 0a 11 24 3d 43 2a 7b bd 2d 6b c4 3c 00 6a 1e 3c
       0.040055312 -0.0613196 0.023976887 0.009668827
0001c0 37 94 87 bd 27 57 43 bc d8 7c b8 3d c7 50 f3 bc
       -0.066200666 -0.011922634 0.09008187 -0.029701604
0001d0 bd 0e 38 bd 70 0a 06 3d a0 06 b3 3c 67 29 d9 3c
       -0.04493593 0.032724798 0.021853745 0.026509
0001e0 4d 70 bb bc c3 92 09 3d 5f 62 a3 3d 7a 27 a4 3c
       -0.022880698 0.03358723 0.07977747 0.020038355
0001f0 67 a0 69 bc 7d c2 87 3d 7a 49 cf 3c 12 cc c8 3d
       -0.014259434 0.066288926 0.025303591 0.09804548
000200 d0 86 2e 3d 93 33 b9 bc da 56 91 bd 4d db d9 bb
       0.042609036 -0.0226076 -0.07096644 -0.006648457
000210 9a ae 3f bd 77 16 15 3d 43 41 38 3d 73 9a a4 bd
       -0.046797372 0.036398377 0.044984113 -0.08037271
000220 9f 3c c7 bd 0d f6 42 3d 73 38 69 bd b7 c1 61 3d
       -0.097283594 0.047597934 -0.0569386 0.05511638
000230 5a af a8 bd db 13 a4 3d 33 41 75 bd 6d 75 9f 3d
       -0.08236571 0.080116 -0.059876632 0.07786069
000240 60 b6 8d bc cd d6 b8 bb 20 94 39 3d d7 b8 6c 3d
       -0.017298877 -0.0056408406 0.04530728 0.057793465
000250 cd 2d 17 3c b3 a7 bf 3b 67 fd 2d bb ad 54 b2 bd
       0.009227228 0.0058488487 -0.0026548745 -0.08707557
000260 cd 27 45 3c bd 1e b1 bd d5 86 9e bd 0a ad 07 bd
       0.012033415 -0.08648441 -0.07740561 -0.033124007
000270 5d ed bf 3d e7 77 f5 3c fd 8b 91 3d d7 21 33 bd
       0.09371445 0.0299644 0.07106779 -0.043733444
000280 63 96 81 3d 83 de 01 3d e7 a2 dd 3c 68 b2 8e 3d
       0.06327512 0.031706344 0.027055217 0.06967622
000290 3d 9f 47 bd ef 7d 9b bd 17 71 9c bd 5a 44 3d 3c
       -0.048735846 -0.07592379 -0.07638758 0.011551941
0002a0 0d 2c 8c bd 90 84 24 3d a0 17 04 3d d0 a4 42 bd
       -0.068443395 0.040165484 0.032249093 -0.04752046
0002b0 ba e5 b3 bd fd 70 99 bd ba c8 9b bc 67 0e bb bc
       -0.08784051 -0.07492254 -0.019016612 -0.022834016
0002c0 4a 0b 76 3d 60 6c ec bc 00 86 ce 3c 10 0b 7d bd
       0.06006936 -0.028860271 0.02521038 -0.06177813
0002d0 b3 91 ad 3b d7 42 4a bd 3b 3b 8c bd ca b3 52 bd
       0.0052969097 -0.04938015 -0.06847235 -0.05144099
0002e0 a3 51 a6 bd 1b af 9d bd a7 d2 86 bc cd b1 fb bb
       -0.0812104 -0.07699414 -0.016457869 -0.0076811076
0002f0 2d b8 00 3d ea 6a 31 3d b0 c8 20 bd 1d 9b c8 bd
       0.031425644 0.04331485 -0.03925389 -0.097952105
000300 43 c4 18 3d 40 27 bc bc 0d 0f 35 3d ab c1 ae 3d
       0.037296545 -0.022967935 0.044203807 0.08533033
000310 4d 2c c5 bd af 95 a4 bd 67 ff 50 3c dd 46 2f bd
       -0.0962759 -0.080363624 0.012756205 -0.04279219
000320 17 34 10 bd cf 0a ac bd 0f 6d 90 3d 8d 3a 32 bc
       -0.035205927 -0.08400499 0.07052051 -0.010878217
000330 3a ea cb 3c fa 7c d8 bc f3 cb 20 3d 00 9b 6b 3c
       0.024891961 -0.026426781 0.039257 0.014380217
000340 e3 d6 9b bd 5a 2f 8d 3c 60 7a 29 3d d7 c4 4a bd
       -0.07609346 0.017234493 0.04137647 -0.049504127
000350 7a 71 a2 bd ad 85 bd bc 5a 7b 93 3c fd 69 81 3d
       -0.079318 -0.02313503 0.018003155 0.06319044
000360 05 63 9a bd 6a 51 08 bd e3 43 5f 3d c0 49 f0 bc
       -0.07538418 -0.033280768 0.0545081 -0.029332042
000370 2a 4a 07 3d 50 1f 2d bd 4d 62 d9 bc 0a ec 14 3d
       0.033029713 -0.04226619 -0.026536131 0.036357917
000380 b0 dc 5e bd da ed 9d 3c b3 fc c3 bd 53 6b 4a 3d
       -0.054409683 0.019278456 -0.09569683 0.04941876
000390 cd f7 25 bd 8a 12 97 bd da 37 3f 3d f0 66 01 3d
       -0.040519524 -0.07376583 0.046684124 0.03159231
0003a0 ff 00 c5 bd 90 10 0f bd 1a cf 82 3b 4d d7 72 3d
       -0.096193306 -0.034927905 0.0039919736 0.059287358
0003b0 f3 f8 5d bc c3 83 3c 3d d0 16 97 3d ba a3 e6 3c
       -0.013548124 0.046024095 0.07377398 0.028154243
0003c0 9a 71 7d bb 7a 4c 91 3d 62 62 94 3d 00 bd 3c bc
       -0.0038672448 0.07094665 0.072453275 -0.0115196705
0003d0 b7 a5 44 bd 4d 17 55 3d 68 14 8e bd 6d 33 ad 3c
       -0.0480096 0.052024174 -0.06937486 0.021142686
0003e0 00 34 1c 3c 4a 6f 4f 3d 9a 16 bd bd 27 c4 53 3d
       0.009533882 0.050643243 -0.092328265 0.051700737
0003f0 9a dd aa bc 82 29 91 3d 7a 50 15 bd e7 38 41 bd
       -0.020857621 0.07087995 -0.0364537 -0.047173407

weight f4 [50, 100]
000000 b3 da 41 bc 17 fe 5a bd 40 2a 90 bd d8 20 a7 3d
       -0.011831927 -0.053464975 -0.070393085 0.08160561
000010 0d e5 5b 3c ea 2c 09 bd a7 50 4f 3c 27 b7 60 bc
       0.013421309 -0.0334901 0.012653506 -0.013715542
000020 fd c7 ca 3d 87 a2 24 3d 00 ec c7 3a ff a7 9c bd
       0.09901426 0.04019406 0.0015252829 -0.0764923
000030 ca 90 06 bd 30 d3 7a 3d 2d bb 99 3d bd 6b 44 bd
       -0.032852925 0.06123656 0.07506404 -0.04795431
000040 f5 dc c0 3d 07 a7 9d 3d c7 0f 99 3d 9a 39 d9 b9
       0.09417144 0.076978736 0.074737124 -0.00041432382
000050 7d 78 6e 3d 3b b8 8a bd f3 be 57 bc e7 8d 8f 3c
       0.058220375 -0.067734204 -0.013168084 0.017523719
000060 a7 72 0f bc a0 e5 a0 3d 9a d3 a7 ba 23 ed b3 3d
       -0.008755363 0.078562975 -0.0012804151 0.087854646
000070 87 9a a3 3d 80 2e 51 3c fa c5 d8 bc 95 bf 85 bd
       0.07988458 0.012767434 -0.02646159 -0.06530682
000080 2b a5 8f 3d 07 19 5a bd 33 cb aa 3d 67 f4 8e bd
       0.07013925 -0.053246524 0.083395384 -0.0698021
000090 b8 b1 a2 bd 13 66 c8 bc c0 d9 59 bd 13 6e b8 bc
       -0.079440534 -0.024462735 -0.05318618 -0.022513425
0000a0 33 b9 f3 bb 5d d2 67 bd a7 b5 89 bc 60 b9 6e bd
       -0.007437849 -0.056597102 -0.016810251 -0.058282256
0000b0 1a d8 35 bd 85 a7 b5 3d 20 5a 64 bd 53 82 b3 bd
       -0.044395544 0.088698424 -0.055750012 -0.08765092
0000c0 00 05 81 bb c0 63 2d bd cd 34 61 bc 00 78 6b ba
       -0.0039373636 -0.042331457 -0.013745499 -0.000898242
0000d0 43 7b 08 bd 7a 72 e9 bc 75 1b b8 3d a0 d8 0a bd
       -0.033320677 -0.02849697 0.08989612 -0.033897996
0000e0 b5 a5 b2 bd a7 7b 40 3d 27 d9 08 3d 2d 93 e6 bc
       -0.08723012 0.046992924 0.033410218 -0.02814635
0000f0 4a a8 1e bd 27 80 b4 3c 6d c4 6e 3d 5a b9 51 3d
       -0.03873471 0.022033764 0.058292795 0.051202156
000100 13 ad b6 bd 82 8d a7 3d 57 4c 49 bd 9a a3 84 3d
       -0.0891973 0.08181287 -0.04914507 0.06476517
000110 67 7c 4a 3d 67 4d 55 3d f3 e1 b3 bc 27 38 36 bd
       0.049435046 0.05207577 -0.021958327 -0.044487145
000120 38 cd 9f bd 5a 0b c2 bd ed 19 e7 bc 27 7c 6c 3c
       -0.07802814 -0.094748214 -0.028210605 0.014433897
000130 33 e3 76 bc 52 08 91 bd 00 ab 35 bb 0a e9 62 3d
       -0.015068817 -0.07081665 -0.0027720332 0.055398025
000140 4d 8b a6 3c e7 db 3f bc dd e3 74 bd 0d 4d 5d 3d
       0.020330096 -0.011710144 -0.05978762 0.05402856
000150 ca b1 41 bd 40 33 bf bd d2 5b 8c 3d 4d 4f c5 bb
       -0.047288693 -0.09335947 0.06853451 -0.0060214163
000160 7d 78 1f bd 10 85 2b 3d 73 ba 47 bd 02 39 9e 3d
       -0.038933266 0.041874945 -0.048761796 0.07725717
000170 40 4b f1 bc 4a c5 b2 3d 2d d7 2c bd 27 cf 4f bd
       -0.029454827 0.08729036 -0.042197395 -0.050734665
000180 6b 33 86 3d 62 94 b0 3d 4f 1f a4 3d 5f 99 c8 3d
       0.06552776 0.08622052 0.08013784 0.09794878
000190 dd 73 8e bd e7 db 9e bd 62 5d b1 bd c0 b6 8f bd
       -0.06955693 -0.07756787 -0.086603895 -0.07017279
0001a0 da 5f 6b 3c 2d cc 82 3d 1a 27 1a 3c 33 c6 70 bc
       0.0143661145 0.063866 0.009408737 -0.014695692
0001b0 c3 6b 8b bd b3 0e 06 bc da 30 0d bc 70 41 b4 bd
       -0.06807663 -0.0081822155 -0.008617604 -0.08801544
0001c0 9a 0e 57 bb c8 65 8b 3d 8d 1a 53 bc 33 6f 2b bd
       -0.00328151 0.068065226 -0.012884748 -0.041854095
0001d0 87 49 80 3d 77 59 57 3d e0 15 6a 3d d0 5b 6d 3d
       0.06264024 0.052575555 0.057149768 0.057948887
0001e0 7a 51 c8 3c f3 30 0c 3c 27 b0 3c bd 40 94 5f bd
       0.024452914 0.008556592 -0.04606643 -0.05458474
0001f0 c3 08 6e 3d 67 ed c0 bb 3a 36 33 bd 83 98 36 3d
       0.058113825 -0.0058876756 -0.043752886 0.04457904
000200 f5 c6 97 bd 17 94 ac 3d f8 63 ca bd dd 72 86 bd
       -0.07410995 0.084266834 -0.09882349 -0.06564877
000210 25 f9 bf bd 4d 04 9c bb 83 ff c5 bd 2f bf 86 3d
       -0.093736924 -0.004761255 -0.096678756 0.06579434
000220 40 4b cb bd ed c3 e9 bc f3 53 13 bc c3 2d a6 bd
       -0.09926462 -0.028535808 -0.008992183 -0.08114197
000230 f3 52 20 bc 33 dd a5 3d e3 f8 c7 bd ef 49 a1 bd
       -0.009785402 0.08098831 -0.09764268 -0.0787543
000240 00 e4 0a 3c a8 d5 a2 3d 73 f6 2d 3c 6d b8 e1 bc
       0.008477211 0.07950908 0.01061784 -0.027553761
000250 c7 d3 fa bc 4d d6 23 bc e3 2a 8a bd 37 1f 85 3d
       -0.030618561 -0.009999824 -0.06746461 0.065000944
000260 8a c0 44 3d c3 07 18 3d 90 4f 4b 3d 00 65 f6 bc
       0.048035182 0.037116777 0.049636424 -0.030077457
000270 97 23 5e bd 00 60 78 3b 62 34 c5 bd da 68 ee bc
       -0.05423316 0.0037899017 -0.09629132 -0.029102731
000280 a0 c5 f2 bc 80 53 35 3d c7 b1 96 3c f3 da 74 3d
       -0.02963525 0.044269085 0.018395318 0.05977912
000290 da 17 86 bd 9a 99 4f 3a bd 37 ba bd 0a 95 94 3d
       -0.06547518 0.0007919312 -0.090926625 0.072549894
0002a0 20 d0 a8 bd c7 d2 ac bc 3f dc b1 3d af ef be bd
       -0.08242822 -0.0210966 0.08684587 -0.0932306
0002b0 87 84 58 3d 45 51 a0 bd ed 37 4b 3d 80 2d 17 bc
       0.052860763 -0.07828001 0.04961388 -0.009227157
0002c0 7d 37 07 bd 33 55 90 bd e3 6c 42 bd 7f 0d 8c bd
       -0.033011902 -0.070475005 -0.047467124 -0.06838512
0002d0 03 ab 7a 3d 2a 79 02 3d ca 43 a6 3d 73 bd b9 bc
       0.061198246 0.031853832 0.081183985 -0.022673344
0002e0 33 a0 76 bb c7 01 1e 3d 53 cf 3d 3d 10 24 35 3d
       -0.0037632107 0.038575914 0.046340298 0.044223845
0002f0 73 3f 0e 3d 73 93 19 3d cf 76 87 3d cd e4 4c 3d
       0.03472848 0.037494134 0.06614458 0.05002289
000300 c0 4e 53 3c f5 22 8f bd 12 7a ad 3d 97 fc 55 3d
       0.012897193 -0.069890894 0.08470549 0.05224284
000310 dd aa 0b bd 67 a1 01 bd 9a 84 57 bc 67 95 23 bb
       -0.034098495 -0.031648066 -0.013154173 -0.0024960877
000320 2d 58 ff 3c a3 f3 09 bd a7 31 fb 3c e7 42 2c bd
       0.031169975 -0.033679616 0.030663325 -0.04205599
000330 ab cb 87 3d bb 5d 82 bd cd e8 53 3b f2 37 b4 bd
       0.066306435 -0.06365534 0.0032334805 -0.08799733
000340 40 b1 60 3d e3 2f 34 bd 9a 55 87 3c 33 fe 89 bb
       0.05485654 -0.04399098 0.01652031 -0.004211211
000350 80 22 ec bc 38 8e be 3d 9d 2e 2f bd 67 de 7c 3a
       -0.028825045 0.0930447 -0.042769063 0.00096461776
000360 5a 15 8a bd 33 38 36 bc e8 56 af bd 7a c1 76 3d
       -0.06742354 -0.011121797 -0.08561498 0.060243107
000370 93 87 2d bd 33 8f 5d 3d c7 52 9b bd bd f5 c3 3d
       -0.04236562 0.054091644 -0.07584148 0.09568355
000380 20 b5 53 3d 58 9e ab bd 87 ba 4f 3d bd 93 9c 3d
       0.051686406 -0.08379811 0.050714996 0.07645366
000390 9a e5 f9 bc bb bf 9c 3d b0 63 74 bd 73 d3 0e bc
       -0.03050499 0.07653757 -0.059665382 -0.008717406
0003a0 90 91 62 bd 00 d1 27 bc c0 f3 a3 bd 98 e8 bb 3d
       -0.0553146 -0.010242701 -0.08005476 0.09175223
0003b0 20 c3 8e 3d 67 40 b7 bd ca 18 cb bd 5a 10 cc 3d
       0.06970811 -0.08947831 -0.099168375 0.09964056
0003c0 20 e5 da bc 5b 5d c6 3d 0a a6 53 bd a7 34 4f 3d
       -0.026720583 0.09685775 -0.05167202 0.050587323
0003d0 1a fe 05 bd 1a fe 37 bc 4a 64 6b bd 93 36 fe 3c
       -0.032713033 -0.011230016 -0.05746869 0.031031882
0003e0 f3 7d 62 3c 40 89 1e bd f2 10 b3 bd 80 49 bf 3d
       0.013823974 -0.03870511 -0.087434664 0.09340191
0003f0 e0 00 06 3d 47 54 81 3d a7 09 23 bc 9a 5b 66 bb
       0.03271568 0.06314903 -0.009951032 -0.0035149814

bias f4 [50]
000000 4a 11 55 3d da 3c 04 bd 80 ed 24 bc fa 0a 11 bd
       0.05201844 -0.032284595 -0.01006639 -0.03541086
000010 fa a3 c7 3d dd 63 64 3d 2a 06 94 bd c0 fe 94 bc
       0.09748073 0.0557593 -0.07227738 -0.01818788
000020 83 85 26 3d da 85 9c 3c 90 78 95 3d ea 59 a1 bd
       0.04065467 0.019106794 0.07298386 -0.07878478
000030 f8 7c 8d bd 03 97 a2 bd c5 b4 bb bd a7 2e 42 bc
       -0.069086015 -0.079389594 -0.091653384 -0.011851943
000040 43 eb 65 bd ad ae bc bd 0f db c8 bd 93 14 c4 3d
       -0.056132566 -0.09213004 -0.09807407 0.09574237
000050 33 7c e9 3c 8a 20 bd 3d 87 1c 46 3d ab 1f a7 bd
       0.028501606 0.09234722 0.04836705 -0.08160337
000060 fa 58 ed bc d3 f5 86 3c 32 57 91 bd 6f bb 93 3d
       -0.028973091 0.01647464 -0.07096709 0.072134845
000070 9f 95 b0 3d e7 78 b7 3c da a2 2b 3d c5 8c bd 3d
       0.08622288 0.022396518 0.041903354 0.09255365
000080 3d 16 25 3d 88 64 b8 3d ca 74 be 3d 07 ff c5 3c
       0.04030441 0.0900355 0.092996195 0.024169458
000090 ca 43 10 3d 13 10 b0 bd a7 ce 1b 3d 7a f7 a3 bc
       0.0352209 -0.08596816 0.038038876 -0.020015467
0000a0 67 9c 23 bd e3 35 6c 3d 0d 08 9f bc 45 42 b8 bd
       -0.03994408 0.057668578 -0.019413019 -0.08997015
0000b0 40 39 ed bc 28 9d 91 3d 2a 89 72 3d db a8 80 3d
       -0.028957963 0.07110053 0.05921284 0.062822066
0000c0 60 1e 8c bc 2d ec 8a bc
       -0.017104328 -0.01695832

weight f4 [2, 50]
000000 bd 96 ec 3c ef 52 fb bd 7b e4 d3 3d 56 60 01 3d
       0.028880471 -0.12271678 0.103463136 0.031586014
000010 bc b1 f6 bd f0 d4 ca 3d be 7f 03 be 09 ae 98 bd
       -0.12045619 0.09903896 -0.12841699 -0.074550696
000020 32 da ab 3d bc 1f 0a 3e f0 a5 83 3d c9 7d c3 bd
       0.08391227 0.13488668 0.064281344 -0.09545476
000030 99 ad 56 bd ab f2 7c bd c0 ed 6a 3d 9f 56 00 bd
       -0.05241165 -0.061754864 0.057355642 -0.03133261
000040 18 52 cf bc 01 94 e4 3d 01 af 9e bc 70 bb a2 bd
       -0.0253077 0.11161042 -0.019370558 -0.07945907
000050 9f e7 e2 3c 94 8f e5 bc 7c de f7 bd 1b ef dd 3d
       0.027698336 -0.028022565 -0.121029824 0.108366214
000060 ad b6 0c 3e 11 1f c3 bd f7 45 a6 bd 21 b7 92 3d
       0.1374156 -0.0952741 -0.081188135 0.07163835
000070 62 77 10 3a ab 4b c2 bd 6c c2 49 3d 81 b3 7c bc
       0.00055109535 -0.09487089 0.04925768 -0.015423656
000080 8d 16 c0 3d 30 9f 80 bd 00 6c ad bd 03 e2 b6 bd
       0.09379301 -0.062803626 -0.08467865 -0.08929827
000090 1f b4 2a bd 9a 34 1e 3c 9d 09 dd 3d 92 71 0c 3d
       -0.041675683 0.009656096 0.10792849 0.034287997
0000a0 3e 28 ce bd 4e b2 1b bd 81 d1 87 3c 36 fa 8d bd
       -0.10066269 -0.03801184 0.016579391 -0.069324896
0000b0 eb 8a d0 bc 09 ef 9a 3d fb 3e 11 3d 4c 2e 0c be
       -0.025456866 0.075651236 0.035460453 -0.13689536
0000c0 c7 62 d3 bd 78 96 de 3d 75 41 8f 3d d4 f8 4f 3c
       -0.10321575 0.108685434 0.06994907 0.012693603
0000d0 07 09 e1 3d 46 24 0f 3e 67 2e 04 3e 21 e4 a4 bd
       0.1098805 0.13978681 0.12908326 -0.08051325
0000e0 41 cc a4 3a 08 96 82 3b 26 26 ce bd c5 68 be bd
       0.001257308 0.0039851703 -0.1006587 -0.09297327
0000f0 fc 34 d3 3d 95 39 b3 bd 2b 6f 4c bc 8e 5f 50 bd
       0.1031284 -0.08751217 -0.012477676 -0.050872378
000100 d5 65 3a 3d dc 4e f0 ba b3 d2 79 bc bf 5c 99 bd
       0.04550727 -0.0018334049 -0.0152479885 -0.07488393
000110 80 dd a5 bd ad bb c1 3d de 00 98 3d f4 f4 a9 bc
       -0.080988884 0.094596244 0.074220404 -0.020746686
000120 35 f3 0c be a1 5f ab bc 8a bd fc bd 5b de fe 3d
       -0.13764651 -0.020919623 -0.12340839 0.12444755
000130 ac 34 f9 bd 29 95 7f bc 29 65 f8 bc bd 88 a1 3a
       -0.121682495 -0.015599527 -0.030321674 0.0012324076
000140 52 f7 eb 3c 8c 45 92 bb e4 bc e8 3d 88 b6 15 3d
       0.028804455 -0.004463857 0.11364153 0.03655103
000150 72 07 b5 3d 1e f6 04 be 2f df 6a bd 00 5e ad 3d
       0.08839311 -0.12984511 -0.05734175 0.08465195
000160 0c bb f8 bd 91 65 0c be b8 4c f2 bd d4 89 dd bd
       -0.12145051 -0.1371062 -0.11831039 -0.10817304
000170 f6 39 f2 bd ad aa 0e 3e 0d b4 be bd 61 7d 2d 3b
       -0.118274614 0.13932295 -0.09311686 0.0026472437
000180 24 fc 35 bd 5b 7f dd 3c c5 01 4b bd 74 3f c4 bd
       -0.044429913 0.027038267 -0.049562234 -0.09582415

bias f4 [2]
000000 30 de 70 3c 04 b6 03 bd
       0.014701411 -0.032156006
