test_dagster/mlruns/0/c182d50f507c44fd96665dcf80b2e5a6/artifacts/prediction_model/data/model.pth (torch, 155663 bytes, 8 tensors)

weight_ih_l0 f4 [300, 2]
0	0x3d99aad5	0.07503287
1	0x3d99f1c0	0.07516813
2	0x3cd66ab3	0.026173925
3	0xbdb9c8b2	-0.09071483
4	0xbdcb7ca3	-0.09935882
5	0xbc1dd25a	-0.009632671
6	0x3d5a0ec7	0.05323675
7	0xbd61991d	-0.05507766
8	0x3cbed747	0.023296012
9	0x3dc42f2f	0.09579312
10	0xbd923300	-0.07138634
11	0x3d6288fd	0.055306423
12	0xbdbbadc5	-0.09164003
13	0xbc89691a	-0.01677375
14	0xbc1752da	-0.009236062
15	0x3d2ebcc7	0.0426605
16	0xbd1c8c2d	-0.03821962
17	0xbc2ca19a	-0.010536576
18	0xbda92620	-0.08259225
19	0x3da398f2	0.079881564
20	0xbd6ed0a7	-0.058304455
21	0xbdbcd48d	-0.09220228
22	0xbdb7758d	-0.08957968
23	0xbdc0c3eb	-0.094123684
24	0xbbd082e7	-0.006363261
25	0xbdbe1852	-0.092819825
26	0x3db16c4d	0.08663235
27	0xbc8960da	-0.016769815
28	0x3c3f6bf3	0.011683452
29	0xbca88b33	-0.020574188
30	0xbd808f2a	-0.062773064
31	0x3dc81c3f	0.097710125
32	0xbd8716d8	-0.06596154
33	0xbd40ae97	-0.0470415
34	0x3dc3162f	0.095257156
35	0x3d434590	0.04767376
36	0x3dc9e685	0.09858421
37	0x3d931f5f	0.07183718
38	0xbdc23d2b	-0.09484323
39	0x3c83eb07	0.01610328
40	0xbdc54c63	-0.0963371
41	0xbcfcb773	-0.030849194
42	0x3d7775da	0.060415126
43	0x3d8f2f0f	0.069913976
44	0x3d621190	0.05519253
45	0xbdc5a1e0	-0.09650016
46	0xbc79a927	-0.015238083
47	0xbceb7e60	-0.028746784
48	0xbd5315f0	-0.051534593
49	0x3ca23aba	0.019803394
50	0x3cfc5540	0.03080237
51	0xbdb8c485	-0.09021858
52	0x3d146b23	0.036234986
53	0x3cec8eb3	0.028876638
54	0xbd5d9f53	-0.05410702
55	0xbd436557	-0.047704067
56	0xbdbe95f2	-0.093059435
57	0xbac6d200	-0.0015168786
58	0x3d5a37e0	0.053275943
59	0xbc65a400	-0.014016151
60	0x3d2153f3	0.0393867
61	0xbcc9561a	-0.02457719
62	0xbd0b6afa	-0.034037568
63	0xbd4bdd67	-0.049771693
64	0xbb579033	-0.0032892346
65	0x3d540920	0.051766515
66	0xbd25b4b0	-0.04045552
67	0xbdb10bdb	-0.086448394
68	0xbd111030	-0.03541583
69	0x3d822047	0.06353813
70	0xbc6ce31a	-0.014458442
71	0x3d8e95a8	0.069621384
72	0x3d6d4793	0.057929587
73	0x3d2c4337	0.04205629
74	0x3d693703	0.05693723
75	0x3bebe6e7	0.0071991566
76	0x3dbf21c7	0.093326144
77	0xbb91304d	-0.0044308067
78	0x3c8e76a7	0.017390562
79	0xbd6f794d	-0.05846529
80	0xbc3790f3	-0.011203992
81	0xbd5d3e7a	-0.05401466
82	0x3d49b92a	0.04924885
83	0x3d373de3	0.044736754
84	0xbdba388f	-0.09092819
85	0xbc6dbaa7	-0.014509833
86	0xbd1fcdb0	-0.03901452
87	0xbd6e6ef3	-0.05821128
88	0xbd5e0183	-0.05420066
89	0xbd77b9ba	-0.060479857
90	0x3b366633	0.0027831912
91	0xbdc76d0a	-0.097375944
92	0x3d062ee0	0.032759547
93	0xbcb7a37a	-0.022416819
94	0x3d678177	0.05651995
95	0x3da9d005	0.0829163
96	0x3d9b7d1d	0.07592223
97	0x3d119773	0.035544824
98	0xbd60c2e0	-0.054873347
99	0x3da15447	0.07877403
100	0x3bfb914d	0.0076772333
101	0xbad49f9a	-0.0016221881
102	0xbd5fe5f0	-0.054662645
103	0x3d54a1a7	0.051911976
104	0x3d66b2c0	0.056322813
105	0x3d3ab960	0.045586944
106	0x3da9cc18	0.08290881
107	0xbcb75b5a	-0.022382427
108	0xbd82fb78	-0.0639562
109	0xbd2ff6aa	-0.042959847
110	0xbd97a95d	-0.0740535
111	0x3ae7ef9a	0.0017695308
112	0x3d1c8197	0.038209524
113	0x3dc973ab	0.09836515
114	0xbd5e07d0	-0.05420667
115	0xbd2d8d03	-0.042370807
116	0xbd729cf0	-0.0592317
117	0x3c1a1bb3	0.009406018
118	0x3c0e7f27	0.008697308
119	0x3c953a27	0.018216206
120	0x3d80fb6f	0.06297957
121	0x3d65e02d	0.056121994
122	0x3d9f3c8a	0.07775219
123	0xbceec920	-0.029148638
124	0x3dbebb8a	0.09313114
125	0xbd080c83	-0.033215057
126	0x3d6dd6e0	0.05806625
127	0x3ccaaff3	0.024742102
128	0x3cb8fa93	0.02258042
129	0xbdb2d9bf	-0.08732938
130	0xbd872563	-0.06598928
131	0xbcb21007	-0.021736158
132	0xbce9fe7a	-0.028563727
133	0xbd97a840	-0.07405138
134	0x3d4835a7	0.04887929
135	0xbcab2807	-0.02089311
136	0x3d79a640	0.060949564
137	0x3b97394d	0.004614985
138	0xba6b8d9a	-0.0008985639
139	0x3da78c92	0.081811085
140	0xbd8ba027	-0.06817656
141	0xbcd36d47	-0.025808943
142	0xbd27c737	-0.04096147
143	0x3d5415a0	0.051778436
144	0xbd192d9d	-0.037397016
145	0xbd6569a3	-0.056008946
146	0x3d8ec5e8	0.06971341
147	0xbdabd155	-0.08389536
148	0x3cccc620	0.024996817
149	0x3d1afbea	0.0378379
150	0xbdc76dc5	-0.09737734
151	0x3c451373	0.012028563
152	0x3b80a180	0.0039255023
153	0xbb9d1d1a	-0.004794729
154	0x3a7fb400	0.00097543
155	0xbd91f4cb	-0.07126769
156	0xbd7e222a	-0.0620443
157	0xbd955862	-0.07292248
158	0xbd4351e0	-0.047685504
159	0x3db47f3b	0.0881333
160	0x3d92b8b3	0.07164135
161	0x3d12ddad	0.035855938
162	0x3cb837e0	0.02248758
163	0x3d88e657	0.06684559
164	0xbdb4ff5d	-0.08837769
165	0xbd61f877	-0.055168595
166	0x3db10cf5	0.086450495
167	0x3d8a4903	0.06752207
168	0x3d341ed3	0.04397471
169	0x3d8e12a8	0.06937152
170	0xbd5f83da	-0.054569103
171	0x3ce6a967	0.02815695
172	0xbcffad9a	-0.03121071
173	0xbd2a0290	-0.04150635
174	0xbd9ada58	-0.07561177
175	0x3d0d5663	0.034506213
176	0x3d9d1de3	0.07671716
177	0xbd9277a2	-0.071517244
178	0xbdb5be4f	-0.08874189
179	0x3bca51b3	0.00617429
180	0xbdc8f7c2	-0.09812881
181	0xbdc75d9d	-0.09734652
182	0xbdc9d48a	-0.09854992
183	0x3d966db2	0.073451415
184	0x3ce08da0	0.027411282
185	0x3d03cbd0	0.032176793
186	0x3d2325e0	0.039831042
187	0x3d892ac7	0.06697612
188	0x3d55339a	0.052051164
189	0xbdb899da	-0.0901372
190	0x3d1b30b7	0.037888255
191	0x3c225fda	0.009910548
192	0x3d7364cd	0.059422303
193	0x3d7a19e7	0.06105986
194	0x3d8a175f	0.06742739
195	0x3cad9bc7	0.021192444
196	0x3d2b5b0a	0.04183487
197	0xbd9f09e8	-0.07765561
198	0x3c01715a	0.00790056
199	0x3d5782f3	0.052615117
200	0x3d8446fb	0.06458851
201	0x3c16cd4d	0.009204221
202	0x3da66878	0.081253946
203	0xbc949dfa	-0.018141735
204	0xbdc54b3a	-0.09633489
205	0x3dc1d0fb	0.09463688
206	0x3d867a6a	0.065663174
207	0xbdb1991a	-0.0867178
208	0x3dc78323	0.09741809
209	0xbd4d1c03	-0.050075542
210	0xbdbd8895	-0.092545666
211	0x3d894553	0.06702676
212	0xbd6e0703	-0.058112156
213	0x3ba3e2e7	0.005001414
214	0xbd7fa243	-0.062410604
215	0x3d8085e8	0.062755406
216	0xbd894ecd	-0.06704483
217	0xbdca47b2	-0.09876956
218	0xbdc5714d	-0.09640751
219	0x3dbea865	0.093094625
220	0x3d893557	0.06699627
221	0xbd1675ea	-0.036733545
222	0x3c9e5e47	0.019332064
223	0xbd05f943	-0.032708418
224	0xbc1d0d00	-0.009585619
225	0xbc9aeced	-0.018911803
226	0x3dc28a40	0.09499025
227	0xbda645a3	-0.08118751
228	0x3cca0ced	0.024664367
229	0x3d575127	0.052567627
230	0x3d65d013	0.05610664
231	0xbdb77cbf	-0.0895934
232	0x3daef06f	0.08541953
233	0x3c1003f3	0.008790004
234	0xbdc7c2f0	-0.09753978
235	0xbd61da43	-0.05513979
236	0x3d8c186f	0.06840598
237	0xbda479cf	-0.08031046
238	0xbc5b2fcd	-0.013378096
239	0xbd111803	-0.03542329
240	0x3d01c843	0.031685125
241	0x3d9de307	0.07709318
242	0x3d83c1ba	0.06433435
243	0x3d0141da	0.03155694
244	0x3d785343	0.06062628
245	0xbd952b63	-0.07283666
246	0xbcbcd3b3	-0.023050165
247	0x3dac94a5	0.08426789
248	0x3da14e82	0.07876302
249	0x3c2a7e00	0.010406017
250	0x3cc1a847	0.023639811
251	0x3d0f0d30	0.034924686
252	0x3d08b847	0.033378866
253	0xbdb8af53	-0.090178154
254	0x3c336fda	0.01095196
255	0x3c217180	0.009853721

weight_hh_l0 f4 [300, 100]
0	0x3c58781a	0.013212228
1	0xbdb8e76f	-0.090285175
2	0x3d41d4f7	0.04732224
3	0x3d9b6197	0.07586973
4	0xbdb1b58b	-0.08677205
5	0xbdb23312	-0.08701147
6	0xbd56ea73	-0.052469682
7	0xbd6eb720	-0.05828011
8	0x3b9fc680	0.004875958
9	0xbd678820	-0.056526303
10	0xbc23b0b3	-0.009990859
11	0xbdb10f78	-0.086455286
12	0xbc7923b3	-0.015206265
13	0x3db33fd2	0.08752407
14	0xbd5d6b70	-0.05405754
15	0xbc4b43f3	-0.012406337
16	0x3c4c014d	0.012451482
17	0xbd1e4947	-0.0386441
18	0x3c2e0ba7	0.010622895
19	0x3cbd5927	0.0231138
20	0xbb983680	-0.004645169
21	0xbdabcd7a	-0.08388801
22	0x3d37504a	0.044754304
23	0xbd237637	-0.03990766
24	0x3dac20df	0.08404707
25	0x3d0d21da	0.03445611
26	0xbdb3a000	-0.08770752
27	0x3dc78868	0.09742814
28	0xbd3c098d	-0.045907546
29	0x3d9cc475	0.07654659
30	0x3d0595d0	0.032613575
31	0xbd4a487a	-0.049385525
32	0xbdb630db	-0.08896037
33	0x3dabd182	0.0838957
34	0x3db00adf	0.085958235
35	0x3d440273	0.0478539
36	0xbdbadb92	-0.09123911
37	0x3cb4c720	0.022067606
38	0x3d3d3433	0.04619236
39	0xbd6bb34a	-0.05754403
40	0x3d0e6afa	0.03476999
41	0xbd003a2d	-0.03130548
42	0xbd51f53d	-0.051259268
43	0x3d096977	0.033547845
44	0xbd71d950	-0.059045136
45	0xbd3cbc5a	-0.046078064
46	0x3b67e4cd	0.0035384179
47	0x3d1e434a	0.03863839
48	0x3cf95647	0.030436648
49	0xbdc4d9d8	-0.09611863
50	0xbd656577	-0.056004968
51	0x3dcba7d8	0.09944123
52	0xbd83adb2	-0.06429614
53	0xbda145d8	-0.0787465
54	0x3d81ed08	0.06344038
55	0x3d9ccb95	0.07656018
56	0x3dc8b5fa	0.09800334
57	0x3d3edc87	0.04659703
58	0xbcc4f433	-0.024042225
59	0x3b835c00	0.00400877
60	0x3ca62cfa	0.020285118
61	0x3d26ba8a	0.04070524
62	0xbd1399b0	-0.03603524
63	0xbd989c4a	-0.07451685
64	0x3c0436c0	0.008069694
65	0xbc32e4cd	-0.010918808
66	0xbd5a8eda	-0.05335889
67	0x3b7dc467	0.0038721801
68	0x3d5c4bc0	0.05378318
69	0xbd03a827	-0.032142784
70	0xbd83e5c7	-0.06440311
71	0xbd18e577	-0.03732821
72	0x3c34dbda	0.011038745
73	0xbdb9682f	-0.090530746
74	0xbdaa4d02	-0.08315469
75	0x3cdc55ba	0.026896346
76	0x3ce51a13	0.027966535
77	0xbda56fc7	-0.080779605
78	0x3c9c5c73	0.019087052
79	0x3d141600	0.036153793
80	0x3dba5698	0.09098548
81	0x3dca5720	0.09879899
82	0x3d05e250	0.03268653
83	0x3d5c0d97	0.053723898
84	0x3cae2160	0.021256149
85	0x3d41f923	0.047356736
86	0xbdafd455	-0.08585421
87	0x3d9cf4b8	0.07663864
88	0xbdb87b1d	-0.09007857
89	0x3c9584fa	0.018251885
90	0xbd617123	-0.055039536
91	0xbc7de0e7	-0.015495515
92	0x3d270dc0	0.040784597
93	0xbd898d12	-0.0671636
94	0xbdbb9800	-0.09159851
95	0xbcb92e67	-0.022605134
96	0xb8802667	-6.1106686e-05
97	0xbd9f8b1b	-0.07790204
98	0x3d083d9a	0.033261873
99	0x3cc5f940	0.024166703
100	0xbda90b5b	-0.08254119
101	0x3d2f057a	0.042729832
102	0x3c3e348d	0.011609209
103	0xbc838b87	-0.016057743
104	0xbc7f6c40	-0.015589774
105	0xbd810245	-0.06299261
106	0xbdc8bec5	-0.098020114
107	0x3be59bcd	0.0070070983
108	0x3d9b582a	0.07585175
109	0xbcf26947	-0.029591216
110	0xbd02f91a	-0.031975843
111	0xbdadc083	-0.08483984
112	0x3d951877	0.07280057
113	0xbd34db8d	-0.044154692
114	0xbd070660	-0.032965064
115	0xbd9222d7	-0.071355514
116	0x3d434297	0.047670927
117	0xbdade08d	-0.08490095
118	0x3d8c595f	0.06852984
119	0x3dc6cf38	0.097074926
120	0xbd77b553	-0.06047566
121	0x3d1acf6a	0.03779546
122	0x3d8c7102	0.06857492
123	0xbb88849a	-0.004166198
124	0xbd358657	-0.04431757
125	0xbce57653	-0.028010523
126	0x3d96bd07	0.07360273
127	0x3c878913	0.016544854
128	0xbda028ab	-0.07820257
129	0xbd370bd7	-0.044689026
130	0x3d97e267	0.0741623
131	0x3d831588	0.06400591
132	0xbd7522c0	-0.059847593
133	0xbd74991d	-0.059716333
134	0xbd5c1543	-0.053731214
135	0x3dc9f0c8	0.098603785
136	0x3d6eb26d	0.05827563
137	0xbd58ac3a	-0.052898623
138	0xbd72d8da	-0.059288837
139	0x3ca5d9c7	0.020245446
140	0xbd8a0023	-0.06738307
141	0xbcd89380	-0.026437521
142	0x3db9fa02	0.09080888
143	0x3cfe59b3	0.031048631
144	0xbae4f667	-0.0017468453
145	0x3cbdd367	0.023172094
146	0xbdb3b372	-0.08774461
147	0xbd6e2b50	-0.058146775
148	0x3d810c2f	0.06301152
149	0x3d60e7dd	0.054908622
150	0xbcabaa67	-0.020955278
151	0xbd91f5dd	-0.07126973
152	0xbdaa5027	-0.08316069
153	0xbdc02ddb	-0.09383746
154	0xbd4af55a	-0.04955039
155	0xbd8b1cc0	-0.06792593
156	0x3d2242ea	0.039614595
157	0x3c5052b3	0.0127150295
158	0x3dc1723b	0.09445616
159	0xbdc0ca9f	-0.09413647
160	0x3d9d96fd	0.07694814
161	0xbd4261da	-0.0474566
162	0x3d071add	0.032984603
163	0xbd4ca4d0	-0.049961865
164	0x3d4eb9aa	0.05047003
165	0x3ca6267a	0.020282019
166	0x3d33e993	0.043923926
167	0xbdbf30db	-0.0933549
168	0x3c947333	0.018121338
169	0x3daa9877	0.083298616
170	0xbd727ab3	-0.059199046
171	0xbd616173	-0.055024575
172	0xbda91ca0	-0.08257413
173	0xbdab23a8	-0.0835641
174	0x3da7dc82	0.081963554
175	0xbd73addd	-0.05949198
176	0xbb0090cd	-0.0019617558
177	0xbba93b33	-0.005164528
178	0x3d7887b0	0.060676277
179	0x3dc75012	0.09732069
180	0xbd25119d	-0.0403
181	0x3cd25c7a	0.025678862
182	0xbcb4b2c0	-0.02205789
183	0x3cafe440	0.021471143
184	0xbd31f8b7	-0.043450084
185	0xbd8efd7b	-0.06981941
186	0xbd401867	-0.046898272
187	0x3d397263	0.045275103
188	0x3db78397	0.08960646
189	0xbdc12dba	-0.0943255
190	0x39410667	0.000184083
191	0x3d615f10	0.0550223
192	0xbdab5f02	-0.08367731
193	0x3d086f63	0.03330935
194	0x3b7a0833	0.003815186
195	0x3d37ba47	0.044855382
196	0x3cee02c7	0.029054059
197	0xbd0c7403	-0.034290325
198	0x3a2df0cd	0.00066353084
199	0xbb605600	-0.0034230947
200	0x3b6ee167	0.0036450268
201	0xbbff424d	-0.007789886
202	0x3dba5262	0.090977445
203	0x3c9028a0	0.017597497
204	0x3ccb4c6d	0.024816716
205	0xbcfb227a	-0.030656088
206	0x3db7b35f	0.08969759
207	0x3c9db2ba	0.019250263
208	0xbd4b94b3	-0.049702358
209	0xbd4181a3	-0.04724277
210	0x3dcad318	0.09903544
211	0x3b270567	0.0025485398
212	0x3a54cb33	0.0008117437
213	0x3da1c3cd	0.07898674
214	0xbd99c62f	-0.07508504
215	0xbcd9e593	-0.026598727
216	0xbd8649c8	-0.065570414
217	0xbd37878d	-0.044807006
218	0x3d709f50	0.058745682
219	0x3c009f8d	0.00785054
220	0x3b9c1680	0.0047634244
221	0x3dbc4a33	0.0919384
222	0x3d57e0bd	0.05270456
223	0x3d2cb3e3	0.04216374
224	0xba3e9000	-0.00072693825
225	0x3ccf94d3	0.02533952
226	0xbd8c404b	-0.068482004
227	0xbd7ebc0a	-0.062191047
228	0xbd561037	-0.052261557
229	0x3d0d9f23	0.034575593
230	0xbd28541d	-0.04109584
231	0xbc786d80	-0.015162826
232	0xbd5b41ea	-0.053529657
233	0xbd9080c8	-0.07055813
234	0x3dcc5e3a	0.0997891
235	0x3d9bec80	0.07613468
236	0x3d6135f7	0.054983106
237	0xbdbc9eb5	-0.092099585
238	0x3db3707f	0.08761691
239	0xbdba08f0	-0.09083736
240	0x3dbb212a	0.09137185
241	0xbd97483d	-0.07386825
242	0xbd0bec33	-0.034160804
243	0xbdb7ed55	-0.08980814
244	0xbda7ae6d	-0.08187566
245	0xbbef1a4d	-0.0072968365
246	0xbd1b1a0a	-0.03786663
247	0x3d6066ea	0.054785646
248	0x3dc4b9f2	0.09605779
249	0x3c5982b3	0.01327579
250	0xbcbe32ba	-0.023217548
251	0x3d82eefb	0.06393238
252	0xbcd405a7	-0.025881601
253	0xbdab7247	-0.08371406
254	0x3d4bbff7	0.04974362
255	0x3d57483d	0.052559126

bias_ih_l0 f4 [300]
0	0xbd304480	-0.043034077
1	0xbca46300	-0.020066738
2	0xbd72af0d	-0.059248973
3	0x3caa352d	0.02077731
4	0xbd2bcd30	-0.04194373
5	0xbdcb68bf	-0.09932088
6	0xbd3d3bba	-0.046199538
7	0xbdb8d712	-0.090253964
8	0xbd54cebd	-0.051954973
9	0xbaccb59a	-0.0015618086
10	0x3db09e15	0.08623902
11	0x3bf80333	0.0075687408
12	0xbd2eea4d	-0.042703915
13	0x3dc73d9b	0.09728547
14	0xbbe7e067	-0.0070763114
15	0x3dac47d3	0.08412137
16	0xbdc2f8eb	-0.095201336
17	0x3c20d8e7	0.009817339
18	0x3badd767	0.005305219
19	0xbd4983b0	-0.049197853
20	0x3d6c9190	0.057756007
21	0xbcf6707a	-0.03008293
22	0x3d7f87ad	0.06238525
23	0xbdc82f47	-0.097746424
24	0x3d164dea	0.0366954
25	0x3c0db033	0.008647966
26	0xbc95ca5a	-0.018284965
27	0xbd284e8d	-0.041090537
28	0x3d0941b7	0.033509936
29	0xbd6e50c3	-0.05818249
30	0xbd9dae7d	-0.076992966
31	0x3c3d988d	0.0115720155
32	0xbbbbbf80	-0.0057296157
33	0xbdcab0e8	-0.098970234
34	0xbdcc14eb	-0.09964927
35	0xbd4bf290	-0.049791873
36	0x3d16c96a	0.036813177
37	0xbdb9e257	-0.09076374
38	0xbda883bf	-0.082282536
39	0x3d193bf3	0.037410688
40	0x3cda226d	0.026627744
41	0xbd2c0cc3	-0.042004358
42	0x3d9499ab	0.07255872
43	0xbcd73b87	-0.026273502
44	0x3d7bf320	0.06151116
45	0xbdc7570d	-0.097334005
46	0xbbedf780	-0.0072621703
47	0xbd753ac0	-0.05987048
48	0x3dcc36a8	0.09971362
49	0x3c0f3573	0.008740771
50	0x3d1f3287	0.038866546
51	0xbdb75115	-0.08951012
52	0x3cee52ba	0.029092181
53	0xbd617037	-0.055038657
54	0x3ccbace7	0.02486272
55	0xbd85faca	-0.06541975
56	0x3d9679e0	0.073474646
57	0xbce7710d	-0.028252149
58	0xbdc376c5	-0.09544138
59	0xbd9c8ffd	-0.07644651
60	0x3d3af7bd	0.045646418
61	0x3dcb3a90	0.09923279
62	0x3d429e6d	0.047514368
63	0x3dca26bd	0.0987067
64	0x3bd2e180	0.006435573
65	0x3d024e23	0.0318128
66	0x3d4f8303	0.050662052
67	0xbd8e72f5	-0.0695552
68	0xbdb29cba	-0.087212995
69	0xbd8c9fc0	-0.068664074
70	0x3db92362	0.09039952
71	0x3d8fe122	0.070253626
72	0xbd803272	-0.06259622
73	0x3d198220	0.037477612
74	0xbcc5ec20	-0.024160445
75	0xbdbbb3f2	-0.09165181
76	0x3c94f2c7	0.018182172
77	0x3d81a4cf	0.06330263
78	0xbc3f4100	-0.011673212
79	0xbd2f7473	-0.042835664
80	0xbbd7641a	-0.0065732123
81	0xbd80ec5f	-0.06295084
82	0xbb878c67	-0.0041366103
83	0xbd92eeba	-0.0717444
84	0xbd1f9623	-0.03896154
85	0xbd7953e3	-0.060871016
86	0x3d8ff015	0.07028214
87	0x3daa3d1f	0.08312439
88	0xbda49ce5	-0.08037738
89	0x3d232180	0.03982687
90	0xbcdadbad	-0.026716078
91	0x3c938d27	0.018011643
92	0x3c9929fa	0.018696774
93	0x3dc9e8d2	0.0985886
94	0x3d0fc157	0.035096493
95	0xbdba9937	-0.09111255
96	0x3ce58eda	0.028022218
97	0xbc1a8967	-0.009432173
98	0x3d4dbbe7	0.050228026
99	0x3c96ca20	0.018406928
100	0x3dc532cf	0.096288316
101	0x3d30f57d	0.043202866
102	0xbdba5818	-0.09098834
103	0xbcc1ad6d	-0.023642266
104	0x3ce925c0	0.028460383
105	0x3dc7cd5a	0.097559646
106	0x3d6007b7	0.054694857
107	0xbaa20e67	-0.0012363911
108	0x3d9db682	0.07700826
109	0x3d285ac7	0.041102197
110	0x3c7eabda	0.015543902
111	0x3d006baa	0.031352676
112	0x3bc795e7	0.006090868
113	0xbd9c262a	-0.07624467
114	0x3dba5950	0.09099066
115	0xbda225a2	-0.07917334
116	0xbda3d545	-0.07999662
117	0xbd05f17a	-0.032700993
118	0xbcb59b87	-0.022168888
119	0x3d9a3a45	0.07530645
120	0xbdb44ba8	-0.08803493
121	0xbd24e817	-0.0402604
122	0xbaf62200	-0.0018778443
123	0xbd10d33a	-0.03535769
124	0xbd383660	-0.04497373
125	0x3d084a90	0.033274233
126	0xbd90a5b3	-0.070628546
127	0x3d8d46dd	0.06898282
128	0xbdc5b11d	-0.09652922
129	0xbd2ad48d	-0.04170661
130	0xbcfb7ffa	-0.030700672
131	0xbd532c07	-0.05155566
132	0xbcdc2b73	-0.026876187
133	0xbd196d3a	-0.037457682
134	0xbdc9e4b7	-0.09858077
135	0xbd7cf520	-0.061757207
136	0xbd68b463	-0.056812655
137	0x3d3b003a	0.045654513
138	0xbd106e77	-0.035261597
139	0x3dc12bf8	0.094322145
140	0x3d1f56e0	0.03890121
141	0xbdc2e312	-0.095159665
142	0xbc1e99c0	-0.009680212
143	0x3c2f3bb3	0.010695386
144	0x3da0399d	0.07823489
145	0x3dc437a3	0.09580924
146	0x3d156473	0.03647275
147	0xbd565dc0	-0.0523355
148	0x3dc4217b	0.095766984
149	0x3c57f300	0.013180494
150	0x3cdb41ba	0.02676474
151	0x3ce64900	0.028110981
152	0x3c6c439a	0.014420414
153	0x3dba90af	0.091096275
154	0x3b684c67	0.003544593
155	0xbd9990df	-0.07498335
156	0x3d930985	0.0717955
157	0x3d18d06d	0.037308145
158	0xbd1fe63a	-0.03903792
159	0x3dc65eea	0.09686072
160	0x3cb0df9a	0.021590997
161	0xbcc89e93	-0.024489677
162	0x3c9e134d	0.019296313
163	0x3caf7efa	0.021422852
164	0xbc880cfa	-0.01660775
165	0x3d9c9f17	0.076475315
166	0x3dacf9ab	0.08446058
167	0xbdb444c7	-0.08802181
168	0x3da47872	0.080307856
169	0x3d88e67b	0.06684586
170	0x3db8ee2a	0.09029801
171	0xbcdf4bc0	-0.0272578
172	0x3d803fc5	0.06262163
173	0xbd2ca93d	-0.042153586
174	0x3c11e5b3	0.008904862
175	0xbcc72f7a	-0.02431463
176	0xbd404f90	-0.046950877
177	0xbbef39cd	-0.0073005916
178	0x3dc6348b	0.096779905
179	0x3d307f23	0.043089997
180	0xbc5d5a5a	-0.013510311
181	0x3c079500	0.00827527
182	0x3d21ccd3	0.039501976
183	0xbca9a50d	-0.020708585
184	0xbd653887	-0.05596211
185	0x3d81c0bb	0.063355885
186	0xbd4edbbd	-0.050502528
187	0xbc6e3ada	-0.0145403985
188	0x3d317fed	0.04333489
189	0xbd46d947	-0.048547056
190	0x3ce48900	0.027897358
191	0x3c32aeda	0.010905946
192	0xbdb5f7c3	-0.088851474
193	0xbc172440	-0.009224951
194	0xbd976cdd	-0.07393811
195	0xbd487cba	-0.048947074
196	0x3d41f3fd	0.047351826
197	0x3dba2863	0.090897344
198	0x3d990c4d	0.07473049
199	0xbd91f192	-0.07126154
200	0xbc536c8d	-0.0129042985
201	0x3d29e827	0.041481163
202	0xbdb28823	-0.08717372
203	0xbd7a17d3	-0.061057877
204	0x3cec8ce0	0.028875768
205	0xbc9c82b3	-0.019105291
206	0x3d9286d8	0.07154626
207	0x3dbd427f	0.09241199
208	0xbdac2500	-0.08405495
209	0xbdb64692	-0.08900179
210	0xbd46e380	-0.048556805
211	0x3cb3dc53	0.021955645
212	0x3d300783	0.042975914
213	0xbd8095df	-0.06278586
214	0xbd9425aa	-0.07233746
215	0x3d0537fa	0.032524087
216	0xbd1f6087	-0.038910415
217	0xbd8dadbd	-0.069179036
218	0x3c2afd67	0.010436392
219	0x3d028b50	0.03187114
220	0x3d81ac1a	0.06331654
221	0x3d2f03e7	0.04272833
222	0x39d4b800	0.00040572882
223	0xbda034c7	-0.078225665
224	0x3c59c627	0.013291872
225	0xbdbdfe7f	-0.09277057
226	0xbd726980	-0.059182644
227	0x3cf29673	0.029612755
228	0x3bd5d7b3	0.0065259575
229	0x3d6b0ecd	0.057387162
230	0xbd812cd7	-0.06307381
231	0xbdb9f62d	-0.090801574
232	0xbd98fdc5	-0.07470278
233	0xbd0fdabd	-0.035120714
234	0x3d1acf37	0.03779527
235	0x3dc88792	0.09791483
236	0xbccaa03a	-0.024734605
237	0x3d93c5c5	0.07215456
238	0xbd5e26d3	-0.054236244
239	0x3da05143	0.078279994
240	0x3c6717da	0.014104808
241	0x3d92c57b	0.07166573
242	0xbda49630	-0.080364585
243	0x3dc09c83	0.09404852
244	0xbd3fd3ad	-0.04683273
245	0xbda167e0	-0.07881141
246	0x3db0dbc0	0.08635664
247	0xbd28c130	-0.041199863
248	0xbd419040	-0.04725671
249	0x3da9490f	0.08265888
250	0x3dc91ff3	0.09820547
251	0xbd2cef20	-0.042220235
252	0xbd48d30a	-0.049029388
253	0xbda0eaed	-0.078573085
254	0xbd06bfb7	-0.032897677
255	0xbcd77ada	-0.026303697

bias_hh_l0 f4 [300]
0	0x3d4f2277	0.050569978
1	0xbd85919d	-0.06521914
2	0x3dbbc39d	0.0916817
3	0xbd60691d	-0.054787744
4	0x3b773d67	0.0037725808
5	0xbc65d0b3	-0.014026809
6	0x3d3584e0	0.044316173
7	0x3d0cadf3	0.03434558
8	0x3ba02700	0.0048874617
9	0x3d6d105a	0.057876922
10	0xbda2bcb0	-0.079461455
11	0x3c884ea0	0.016639054
12	0xbbebb200	-0.00719285
13	0xbd2642e3	-0.040591132
14	0xbd0c0c57	-0.034191456
15	0xbc781dda	-0.015143836
16	0x3c243b33	0.01002388
17	0xbd33906a	-0.043838896
18	0xbcdc3047	-0.02687849
19	0xbd0694b3	-0.032856654
20	0xbd362b1d	-0.04447471
21	0xbd5a9a9d	-0.053370107
22	0xbdb3ab7d	-0.08772943
23	0x3d4b534a	0.049639978
24	0x3da31b67	0.07964211
25	0xbcdc0833	-0.026859378
26	0x3dac67d5	0.08418242
27	0xbcbaebd3	-0.022817528
28	0x3d5c005a	0.053711273
29	0xbca03a07	-0.01955892
30	0x3d8ad9b3	0.06779804
31	0xbd459cb7	-0.048245158
32	0xbc79908d	-0.0152322175
33	0x3d8dd708	0.069257796
34	0x3ca2a69a	0.019854832
35	0xbccf8127	-0.02533014
36	0x3db10485	0.0864344
37	0xb8dc2ccd	-0.00010498762
38	0xbd0620fd	-0.032746304
39	0x3ca248ed	0.019810164
40	0x3d1c90b3	0.038223933
41	0x3dbb04c7	0.091317706
42	0x3a22bd9a	0.00062080624
43	0xbdae36b2	-0.08506526
44	0xbd45e210	-0.048311293
45	0x3daf48c0	0.08558798
46	0x3db4164d	0.08793316
47	0xbdc308f7	-0.09523194
48	0x3d02a37d	0.031894196
49	0xbda133c2	-0.078712
50	0xbc46af40	-0.012126744
51	0x3a3e5000	0.0007259846
52	0xbc88443a	-0.016634095
53	0x3db5eccf	0.08883058
54	0x3cd9a24d	0.026566649
55	0x3ce4d293	0.02793244
56	0x3d0f3b0d	0.034968425
57	0xbda67428	-0.08127624
58	0xbd9432fd	-0.07236288
59	0xbd9cf97a	-0.076647714
60	0xbd37246d	-0.044712473
61	0xbd459fe3	-0.048248183
62	0xbd9d01bb	-0.07666346
63	0x3dbd28d5	0.09236304
64	0xbd3e6200	-0.04648018
65	0x3db15e27	0.08660536
66	0x3ccb19ed	0.024792636
67	0xbc32f5b3	-0.010922837
68	0x3d9bf63d	0.076153256
69	0xbccee3e0	-0.025255144
70	0x3da2fb9d	0.07958148
71	0xbd8640bb	-0.06555315
72	0xbc0352f3	-0.008015382
73	0x3db04fa8	0.08608943
74	0xbcab68cd	-0.020923996
75	0x3c608ae7	0.013704992
76	0xbce0059a	-0.027346421
77	0xbdbb6273	-0.09149637
78	0xbbfe1080	-0.007753432
79	0x3d38140d	0.044940997
80	0xbda8e6ea	-0.08247168
81	0xbc9e8c80	-0.019354105
82	0x3c6e3067	0.014537907
83	0xbd54ce47	-0.051954534
84	0x3da0a640	0.0784421
85	0x3d148acd	0.036265183
86	0x3d528053	0.05139191
87	0x3d861582	0.06547071
88	0xbd6c0b1a	-0.057627775
89	0x3ce52980	0.02797389
90	0xbdc8b962	-0.09800984
91	0xbdb7d4a8	-0.08976108
92	0xbdca9f4d	-0.098936655
93	0x3d7581ed	0.05993836
94	0x3c14bf80	0.00907886
95	0x3d38e7b3	0.04514284
96	0x3cb9175a	0.022594143
97	0xbd8cac20	-0.06868768
98	0xbd969a67	-0.07353669
99	0x3dbc6d03	0.0920048
100	0x3d3d82d0	0.04626733
101	0x3dc09f6a	0.09405406
102	0xbcfea953	-0.0310866
103	0x3d8c5448	0.06852013
104	0xbabafb9a	-0.0014265657
105	0xbd1a18ed	-0.037621427
106	0x3ccdb293	0.025109565
107	0xbb93beb3	-0.004508817
108	0xbd4bbb40	-0.049739122
109	0xbd1140ba	-0.03546212
110	0xbda20803	-0.07911684
111	0x3cc2d4b3	0.023783064
112	0x3b8eee1a	0.00436188
113	0xbbfd9a80	-0.007739365
114	0x3ca245f3	0.019808745
115	0xbc2083a7	-0.009797013
116	0xbd38eab3	-0.0451457
117	0xbdada8ff	-0.08479499
118	0x3d14862a	0.03626076
119	0xbdc674bf	-0.09690236
120	0xbcf0bba7	-0.029386355
121	0x3bfe1f00	0.0077551603
122	0x3d8e9c7f	0.06963443
123	0xbca459e7	-0.0200624
124	0xbb40e39a	-0.0029432536
125	0xbdb65d72	-0.08904542
126	0x3d4c6c0a	0.04990772
127	0x3dc2fa25	0.095203675
128	0x3d704277	0.058657136
129	0xbdafeb10	-0.085897565
130	0xb821a667	-3.8540365e-05
131	0xbd31686a	-0.043312468
132	0xbd70d09d	-0.0587927
133	0xbcd593b3	-0.026071405
134	0xbd13547a	-0.035969235
135	0xbdb9a070	-0.09063804
136	0xbdb6ea0f	-0.08931362
137	0xbdc0b180	-0.094088554
138	0xbc6f1c8d	-0.014594209
139	0xbda9c0c7	-0.082887225
140	0xbd37ba00	-0.044855118
141	0x3d44e80d	0.048072863
142	0x3db77682	0.089581504
143	0xbc41c3c0	-0.011826456
144	0xbd011fba	-0.031524397
145	0x3ce6f600	0.028193474
146	0xbd01582a	-0.03157822
147	0x3d328e0d	0.0435925
148	0x3d774890	0.060371935
149	0x3dade3ea	0.08490737
150	0xbcccfc67	-0.025022699
151	0xbd5f3eba	-0.05450318
152	0x3d93d47f	0.07218265
153	0x3dafa1e5	0.08575801
154	0xbca0b00d	-0.019615198
155	0x3cdf588d	0.027263904
156	0x3dc75e55	0.09734789
157	0xbc9b8a6d	-0.018986905
158	0x3d58d343	0.05293585
159	0xbd0000e0	-0.031250834
160	0xbcf91353	-0.030404722
161	0xbdc22c35	-0.09481088
162	0xbd2168d7	-0.039406624
163	0x3d6b43b3	0.05743761
164	0x3bb094b3	0.00538882
165	0xbd859182	-0.06521894
166	0x3d142ce7	0.036175635
167	0x3d2d1163	0.04225291
168	0xbd472940	-0.048623323
169	0xb98fe19a	-0.00027443172
170	0x3dca1d97	0.09868925
171	0x3cbedc40	0.023298383
172	0x3d9bd60b	0.07609185
173	0x3d955e3f	0.07293367
174	0xbd23182a	-0.039817967
175	0xbd503e8a	-0.050840892
176	0xbdbd6002	-0.09246828
177	0xbc9c37ad	-0.019069517
178	0xbd130e87	-0.035902526
179	0x3bbc429a	0.005745244
180	0xbc5f791a	-0.013639713
181	0x3ba4a39a	0.0050243856
182	0xb9ce019a	-0.00039292575
183	0x3ba9c980	0.0051814914
184	0xbd85c88f	-0.06532394
185	0xbca78c53	-0.020452654
186	0x3c7ff073	0.015621292
187	0x3d2277b7	0.03966495
188	0x3d4e1dda	0.050321437
189	0xbc9f9cc7	-0.019483937
190	0xbda0f208	-0.07858664
191	0xbd27f0a3	-0.041000973
192	0x3d856ebd	0.06515262
193	0x3d43ff3d	0.047850836
194	0xbda9b6c0	-0.0828681
195	0x3c93890d	0.018009687
196	0xbab65867	-0.0013911844
197	0xbd9c4abf	-0.07631444
198	0x3d8ad1f8	0.067783296
199	0xbc619ca7	-0.013770259
200	0xbd9bded2	-0.07610859
201	0xbca4cd80	-0.020117521
202	0x3b93d733	0.0045117377
203	0x3d382843	0.04496027
204	0xbca9c853	-0.020725405
205	0xbcb32d2d	-0.021872127
206	0x3dc4de70	0.09612739
207	0x3d8e52ea	0.06949408
208	0xbd45c1b3	-0.04828043
209	0x3d9231f8	0.07138437
210	0xbdaae092	-0.08343615
211	0x3d7b30f0	0.061325967
212	0xbbb38a67	-0.0054791453
213	0x3c870b0d	0.016484762
214	0xbd0efa23	-0.034906518
215	0xbd7c8fa3	-0.06166042
216	0x3d5ad2d3	0.053423714
217	0xbcb89cd3	-0.022535717
218	0xbc857a07	-0.016293539
219	0xbd8f1457	-0.069863014
220	0xbd6fcf90	-0.058547556
221	0x3d3dacca	0.046307363
222	0xbc5ba240	-0.013405383
223	0xbd61d740	-0.05513692
224	0xbc80bb80	-0.015714407
225	0xbda9c57b	-0.082896195
226	0xbd066523	-0.032811295
227	0xbd3af613	-0.04564483
228	0xbc22bef3	-0.009933221
229	0x3d7aaac7	0.061198022
230	0x3d779c23	0.060451638
231	0x3c966447	0.018358363
232	0xbdacafbd	-0.08431957
233	0x3d241ed7	0.040068474
234	0xbd9ca96b	-0.076495014
235	0xbd62b227	-0.05534568
236	0xbd02ad00	-0.031903267
237	0x3acd4200	0.0015659928
238	0x3c56359a	0.013074303
239	0x3d0c230a	0.034213103
240	0xbd3f62f7	-0.04672524
241	0xbd74cf1a	-0.05976782
242	0xbd940fa0	-0.07229543
243	0x3ce1c293	0.0275586
244	0x3d521d3d	0.051297415
245	0x3dada442	0.08478595
246	0xbc235533	-0.009969044
247	0xbd93fad8	-0.07225579
248	0xbb08cc67	-0.0020873786
249	0xbd24ab9d	-0.040202726
250	0x3da90a08	0.082538664
251	0xbc859fad	-0.01631149
252	0xbdc121bf	-0.09430265
253	0x3d42eab7	0.047587123
254	0x395dd667	0.00021156073
255	0x3ca3ba9a	0.01998644

weight f4 [50, 100]
0	0x3c871567	0.016489698
1	0x3dc3774d	0.09544239
2	0x3d5ba047	0.05361965
3	0x3bff471a	0.0077904584
4	0x3d0599d7	0.032617416
5	0x3d889627	0.06669264
6	0x3c6af21a	0.014339948
7	0x3cb0210d	0.021500135
8	0xbd7e08a0	-0.062019944
9	0xbb8af780	-0.00424093
10	0x3d0df910	0.034661353
11	0x3da678c3	0.08128502
12	0xbdbbe887	-0.091752104
13	0xbba16980	-0.0049259067
14	0xbda6a458	-0.08136815
15	0xbd5fff3a	-0.054686762
16	0xbd548ead	-0.05189388
17	0xbd8b7252	-0.06808914
18	0x3dc9c415	0.09851853
19	0x3d5f1187	0.054460075
20	0xba047e67	-0.0005054236
21	0xbd0ac0ad	-0.033875156
22	0x3c88c9a7	0.016697718
23	0x3d560fda	0.05226121
24	0x3c94a6ad	0.018145883
25	0x3c35001a	0.0110473875
26	0x3b14e233	0.0022717833
27	0x3da67113	0.08127036
28	0xbad77a67	-0.0016439677
29	0x3d046173	0.032319497
30	0x3d49765a	0.049185134
31	0xbdbbee95	-0.09176365
32	0x3d85a6d2	0.06525959
33	0x3cfd121a	0.03089242
34	0xbbaa9c4d	-0.005206621
35	0x3c885920	0.01664406
36	0xbd417a0a	-0.047235526
37	0x3c8018e7	0.015636874
38	0xbda4343b	-0.08017775
39	0x3d2c0b7d	0.042003144
40	0x3d04ded0	0.032439053
41	0xbd7ec1fd	-0.06219672
42	0x3dad2dfb	0.08456036
43	0xbd060f93	-0.032729696
44	0xbc64211a	-0.013923908
45	0x3da10588	0.07862383
46	0x3d4bfb8d	0.049800444
47	0x3d97c432	0.07410468
48	0x3c284b67	0.010271884
49	0xbcaef5e0	-0.021357477
50	0xbdc457dd	-0.09587071
51	0x3d70db07	0.05880263
52	0xbc014800	-0.007890701
53	0xbdc64d42	-0.096827045
54	0xbd97f1ba	-0.074191526
55	0xbd7be6ed	-0.061499525
56	0xbcf4f6ba	-0.029902805
57	0x3d7bb877	0.061455216
58	0xbd561a7a	-0.052271344
59	0x3d179340	0.037005663
60	0x3d81eb45	0.06343702
61	0x3d522ee7	0.05131426
62	0xbdcb0515	-0.09913079
63	0x3d9262e5	0.07147769
64	0xbda447dd	-0.08021519
65	0x3d4029ca	0.046914853
66	0xbd72dbb7	-0.059291568
67	0xbdb975cf	-0.09055673
68	0xbd6d9e5d	-0.058012355
69	0xbaba0067	-0.0014190794
70	0x3d569f5d	0.052398074
71	0x3d9ad228	0.075596154
72	0x3bdf8933	0.0068217753
73	0xbc1bfe67	-0.009521103
74	0x3d3503ad	0.04419296
75	0xbd9be23b	-0.076115094
76	0xbca80a2d	-0.020512665
77	0x3d8985aa	0.067149475
78	0xbd5adb77	-0.053431954
79	0xbd4a1d73	-0.04934449
80	0x3db6d640	0.08927584
81	0x3d88461a	0.06653996
82	0xbd51342a	-0.05107514
83	0x3c54b567	0.012982703
84	0x3a8214cd	0.0009924412
85	0x3d0a9467	0.033832934
86	0x3bb7b6b3	0.0056064962
87	0xbdc32f70	-0.09530532
88	0xbc9483e7	-0.018129302
89	0xbdb6d7eb	-0.08927902
90	0xbdb08c58	-0.086205184
91	0x3d0e6a6a	0.034769453
92	0x3daf2b72	0.085532084
93	0xbd073453	-0.033008885
94	0xbd9e3652	-0.077252045
95	0x3c4d8da7	0.01254598
96	0xbd7f9533	-0.062398147
97	0x3c0f6d5a	0.008754099
98	0xba20ce67	-0.0006134272
99	0xbb8632cd	-0.0040954114
100	0xbd6fb307	-0.058520343
101	0xbce52240	-0.027970433
102	0xbcf73887	-0.030178322
103	0x3d9d1a00	0.07670975
104	0x3cd52247	0.026017321
105	0xbdbdc7eb	-0.09266647
106	0xbd96e1da	-0.073672965
107	0xbd9ac23a	-0.07556577
108	0xbd86c793	-0.065810345
109	0x3d80a533	0.06281509
110	0x3d86a00a	0.06573494
111	0x3d8046aa	0.06263478
112	0x3cf378cd	0.029720688
113	0xbd033b73	-0.032039117
114	0x3c23efb3	0.010005879
115	0x3db97848	0.09056145
116	0x3d363403	0.044483196
117	0x3d90fdd0	0.07079661
118	0x3da85a5f	0.08220362
119	0xbd2372a7	-0.039904263
120	0xbd5d3bd3	-0.05401213
121	0xbc2d0367	-0.010559893
122	0xbd2b17f0	-0.041770875
123	0xbcd4a6b3	-0.025958395
124	0x3c63685a	0.01387986
125	0xbd84633a	-0.064642385
126	0x3d0bbbc3	0.03411461
127	0xbd99606d	-0.07489095
128	0xbc3ccf1a	-0.011523986
129	0xbcc811ad	-0.024422491
130	0x3dbac9a5	0.09120492
131	0x3c15590d	0.00911547
132	0x3dc3f218	0.0956766
133	0xbd9507e0	-0.07276893
134	0x3d53f187	0.05174401
135	0xbcf327c0	-0.02968204
136	0x3d8a5873	0.067551516
137	0xbdbd5b3a	-0.09245916
138	0x3da996bb	0.08280703
139	0xbdc90d02	-0.09816934
140	0x3d9ed00d	0.07754526
141	0x3d01e32d	0.031710792
142	0xbd8897d5	-0.06669585
143	0x3d8ad22d	0.06778369
144	0xbd9a9bdf	-0.07549261
145	0x3db741eb	0.0894812
146	0x3da2c0e5	0.07946948
147	0xbc97fa7a	-0.018552054
148	0x3c86ec2d	0.01647004
149	0x3d54c140	0.05194211
150	0x3da27660	0.079327345
151	0x3cdd59a0	0.027020276
152	0xbb3c0c33	-0.0028693795
153	0xbdaea243	-0.08527043
154	0xbd158a3a	-0.036508776
155	0x3daf766a	0.085675076
156	0x3cc2192d	0.023693645
157	0x3bae7c9a	0.0053249123
158	0xbcfc7be7	-0.0308208
159	0xbd85597d	-0.06511209
160	0xbc59e173	-0.01329838
161	0x3db63cc0	0.08898306
162	0x3d60e61d	0.054906953
163	0x3d5e7e37	0.054319587
164	0x3c1b1700	0.009465933
165	0x3ce0dc4d	0.027448798
166	0xbd0245e7	-0.031804945
167	0x3d804b45	0.062643565
168	0x3d9a1333	0.07523193
169	0x3c6f47e7	0.014604545
170	0x3d8faf07	0.07015806
171	0x3d889cd7	0.0667054
172	0xbd88337a	-0.066504434
173	0xbd704c20	-0.05866635
174	0xbd462c63	-0.048382174
175	0x3c0b819a	0.008514786
176	0x3c9e55a7	0.019327952
177	0x3db80cd5	0.089868225
178	0x3da073e7	0.078346066
179	0x3d588987	0.05286553
180	0xbb7ac400	-0.0038263798
181	0x3d18d6ca	0.037314214
182	0x3d563e6a	0.052305616
183	0x3d1d6470	0.038425863
184	0xbd96f613	-0.07371154
185	0x3dc1d9e0	0.094653845
186	0xbd972a4a	-0.07381113
187	0xbd1ee36a	-0.038791098
188	0xbaa49333	-0.0012556076
189	0x3d8a8ccf	0.06765138
190	0xbcd53313	-0.02602533
191	0xbcb60e13	-0.022223508
192	0x3bd12e33	0.006383681
193	0x3c848c93	0.016180312
194	0x3ae5eacd	0.001754129
195	0x3d2a378d	0.041556884
196	0xbda52a20	-0.08064675
197	0xbdc8023f	-0.097660534
198	0x3d86e950	0.065874696
199	0xbd975bed	-0.0739058
200	0xbdb2bc6d	-0.087273456
201	0x3d819632	0.063274756
202	0x3c45835a	0.012055242
203	0xbdabd9a5	-0.08391122
204	0x3a728d9a	0.00092526677
205	0xbd03f537	-0.032216277
206	0xbda0f877	-0.07859891
207	0x3cbb700d	0.022880578
208	0xbd84ee68	-0.06490785
209	0xbdb02062	-0.085999265
210	0x3c931b3a	0.017957319
211	0xbc84d140	-0.01621306
212	0x3d2ba160	0.041901946
213	0xbd97ebe0	-0.074180365
214	0xbd75387a	-0.059868313
215	0xbbf32367	-0.007419992
216	0xbc2876f3	-0.010282266
217	0x3da3e227	0.080021195
218	0x3dbc22ba	0.09186311
219	0x3db5db6a	0.088797405
220	0x3d50d967	0.05098858
221	0x3d0a9637	0.033834662
222	0xbb9f26cd	-0.0048569203
223	0xbd8d17a5	-0.068892755
224	0x3d1fbc70	0.038998067
225	0x3ca51b87	0.020154728
226	0x3d1c43dd	0.038150657
227	0xbdc494bf	-0.095986836
228	0x3d8b7153	0.06808724
229	0x3bddcb9a	0.006768656
230	0xbdc775df	-0.09739279
231	0xbdaede82	-0.08538534
232	0x3cd5008d	0.02600124
233	0xbd9459af	-0.07243668
234	0xbd809d30	-0.06279981
235	0x3d6c5e0a	0.05770687
236	0x3bd14700	0.0063866377
237	0xbcc8f5c7	-0.024531258
238	0x3ca361e7	0.019944144
239	0xbdc1d152	-0.09463753
240	0xbd6e4e47	-0.05818012
241	0x3c675cc0	0.014121234
242	0x3c1fab4d	0.009745431
243	0x3d72d28d	0.059282828
244	0x3d75c193	0.05999906
245	0xbb9215e7	-0.0044581774
246	0xbd9a622d	-0.07538257
247	0xbb06df33	-0.0020579814
248	0x3d0d315d	0.034470905
249	0x3bf5be33	0.00749948
250	0x3d88e2e2	0.066838995
251	0xbdb672c8	-0.089086115
252	0xbdc235f2	-0.094829455
253	0xbdb58c3f	-0.088646404
254	0x3a74f000	0.0009343624
255	0xbd09a1c7	-0.03360155

bias f4 [50]
0	0xbd67855d	-0.05652367
1	0x3d033330	0.032031238
2	0x3d885d5a	0.066584304
3	0xbcef4ecd	-0.02921238
4	0xbdc9cef2	-0.09853925
5	0xbdc4ed4d	-0.09615574
6	0xbda5bee2	-0.08093049
7	0xbd292157	-0.04129156
8	0xba842a67	-0.0010083438
9	0x3d6e657a	0.058202244
10	0x3c83a327	0.016069008
11	0xbca8c620	-0.020602286
12	0x3dc7fedf	0.0976541
13	0x3ba5069a	0.0050361874
14	0xbcf5892d	-0.029972637
15	0x3d2dc9b3	0.042428683
16	0xbcd96067	-0.026535226
17	0x3d6937e3	0.056938063
18	0xbdbfb707	-0.093610816
19	0x3a701667	0.00091586116
20	0x3d734a70	0.05939716
21	0x3bb874cd	0.005629158
22	0xbdbabd2d	-0.09118114
23	0xbdaa7cc8	-0.083245814
24	0x3dac94c3	0.084268115
25	0xbd4a459a	-0.049382783
26	0x3db657ea	0.08903487
27	0xbd03aded	-0.03214829
28	0xbcdd8fc0	-0.027046084
29	0x3dc3dfd7	0.095641784
30	0xbda9a8c8	-0.082841456
31	0xbd9ede6b	-0.077572666
32	0x3d376fea	0.044784464
33	0x3cbf3ad3	0.02334348
34	0x3d963d75	0.07335941
35	0xbd9552ab	-0.07291158
36	0x3babd4b3	0.0052438616
37	0x3d9b323b	0.0757794
38	0xbd99d5c7	-0.07511478
39	0xbd56ed20	-0.052472234
40	0xbb89949a	-0.004198623
41	0xbd1bfd9a	-0.03808365
42	0xbc128780	-0.0089434385
43	0x3c2e17e7	0.010625816
44	0x3d3eb8ba	0.046562888
45	0xba6b0667	-0.00089654926
46	0x3da34d32	0.07973708
47	0x3c249080	0.010044217
48	0x3dc36e1a	0.095424846
49	0xbd4ed500	-0.0504961

weight f4 [2, 50]
0	0x3e0b4d62	0.13603738
1	0x3cd90906	0.02649356
2	0x3c54f3e2	0.012997599
3	0x3db30d51	0.08742774
4	0x3d01722c	0.031603023
5	0xbdbea79d	-0.093093134
6	0xbd40601e	-0.046966664
7	0xbcdb1ce9	-0.026747184
8	0x3de3210c	0.110902876
9	0xbd675977	-0.056481805
10	0xbde0af2c	-0.109709114
11	0xbdbe3709	-0.09287841
12	0xbdbeaefa	-0.09310718
13	0xbc748c8d	-0.014926088
14	0x3d725804	0.05916597
15	0x3da4ee52	0.080532685
16	0xbdc434fd	-0.09580419
17	0xbdf73cbe	-0.120721325
18	0xbd501789	-0.050803695
19	0x3de168cc	0.110063165
20	0xbdac8118	-0.0842306
21	0x3c7e4acd	0.015520764
22	0x3ab2383b	0.001359708
23	0xbdf27fb1	-0.118407615
24	0xbdbce3a2	-0.09223105
25	0xbd82a3df	-0.06378912
26	0x3b5a73f2	0.003333327
27	0xbcd709f6	-0.026249867
28	0xbcfccdb4	-0.030859806
29	0xbd38bf5a	-0.045104362
30	0x3e0ba420	0.13636827
31	0x3d8be89d	0.06831477
32	0x3da963c4	0.08270982
33	0x3dbed071	0.09317101
34	0xbbff1356	-0.0077842874
35	0x3da967c8	0.08271748
36	0x3d2a25e3	0.041540038
37	0xbc7dbe28	-0.015487231
38	0xbb6dc49a	-0.0036280514
39	0xbd81903c	-0.06326339
40	0xbc98d70c	-0.01865723
41	0x3d03df35	0.03219529
42	0x3c9866d5	0.018603722
43	0xbda4df15	-0.08050362
44	0x3d63a6a6	0.05557885
45	0x3dae38b3	0.08506908
46	0xbdee8dad	-0.11648116
47	0x3d4552a2	0.048174508
48	0x3dcc99e0	0.09990287
49	0xbc0de7af	-0.008661195
50	0x3e076ef4	0.13225919
51	0x3da1f3c0	0.0790782
52	0xbd9a0524	-0.07520512
53	0x3db0a887	0.08625894
54	0xbdbdd99e	-0.09270023
55	0x3de84c68	0.11342698
56	0xbd138a01	-0.036020283
57	0xbda50b7f	-0.08058833
58	0x3dfe8576	0.124277994
59	0xbd7c2752	-0.061560936
60	0x3ded821c	0.11597082
61	0x3e04af68	0.12957537
62	0x3cbdb7f3	0.023159003
63	0xbdad5a02	-0.08464433
64	0x3dbe0bf9	0.09279627
65	0xbcc7a8ef	-0.024372546
66	0x3bedf443	0.0072617843
67	0x3dcfd049	0.10147149
68	0x3d1d154e	0.038350396
69	0x3da53788	0.08067232
70	0x3dcfee2e	0.10152851
71	0x3d4576f1	0.048209134
72	0x3d9657bf	0.07340955
73	0xbd515f7e	-0.05111646
74	0x3d78fe72	0.060789533
75	0x3c31f8cd	0.010862541
76	0xbda32362	-0.07965733
77	0xbc4f0ca8	-0.012637295
78	0xbd854f8c	-0.06509313
79	0xbb3a004a	-0.002838152
80	0x3d836016	0.06414811
81	0xbe051451	-0.12996031
82	0x3dee78c2	0.116441265
83	0x3dedeb61	0.116171606
84	0xbe0adca0	-0.13560724
85	0xbd617c30	-0.055050075
86	0x3d99b7b7	0.07505744
87	0x3d010e54	0.031507805
88	0xbd0a12fb	-0.033709507
89	0x3df15d0b	0.11785325
90	0x3c191175	0.009342541
91	0xbda68688	-0.081311285
92	0xbd8854eb	-0.06656822
93	0x3d4b0a41	0.049570326
94	0xbd4f754a	-0.050648965
95	0x3974fa27	0.00023362842
96	0x3d37bd9d	0.044858564
97	0x3a379ace	0.00070039637
98	0x3cb61542	0.022226933
99	0x3d8ab8de	0.06773542

bias f4 [2]
0	0x3e07a701	0.132473
1	0x3da56c9c	0.08077356
