test_dagster/mlruns/0/72ffb72eb2e1422889928fa9548ac7bf/artifacts/restored_model_checkpoint/epoch=9-step=10.ckpt (torch, 448127 bytes, 24 tensors)

rnn.weight_ih_l0 f4 [300, 2]
00000000: e38d c2bc de78 27bd bb11 983c 1ceb 13bd
00000010: 0fe2 b4bd b128 a5bd 53f4 bb3d 57a5 bcbd
00000020: f518 87bd 60cd aebd 6fc3 83bd 0ea0 76bb
00000030: cfed 16bd 1a7a 5b3d 9d74 9cbd cb1a 39bd
00000040: f276 343b 94be 833d a553 243d c724 253d
00000050: 7ce7 733d 9dae 60bd 52a2 abbb 01b8 693d
00000060: f95a bb3d b708 5b3b 665a 383d ecdf 143c
00000070: 6cef c2bd a34f c63d e5dc 883d f954 53bd
00000080: 36ef 753d b6b4 9dbd e873 bb3d 9eb0 a53c
00000090: 0ad2 84bd 5c90 babd 85a6 2abc 50e1 0a3d
000000a0: 73bb c7bd ff75 8f3d b959 52bd d881 ad3d
000000b0: bdcd b93d fe5e a5bd 3c71 04bc 30ab 9a3c
000000c0: f4fb 83bd 3e3b 96bd d6ea 84bd b731 b23d
000000d0: 00e5 843d 548e 97bc 5798 1bbd 81fe 343d
000000e0: c83d 01bc bece c63d 6c9c a13d 0421 443d
000000f0: f217 073c 7df9 1c3b 88e0 86bd 245b 053d
00000100: fb4f 82bc 8a3d 383b 727f bfbd 6963 bf3c
00000110: d62c 903d 20a9 4e3c fdef 23bb 28ca 66bc
00000120: f0c3 6abd 6271 573d 2e6c 963c 852f a0bc
00000130: baba cd3c e40b 30bd 256c 613d a82e 0f3d
00000140: 9732 78bd b761 a53d 37f8 5d3d 6111 8a3d
00000150: ff22 363d 2976 183d 2562 483d a32f 393d
00000160: 9495 be3d fbeb 203d 340b 973d c6e2 82bd
00000170: 9f33 653d 3959 8fbd 772c ba3d 7c52 d03c
00000180: 3715 39ba e044 a9bd fa8e a03d 1497 6fbd
00000190: 2613 03bd 7861 803d 9fcc 2cbd b374 36bd
000001a0: 106a 27bd 37d6 3f3d 20aa 94bd abd7 4c3d
000001b0: a8d1 943c 3c70 93bd d07a 35bd 40f0 1abd
000001c0: f184 1a3d 4b71 773d aa1e 91bd 7581 3b3d
000001d0: 796c 62bd c629 a7bb c88a fa3c dce2 21bd
000001e0: 63c4 c33d ec64 dcbb f3e7 ddbb 3ac7 983d
000001f0: 9e18 403d 171f b93c 6fab e83c c59b 9d3d
00000200: c8cf 953c 00cd 45bd f545 0bbc 7db8 a33b
00000210: 6bc8 323c 6d60 c53d 29ff b8bd 2c67 fabc
00000220: f543 553d 0685 71bc fa72 983d 8346 18bd
00000230: b67a b23d f108 863d caac aabd 45ad 523d
00000240: c693 bdbc 964e 58bc 52ae 133d 6c64 bc3c
00000250: ea12 293d 00c5 623d 10d1 82bc b50c 21bb
00000260: 4123 a33c 865a 16bd 78fc c8b8 6e57 c93d
00000270: 909b c03d 98b2 81bd a33c b13d f303 86bd
00000280: 2a9b 133d 814c a43d ed17 783d c82f c2bd
00000290: 3458 bfbd 5d11 a2bd 6a19 243d f597 bfbc
000002a0: 4d0a 273d cfae b9bc b058 9f3d d324 64bd
000002b0: 5fbb fa3b 6df1 a8bd 4dd2 a4bd 0c0c 5a3d
000002c0: 5310 96bd 82f9 49bd 033a 90bd 7a94 a53c
000002d0: 8705 a9bd ff1a 5f3d e069 97bd f7d6 83bd
000002e0: 3ec8 113d 328e 58bc 3aea 9d3d 0510 b4bc
000002f0: 586f 553d f6b7 96bd 767e 053c 0747 a0bd
00000300: 3004 643d ccde 973b 2f78 bcbd 77d8 d4bb
00000310: 44df 7d3d b6b6 bc3c cc2a 893d 9cc0 c83b
00000320: d3d0 5fbd 6f11 973c e619 413d c20f 5a3c
00000330: 6afd 743d 8ad5 b5bd 2627 be3c 5918 75bd
00000340: 8e8e b63d 075a 73ba 372c cabd e8d9 7fbd
00000350: 2d39 b93c 2a63 5abb 532d 57bd 4cc2 1a3d
00000360: cfeb 453d 6a88 f33c 2d54 643c 4c60 9f3d
00000370: 6307 86bb 5307 2e3d ee29 adbc 4694 78bd
00000380: bd50 01bd 6ed9 eabc dedd 6bbd b063 54bd
00000390: 5653 563d 4bed 82bd 9969 98bd 5ff3 a1bd
000003a0: d3cc 713d 7ab6 afbc 7047 023d 3d21 41bc
000003b0: c1a1 96bd c2fc babd ea3d 063d 5c95 16bd
000003c0: 29ff 8f3d 2256 5fbd 27ec 233d 7fd9 2c3d
000003d0: 4f67 72bd 6362 3b3d 0aae b03c 7125 94bd
000003e0: e113 c9bd ea15 683b 920c 54bd d66e a9bd
000003f0: fc80 8538 7c47 1fbb d157 b8bd 6945 b3bd
-0.023749297 -0.040886752 0.018563142 -0.03611289 -0.0883218 -0.08064402 0.091774605 -0.092112236
-0.06596557 -0.08535266 -0.064337604 -0.003763202 -0.036847886 0.053583242 -0.0763943 -0.045191567
0.0027536717 0.06432834 0.040118832 0.040318277 0.059546933 -0.054854024 -0.005237856 0.057060245
0.09148211 0.0033421942 0.045008086 0.00908659 -0.09518322 0.09683158 0.06682757 -0.051594708
0.060042582 -0.077004835 0.09152967 0.02022582 -0.06485374 -0.091095656 -0.010415678 0.03390628
-0.0975255 0.07004928 -0.051355097 0.08472031 0.090724446 -0.08074759 -0.008083638 0.018880457
-0.064445406 -0.07335518 -0.06490104 0.087008886 0.06488991 -0.018500485 -0.03798708 0.044188026
-0.007888265 0.09707402 0.07891163 0.04788305 0.008245455 0.0023952418 -0.06585795 0.03255762
-0.015907278 0.0028112852 -0.0935048 0.023362832 0.07039802 0.012613565 -0.002501487 -0.014086284
-0.057315767 0.052598365 0.018362131 -0.01955391 0.025113452 -0.04298009 0.055034775 0.034956604
-0.06059512 0.08075278 0.054191794 0.06741596 0.04446697 0.03722206 0.048921723 0.045211446
0.093058735 0.03928755 0.07375184 -0.0639091 0.055957433 -0.0699944 0.09090512 0.025429957
-0.0007060351 -0.0826509 0.078397706 -0.05849369 -0.032000683 0.06268591 -0.04218733 -0.044544887
-0.040872633 0.04683515 -0.07259011 0.050010365 0.018166378 -0.071991414 -0.044306576 -0.037826777
0.03772444 0.06041078 -0.07085927 0.045777757 -0.05527923 -0.0051014153 0.030583754 -0.03952299
0.09558942 -0.006725898 -0.0067720353 0.074598745 0.046898477 0.022597833 0.028402058 0.07695726
0.018287554 -0.048291206 -0.008500566 0.004996358 0.010912041 0.096375324 -0.09033043 -0.030566774
0.052066762 -0.014741188 0.07443805 -0.03717662 0.087148115 0.06544674 -0.08333738 0.051434774
-0.023141753 -0.01320233 0.036054917 0.022997104 0.041277803 0.055363655 -0.01596883 -0.0024574224
0.019914271 -0.036707424 -9.583769e-05 0.09831129 0.09404671 -0.06332892 0.08654144 -0.06543722
0.036036648 0.080224045 0.060569692 -0.0948177 -0.09342995 -0.07913468 0.0400633 -0.023387888
0.040781308 -0.022666363 0.07780588 -0.05569918 0.007651731 -0.08249173 -0.08047924 0.053234145
-0.07327332 -0.049310215 -0.07042315 0.0202124 -0.082530074 0.054469105 -0.07393241 -0.06437486
0.035591356 -0.013217496 0.07710691 -0.021980295 0.05210814 -0.073593065 0.008147826 -0.078260474
0.055668056 0.0046347138 -0.09202611 -0.006495531 0.0619805 0.023036342 0.06697616 0.0061264765
-0.05464251 0.01844093 0.04714384 0.013309421 0.059811987 -0.0887862 0.023212027 -0.059837673
0.08913909 -0.00092831295 -0.098717146 -0.06246367 0.022610271 -0.0033323267 -0.05253346 0.037782952
0.048320588 0.029728133 0.013936085 0.07782039 -0.004090236 0.042487454 -0.021138158 -0.06068828
-0.03157114 -0.028668132 -0.057584636 -0.051852882 0.05232557 -0.06392916 -0.07442016 -0.079077475
0.059033226 -0.021449316 0.03180641 -0.01178771 -0.07355071 -0.09130241 0.03277389 -0.036763534
0.0703109 -0.054525502 0.040020134 0.042199608 -0.059180554 0.045748126 0.021567363 -0.07233704
-0.09818245 0.0035413452 -0.0517698 -0.082730934 6.3659594e-05 -0.0024304083 -0.09001125 -0.08753473

rnn.weight_hh_l0 f4 [300, 100]
00000000: 0f0e 4ebd 041e 7d3d 4c08 763c 014d b73d
00000010: d7f8 1bbd b72b 9c3d ddb2 453d d184 b3bd
00000020: 1e90 c33d 7a30 8abd 223d 0f3d bb01 99bd
00000030: 2750 bd3d c041 8ebc e33e 43bd 0f37 1d3c
00000040: bcd4 7a3d 2755 1b3a f578 aebd f05a 86bc
00000050: 864a 93bd 0cdd abbd 59f5 823b df4b b23c
00000060: 8d4f 1d3d 7e02 9e3c 91a9 46bd a5bb 0d3d
00000070: 0989 04bd bf9a a7bd 9743 a03d 24a0 93bb
00000080: dfbe c73d 9c47 073c b4b3 863d 3c06 933d
00000090: 1bab 99bd 5a4d 913c 568c b23d e837 403d
000000a0: 21cb 9e3d 8c34 a73a 0fc8 06bd a4f0 f4bc
000000b0: c763 a03d 6238 0abd 9bef 533d e71b 88bd
000000c0: 6159 b03d 1ef7 663d 88e8 563c 8090 893d
000000d0: 1c8e b8bd db99 603d 20f7 c83c 4c7c 1fbd
000000e0: fb31 b9bd ca16 debc 26d1 613d 0b5f a7bd
000000f0: 307b f13c e7b6 0d3d f08e 4d3d e754 8dbd
00000100: a05f c03c 1dec c13d 2b88 4e3d 45b2 903c
00000110: ca9e bbbd b179 b4bd 69ed 573d 5d85 643d
00000120: e49d 80bc f5bd 563b ce31 933b c676 8fbc
00000130: 4cc4 2fbd e587 943d 4ba9 ae3d f205 b53d
00000140: 0df4 1b3d 0548 c83d 068d 38bd e51d 0abd
00000150: c5da 903d 43ee 3cbc dad5 aa3d d87a c9bd
00000160: 4967 66bd 0724 173d 292a 35bc 06e5 92bd
00000170: 3662 403d 5049 71bd 5ae3 793d 09d6 9a3d
00000180: fb5e 65bc e193 2b3d d29e 21bd 8ce3 513d
00000190: fd6e 8bbd f637 70bd 0390 bbbd cf8e c83d
000001a0: 4b16 463d 6c61 c5bb 7b69 b9bd 43a1 a23d
000001b0: 9462 a03c 3573 a03d f49c a2bd d77a 9cbd
000001c0: 0b80 79bd 538b cd3d 4d6e 3e3d 64b5 973d
000001d0: 2784 c1bd b08d b0bd f5a4 a03d 2043 0c3d
000001e0: 8846 be3b 9af1 52bc 67d6 b83d 131b c4bc
000001f0: 123b 1fbd e038 0abd da30 eb3c b453 433d
00000200: 0247 c1bd d0f3 8d3c ae6b 8ebd 35d8 42bd
00000210: 74eb 073d ccfd 333d a649 b23d ea97 933d
00000220: 6927 073d 98b7 07bd ef3a 643d 1836 a9bd
00000230: 0006 1ebd b200 e4ba 7ebf b0bd 642f 8e3d
00000240: 1c37 b03d a7c3 79bd ab95 d8bc 255e b9bd
00000250: 632c 793d dd62 38bd f6bd 28bc 73c2 643d
00000260: b3bc f13c 6ad9 17bd 1699 c0bd e2fc 0b3c
00000270: 994a 8c3c d1de 9d3b 3491 f13c d6cf 983d
00000280: 96f2 c8bb 7806 913d 8dbe 2b3d e73f 8cbd
00000290: 0b13 113d a455 83bc 264d 7ebd 81aa ea3b
000002a0: e7ca abbd f870 8c3d d383 a4bd 22c3 463d
000002b0: 7756 3ebd 195d 383d e6d2 a6bd 299b 8d3d
000002c0: d70a 773c a986 ffbc 48cc 80bd a8a0 82bd
000002d0: e8fb bcbd a236 a6bd 3544 c2bd 0c9b 06bc
000002e0: dfb3 493d 21f8 1dbd 9dd5 ac3c 22e8 6c3d
000002f0: bdf5 1a3c 0143 f0bb 351d 82bd ecb4 573d
00000300: 754a fbbc d782 93bd 750e 093d e798 b6bd
00000310: 1f2b febc 7d95 e939 beef 30bd 222e 15bc
00000320: c7d6 323d 20fa bb3d 957b 873d 5cab 6fbc
00000330: 66df 1ebd f17c 3abd d690 c5bc f0b5 8e3d
00000340: 5e6c 553d e8df 8abd 3725 0e3d 8f53 51bc
00000350: 3184 50bd ba83 0abc 61c0 16bc 5fd1 0c3d
00000360: 726e fdbc da14 b5bb 78c1 de3c b8f5 e73c
00000370: 69ae 583d 4dfa 943d 611c b23d eba1 b7bd
00000380: 956c 9a3d 031d 0a3d 8e4b 7d3d 663e 863c
00000390: 59ee 5d3d a103 273d 0fb0 a4bd ffb1 a1bc
000003a0: ade7 b5bd 9d69 013c cbeb 7bbd 1b02 ccbd
000003b0: 426f fbbc b6b1 26bd ddf6 b2bd 1960 483d
000003c0: 71cc 3a3c a9c3 08bc 630a 9f3d d856 ca3d
000003d0: ee02 0fbd 764e 4bbc 9dcd 82bd 2980 96bd
000003e0: fa4e 17bd 8044 98bd dee3 bd3d 8d1e d83c
000003f0: 9b2d df3c 5cfe 903d d1bd b1bc 780d 95bc
-0.050306376 0.061796203 0.015016627 0.08950234 -0.03807911 0.076255254 0.04826628 -0.08765567
0.095489725 -0.067475274 0.03497041 -0.07471033 0.092438035 -0.017365336 -0.047667395 0.0095956465
0.061238036 0.00059254694 -0.085191645 -0.016400784 -0.071919486 -0.08391771 0.003996533 0.021764694
0.038405944 0.019288298 -0.048501555 0.03460278 -0.03235725 -0.08183812 0.07825392 -0.0045051742
0.09753203 0.008256819 0.065772444 0.071789235 -0.07503339 0.01773708 0.08718173 0.046928316
0.077535875 0.0012756749 -0.032905634 -0.029899903 0.07831531 -0.033745177 0.051742177 -0.06645947
0.08610798 0.056388013 0.013116963 0.06717014 -0.0901148 0.054834228 0.0245319 -0.038936898
-0.09042736 -0.027110476 0.0551311 -0.08172425 0.029477686 0.034598257 0.050185144 -0.069009595
0.023483098 0.09468863 0.05042283 0.01766313 -0.09161146 -0.08812273 0.052716646 0.055791248
-0.015700288 0.0032767032 0.004492021 -0.01751269 -0.042911813 0.07252482 0.08528384 0.088390246
0.03807454 0.09779362 -0.045056365 -0.033719916 0.07072977 -0.011531415 0.0834157 -0.09837884
-0.056250844 0.036899593 -0.011057415 -0.07172589 0.04696866 -0.058907807 0.061007835 0.07560355
-0.013999696 0.041889075 -0.039458103 0.051242396 -0.06808279 -0.05864712 -0.091583274 0.097928636
0.048361104 -0.0060235765 -0.09053322 0.079409145 0.019578256 0.07834474 -0.07940093 -0.07640617
-0.060913127 0.100363396 0.04649191 0.074076444 -0.09449034 -0.08620775 0.07843963 0.034243703
0.005806748 -0.012874985 0.09025269 -0.023938691 -0.038874693 -0.033745646 0.028709818 0.047687247
-0.09437372 0.017328173 -0.06954132 -0.047569472 0.03318353 0.04394321 0.087054536 0.0720671
0.03299657 -0.033134073 0.055720266 -0.08262271 -0.03857994 -0.0017395227 -0.08630274 0.06942633
0.08604261 -0.060977604 -0.026438555 -0.0905116 0.060833346 -0.04501616 -0.0102991965 0.055849504
0.029508924 -0.037072577 -0.09404199 0.008544179 0.017125415 0.0048178216 0.029488184 0.074615166
-0.006132434 0.07081312 0.04192977 -0.06848126 0.03541855 -0.016032048 -0.062085293 0.007161439
-0.0838831 0.068574846 -0.08032956 0.048525937 -0.046469178 0.04501066 -0.081456944 0.0691436
0.015078268 -0.03119214 -0.062889636 -0.06378299 -0.09227735 -0.08115889 -0.09485666 -0.008215677
0.049243804 -0.038566712 0.021097952 0.057838567 0.009458003 -0.0073322062 -0.06353227 0.052662775
-0.030675152 -0.0720269 0.033461053 -0.089158826 -0.031026421 0.000445526 -0.043197386 -0.009105237
0.04366186 0.09178567 0.06615368 -0.014628258 -0.038787268 -0.04552931 -0.024116915 0.069682956
0.0521053 -0.06780988 0.03470346 -0.01277627 -0.050907318 -0.008454258 -0.00920114 0.03437936
-0.030936453 -0.0055261673 0.027191862 0.02831541 0.052900705 0.072743036 0.08696819 -0.0896643
0.07540242 0.033719074 0.061839633 0.016387176 0.054182384 0.040774945 -0.08041393 -0.019738195
-0.08882079 0.007898715 -0.061504167 -0.09961339 -0.0306927 -0.040696822 -0.08738492 0.04891977
0.011401282 -0.00834743 0.07765653 0.098798454 -0.034914903 -0.012408843 -0.06386874 -0.07348663
-0.036940552 -0.0743494 0.09271978 0.026381755 0.027243426 0.07079765 -0.021696957 -0.018194899

rnn.bias_ih_l0 f4 [300]
00000000: e163 aabd 7827 973d 1ae1 963d f301 8dbd
00000010: 4c6f 5bbd d7f9 08bc e8f6 563d d367 753c
00000020: 8284 b2bd cfd3 05bd 81d9 d23c 2ad1 34bc
00000030: ecdf c1bd 7957 b1bc 5b09 bc3d 210e 47bd
00000040: aa23 123c 8120 8dbd a124 32ba 07e0 713d
00000050: aa6d 7ebd 15b8 97bd 6d38 203d f7c9 26bd
00000060: f16f 373c e45f 293d d4a9 e4bb 5b54 1c3c
00000070: 62a6 533d e768 99bb 006d 0bbd f7f0 be3d
00000080: 7119 b73d ec4b 993d fc22 34bc 58e0 1ebd
00000090: 9846 e83b 23d1 2a3d c6fe 54bd e7cf 92bd
000000a0: b43e 3e3d 0f6e b23d 9512 f9bc 4e65 8abd
000000b0: bf27 87bd edb4 afbd 25c0 babd bd8f 323d
000000c0: 2c8c 813d 1425 303d 8681 97bd 60c4 403c
000000d0: cb38 debc f299 b0bd 437e 1abd ed41 803d
000000e0: d9a3 0dbd cf15 333c b143 363c 7fef 343d
000000f0: c455 ab3c 033b 20bd 0d70 a4bd a2e3 a43d
00000100: dc2e 58bd a7d6 58bd 6682 7c3d 59a4 ae3d
00000110: fdef a6bd 0574 52bd 352a c2bd d371 bd3d
00000120: a460 403c bead 023d 55cd 9dbd 264c 0b3d
00000130: 3157 c03d 786c a53d 9073 b13d cd31 a8bd
00000140: 94b2 19bd c2b1 013a bed3 993d 4614 b8b9
00000150: 0ee3 c1bd 7b9b c9bd 34fb 043d c7b5 c0bd
00000160: 2b07 89bd 6478 a83d 8983 febc 048c 6bbd
00000170: 32be 203c fbb0 01bd 081f b3bc 26a8 c1bd
00000180: 4a0e 673d 5151 983c fe6d c3bd dd96 90bd
00000190: c789 093c 4a70 8abd db32 10bc 0807 80bd
000001a0: d648 943c aec5 a33d 75f3 88bd d290 b13c
000001b0: 701c fbbb b787 1e3c 666a 81bd 271c b3bd
000001c0: 198d 253d 6cc5 9c3c 8050 9f3d e642 7f3d
000001d0: b33c 4dbc a55e 21bc e08a 10bd 0e53 31bb
000001e0: 1d44 2dbd 81c9 913d 2275 823d 6c29 14bc
000001f0: 0396 b43c 55aa 0f3d 7075 bc3d 1ac1 533c
00000200: a6e4 f9bc dcd8 363d 6023 4a3d 8899 1a3d
00000210: c47c 5dbd cb1d 62bd f1d2 b6bd c8c9 06bd
00000220: 688e b1bc e627 ad3d 6294 893b 9cb2 a7bd
00000230: d883 4a3d 4210 b4bc 4a52 cebd d34b fbbc
00000240: 5b9e 293b 15a4 cebd e34d b13c af8b b63d
00000250: 6d36 62bc 085c c6bd 7b0e 7a3d c26f b03d
00000260: c870 4e3d 0cec a73d e6d4 203d dc47 963d
00000270: ffdf 113d 9cda 5b3d 06e8 88bd 90dd 4c3d
00000280: 7692 003c c0f5 99bd fbe1 67bc 639a 553d
00000290: c5be 1bbb 2223 25bd d179 223d 7c69 74bd
000002a0: 3c21 3abd 9468 133d 4d58 59bd abe8 353b
000002b0: 5391 81bd c1a4 ae3d 7763 9c3d 8ceb 8e3c
000002c0: 0c42 823d 152b 063d 1d6c be3d 1754 9dbd
000002d0: a779 60bb 90fa 79bd 530c 893c 1d69 663d
000002e0: 20c5 03bd 823b 6a3d 3560 2ebd 076b c63c
000002f0: 2089 2c3b fb5f 3dbd 6fca 64bd f35c c1bd
00000300: ddf9 903d e2dd 9ebd a516 42bd cc39 07bc
00000310: 2084 3a3d 313d b3bd c9a6 97bd 1bb2 26bd
00000320: c19f acbd 3842 80bd 99d8 993d 5852 4c3d
00000330: 9cf2 1bbd 68aa 933d d5ed 90bd beeb 193c
00000340: 1525 c4bc 8b90 5bbd 9bc8 cebc c10d 8e3d
00000350: 47a2 8f3c d962 013d c60f ac3d b3a5 053d
00000360: 3277 9e3d 14e1 093c 4115 c53d 4fed 2fbd
00000370: 3aa8 a1bc bb5c 0a3c ded0 b6bc 9258 6e3d
00000380: 7be2 8b3d e197 533d 7eca 213d d02b 9abd
00000390: a0cc 88bd 3e73 723d a921 ff3c 7385 cabd
000003a0: 51cd 993d 4660 47bb 8cdc 1abc 1fdf cc3d
000003b0: d480 483c 89f2 0b3d 0d06 9fbd 67d6 a0bd
000003c0: 8ac1 b53d 084c b4bc 376f 64bd 8fb3 b13d
000003d0: 514c 0a3d 7a79 13bd a293 cabd b7b4 42bd
000003e0: 6d62 b4bd 7080 303d 8cd7 9ebd bc16 b8bd
000003f0: f767 c4bc 7805 463d a4c4 11bd 4e3d 963d
-0.08319832 0.07380575 0.073671535 -0.068851374 -0.053572938 -0.008360348 0.052481562 0.014978367
-0.0871668 -0.0326727 0.02573848 -0.011036197 -0.09466538 -0.021648156 0.09181472 -0.04859746
0.008919636 -0.06890965 -0.0006795619 0.05905154 -0.062116303 -0.07408158 0.03911631 -0.040719952
0.0111961225 0.041351214 -0.006978253 0.009541596 0.051672347 -0.004681695 -0.034039497 0.09323304
0.089403994 0.07485184 -0.010994669 -0.03878817 0.0070884936 0.041703355 -0.052000783 -0.071685605
0.046446517 0.08712398 -0.030404368 -0.067576036 -0.06599378 -0.08579431 -0.0911868 0.04359411
0.06325564 0.04300411 -0.073977515 0.011765569 -0.02712669 -0.08623113 -0.03771807 0.06262574
-0.034580085 0.010930493 0.011124537 0.044173714 0.02091492 -0.039118778 -0.080291845 0.0805123
-0.052779064 -0.052939083 0.061647795 0.085274406 -0.08151243 -0.051380176 -0.094807066 0.09250226
0.011741791 0.031903975 -0.077051796 0.034008168 0.093916304 0.080773294 0.0866462 -0.08212624
-0.03752382 0.00049474475 0.0751109 -0.0003511032 -0.09467135 -0.09844109 0.03246613 -0.09409671
-0.0669082 0.08226088 -0.03106858 -0.057506576 0.009810971 -0.031662922 -0.021865383 -0.094559
0.05641011 0.018593462 -0.09542464 -0.07060025 0.008394665 -0.06759699 -0.008801187 -0.06251341
0.018101137 0.07996689 -0.06687061 0.021675501 -0.007663302 0.009675912 -0.06319122 -0.08745604
0.040417764 0.019137107 0.07779026 0.06231966 -0.012526679 -0.009849225 -0.03528869 -0.002705756
-0.042301286 0.07118512 0.063699976 -0.009043079 0.022044187 0.03507455 0.09202087 0.012924457
-0.030504536 0.044640407 0.049350142 0.037744075 -0.054074064 -0.055204194 -0.08926953 -0.032907277
-0.02167435 0.08454876 0.004198597 -0.08188364 0.049442142 -0.021980409 -0.10074289 -0.030675804
0.002588174 -0.1008989 0.021643585 0.08913361 -0.013806921 -0.09685522 0.061048966 0.08615066
0.050400525 0.08199319 0.039265536 0.07337925 0.03561401 0.05367528 -0.0668488 0.050015986
0.007847419 -0.07517576 -0.014152999 0.052149188 -0.002376483 -0.04031671 0.039666954 -0.05967091
-0.04544185 0.035988405 -0.053062726 0.002775709 -0.063265465 0.08527518 0.07636159 0.017446302
0.06360254 0.03275593 0.09297965 -0.076820545 -0.0034252198 -0.06102997 0.01672951 0.056252588
-0.032170415 0.057185657 -0.04257222 0.024220956 0.002632685 -0.046234112 -0.05585712 -0.09441557
0.07078908 -0.077571645 -0.047384877 -0.008253526 0.04553616 -0.08751906 -0.074048586 -0.0406972
-0.08428908 -0.0626263 0.07512016 0.049883217 -0.038073167 0.07210237 -0.07076613 0.009394584
-0.023943463 -0.053604644 -0.02524214 0.06936217 0.017533435 0.03158841 0.08401446 0.032628726
0.077375785 0.008415479 0.096231945 -0.042950924 -0.019733537 0.00844496 -0.022316393 0.058189936
0.06830307 0.051658515 0.039499752 -0.07527888 -0.06679654 0.059191935 0.03114398 -0.09888735
0.07509864 -0.0030422374 -0.009451997 0.100034945 0.012237746 0.034166846 -0.07764826 -0.07853394
0.08874805 -0.02200891 -0.055770125 0.08676826 0.033764187 -0.03600452 -0.0989144 -0.047535624
-0.08807836 0.043091238 -0.07755956 -0.08988711 -0.023975356 0.04834506 -0.03558792 0.07335912

rnn.bias_hh_l0 f4 [300]
00000000: 7994 f1bc be7c c53d b433 0bbd 8e05 bebd
00000010: 29c8 aa3b c876 0c3d 4390 883d 4048 c43d
00000020: f72f e23c b4db c13d eae5 0e3d 9355 6e3d
00000030: c893 4bbd 7dc8 923d 8ae8 c2bd 565b e03b
00000040: 0cf0 6bb8 07a7 bd3d b08c c03c 378d 553d
00000050: 6bff 463b 878a 953d 2f2f 843d 9798 a9bc
00000060: 4303 963d 662e 26bd 1bdb 813d 4f41 223c
00000070: bbff f5bc 1860 98bd bd0d 77bd 1587 a4bd
00000080: a317 0ebd 68b7 803c 1388 0dbd 126e 64bd
00000090: b85b afbd 4d6b 9b3d 0dde 26bd 1f5c 3bbd
000000a0: 273c 9b3c f93a e3bc 5036 0b3d 8bce 8e3d
000000b0: e19d a83b ee6b c8bd e0c7 993d ae40 46bc
000000c0: 3eb6 893d 743f 5e3d 2058 b7bc 04af af3c
000000d0: aeb2 3ebd 13a0 bdbd fe59 343d f5f1 71bd
000000e0: fa32 41bb 2421 043d d84d 49bd 9bd4 92bd
000000f0: 0eb3 823d 2db7 f6bc c33b bf3d 19e6 61bd
00000100: 4c77 aa3c cdc9 8d3b e24a 6dbc 4a96 333d
00000110: 4016 313c 9551 8f3c e0dc 8bbd 10d6 593d
00000120: 599f afbd bfbc 10bd 0fef afbd e5d8 85bd
00000130: 431a 573c 980f 9c3c 3a1c 8cbd e382 aa3d
00000140: b9bd 533d d937 5bbc 5ff1 5c3d bdac 9fbd
00000150: 8a5a 633d 81a4 c2bd 602d 0c3d 508a 863d
00000160: bb03 97bd ffb8 3dbc 8862 efbc 4b65 083c
00000170: 8c98 783c 3d29 e2bc 98dc 17ba 7d2d 053c
00000180: d90a 18bd b19e a53d 1a12 2f3d e641 de3c
00000190: affc fd3c 16aa ad3c e1a5 d93c fc98 b33d
000001a0: 47df 4abc 4ce6 a33d bd5f 923d 4bad 17bd
000001b0: 0505 61bc 1881 6e3d 437a bc3d 1c59 18bd
000001c0: e5cd 073c a1d1 e2bc cbee a23d 12eb 8ebd
000001d0: d36b 4c3d 6bd5 34bd 8eab a93d 204b a83d
000001e0: 94d9 57bd f51b adbd 002b d8bc 6ad1 6abd
000001f0: a375 e83c de9e 64bd e92f 12bd 355f 813d
00000200: f3ba bbbc 3cb2 5c3d 3b08 ca3d d82e b8bd
00000210: d951 b33d 4d69 f83c d049 72bd f9f8 943d
00000220: 85e0 603d aa6f c03d c640 8e3d 5b5a 673d
00000230: d1a7 7fbb 2701 b2bd e97a 8ebd 3262 9e3c
00000240: ee9c a8bd 0cf0 8bbd ec10 573d a365 87bd
00000250: 160e 39bd 949e 9b3d 8a46 c9bd f816 743d
00000260: bcad 0cbd dcda 71bc 264e a9bc 625d 0fbd
00000270: 395c a53d fe09 44bd 5749 9e3c 4e32 28bd
00000280: 7ebb 25bc 9262 4e3d 0f36 bf3c 2bf9 8ebc
00000290: 4c82 9bbd 21f5 cc3c f55b a8bd 5c4a 46bd
000002a0: c9f9 07bb d67d fbbc 0d8d 583d 37dc bb3d
000002b0: bb8d 873c d8d8 cdbd b199 a63d d5e5 9d3d
000002c0: d57b 22bd 7b4e c7bd c2b9 a33d 2436 a83c
000002d0: 765b d8bc c405 89bd e642 8d3d 573b b2bc
000002e0: 7c09 873d 7cd1 86bd 6170 a93d acb4 61bd
000002f0: 73b6 ba3d cb6d 963d 61c0 b5bd b183 97bd
00000300: 68e7 6a3d 42cb a7bd 7b40 99bc 14ef 96bd
00000310: efa6 893d bfd0 94bd 6fc6 a43d 4892 bfbd
00000320: 5bd0 3bbd d790 433c b36b cb3c d976 2ebd
00000330: cffa 74bb 5266 a9bc b285 b3bc 4d3d 91bd
00000340: d632 51bb 37b4 e83c c9dd 1cbd ac08 ce3b
00000350: 4f4f 61bd 0b0e b23d 9fd7 353d 7135 433d
00000360: 83a5 a6bd d1dc 493d 8d12 cb3d d600 7cbd
00000370: ad15 893d f95c 993c 917e 053d 3fc5 843d
00000380: f300 943d a85c e93b a969 363d 09eb b33d
00000390: f4ab 6f3d 0d73 943d b24b f7bb 4408 513d
000003a0: 8ac9 7d3d 007a 423d fcbe bdbd d36d c23d
000003b0: dd52 b43d 9a23 4dbc 0272 bc3c a560 06bd
000003c0: fd97 a6bd ebc7 c03d ed84 383c 91cf cebc
000003d0: 830b a73d 0030 c13d 86e8 7f3d 7a27 153d
000003e0: db62 9bbd 71b5 9fbd e846 80bd 7e59 113c
000003f0: 0360 cb3c 0b6d c53c e7e1 bb3d 898e 5f3c
-0.029489743 0.09642933 -0.033984855 -0.09278403 0.005211849 0.034292966 0.06668141 0.09584093
0.027610762 0.09465733 0.034887232 0.05818708 -0.049701482 0.07167146 -0.095170096 0.0068468256
-5.6251927e-05 0.092603736 0.023504585 0.052136626 0.0030364643 0.073018126 0.06454312 -0.020702643
0.07324841 -0.040571593 0.06340619 0.009903266 -0.030029168 -0.074402034 -0.060315836 -0.08033577
-0.03469051 0.015712455 -0.0345536 -0.055769034 -0.08562416 0.075888254 -0.040739108 -0.04574215
0.018949581 -0.027738081 0.033987343 0.06972989 0.0051457738 -0.09786211 0.07508826 -0.012100382
0.06724213 0.054259732 -0.022380888 0.021445759 -0.04655712 -0.09259047 0.044031136 -0.05906864
-0.0029479847 0.032258168 -0.049146503 -0.071694575 0.06381808 -0.030116642 0.093375705 -0.05515108
0.020808838 0.004327035 -0.0144831855 0.0438445 0.0108085275 0.017494956 -0.06829238 0.05318266
-0.08575315 -0.035336252 -0.08590519 -0.0653551 0.01312882 0.019050404 -0.06841321 0.08325746
0.051694605 -0.013380014 0.053941127 -0.07796619 0.055506267 -0.09504033 0.03422296 0.0656935
-0.073737584 -0.011579751 -0.029221788 0.008324931 0.015173089 -0.027607555 -0.0005793064 0.008128521
-0.03711972 0.080869086 0.042741872 0.027131032 0.031004278 0.021199267 0.026568355 0.08769414
-0.012382335 0.0800291 0.07147167 -0.0370305 -0.013734107 0.058228582 0.09203007 -0.037194356
0.008288835 -0.02768785 0.079557024 -0.0697843 0.049907517 -0.044148844 0.082846746 0.08217454
-0.052697733 -0.08452598 -0.026387691 -0.05732862 0.028376406 -0.05581557 -0.035690222 0.063169874
-0.022916293 0.053880915 0.09864851 -0.0899331 0.087558456 0.030323649 -0.059152424 0.0727405
0.05490162 0.09396298 0.06945948 0.056482654 -0.0039009938 -0.08691626 -0.06957037 0.019333933
-0.08233057 -0.06832895 0.052506372 -0.066111825 -0.04517945 0.07598606 -0.098279074 0.059592217
-0.034345374 -0.014761653 -0.020667147 -0.035001166 0.08074231 -0.04786109 0.01932208 -0.0410636
-0.010115502 0.050386973 0.023341207 -0.017452797 -0.075932115 0.02501923 -0.082206644 -0.04841076
-0.0020748249 -0.030699652 0.05286889 0.09172862 0.016547075 -0.10051125 0.08134783 0.077098526
-0.039668877 -0.09731766 0.07994415 0.020533629 -0.0264108 -0.06690553 0.068975255 -0.021756811
0.06593606 -0.06582925 0.08273388 -0.055103943 0.09116831 0.0734516 -0.08874584 -0.07398165
0.057349592 -0.08193065 -0.018707504 -0.07369819 0.06721293 -0.07266378 0.08045661 -0.09354073
-0.045853 0.011936388 0.024831628 -0.04259381 -0.003738094 -0.020678673 -0.021914337 -0.0709177
-0.003192117 0.028406246 -0.03829745 0.006287655 -0.055007275 0.08694085 0.044395085 0.047658388
-0.081370376 0.049282853 0.09915648 -0.061524235 0.066935875 0.01872109 0.032591406 0.06482934
0.072267435 0.007121641 0.04453436 0.08785064 0.058513597 0.07248507 -0.0075468654 0.051033273
0.06195978 0.04747963 -0.09264943 0.094936036 0.088048674 -0.012520695 0.023003582 -0.03280701
-0.08134458 0.09413131 0.011262161 -0.02524546 0.081564926 0.094329834 0.06247761 0.0364146
-0.075872146 -0.07798279 -0.06263524 0.008871434 0.024826055 0.024099847 0.09173947 0.013644823

fc_out1.weight f4 [50, 100]
00000000: 1e93 43bd e45d 423d 4032 adbd 08eb a63d
00000010: d610 ab3d cbc9 143d 8da9 b3bd 9f83 4d3d
00000020: 5992 aa3d bc13 05bc ff9d 93bd b88b 923d
00000030: 401f e2bb 6f75 e73c 1510 4f3d 327c bc3d
00000040: b1cb 9abd b498 e93c 4df9 afbd 4da6 313d
00000050: 1154 a13b 28c9 79bc 8fc7 333d bd34 69bc
00000060: de86 513d e470 ac3d 8152 b4bd 2c39 26bd
00000070: 826e 75bd dd41 b4bd 77de c43d 469a 493d
00000080: 3fac be3d d21c c5bd b52e 5fbd 8960 c0bd
00000090: af42 693d 9c74 86bd df84 a2bd 487c 7cbd
000000a0: 447a 5cb9 71f8 86bd b71b 0d3d fae5 ac3d
000000b0: b9dd f139 fbc2 b9bd 9ea3 73bd 4cf6 503d
000000c0: 9fa0 70bd 1421 af3d d99c cb3d c3f6 a5bb
000000d0: f0d7 2f3d 990c a73d eb92 5c3c 258b 933d
000000e0: c6d1 35bc 1379 81ba 1a80 833d 5117 9fbc
000000f0: bb09 91bd 119c a5bd e3b5 0dbd 6024 bebd
00000100: 6fa9 e2bb 0086 86bc dbc4 6d3c ba8f 94bd
00000110: f4ed a53d 1139 a43d db01 173d 1376 8bbd
00000120: f4e2 93bd 1daa 263d 03cd 44bd 36d4 483d
00000130: 9edd f83b 9831 0e3d acc3 bbbd f710 7fbd
00000140: 51bc 21bd d618 0d3d a456 273d dc3a 583d
00000150: db14 743d 671b 423d 0640 c53d 3f7f 36bd
00000160: fa24 bcbd 8304 8f3d 1a53 17bd c24f a6bc
00000170: 571e f33c 490e 30bd 0777 17bd 84b7 5fbd
00000180: 37de f5bc 026c 763c df5e e1bc 7b07 cebb
00000190: bcec 243c 927a 0d3c f27a a43c b43d 763d
000001a0: 5012 7fbd 1b17 0b3d ab62 963d 132b 173d
000001b0: 2db6 c7bd e418 a63d 3805 c93d f69c 913d
000001c0: 5ca7 f8bb 8f8d aebd f984 01bd 2632 743c
000001d0: 8924 2fbc c185 d6bc 8b6d 7dbd 2d44 453d
000001e0: 31fa 2bbd b66e b73d f976 383d 48f7 c7bd
000001f0: 55b2 88bd 2dd9 bebd a627 1a3d 2cec fdb9
00000200: 22ea 093c 4ee6 8fbc d329 84bc e44c 86bd
00000210: 3769 9fbd 9c00 75bd 2c18 683c 26ae 6bbd
00000220: 06cb 68bd 775a bdbd d635 8e3c 93fa 4a3d
00000230: b2d3 31bc 91e3 d2bc 3fa1 0f3d 58f8 cb39
00000240: 4115 00bc f947 2e3c f183 c23d 5603 c4bd
00000250: 934a 583b c4cb c7bc b139 b53d c255 11bd
00000260: 23eb 4bbc d920 dcb8 47f1 24bd 072d c93d
00000270: de26 ec3c 63a3 b0bd fab2 d0bc 8160 c7bb
00000280: 637f b83d 7e2c bf3d 3a2e acbd a66b 19bd
00000290: df08 a73d cc36 7ebd 0a11 823d 2f91 85bd
000002a0: d382 b7bd 0f14 9dbd cff0 45bd b6fc a13d
000002b0: ac39 afbd a2ae c63d e552 363d 07c5 a5bd
000002c0: a397 823d 9b11 0a3d 056d 70bd d469 46bc
000002d0: 799f 663d 8e99 b4bd 3e40 553d 1a4e bfbd
000002e0: b2b3 213d 807b 223c 158f 423d 3c68 09bc
000002f0: cb1f 4a3d 7ed1 babd c461 a7bd 0478 653d
00000300: f4b1 813d 1399 45bb 1e13 2dbb 5856 56bb
00000310: 1cac 8ebd 2f20 9c3d 9c03 733d 69cb 323d
00000320: 328b 5ebc 1eef a7bd f4db 543c 4832 653d
00000330: d37a 1c3d 900f 3fbd a892 923d 78f5 8dbd
00000340: 3f37 1cba 976a 793d 8ace cebc c606 88bc
00000350: dc6b 863d 4efb 9fbd 0173 f03c 6f6b d6bc
00000360: bfa4 84bb a34d a0bd aa9b 5dbc e054 753d
00000370: 5624 aebd 784c 673d 2780 b7bc bd45 44bd
00000380: 95ab 743d 0b4f c2bd 7110 a0bd f4f3 b8bd
00000390: a265 973d 60a7 3a3d 29ac 08bd 47a4 223d
000003a0: c373 153b 2468 af3d 2377 97bd e6e9 863d
000003b0: e533 a4bd 0d8c a73d d82f f43c cc21 9fbd
000003c0: 90b4 81bd 2ee1 b3bd 70c4 5a3c 4f8b 933d
000003d0: 2a4b c43d 6641 63bd cc14 bf3d 4abe 63bd
000003e0: ba21 b53c 8510 82bd 331f 99bd 9ccd 63ba
000003f0: b600 b7bd 2b18 d2ba cd06 af3d 969c ecbc
-0.047747724 0.047452822 -0.0845685 0.081502974 0.083528206 0.036325257 -0.087725736 0.05017435
0.08328695 -0.008122381 -0.0720787 0.071555555 -0.006900698 0.028254239 0.050552446 0.09203376
-0.07558382 0.028515197 -0.08592472 0.043371487 0.0049233516 -0.015245713 0.043891486 -0.014233765
0.05115401 0.0841997 -0.08804799 -0.040581867 -0.05991984 -0.08801625 0.09612744 0.049219392
0.09310197 -0.09624638 -0.054487903 -0.093934126 0.05694836 -0.0656521 -0.079354994 -0.06164196
-0.00021026382 -0.06590355 0.03445026 0.08442302 0.00046132298 -0.09070393 -0.05948221 0.051016137
-0.05874693 0.08551231 0.09942026 -0.0050648167 0.042930543 0.081567 0.013462762 0.07204274
-0.011097377 -0.0009878002 0.06420918 -0.019420298 -0.07081934 -0.08086408 -0.03459729 -0.09284282
-0.0069171707 -0.016421318 0.014512266 -0.07253976 0.081020266 0.08018697 0.036867004 -0.0680963
-0.07221022 0.040689576 -0.048047077 0.049030505 0.007594778 0.034715265 -0.09168181 -0.06227204
-0.039486233 0.034447514 0.04085411 0.052790508 0.0595902 0.047389414 0.09631352 -0.044554945
-0.0918674 0.069832824 -0.036944486 -0.020301703 0.029677553 -0.042982373 -0.036978748 -0.054618374
-0.030013187 0.0150403995 -0.027511058 -0.006287513 0.0100662075 0.00863518 0.020078156 0.06011744
-0.062273324 0.033957582 0.07343038 0.036906313 -0.09751544 0.08110216 0.098154485 0.07110016
-0.00758831 -0.08523094 -0.031620953 0.014904534 -0.010689863 -0.026186826 -0.061872046 0.04816072
-0.041986648 0.08956663 0.045035336 -0.09763962 -0.06674639 -0.09318767 0.037635468 -0.00048431882
0.008417638 -0.017565873 -0.016133225 -0.065576345 -0.0778374 -0.059815034 0.014165919 -0.057539128
-0.056834243 -0.092457704 0.017359655 0.049555372 -0.010853695 -0.025743278 0.035065886 0.00038904208
-0.007817567 0.010637277 0.09497822 -0.09570949 0.0033003434 -0.024389155 0.088488944 -0.035482176
-0.012446198 -0.00010496536 -0.040269163 0.098230414 0.028827127 -0.086249135 -0.025475968 -0.006084502
0.09008672 0.09334658 -0.084072545 -0.037456177 0.08155989 -0.062063977 0.06350906 -0.06521832
-0.089604996 -0.076698415 -0.048325356 0.07909529 -0.08555922 0.09701277 0.044512648 -0.080942206
0.06376579 0.033708196 -0.05869772 -0.012110192 0.05630443 -0.08818351 0.05206322 -0.093410686
0.03947801 0.00991714 0.047499735 -0.008386668 0.049346726 -0.09121989 -0.08172944 0.05602266
0.0633277 -0.0030151054 -0.00264091 -0.0032705273 -0.06966421 0.07623326 0.059329614 0.04365102
-0.013582991 -0.08199905 0.012991894 0.055956155 0.03820307 -0.0466457 0.07156879 -0.06931585
-0.000595916 0.060892668 -0.02524497 -0.016604792 0.06563541 -0.078116044 0.029351713 -0.026174275
-0.0040479596 -0.07827308 -0.013525883 0.059895396 -0.08503024 0.05646941 -0.022399975 -0.04791807
0.059733946 -0.094877325 -0.07815636 -0.09030905 0.07392432 0.045569777 -0.03336731 0.03970745
0.0022804595 0.08564785 -0.073957704 0.06587581 -0.080177106 0.081810094 0.02980797 -0.07770118
-0.06333268 -0.08783184 0.013352498 0.072043054 0.09584649 -0.05548229 0.093301386 -0.055601396
0.022110809 -0.06350807 -0.07476654 -0.0008690001 -0.089356825 -0.0016028931 0.08546219 -0.02888326

fc_out1.bias f4 [50]
00000000: a9f9 c5bb 033f 893d a5a5 423d e0df 21bd
00000010: 0910 ca3d 156d 6a3d c2d1 cd3c 6b3e c13d
00000020: ea6e b6bd 92b8 953d 6395 84bd c665 253d
00000030: 8b48 b03d 2769 54bd 348c 4c3d 907a abbd
00000040: f5cc 8fbd c92c 5f3d 55de df3c 827f 7ebd
00000050: 31a8 883d fa84 e8bc 1644 9ebc f887 52bc
00000060: 5fb3 c9bd 88a6 b43d b4ac c43b f564 ff3c
00000070: db24 0bbd 4d0a 893c c5e8 ff3c 3de2 083c
00000080: 14bf 0f3d 7377 c4bd 4de1 c0bd e915 9c3c
00000090: 2ccc 573d e32d 8cbd fd92 7a3d d14a 53bd
000000a0: d7c6 2cbd c77d 973d d100 ca3d 32aa 413d
000000b0: 37c9 42bd f8d1 9fbd ca11 073d 672c 0ebb
000000c0: 9cb6 41bd c38b 013c
-0.0060417247 0.06701472 0.047521252 -0.039520144 0.0986634 0.057232935 0.025124434 0.094357334
-0.08907874 0.073105946 -0.06473806 0.04038026 0.086075865 -0.051858094 0.049938396 -0.08372986
-0.07021514 0.05448607 0.027327696 -0.06213332 0.06672705 -0.02838372 -0.019319575 -0.0128498
-0.098486654 0.08820826 0.006002033 0.03117607 -0.033970695 0.016728545 0.031238923 0.008354721
0.035094336 -0.09593096 -0.09417973 0.019053416 0.052684948 -0.0684469 0.061175335 -0.051585022
-0.042181816 0.07397037 0.09863437 0.04728145 -0.047555175 -0.0780372 0.03297595 -0.0021693946
-0.04729329 0.007906857

fc_out.weight f4 [2, 50]
00000000: e2de 98bd 30e4 093e a49a b2bc d4c7 d73d
00000010: 15dc 43bd 84b4 743d fbf5 7c39 6c7d 9cbc
00000020: 9945 99bd 0e05 d7bc 9742 84bd 5383 91bd
00000030: 7926 e43d 3504 44bd 687c c73c 9828 333d
00000040: 4de8 6ebd 39f5 9abd a5c0 39bd 6e6d bdbd
00000050: 7319 e23c 3ecf afbc 877d 0cbe 6ea5 c0bd
00000060: 6427 853d d6fd d7bd e685 5fbd 780c 8f3d
00000070: 5998 eabd b66c 01be c670 133c ca32 863d
00000080: 75f5 d4bb e2a5 5ebd e4a7 f1bd 94aa ef3d
00000090: 7694 44bd a66f 803c 9fbb 8e3d 0c4f aa3d
000000a0: c4b4 e03c 5adf b03c 76fc cc3d 9d9c 073e
000000b0: 8570 9f3d 641e 3abd 7583 043e 6032 8bbd
000000c0: 6ae8 02be 6304 f8bd d40a 8f3d 4d39 58bd
000000d0: a2e6 febc 6882 8f3c e2ea a43c 3d81 bbbb
000000e0: e372 44bd 0fa5 f73d 3343 c6bd 0733 a93c
000000f0: 6052 db3d 78f0 e7bd 1bda c63d bb73 de3d
00000100: d70f 95bd cf12 803d 9b07 8dbb fdb8 bfbd
00000110: 4682 b5bc 261c 06be 01fd d83d f1f6 f83d
00000120: 60e3 0c3c 9ed8 c9bc e072 fcbd 0c76 8dbd
00000130: 9683 0bbe c754 0bbe 336b de3d 267a 48bd
00000140: 64b4 b13c 9baf 2ebd b78c 1b3d 21c7 d0bc
00000150: fddc 0b3e f847 c9bd 4255 9f3c aad7 ed3d
00000160: 3f48 e33d 0cc4 ad3d 1e8c f2bd bf81 0fbe
00000170: 2643 f1bd e641 ed3d 3b7b 1a3d cb6b b63c
00000180: 3b8a c53c 8cc0 f73c a52f e6bd 65dc 843d
-0.074643865 0.13465953 -0.021802254 0.10536161 -0.04781731 0.059742466 0.00024124228 -0.019102775
-0.07483978 -0.026247527 -0.064580135 -0.07105126 0.111401506 -0.047855575 0.024351314 0.043739885
-0.058327008 -0.07566304 -0.045349736 -0.09249388 0.027600026 -0.021461125 -0.1371976 -0.09406553
0.06501654 -0.10546462 -0.054571055 0.069848 -0.11454839 -0.12639126 0.008999055 0.06552656
-0.0064989873 -0.054357417 -0.11799601 0.11702457 -0.047993146 0.015678238 0.0696938 0.08315858
0.027429946 0.021590877 0.100090906 0.13243337 0.07785133 -0.04543914 0.12940772 -0.06796718
-0.12783971 -0.12110212 0.06984487 -0.05278902 -0.031115834 0.017518237 0.020131532 -0.0057221935
-0.047961127 0.12092029 -0.09680786 0.020654215 0.10709071 -0.11325163 0.09709569 0.108619176
-0.07278412 0.062535875 -0.004303885 -0.093614556 -0.022156846 -0.13096675 0.10595132 0.12156475
0.008599132 -0.024639424 -0.12326598 -0.06907281 -0.13624415 -0.13606559 0.108602904 -0.048944615
0.021692462 -0.04264794 0.037975993 -0.025485577 0.13658519 -0.0982818 0.019449834 0.116134
0.11097764 0.084846586 -0.118431315 -0.14014338 -0.11780386 0.11584835 0.037715178 0.022268197
0.024113765 0.03024318 -0.11239556 0.064873494

fc_out.bias f4 [2]
00000000: e49f 06be be07 b23c
-0.13146931 0.021732207

exp_avg f4 [300, 2]
00000000: d823 79b2 017b 0932 1354 0ab8 42d2 01b8
00000010: e06a b7b3 5469 b135 4400 0fb9 2038 0db9
00000020: 65bc 91b7 a1b5 80b7 74dd 42b7 4dfc 48b7
00000030: 0156 ac38 2c4b b138 a9f4 5037 5467 93b7
00000040: 1612 20b7 32d9 14b7 f13a 8cb6 169b 6ab5
00000050: 5c9f 4239 7f05 3839 6cb4 1ab9 1b25 2ab9
00000060: ec73 27b9 f7fc 24b9 b5ee afb8 bdeb adb8
00000070: 0936 dd35 0798 d2b7 041d 8b37 d065 9237
00000080: 7ad8 a438 c3f5 bf38 b4d7 a7b8 346a 91b8
00000090: 9ce1 13b7 f70c 9835 2246 ff38 2799 0a39
000000a0: 2a2b 0d38 c17a e537 32ab a1b8 cf65 9eb8
000000b0: 7f1b 83b5 995f 18b6 2649 0d3a 28b6 143a
000000c0: e1df 6839 6df2 4439 dedb bcb8 4ddf c4b8
000000d0: fb7b 0ab7 41f3 deb6 2dce ad38 ff0a aa38
000000e0: aa44 4239 6651 5939 e60c 7639 af1e 7e39
000000f0: 2c12 54b7 ef67 8e34 05c4 7838 76b3 8338
00000100: d1b6 0537 8d72 b836 a915 03b7 d2aa 2eb7
00000110: 9458 3b37 61ad 2e37 cad7 b638 e3be ad38
00000120: 830d 2738 9078 d037 4a7d 0139 8265 0a39
00000130: b1a3 8938 f7e2 8a38 7205 fbb8 d9d7 0bb9
00000140: cd04 3fb9 9961 44b9 fd41 9ab7 fa81 8535
00000150: 68ff 7f38 eed5 7e38 3b52 45b5 d064 bab7
00000160: 8f67 4238 a74f b837 b2c1 f138 483e df38
00000170: d3b4 4738 4f6c 2738 e71c 4a38 b54c 4338
00000180: a019 4fb9 89e3 75b9 3989 17b9 14d0 29b9
00000190: 24d8 e238 96b4 f138 0c65 3a38 0c96 3438
000001a0: e17b 0a38 9dcd e437 24f5 fdb8 101d feb8
000001b0: 8bf0 25b9 dbd6 27b9 1a6a 2d38 cb19 4e38
000001c0: 7436 83b9 4b15 88b9 1fff e337 7e22 0338
000001d0: 9e64 0cb9 39ce 0db9 8489 c6b7 846d efb7
000001e0: f88e 2f3a 531b 333a 392e 3db8 8a58 0fb8
000001f0: b421 0bb7 1035 f0b6 90b1 3b38 afc9 3a38
00000200: a024 9137 8c63 eb37 c2f8 9eb8 636e 67b8
00000210: 7acc 5238 57b2 6338 4b5d 4a38 14ad d437
00000220: 603a a7b9 fa82 adb9 2562 8b38 a93b 9338
00000230: 5034 b837 e644 9937 536f e738 1263 0939
00000240: c262 a536 b118 8436 5ffa 9238 cf04 8b38
00000250: bf22 1fb9 b8dd 12b9 ae3d e238 762c 0639
00000260: c5cd cd36 c5e8 ff36 0589 65b8 edf8 5bb8
00000270: 4006 c9b6 9b86 b235 7647 5ab6 b4db f1b6
00000280: 7348 83b7 57ce 6bb7 208e 2e38 0ff3 ab38
00000290: 4b2c ba38 c45e b838 edff 3137 2766 2937
000002a0: 8125 4235 6d54 a5b5 14eb 0339 298d ff38
000002b0: 966c 0339 bbc0 de38 de8c af36 0c3d 1e35
000002c0: e65f 1fb9 f03c 27b9 2428 3d39 4c33 3639
000002d0: 9e2b 1b37 8b57 09b6 332a 8235 5daf 83b5
000002e0: b91f c837 6312 0836 fe5d d6b7 7e4b f5b7
000002f0: d39f 3439 e21b 2e39 0c8a 8139 c73b 7c39
00000300: 7322 6638 2620 6338 b5c9 c536 026e f4b6
00000310: bf8f bab6 89e7 56b7 a53b 5638 527d 3c38
00000320: 68f7 37b7 0e16 3cb7 aeaa acb5 7adb c0b5
00000330: d03f 4ab7 5829 4eb7 7c73 7236 ae41 8f36
00000340: 754e 2bb6 443a 68b6 3e92 0c35 c0d2 de35
00000350: 55fa 0ab7 13a9 09b7 1d99 7136 f5f1 9736
00000360: aa76 0536 09de d135 2440 2c35 6b12 2935
00000370: d1aa d1b6 2d92 b7b6 15d7 4e36 9eef 8236
00000380: 2212 5337 702e 4d37 ba73 cdb5 235b c2b5
00000390: f729 91b6 793e 3eb5 c4c1 5935 9fb5 9635
000003a0: 7d76 fdb4 4439 34b5 f6c4 6eb4 5a7c 4e34
000003b0: fcc3 0bb7 f1bd 06b7 0dc9 9633 848e 1c34
000003c0: f731 c235 8357 c135 7405 9435 0193 7d35
000003d0: b726 dab5 1ad3 bbb5 ed7e 0eb8 7fc9 10b8
000003e0: e753 2bb7 dbd9 0bb7 7d9a 1c37 5935 1337
000003f0: 0651 90b5 4f03 71b5 dc98 5037 0597 4037
-1.45018575e-08 8.002417e-09 -3.2980064e-05 -3.0951815e-05 -8.541042e-08 1.3218182e-06 -0.00013637642 -0.00013467716
-1.7373075e-05 -1.5343367e-05 -1.1614862e-05 -1.1979672e-05 8.2176186e-05 8.4540196e-05 1.24547305e-05 -1.7571881e-05
-9.540954e-06 -8.872057e-06 -4.179187e-06 -8.739747e-07 0.00018560648 0.00017549655 -0.00014753797 -0.00016226286
-0.00015969545 -0.00015734496 -8.389113e-05 -8.2931925e-05 1.6481509e-06 -2.5104744e-05 1.6583603e-05 1.7451966e-05
7.860451e-05 9.1533664e-05 -8.0033584e-05 -6.933921e-05 -8.814412e-06 1.1328656e-06 0.00012172411 0.00013217759
3.365722e-05 2.7356089e-05 -7.708966e-05 -7.5529904e-05 -9.768263e-07 -2.270541e-06 0.0005389623 0.00056728953
0.00022208646 0.00018782327 -9.005492e-05 -9.387601e-05 -8.254307e-06 -6.644434e-06 8.287686e-05 8.10828e-05
0.00018526861 0.00020725056 0.00023465193 0.00024234758 -1.2640416e-05 2.6525183e-07 5.9310365e-05 6.279994e-05
7.969983e-06 5.496963e-06 -7.813252e-06 -1.041098e-05 1.1166692e-05 1.0411576e-05 8.71863e-05 8.284838e-05
3.9828486e-05 2.4851674e-05 0.00012349072 0.0001319852 6.563159e-05 6.622628e-05 -0.00011969627 -0.00013336483
-0.00018216968 -0.00018728375 -1.8388959e-05 9.9471e-07 6.1034603e-05 6.0757557e-05 -7.350788e-07 -2.2219872e-05
4.634965e-05 2.19716e-05 0.00011527854 0.000106450694 4.7613703e-05 3.9916773e-05 4.818747e-05 4.6563062e-05
-0.00019750604 -0.00023449784 -0.00014451602 -0.00016194611 0.00010816779 0.00011525412 4.4439963e-05 4.3055086e-05
3.3017135e-05 2.7275464e-05 -0.00012109641 -0.00012117077 -0.00015825235 -0.00016006401 4.134523e-05 4.913825e-05
-0.00025026838 -0.00025955806 2.7179309e-05 3.1264957e-05 -0.00013388923 -0.00013523632 -2.3667475e-05 -2.8542017e-05
0.0006697024 0.000683238 -4.510416e-05 -3.4176315e-05 -8.292893e-06 -7.1587347e-06 4.4749642e-05 4.453369e-05
1.7302402e-05 2.8060538e-05 -7.580362e-05 -5.5177497e-05 5.0258335e-05 5.428711e-05 4.824744e-05 2.5352965e-05
-0.00031896215 -0.00033094716 6.646317e-05 7.020619e-05 2.195887e-05 1.8271105e-05 0.00011035674 0.00013102245
4.92888e-06 3.936781e-06 7.008458e-05 6.628932e-05 -0.00015176366 -0.00014006242 0.000107880085 0.00012795799
6.133431e-06 7.62669e-06 -5.4725464e-05 -5.24455e-05 -5.9909944e-06 1.3301209e-06 -3.2526127e-06 -7.2079365e-06
-1.5650154e-05 -1.4055134e-05 4.1617197e-05 8.1991886e-05 8.877421e-05 8.791455e-05 1.06096095e-05 1.0096969e-05
7.2325207e-07 -1.2318029e-06 0.00012580707 0.00012185641 0.00012533585 0.00010621684 5.2318055e-06 5.894842e-07
-0.00015199147 -0.00015949062 0.00018039398 0.00017375982 9.248875e-06 -2.0465548e-06 9.698036e-07 -9.811298e-07
2.385663e-05 2.0276282e-06 -2.5554556e-05 -2.924143e-05 0.00017225677 0.0001660432 0.0002470765 0.00024054862
5.4868357e-05 5.4150958e-05 5.8945393e-06 -7.2845733e-06 -5.559966e-06 -1.28093025e-05 5.1077124e-05 4.4939407e-05
-1.0965254e-05 -1.1210808e-05 -1.2864673e-06 -1.4368991e-06 -1.2054996e-05 -1.2288183e-05 3.612803e-06 4.269378e-06
-2.5526654e-06 -3.460461e-06 5.2366875e-07 1.6601625e-06 -8.283726e-06 -8.205202e-06 3.6000922e-06 4.528318e-06
1.9887616e-06 1.5636334e-06 6.416833e-07 6.298421e-07 -6.248571e-06 -5.470842e-06 3.0821586e-06 3.902197e-06
1.2580802e-05 1.2229764e-05 -1.5307371e-06 -1.4480651e-06 -4.326222e-06 -7.0871425e-07 8.1120766e-07 1.122873e-06
-4.7211134e-07 -6.713856e-07 -2.2237131e-07 1.9230484e-07 -8.330677e-06 -8.031247e-06 7.02149e-08 1.4580479e-07
1.4468668e-06 1.440509e-06 1.1028446e-06 9.4463763e-07 -1.6253533e-06 -1.3994024e-06 -3.3973647e-05 -3.4519933e-05
-1.0211929e-05 -8.335769e-06 9.334294e-06 8.774304e-06 -1.0752417e-06 -8.978431e-07 1.24333565e-05 1.1479254e-05

exp_avg_sq f4 [300, 2]
00000000: 1ce9 f829 d638 022a b72d f62d 43a0 d52d
00000010: 4486 cd2b 103a b32b 0cf4 f72f 925e f22f
00000020: 0762 132d 8e45 f52c 032a 952c 1ef4 962c
00000030: 2667 282f 6b28 322f 9a62 7a2c b84c 072d
00000040: ffdf 162c 7b88 042c df4e e02a 6986 d528
00000050: 4b67 5530 e32f 3f30 329f 0c30 f594 2a30
00000060: 74f9 2a30 187e 2630 5308 3a2f af30 352f
00000070: 3040 8f2b d1f8 a22d d37a db2c 1c9f ef2c
00000080: f8eb 3c2f 4259 742f dd75 3e2f 0fb5 0f2f
00000090: 0b1d 202c f22d 5d2a 8caa b42f 33a4 d62f
000000a0: 5c74 d82d 91cb 8e2d 7c17 2c2f c382 252f
000000b0: c280 1329 aaf0 2e2a 94f6 e931 247e 0132
000000c0: c2fb 9830 7d6d 5a30 0b6d 5e2f 68b5 712f
000000d0: c5d0 d92b 39b3 8f2b 7ce8 402f c09e 372f
000000e0: 7847 6730 af9e 8f30 aa09 af30 651c ba30
000000f0: f420 872c 917b 0528 18a0 aa2e 0b9c c02e
00000100: d66b c22b 5a31 3a2b 7f81 162c 1a81 732c
00000110: 4fa0 422c 1461 292c 3a0d 362f 9764 242f
00000120: 746d 252e 353a 7c2d 023d bd2f 07df d82f
00000130: 4d24 da2e 567b df2e a711 c82f 5e61 f62f
00000140: 5d4b 5330 6929 6030 2c42 1a2d 11da 412a
00000150: bcac b42e cda2 b32e eaf5 2c2b 878b 712d
00000160: e70d 532e eac0 3b2d 36c9 9f2f 6a09 882f
00000170: edb8 682e 4ddf 232e c780 602e 5d92 512e
00000180: b96c 8930 d51a be30 ef71 1530 5c06 3930
00000190: 927a 922f f719 a72f 79ce 3d2e f787 322e
000001a0: 3d90 cf2d 5123 902d 7e0d c32f 219f c22f
000001b0: 8e9c 2330 c0b2 2630 2b8a 2a2e cc69 692e
000001c0: 59ee d130 8911 e030 0d7f 912d bd6c be2d
000001d0: 4bd2 f42f b68a f82f 2e88 b02d 768e e62d
000001e0: 918c 3032 fec8 3732 cf72 472e 2fbd e42d
000001f0: 4b88 d92b 6cda a12b ca8c 3f2e dea0 3d2e
00000200: 733c ff2c d4ac a52d 9d16 1e2f 2804 af2e
00000210: bd3a 782e 956e 902e c41a 6f2e 54be 812d
00000220: fbd3 2431 84b5 3131 d627 db2e 7089 f62e
00000230: f813 6b2d b342 232d 6203 9c2f 6824 db2f
00000240: faea 8c2b 9da6 2e2b 82b0 fa2e 5494 e02e
00000250: e1fa 1730 e8b9 0130 cae8 972f 5879 d62f
00000260: 6792 a72b a725 de2b 91bc a22e d5da 952e
00000270: 88e7 072c 2f66 312b be70 8f2a c809 a52b
00000280: bd54 f42c ac53 cd2c c640 262e 4953 252f
00000290: 2230 4a2f 5cf8 452f 7def 2c2c 633a 1b2c
000002a0: eaa6 932c 0acb 852c 827e e02f 446c d02f
000002b0: 0436 c62f f3c2 8d2f 74f6 352b 1927 712a
000002c0: e496 2230 14fc 3030 0f99 4730 8454 3930
000002d0: 4da5 f12c 433a 342c b5f9 8329 b05d cb28
000002e0: ff56 5a2d a3e3 8c2b 0732 972d f4ef c42d
000002f0: 9c68 4230 b072 3330 e125 c130 aff5 b630
00000300: ccf3 902e 4341 8d2e 301a 902b 4b71 f82b
00000310: 8df4 b22b f2b5 b12c c2df 822e 0556 492e
00000320: 0faf 412c 4480 4a2c e055 2529 1258 4c29
00000330: 481a 6c2c 3862 742c 7871 bd2a f99a 022b
00000340: 5a58 1e2a 662e 922a 2e1b 9228 8d68 8b29
00000350: 1b7c d82b 4745 d42b 8320 c82a f132 182b
00000360: e1c3 ca29 3eb3 7d29 f965 3f28 03dc 2f28
00000370: 3bfc 712b 9743 392b b941 762a 17cb c72a
00000380: 2462 8e2c b676 862c 2e26 7f29 e2ff 6229
00000390: 1cbd e52a f81e 7d29 08f7 d028 7a51 3529
000003a0: 8a98 e827 824e 4628 e475 3828 9a3f 4f28
000003b0: b420 d82b 439c c82b b8c8 1c28 0d98 0428
000003c0: 2ec5 8329 5a5a 8329 1351 5b29 0493 3c29
000003d0: 96ac 8629 1339 4e29 84d4 ee2d 8970 f62d
000003e0: dfb6 292c 51a6 e22b dce1 1e2c 3823 0d2c
000003f0: 3f48 9c29 d412 6729 b9dd 9a2c 68c8 842c
1.10538504e-13 1.1566038e-13 2.7987264e-11 2.4286467e-11 1.4603392e-12 1.2734831e-12 4.5102444e-10 4.408674e-10
8.377749e-12 6.971041e-12 4.239499e-12 4.290359e-12 1.5316157e-10 1.6203365e-10 3.5581872e-12 7.6908965e-12
2.1440625e-12 1.883409e-12 3.984512e-13 2.3706042e-14 7.7635737e-10 6.9553446e-10 5.1157933e-10 6.205732e-10
6.2200134e-10 6.056964e-10 1.6919559e-10 1.647915e-10 1.0178577e-12 1.8527764e-11 6.2379906e-12 6.8104532e-12
1.7182333e-10 2.2223381e-10 1.7322273e-10 1.3070099e-10 2.275349e-12 1.9644684e-13 3.286299e-10 3.9043044e-10
2.4608031e-11 1.6233933e-11 1.5651652e-10 1.5053118e-10 3.2752237e-14 1.5537802e-13 6.809225e-09 7.537469e-09
1.113101e-09 7.946353e-10 2.0229522e-10 2.1983271e-10 1.5476723e-12 1.0210505e-12 1.7544893e-10 1.6700152e-10
8.4138874e-10 1.044972e-09 1.2735673e-09 1.3541351e-09 3.8405893e-12 7.409777e-15 7.759143e-11 8.758868e-11
1.381446e-12 6.6148963e-13 2.1388167e-12 3.4604043e-12 2.7658047e-12 2.4070234e-12 1.6557503e-10 1.495145e-10
3.761387e-11 1.4337466e-11 3.4422248e-10 3.9448642e-10 9.9199406e-11 1.0162775e-10 3.639233e-10 4.4816323e-10
7.686845e-10 8.154957e-10 8.76858e-12 1.72175e-13 8.216136e-11 8.168897e-11 6.144795e-13 1.3730245e-11
4.7988193e-11 1.0672555e-11 2.90649e-10 2.4744945e-10 5.291494e-11 3.726024e-11 5.104608e-11 4.7651095e-11
9.998963e-10 1.3831946e-09 5.4367794e-10 6.7311645e-10 2.6644337e-10 3.0395572e-10 4.315701e-11 4.0593275e-11
2.359723e-11 1.6386588e-11 3.547988e-10 3.5401462e-10 5.952153e-10 6.064447e-10 3.8776243e-11 5.3072033e-11
1.5274494e-09 1.6303129e-09 1.6541013e-11 2.1648789e-11 4.4532764e-10 4.5209497e-10 2.006936e-11 2.6211238e-11
1.0276509e-08 1.0697702e-08 4.5349332e-11 2.6004613e-11 1.5456606e-12 1.1500362e-12 4.3553418e-11 4.3116503e-11
7.254247e-12 1.883508e-11 1.437805e-10 7.958817e-11 5.644084e-11 6.568005e-11 5.436608e-11 1.4750125e-11
2.3985638e-09 2.586007e-09 9.966043e-11 1.12111986e-10 1.3362637e-11 9.2802875e-12 2.8378638e-10 3.9861736e-10
1.0012817e-12 6.204844e-13 1.1400038e-10 1.0212689e-10 5.529e-10 4.7194115e-10 2.7632147e-10 3.9012593e-10
1.1906699e-12 1.5784499e-12 7.400403e-11 6.814608e-11 1.931318e-12 6.302484e-13 2.5480133e-13 1.172667e-12
6.944305e-12 5.83574e-12 3.780156e-11 1.5036251e-10 1.8388893e-10 1.800528e-10 2.4575613e-12 2.2059236e-12
4.1965225e-12 3.8026292e-12 4.0835252e-10 3.7911907e-10 3.605437e-10 2.578627e-10 6.464614e-13 2.1418665e-13
5.9149685e-10 6.438665e-10 7.261329e-10 6.742271e-10 6.867984e-12 2.561188e-12 5.860886e-14 2.2578158e-14
1.2411182e-11 1.001078e-12 1.7188929e-11 2.238918e-11 7.072545e-10 6.52828e-10 1.4053364e-09 1.331207e-09
6.591669e-11 6.4235305e-11 1.0239084e-12 1.7652905e-12 1.2715537e-12 5.0508426e-12 5.951463e-11 4.577851e-11
2.7524127e-12 2.8777128e-12 3.6711845e-14 4.5373488e-14 3.3552206e-12 3.4729008e-12 3.365188e-13 4.6400346e-13
1.4063872e-13 2.5967005e-13 1.6221043e-14 6.190977e-14 1.5382169e-12 1.5082734e-12 3.5549696e-13 5.4071943e-13
9.0045816e-14 5.6332753e-14 1.0624742e-14 9.762159e-15 8.597044e-13 6.5819003e-13 2.1871991e-13 3.5490423e-13
4.0467785e-12 3.8216886e-12 5.665449e-14 5.0404024e-14 4.0809793e-13 5.6204146e-14 2.3199772e-14 4.0260743e-14
6.455832e-15 1.1008232e-14 1.0239615e-14 1.15046e-14 1.53568e-12 1.4254226e-12 8.7032635e-15 7.360443e-15
5.851774e-14 5.833242e-14 4.869809e-14 4.18719e-14 5.980734e-14 4.5790693e-14 2.7151843e-11 2.8016938e-11
2.4117858e-12 1.6104428e-12 2.2578528e-12 2.0056855e-12 6.9403244e-14 5.1308635e-14 4.4015594e-12 3.773915e-12
