test_dagster/mlruns/0/c29a8e471626448f809c5dcf2e084d54/artifacts/prediction_model/data/model.pth (torch, 155663 bytes, 8 tensors)

weight_ih_l0 f4 [300, 2]
0.021944357 -0.09564102 0.08903494 -0.09932766 -0.059106838 -0.012105572 -0.06424411 0.06018269
-0.00744524 -0.043819834 -0.020302046 -0.008306861 0.03754008 -0.038669016 0.06802883 0.044345286
0.0135894185 -0.0338449 -0.02259531 -0.08110324 0.04117688 0.0044971826 0.06541985 0.025927855
0.0013838053 0.0710149 0.02547474 -0.03690995 0.09424939 0.025341226 0.04008719 0.07032969
0.03480904 0.08982164 0.03194275 0.0589828 -0.04546994 -0.076889195 0.036931526 -0.023393964
0.07030215 0.05096469 -0.09618266 0.051194634 0.07496103 -0.083544515 -0.022794306 0.090033665
-0.018093992 0.025883531 -0.054154098 -0.01513499 0.05295999 -0.011535967 -0.041762806 -0.09371489
-0.038614716 -0.008654142 0.08761155 0.089836635 -0.04566002 -0.080036774 -0.08226357 0.038623966
-0.01624558 -0.041246783 0.024235083 -0.0943818 -0.0061378838 0.029454315 -0.009551227 -0.08756464
-0.09313855 -0.031729233 0.08601476 0.035838593 0.09745001 -0.09483661 -0.011792767 0.073769785
-0.037686314 -0.022915637 -0.087084346 -0.047068216 0.005451429 -0.08316969 0.017400002 0.08985285
0.018469179 -0.009736776 0.060052898 -0.0763668 0.013101101 0.04888934 0.013091373 -0.050346065
-0.06681056 0.08974578 0.09259801 0.03581828 0.09378755 -0.057174694 0.06417417 0.052775502
-0.06770613 -0.08289391 0.0736804 0.050569415 0.02969873 -0.053020157 0.0048919083 0.04481126
-0.033430934 0.072706066 0.06847876 0.044225942 -0.08635646 -0.03153069 0.09747908 0.026078844
0.020433128 0.06406474 -0.06794768 -0.07071221 -0.057055295 0.018731713 0.04314635 0.011755538
0.08386574 0.014592612 0.07531388 -0.062023796 0.045372605 0.008383012 0.09846977 0.09374379
0.092579804 0.08850827 0.092772774 0.033557273 -0.071975045 0.028793598 -0.021948505 -0.053762376
-0.03949845 -0.08523464 0.08490475 -0.028187966 0.030840505 -0.018933428 0.028426563 0.07785558
-0.010737992 -0.009190321 0.07253742 -0.0062166573 0.09632279 0.032683443 0.04478712 -0.06849455
0.07524703 0.034961272 0.04140047 -0.04034213 0.027212668 -0.07522185 0.06381494 -0.027035845
0.0009205103 0.0459083 -0.035262275 -0.029653478 -0.033346664 -0.019977117 -0.09865739 0.00521369
0.008871341 -0.041243386 -0.06645473 -0.07122164 0.09372877 0.020166207 0.05759094 0.0905297
0.027801884 -0.06268101 0.044290256 -0.09543854 0.047828354 -0.015242445 0.06951084 -0.02182361
0.081845164 0.052453257 -0.047835182 -0.062887244 0.047121026 0.08689674 0.077279665 -0.052016914
-0.004183579 0.068334736 -0.005213952 0.09758307 0.09200311 0.019866263 -0.026647115 0.059413172
0.036176205 0.04462055 0.0093039395 -0.04839282 0.039918292 0.07942225 -0.06740258 -0.05726072
0.04970628 -0.040586352 -0.06583219 0.014448262 0.076720916 0.06351822 0.01732936 0.080721475
-0.03167018 0.0741953 -0.07049354 0.05072583 -0.06534618 0.038149606 -0.033673573 -0.041371286
-0.010350585 -0.05399809 0.0045116185 -0.02994932 0.015039528 0.04609672 -0.084847406 -0.041650083
-0.07717004 -0.050036754 -0.032540035 -0.064428344 0.0484383 0.09982617 0.09648116 0.014893866
0.09370073 -0.051487327 -0.09736083 0.041853823 0.033925902 0.044785548 0.016171718 -0.0007115245
00000000: a7c4 b33c 70df c3bd f357 b63d 4d6c cbbd
00000010: 031a 72bd 7356 46bc 6a92 83bd 2082 763d
00000020: 33f7 f3bb 6d7c 33bd 7a50 a6bc 8019 08bc
00000030: a0c3 193d 6763 1ebd b352 8b3d 67a3 353d
00000040: 27a6 5e3c f3a0 0abd cd19 b9bc 7519 a6bd
00000050: 17a9 283d 1a5d 933b d8fa 853d a766 d43c
00000060: cd60 b53a 4370 913d 67b0 d03c e32e 17bd
00000070: d305 c13d 6798 cf3c 7732 243d 0309 903d
00000080: ed93 0e3d 68f4 b73d 67d6 023d f397 713d
00000090: b03e 3abd 1578 9dbd 8345 173d b3a4 bfbc
000000a0: 93fa 8f3d 5ac0 503d 6afb c4bd 77b1 513d
000000b0: 2b85 993d 6319 abbd 20bb babc 9263 b83d
000000c0: da39 94bc b309 d43c b0d0 5dbd c0f8 77bc
000000d0: 93ec 583d 5a01 3dbc 7a0f 2bbd 98ed bfbd
000000e0: 772a 1ebd 1aca 0dbc af6d b33d 45fc b73d
000000f0: 0006 3bbd 52ea a3bd cd79 a8bd 2a34 1e3d
00000100: 7315 85bc 63f2 28bd a788 c63c 3f4b c1bd
00000110: 4d20 c9bb 2d4a f13c c07c 1cbc 1755 b3bd
00000120: 6dbf bebd 83f6 01bd 8228 b03d 7dcb 123d
00000130: df93 c73d b239 c2bd 7336 41bc 9d14 973d
00000140: f75c 1abd 93b9 bbbc 4759 b2bd 9aca 40bd
00000150: e7a1 b23b df54 aabd 738a 8e3c c504 b83d
00000160: ad4c 973c 0087 1fbc 07fa 753d 3266 9cbd
00000170: 00a6 563c 3040 483d 337d 563c ad37 4ebd
00000180: fad3 88bd a3cc b73d 07a4 bd3d 30b6 123d
00000190: b013 c03d 0330 6abd bf6d 833d 202b 583d
000001a0: 83a9 8abd 48c4 a9bd c0e5 963d e021 4f3d
000001b0: c04a f33c aa2b 59bd 4d4c a03b 038c 373d
000001c0: e0ee 08bd ebe6 943d 983e 8c3d 4326 353d
000001d0: a8db b0bd 5326 01bd 1da3 c73d 4da3 d53c
000001e0: 6063 a73c 6034 833d 2728 8bbd 90d1 90bd
000001f0: d0b2 69bd 4073 993c 3aba 303d 4d9a 403c
00000200: cdc1 ab3d da15 6f3c 2a3e 9a3d aa0c 7ebd
00000210: a0d8 393d e758 093c 85aa c93d bffc bf3d
00000220: 7b9a bd3d d343 b53d a7ff bd3d 5a73 093d
00000230: a767 93bd 8de0 eb3c 5acd b3bc f035 5cbd
00000240: 20c9 21bd 808f aebd 8be2 ad3d 73ea e6bc
00000250: 3aa5 fc3c 471a 9bbc d3de e83c bf72 9f3d
00000260: 67ee 2fbc 0093 16bc 808e 943d 1ab5 cbbb
00000270: e244 c53d 13df 053d b372 373d df46 8cbd
00000280: 1d1b 9a3d 8d33 0f3d 8a93 293d ca3d 25bd
00000290: 1aed de3c ea0d 9abd 68b1 823d 477a ddbc
000002a0: 674e 713a 570a 3c3d 2d6f 10bd daeb f2bc
000002b0: 8396 08bd 0da7 a3bc e30c cabd 9ad7 aa3b
000002c0: 1a59 113c d3ee 28bd 6b19 88bd a7dc 91bd
000002d0: dff4 bf3d 9a33 a53c 7ae4 6b3d a367 b93d
000002e0: c7c0 e33c e75e 80bd b369 353d 4875 c3bd
000002f0: aae7 433d 73bb 79bc b35b 8e3d 6dc7 b2bc
00000300: 709e a73d 3ad9 563d d3ee 43bd 07cb 80bd
00000310: fa01 413d ebf6 b13d cd44 9e3d b00f 55bd
00000320: 6716 89bb 15f3 8b3d cdd9 aabb a2d9 c73d
00000330: 206c bc3d 93be a23c 0d4b dabc 3a5b 733d
00000340: 802d 143d 0ac4 363d 8d6f 183c 8d37 46bd
00000350: 5d81 233d 22a8 a23d 5d0a 8abd 378a 6abd
00000360: d098 4b3d e03d 26bd 07d3 86bd 67b8 6c3c
00000370: db1f 9d3d d715 823d 4df6 8d3c 4d51 a53d
00000380: 97b8 01bd b5f3 973d eb5e 90bd e3c5 4f3d
00000390: 38d4 85bd c342 1c3d 4ded 09bd f074 29bd
000003a0: 8095 29bc 1a2d 5dbd 33d6 933b 4758 f5bc
000003b0: 5a68 763c eacf 3c3d 7ac4 adbd 4799 2abd
000003c0: 530b 9ebd 57f3 4cbd b348 05bd 02f3 83bd
000003d0: 3d67 463d aa71 cc3d ea97 c53d 6705 743c
000003e0: 2be6 bf3d 60e4 52bd 1d65 c7bd ea6e 2b3d
000003f0: e3f5 0a3d 0d71 373d 8d7a 843c 9a85 3aba

weight_hh_l0 f4 [300, 100]
-0.06798553 -0.026093556 -0.0650961 -0.06354866 -0.014482844 -0.09359236 -0.042336475 0.039921403
-0.07439786 -0.07335942 -0.034950245 0.045110416 -0.06469607 -0.008193088 -0.09226971 0.010014045
0.08801722 0.06384947 0.018452693 0.035750747 0.005055416 0.04335648 0.025651861 0.06194972
-0.051307406 0.029166175 -0.053759124 -0.003417635 0.09395603 -0.04838909 0.0666567 0.038451698
0.021026278 -0.087252736 0.09507253 -0.08511138 -0.025608707 -0.013885367 0.064676724 0.08150991
0.012697721 -0.05591779 0.09768907 -0.09738834 -0.08974729 -0.013821304 -0.09665652 -0.054179024
0.055925526 0.046785202 0.07270806 0.006734443 -0.09183361 -0.06930941 -0.057510175 0.073939264
-0.07734741 0.020746017 -0.09658022 -0.029014885 0.024051702 0.027193403 0.05503731 0.07629714
0.046614137 0.0877016 0.031357385 -0.028132332 0.032438077 0.09015361 0.021178532 0.0877464
-0.09194715 0.049658418 -0.09107919 0.02331897 0.09280943 -0.027473021 0.081006125 0.06913998
0.001343 0.04241226 0.05310711 -0.040846955 -0.08386829 -0.039229013 -0.02233187 0.008648872
0.06935538 -0.0676953 0.06582178 0.02537383 0.010511684 -0.056159664 -0.03738762 0.05901475
-0.08195665 0.020164525 -0.09508693 0.06620157 0.09602892 0.07609176 0.053660642 -0.036554087
-0.08039695 -0.04187558 0.02562902 -0.00376668 0.044528257 -0.07285066 0.054589916 0.0175367
-0.079746716 -0.03584485 -0.0007006049 -0.08944698 0.06854438 0.09944623 -0.055273663 0.032083403
-0.050636567 -0.07126385 0.07240359 -0.052713525 -0.03853793 0.073721044 0.08025018 0.045871653
0.042994466 -0.08244554 -0.0017220617 -0.088355236 0.03943361 -0.0028386712 0.053391732 -0.0446767
-0.035384167 0.04927808 -0.032859076 -0.045653142 -0.0671308 0.014976501 -0.009104788 -0.030305028
0.049442876 -0.044055868 0.051282477 0.036024224 -0.04725014 -0.032548357 -0.014197076 0.037382733
0.022781814 -0.026614714 -0.016914738 0.015535903 0.07351335 -0.037415374 0.005974388 -0.09065416
0.020329667 0.03499323 0.026164556 -0.03221059 0.025977505 0.0041475776 0.07310257 -0.034308374
0.05832379 0.047372628 -0.076048754 0.047653984 0.063547544 0.092209555 -0.072658755 -0.050776124
-0.00908072 -0.062468052 -0.05042049 -0.08291029 0.03141239 -0.073304765 0.09739126 -0.08362056
0.08339419 0.08453449 0.037293114 0.047237065 -0.013409793 0.001379633 -0.011568106 0.022394335
0.06739967 0.07023837 0.06427262 -0.060923662 0.048712075 0.08028022 0.036594998 0.090353385
0.06519093 -0.047329377 0.004934764 -0.0901201 0.072243236 0.0040887715 -0.034230005 0.020719683
-0.052141823 -0.06423738 -0.04084778 0.03218632 -0.034899224 -0.07363784 0.054910183 0.09699277
0.041602958 -0.09893923 -0.07544416 0.09952797 0.099692896 0.059809018 0.09614631 -0.02197398
-0.033717096 -0.05321877 -0.040988315 0.087483756 0.03309487 0.022110498 -0.013620282 -0.045271683
-0.001629603 0.013586652 -0.05406605 -0.04614488 -0.027932096 -0.042883586 0.09449035 0.00494709
0.07050767 -0.01162523 -0.013658226 -0.054395963 -0.0131036285 -0.01193465 -0.015260196 0.042871106
-0.08015493 -0.06519506 0.06525176 0.070761256 -0.01781913 -0.0920918 0.005597878 -0.09358416
00000000: ff3b 8bbd 27c2 d5bc 1b51 85bd cd25 82bd
00000010: 7349 6dbc 5aad bfbd 0369 2dbd a084 233d
00000020: e85d 98bd 773d 96bd fd27 0fbd b3c5 383d
00000030: 607f 84bd 4d3c 06bc e7f7 bcbd f311 243c
00000040: 5f42 b43d 83c3 823d 1a2a 973c 606f 123d
00000050: e7a7 a53b 9096 313d da23 d23c fdbe 7d3d
00000060: b727 52bd e7ed ee3c 8732 5cbd 67fa 5fbb
00000070: 056c c03d a333 46bd 4f83 883d 877f 1d3d
00000080: 4d3f ac3c 90b1 b2bd 63b5 c23d e04e aebd
00000090: 5ac9 d1bc 737f 63bc 3b75 843d abee a63d
000000a0: 1a0a 503c 0d0a 65bd 3511 c83d 8a73 c7bd
000000b0: 6dcd b7bd c072 62bc dbf3 c5bd d3ea 5dbd
000000c0: 2a12 653d d7a1 3f3d f7e7 943d 9aac dc3b
000000d0: 4213 bcbd 18f2 8dbd ca8f 6bbd 786d 973d
000000e0: 5268 9ebd 8df3 a93c dacb c5bd a0b0 edbc
000000f0: 1308 c53c b3c4 de3c cd6e 613d ad41 9c3d
00000100: 77ee 3e3d e59c b33d 9a70 003d c775 e6bc
00000110: cadd 043d 75a2 b83d 9a7e ad3c 62b4 b33d
00000120: ca4e bcbd a066 4b3d ba87 babd 6d07 bf3c
00000130: df12 be3d 1a0f e1bc 8ae6 a53d 4399 8d3d
00000140: 9a07 b03a 7ab8 2d3d d786 593d 234f 27bd
00000150: 23c3 abbd 9aae 20bd 53f1 b6bc 00b4 0d3c
00000160: 320a 8e3d d5a3 8abd 92cd 863d c7dc cf3c
00000170: 3339 2c3c ad07 66bd c323 19bd 73b9 713d
00000180: e3d8 a7bd 1330 a53c f0bc c2bd b094 873d
00000190: cfaa c43d ffd5 9b3d 43cb 5b3d bdb9 15bd
000001a0: 28a7 a4bd ba85 2bbd f3f3 d13c 67da 76bb
000001b0: 4363 363d ba32 95bd ad99 5f3d 20a9 8f3c
000001c0: 3f52 a3bd 0dd2 12bd cda8 37ba fa2f b7bd
000001d0: ff60 8c3d 77aa cb3d a366 62bd e369 033d
000001e0: 4a68 4fbd c8f2 91bd 5548 943d 23ea 57bd
000001f0: f3d9 1dbd 0ffb 963d 355a a43d eae3 3b3d
00000200: f71a 303d 35d9 a8bd cdb6 e1ba 97f3 b4bd
00000210: 2385 213d 0009 3abb 4ab1 5a3d eafe 36bd
00000220: fdee 10bd d0d7 493d 3d97 06bd cafe 3abd
00000230: df7b 89bd 0060 753c 402c 15bc 4042 f8bc
00000240: 9d84 4a3d ed73 34bd 930d 523d 238e 133d
00000250: 5d89 41bd 6d51 05bd da9a 68bc a31e 193d
00000260: eda0 ba3c 1a07 dabc c790 8abc 4d8a 7e3c
00000270: 2b8e 963d dd40 19bd cdc4 c33b e3a8 b9bd
00000280: 678a a63c 1055 0f3d 0d57 d63c 40ef 03bd
00000290: c7ce d43c 67e8 873b cdb6 953d f086 0cbd
000002a0: ede4 6e3d cd09 423d 73bf 9bbd d330 433d
000002b0: 3725 823d 5dd8 bc3d 1dce 94bd a0fa 4fbd
000002c0: 4dc7 14bc 80de 7fbd b785 4ebd dfcc a9bd
000002d0: 47aa 003d cf20 96bd 1275 c73d 4241 abbd
000002e0: 93ca aa3d 6b20 ad3d aac0 183d a77b 413d
000002f0: c0b4 5bbc cdd4 b43a 2788 3dbc 5374 b73c
00000300: d708 8a3d 22d9 8f3d 5da1 833d 178b 79bd
00000310: 5086 473d f569 a43d a3e4 153d 320b b93d
00000320: d382 853d 73dc 41bd cdb3 a13b e390 b8bd
00000330: 43f4 933d 1afb 853b c334 0cbd 53bc a93c
00000340: aa92 55bd e38e 83bd 0050 27bd cdd5 033d
00000350: 7df2 0ebd 70cf 96bd 80e9 603d 25a4 c63d
00000360: dd67 2a3d a7a0 cabd 7882 9abd 52d5 cb3d
00000370: ca2b cc3d 4dfa 743d 5be8 c43d c702 b4bc
00000380: f01a 0abd edfb 59bd 5de3 27bd af2a b33d
00000390: 7d8e 073d 1321 b53c 9a27 5fbc cd6e 39bd
000003a0: 6798 d5ba 8d9a 5e3c 5d74 5dbd 6a02 3dbd
000003b0: dad1 e4bc b3a6 2fbd 2884 c13d 331b a23b
000003c0: 5366 903d c077 3ebc c0c6 5fbc 4dce 5ebd
000003d0: 9ab0 56bc 8d89 43bc e705 7abc 9d99 2f3d
000003e0: 4528 a4bd fd84 85bd b7a2 853d 47eb 903d
000003f0: 6df9 91bc a09a bcbd 676e b73b 0da9 bfbd

bias_ih_l0 f4 [300]
-0.05771035 -0.01384368 -0.093208455 0.0891546 0.014059246 0.020080222 0.0026994706 0.0496701
0.0332531 -0.010839606 0.01972344 -0.06744076 -0.0984657 0.098096825 0.07136327 -0.0061356905
-0.005865395 -0.09822577 -0.03873818 -0.060880926 -0.027048921 -0.05716113 0.063922405 0.020749629
0.07406809 -0.07224047 0.097337715 -0.020881569 -0.039687168 -0.012779749 0.027095282 -0.022583593
-0.073914625 0.06913829 -0.09109207 0.0507769 0.015765965 -0.042911913 0.056911077 0.0692178
0.015132976 -0.00016795397 0.041673314 -0.08325986 -0.043559134 0.07612232 -0.0055125714 0.06553482
-0.0747689 0.06068052 -0.09121173 -0.087804295 -0.0489025 0.016994882 -0.02349465 -0.019590307
0.08672871 -0.018086815 0.08868798 0.037271023 0.03270172 -0.03142878 -0.08467561 0.07467981
0.07521575 0.08348689 -0.04372337 -0.08169081 0.072018795 -0.054327548 0.042987477 0.018452419
0.02546431 -0.028029991 -0.011865365 0.05699723 -0.08953756 -0.043924417 0.052517116 0.043726053
0.05998957 0.068952225 0.002862084 0.03483758 0.022627665 -0.06675475 -0.060725536 0.07054638
0.049807202 0.029400362 0.018603742 -0.03553734 0.051206183 0.07294939 -0.03947201 -0.014537275
-0.0005738378 0.017278254 -0.005074322 0.068671145 0.061878514 0.038048934 0.04059129 -0.06349331
0.023677194 0.095709376 0.051794052 0.029318154 -0.006643403 -0.022768592 -0.0071724295 -0.07479079
-0.09545181 0.0073106526 -0.08419696 -0.022134101 0.07504982 0.0395659 0.06414574 0.034098126
-0.057084024 -0.023846699 0.06254263 -0.08987079 -0.0010416389 -0.027891219 -0.014488232 -0.08319312
0.051959503 0.09843477 0.004322171 -0.037618827 -0.07459114 -0.096441664 0.06543877 -0.052699603
0.08415399 0.07705325 0.086235695 0.052290738 -0.086424075 0.07231225 -0.07529296 -0.09274619
-0.06812107 0.05411316 -0.048565984 0.09652209 0.010072768 -0.042554475 -0.048693597 0.016224826
-0.0015644431 -0.06413312 -0.056654703 -0.0011439681 -0.036227953 -0.02675805 -0.006218457 -0.048137512
-0.05968621 -0.09250591 0.047530472 -0.08819681 0.014217473 -0.038761105 -0.059517708 -6.219149e-05
0.062186994 -0.02779243 -0.058344282 -0.05187882 -0.058722675 -0.0655898 0.07605169 -0.095093034
-0.06437103 -0.052261617 0.0058232667 -0.081623785 0.094711445 0.08827209 0.024055732 -0.046561897
0.0043808105 0.09897583 0.049029697 0.0935351 0.014880419 -0.014834786 0.025620043 -0.0125127435
0.04383576 -0.046314158 -0.056921948 -0.094287015 -0.081973724 0.044164505 -0.07812029 0.010457182
-0.030378927 0.09980386 0.020449007 -0.035045445 -0.07459344 -0.03726269 0.07210221 0.055272605
-0.09273988 0.0773501 -0.08709271 -0.09110504 0.022638058 -0.057377268 0.052131772 -0.010370696
-0.06043452 0.05807537 0.0415965 0.026338411 -0.006873477 -0.0614707 0.017455472 -0.0686013
-0.019004226 -0.0641331 -0.0940603 -0.08550724 0.038205516 -0.080972515 -0.028673673 -0.0370842
-0.001965809 0.097078346 0.0991418 -0.02073486 0.046265792 -0.097647786 -0.09655575 -0.0015640736
0.0901249 0.037602007 -0.05247289 0.0819652 -0.010687542 0.09370927 0.07628738 -0.07973005
-0.031247472 0.007841981 0.0075253607 -0.041095234 -0.04969802 -0.06745949 -0.098335125 -0.0055339695
00000000: b061 6cbd 9ad0 62bc 13e4 bebd b096 b63d
00000010: c058 663c 477f a43c 9ae9 303b e072 4b3d
00000020: 6734 083d 9a98 31bc 0d93 a13c 621e 8abd
00000030: 63a8 c9bd fde6 c83d e826 923d e70d c9bb
00000040: 8032 c0bb 982a c9bd edab 1ebd 475e 79bd
00000050: b395 ddbc ca21 6abd c0e9 823d 20fb a93c
00000060: 03b1 973d d0f2 93bd ff58 c73d d30f abbc
00000070: 038f 22bd 2762 51bc edf6 dd3c 3a01 b9bc
00000080: 8d60 97bd 6098 8d3d 7b8e babd 70fb 4f3d
00000090: a027 813c 67c4 2fbd 971b 693d 10c2 8d3d
000000a0: 4df0 773c cd1c 30b9 a3b1 2a3d 2584 aabd
000000b0: 106b 32bd 05e6 9b3d cda2 b4bb 1f37 863d
000000c0: 7020 99bd 238c 783d 37cd babd bdd2 b3bd
000000d0: fd4d 48bd da38 8b3c da77 c0bc da7b a0bc
000000e0: d29e b13d cd2a 94bc 0ba2 b53d 80a9 183d
000000f0: 3df2 053d 77bb 00bd 686a adbd baf1 983d
00000100: b70a 9a3d 2dfb aa3d 4717 33bd 834d a7bd
00000110: 977e 933d 9086 5ebd a313 303d 8729 973c
00000120: 879a d03c 279f e5bc f366 42bc ed75 693d
00000130: 785f b7bd 17ea 33bd 301c 573d 171a 333d
00000140: a0b7 753d d336 8d3d cd91 3b3b dab1 0e3d
00000150: a75d b93c b7b6 88bd 57bb 78bd 9f7a 903d
00000160: a302 4c3d 07d9 f03c e066 983c 9a8f 11bd
00000170: 93bd 513d 7d66 953d 67ad 21bd c02d 6ebc
00000180: 9a6d 16ba 208b 8d3c 8046 a6bb 75a3 8c3d
00000190: 5374 7d3d 33d9 1b3d 0d43 263d c808 82bd
000001a0: adf6 c13c 4703 c43d 0026 543d a02c f03c
000001b0: e7b0 d9bb 3385 babc b306 ebbb ea2b 99bd
000001c0: 3d7c c3bd 338e ef3b 756f acbd 9352 b5bc
000001d0: b8b3 993d da0f 223d d75e 833d 7aaa 0b3d
000001e0: f0d0 69bd 275a c3bc 5a16 803d 2d0e b8bd
000001f0: 9a87 88ba 207c e4bc 0d60 6dbc 2861 aabd
00000200: 7dd3 543d 2b98 c93d 00a1 8d3b 3316 1abd
00000210: 3dc3 98bd 3583 c5bd c304 863d 8adb 57bd
00000220: ed58 ac3d 18ce 9d3d 579c b03d d02e 563d
00000230: 1bff b0bd 7218 943d 3233 9abd b7f1 bdbd
00000240: 0f83 8bbd c3a5 5d3d 20ed 46bd 60ad c53d
00000250: 4008 253c 9a4d 2ebd f072 47bd ede9 843c
00000260: 000e cdba 3a58 83bd c30e 68bd 33f1 95ba
00000270: c363 14bd b333 dbbc 33c4 cbbb d72b 45bd
00000280: 8779 74bd bd73 bdbd 50af 423d 87a0 b4bd
00000290: 67f0 683c f7c3 1ebd d7c8 73bd cd6c 82b8
000002a0: cab7 7e3d f3ac e3bc 6afa 6ebd e37e 54bd
000002b0: 3087 70bd f253 86bd fdc0 9b3d 23c0 c2bd
000002c0: f5d4 83bd 4710 56bd 1ad1 be3b 5f2a a7bd
000002d0: 13f8 c13d ffc7 b43d 8710 c53c b0b7 3ebd
000002e0: e78c 8f3b d7b3 ca3d 5dd3 483d 558f bf3d
000002f0: 00cd 733c 9a0d 73bc 20e1 d13c 4002 4dbc
00000300: 208d 333d eab3 3dbd fd26 69bd 8d19 c1bd
00000310: d7e1 a7bd d7e5 343d 88fd 9fbd 9a54 2b3c
00000320: 3add f8bc f765 cc3d ad84 a73c d08b 0fbd
00000330: 72c4 98bd c3a0 18bd 53aa 933d 8765 623d
00000340: 68ee bdbd bb69 9e3d aa5d b2bd 4795 babd
00000350: 7373 b93c 6d04 6bbd 2088 553d dae9 29bc
00000360: 308a 77bd 70e0 6d3d 1761 2a3d a7c3 d73c
00000370: e73a e1bb b3c8 7bbd c7fe 8e3c d77e 8cbd
00000380: c0ae 9bbc 3758 83bd b0a2 c0bd 6b1e afbd
00000390: 637d 1c3d ebd4 a5bd 0de5 eabc 9ae5 17bd
000003a0: cdd4 00bb 03d1 c63d db0a cb3d 27dc a9bc
000003b0: 3381 3d3d 90fb c7bd 05bf c5bd 9a01 cdba
000003c0: 6793 b83d 9004 1a3d d0ed 56bd 5fdd a73d
000003d0: cd1a 2fbc a5ea bf3d 8f3c 9c3d 8249 a3bd
000003e0: b3fa ffbc a77b 003c 4d97 f63b 7a53 28bd
000003f0: 2790 4bbd 3328 8abd ed63 c9bd 4d56 b5bb

bias_hh_l0 f4 [300]
-0.018495595 0.04402535 -0.08876552 0.06104628 -0.0877498 -0.011962593 -0.07138804 0.06905066
-0.08094468 0.057956386 -0.08343289 0.07618614 -0.08447267 -0.037612107 0.04433607 -0.060032524
0.07190815 -0.019899845 -0.08966358 0.07195138 0.087036565 0.02831781 0.036791276 -0.049303617
-0.019429957 0.0971851 0.0072351815 -0.020655943 0.014511478 -0.06065736 0.03557005 -0.05385646
0.09106226 0.023147667 0.08834099 -0.057912447 -0.097536646 0.035107672 -0.09133726 0.06027169
-0.039205756 0.031798173 -0.00080287457 0.09878086 0.054427635 0.004805136 -0.010310507 0.08644332
0.008500576 -0.061454024 0.04843048 -0.034866083 0.034711767 -0.056179024 -0.006590688 -0.0701518
0.03148922 0.0886632 0.08534658 -0.065469705 0.0522462 -0.02341429 0.04597205 -0.048560407
-0.020628715 0.08782734 -0.030266834 -0.024426496 -0.016516758 -0.020682408 0.07060098 -0.05492995
-0.066948764 0.06382211 0.061103474 -0.043658365 0.043731283 0.004212785 -0.0809762 0.009207177
0.06324641 0.005459118 -0.026967203 -0.08418143 -0.051417198 0.06734184 0.08300199 -0.034621786
-0.011509585 -0.079958655 0.038948156 0.04907011 -0.088162675 -0.05866779 -0.076594196 0.06573369
-0.05685134 0.07102827 -0.027652336 0.036303878 -0.04829458 -0.08655434 0.07441487 0.07141844
-0.011480331 -0.08001437 -0.09554621 0.062417984 0.019468296 0.088738695 -0.024783863 -0.07655708
-0.01412735 0.036021627 -0.04309536 -0.086782075 0.0857135 -0.033671644 0.037684917 -0.039155077
0.094972245 -0.047069013 0.089356855 -0.03487903 0.06423787 -0.0036996247 0.038425136 0.016422106
-0.050140392 0.084555924 0.050506126 0.059058454 -0.0026041388 -0.02687714 -0.068499364 0.06905883
-0.020703543 0.08861505 0.023229195 -0.040345717 0.00029062034 0.07636177 0.078964725 0.0820414
0.023176825 -0.02939464 0.054403376 -0.071975164 -0.059731282 -0.031185329 0.075273156 0.0932944
0.0008640528 0.039118778 -0.09563215 0.011231017 0.032991804 0.067446366 0.06767445 0.049224235
0.05744902 -0.03248943 0.07241269 0.059921242 -0.050081838 0.03145144 0.030523492 0.009207058
0.034747194 0.0028045296 0.02675401 -0.017729927 0.0048703672 -0.07602823 -0.04592693 -0.058190346
0.053898122 0.0997492 -0.014034915 -0.0952385 -0.08664667 -0.018101608 0.03183316 0.0029550313
0.077639036 0.08388182 -0.07159709 0.018411731 -0.08147284 -0.001799643 -0.08731432 0.04500259
-0.00062330964 0.0053319694 -0.005146146 -0.024210572 0.051794123 0.098179355 -0.09152158 0.0475093
-0.03151525 0.07796394 0.078572825 0.07001787 -0.06554764 0.05304698 0.087631874 -0.0466959
-0.04727161 -0.0740307 -0.09435516 -0.054656733 0.028269207 0.08994454 0.05007894 0.08451917
0.011431897 -0.04033656 0.06674816 0.072595075 0.07992945 -0.098916546 -0.0994088 0.038948227
0.027285313 0.009457302 0.00072568655 0.01958604 0.06992086 -0.06746384 0.005665672 0.09066907
-0.0849821 -0.096496336 -0.052652895 -0.08405458 0.022719635 -0.059834804 0.06264088 0.0064938664
0.031918824 -0.07481213 0.038070764 0.009202123 0.023350764 0.08201065 0.08308556 0.023800647
-0.010707999 0.042859256 0.04586134 -0.06619787 -0.011591315 -0.07151868 -0.007010031 -0.031044984
00000000: 1384 97bc ed53 343d b2ca b5bd aa0b 7a3d
00000010: 2bb6 b3bd c0fe 43bc e533 92bd 6f6a 8d3d
00000020: 53c6 a5bd ad63 6d3d ddde aabd 7b07 9c3d
00000030: 0200 adbd 270f 1abd bd99 353d aae4 75bd
00000040: 9544 933d 0005 a3bc 8aa1 b7bd 3f5b 933d
00000050: 3a40 b23d c0fa e73c 73b2 163d 97f2 49bd
00000060: 932b 9fbc fb08 c73d 1a15 ed3b a736 a9bc
00000070: 8dc1 6d3c da73 78bd e7b1 113d 9798 5cbd
00000080: da7e ba3d 2da0 bd3c 1fec b43d 9a35 6dbd
00000090: 4bc1 c7bd 10cd 0f3d 080f bbbd 73df 763d
000000a0: 3796 20bd cd3e 023d 0078 52ba 9f4d ca3d
000000b0: 83ef 5e3d 6774 9d3b 67ed 28bc 3209 b13d
000000c0: 0046 0b3c 37b7 7bbd 0a5f 463d bdcf 0ebd
000000d0: ed2d 0e3d fa1b 66bd b3f6 d7bb bfab 8fbd
000000e0: d7fa 003d 0d95 b53d 30ca ae3d fb14 86bd
000000f0: 1d00 563d 53cf bfbc 304d 3c3d 47e7 46bd
00000100: 8dfd a8bc d2de b33d 27f2 f7bc 131a c8bc
00000110: 274e 87bc 276e a9bc 3f97 903d 3afe 60bd
00000120: 6f1c 89bd 2bb5 823d a347 7a3d 1dd3 32bd
00000130: 931f 333d 670b 8a3b dad6 a5bd b3d9 163c
00000140: 5587 813d 67e2 b23b 53ea dcbc 5067 acbd
00000150: d79a 52bd 85ea 893d f3fc a93d 93cf 0dbd
00000160: b392 3cbc 5dc1 a3bd 1a88 1f3d bdfd 483d
00000170: a28e b4bd a34d 70bd 6bdd 9cbd 639f 863d
00000180: f3dc 68bd 4577 913d 2787 e2bc 60b3 143d
00000190: 8ad0 45bd 6743 b1bd d366 983d d543 923d
000001a0: 0018 3cbc 93de a3bd bbad c3bd 00aa 7f3d
000001b0: fa7b 9f3c a2bc b53d 8707 cbbc f5c9 9cbd
000001c0: 6776 67bc 6a8b 133d c384 30bd cdba b1bd
000001d0: 8f8a af3d 47eb 09bd 805b 1a3d 1361 20bd
000001e0: cf80 c23d 70cb 40bd ba00 b73d 50dd 0ebd
000001f0: 258f 833d 6775 72bb ad63 1d3d a787 863c
00000200: 0360 4dbd a82b ad3d 83df 4e3d 47e7 713d
00000210: 33aa 2abb 732d dcbc 6549 8cbd b76e 8d3d
00000220: 7a9a a9bc cf7b b53d 274b be3c 8d41 25bd
00000230: 675e 9839 8f63 9c3d 42b8 a13d 5205 a83d
00000240: 53dd bd3c 07cd f0bc 13d6 5e3d b767 93bd
00000250: caa8 74bd 6078 ffbc d028 9a3d 2211 bf3d
00000260: 9a81 623a 033b 203d cada c3bd 4d02 383c
00000270: 6a22 073d 5221 8a3d e798 8a3d 5a9f 493d
00000280: aa4f 6b3d a313 05bd 1b4d 943d fa6f 753d
00000290: 9d22 4dbd 3ad3 003d 670c fa3c 33d9 163c
000002a0: 1353 0e3d 33cc 373b 3a2b db3c 5a3e 91bc
000002b0: 9a97 9f3b b0b4 9bbd e01d 3cbd 0059 6ebd
000002c0: 47c4 5c3d 4f49 cc3d b3f2 65bc 670c c3bd
000002d0: cf73 b1bd d349 94bc 7d63 023d 33a9 413b
000002e0: 3701 9f3d 3bca ab3d 7fa1 92bd 33d4 963c
000002f0: 3bdb a6bd 00e2 ebba dad1 b2bd a354 383d
00000300: 9a65 23ba cdb7 ae3b 00a1 a8bb 4055 c6bc
00000310: 1326 543d 4212 c93d ab6f bbbd 1d99 423d
00000320: 2316 01bd 8fab 9f3d caea a03d 8765 8f3d
00000330: d73d 86bd ca47 593d 5778 b33d 3344 3fbd
00000340: e09f 41bd 689d 97bd 473d c1bd bddf 5fbd
00000350: d394 e73c d834 b83d 931f 4d3d 6318 ad3d
00000360: da4c 3b3c f337 25bd 42b3 883d baac 943d
00000370: 0db2 a33d c294 cabd d796 cbbd 2d88 1f3d
00000380: 7385 df3c cdf2 1a3c 003c 3e3a e772 a03c
00000390: ab32 8f3d 7b2a 8abd 1aa7 b93b b5b0 b93d
000003a0: 180b aebd df9f c5bd 90aa 57bd cf24 acbd
000003b0: 871e ba3c 5715 75bd dd49 803d 80ca d43b
000003c0: 50bd 023d 1a37 99bd 17f0 1b3d 80c4 163c
000003d0: 1a4a bf3c 33f5 a73d c328 aa3d 93f9 c23c
000003e0: 9a70 2fbc 308d 2f3d 1ad9 3b3d c092 87bd
000003f0: 80e9 3dbc 6378 92bd 67b4 e5bb 0d52 febc

weight f4 [50, 100]
0.06341874 -0.07497269 0.045272898 0.00310148 0.030231297 0.06928249 0.013212872 -0.022676885
0.047184538 -0.043407645 -0.019072616 -0.04952543 -0.041368462 0.07985089 -0.02603811 0.05571386
0.00040187835 -0.09999843 0.08788965 -0.02225901 0.06440729 -0.07612377 -0.040690448 0.011477006
0.008908856 0.005919063 -0.08653288 0.06452699 0.090135805 -0.061892997 0.0036848783 0.0842088
-0.08687284 0.09238006 0.07593669 -0.0016706706 -0.089659 0.09262168 -0.018823946 0.09540291
-0.081703775 0.06306704 -0.013017786 -0.07615155 0.05075723 0.07779725 -0.0074103237 -0.09249202
-0.07291595 0.015686 -0.090135016 0.06579419 0.031191695 0.07910859 0.059286285 0.010377157
-0.008196604 -0.026134694 0.07845217 -0.05955825 0.04322325 -0.041644216 -0.06790524 -0.01785233
-0.017696071 0.038746774 0.087716155 -0.09824611 0.08960773 -0.06028204 -0.009175897 -0.046809543
-0.087907515 -0.039525297 -0.09716173 -0.06178379 -0.010978413 -0.08294239 0.04732419 -0.011738944
0.090955414 -0.09920352 0.045526158 -0.00065401796 0.029270852 0.04733732 -0.074398875 -0.029814482
-0.04541489 -0.003952265 -0.07275724 0.057543635 -0.0546628 0.02500304 0.08882832 0.06457069
-0.09150652 0.0453421 0.010186565 -0.010849155 -0.06825884 0.059102513 -0.07649805 0.032063436
0.062509276 0.027918303 -0.0933061 0.076544665 0.09626112 0.049993303 -0.01579287 0.022070814
0.04856025 0.011916459 0.009649622 -0.0987875 0.008290517 -0.040121675 0.09368803 -0.035292458
-0.0032268881 -0.0019335867 -0.058156338 -0.05808965 0.042718854 -0.049277473 0.028243471 0.0013304473
0.06835675 0.032711472 -0.07706284 0.09961065 0.087003246 0.06786697 0.010247434 -0.09346967
0.06492305 -0.01360724 0.007591927 0.04227352 0.0048739198 -0.02713852 -0.09599959 0.0046908143
0.02697189 -0.09030999 -0.08255811 -0.056707323 -0.067213036 0.00209924 0.091110505 -0.09931983
0.08621553 -0.064082764 -0.011571812 0.008586681 -0.028888786 0.04538467 -0.05603763 0.0045360923
0.02333871 -0.03167832 -0.016271878 -0.04207921 0.050784886 -0.066114835 0.030990839 0.011199272
0.08722836 -0.013038123 0.0013904572 -0.080582164 -0.05026449 0.07206378 -0.021630228 0.042645313
-0.008549834 0.079301275 -0.018885626 -0.06807109 0.092735045 -0.027496492 0.054861154 0.0038720728
0.020933568 -0.08578595 0.006736088 -0.054979086 0.057147574 -0.049863316 -0.08466317 -0.013124323
0.06609716 0.049109187 -0.04335908 -0.052737202 -0.068559185 0.02860551 -0.03388982 0.040737
-0.07299073 -0.022744287 0.04331944 -0.062213935 0.07269152 0.001425767 -0.026529778 0.07611356
0.024369312 -0.07644638 0.08905592 0.03196193 -0.056721963 -0.046994805 -0.016356422 -0.07249148
0.034252714 -0.09292463 0.039040018 0.03570621 0.06004957 0.06877562 -0.015927125 -0.008472276
-0.06409102 0.032096494 -0.028601741 0.07698422 -0.0005918622 -0.08133035 0.0128979925 0.037932243
0.037877847 -0.035155203 -0.09344297 -0.046243872 -0.06478387 -0.038020816 -0.09313313 0.06825308
0.025648808 0.050248515 -0.027849926 -0.025065696 -0.063709214 -0.036654055 0.08595077 -0.096669175
-0.054236438 -0.051404264 -0.08247612 -0.055319835 -0.03415061 -0.053754486 0.05011734 0.0037225366
00000000: afe1 813d 488b 99bd 1370 393d 3342 4b3b
00000010: a0a7 f73c fae3 8d3d cd7a 583c e0c4 b9bc
00000020: 9344 413d 37cc 31bd 2d3e 9cbc 2ddb 4abd
00000030: fa71 29bd dd88 a33d e04d d5bc 3734 643d
00000040: 33b3 d239 facb ccbd 7dff b33d 8758 b6bc
00000050: f8e7 833d c7e6 9bbd 07ab 26bd 0d0a 3c3c
00000060: 73f6 113c b3f4 c13b 2738 b1bd ba26 843d
00000070: 1f99 b83d 8383 7dbd 007e 713b aa75 ac3d
00000080: 63ea b1bd c231 bd3d b284 9b3d 67fa daba
00000090: 239f b7bd 6fb0 bd3d ad34 9abc 9a62 c33d
000000a0: 4f54 a7bd 4b29 813d 8d48 55bc 58f5 9bbd
000000b0: d0e6 4f3d 2a54 9f3d 4dd2 f2bb 756c bdbd
000000c0: f554 95bd ed7f 803c b598 b8bd 1bbf 863d
000000d0: ba85 ff3c af03 a23d 2dd6 723d f304 2a3c
000000e0: 0d4b 06bc 6d18 d6bc 88ab a03d 5af3 73bd
000000f0: dd0a 313d 2093 2abd e711 8bbd 0d3f 92bc
00000100: 5af7 90bc f0b4 1e3d 87a4 b33d 4235 c9bd
00000110: 4284 b73d 4dea 76bd 8056 16bc 5dbb 3fbd
00000120: db08 b4bd 47e5 21bd bbfc c6bd 0011 7dbd
00000130: cdde 33bc b3dd a9bd 03d7 413d b354 40bc
00000140: d546 ba3d 372b cbbd a379 3a3d 6772 2bba
00000150: 6dc9 ef3c c7e4 413d 705e 98bd 803d f4bc
00000160: f704 3abd 0082 81bb bf01 95bd e0b2 6b3d
00000170: 1ae6 5fbd 2dd3 cc3c 9feb b53d a33d 843d
00000180: c567 bbbd a3b8 393d 8de5 263c a7c0 31bc
00000190: 4acb 8bbd 7a15 723d 02ab 9cbd f354 033d
000001a0: dd04 803d edb4 e43c 4517 bfbd 73c3 9c3d
000001b0: 8d24 c53d c7c5 4c3d 0d60 81bc dacd b43c
000001c0: 1de7 463d 403d 433c 7319 1e3c 1a51 cabd
000001d0: f3d4 073c a056 24bd 83df bf3d d38e 10bd
000001e0: 337a 53bb 6770 fdba 5735 6ebd 6aef 6dbd
000001f0: f7f9 2e3d 2dd7 49bd da5e e73c 6762 ae3a
00000200: a0fe 8b3d 77fc 053d 1fd3 9dbd ab00 cc3d
00000210: c22e b23d d7fd 8a3d dae4 273c 076d bfbd
00000220: 60f6 843d e7f0 5ebc b3c5 f83b 0027 2d3d
00000230: 67b5 9f3b 9a51 debc 6f9b c4bd 67b5 993b
00000240: 27f4 dc3c 72f4 b8bd 3a14 a9bd f045 68bd
00000250: fda6 89bd 6793 093b 2598 ba3d 3268 cbbd
00000260: c591 b03d d33d 83bd b397 3dbc 27af 0c3c
00000270: 2da8 ecbc 47e5 393d b787 65bd 80a3 943b
00000280: d330 bf3c 20c1 01bd 9a4c 85bc 405b 2cbd
00000290: d003 503d 3767 87bd 80e0 fd3c 277d 373c
000002a0: c8a4 b23d da9d 55bc 0040 b63a 4308 a5bd
000002b0: 23e2 4dbd 2d96 933d e031 b1bc daac 2e3d
000002c0: 9a14 0cbc b568 a23d 07b6 9abc db68 8bbd
000002d0: dfeb bd3d 5340 e1bc 17b6 603d 9ac2 7d3b
000002e0: e07c ab3c 8bb0 afbd 67ba dc3b c031 61bd
000002f0: 9313 6a3d 7a3d 4cbd e263 adbd 6707 57bc
00000300: f35d 873d b726 493d 4a99 31bd f702 58bd
00000310: c268 8cbd 1a56 ea3c 0dd0 0abd d7db 263d
00000320: 2a7c 95bd 3a52 babc ba6f 313d 0ad4 7ebd
00000330: 4bdf 943d cde0 ba3a fa54 d9bc 6de1 9b3d
00000340: 27a2 c73c eb8f 9cbd f362 b63d 83ea 023d
00000350: 4a55 68bd a07d 40bd e7fd 85bc 6a76 94bd
00000360: 934c 0c3d 454f bebd 6de8 1f3d ad40 123d
00000370: 8af6 753d 3bda 8c3d 9a79 82bc 4dcf 0abc
00000380: 2742 83bd 9d77 033d 334e eabc e7a9 9d3d
00000390: 3327 1bba 8790 a6bd 1a52 533c d75e 1b3d
000003a0: cd25 1b3d e7fe 0fbd 075f bfbd 376a 3dbd
000003b0: 68ad 84bd b7bb 1bbd 95bc bebd 45c8 8b3d
000003c0: 731d d23c 63d1 4d3d 8725 e4bc 9356 cdbc
000003d0: fa79 82bd 9022 16bd f506 b03d 7dfa c5bd
000003e0: 0727 5ebd 478d 52bd 3de9 a8bd 0d97 62bd
000003f0: 83e1 0bbd aa2d 5cbd d747 4d3d cdf5 733b

bias f4 [50]
0.06354721 -0.021265054 0.043411087 -0.025207639 0.06262951 -0.063009344 -0.01094383 0.067428105
-0.046889793 0.00040249826 -0.007039285 0.08626117 -0.09550253 -0.050861884 0.0031851649 -0.066203296
-0.004013443 -0.011418188 0.0024754168 -0.072113596 -0.096791565 0.089094594 -0.04052801 0.08774133
-0.086417 -0.0047623874 -0.0169209 -0.07321639 -0.015956104 0.0021311163 -0.015928913 0.009203875
0.06979906 0.074927114 -0.08668684 0.06976079 -0.0073413374 -0.09295684 -0.097738385 0.037572514
0.08651414 0.08821932 0.08161477 -0.056535866 0.021026863 -0.05416235 -0.032917537 -0.09411921
-0.095854595 -0.031263113
00000000: 0a25 823d 0d34 aebc d3cf 313d 4080 cebc
00000010: e743 803d 0b0b 81bd c04d 33bc bf17 8a3d
00000020: 830f 40bd 6706 d339 cda9 e6bb b2a9 b03d
00000030: d596 c3bd 8d54 50bd 33be 503b 9895 87bd
00000040: 3383 83bb 5a13 3bbc 9a3a 223b 4bb0 93bd
00000050: a83a c6bd 3a77 b63d b300 26bd bab1 b33d
00000060: 65fb b0bd cd0d 9cbb b39d 8abc 7af2 95bd
00000070: 60b6 82bc 33aa 0b3b 5a7d 82bc dacb 163c
00000080: cff2 8e3d 6373 993d df88 b1bd bfde 8e3d
00000090: 9a8f f0bb 2860 bebd 102b c8bd a3e5 193d
000000a0: 532e b13d 55ac b43d a525 a73d 2792 67bd
000000b0: 8740 ac3c 57d9 5dbd 8ad4 06bd 93c1 c0bd
000000c0: 6a4f c4bd c00d 00bd

weight f4 [2, 50]
0.116172366 -0.018931117 0.114906035 -0.13814369 -0.009216033 -0.049715042 0.1074826 -0.14108446
-0.00896423 -0.13348703 0.020417653 0.12377796 -0.07449078 0.032981277 0.0949109 0.13952616
-0.042664986 -0.08177249 0.011975977 -0.007038305 0.05905421 0.108918704 -0.03658512 -0.09927888
-0.045587264 0.13274416 0.060676932 0.003554817 0.037137646 -0.1362711 -0.03147599 0.12530524
0.05684081 -0.055246882 0.028426146 0.1319005 0.052798204 0.03601364 0.060156774 -0.08447326
0.020831654 0.031412166 0.048375513 0.03460506 0.09289395 -0.10326125 0.11278509 -0.042397454
0.01773005 -0.093912 0.034066558 0.13362806 -0.036405403 -0.004904359 0.09691412 -0.05331074
-0.08522943 0.009738215 -0.050412588 -0.11813118 0.053502712 0.06663237 0.116668314 0.069704905
-0.14038816 -0.036365636 0.051931445 -0.1323426 0.07610423 -0.10560071 0.068143114 0.11430902
-0.04116572 0.024555346 -0.08358733 0.042950373 -0.007813571 -0.007184807 0.123686016 0.051822133
-0.05605708 -0.020612102 -0.031860728 -0.06231771 0.063304566 0.06567963 -0.044430047 -0.0785238
-0.06791638 -0.12117874 -0.07611542 -0.016957246 -0.050311152 -0.069927916 0.13264814 0.05774309
-0.107024945 -0.11352763 0.04945845 -0.08949231
00000000: c7eb ed3d 6e15 9bbc db53 eb3d 8a75 0dbe
00000010: d8fe 16bc 00a2 4bbd d61f dc3d 7278 10be
00000020: b5de 12bc d3b0 08be ec42 a73c 4d7f fd3d
00000030: 9f8e 98bd 6017 073d a560 c23d f2df 0e3e
00000040: 7bc1 2ebd 5678 a7bd e336 443c 95a1 e6bb
00000050: d4e2 713d c510 df3d 47da 15bd ba52 cbbd
00000060: b6b9 3abd 16ee 073e 6088 783d eff7 683b
00000070: a51d 183d a78a 0bbe f8ec 00bd 0450 003e
00000080: e9d1 683d 8e4a 62bd f3dd e83c ed10 073e
00000090: ee42 583d 0a83 133d f366 763d 5100 adbd
000000a0: 25a7 aa3c 0baa 003d 6725 463d 09be 0d3d
000000b0: 2f3f be3d a27a d3bd dffb e63d f4a8 2dbd
000000c0: 9c3e 913c ef54 c0bd 6089 0b3d cbd5 083e
000000d0: d51d 15bd bfb4 a0bb e97a c63d 5d5c 5abd
000000e0: c48c aebd 098d 1f3c 6e7d 4ebd c3ee f1bd
000000f0: a925 5b3d 8d76 883d ccef ee3d 72c1 8e3d
00000100: eac1 0fbe 22f4 14bd 11b6 543d d284 07be
00000110: 89dc 9b3d 2f45 d8bd 9e8e 8b3d d91a ea3d
00000120: 639d 28bd 4b28 c93c d62f abbd bbec 2f3d
00000130: 7e04 00bc 886e ebbb 184f fd3d 7243 543d
00000140: 1c9c 65bd b6da a8bc 6580 02bd db40 7fbd
00000150: d3a5 813d 0b83 863d 48fc 35bd 16d1 a0bd
00000160: be17 8bbd 8f2c f8bd 67e2 9bbd ece9 8abc
00000170: 1113 4ebd 5e36 8fbd ead4 073e 0584 6c3d
00000180: e52f dbbd 2d81 e8bd f294 4a3d bf47 b7bd

bias f4 [2]
0.028740427 0.042544633
00000000: 0b71 eb3c 4843 2e3d
