dagster_ais/dagster_ais/ML_data_pipeline/lightning_logs/version_7/checkpoints/epoch=99-step=200.ckpt (torch, 448063 bytes, 24 tensors)

rnn.weight_ih_l0 f4 [300, 2]
000000 e2 63 eb 3c f4 ed 37 bd 4b 4a fd 3c 13 89 21 bc
       0.028734151 -0.044904664 0.030919215 -0.009859341
000010 42 78 99 bd fd 07 e8 bc f6 c5 c7 bd fb 73 dc bb
       -0.074936405 -0.028324122 -0.09754555 -0.006727693
000020 d2 f3 86 bc c5 01 03 bd 18 8f 74 bd dc 15 81 3d
       -0.016473684 -0.03198411 -0.059706777 0.063029975
000030 e4 9b ad bd 0b 4a d4 bd c0 ad a6 bc de 70 0a bd
       -0.084769994 -0.10365685 -0.020346522 -0.033799045
000040 89 d7 1e bd e6 42 56 bd 12 e1 25 bd 3e cd bb 3c
       -0.03877977 -0.052309893 -0.040497847 0.022925016
000050 85 ed 8f 3c cd c0 8b bc a5 26 cf 3c 87 76 cf bd
       0.017569313 -0.017059708 0.025286982 -0.10130029
000060 e3 ef 93 3c 8d f5 4c 3b 72 4b a0 3d 0c c1 99 bc
       0.018058723 0.003127429 0.0782689 -0.01876881
000070 f8 38 9a 3d 63 97 97 3d 4c cc 6b 3d d7 c9 87 3d
       0.07530397 0.074019216 0.05756788 0.06630295
000080 6d 0a 70 bb 58 23 1c bd 81 da 45 3d f0 c0 77 bd
       -0.0036627308 -0.038119644 0.048304085 -0.060486734
000090 9a 44 6d 3d 7a e5 b9 bd c7 05 37 3d 2a 14 c1 bd
       0.05792675 -0.09076972 0.044683244 -0.09427674
0000a0 45 dc a5 3d 64 76 97 bd 81 cb b6 bd f6 0f cd bd
       0.08098654 -0.07395628 -0.08925534 -0.1001281
0000b0 27 5a 85 3d fa a0 f2 39 45 c4 84 3c 01 04 fc bc
       0.06511336 0.00046277774 0.01620687 -0.030763628
0000c0 06 f0 8f 3d 64 e8 ad bd d6 3a 37 3b 5d 7d a1 bc
       0.07028203 -0.084915906 0.0027958653 -0.019713098
0000d0 32 3c cc bc 8f ec 98 3d f8 2e 55 bc e7 57 c6 3b
       -0.024931047 0.07466995 -0.0130116865 0.0060529592
0000e0 9d 34 68 3d 52 f1 83 bd 31 df 72 3d 0c c5 03 3d
       0.0566908 -0.064425126 0.059294883 0.03217034
0000f0 90 d2 be 3d a2 7b 9a 3d 38 fe 57 bd e4 5c 8d bd
       0.09317505 0.07543112 -0.052732676 -0.06902483
000100 eb 88 c2 bc 61 d1 55 bd 94 a2 a6 3d db 5f a2 bc
       -0.023746928 -0.052201632 0.08136478 -0.019821098
000110 fd ab 36 3d 6a 53 c5 3d 18 95 55 3d 1b 31 ab bd
       0.044597615 0.096350506 0.05214414 -0.083589755
000120 b0 21 2a bd be 1e 11 bd c3 c3 26 bd aa bf 75 3d
       -0.041536033 -0.03542971 -0.040714037 0.05999724
000130 1e 22 d0 3b 98 48 b5 bd 91 19 ab bc 49 d3 f2 bd
       0.0063517233 -0.08851737 -0.020886214 -0.11856706
000140 72 f9 ee bc 05 fc 81 bd 57 47 39 bd e5 b5 2f 3b
       -0.02917168 -0.06346897 -0.04523405 0.0026811298
000150 e3 97 27 bc 13 cc 85 3c 8d dc 24 3d ed 9e 70 3c
       -0.010229084 0.016332662 0.040249396 0.014686328
000160 76 ac 94 3d 75 cf 9b bd e8 80 9b bd 28 0b ae 3d
       0.07259457 -0.07607929 -0.07592946 0.08498222
000170 71 42 85 bd 33 c1 59 3d 63 25 03 3d d4 43 4f bd
       -0.06506813 0.053162765 0.032018077 -0.050601795
000180 8c 0e 9e bd bb 6d b0 3d b7 81 45 3d 54 a5 67 3d
       -0.07717618 0.086146794 0.04821941 0.056554154
000190 d8 ba e0 3d 92 77 1e bd 51 e9 c9 3c ee 0c 6d bd
       0.109731376 -0.03868825 0.024647387 -0.05787366
0001a0 8d 0e 8d 3d 63 27 a4 bd 13 35 86 bb af 18 d4 bb
       0.06887541 -0.08015325 -0.0040956824 -0.006472669
0001b0 f8 47 97 3d d4 2f a7 bd 7f 95 51 3d ec dc d9 bd
       0.07386774 -0.08163419 0.05116796 -0.10637841
0001c0 54 b4 3a 3d 3e 69 f9 3c 00 48 39 3d 8f 66 ff bc
       0.04558213 0.030445691 0.04523468 -0.031176833
0001d0 f7 dd 11 3d 1e bb 90 bd 1d a1 20 3b 20 d2 ed bc
       0.035612073 -0.0706694 0.0024510093 -0.02903086
0001e0 53 23 1a bd de 06 90 3c 9d 11 c8 3c 45 48 1b bd
       -0.037631344 0.0175814 0.024422461 -0.03791072
0001f0 86 e5 82 3d 3e 20 6f 3d 7e 0d 80 3d 0b c4 88 3b
       0.06391434 0.058380358 0.062525734 0.004173761
000200 f7 ee 83 bb 02 81 65 bd 2a 3d 77 3c c7 fa ab 3c
       -0.0040262896 -0.056031235 0.015090266 0.020993603
000210 be 1e 68 bd 36 e2 2a 3d 27 dc ed bc f0 1e 2e bc
       -0.056669943 0.041719638 -0.02903564 -0.010627493
000220 06 59 95 bd 34 4f 8e bd b1 d2 9a 3d 0a c8 e4 3b
       -0.072923705 -0.069487005 0.075597174 0.0069818543
000230 57 01 8d 3b 39 dc b4 bd 6f 66 d2 bd 85 6b f4 3c
       0.0043031382 -0.08831067 -0.10273444 0.029836426
000240 6c 99 ca bc 35 44 05 bb d6 0d 8e 3d e8 65 e4 bd
       -0.02473136 -0.0020334844 0.06936233 -0.111522496
000250 30 d3 18 3d cd fb af bc 9f 9f 72 bb 06 30 a9 3d
       0.03731078 -0.021482373 -0.003702141 0.08261113
000260 53 4b 1f 3c fe d2 b3 3a 6c c9 e3 bc b3 47 a2 bc
       0.009722549 0.0013719497 -0.027806006 -0.01980958
000270 80 7f c8 3d de 34 2f bd 70 99 a8 bd c9 59 b0 3c
       0.09789944 -0.042775027 -0.08232391 0.021527188
000280 46 97 22 3b fd 24 4b bd 15 6f 1f bd e1 9a 8a bd
       0.0024809404 -0.04959582 -0.038924295 -0.06767822
000290 79 08 07 3d a0 bf 1e 3d d9 7e 05 3d a1 09 6e bc
       0.032967065 0.038756967 0.032591674 -0.014528663
0002a0 2a de 70 3c 3e 73 41 3d c5 c4 7f 3c 83 12 75 3d
       0.014701406 0.047229044 0.015610878 0.059832107
0002b0 b2 1e e7 bd 60 7e d5 bd 95 5a 39 3d 65 39 95 bc
       -0.112851515 -0.10424495 0.0452524 -0.018215844
0002c0 df 5f 3d bd c4 ac f8 bc cb cd 30 bd 40 b1 2a bd
       -0.046234008 -0.030355819 -0.04316501 -0.041672945
0002d0 1a 3f 58 bd 38 20 b2 bd d4 61 d7 3d 23 13 bc 3d
       -0.052794553 -0.086975515 0.10516706 0.091833375
0002e0 ff 33 0a bd 9c 57 b9 bc ed 9b ed bd 76 69 8a 3d
       -0.033740994 -0.022624783 -0.11602006 0.06758396
0002f0 b0 29 a8 3d 54 ef 45 bc 8f b0 b6 bd ac d4 60 3d
       0.08211076 -0.012080986 -0.08920395 0.05489032
000300 14 8d c0 3d 39 ec 90 bd ca 95 b0 bd 34 e7 c0 3d
       0.094019085 -0.07076306 -0.0862232 0.094190985
000310 97 4c d2 bd 7e d7 72 bd 58 3f 93 bd d2 93 20 3c
       -0.102685146 -0.05928754 -0.07189816 0.009800868
000320 5f b7 35 3d a1 16 6e bd 11 d8 72 3d c5 4d f7 3d
       0.04436433 -0.05812705 0.05928809 0.1207538
000330 46 3a c9 3c 5f c7 60 3c 94 33 82 3d 82 9d a2 bc
       0.02456392 0.013719409 0.06357494 -0.019850496
000340 58 03 41 3d ef 6f a8 bb 62 ea 12 bd c2 dd dd 3c
       0.04712233 -0.0051402966 -0.035868056 0.027083281
000350 e4 04 3c bd 5d 80 8d bd 97 4b af 3d fb 1a 94 bd
       -0.0459031 -0.06909249 0.085593395 -0.072317086
000360 8b 25 b7 3b b5 1a 0f bd 58 9f cd bc e6 06 2b 3d
       0.0055891923 -0.03493758 -0.025100395 0.041754626
000370 57 ef 80 bd d1 5f d9 3d c2 2f b5 39 90 82 80 bd
       -0.062956505 0.10613979 0.00034558593 -0.06274903
000380 4a b9 59 bd 33 d6 83 3c b5 df da bc 27 5c 00 bd
       -0.05315522 0.01609335 -0.026718 -0.031337883
000390 b9 92 4b bc 8e 28 64 3c eb 7f 5c bd 5c 63 bb 3c
       -0.012425118 0.013925685 -0.05383293 0.022874527
0003a0 76 98 e6 ba 29 d6 75 bc 3c c8 8a bd 12 df 56 bd
       -0.0017593044 -0.015004673 -0.06776473 -0.05245883
0003b0 33 ee ee bc ae e5 82 3c f8 48 93 3d 88 44 79 bd
       -0.029166317 0.01597866 0.07191652 -0.060856372
0003c0 a9 8d 61 bd 00 c2 35 bc bb 5e 0e bd d2 1d 36 3b
       -0.05506674 -0.0110936165 -0.03475831 0.002778877
0003d0 a0 67 4f 3c 39 56 48 bd 4f 1e 58 bd 91 4f 8a 3d
       0.0126589835 -0.048910353 -0.05276328 0.06753457
0003e0 b4 5f e6 3d 09 ab 8e bd 5d 13 af bd 1a 05 1c 3d
       0.11248723 -0.06966216 -0.08548615 0.038090803
0003f0 bd 9e ef bc c2 21 9d 3d 24 d9 b6 3d 16 45 0e bd
       -0.029250497 0.076724544 0.08928135 -0.034733854

rnn.weight_hh_l0 f4 [300, 100]
000000 a4 04 de 3d ab 95 3c bc 78 64 7e 3d f1 23 2e 3d
       0.10840729 -0.011510293 0.062107533 0.042514745
000010 1f 12 56 3d bd 5b 59 ba 99 67 8c bd 6c 4b fa bc
       0.052263375 -0.0008291563 -0.06855697 -0.030553542
000020 ee 1e 10 bd f1 ad 59 3d 29 e0 d9 3d 80 1c 72 3d
       -0.035185747 0.0531444 0.10638458 0.05910921
000030 c2 43 1d bd ed fc b7 3d 9f 47 2c bd 1e 99 14 bb
       -0.038394697 0.08983789 -0.04206049 -0.0022674273
000040 fd b4 c4 bd 51 66 7f 3c 91 34 74 3d 86 ed 8c bd
       -0.09604833 0.015588359 0.059620444 -0.068812415
000050 52 8d cb bc ac d5 93 3d 15 4c 82 bd bf f4 15 3d
       -0.02484766 0.07218489 -0.06362168 0.03661036
000060 8e 9b 65 3d 85 3a bf 3d cb 50 83 bd 28 82 03 3d
       0.05605655 0.093373336 -0.064118944 0.03210655
000070 7f c3 9e 3d e8 2c aa bd c1 df 8b bd 9e bd 54 bc
       0.07752132 -0.083093464 -0.06829787 -0.012984661
000080 66 a4 06 bc b6 e3 91 3c c0 12 8a 3d 51 4e e4 3b
       -0.008217907 0.017808776 0.067418575 0.006967344
000090 12 a8 90 3d 9d 34 bb 3d b4 db e5 3c a4 c3 d5 3d
       0.07063307 0.091408946 0.028058864 0.10437706
0000a0 e8 b6 9f bd 62 ab 59 bc 69 22 e3 bd f6 5c 06 3c
       -0.077985585 -0.01328549 -0.110905476 0.008200875
0000b0 3f 59 d4 3d 89 91 3e bb 78 eb f4 3c a1 a7 91 3d
       0.10368585 -0.0029078445 0.029897436 0.07112051
0000c0 a5 22 24 bd ca 94 49 bb 6a 67 c4 bd 70 85 94 bc
       -0.040072102 -0.0030758851 -0.09590037 -0.018130034
0000d0 52 e8 a8 3d 16 df 69 3d e8 e4 06 3d 90 12 ee bc
       0.082474366 0.057097517 0.032933146 -0.029061586
0000e0 3e e2 8b 3d 41 d9 93 3d f3 dc 40 3d 9f b5 e9 bd
       0.06830262 0.07219172 0.047085714 -0.114115946
0000f0 11 81 86 3c cf 2d 15 3d cd 76 1f bd b1 1b 6a bd
       0.016418966 0.03642064 -0.038931657 -0.057155315
000100 ad 23 61 3d 06 e4 0b bd 86 11 49 bd b7 09 c9 bc
       0.054965664 -0.034153007 -0.049088977 -0.024540765
000110 8d 83 aa 3d 29 81 16 3d d4 2e 95 bd 06 40 96 bd
       0.083258726 0.03674427 -0.072843224 -0.0733643
000120 26 a3 1a bd 6a f7 a4 3d 5c 9a ad bd 59 a5 a0 bc
       -0.037753247 0.08055003 -0.08476707 -0.019610094
000130 78 ea b7 bc cb 6a ae bc fb a6 9d 3a 79 ba f0 3d
       -0.02245067 -0.021291157 0.0012027913 0.11754317
000140 7f a1 c0 3c 33 1b 9e bd 91 9f af bd 42 19 77 3d
       0.023514507 -0.077200316 -0.08575357 0.060326822
000150 21 f2 5a 3d bb 16 82 bd b2 3a 86 3d 04 69 8e bd
       0.05345357 -0.06351992 0.06554164 -0.06953624
000160 b1 60 8f bd 4d e8 d0 3d ac 41 cb bd 2a 6b 8d bd
       -0.07000864 0.10200558 -0.09924635 -0.069052055
000170 d1 35 96 3c 81 58 a1 3d ae f6 8b bd 56 00 20 3d
       0.018336209 0.07878209 -0.0683416 0.03906282
000180 69 af 03 3c c9 f3 86 3d 0e df cc bd ff bc c1 3b
       0.0080374265 0.06589467 -0.10003482 0.0059124227
000190 d7 fb fb bc e7 90 4c bd d2 7b e9 bc 72 2a 04 3d
       -0.030759735 -0.049942877 -0.028501425 0.03226704
0001a0 4e 87 ed 3d e2 81 8a bd 77 02 b8 bd 00 d0 e1 bc
       0.11598073 -0.067630544 -0.08984845 -0.027565002
0001b0 13 9c 41 3d e1 d7 d0 3d 01 5f 96 bd d0 d0 73 3d
       0.047267985 0.10197426 -0.07342339 0.05952531
0001c0 55 85 22 3d 47 84 be 3d fb d8 0f bd 91 c3 a2 3d
       0.039677937 0.09302574 -0.035119038 0.079474576
0001d0 a6 ee 3e 3d 87 b8 30 3d bf 77 76 3b bc a9 92 3c
       0.04661431 0.04314473 0.0037607995 0.017903201
0001e0 c0 7f 06 3d 8f ac a1 3d f2 4e 96 3a 0c 37 52 bc
       0.032836676 0.07894241 0.0011467619 -0.012830507
0001f0 6f 5e 17 bd 89 4e 40 bd 2f 02 86 3c dc dc a5 bd
       -0.036955293 -0.046949897 0.016358463 -0.08098766
000200 a6 3b a6 bc cc ea 73 3c 9c 17 29 bc ed 0a 59 bd
       -0.020292114 0.014887523 -0.01032057 -0.052988935
000210 e6 87 80 bd 37 4e 1d 3c 0d a0 27 3d 1c 2d bb bc
       -0.062759206 0.009601167 0.04092412 -0.022848658
000220 d9 c0 84 bd aa 85 88 bd f2 7d b0 3c 05 f2 aa 3c
       -0.06482095 -0.066661194 0.02154443 0.020867357
000230 24 ef 33 3d 47 bb 90 3c 61 48 d0 bd a5 a8 96 3d
       0.043929234 0.017667426 -0.10170055 0.07356385
000240 83 77 ec bc 89 7f b1 bd 91 e9 72 bc 58 45 94 3d
       -0.028865581 -0.086669035 -0.014826194 0.07239789
000250 37 3e af bd af af 31 3d d7 5d be 3b 5d 98 52 bd
       -0.085567884 0.043380436 0.0058095264 -0.051414836
000260 98 9a 74 3d f9 75 51 bc 45 3b e0 3d 92 da 8c bd
       0.059717745 -0.0127844745 0.10948805 -0.068776265
000270 c9 31 5f bd df b4 a8 3d 7f 65 53 bd 10 a3 89 3d
       -0.05449084 0.082376234 -0.051610466 0.06720555
000280 09 24 80 bd 2f cb 03 bd 9d b8 a7 bb a8 69 e7 3a
       -0.06256873 -0.032176193 -0.005118443 0.0017655389
000290 31 b3 74 3d cb a3 31 bd e8 ee ee 3d ba 17 89 bd
       0.059741203 -0.043369096 0.116666615 -0.066939786
0002a0 51 5d 81 bd 21 69 43 3c 6b 54 19 3c 42 ac 3d bd
       -0.06316627 0.01192692 0.009358506 -0.046306856
0002b0 e7 cc ab bd 2c 5e 96 bd 10 7f 20 3d ce 34 f2 3c
       -0.083886914 -0.073421806 0.039183676 0.029566195
0002c0 b3 e0 8c bc 03 ec 6a bd e4 76 7d bd 1a 10 c6 bb
       -0.017196989 -0.057353985 -0.06188096 -0.0060444
0002d0 2d 01 a2 bd b0 70 8c 3c a0 bc cf 3c 83 d6 74 3d
       -0.079103805 0.017143577 0.025358498 0.059774887
0002e0 6b 48 f4 3c 12 65 6a 3d 5b b5 1c bd a4 27 ef 3b
       0.029819688 0.057225294 -0.03825889 0.0072984267
0002f0 f1 ed aa bd f9 d1 99 3c 08 c6 af bd e1 33 5a bd
       -0.08346165 0.01877688 -0.08582693 -0.05327213
000300 81 18 e9 bc 3a 43 aa 3c c6 3a ba bd 07 ae e7 bd
       -0.028454067 0.02078401 -0.090932414 -0.1131249
000310 a4 90 9a bd ee 63 4c bd 2d 21 f9 3a a8 35 76 bd
       -0.07547119 -0.049899988 0.001900708 -0.060109764
000320 82 7d e2 3d 1c 0e b1 bd b8 19 f3 3d 0c 21 94 3d
       0.11059095 -0.08645269 0.1187014 0.07232866
000330 d9 d1 9e bd 7c de 6f bd 17 62 66 3d 79 59 5e bd
       -0.07754869 -0.058561787 0.05624589 -0.054284547
000340 ee b8 89 3c 12 ce c3 3d c3 f6 8b bd 69 38 82 bd
       0.016811814 0.09560789 -0.068341754 -0.06358416
000350 e8 87 7b 3b 1e f9 98 3d cf 5b 9c bb 9a 43 a3 3d
       0.0038380567 0.0746939 -0.0047716866 0.07971878
000360 23 87 5f bc eb 70 e4 bd b7 dc 3b bd df de 9b 3d
       -0.013643059 -0.1115435 -0.045864787 0.07610869
000370 e7 41 85 3d c0 46 a0 bd bb 7f 82 3d b6 b5 75 3d
       0.065067105 -0.078259945 0.06372019 0.059987746
000380 d1 f5 8c 3d 88 df 2d 3d 0c 1e ca 3c 04 e9 a7 bd
       0.06882823 0.042449504 0.02467253 -0.08198741
000390 b0 61 2b 3d 55 d3 40 bd ef 31 eb bc 00 c9 ad 3d
       0.04184121 -0.047076542 -0.028710334 0.08485603
0003a0 48 1a 84 3c 3d 80 fd 3c 6b 3f b3 3d 98 45 9c bd
       0.016125813 0.030944938 0.087523304 -0.076304615
0003b0 f0 07 d7 bd ff 98 0e bd d9 2e b6 3c b3 a6 a7 3d
       -0.10499561 -0.034813877 0.022239136 0.08186092
0003c0 8b 26 d7 3b c6 a0 ef 3b 73 b5 bd bd 8f b5 d3 bc
       0.006565874 0.007312867 -0.09263124 -0.02584341
0003d0 64 26 0b bd 75 39 3b 3c 37 fc 7a 3b 0a 9f f2 3d
       -0.03397216 0.011427273 0.0038297304 0.118467405
0003e0 d9 5e bc 3c a5 2f bf 3b 0d b5 2e bc bc 79 98 3d
       0.022994446 0.005834537 -0.010663283 0.07445094
0003f0 49 b3 80 bb 8f 2a d4 3d 80 65 91 3d b3 61 4f 3c
       -0.0039276225 0.1035968 0.07099438 0.012657571

rnn.bias_ih_l0 f4 [300]
000000 df f9 8f 3d 62 3b 01 3d 68 12 4e bc 7c 8d 67 bd
       0.07030081 0.031550772 -0.012577631 -0.056531414
000010 c3 2f 9c bc 5d b2 e0 3c 08 b7 c9 3d 0a 5f b2 3c
       -0.019065743 0.0274288 0.098493636 0.021773834
000020 c2 1c 18 3d 26 6f b2 3d 42 4c 44 3d 4d 05 43 bd
       0.0371368 0.08712606 0.047924288 -0.047612477
000030 ee e0 2c 3d ba 5d 0d ba 7e 70 b0 3d 61 cb 61 bd
       0.042206697 -0.00053926895 0.08615206 -0.055125598
000040 50 13 1a 3d b8 c0 ad bd f2 bb e3 3d b2 8d d7 3d
       0.037616074 -0.08484024 0.11119832 0.10525073
000050 bd cc 85 bc b7 f3 fc 3c a7 db 46 bd 46 47 5b 3d
       -0.016332978 0.030877931 -0.04854932 0.05353477
000060 c0 47 ec 3d 80 92 63 3c 3a fc 93 3d 2b 03 00 bd
       0.11537123 0.013889909 0.07225843 -0.03125302
000070 2c fd a7 3d fd 61 98 3c c4 41 11 bd 9b 72 78 3c
       0.082025856 0.018601412 -0.03546311 0.015164043
000080 f9 fd a7 3b 5f c2 8d bc e7 9e 38 bd eb 81 88 bd
       0.0051267114 -0.017304597 -0.045073416 -0.06665405
000090 2a 53 6e bd 54 72 c1 3d 19 f3 89 bd 2e 12 14 3d
       -0.05818478 0.094456345 -0.0673582 0.03615015
0000a0 c5 d7 79 bd 22 a1 43 3d 1b e0 6f bd f7 47 12 3d
       -0.06099679 0.04776109 -0.058563333 0.035713162
0000b0 f3 64 b8 39 bc 98 6c bb 8c 0a bb 3d f1 4e f3 3c
       0.00035170428 -0.003610178 0.09132871 0.029700728
0000c0 9f e4 db bc 09 a1 c5 3c 61 cf 86 3d 03 e2 a0 bd
       -0.026842413 0.02412464 0.06582523 -0.07855608
0000d0 9c a9 e5 3c 0b fe d9 3c 41 64 9b 3d 20 38 86 3d
       0.028034978 0.026610395 0.07587481 0.06553674
0000e0 91 39 f6 3d 74 21 f3 3c 54 5f 79 3d 87 ec 9b 3c
       0.12022699 0.029679038 0.060881928 0.019033683
0000f0 20 30 19 bd 08 2e fd 3b 74 f0 10 bd 32 90 76 bc
       -0.03739941 0.0077264346 -0.035385564 -0.015049027
000100 92 69 55 bd 3a ca 4d bd f1 85 98 bd d6 9d 9f 3d
       -0.052102633 -0.050241686 -0.07447422 0.07793777
000110 6d e2 07 bd 76 61 b3 bc 38 56 8d 3d 86 6d 76 bb
       -0.03317492 -0.021897059 0.069012105 -0.0037601902
000120 2e a4 79 3d 93 ef 2c 3d 16 1b 18 bd 62 84 5f 3d
       0.06094759 0.042220663 -0.037135206 0.05456961
000130 f1 98 15 bd e0 dd c2 bc aa 10 5e 3b fb fa c7 3d
       -0.03652281 -0.023787439 0.0033884444 0.097646676
000140 89 3b ab 3d bf be a0 3d 25 d0 09 3d 52 d4 24 3b
       0.08360965 0.07848882 0.033645768 0.0025150967
000150 f4 80 16 bd 6b 26 ec 3c e1 dc e3 3d ff 03 a2 bb
       -0.036744073 0.028826913 0.11126114 -0.004944324
000160 e2 d3 b8 bc af 17 24 3d dd 5f cc bd bd ff 9c bd
       -0.022561971 0.04006165 -0.09979222 -0.07665966
000170 94 8b 8a 3d a9 12 1a bd 12 06 71 3d e2 35 13 3d
       0.06764904 -0.037615452 0.05884368 0.03594006
000180 cd f0 b4 3c 43 f2 2a bd 74 94 80 3d fb 2e 4e 3d
       0.022087479 -0.041734945 0.06278315 0.050337773
000190 04 b0 d4 bc 87 59 5e bd 39 1b ad bd 99 af 86 3d
       -0.025962837 -0.0542846 -0.08452458 0.06576461
0001a0 40 54 13 bd c2 bf c4 3c 4c e4 0a 3d f4 3b a7 3c
       -0.03596902 0.024017219 0.033909127 0.02041433
0001b0 31 04 96 bd c7 13 4b 3c 9e 5f 2c 3d e7 c7 b7 bd
       -0.07325018 0.012394852 0.042083375 -0.08973675
0001c0 77 ff 38 bc 78 e3 54 bd fc 6c 02 be d2 3a 46 3d
       -0.011291376 -0.051974744 -0.12736887 0.04839594
0001d0 f4 cb a4 bd 67 88 85 bd 6c 0d bc bc 8d 5e c5 3c
       -0.080467135 -0.06520157 -0.022955619 0.024092937
0001e0 de 1c c0 3c 80 30 d6 bc ff ea 94 bc c2 31 df bc
       0.023451265 -0.026146173 -0.018178461 -0.027245406
0001f0 1d 2d 3a 3d 50 3d 9f bc aa 02 69 3b 50 ae 0e bd
       0.04545318 -0.019438416 0.0035554566 -0.034834206
000200 df d1 1c bd ed d9 af 3d fb 09 8e bd d4 44 9b ba
       -0.038286086 0.08586488 -0.069354974 -0.0011846074
000210 71 1c a1 bd f3 51 a8 bd 59 f1 6c bd ed 4a ad bd
       -0.07866753 -0.082187556 -0.057847355 -0.084615566
000220 68 9e a5 bc ee f9 7d bc 9f 55 19 3c a4 36 58 3d
       -0.020217136 -0.015501482 0.009358793 0.052786484
000230 6c d0 9c bd 6b 79 6a bd 05 b2 f6 b9 fe fb 76 bd
       -0.07656941 -0.0572447 -0.0004705341 -0.060298912
000240 ed b7 bd bd af b7 34 3d 8f 7d 33 3d 7d 1a 18 3c
       -0.09263597 0.044120487 0.043820914 0.009283659
000250 17 d7 e1 3b a8 50 9d 3d 34 9e 9d bd 22 98 85 3c
       0.006892096 0.076813996 -0.076961905 0.016307894
000260 a5 c9 da bc 0a 31 8d bd 7e 65 1f bd dd 6d 05 3d
       -0.02670748 -0.06894119 -0.03891515 0.032575477
000270 7b 12 07 3d 6d 0a d3 bd ac ff 8f bd 27 30 dd bd
       0.03297661 -0.10304723 -0.070311874 -0.108002
000280 a9 75 93 bd eb cf 7a bd ba f8 ca bc cc 88 12 bd
       -0.07200176 -0.061233442 -0.024776805 -0.03577499
000290 e7 63 1e bc c0 4e 55 39 1c 7c ab 3c c9 bc 17 3d
       -0.009667373 0.000203426 0.020933203 0.037045274
0002a0 7f 0f 9f 3c bd 43 2d 3c bc 54 6a 3d c6 ce ba bd
       0.019416569 0.010575232 0.057209715 -0.0912147
0002b0 f0 ee 3f 3d 45 83 cd bd 19 fd 27 bd 27 c3 aa bb
       0.046858728 -0.10034803 -0.041012857 -0.0052112523
0002c0 75 15 85 3d d6 3e 83 3c c7 02 66 bd 67 39 86 3d
       0.06498233 0.016021173 -0.056154992 0.065539174
0002d0 e7 fa 14 3d ad a0 bb bd fe b0 36 bd 6c ab cf bc
       0.03637209 -0.09161506 -0.044602387 -0.025350295
0002e0 8e 02 db bc 56 62 bc bd 68 97 c6 3c 96 52 80 3c
       -0.026734617 -0.091984436 0.024242118 0.01566438
0002f0 66 9c 92 bb 30 e7 5d bd dc 25 b3 bd b1 ac 87 3d
       -0.0044742106 -0.054175556 -0.087474555 0.06624735
000300 b0 c4 ca bd 90 73 a5 3d 5c 5e 30 3c 5a a6 c9 bd
       -0.099007964 0.080786824 0.0107646845 -0.09846182
000310 c2 85 6c bc 8f 7b 8d 3d cd 27 69 bd 39 a7 3b 3d
       -0.014436187 0.069083326 -0.056922723 0.045813773
000320 49 63 44 3c 28 b2 37 bd 9d eb 4e 3d 2b 8f 50 3d
       0.011986562 -0.044847637 0.050517667 0.050917786
000330 11 9b d2 3d 2d 2c ca 3d 89 f0 d0 bd 1f 2d 4c 3c
       0.10283483 0.09871707 -0.102021284 0.01246193
000340 76 5b 15 bd a4 6e f2 3c 48 b8 a6 3d d6 d6 88 3d
       -0.036464177 0.029593773 0.081406176 0.06681602
000350 47 b0 9a 3d 9f 3e da 3c e6 5f 48 bd 5b c6 b9 bd
       0.075531535 0.026641188 -0.04891958 -0.090710364
000360 13 5d 55 3d f1 59 a7 bd 23 84 79 bd 00 42 c9 bd
       0.052090716 -0.08171452 -0.06091703 -0.098270416
000370 d1 eb 99 3d f2 ff 50 bd 6f dd ca 3d 2a 4e 80 3d
       0.075156815 -0.05102534 0.09905516 0.062649086
000380 76 92 8e 3d c3 7f f0 bb 3c d1 30 bc 42 f7 ee bd
       0.06961529 -0.007339449 -0.010792073 -0.116682544
000390 08 bd 8c bd d1 5c bc bd cc d3 16 3d 58 e1 23 3d
       -0.06871992 -0.09197391 0.03682308 0.040009826
0003a0 81 64 85 3d 0b 89 09 bb ac 1f a0 3d 95 3c d1 3d
       0.0651331 -0.0020986225 0.07818541 0.10216633
0003b0 57 1b bf 3d d7 fb ae 3d 75 db cb bd 1e b2 2b 3d
       0.093313865 0.085441284 -0.099539675 0.041917913
0003c0 ce be 04 3c 55 af 1e 3d a4 a3 b0 bd 90 39 99 bc
       0.008102132 0.03874143 -0.08624962 -0.018704206
0003d0 43 c9 e2 3c c9 66 9c bd 9a 52 36 bd b5 8c 92 bd
       0.02768386 -0.07636792 -0.04451237 -0.07155744
0003e0 10 3d a0 bd a6 d0 53 3d 7b a6 6c 3d 6e 7c 17 bd
       -0.07824147 0.051712655 0.057775956 -0.0369839
0003f0 7b cb 37 3d 45 92 71 bd 35 c5 cc 3d ff 6e 6b bd
       0.04487179 -0.058977384 0.09998552 -0.0574789

rnn.bias_hh_l0 f4 [300]
000000 45 1b e8 3d 38 07 59 bd c6 9a 84 3d f4 e9 b4 3d
       0.11333326 -0.0529854 0.06474833 0.088336855
000010 65 73 a1 3c 19 ff 37 3c 19 6a fb 3c b5 ad 62 3d
       0.019708345 0.011230254 0.03069024 0.05534144
000020 5b d8 a5 bc 3e 25 82 bd ce 59 bf 3d 24 80 9c 3b
       -0.020244768 -0.0635476 0.09343301 0.0047760177
000030 5b 14 ba 3d 92 41 99 3d 2f 3c a5 3c 0f 84 9e 3d
       0.09085914 0.0748321 0.0201703 0.07740032
000040 d1 ab 64 bd 40 b5 69 3d fd 07 0b bd dc 34 06 3d
       -0.05582792 0.05705762 -0.033943165 0.032765254
000050 88 23 89 bd 64 cc 13 3d d6 49 7b 3d f8 a1 22 3d
       -0.0669623 0.036083594 0.061349712 0.039705247
000060 6a b0 17 bb a2 77 3f 3d c2 2f b3 3c eb 75 e5 bb
       -0.0023145922 0.04674495 0.021873359 -0.0070025823
000070 56 c8 83 3d e1 80 af bc 17 cb 6f bd 08 37 6e 3d
       0.064346954 -0.021423759 -0.05854329 0.05815795
000080 84 45 07 3c ba d4 2b bc 66 56 47 bd ce 93 8d bc
       0.00825632 -0.01048773 -0.04866638 -0.017282393
000090 3c 2e 2b bc fc dd 57 3b da 4d 27 bd 95 78 a8 bd
       -0.010448035 0.003293871 -0.04084573 -0.08226124
0000a0 3b 2a fc 3c 7f a3 ee 3c 75 ec 9a bc 14 c0 61 bd
       0.030781856 0.029130695 -0.01891158 -0.05511482
0000b0 e5 8f 2f bc b5 93 68 bd b6 ee 86 3c 49 91 5b 3d
       -0.0107154595 -0.05678149 0.016471248 0.05360535
0000c0 59 32 94 bc a8 fb b4 3c 36 d0 15 39 08 dd aa bd
       -0.018090414 0.022092655 0.00014287312 -0.083429396
0000d0 62 87 78 3c b2 47 8e bd 5b cb e7 3d a3 a2 d3 3d
       0.0151689965 -0.069472685 0.11318084 0.10333755
0000e0 16 57 6b 3d 5e f0 ad 3d 40 e5 2d 3d a3 c6 bb 3a
       0.0574561 0.08493112 0.042454958 0.0014326166
0000f0 ff 15 8f 3d aa 36 34 bd 4e a8 9a 3d 83 6b 07 3d
       0.06986617 -0.043997444 0.07551633 0.033061516
000100 80 1c b7 3d 0d 43 ed 3d f7 55 75 3c bf 22 a1 bd
       0.08940983 0.115850545 0.014974109 -0.078679554
000110 29 ad 8b bd 8b 19 d0 bc 3b c8 f5 3c 9f f9 1a bb
       -0.06820137 -0.025402805 0.030002704 -0.002364732
000120 4d f0 0f bc da 32 86 bd 21 f2 8d bc 4f dc f5 bb
       -0.0087853195 -0.06552668 -0.01732737 -0.0075030695
000130 72 73 c2 3d c1 9f 3d 3d a5 87 d7 3d 46 7c 52 bc
       0.09494676 0.04629493 0.10523919 -0.012847012
000140 08 de 3f 3c 4e 9f fe 39 24 fd 02 bd e3 7f 70 3a
       0.011710651 0.00048565347 -0.031979695 0.000917433
000150 2e 9e 37 bd 9f 68 5a bd c3 56 74 bd 8e 0f b5 3d
       -0.044828586 -0.05332243 -0.059653055 0.088408574
000160 78 bb a1 bd 5b 8d 01 bd 2e 21 96 bc f6 42 56 bd
       -0.07897085 -0.031628948 -0.018326368 -0.052309953
000170 87 d0 71 3c 9d f5 ae 3d 79 78 98 3c cb 45 67 3b
       0.014759189 0.08542941 0.018612133 0.0035289403
000180 17 0e 82 bb e1 8f 61 3d f2 64 eb 3d 24 73 91 3b
       -0.003968965 0.055068854 0.11493863 0.0044387747
000190 dd 63 5e 3b 02 c9 55 3d 31 49 0e bd 08 52 8f 3d
       0.0033934035 0.05219365 -0.03473777 0.06998068
0001a0 5d 13 47 bd e5 a0 ab 3c 92 07 93 3d cb 83 9d 3c
       -0.04860245 0.020950744 0.07179178 0.019227883
0001b0 1a f2 9a 3d c6 72 13 3d e8 41 a4 bd 1c b3 5b 3b
       0.075657085 0.03599813 -0.08020383 0.0033523506
0001c0 e9 ef 6e bd 56 6b c5 bd 86 f4 cc bc ad 33 a8 bd
       -0.058334265 -0.09639613 -0.025018942 -0.082129814
0001d0 48 a2 6d bc f3 57 94 bd ec 32 5d 3d 7c a4 52 3b
       -0.014504023 -0.072433375 0.05400364 0.0032141497
0001e0 f1 62 8c 3d ec 47 c3 bb c7 ec 1f bd fc 2d 53 bc
       0.06854809 -0.0059595015 -0.039044168 -0.0128893815
0001f0 14 bf be bd 03 7e da bc 61 b1 6a bc 0d 29 06 3d
       -0.09313789 -0.026671415 -0.014324517 0.032753993
000200 35 50 f3 3c 5d 30 4d bd 00 56 89 bd 14 22 87 3d
       0.029701332 -0.05009495 -0.06705856 0.06598297
000210 03 61 90 3a a9 ba 19 bd ee 82 05 3d 02 31 97 bd
       0.001101524 -0.03753153 0.032595567 -0.073823944
000220 a0 11 26 3d 2b 53 bf 3b 19 b7 78 bd f8 14 e3 bd
       0.040544152 0.005838772 -0.06072149 -0.11087984
000230 43 ae 90 bd e2 08 35 3d e3 46 b5 bd 28 71 b8 bd
       -0.07064488 0.044197924 -0.08851411 -0.09005958
000240 7d ca f7 bd db 78 8e bd 3b 60 b3 bd 0e 32 55 bc
       -0.120991684 -0.06956645 -0.08758589 -0.013012422
000250 1b c4 15 bc 30 de 9f bd 3d 9e 00 3d 4b d1 a2 bd
       -0.0091409935 -0.07806051 0.031400908 -0.07950076
000260 c2 f1 68 3d 44 93 c7 bd 66 90 d4 bd a4 66 75 bd
       0.056871183 -0.097448856 -0.10379104 -0.05991234
000270 20 fd 10 3d 7b 10 72 bd b9 43 9b 3d 8f 24 b9 bd
       0.03539765 -0.05909775 0.075812764 -0.09040176
000280 fa 75 82 bc 77 c9 70 3b 58 96 d5 bd f5 d4 2d bd
       -0.015925396 0.0036741176 -0.104290664 -0.04243942
000290 35 95 ff 3a 0d d4 96 3d 2e 9b 6e bd 3d 86 6a 3d
       0.0019499423 0.07364664 -0.05825346 0.057256926
0002a0 60 b1 aa bd 38 64 c4 bd bf f0 99 bd 2b c6 7a 3d
       -0.08334613 -0.09589428 -0.07516622 0.061224144
0002b0 d3 49 c6 bd 5a 70 a9 bc 16 bc df bd 22 a6 38 bd
       -0.096820496 -0.020683456 -0.109245464 -0.04508031
0002c0 50 b2 5e bd 59 98 86 bd 75 dc 80 bd 8e 1a c1 bd
       -0.05436927 -0.06572027 -0.06292049 -0.09428893
0002d0 e8 53 6b 3d 40 11 59 3d fc b3 b6 bd b0 6d 39 bd
       0.057453066 0.052994967 -0.08921048 -0.04527062
0002e0 88 89 84 bd 15 85 e2 3b 99 43 4d bd f9 0b 93 3d
       -0.064715445 0.0069128373 -0.050113294 0.07180018
0002f0 9d bc 01 bd 2a e0 07 3d d5 42 07 3d 3a 7b 4f 3d
       -0.031674016 0.033172764 0.03302272 0.050654627
000300 7f 23 77 bd d4 54 49 3d 44 20 89 bd dd 29 80 3d
       -0.060336586 0.049153164 -0.06695607 0.06257985
000310 53 5f e9 bb 71 3d 1b bc 6e b6 01 3b 12 ea 8b bd
       -0.0071219592 -0.009475098 0.0019792574 -0.06831755
000320 cf a2 06 3d 5d 65 2f 3d 07 5a c5 3d 22 10 6b bd
       0.03287011 0.042821277 0.09636312 -0.057388432
000330 f4 38 98 3d 11 43 bc bd f8 5f 9b bc e1 a4 bd 3d
       0.07432738 -0.091924794 -0.01896666 0.09259964
000340 d6 86 85 bd 55 81 05 3d 08 44 7b bd 5a 17 56 3d
       -0.065198585 0.032594044 -0.061344177 0.052268364
000350 0e c5 0f 3a a9 77 51 bd d2 52 85 bc 53 b3 c1 bd
       0.00054843805 -0.051139507 -0.016274843 -0.094580315
000360 ce 24 aa bd 00 3d b7 bd 51 dc 9b 3c e0 b8 e9 bd
       -0.08307801 -0.08947182 0.019025953 -0.11412215
000370 2f 9e db bc 75 bc 4c bc 9c 56 82 3b 27 92 bb bd
       -0.026808826 -0.0124961035 0.00397761 -0.09158736
000380 ea a9 03 3c 73 33 70 3d 25 6e bd bd 82 9f 2d bd
       0.008036116 0.058642816 -0.09249524 -0.042388447
000390 d5 c4 8d 3d 6d 88 a6 3a 30 53 66 bd 74 33 6e ba
       0.06922308 0.0012705453 -0.056231678 -0.00090866466
0003a0 8a e2 84 3d 07 86 3d 3a 2e 25 18 bd 7f 05 db 3d
       0.064885214 0.00072297495 -0.037144832 0.10694408
0003b0 62 fa 07 3d a0 08 e3 3b 94 94 a7 3d fd 69 81 3d
       0.033197768 0.0069285184 0.08182636 0.06319044
0003c0 2a d0 a6 3d 6d 9c 80 3d 1a 8d e3 bd 63 9c ca 3b
       0.08145173 0.06279836 -0.11110897 0.0061831935
0003d0 00 38 d2 bc 41 25 be 3d 73 90 77 3d b3 53 32 3d
       -0.025661469 0.09284449 0.060440492 0.043536853
0003e0 40 33 cd bd 13 af 64 bd d1 f5 a3 3d bd 2f 9e bd
       -0.10019541 -0.055831026 0.0800587 -0.07723949
0003f0 49 13 cb 3d f5 62 3f bd d1 a0 91 3c 04 42 03 bd
       0.09915788 -0.046725232 0.017776879 -0.03204538

fc_out1.weight f4 [50, 100]
000000 da 0a 41 bc 83 aa 63 3d e7 36 8e 3d a7 d5 7f bd
       -0.011782372 0.055582535 0.069440655 -0.062459614
000010 23 5e 7c bd 23 2a 7b bd 9a 55 91 3a 40 ad 1a 3d
       -0.061613213 -0.06131948 0.0011088133 0.03776288
000020 af 6f 8a bd a0 b9 0c 3d 82 eb b2 bd 73 c3 5f bd
       -0.06759583 0.034356713 -0.08736326 -0.054629754
000030 6a 05 2d 3d 8d 4d 41 bc ad 81 0b bd 80 46 a3 bb
       0.04224149 -0.011798275 -0.034059215 -0.0049827695
000040 77 8c 34 3d 67 11 d8 3c e7 5c 3d bc 70 31 46 3d
       0.04407927 0.026375486 -0.011557794 0.04838699
000050 b3 cc 2a 3c 2d a7 a7 bc 1a b9 02 3d df ac b4 3d
       0.010424781 -0.020465458 0.031914808 0.08822035
000060 8a 01 a8 3d f2 ad b6 3d c7 06 ad bc f0 88 71 bd
       0.082034186 0.08919896 -0.021121396 -0.058968484
000070 4d e3 aa 3c 82 9d c4 3d 1a d9 f1 3b df e9 90 3d
       0.020860339 0.09600355 0.007380617 0.07075857
000080 5a 83 bd bc c3 c3 70 3d 8b e6 bc bd 1a 94 36 3c
       -0.023133922 0.058780443 -0.0922366 0.011143709
000090 33 9d 4e 3d 8a b9 67 bd c5 d6 a3 3d a0 cd aa 3d
       0.050442886 -0.05657343 0.079999484 0.08340001
0000a0 83 4a c6 bd 32 c8 cc bd 53 5d a1 3d e0 f0 c2 bd
       -0.09682181 -0.09999122 0.07879128 -0.095185995
0000b0 ad a8 27 3d 2d 07 7a 3d 02 2f ad bd ed eb 67 3d
       0.040932346 0.061042 -0.08456232 0.05662148
0000c0 9a ff 3e bd 33 3c 2e bb 7a 8c 73 3d 98 0f 88 3d
       -0.04663048 -0.0026586174 0.05946014 0.06643599
0000d0 c7 f6 0f bd 1a db 3d bd f8 88 9a bd ba 85 8a bd
       -0.035147455 -0.04635153 -0.07545656 -0.067637876
0000e0 fa a5 c0 bc c0 a8 f3 bc 20 59 e7 3c 37 43 ca bd
       -0.023516644 -0.029743552 0.02824074 -0.098761015
0000f0 1a 64 14 3d 70 5d 58 3d a7 bd ab 3c cb 29 9e bd
       0.036228277 0.052823484 0.020964457 -0.07722815
000100 80 5a c5 3c 6d ce 08 bd d8 5f b8 bd cd 0e 23 3b
       0.024091005 -0.033399988 -0.09002656 0.0024880648
000110 ed 26 78 bd 5d 7f 6a bd a8 9f ae bd 1f 0c cb 3d
       -0.060583998 -0.05725037 -0.08526546 0.09914421
000120 7d ed 57 bd ba 23 04 bd 5d f2 9e 3d e5 1b 99 3d
       -0.05271672 -0.032260634 0.07761071 0.074760236
000130 d7 60 5a 3d b3 81 4a 3c 9a 60 36 3c b5 72 b6 bd
       0.05331501 0.012360024 0.01113143 -0.089085974
000140 fb 3e ae bd e7 8b 30 bd 40 6a 54 3d e3 85 b7 3d
       -0.08508106 -0.04310217 0.05185914 0.08961084
000150 30 65 a5 3d b5 e6 c9 3d 83 4a 1d 3d 60 00 9a bd
       0.080759406 0.09858457 0.038401138 -0.07519603
000160 0b 9a a1 3d cd 18 46 3c 23 f6 5a 3d e5 43 ac bd
       0.078907095 0.012090874 0.05345739 -0.08411387
000170 a7 66 1b bc a7 82 9f 3c 73 f5 e7 bc 9d 3a 90 bd
       -0.009484923 0.01947148 -0.028315281 -0.070424296
000180 8d f4 57 bc 10 b8 15 bd 67 ee 6c 3a 80 15 8e bd
       -0.013180864 -0.03655249 0.000903821 -0.069376945
000190 31 4a 9d bd e2 65 c0 3c be ce 11 bd 43 47 ac 3b
       -0.076801665 0.023486082 -0.035597555 0.0052575185
0001a0 19 ee 38 3c 34 2d 44 3d 92 22 e6 3c c8 9e f1 bc
       0.011287236 0.04789467 0.028092656 -0.029494658
0001b0 21 ad b8 bd dd fe c1 3d ee 01 56 bd 99 10 98 3d
       -0.09017397 0.094724394 -0.052247934 0.07425041
0001c0 2c 5c 7e 3d 8a f8 b8 bc bd fc 4c bd ce 6d c2 bc
       0.06209962 -0.02257945 -0.050045718 -0.023734
0001d0 94 38 a2 3d f9 69 c3 3d d5 27 ac 3c 81 10 03 3d
       0.07920948 0.09541697 0.021015087 0.03199816
0001e0 90 f9 9f 3d d6 dc c4 bc 27 c2 13 3b 1f 98 ee bc
       0.07811272 -0.024031084 0.0022546144 -0.029125271
0001f0 f2 c5 4b bd 97 0f 30 3d 6c e9 bb bd 6e d0 13 bd
       -0.049749322 0.042983618 -0.09175381 -0.036087446
000200 33 dd e4 bd 43 8e 82 3d 1f d6 b2 bd 43 06 53 bc
       -0.11175003 0.063747905 -0.087322466 -0.012879911
000210 9f 58 28 3d 43 6c 0d bd d0 2d e6 3d 57 92 34 3c
       0.04110014 -0.034527075 0.11239207 0.011021218
000220 7b 4d a1 3d 7e 20 8f bd 95 5f 60 3d ad c3 4b 3d
       0.07876106 -0.06988619 0.054778654 0.049747158
000230 eb 26 5b bc e8 31 7d bd 55 0f cb 3c e2 0d 88 3c
       -0.013375978 -0.061815172 0.024787584 0.016608182
000240 01 51 25 3d 61 02 29 3d 23 98 51 3d 9f 6b 49 3d
       0.040360454 0.041262034 0.05117048 0.0491749
000250 84 a1 22 3d 75 73 58 bc 94 6b e2 3d dc 04 d8 bd
       0.039704815 -0.013211121 0.11055675 -0.10547802
000260 10 35 15 3d fc 13 60 bd 82 cd e7 bb 64 17 73 3c
       0.036427557 -0.05470656 -0.007074059 0.01483712
000270 63 bd 22 3c 8c 07 c7 3d 76 3a a0 3d d5 d8 9c bc
       0.009932849 0.09718236 0.078236505 -0.019146362
000280 86 b3 8f bd 44 13 b0 bc 46 21 c9 bb 72 3f 77 3d
       -0.07016663 -0.021493562 -0.0061379997 0.06036324
000290 3c 24 43 3d 4d bc 89 bd 79 22 cc 3d 8c e7 e3 bc
       0.047641978 -0.06725369 0.09967513 -0.027820371
0002a0 51 5e cb ba 93 96 4b bd f1 c3 39 bd b9 03 89 bc
       -0.0015515779 -0.049704146 -0.04535288 -0.016725408
0002b0 43 a3 72 bc dd 61 81 3d f9 aa 9f bd 91 f5 f8 ba
       -0.014809432 0.06317494 -0.07796282 -0.0018994083
0002c0 1b 6d 96 3d fc 31 96 3d 06 06 24 3d f2 82 82 3d
       0.07345029 0.073337525 0.040044807 0.06372632
0002d0 6b 73 10 3c 7b 0b 8f 3b d4 a9 88 bb 77 eb 6a 3d
       0.00881658 0.0043653823 -0.0041706357 0.057353463
0002e0 ad 50 29 bd b2 6e 91 3d 88 09 4c bd b2 14 80 bd
       -0.041336704 0.071011916 -0.049813777 -0.06253947
0002f0 5b 9c 0f 3c f1 11 da bd 1f 34 cf bd c5 c3 9a 3d
       0.008765305 -0.10647953 -0.10117363 0.07556871
000300 f9 6e 3b 3d 85 97 2d 3d 7e b3 5e 3d c6 43 3a 3d
       0.04576013 0.04238083 0.054370396 0.04547479
000310 93 25 a5 bd 9c 9c c7 3c 8c 8b 89 3c d4 cb a9 bd
       -0.08063807 0.02436667 0.016790174 -0.0829083
000320 6b d4 5e 3d 45 cf 8d bd 36 da 91 bd ec 9e cc bc
       0.054401796 -0.06924299 -0.071216986 -0.024978124
000330 28 96 00 bc 15 2c 3d bd b8 77 5d bb ea a3 8e bd
       -0.0078483 -0.046184618 -0.0033793282 -0.06964858
000340 96 ac e1 3b cb 3f 3f bd 4f d5 0c 3d 95 3c 26 bc
       0.006887029 -0.046691697 0.034383114 -0.01014628
000350 0d 55 8b bb 73 5b 8f 3b 1c 93 b0 3d 85 82 10 bd
       -0.004252082 0.0043749153 0.08621809 -0.035280723
000360 c7 eb 6c bd 05 58 72 bd 74 1d aa bd 40 4e 9c 3d
       -0.057842042 -0.059165973 -0.08306399 0.076321125
000370 d1 79 6c 3b 09 60 e5 3c c5 c6 8a 3d 71 1f 4a bd
       0.003608335 0.027999895 0.067761935 -0.04934639
000380 90 a9 5d bd 0d fc bb bd a6 49 7a 3d 83 c6 4d bc
       -0.054116786 -0.09178934 0.061105393 -0.012559536
000390 03 ae 1c bc a9 ef 6a 3d 27 e4 03 bd 61 ee 94 bc
       -0.009562972 0.057357464 -0.032200005 -0.018180074
0003a0 c3 78 8b 3d 74 63 6e 3c fc 3c 2f bc 89 fd 47 bd
       0.06810143 0.014550079 -0.010695692 -0.048825774
0003b0 44 34 93 bd 8c 98 c7 3c 94 bb c4 bd d5 39 b6 3d
       -0.07187703 0.024364732 -0.0960609 0.08897749
0003c0 d2 9c 35 bd f3 2a 93 bc 99 80 68 3d 94 3f c3 bd
       -0.04433901 -0.017964816 0.056763265 -0.09533611
0003d0 40 d9 23 3d 0e ab cf 3d 83 32 37 3d 88 7f 41 bd
       0.040002108 0.10140048 0.044725906 -0.047240764
0003e0 31 f5 5b 3d 77 94 9f bd 0a 84 60 3d 51 4e a7 bd
       0.05370063 -0.07791989 0.054813422 -0.081692345
0003f0 25 9d 0f bd a3 35 13 3d cb 43 a5 bc 16 74 89 bd
       -0.035061974 0.035939824 -0.020173928 -0.06711595

fc_out1.bias f4 [50]
000000 7a 47 a8 bd 4d 50 77 3d 72 a3 9d bd c8 21 bd 3d
       -0.08216758 0.060379315 -0.0769719 0.09234959
000010 b1 3c b2 3d a5 a2 a4 3d 7f 96 82 3c 04 91 c8 3d
       0.08702982 0.080388345 0.015940903 0.097932845
000020 00 7f 8e 3c ab 5b c5 3d d0 f3 17 bd 0f e8 8c bd
       0.017394543 0.09636625 -0.037097752 -0.06880199
000030 a0 e3 1b bd 78 75 96 3d 08 46 6f 3d 5c 3a 80 3c
       -0.038058877 0.07346624 0.058416396 0.015652828
000040 33 b5 39 bd f5 3b 98 bd 90 65 51 bd 89 24 d0 bc
       -0.04533882 -0.07433311 -0.05112225 -0.025408046
000050 05 55 be 3d a6 48 c3 3d 49 9c 4a 3d a6 6c cc bc
       0.0929356 0.09535341 0.04946545 -0.024954151
000060 f3 00 9e bd f3 7c eb 3c e7 35 9d bb 93 30 3b bd
       -0.07715025 0.028746104 -0.0047976854 -0.04570062
000070 ad 46 c9 3d 0e 53 c1 3d ca 48 8c bd 7f e0 4d bd
       0.098279335 0.094396695 -0.06849821 -0.050262924
000080 ea 54 85 3d 48 43 4e bc a9 2c af 3d 4c 26 4b 3d
       0.06510337 -0.012589283 0.0855344 0.04959707
000090 ec fa 89 3d 1c b3 33 3d c0 43 be 3d 6c 89 6e 3d
       0.06737313 0.043871984 0.09290266 0.058236524
0000a0 a1 f1 d1 3d 29 08 0d 3d ed d6 02 3a 73 0a 78 bd
       0.10251165 0.03443161 0.0004991133 -0.06055684
0000b0 94 e1 61 3d 8f 64 30 3d 77 e7 c3 3d a3 7f 33 bd
       0.05514677 0.04306465 0.09565633 -0.043822896
0000c0 7f 45 ba 3c c3 81 ba bb
       0.022738216 -0.0056917383

fc_out.weight f4 [2, 50]
000000 16 e3 d1 3d e7 be 59 3d 55 fa 09 3e 92 37 a9 bd
       0.10248391 0.053160574 0.134744 -0.08262552
000010 34 5c 21 3d 36 c0 df bd 52 01 1a 3c 63 a8 13 be
       0.039394572 -0.10925333 0.009399729 -0.14419703
000020 f5 07 84 3d cd 7c 4b 3d e9 57 d3 bd 4d b3 9c bc
       0.0644683 0.049679566 -0.10319502 -0.019128466
000030 25 a8 35 bd 72 35 18 be bb d8 ca 3d 3b f6 08 3e
       -0.04434981 -0.14864138 0.09904619 0.1337518
000040 a2 21 8f bd 5d 24 81 3d 91 09 ff 3d 9d d1 d3 bd
       -0.06988837 0.06305764 0.124529965 -0.10342715
000050 28 8d e5 bd eb 6a c9 bd c0 f2 92 bb 84 56 d5 3d
       -0.11208564 -0.09834846 -0.0044845045 0.10416892
000060 97 33 0d 3d e0 3a 7a 3d f5 19 d0 bd 0d f8 d4 bd
       0.034473028 0.061091304 -0.10161201 -0.103988744
000070 60 4d 78 3d 01 ec 31 3d a4 8e e6 bd a4 f3 d9 bd
       0.060620666 0.04343796 -0.11257675 -0.10642174
000080 03 4c 92 bd 79 ff 10 3d f4 ed 50 3d ce c4 12 bd
       -0.07143404 0.035399888 0.05100818 -0.03583222
000090 3f 47 49 3d 9c 17 d2 bd 0d b3 13 3d 37 d1 ee bd
       0.04914021 -0.102584094 0.036059428 -0.11660998
0000a0 7e ed 8a 3b 04 b3 01 3d 2c 1e bd 3d 14 74 85 bd
       0.004239737 0.031664863 0.092342705 -0.06516281
0000b0 19 57 d6 3d 25 57 13 3d 4c 42 bf 3d 86 7d e0 3d
       0.10465831 0.03597178 0.09338817 0.10961442
0000c0 4a 41 0f be 63 38 3f ba 51 ce 40 ba a7 ae 18 3e
       -0.1398975 -0.0007294474 -0.0007354962 0.14910375
0000d0 91 59 36 3c f7 23 d5 bd 74 f2 ac bd 08 94 8c bd
       0.011129753 -0.104072504 -0.08444682 -0.06864172
0000e0 97 6b 99 bd ad de 12 be b4 4e 9e bc 9f 98 c5 3d
       -0.07491224 -0.14342757 -0.019324638 0.09648251
0000f0 77 e4 af bc 66 6a 48 bd ca 61 33 3b 90 9f a1 3d
       -0.021471245 -0.048929594 0.002737152 0.07891762
000100 1f 6e 49 3d 22 2d 34 3d 38 99 12 be b9 4a 05 3e
       0.049177285 0.043988355 -0.14316261 0.13016786
000110 2d b2 df bd cc 08 5c 3c c4 a1 b4 3c 44 ba 0b 3e
       -0.10922656 0.013429832 0.022049792 0.13645273
000120 fe 80 cf bd 4d 86 22 3e 9c 33 a1 3d 7c ba 8b bd
       -0.10132025 0.15871544 0.07871172 -0.068226784
000130 2a 94 0e bd e5 0a cf 3d 72 8e db bd d7 d2 b8 3d
       -0.03480927 0.101095 -0.10720529 0.090245895
000140 13 d6 88 3d 29 ce 26 bd a8 97 99 bd 41 26 d0 3d
       0.066814564 -0.040723953 -0.07499629 0.10163546
000150 6f 12 1d 3d 04 6a b1 bd e6 8b a4 bd 88 b9 11 be
       0.038347658 -0.08662799 -0.08034496 -0.14230931
000160 43 9e 3d 3d eb d4 67 3d 22 1c 41 bd 68 72 1f 3e
       0.04629351 0.05659954 -0.04714597 0.15570986
000170 b3 e6 de 3b 9a 47 fa bd 37 71 d4 bb a6 3c 7d 3d
       0.006802404 -0.12220688 -0.006483223 0.061825417
000180 0d e4 e2 3b 6f 22 b0 3c fe 56 88 bc ae 66 1c be
       0.0069241584 0.021500794 -0.016643044 -0.15273544

fc_out.bias f4 [2]
000000 69 73 e5 bb 4c 2f c1 bd
       -0.0070022834 -0.09432849

exp_avg f4 [300, 2]
000000 a5 82 b9 b6 37 f5 7d b7 84 51 17 b8 ed db 1d 38
       -5.5286387e-06 -1.5137069e-05 -3.6077123e-05 3.763654e-05
000010 58 bd 88 b7 a8 60 86 b6 bb ac a1 37 93 dd 10 36
       -1.6300633e-05 -4.0047635e-06 1.927313e-05 2.1586645e-06
000020 95 3a 78 b8 41 b1 8e b8 41 79 ee 36 5f bf 01 35
       -5.9182366e-05 -6.804104e-05 7.1070685e-06 4.8334726e-07
000030 c0 b7 e9 37 d5 d2 1a 37 82 24 38 b8 88 77 2a 37
       2.786133e-05 9.228203e-06 -4.390302e-05 1.016062e-05
000040 14 3f 86 b8 61 6c 35 b8 64 d2 09 b8 a9 ad d5 36
       -6.401367e-05 -4.32547e-05 -3.2859287e-05 6.3681114e-06
000050 4d 87 b2 b7 5b 70 87 b8 ca 24 7d 37 ae 82 26 38
       -2.1282258e-05 -6.4582295e-05 1.5088541e-05 3.969919e-05
000060 f3 38 ee b7 7f d3 36 b8 1c a6 45 b8 f1 14 3e b8
       -2.839833e-05 -4.3589152e-05 -4.712316e-05 -4.5319033e-05
000070 95 5d cf b8 01 74 45 b9 fe e3 d3 36 01 24 62 35
       -9.88796e-05 -0.00018830599 6.314832e-06 8.4243953e-07
000080 d4 81 33 b7 2e 4c 82 38 ec 55 0d 38 b2 2a fa 34
       -1.0699459e-05 6.2130726e-05 3.369704e-05 4.6597194e-07
000090 6b 08 88 b8 14 de 42 b8 a4 e9 50 b7 59 46 a3 b9
       -6.486553e-05 -4.646003e-05 -1.2452165e-05 -0.00031142196
0000a0 8b 63 86 b8 cb 9d de 37 60 0b 0f b8 10 56 a8 37
       -6.408159e-05 2.653794e-05 -3.410445e-05 2.0067237e-05
0000b0 2b 68 fc b7 b0 43 74 b7 1c 49 af 37 e8 b0 bf b7
       -3.0089248e-05 -1.4559293e-05 2.089567e-05 -2.2851353e-05
0000c0 9d 5f 85 b6 b7 d5 e0 37 00 f3 eb b7 68 97 ec b7
       -3.9748397e-06 2.68024e-05 -2.8127339e-05 -2.8203896e-05
0000d0 06 2c 8a 37 09 ad 9a b8 5a de a0 38 52 29 af b8
       1.6471382e-05 -7.3755225e-05 7.670811e-05 -8.352347e-05
0000e0 1b 35 c5 b6 22 c8 c5 b8 c0 02 95 37 0a f8 eb 36
       -5.87724e-06 -9.43097e-05 1.7763465e-05 7.0324213e-06
0000f0 b4 bf e1 37 13 be 17 36 1c 96 25 b8 26 bb 32 37
       2.6911359e-05 2.2611391e-06 -3.9478866e-05 1.0653201e-05
000100 62 36 7d 36 d0 58 d4 36 c0 b8 97 b7 a4 41 ad b8
       3.7731593e-06 6.3284315e-06 -1.8086634e-05 -8.261509e-05
000110 6a 0f c4 b7 34 41 52 b8 9e b3 1e b8 f5 a8 4a 38
       -2.3372198e-05 -5.0128627e-05 -3.7837417e-05 4.8317906e-05
000120 57 99 9e b8 e0 3c 60 b9 d7 fb fd 34 ad 7e 8c b8
       -7.562589e-05 -0.00021384982 4.730816e-07 -6.6993154e-05
000130 15 95 5b 38 58 b4 15 37 82 2a 22 b8 20 87 66 38
       5.2352512e-05 8.923082e-06 -3.86634e-05 5.4962118e-05
000140 f5 a8 a9 b8 58 b1 ee b8 25 e8 9b 36 38 f2 c2 b6
       -8.090019e-05 -0.00011381757 4.646385e-06 -5.8098485e-06
000150 51 2b 03 b8 e4 c9 e5 b8 d0 c2 b9 37 b8 1d 84 b8
       -3.1273175e-05 -0.00010957176 2.2144435e-05 -6.299786e-05
000160 09 c7 88 b8 fa cd 1f b8 bc d6 71 b8 f5 27 a3 b8
       -6.5220585e-05 -3.8100385e-05 -5.7658865e-05 -7.779888e-05
000170 aa 86 93 37 8c 01 07 38 cb 36 23 b8 7c 55 3c b8
       1.7586473e-05 3.218795e-05 -3.891326e-05 -4.4902306e-05
000180 62 83 51 b8 a2 b0 f3 b8 8c f4 49 b8 aa 17 98 b6
       -4.9951843e-05 -0.000116200434 -4.8149886e-05 -4.532708e-06
000190 1e ad 1a b9 6a a7 98 b8 f6 0f 18 b8 30 1f 41 b8
       -0.00014751076 -7.279108e-05 -3.625449e-05 -4.604383e-05
0001a0 66 6c 58 b8 05 b0 02 38 af 86 e2 b8 12 3b 44 b8
       -5.1599367e-05 3.1158346e-05 -0.000108016065 -4.6785055e-05
0001b0 2b 8e 96 b7 5c 4e 94 37 9b 19 86 37 cd d0 ea 36
       -1.7947596e-05 1.7679464e-05 1.5985968e-05 6.998051e-06
0001c0 32 7f 46 38 b9 16 51 38 2e 92 52 b6 b2 79 9b b7
       4.732534e-05 4.9850645e-05 -3.1377526e-06 -1.8534109e-05
0001d0 b3 c2 d2 37 7a 9d c2 b6 43 40 0f 39 3d b7 49 b8
       2.5124615e-05 -5.7999832e-06 0.00013661482 -4.809279e-05
0001e0 eb 0d 55 37 0e 39 b6 36 6a 6e 63 b8 bc e5 da 37
       1.269903e-05 5.4306647e-06 -5.422385e-05 2.6094604e-05
0001f0 1b 60 b4 b6 4c 28 a5 37 cc 6c 24 b6 f7 d0 ab b7
       -5.375606e-06 1.9688297e-05 -2.4501232e-06 -2.0482095e-05
000200 97 77 33 b9 a9 ac 26 b9 1a 5f 99 b7 f4 38 06 38
       -0.00017115321 -0.00015895315 -1.8283306e-05 3.200113e-05
000210 35 8e 89 b8 a2 12 21 b9 a0 37 25 38 6e bd 27 37
       -6.559157e-05 -0.00015361098 3.939087e-05 9.998081e-06
000220 0d fd e3 b7 53 e5 00 38 09 d0 b9 b7 ae f9 7b b7
       -2.7178345e-05 3.0731153e-05 -2.2150592e-05 -1.5018899e-05
000230 84 48 4a 37 d5 54 2d 37 7c 9b 40 38 44 a8 9e b7
       1.2057022e-05 1.0331355e-05 4.5921173e-05 -1.8913423e-05
000240 fd 48 96 b8 7f 78 22 b8 04 0b af 38 32 37 27 b8
       -7.1661525e-05 -3.873603e-05 8.346702e-05 -3.9867307e-05
000250 6b c6 b6 38 96 86 2b b8 cd 84 dd 35 37 4c 2b b5
       8.7153945e-05 -4.089492e-05 1.6504433e-06 -6.381337e-07
000260 d5 c4 ad b8 87 fc 61 b8 5d 2d ad b8 ed 77 bd b8
       -8.285946e-05 -5.3879365e-05 -8.2577324e-05 -9.03456e-05
000270 ee ad 57 b8 7a 2a 98 b8 7b 67 df b8 57 91 84 b8
       -5.142198e-05 -7.255837e-05 -0.000106527434 -6.321322e-05
000280 82 77 14 b8 a1 bb dd b7 25 d0 ac b7 f2 5f 59 36
       -3.539725e-05 -2.6432625e-05 -2.0600923e-05 3.2391367e-06
000290 32 03 5f b7 35 d0 b3 34 89 e3 f6 37 32 05 da b7
       -1.329258e-05 3.349284e-07 2.943144e-05 -2.5990044e-05
0002a0 28 6d cc b8 0d 2f 49 b8 4e cb 46 b8 9f 0d b9 37
       -9.74781e-05 -4.7965954e-05 -4.739622e-05 2.2060061e-05
0002b0 35 3e 88 b7 85 f0 1e b8 ec 77 5d b7 d0 cf 1e 37
       -1.624143e-05 -3.7894137e-05 -1.3200548e-05 9.465919e-06
0002c0 93 e6 27 37 e0 31 4f 37 f5 63 d8 b8 b0 b0 ac b8
       1.000766e-05 1.2349774e-05 -0.00010318301 -8.23451e-05
0002d0 85 10 45 b7 24 09 e8 b6 d0 dc 1d b9 3f 0a 31 b9
       -1.1745961e-05 -6.915203e-06 -0.00015054946 -0.00016883852
0002e0 27 d4 24 b7 31 7a c3 b6 07 59 3c 38 b2 ec 34 b8
       -9.824557e-06 -5.825678e-06 4.4905606e-05 -4.3135784e-05
0002f0 8a 16 4e b6 8b 83 9c 36 dd fc c1 b7 ca 27 e4 b6
       -3.0709512e-06 4.664476e-06 -2.3125142e-05 -6.7995616e-06
000300 10 4e c6 37 72 0f eb b7 38 c5 df b7 98 a2 46 b7
       2.363979e-05 -2.8021375e-05 -2.6675509e-05 -1.18395765e-05
000310 c0 7b 0a b8 4a 32 c0 b7 aa eb 16 b9 d7 0c a6 b8
       -3.3017015e-05 -2.2911601e-05 -0.00014392906 -7.9178884e-05
000320 f9 3c a7 36 4f d3 6d 36 8d dd 8c 35 d8 d1 df b6
       4.984086e-06 3.543875e-06 1.0495293e-06 -6.670347e-06
000330 11 b4 36 36 1f 19 85 36 00 e1 f6 b4 ca 2b e6 b5
       2.7224926e-06 3.9666334e-06 -4.598478e-07 -1.714908e-06
000340 e6 33 c9 36 21 82 3b 36 45 43 29 b6 7f 3d 4f b5
       5.9963086e-06 2.7940916e-06 -2.5222118e-06 -7.7203e-07
000350 2b 7a 4b b7 5d e9 02 b7 a3 51 20 37 67 d3 65 b5
       -1.2128187e-05 -7.802938e-06 9.555751e-06 -8.561678e-07
000360 f8 cd 6d 37 17 5f df 36 86 5a 86 b3 6d 6b 15 36
       1.4174257e-05 6.656988e-06 -6.2563274e-08 2.226526e-06
000370 13 63 66 36 17 92 92 36 72 36 d8 b6 39 86 96 b6
       3.433034e-06 4.368146e-06 -6.44364e-06 -4.485974e-06
000380 27 ca 53 37 42 97 75 37 75 b6 00 37 cf 43 b7 36
       1.2623647e-05 1.4638355e-05 7.671876e-06 5.461719e-06
000390 da 17 54 37 a7 20 d5 37 aa b3 c7 b6 24 86 0f b6
       1.2641738e-05 2.5406784e-05 -5.951578e-06 -2.138674e-06
0003a0 cf 42 70 36 23 29 e7 b5 92 ea f6 b6 d8 fe a6 b6
       3.5801675e-06 -1.7222814e-06 -7.358679e-06 -4.9768532e-06
0003b0 ab c2 7a 37 8d b2 09 37 f4 b4 e1 35 b8 ae 4f 38
       1.4946486e-05 8.207408e-06 1.6816471e-06 4.9515365e-05
0003c0 7a 05 57 37 0c 21 a7 b6 8d f3 fd 36 db 58 fd b5
       1.2816274e-05 -4.980835e-06 7.5683406e-06 -1.8875829e-06
0003d0 a6 2b 16 37 67 c8 b0 36 0e 50 93 b6 3a af 9b b3
       8.950859e-06 5.2685386e-06 -4.390261e-06 -7.2496235e-08
0003e0 1b 2b fd b5 ff a4 e4 33 8c de 5b 36 bd 4b ca 36
       -1.8862514e-06 1.064709e-07 3.2763082e-06 6.028886e-06
0003f0 ff c0 92 b6 4e 40 12 35 c7 b4 05 b7 cb a2 7b 37
       -4.3736068e-06 5.4482814e-07 -7.969508e-06 1.4998669e-05
