dagster_ais/lightning_logs/version_5/checkpoints/epoch=9-step=20.ckpt (torch, 448127 bytes, 24 tensors)

rnn.weight_ih_l0 f4 [300, 2]
0.03756928 0.012905906 0.06365476 -0.028211938 0.038320098 0.07349323 -0.09015338 -0.06841545
0.050616518 0.016985659 0.028016057 0.044286437 0.031921327 0.002584511 -0.0109320935 -0.067666106
0.05734455 0.02029934 -0.053631 0.023073029 0.074397355 0.056941774 0.050761767 0.076550916
-0.07059091 0.098882094 0.08398263 -0.08130402 0.025561461 0.019885506 -0.044972908 -0.060579974
-0.07490034 -0.04789759 -0.033995908 -0.005812535 0.019837294 0.06755555 -0.03692419 0.012296173
-0.038891613 0.06290093 0.07998753 0.08105214 0.08405676 0.030785581 0.095867224 0.062386315
0.011436024 -0.02515166 -0.065394476 -0.0850236 0.01261068 -0.08860434 -0.012237739 -0.079070374
-0.033826888 -0.033374652 0.02036251 0.036564883 0.08182894 0.096507415 -0.018593863 0.067840844
0.07361661 -0.08222447 -0.022495456 -0.011029607 -0.0981805 -0.07371332 -0.057628892 -0.0359583
0.06689804 0.024660643 -0.055694036 0.0046905186 0.032117363 0.05860902 0.008899039 -0.091139555
-0.06413662 -0.063460805 -0.01197434 -0.0025299746 -0.03176773 -0.019641433 -0.029179908 -0.04831449
-0.06749456 0.01593487 0.07645252 -0.020939069 -0.06737095 0.00013902673 -0.04124071 0.009094626
0.02527596 0.02123472 0.021086315 0.074417934 0.023228664 0.08428606 0.019672846 0.054871824
0.06445156 0.046019603 -0.030705517 -0.00019729917 0.01744409 0.057723157 0.04816405 -0.08525502
-0.094466805 0.0014037023 -0.061640464 -0.011140473 0.026755385 0.01697162 0.04857568 0.006022359
0.029167803 -0.015891269 -0.051706273 0.09699595 -0.042122494 0.06823807 0.056029174 -0.076641195
-0.09940388 -0.093880184 0.022098241 0.024573872 0.0011911463 0.03918493 0.044920318 -0.09020644
0.013826378 0.094653055 -0.0611736 -0.07419475 0.014373058 0.0941342 -0.021695908 0.05055019
-0.019529875 -0.028491193 0.02181405 -0.02338705 0.08374378 0.094406076 -0.07118407 0.0044695693
0.044091053 -0.045611996 0.058671888 0.016581269 0.063977264 0.08111636 0.03369595 -0.008404132
0.03365128 -0.08585929 -0.07129723 0.057570077 0.07081168 -0.090620965 0.06650939 0.0876961
-0.026489042 -0.022278903 0.065350614 -0.007508521 -0.04444359 0.05671983 -0.040969424 0.0072594937
0.06597743 0.08546937 0.009673963 0.05551271 -0.00084641017 -0.065999605 0.0013564269 0.06237192
0.047378015 -0.07449502 0.048475437 -0.078631766 0.087214865 -0.0026107533 0.075909436 0.025902823
0.01748657 0.045850206 0.04587947 -0.04912777 0.00724772 0.05480524 -0.084691 -0.047472406
0.08923496 -0.006252455 0.04148791 0.008302877 0.008938864 0.042427707 -0.05326132 -0.021133881
0.014313928 -0.07524569 0.083020076 0.056810655 0.074956 -0.008511301 -0.09067232 -0.059033565
-0.086916916 -0.0031030248 -0.052457493 -0.0780362 -0.008254155 0.018484537 -0.09070497 0.086602286
0.09660401 -0.08643305 0.01542483 -0.0010110718 0.033323612 0.048835825 0.050111797 0.022746773
-0.09370977 -0.047844913 0.01128692 0.054441564 -0.023046773 0.041765474 -0.049077336 0.024523403
-0.036395807 -0.053278565 -0.08305793 -0.004901102 -0.006142904 0.028489282 -0.079283796 -0.08637147
0.052881036 0.020696823 -0.013892673 -0.029639788 0.012429445 -0.03831755 -0.029740345 -0.05987295
00000000: 3fe2 193d 4b73 533c 6d5d 823d b91c e7bc
00000010: 89f5 1c3d 9e83 963d 56a2 b8bd 661d 8cbd
00000020: 4453 4f3d 8225 8b3c ee81 e53c b265 353d
00000030: f0bf 023d e660 293b 861c 33bc 8794 8abd
00000040: 1ee2 6a3d cd4a a63c 2eac 5bbd a603 bd3c
00000050: a45d 983d c73b 693d 92eb 4f3d bac6 9c3d
00000060: f891 90bd b282 ca3d 16ff ab3d b982 a6bd
00000070: 4566 d13c eee6 a23c 8335 38bd b522 78bd
00000080: 5965 99bd 4330 44bd 4b3f 0bbd 1477 bebb
00000090: d281 a23c 905a 8a3d d23d 17bd e375 493c
000000a0: d04c 1fbd 34d2 803d 81d0 a33d aafe a53d
000000b0: f325 ac3d 0b32 fc3c 0956 c43d cb88 7f3d
000000c0: 295e 3b3c db0a cebc 8aed 85bd da20 aebd
000000d0: 079d 4e3c 3176 b5bd cc80 48bc a6ef a1bd
000000e0: 108e 0abd dcb3 08bd 47cf a63c 0fc5 153d
000000f0: ee95 a73d aea5 c53d 2852 98bc 24f0 8a3d
00000100: 4ec4 963d 4e65 a8bd 6448 b8bc 86b5 34bc
00000110: dc12 c9bd 02f7 96bd 460c 6cbd 0349 13bd
00000120: d701 893d 1e05 ca3c 6e1f 64bd ecb2 993b
00000130: 7f8d 033d 0310 703d 46cd 113c 60a7 babd
00000140: 0f5a 83bd bdf7 81bd 0630 44bc eecd 25bb
00000150: e11e 02bd 12e7 a0bc b40a efbc 6ae5 45bd
00000160: 963a 8abd d889 823c 2493 9c3d 6988 abbc
00000170: c8f9 89bd b4c7 1139 05ec 28bd a001 153c
00000180: 880f cf3c 6ff4 ad3c 35bd ac3c 6e68 983d
00000190: 0a4a be3c 2b9e ac3d f328 a13c 47c1 603d
000001a0: 2eff 833d 0d7f 3c3d 238a fbbc 18e2 4eb9
000001b0: e9e6 8e3c 1e6f 6c3d ab47 453d 2f9a aebd
000001c0: d077 c1bd 6ffc b73a b67a 7cbd 8886 36bc
000001d0: 1c2e db3c 1108 8b3c 4bf7 463d 3557 c53b
000001e0: 51f1 ee3c 682e 82bc f5c9 53bd d0a5 c63d
000001f0: a388 2cbd 67c0 8b3d d97e 653d 0ff6 9cbd
00000200: 4394 cbbd 4144 c0bd 5f07 b53c 254f c93c
00000210: 3d20 9c3a 6180 203d 5efe 373d 27be b8bd
00000220: 0888 623c 76d9 c13d 2b91 7abd 6bf3 97bd
00000230: fa7c 6b3c 6ec9 c03d 9ebb b1bc b70d 4f3d
00000240: 1efd 9fbc 5d66 e9bc 61b3 b23c 3396 bfbc
00000250: dc81 ab3d f957 c13d f4c8 91bd 7775 923b
00000260: d298 343d a5d3 3abd ef51 703d 71d5 873c
00000270: 8306 833d 5620 a63d c404 0a3d 7cb1 09bc
00000280: edd5 093d ffd6 afbd 4804 92bd 9ace 6b3d
00000290: b705 913d 7c97 b9bd 1336 883d 039a b33d
000002a0: 8cff d8bc 3f82 b6bc 8bd6 853d 0a0a f6bb
000002b0: 7b0a 36bd 0d53 683d 8ecf 27bd 0ce1 ed3b
000002c0: 2d1f 873d 910a af3d 8b7f 1e3c 4c61 633d
000002d0: a0e1 5dba cd2a 87bd 22ca b13a b379 7f3d
000002e0: 730f 423d d890 98bd 2e8e 463d b109 a1bd
000002f0: b59d b23d 2c19 2bbb 6876 9b3d 2832 d43c
00000300: ff3f 8f3c 6dcd 3b3d 1cec 3b3d 333a 49bd
00000310: 487e ed3b 767b 603d 7a72 adbd 6d72 42bd
00000320: d2c0 b63d 65e1 ccbb 3aef 293d ca08 083c
00000330: 5074 123c adc8 2d3d 8b28 5abd f620 adbc
00000340: f784 6a3c 6a1a 9abd 6e06 aa3d 4ab2 683d
00000350: 8882 993d fc72 0bbc 69b2 b9bd 2ecd 71bd
00000360: 7f01 b2bd 1e5c 4bbb abdd 56bd 71d1 9fbd
00000370: 6f3c 07bc e26c 973c 87c3 b9bd 8a5c b13d
00000380: 53d8 c53d d003 b1bd 6db8 7c3c f185 84ba
00000390: 577e 083d 1308 483d 0742 4d3d 7157 ba3c
000003a0: e8ea bfbd 07f9 43bd c6ec 383c 1efe 5e3d
000003b0: 96cc bcbc 4612 2b3d 5105 49bd 4ee5 c83c
000003c0: c513 15bd a03a 5abd 471a aabd 6c99 a0bb
000003d0: 6a4a c9bb 5b62 e93c 8b5f a2bd 86e3 b0bd
000003e0: c999 583d 628c a93c 189e 63bc 24cf f2bc
000003f0: dfa4 4b3c ddf2 1cbd 06a2 f3bc 573d 75bd

rnn.weight_hh_l0 f4 [300, 100]
0.0125887785 -0.09354294 0.021061111 0.008341864 -0.06823753 -0.07938408 0.060171857 -0.03797519
0.011817707 -0.053649157 0.00041549595 -0.06653549 -0.062814124 -0.053347655 0.070682324 0.044868596
-0.075056136 0.054076042 -0.015703402 0.09127461 0.004242012 0.06937208 -0.06871228 0.049303982
0.07346335 0.018213674 0.061752122 -0.01758897 -0.04502139 -0.0013818634 0.05581761 -0.05902204
0.036880255 -0.062465806 0.092647806 0.004166558 -0.048966043 -0.046284363 0.073226616 0.08382456
-0.03465587 -0.0030001623 -0.004036121 -0.08373811 0.06509137 -0.0510676 0.069240615 -0.07937721
0.018525183 0.03180852 0.07596977 -0.07848711 0.09351028 -0.02802514 -0.0057415385 0.09167048
0.008540096 -0.02324102 0.06717972 -0.09864745 0.024956116 -0.02513666 -0.081200875 0.075800285
-0.020791786 -0.071604945 0.0034611125 -0.084602684 -0.046273526 -0.043576613 -0.008603161 0.012691886
0.085316986 -0.09634548 0.06583963 -0.02909533 0.06694058 -0.097408704 0.08610754 0.008527402
-0.0432016 0.09669657 -0.012193029 0.0047196234 -0.006607557 -0.010933904 -0.09908928 0.08212978
0.03700118 0.026225349 0.021123646 -0.093740314 0.018186543 0.04365882 -0.00018795885 -0.04479733
0.073507346 0.018849988 -0.0062049585 -0.058157314 0.03151525 -0.08903226 0.09555123 -0.08936501
-0.048441418 -0.054050114 -0.063316785 0.08579803 0.09092874 -0.03468518 0.08666142 -0.05828075
0.071959145 0.09360984 -0.022778893 0.020854007 -0.03952621 0.027199188 -0.085910864 -0.040405493
0.023150265 0.08172311 -0.05887946 0.012645285 0.0542014 -0.022309158 -0.00049427134 -0.040276185
-0.09500647 -0.09761389 0.068549946 -0.05156643 0.0754334 0.07136269 0.039167617 -0.070696786
0.03580401 -0.06092011 0.020895164 0.024374109 0.04428613 0.03734426 0.06913454 0.041017607
0.09660094 -0.046573784 0.027415564 -0.045184314 -0.03193746 0.057443734 -0.09548808 0.083727345
0.031005576 -0.10094697 0.0030217853 0.06235079 0.07020167 0.006158112 -0.045800954 0.030579219
0.0879293 -0.07610963 0.091795295 0.067166105 0.06935852 -0.015762528 -0.09401045 -0.04940742
-0.07057478 -0.017464137 0.053513095 0.008407894 0.09004768 -0.04109805 -0.08896297 -0.09204981
-0.046563122 -0.034053773 -0.08312845 0.09042827 0.097276576 0.045841675 0.06851251 -0.06283693
-0.017547939 0.070830315 0.030271176 0.07232769 -0.003054291 0.05227765 -0.088222854 0.013049242
0.02048095 -0.09804219 -0.0809253 -0.052288573 0.03645496 0.091641836 -0.04921301 0.0061276653
0.0123036625 0.013248367 0.017494781 0.07317619 -0.015892008 -0.09214378 0.039698347 -0.009594703
0.052009635 -0.09971943 -0.05509256 -0.08015666 -0.06825028 -0.038559116 0.059908688 0.0059602046
-0.026648352 0.01595933 -0.0002794702 -0.029310826 -0.03494745 -0.024095073 0.08360535 0.067641065
-0.07755931 -0.058895476 -0.03897025 0.044132307 0.08884379 -0.05919168 0.02076795 0.044021785
-0.038855374 0.00048647734 -0.071557984 0.029520081 0.03807294 -0.025476778 -0.08413887 -0.07526581
0.09442025 0.022756124 0.052457493 -0.034169674 -0.019582849 0.040935297 0.038011927 -0.0008018649
0.035815146 0.080688514 -0.021110129 0.07490695 0.0076414924 -0.07941401 -0.0046774666 0.03367887
00000000: 2a41 4e3c 7193 bfbd 5a88 ac3c 50ac 083c
00000010: 1ec0 8bbd 1f94 a2bd c476 763d df8b 1bbd
00000020: 0e9f 413c 38bf 5bbd ecd6 d939 c243 88bd
00000030: b1a4 80bd 1283 5abd e5c1 903d 22c8 373d
00000040: 08b7 99bd d77e 5d3d 6ca4 80bc 2fee ba3d
00000050: 9300 8b3b f312 8e3d 06b9 8cbd f9f2 493d
00000060: f473 963d d834 953c cbef 7c3d be16 90bc
00000070: 5968 38bd a41f b5ba 02a1 643d 18c1 71bd
00000080: c00f 173d 25dc 7fbd 22be bd3d 9f87 883b
00000090: 9e90 48bd ac94 3dbd d6f7 953d 36ac ab3d
000000a0: 50f3 0dbd 5f9e 44bb 7041 84bb e37e abbd
000000b0: a04e 853d 422c 51bd 06ce 8d3d 8590 a2bd
000000c0: 20c2 973c a749 023d 0a96 9b3d dabd a0bd
000000d0: 5182 bf3d fa94 e5bc 8423 bcbb bcbd bb3d
000000e0: c2eb 0b3c f463 bebc 8595 893d ad07 cabd
000000f0: c570 cc3c 66eb cdbc a54c a6bd 2e3d 9b3d
00000100: 8953 aabc 9da5 92bd d5d3 623b 2c44 adbd
00000110: 4f89 3dbd 647d 32bd 46f4 0cbc a1f1 4f3c
00000120: acba ae3d c750 c5bd eed6 863d 5459 eebc
00000130: 2518 893d 377e c7bd 2659 b03d 84b6 0b3c
00000140: 29f4 30bd da08 c63d 45c5 47bc 12a7 9a3b
00000150: 3584 d8bb 1e24 33bc 52ef cabd a833 a83d
00000160: 8d8e 173d 8bd6 d63c 7f0b ad3c ecfa bfbd
00000170: f2fb 943c 97d3 323d d216 45b9 687d 37bd
00000180: 058b 963d 4a6b 9a3c f752 cbbb 5d36 6ebd
00000190: 2316 013d 8c56 b6bd 5db0 c33d 0105 b7bd
000001a0: 826a 46bd a763 5dbd 3bac 81bd e1b6 af3d
000001b0: d938 ba3d 0c12 0ebd 8b7b b13d ccb7 6ebd
000001c0: 515f 933d 84b6 bf3d cd9a babc 06d6 aa3c
000001d0: 3ce6 21bd d5d0 de3c 09f2 afbd 3b80 25bd
000001e0: a0a5 bd3c 725e a73d 972b 71bd 2b2e 4f3c
000001f0: 4a02 5e3d b2c1 b6bc fd91 01ba a4f8 24bd
00000200: c192 c2bd cbe9 c7bd ea63 8c3d 5237 53bd
00000210: d47c 9a3d 9a26 923d 396e 203d 7ac9 90bd
00000220: 3aa7 123d 5e87 79bd 562c ab3c 36ac c73c
00000230: 6065 353d 4bf6 183d 6996 8d3d 1402 283d
00000240: b7d6 c53d 27c4 3ebd 9b96 e03c 3013 39bd
00000250: dbd0 02bd 1f4a 6b3d 418f c3bd 3e79 ab3d
00000260: 68ff fd3c 49bd cebd 2509 463b 8b63 7f3d
00000270: e5c5 8f3d fdc9 c93b c899 3bbd 4581 fa3c
00000280: 4714 b43d 5edf 9bbd 2cff bb3d 628e 893d
00000290: d70b 8e3d 6b20 81bc 8d88 c0bd 6f5f 4abd
000002a0: 8389 90bd f310 8fbc 8c30 5b3d 43c1 093c
000002b0: eb6a b83d 6e56 28bd 3832 b6bd 9c84 bcbd
000002c0: f9b8 3ebd f87b 0bbd 403f aabd 7532 b93d
000002d0: f138 c73d 7bc4 3b3d 4950 8c3d a6b0 80bd
000002e0: b2c0 8fbc 7c0f 913d 42fb f73c 8a20 943d
000002f0: 802a 48bb 1721 563d 2fae b4bd 7dcc 553c
00000300: aac7 a73c 58ca c8bd 2abc a5bd 8b2c 56bd
00000310: cc51 153d b7ae bb3d 9593 49bd 95ca c83b
00000320: 4d95 493c ae0f 593c 3751 8f3c 66dd 953d
00000330: f52f 82bc e1b5 bcbd bc9a 223d 1a33 1dbc
00000340: 0e08 553d b339 ccbd bca8 61bd 2d29 a4bd
00000350: cec6 8bbd 2af0 1dbd d062 753d d24d c33b
00000360: a54d dabc 24bd 823c db85 92b9 421d f0bc
00000370: 0f25 0fbd 0863 c5bc 4839 ab3d 6687 8a3d
00000380: 6ad7 9ebd 623c 71bd 459f 1fbd 14c4 343d
00000390: bcf3 b53d fa72 72bd 8c21 aa3c 3050 343d
000003a0: d026 1fbd e20d ff39 fe8c 92bd 19d4 f13c
000003b0: 5ff2 1b3d adb4 d0bc 0051 acbd f624 9abd
000003c0: 675f c13d 0d6b ba3c abdd 563d 80f5 0bbd
000003d0: 366c a0bc c5ab 273d 65b2 1b3d 3e34 52ba
000003e0: e7b2 123d 0540 a53d 26ef acbc d168 993d
000003f0: 7c65 fa3b d0a3 a2bd 6f45 99bb dbf2 093d

rnn.bias_ih_l0 f4 [300]
0.019181559 0.029421976 0.05930684 0.072037965 0.016343625 -0.09226655 0.05699152 -0.056907807
-0.009416677 -0.06890753 -0.045196537 0.06822828 0.036206096 0.033438213 0.054972313 -0.030684775
-0.053440243 -0.07940439 0.06624043 -0.03369731 -0.0083425855 0.04892765 -0.07355514 -0.05646426
-0.020088574 -0.010636026 -0.040330436 -0.09554321 -0.08883887 -0.057460908 -0.046130847 0.04686052
-0.073780455 0.03060944 0.09305533 -0.049488064 -0.02288651 -0.08635826 -0.00987688 0.039980028
0.0925437 -0.067241244 -0.039003655 0.024348307 -0.0059757275 0.006112913 0.01849539 0.088142
-0.050822053 0.0676979 0.08471774 0.013814399 0.013967702 0.032506634 -0.03395034 -0.031015776
0.011735749 -0.071965836 -0.048327167 -0.08592487 -0.05530775 0.041371975 0.025380401 0.05740617
-0.0053741285 0.034419987 -0.03026901 -0.02079707 -0.09797746 0.014301442 0.035657324 -0.0977886
-0.025252875 0.032622125 -0.0150802415 0.09604991 0.0501926 0.099828266 0.00566006 -0.026849909
-0.033897635 0.01812272 0.06394563 0.07001575 0.030365702 -0.07694105 0.07205058 0.06053167
0.045113005 0.03581008 0.06185234 -0.0051487037 -0.02233703 0.022171637 0.012055954 0.05023843
0.0053168763 0.08175164 -0.052900232 0.05825301 -0.025305547 0.021265648 0.05598623 -0.06247922
0.08769637 -0.019280989 -0.0028967902 -0.014187725 0.06275325 -0.038557254 -0.07451191 -0.014440578
-0.021043561 -0.057793576 -0.07849126 -0.048644543 -0.062415954 -0.0042759595 -0.009743741 0.029515058
-0.016971929 -0.097365014 0.08643814 -0.017116787 0.10079272 0.028977387 0.050171055 -0.09953966
0.04812904 0.063263625 -0.02733436 -0.017187761 -0.08944227 0.097165056 0.053482935 0.024510201
0.07646294 -0.024980951 0.062921934 0.02021804 -0.03597312 0.07627587 -0.025173865 0.018938819
-0.009162005 -0.011024694 0.072158694 -0.07780591 -0.00037054287 0.04706689 0.045746095 0.07222415
-0.01588596 0.08298265 0.048271663 -0.09038931 0.06748188 0.005869349 0.061305124 0.002574601
0.04581794 -0.053339306 0.048400916 0.05156818 -0.08041887 -0.07024696 -0.012690083 -0.08109218
-0.04396177 -0.05769995 -0.020102486 -0.020488337 0.04661466 0.020435335 0.08727001 0.008918639
0.07087177 0.076331414 0.0652223 -0.019166742 0.0071120798 0.02893897 0.023430146 -0.052100003
0.08548572 0.032051656 0.088153794 -0.091588214 0.01733013 0.043812588 0.03008746 -0.019095287
0.016933272 0.070509434 -0.004075525 -0.017016515 0.0064192624 0.009560728 -0.033759493 -0.001504639
0.04058924 -0.028519513 -0.038215954 -0.07644917 0.096530244 0.016814016 0.08904264 -0.03939687
-0.08066854 0.039223604 0.090548836 -0.03161051 -0.010064713 -0.013384746 -0.07446438 -0.0914498
-0.0017635353 -0.019893717 -0.09454591 0.020161565 0.06879552 0.04287168 0.08548112 -0.09491473
-0.09237658 -0.06650653 0.0062139677 0.0005303402 0.100686215 -0.09001194 -0.049533084 0.057097957
0.046560798 0.018721469 0.06956056 -0.026145272 0.040255375 -0.0700598 0.059842937 0.08872023
-0.052943166 0.08464199 -0.081534356 -0.011693731 0.04305659 -0.030635688 -0.026073266 -0.050944183
0.020540873 -0.044674765 -0.046720468 0.047034167 0.08482717 0.051794015 0.08379229 -0.013336825
00000000: a522 9d3c 5b06 f13c bbeb 723d a488 933d
00000010: 11e3 853c 3ff6 bcbd f16f 693d 2918 69bd
00000020: 6848 1abc 641f 8dbd 0120 39bd 45bb 8b3d
00000030: d84c 143d 82f6 083d a62a 613d a35e fbbc
00000040: 28e4 5abd c59e a2bd 10a9 873d 3106 0abd
00000050: 57af 08bc 5c68 483d 14a4 96bd 1147 67bd
00000060: cb90 a4bc ba42 2ebc 8731 25bd 29ac c3bd
00000070: 27f1 b5bd 215c 6bbd b3f3 3cbd d1f0 3f3d
00000080: 351a 97bd a6c0 fa3c cb93 be3d ffb3 4abd
00000090: 7d7c bbbc 99dc b0bd a3d2 21bc 19c2 233d
000000a0: 8d87 bd3d c7b5 89bd 4cc2 1fbd 1a76 c73c
000000b0: 09d0 c3bb d54e c83b a583 973c cb83 b43d
000000c0: c92a 50bd 32a5 8a3d 7f80 ad3d ca55 623c
000000d0: cad8 643c ad25 053d 830f 0bbd cc14 febc
000000e0: 4d47 403c d362 93bd b5f2 45bd 61f9 afbd
000000f0: 618a 62bd a975 293d 8fea cf3c bb22 6b3d
00000100: 7519 b0bb f9fb 0c3d b7f6 f7bc 9e5e aabc
00000110: 68a8 c8bd 9850 6a3c 6a0d 123d 6445 c8bd
00000120: 1edf cebc c79e 053d 1e13 77bc d1b5 c43d
00000130: c196 4d3d c372 cc3d 0678 b93b 57f4 dbbc
00000140: 3fd8 0abd 1976 943c edf5 823d 6b64 8f3d
00000150: 7ec1 f83c 4593 9dbd 418f 933d 0ef0 773d
00000160: 6ac8 383d 97ad 123d e158 7d3d 75b6 a8bb
00000170: 26fc b6bc 4ba1 b53c 5686 453c d0c6 4d3d
00000180: 3139 ae3b 676d a73d eaad 58bd b59a 6e3d
00000190: 944d cfbc 4c35 ae3c d151 653d 36ea 7fbd
000001a0: 289a b33d 2af3 9dbc 13d8 3dbb a273 68bc
000001b0: c784 803d 36ee 1dbd b399 98bd 2d98 6cbc
000001c0: 8c63 acbc f5b8 6cbd 07c0 a0bd 803f 47bd
000001d0: dfa7 7fbd 591d 8cbb 36a4 1fbc 90c9 f13c
000001e0: b708 8bbc 4f67 c7bd 7b06 b13d 8138 8cbc
000001f0: 6a6c ce3d fc61 ed3c 2a80 4d3d 73db cbbd
00000200: f522 453d 5c90 813d 4fec dfbc 59cd 8cbc
00000210: 822d b7bd 79fe c63d ec10 5b3d 9ec9 c83c
00000220: 9a98 9c3d daa4 ccbc 37dd 803d 4ea0 a53c
00000230: 8d58 13bd 8636 9c3d 6c39 cebc 9525 9b3c
00000240: 3c1c 16bc eba0 34bc f0c7 933d b458 9fbd
00000250: 6c45 c2b9 36c9 403d 4260 3b3d 41ea 933d
00000260: 4623 82bc cff2 a93d 82b8 453d 081e b9bd
00000270: f133 8a3d ab53 c03b 151b 7b3d a3ba 283b
00000280: 98ab 3b3d 517a 5abd 0a40 463d 2839 533d
00000290: a6b2 a4bd a3dd 8fbd 11ea 4fbc a813 a6bd
000002a0: 4211 34bd c856 6cbd f8ad a4bc 28d7 a7bc
000002b0: 04ef 3e3d 0168 a73c 9eba b23d 7c1f 123c
000002c0: 3825 913d a553 9c3d 4593 853d 9203 9dbc
000002d0: 730c e93b 6b11 ed3c 94f0 bf3c d066 55bd
000002e0: 2313 af3d 9948 033d fa89 b43d 9a92 bbbd
000002f0: ebf7 8d3c d474 333d fa79 f63c b86d 9cbc
00000300: a5b7 8a3c 4067 903d fb8b 85bb 3866 8bbc
00000310: ad58 d23b 9aa4 1c3c 6547 0abd 4f37 c5ba
00000320: e740 263d c1a1 e9bc 5588 1cbd 6291 9cbd
00000330: a6b1 c53d 8cbd 893c fd5b b63d 9d5e 21bd
00000340: 8c35 a5bd eea8 203d ab71 b93d 067a 01bd
00000350: 77e6 24bc b24b 5bbc c880 98bd 084a bbbd
00000360: 6d26 e7ba 26f8 a2bc 49a1 c1bd de29 a53c
00000370: aae4 8c3d 379a 2f3d ba10 af3d a762 c2bd
00000380: ef2f bdbd 9334 88bd 8a9e cb3b 8706 0b3a
00000390: 9334 ce3d 2e58 b8bd 34e3 4abd 8cdf 693d
000003a0: 89b6 3e3d c45d 993c c475 8e3d 9c2e d6bc
000003b0: d2e2 243d 837b 8fbd de1d 753d f4b2 b53d
000003c0: efda 58bd c858 ad3d 7cfb a6bd 1097 3fbc
000003d0: 1b5c 303d b2f7 fabc 9a97 d5bc d9aa 50bd
000003e0: 5545 a83c e3fc 36bd f65d 3fbd e6a6 403d
000003f0: deb9 ad3d f625 543d 4b9b ab3d b382 5abc

rnn.bias_hh_l0 f4 [300]
0.08135101 0.008939931 -0.007680912 0.07206895 -0.05079084 0.0846547 -0.034409486 0.06878278
0.090831175 0.038954932 -0.081719086 0.074242234 -0.033597324 -0.0907179 -0.06524461 -0.016241057
0.030980883 -0.057743218 0.09738271 0.00096574816 -0.059047185 -0.02579679 -0.091122426 -0.09273802
0.09670958 -0.045974214 -0.06958014 0.02043304 -0.043256484 -0.050413646 -0.0409408 0.033768732
-0.011800357 0.0618595 -0.024252791 0.022522742 -0.061907165 0.026741086 -0.03356994 -0.09494957
-0.07015102 -0.04407165 -0.055726178 -0.09816898 0.025729328 0.05612346 -0.09504074 0.020733904
0.080909304 -0.021379692 0.04413111 0.010043452 0.04774318 0.02783389 0.013574359 -0.09392617
0.062244944 -0.08549082 -0.009472981 0.04376896 -0.02049977 -0.0019599104 -0.014338432 0.089793265
0.077030525 0.009803431 -0.058219463 0.0037019914 -0.03477108 -0.09983251 -0.029128639 -0.09165168
-0.028404457 -0.029488418 -0.08890563 -0.06082687 0.08601979 -0.09468111 0.08483083 0.046961777
0.05861066 -0.022157982 -0.019011553 -0.010416748 -0.086849526 -0.01662221 0.062286425 0.08460583
-0.086369656 0.07589258 -0.04809694 0.022832291 -0.07370872 -0.09913527 -0.08657447 0.068453744
0.01861342 -0.013039332 -0.054036237 0.09331241 0.099634714 -0.09281798 0.016489144 0.020355256
-0.05569477 0.016178196 -0.08852569 0.09757751 -0.066122614 -0.051821947 -0.011316161 0.03273061
0.05786964 0.067590885 -0.04473139 0.094922185 -0.036517616 -0.01988565 -0.057169136 -0.0992538
0.0008093647 0.0690786 0.0885803 -0.08645895 0.030560147 0.05924378 -0.027662352 0.086543046
0.01716048 0.021419086 -0.07766872 0.09595603 0.07093472 0.08874908 0.0771925 -0.0025976794
0.06326771 0.0132883005 0.09840577 0.007432807 0.06326123 0.022973483 -0.09362546 -0.0789908
0.0834225 -0.025721438 -0.006104203 0.087047346 -0.007895212 -0.09225024 0.05159472 -0.01488268
0.03559007 0.091608934 0.03760889 0.09801425 0.008896734 0.044934135 -0.06852607 -0.012588692
0.096716575 -0.07942558 0.03130174 -0.008408062 0.065759905 -0.02401857 -0.015288631 0.0050313273
-0.07693896 0.0060341638 -0.041114416 -0.037963625 0.049641326 -0.0907474 0.07513448 0.0419675
0.09812641 -0.049673624 0.017497608 0.075830065 0.08248598 -0.03466989 0.09660431 0.053398706
0.06652479 0.069764234 -0.040974412 0.06406435 0.025595495 0.037103906 -0.051749337 0.03577813
-0.018048374 -0.021960549 -0.08427228 0.08694925 0.029087575 -0.08976943 -0.06728401 0.017931579
-0.0059261834 -0.055929884 -0.06362518 0.081004225 0.09377012 0.039705724 0.030612009 0.009573318
-0.04429501 0.004952691 0.055237785 -0.065841295 0.030955784 0.03578827 -0.01583426 -0.0718112
0.09100492 0.096817486 -0.04664262 -0.06409134 -0.04021415 0.035821754 -0.08458403 0.018534197
0.06694059 -0.033832986 -0.04321956 0.07893614 -0.0045300857 -0.028789204 0.08510516 0.08908017
-0.08910312 -0.08253129 0.026557855 -0.02003855 0.0005313271 0.035315193 -0.047161363 0.03736455
0.080235444 -0.049823992 0.016503075 0.0035452982 -0.018522788 -0.055542886 -0.014203442 -0.040514182
-0.035398085 0.027427819 0.083020575 0.08414553 -0.03041112 -0.038845357 0.056079656 0.035404366
00000000: 5c9b a63d ca78 123c 29b0 fbbb e398 933d
00000010: 0e0a 50bd 715f ad3d f6f0 0cbd fcdd 8c3d
00000020: b205 ba3d 358f 1f3d 565c a7bd 500c 983d
00000030: 599d 09bd 4eca b9bd f79e 85bd f70b 85bc
00000040: 9fcb fd3c 2784 6cbd 9670 c73d 432a 7d3a
00000050: 76db 71bd ca53 d3bc 659e babd 6eed bdbd
00000060: ac0f c63d 754f 3cbd 0880 8ebd 3163 a73c
00000070: b62d 31bd 8a7e 4ebd 8ab1 27bd 1551 0a3d
00000080: 4956 41bc 6360 7d3d caad c6bc 9d81 b83c
00000090: 5e92 7dbd 1f10 db3c a280 09bd ec74 c2bd
000000a0: 57ab 8fbd 7984 34bd 2241 64bd d10c c9bd
000000b0: 50c6 d23c b7e1 653d b8a4 c2bd 26da a93c
000000c0: c7b3 a53d 7724 afbc d3c2 343d 4a8d 243c
000000d0: 5a8e 433d e603 e43c fd66 5e3c 5d5c c0bd
000000e0: 8ef4 7e3d d015 afbd 9034 1bbc 1547 333d
000000f0: 22ef a7bc d771 00bb beeb 6abc 88e5 b73d
00000100: 2ec2 9d3d 929e 203c 8877 6ebd 1c9d 723b
00000110: 1f6c 0ebd fd74 ccbd 2f9f eebc e0b3 bbbd
00000120: 77b0 e8bc b291 f1bc 2814 b6bd 9925 79bd
00000130: 252b b03d 2be8 c1bd c9bb ad3d fe5a 403d
00000140: bb11 703d a884 b5bc 1ebe 9bbc 02ab 2abc
00000150: 2ade b1bd 4d2b 88bc 0d20 7f3d d245 ad3d
00000160: 93e2 b0bd 926d 9b3d 4c01 45bd c90a bb3c
00000170: 99f4 96bd 6f07 cbbd f54d b1bd 7a31 8c3d
00000180: 2c7b 983c eca2 55bc 1a55 5dbd 941a bf3d
00000190: 490d cc3d 5a17 bebd 3e14 873c 11c0 a63c
000001a0: 3320 64bd 2388 843c f54c b5bd b8d6 c73d
000001b0: 4b6b 87bd 4043 54bd 6b67 39bc 8810 063d
000001c0: b708 6d3d 176d 8a3d 4338 37bd 9066 c23d
000001d0: 7f93 15bd 3be7 a2bc 2f2a 6abd 9445 cbbd
000001e0: 8c2b 543a 1579 8d3d 9769 b53d 6411 b1bd
000001f0: 4659 fa3c 9ba9 723d 289c e2bc 7b3d b13d
00000200: 2394 8c3c 1477 af3c c710 9fbd 9884 c43d
00000210: 3946 913d 14c2 b53d 1a17 9e3d d43d 2abb
00000220: 8092 813d 2cb7 593c f788 c93d e78e f33b
00000230: 1b8f 813d e332 bc3c b5be bfbd eec5 a1bd
00000240: 6ad9 aa3d c4b5 d2bc c405 c8bb e145 b23d
00000250: eb5a 01bc b2ed bcbd fc54 533d 7cd6 73bc
00000260: e5c6 113d 779d bb3d c80b 1a3d b2bb c83d
00000270: 9bc3 113c db0c 383d 6557 8cbd cd40 4ebc
00000280: 5713 c63d e1a9 a2bd 4136 003d f8c1 09bc
00000290: 21ad 863d 98c2 c4bc 2b7d 7abc d5dd a43b
000002a0: 2c92 9dbd 3cba c53b 9767 28bd bf7f 1bbd
000002b0: b454 4b3d c6d9 b9bd 1be0 993d 1de6 2b3d
000002c0: 80f6 c83d 9276 4bbd 2557 8f3c cb4c 9b3d
000002d0: 69ee a83d 0402 0ebd 7bd8 c53d 9ab8 5a3d
000002e0: 263e 883d 8de0 8e3d c9d4 27bd 2c34 833d
000002f0: a5ad d13c 44fa 173d 1df7 53bd 178c 123d
00000300: 2fda 93bc 9ce6 b3bc f296 acbd 7312 b23d
00000310: 1149 ee3c 09d9 b7bd 33cc 89bd 3fe5 923c
00000320: 6e30 c2bb bc16 65bd eb4d 82bd 8be5 a53d
00000330: 8c0a c03d 78a2 223d 09c6 fa3c 68d9 1c3c
00000340: af6e 35bd 2f4a a23b 0441 623d cdd7 86bd
00000350: fc96 fd3c b996 123d dab6 81bc c011 93bd
00000360: ca60 ba3d 3f48 c63d 550c 3fbd 5242 83bd
00000370: 98b7 24bd d5b9 123d 643a adbd 07d5 973c
00000380: 2618 893d 7594 0abd fe06 31bd 45a9 a13d
00000390: 1d71 94bb 56d7 ebbc 9d4b ae3d aa6f b63d
000003a0: b27b b6bd 2a06 a9bd dc8f d93c e327 a4bc
000003b0: c248 0b3a aaa6 103d 462c 41bd 920b 193d
000003c0: 7b52 a43d 3e14 4cbd 7531 873c 3c58 683b
000003d0: 1abd 97bc f080 63bd 8eb5 68bc 33f2 25bd
000003e0: 95fd 10bd 4eb0 e03c b106 aa3d 7e54 ac3d
000003f0: be20 f9bc 4f1c 1fbd c8b3 653d 2b04 113d

fc_out1.weight f4 [50, 100]
-0.058511417 0.09016424 0.011643727 -0.08497683 -0.04239445 -0.07972523 -0.07978413 -0.039233882
-0.026299385 0.060616486 0.095383815 0.04015365 0.02593131 0.08830844 -0.060411133 0.053648237
-0.007458324 0.026588757 -0.041691303 0.093454085 0.014390015 -0.004150804 -0.016919779 0.052546654
-0.010858414 -0.044581205 -0.09205406 -0.009524753 0.086869024 0.0060836966 0.09608265 0.07075966
0.04322912 -0.062996835 -0.03366175 -0.058161438 0.024810964 0.005186101 -0.09756347 0.05729521
0.06815557 0.035594594 -0.058869075 0.06675166 0.05353024 0.058514297 0.059214134 0.030693313
0.07407082 -0.07161327 -0.00083149376 0.03987853 -0.03367563 -0.071887515 -0.033084214 -0.06479435
0.06963774 -0.02073542 0.0077006957 0.02836018 0.058354538 -0.019399544 -0.06957563 -0.045719862
-0.06365112 -0.049596485 0.0043783453 0.031123845 -0.025975436 -0.062913276 0.03781961 -0.08583487
0.09980322 -0.033171915 -0.050948214 -0.0689502 0.053303942 0.003789968 -0.08919612 0.04285385
-0.059122544 0.009129097 0.091601335 -0.05155561 0.0022801724 -0.022428298 0.07804591 0.0004080314
0.008213348 -0.043277565 -0.05780578 0.050975367 0.0038259185 -0.010488251 -0.09187536 -0.05660378
0.09138516 -0.09657673 0.03263069 -0.062147718 -0.06641066 0.057042528 -0.04100572 -0.03918686
-0.0043604015 0.04510924 0.08125837 0.09355296 -0.0917963 -0.096481085 0.026193036 -0.05611652
-0.08390017 0.040097296 -0.008853483 -0.028718472 0.019712115 -0.039317157 -0.09156573 -0.065157704
-0.028842652 -0.04031111 0.023412598 -0.055168834 -0.017230654 0.036884822 -0.042850353 -0.09832811
-0.03250852 -0.012042725 0.031941295 -0.07499993 -0.03676028 -0.0823162 0.08994514 0.056744408
0.057901442 -0.0964252 0.071701005 0.06876041 0.0908401 -0.062300064 0.061278023 -0.07037908
0.062970795 0.011419428 -0.07159126 -0.05300516 0.0356959 -0.011332536 0.0330559 -0.07076158
-0.04905981 -0.035051133 0.05098181 0.029946446 0.04417926 0.05367265 -0.03271526 -0.020766247
0.050428808 -0.015587783 0.013211513 -0.04084742 -0.012303627 0.0026385188 -0.09747795 -0.09879726
-0.06760564 0.049365293 0.09526451 0.067448996 -0.08133054 0.049584426 8.9049345e-06 0.05676161
0.08068093 0.036189627 0.07763258 0.010521973 -0.067934595 0.011022294 0.080355026 0.062106397
0.00067276956 -0.033251442 -0.060325004 0.04622611 -0.018356312 -0.042904474 0.06415316 -0.08664234
-0.080272615 0.05431005 -0.05175061 0.08486992 0.023119975 0.02571851 0.086654 -0.0735985
-0.0057575605 -0.06903365 0.07162587 -0.054482963 0.097051196 0.0069095083 0.07712155 0.009569786
-0.04495106 0.100213096 -0.052012566 -0.041345544 -0.05980447 0.083734974 0.030449433 -0.05452971
-0.065678194 6.1392406e-05 0.050927233 0.040561486 -0.06489788 -0.02819884 -0.08466346 -0.06648625
-0.05387382 0.068951264 0.032602854 0.07211202 -0.077831194 -0.0993261 -0.06830363 0.018873636
-0.042658 0.046407375 -0.07319302 0.008003011 0.041767526 -0.01187424 -0.04737759 -0.059573222
-0.040454723 -0.032952156 -0.05930752 0.09167572 -0.01577858 0.025332827 0.09718744 0.022977527
0.040722474 -0.082209416 0.05691878 -0.080077544 0.09454757 0.016948072 -0.043582495 0.08370369
00000000: aba9 6fbd 07a8 b83d 55c5 3e3c 5508 aebd
00000010: cea5 2dbd fb46 a3bd dd65 a3bd b5b3 20bd
00000020: cf71 d7bc fe48 783d 9758 c33d 2778 243d
00000030: e66d d43c 0edb b43d aa71 77bd 41be 5b3d
00000040: f564 f4bb aad0 d93c 80c4 2abd db64 bf3d
00000050: 19c4 6b3c 7803 88bb 599b 8abc 293b 573d
00000060: 7de7 31bc c89a 36bd d786 bcbd b60d 1cbc
00000070: 63e8 b13d bf59 c73b fbc6 c43d 71ea 903d
00000080: 0511 313d 7c04 81bd e7e0 09bd b03a 6ebd
00000090: 5d40 cb3c 2bf0 a93b 5bcf c7bd 62ae 6a3d
000000a0: 2695 8b3d a3cb 113d b320 71bd 18b5 883d
000000b0: 8642 5b3d b0ac 6f3d 858a 723d 8b70 fb3c
000000c0: 71b2 973d faa9 92bd 9af8 59ba ab57 233d
000000d0: 75ef 09bd c339 93bd 5083 07bd e6b2 84bd
000000e0: 3b9e 8e3d 54dd a9bc 1e56 fc3b 9c53 e83c
000000f0: 2b05 6f3d cbeb 9ebc ab7d 8ebd c044 3bbd
00000100: 855b 82bd af25 4bbd 3978 8f3b 6ff7 fe3c
00000110: 70ca d4bc add8 80bd bce8 1a3d 31ca afbd
00000120: a165 cc3d 46df 07bd 13af 50bd c335 8dbd
00000130: 3c55 5a3d 1d61 783b 75ac b6bd 8587 2f3d
00000140: 7b2a 72bd 3592 153c 7b99 bb3d fa2b 53bd
00000150: f26e 153b 8dbb b7bc 89d6 9f3d 0ced d539
00000160: 4791 063c d143 31bd c1c5 6cbd 8ccb 503d
00000170: 43bc 7a3b ead6 2bbc 2629 bcbd 5dd9 67bd
00000180: 2528 bb3d 05ca c5bd c2a7 053d 9b8e 7ebd
00000190: 5002 88bd 6da5 693d 9df5 27bd 6782 20bd
000001a0: b3e1 8ebb 77c4 383d ca6a a63d b298 bf3d
000001b0: b3ff bbbd e097 c5bd c792 d63c 70da 65bd
000001c0: dad3 abbd 103d 243d 330e 11bc 0043 ebbc
000001d0: 4d7b a13c 070b 21bd d086 bbbd 6771 85bd
000001e0: 6d47 ecbc 431d 25bd c7cb bf3c b7f8 61bd
000001f0: 4d27 8dbc 8a14 173d da83 2fbd 4060 c9bd
00000200: a727 05bd da4e 45bc e0d4 023d 9099 99bd
00000210: f391 16bd 6595 a8bd 2835 b83d d36c 683d
00000220: 102a 6d3d 937a c5bd fad7 923d 42d2 8c3d
00000230: 600a ba3d 5a2e 7fbd aafe 7a3d e822 90bd
00000240: d5f6 803d 8d18 3b3c 709e 92bd f01b 59bd
00000250: dd35 123d 1aac 39bc a065 073d 72eb 90bd
00000260: f0f2 48bd c791 0fbd 4dd2 503d 4052 f53c
00000270: 50f5 343d dad7 5b3d 7000 06bd fa1d aabc
00000280: 708e 4e3d e763 7fbc 1a75 583c a04f 27bd
00000290: 2795 49bc 00eb 2c3b 85a2 c7bd 3856 cabd
000002a0: d374 8abd 4333 4a3d 0a1a c33d b322 8a3d
000002b0: a090 a6bd 0a19 4b3d 6766 1537 dd7e 683d
000002c0: 0b3c a53d 933b 143d d5fd 9e3d 5a64 2c3c
000002d0: 4b21 8bbd da96 343c 2d91 a43d 4763 7e3d
000002e0: cd5c 303a aa32 08bd 5a17 77bd 9757 3d3d
000002f0: fa5f 96bc 9abc 2fbd bb62 833d 8a71 b1bd
00000300: f865 a4bd 3774 5e3d 73f8 53bd 48d0 ad3d
00000310: 1a66 bd3c a0af d23c a777 b13d cfba 96bd
00000320: eba9 bcbb 8461 8dbd 96b0 923d 8729 5fbd
00000330: c7c2 c63d 2869 e23b e7f1 9d3d 97ca 1c3c
00000340: 9a1e 38bd 863c cd3d 210b 55bd f259 29bd
00000350: 88f5 74bd 3e7d ab3d 1771 f93c 8c5a 5fbd
00000360: 4a82 86bd ccbf 8038 1399 503d cd23 263d
00000370: 2ee9 84bd 4101 e7bc 0964 adbd f129 88bd
00000380: cbaa 5cbd 5236 8d3d 928a 053d 77af 933d
00000390: f665 9fbd 7b6b cbbd c6e2 8bbd e29c 9a3c
000003a0: 28ba 2ebd a915 3e3d 39e6 95bd 101f 033c
000003b0: 6d14 2b3d 2c8c 42bc 010f 42bd 0d03 74bd
000003c0: dab3 25bd d7f8 06bd 71ec 72bd 7bc0 bb3d
000003d0: 1542 81bc ca86 cf3c 350a c73d 5e3b bc3c
000003e0: 9ccc 263d 695d a8bd ab23 693d b2ff a3bd
000003f0: 28a2 c13d afd6 8a3c 8f83 32bd d76c ab3d

fc_out1.bias f4 [50]
0.0062478953 -0.09500321 -0.07843165 -0.08530755 -0.064284466 -0.072247244 -0.047149576 -0.05636238
-0.033165574 -0.075652204 0.028940694 -0.013480143 0.087633386 0.09401186 -0.01933566 -0.008911728
0.079411946 0.07374988 -0.06773632 -0.049762096 0.030473601 -0.09617509 -0.032916155 0.07036607
0.0411369 0.07005738 -0.08382015 -0.09150682 -0.057359267 0.013860234 0.034349054 0.05625058
0.015551604 0.050271615 0.0111138895 -0.09731723 -0.005618295 0.07974302 -0.07573771 -0.086721316
0.09750137 0.06377302 0.09888493 0.07402099 0.09740233 0.08940158 0.00027516088 0.019938674
-0.06499751 0.08972875
00000000: 25bb cc3b 0b91 c2bd c6a0 a0bd bab5 aebd
00000010: 93a7 83bd 5df6 93bd ea1f 41bd 3ddc 66bd
00000020: a0d8 07bd 8bef 9abd 0915 ed3c d1db 5cbc
00000030: 2279 b33d 4a89 c03d d165 9ebc 7f02 12bc
00000040: bba2 a23d 2d0a 973d 57b9 8abd 57d3 4bbd
00000050: c6a3 f93c 72f7 c4bd 17d3 06bd 161c 903d
00000060: 2b7f 283d 3e7a 8f3d e6a9 abbd ed67 bbbd
00000070: 8df1 6abd 0916 633c 98b1 0c3d 0267 663d
00000080: 28cc 7e3c 9ce9 4d3d 0817 363c 424e c7bd
00000090: ad19 b8bb 4f50 a33d 5f1c 9bbd f29a b1bd
000000a0: ccae c73d 6e9b 823d 2f84 ca3d 5198 973d
000000b0: df7a c73d 2d18 b73d 7843 9039 6e56 a33c
000000c0: 6a1d 85bd b5c3 b73d

fc_out.weight f4 [2, 50]
-0.0028105306 0.10503169 -0.0032376375 -0.08614 -0.11912996 0.12512608 -0.018881198 0.066462494
-0.028866934 0.03606988 -0.083820164 -0.06646096 0.05720081 0.03481551 0.0006338583 -0.081558734
0.13517696 -0.11391203 -0.09592763 -0.08775099 -0.06962797 -0.12638108 -0.052024942 0.027438482
-0.105992496 0.12320805 0.0045665368 -0.12936561 0.033850834 0.11550711 0.0433445 0.032716706
-0.11227738 -0.13774838 -0.07652903 0.06490148 -0.012450791 -0.10776341 -0.07033935 -0.07398583
0.12332607 0.036556743 -0.007788749 0.026340283 -0.13607205 0.12541716 0.12120057 -0.03414811
-0.045518953 0.03974352 0.048934903 -0.10094149 0.08037674 0.102146246 0.0006991151 0.04727951
-0.094672516 0.08994295 0.0550331 0.12097852 0.07892125 0.07457801 0.0306605 -0.046307843
0.12243402 -0.13530567 -0.03885188 -0.015251486 -0.08808225 0.08539296 0.0016947403 -0.1024323
0.0010956327 0.01836333 0.116080776 -0.08820136 -0.07894114 -0.068331525 -0.109041475 -0.08292582
-0.13502453 -0.07197145 0.07356601 -0.045296393 -0.010078469 0.080907755 -0.08708151 -0.006226234
-0.01708018 -0.11831783 0.03110887 0.06522221 0.06571494 -0.038384393 0.00016282231 0.058373038
-0.078332424 -0.00873507 -0.103644855 0.0252192
00000000: e130 38bb db1a d73d 8b2e 54bb 2b6a b0bd
00000010: 69fa f3bd 0d21 003e beac 9abc 7d1d 883d
00000020: 597a ecbc 03be 133d e8a9 abbd af1c 88bd
00000030: 664b 6a3d b59a 0e3d 8329 263a 4408 a7bd
00000040: d46b 0a3e b64a e9bd b575 c4bd cbb6 b3bd
00000050: 1c99 8ebd 0b6a 01be 1b18 55bd abc6 e03c
00000060: 9812 d9bd 8154 fc3d e3a2 953b 6b78 04be
00000070: 2ca7 0a3d fe8e ec3d 018a 313d f401 063d
00000080: aff1 e5bd e90d 0dbe 41bb 9cbd 11eb 843d
00000090: 67fe 4bbc 10b3 dcbd 140e 90bd e285 97bd
000000a0: 6192 fc3d 86bc 153d c338 ffbb 94c7 d73c
000000b0: 7956 0bbe 5b6d 003e 0138 f83d e3de 0bbd
000000c0: 1572 3abd 1aca 223d f76f 483d 69ba cebd
000000d0: 8f9c a43d 0d32 d13d d244 373a 29a8 413d
000000e0: aae3 c1bd 0234 b83d 636a 613d 96c3 f73d
000000f0: 77a1 a13d 5bbc 983d bb2b fb3c 4bad 3dbd
00000100: b0be fa3d 928d 0abe 2623 1fbd 5ee1 79bc
00000110: 7764 b4bd 81e2 ae3d 0c22 de3a 07c8 d1bd
00000120: 559b 8f3a b26e 963c c2bb ed3d eaa2 b4bd
00000130: e4ab a1bd 66f1 8bbd 2351 dfbd 03d5 a9bd
00000140: df43 0abe c465 93bd c7a9 963d b688 39bd
00000150: 2a20 25bc f7b2 a53d ca57 b2bd 7005 ccbb
00000160: bceb 8bbc 9e50 f2bd 07d8 fe3c 3993 853d
00000170: 8e95 863d f438 1dbd 48bb 2a39 9118 6f3d
00000180: c06c a0bd 8a1d 0fbc c143 d4bd 7f98 ce3c

fc_out.bias f4 [2]
0.12642153 -0.06604795
00000000: a574 013e 2644 87bd

exp_avg f4 [300, 2]
-9.898112e-07 -5.2671785e-06 -0.000120319455 -0.00013702521 3.940996e-06 3.668904e-05 0.00012450552 0.00011057717
1.8120156e-05 1.3672023e-05 -4.363263e-06 -6.210022e-05 -2.8127095e-05 -2.6202477e-05 2.1212194e-05 2.8467362e-05
-5.365296e-05 6.182437e-05 3.0513642e-05 4.2109896e-05 -6.4955784e-05 -0.00013650637 -8.358295e-05 -9.433639e-05
1.735161e-05 -6.0374055e-05 8.417618e-05 3.5830322e-05 -4.616074e-06 -3.6189645e-05 -0.000108032094 -9.4164476e-05
-1.3658467e-05 -6.542609e-05 5.6616536e-05 2.8487262e-05 -3.2215385e-06 -1.3298387e-05 2.6558786e-05 -5.1226725e-05
9.856384e-06 9.973206e-06 -2.0039295e-05 -5.9648246e-06 -1.2254397e-06 -1.0610089e-06 -9.920136e-06 4.0981135e-06
-5.2068943e-05 -0.00010371878 5.8743844e-06 -6.598009e-05 4.620825e-05 3.116932e-05 0.0001399473 0.00019558576
-3.1796426e-05 -4.112936e-05 1.6207818e-05 3.1881264e-05 1.8503984e-05 -2.9307996e-05 -0.00014703706 -0.00023347055
6.871284e-05 5.32775e-05 -5.6635585e-05 -5.9866572e-05 -2.5470601e-06 3.4841734e-05 8.323404e-05 6.1037346e-05
-6.1402943e-06 -1.6845626e-05 2.6086898e-06 5.2149903e-06 6.9064554e-05 5.6753306e-05 4.908722e-05 5.715352e-05
-1.0144068e-05 -1.5772572e-05 -3.6363672e-06 5.3239296e-06 -8.601736e-06 -8.655029e-06 -6.8625195e-06 -6.397004e-06
1.2067594e-05 6.309158e-06 3.1046296e-05 6.879839e-05 -7.157127e-05 -5.978194e-05 -4.659595e-06 -2.4193572e-05
2.3625133e-05 6.345192e-05 5.577014e-06 1.45294225e-05 -1.0765109e-05 -1.23658265e-05 5.6246685e-05 -5.728913e-05
1.4268476e-05 2.5834745e-05 5.196154e-05 6.509012e-05 9.940964e-07 -4.920868e-07 1.0771873e-05 -3.076435e-05
-1.2564021e-05 4.9239607e-06 -2.3725804e-06 -2.3507962e-05 3.0457306e-05 5.5601737e-05 -6.064083e-06 -4.2210042e-05
-1.3672928e-05 -6.128113e-05 -1.4814143e-05 -7.347939e-05 4.9387792e-05 4.2355943e-05 1.9591904e-05 6.487551e-05
1.3640522e-05 6.3729453e-06 -8.45858e-06 -7.7836936e-05 5.68844e-05 8.628257e-05 -4.67537e-05 -7.1931536e-05
0.00011981648 0.00011998316 -9.1531103e-07 8.134608e-06 -3.9674615e-07 -4.7410006e-07 -7.856501e-06 7.2775956e-06
-1.6313072e-05 -5.604734e-05 -1.8515528e-05 -3.7359525e-05 2.2678587e-05 -8.0257254e-05 2.9876366e-05 0.00010658208
8.372098e-05 0.00012331345 9.116076e-05 4.9165985e-05 5.323899e-06 -6.8068664e-05 -2.072863e-05 -2.0648051e-06
0.00012653368 0.00013424062 -8.7039525e-06 -9.694786e-05 1.683601e-05 -7.69536e-06 -4.722515e-05 -2.300154e-05
3.7722733e-05 7.279181e-05 8.693888e-05 0.000104110775 5.989902e-05 6.5458546e-05 9.690131e-05 8.825478e-05
-0.00017734134 -0.00011054572 6.0113012e-05 0.00012945005 0.00013734467 0.00011215422 -2.0664695e-06 -1.0383999e-05
-0.00015095182 -0.00021073782 -0.00014951131 -8.251869e-05 1.0375181e-06 -6.047128e-06 -3.981765e-05 -4.853623e-05
2.4834799e-06 2.633003e-07 4.4612966e-06 1.0577736e-06 1.0295533e-06 -8.0523574e-07 4.2701977e-06 7.2324965e-06
5.67882e-07 6.413405e-07 3.8633407e-06 3.890289e-06 -8.921001e-07 -1.5088656e-06 7.689804e-07 3.6297118e-07
6.0855837e-07 5.2302553e-06 -1.8681914e-06 -3.400969e-06 -1.7527607e-06 -1.8390458e-06 9.801681e-09 -2.52378e-07
1.1134531e-05 5.0428393e-06 -2.3301027e-06 -2.9838639e-06 3.85411e-06 6.1263886e-06 2.3597363e-06 2.1757064e-06
-2.5310421e-06 -2.2599977e-06 3.7962945e-06 7.5506555e-06 -2.0218107e-07 2.0685516e-06 5.876406e-06 4.309781e-06
-9.506146e-07 -5.811197e-08 4.3672924e-07 4.096649e-06 1.7388215e-06 5.400106e-07 -2.6429198e-06 2.537719e-06
-3.2859386e-06 -1.6727528e-06 1.7326751e-06 1.1050239e-06 -1.4035605e-07 -1.3654819e-06 2.7149602e-07 2.0967354e-06
3.1461045e-07 -2.3933555e-06 -9.832625e-07 1.5073049e-06 -2.8370462e-06 -3.467963e-06 -1.5918041e-06 -8.822745e-07
00000000: a7d9 84b5 b8bc b0b6 0454 fcb8 6dae 0fb9
00000010: e63c 8436 8fe2 1938 b28d 0239 abe5 e738
00000020: bd00 9837 e460 6537 2568 92b6 cd3b 82b8
00000030: 7af2 ebb7 64cd dbb7 d7f0 b137 32cd ee37
00000040: 6d09 61b8 b5a7 8138 8cf7 ff37 289f 3038
00000050: df38 88b8 2623 0fb9 4149 afb8 77d6 c5b8
00000060: 4c8e 9137 263a 7db8 be87 b038 8448 1638
00000070: c6e3 9ab6 56ca 17b8 4a8f e2b8 2b7a c5b8
00000080: ab26 65b7 5d35 89b8 8b77 6d38 eef7 ee37
00000090: 9c31 58b6 231c 5fb7 8fca de37 47dc 56b8
000000a0: d95c 2537 9852 2737 0f1a a8b7 7425 c8b6
000000b0: ca79 a4b5 fd67 8eb5 a96e 26b7 8782 8936
000000c0: 9a64 5ab8 9983 d9b8 941c c536 cb5e 8ab8
000000d0: bbcf 4138 cdbb 0238 d1be 1239 2716 4d39
000000e0: 275d 05b8 5082 2cb8 06f6 8737 3fb8 0538
000000f0: 0139 9b37 71da f5b7 f62d 1ab9 c6cf 74b9
00000100: ed19 9038 4876 5f38 ff8b 6db8 3e19 7bb8
00000110: 29ee 2ab6 0723 1238 ef8d ae38 2d01 8038
00000120: ba08 ceb6 b54f 8db7 f310 2f36 6dfc ae36
00000130: c0d6 9038 660a 6e38 00e3 4d38 20b8 6f38
00000140: 7130 2ab7 574f 84b7 5008 74b6 35a4 b236
00000150: 2d50 10b7 1135 11b7 9844 e6b6 d9a5 d6b6
00000160: ec75 4a37 41b3 d336 b537 0238 db47 9038
00000170: 8818 96b8 5fbe 7ab8 9e59 9cb6 4df3 cab7
00000180: 962e c637 7d11 8538 2f22 bb36 65c3 7337
00000190: cb9b 34b7 d276 4fb7 6bea 6b38 bc49 70b8
000001a0: a362 6f37 b1b7 d837 47f1 5938 fe80 8838
000001b0: e46c 8535 f317 04b5 d8b8 3437 f808 01b8
000001c0: 0fca 52b7 8038 a536 9f38 1fb6 f732 c5b7
000001d0: 917e ff37 e935 6938 147a cbb6 b00a 31b8
000001e0: c764 65b7 0e84 80b8 428a 78b7 f218 9ab8
000001f0: bd25 4f38 59a7 3138 4b59 a437 c60d 8838
00000200: 99d9 6437 2fd7 d536 53e9 0db7 633c a3b8
00000210: 2997 6e38 9af2 b438 6719 44b8 f3d9 96b8
00000220: fc45 fb38 789f fb38 b2b3 75b5 e079 0837
00000230: 6000 d5b4 d187 feb4 6acf 03b7 1232 f436
00000240: 0ed8 88b7 6014 6bb8 cb51 9bb7 7cb2 1cb8
00000250: e53d be37 c94f a8b8 029f fa37 d284 df38
00000260: 5c93 af38 b44d 0139 8f2d bf38 9337 4e38
00000270: f2a3 b236 16c0 8eb8 65e2 adb7 1591 0ab6
00000280: 20ae 0439 f1c2 0c39 3107 12b7 7c50 cbb8
00000290: 0e3b 8d37 521b 01b7 9e13 46b8 6ef3 c0b7
000002a0: 7a38 1e38 cea7 9838 f552 b638 0c56 da38
000002b0: 153c 7b38 ca46 8938 7f37 cb38 6d15 b938
000002c0: b4f4 39b9 c8d4 e7b8 db21 7c38 fcbc 0739
000002d0: 2e04 1039 5734 eb38 adad 0ab6 f036 2eb7
000002e0: d248 1eb9 81f9 5cb9 23c6 1cb9 e20d adb8
000002f0: da40 8b35 6fe8 cab6 e001 27b8 6193 4bb8
00000300: dca9 2636 b85b 8d34 3fb2 9536 d3f8 8d35
00000310: 2f2f 8a35 6127 58b5 b848 8f36 acae f236
00000320: 8e70 1835 9528 2c35 d8a1 8136 5489 8236
00000330: a778 6fb5 3a84 cab5 ee6b 4e35 61de c234
00000340: d05b 2335 8d7f af36 91be fab5 343c 64b6
00000350: 6640 ebb5 22d5 f6b5 4064 2832 917e 87b4
00000360: 72ce 3a37 a935 a936 dc5e 1cb6 643e 48b6
00000370: 8e52 8136 4791 cd36 f65b 1e36 5a02 1236
00000380: f9da 29b6 77aa 17b6 d8c3 7e36 a35b fd36
00000390: 1c17 59b4 72d1 0a36 f12d c536 bd9c 9036
000003a0: bd2d 7fb5 c996 79b3 9c77 ea34 f275 8936
000003b0: 7461 e935 3ff5 1035 045d 31b6 ae4d 2a36
000003c0: ff83 5cb6 5983 e0b5 438e e835 5550 9435
000003d0: c7b4 16b4 9a45 b7b5 21c2 9134 a4b5 0c36
000003e0: bbe7 a834 899d 20b6 a4f8 83b5 9a4e ca35
000003f0: 1564 3eb6 27bb 68b6 f9a5 d5b5 71d5 6cb5

exp_avg_sq f4 [300, 2]
6.5224155e-13 1.2731554e-12 8.967396e-10 1.1432947e-09 1.4959168e-12 3.6274875e-11 8.7365626e-10 9.659231e-10
1.8690816e-11 1.1002094e-11 5.059715e-12 1.05519565e-10 4.8139534e-11 5.4868353e-11 2.4959772e-11 3.3863762e-11
1.6887854e-10 2.9083422e-10 4.2763487e-11 5.884172e-11 2.6043614e-10 5.410567e-10 4.2577797e-10 5.365966e-10
7.784821e-12 1.4040442e-10 3.3766767e-10 3.194041e-10 2.0489203e-12 3.5961054e-11 5.916537e-10 6.5846895e-10
1.5104914e-11 1.625609e-10 1.4587669e-10 1.6041533e-10 9.374063e-13 5.460979e-12 2.0001757e-11 1.1004266e-10
5.214695e-12 6.8428683e-12 2.2170652e-11 3.7184894e-11 4.3574666e-12 4.21979e-12 1.4849481e-11 1.4539028e-11
1.4383085e-10 3.50399e-10 1.20187445e-11 1.3046723e-10 1.28818e-10 1.352895e-10 1.0650145e-09 1.650157e-09
5.1278766e-11 7.52683e-11 9.777595e-12 3.10829e-11 8.174682e-12 4.7009122e-11 1.1989371e-09 2.0786484e-09
2.424004e-10 2.5865293e-10 1.7555755e-10 2.0337163e-10 2.1017656e-12 3.905657e-11 3.469121e-10 3.5749523e-10
1.7555084e-12 6.257421e-12 1.9341724e-12 1.9909835e-12 2.3943075e-10 2.7904903e-10 9.034597e-11 1.2794901e-10
6.5079626e-12 1.2636224e-11 7.585017e-13 1.5043595e-12 3.7576387e-12 5.3618984e-12 9.226447e-12 8.320597e-12
6.0538146e-12 5.267519e-12 4.249623e-11 1.2785487e-10 3.558062e-10 3.731357e-10 1.1442954e-12 1.4254354e-11
3.9220016e-11 1.2771194e-10 2.6569584e-12 5.6240308e-12 6.2023208e-12 8.5928755e-12 1.1061713e-10 2.6377509e-10
6.08611e-11 7.54725e-11 1.1037979e-10 1.4919488e-10 3.700939e-13 1.9673681e-12 2.7715536e-12 3.395692e-11
1.193778e-11 1.5528101e-11 5.5470468e-12 1.43609725e-11 5.8550054e-11 1.1192957e-10 1.172623e-12 4.4553392e-11
1.5982186e-11 1.1313364e-10 1.9955688e-11 1.435375e-10 1.3645718e-10 1.4072746e-10 2.2746104e-11 1.0904112e-10
8.303979e-12 1.355115e-11 1.5661942e-11 1.6158301e-10 1.5150274e-10 2.7893038e-10 1.3780087e-10 1.9305227e-10
7.394238e-10 9.421309e-10 6.9779e-13 2.2165637e-12 2.2457913e-13 2.9663883e-13 1.997261e-12 5.269152e-12
2.6732077e-11 9.768718e-11 8.898912e-12 3.508516e-11 1.2068205e-11 2.5592156e-10 8.408164e-11 3.3551717e-10
3.5210082e-10 5.5061605e-10 3.576086e-10 3.481613e-10 1.7517924e-12 1.3138227e-10 2.20144e-11 2.1594075e-11
8.423011e-10 1.0653727e-09 5.976949e-12 2.8516112e-10 1.0466572e-11 1.3397371e-11 1.2022403e-10 1.0259291e-10
7.5160524e-11 1.8845119e-10 3.8660428e-10 5.569204e-10 2.4045013e-10 2.781191e-10 3.8443695e-10 4.3138865e-10
1.8675372e-09 1.8090728e-09 1.8284657e-10 4.6675386e-10 9.795048e-10 1.0676336e-09 3.1560738e-13 2.742476e-12
1.1544143e-09 1.7740395e-09 1.1560408e-09 1.1176421e-09 4.2441064e-14 1.0890107e-12 6.7937156e-11 1.1224653e-10
5.35268e-12 4.7796276e-12 1.6566805e-12 1.1804736e-12 2.2967473e-11 2.5868942e-11 1.6790597e-12 2.2640442e-12
2.704517e-14 3.9920033e-14 8.428605e-13 1.1368661e-12 3.453517e-14 6.94272e-14 8.945376e-14 8.610862e-14
3.4517433e-14 6.9802497e-13 1.8584383e-13 3.9135784e-13 1.3107525e-13 1.6256077e-13 5.885805e-15 5.602995e-15
7.5473785e-12 6.226986e-12 3.023646e-13 3.8135475e-13 8.447994e-13 1.3082053e-12 3.5087642e-13 3.310519e-13
2.6295413e-13 2.5135452e-13 1.6092488e-12 2.9461299e-12 5.7959945e-15 1.3372508e-13 1.4376896e-12 1.2726784e-12
4.472241e-14 7.219288e-14 6.604555e-14 4.884063e-13 1.2670451e-13 1.8401277e-13 2.0508588e-13 5.0625904e-13
6.01621e-13 5.95662e-13 2.307326e-13 3.2436038e-13 1.0903361e-14 7.814312e-14 2.2529194e-14 1.441511e-13
5.111672e-15 1.9118368e-13 2.2633157e-14 1.2115967e-13 4.5612564e-13 5.9923816e-13 1.3140847e-13 1.5803065e-13
00000000: f596 372b 422e b32b 717e 7630 1b22 9d30
00000010: 1588 d22b e189 1f2e 1826 7030 66c1 8430
00000020: fa67 a42d 078d 412d dc05 b22c 3c0a e82e
00000030: 4cb8 532e 4650 712e 698c db2d 35ef 142e
00000040: 15af 392f 47e3 9f2f 6813 3c2e f264 812e
00000050: 212d 8f2f 7bb9 1430 ec12 ea2f a17f 1330
00000060: b8f3 082d 5560 1a2f 80a2 b92f 2198 af2f
00000070: 112e 102c 8c28 1e2e eea1 2230 a2ff 3430
00000080: 3edd 842d d3bc 322f a364 202f e760 302f
00000090: 9fed 832b 2024 c02c f4ef af2d 83fc f12e
000000a0: cc79 b72c 14c3 f02c df03 c32d 788a 232e
000000b0: 9250 992c 7d78 942c 0f9e 822d f6c5 7f2d
000000c0: c924 1e2f 46a2 c02f 9d6f 532d 4373 0f2f
000000d0: 0ba3 0d2f 9cc0 142f de5f 9230 bdcb e230
000000e0: c286 612e 4984 a52e 6002 2c2d 3cb4 082e
000000f0: 7fcf 0f2d 91bf 4e2e d9c7 a430 f8d7 0e31
00000100: d342 852f 2a32 8e2f 0f07 412f 069c 5f2f
00000110: 0be6 132c cac5 2b2e 8ab7 be2f fb88 c42f
00000120: db10 f72b d629 dc2c f41a 082c 5f1a 0c2c
00000130: e2a0 832f a968 992f 42ac c62e 72ae 0c2f
00000140: 84fa e42c 7e4c 5e2d cf7f 552b 43b8 d32b
00000150: cd35 842c b0a7 bc2c 3950 222d a360 122d
00000160: eaff d42c 9855 b92c 80e6 3a2e f293 0c2f
00000170: 459b c32f 2e22 cd2f 960b a12b e7c3 7a2d
00000180: d07d 2c2e b76b 0c2f 82f7 3a2c c4e0 c52c
00000190: 8a39 da2c df2a 172d e83f f32e 0b03 912f
000001a0: c1d5 852e 3ef7 a52e 4cba f22e a00a 242f
000001b0: 2758 d02a f470 0a2c df07 432c 1858 152e
000001c0: fb02 522d 2d96 882d 5b2b c32c 12a4 7c2d
000001d0: c0c0 802e bf22 f62e 3208 a52b a9f2 432e
000001e0: af94 8c2d 94c8 f82e 3788 af2d 37d2 1d2f
000001f0: 4809 162f 42bb 1a2f ac13 c82d b2c8 ef2e
00000200: cc15 122d f464 6e2d 8fc3 892d 93a9 312f
00000210: 3b94 262f f657 992f 7f83 172f 6243 542f
00000220: 5340 4b30 497c 8130 1269 442b 10fa 1b2c
00000230: 87da 7c2a 29fe a62a 758b 0c2c 4d64 b92c
00000240: 4923 eb2d fed0 d62e 238d 1c2d 614e 1a2e
00000250: 5d4e 542d c2b1 8c2f c1e5 b82e d873 b82f
00000260: c991 c12f 295a 1730 f098 c42f 5967 bf2f
00000270: f98a f62b d274 102f 06a4 c12d 89f1 bd2d
00000280: ac87 6730 786c 9230 924b d22c dcc4 9c2f
00000290: 4021 382d 65b0 6b2d 0e30 042f ad9a e12e
000002a0: 9d47 a52e 4b34 4f2f b789 d42f ca15 1930
000002b0: 5930 842f c9e5 982f b158 d32f 8e28 ed2f
000002c0: 1056 0031 17a3 f830 bc0a 492f e24c 0030
000002d0: 439f 8630 05bc 9230 d1ab b12a 0efc 402c
000002e0: 58a9 9e30 77d2 f330 92e2 9e30 899b 9930
000002f0: 3723 3f29 bf43 992b 3865 952e 2ed5 f62e
00000300: a854 bc2c 0f2b a82c 3528 e92b 0b23 a62b
00000310: 2706 ca2d ae8b e32d 804e ec2b 6551 1f2c
00000320: eb99 f328 aac8 3329 803e 6d2b ebff 9f2b
00000330: 5788 1b29 0e56 9c29 956e c929 3de6 c129
00000340: e473 1b29 007a 442b d63d 512a 9c50 dc2a
00000350: de93 132a f406 372a f80e d427 82de c927
00000360: 5fc6 042d b417 db2c 5537 aa2a 03af d62a
00000370: 36ca 6d2b 101d b82b 9f86 c52a 9b5d ba2a
00000380: af07 942a 0180 8d2a 4c7b e22b c250 4f2c
00000390: 9dd2 d027 a18f 162a 3a56 ca2b 121d b32b
000003a0: 6e69 4929 5d90 a229 abb8 9429 6279 092b
000003b0: 17a8 0e2a 122e 4f2a fbe7 662a cf7f 0e2b
000003c0: 5d57 292b f8a9 272b 12e4 812a 4299 b62a
000003d0: e16a 4428 71f6 af29 c9ec ca28 ba4c 222a
000003e0: da2a b827 f240 572a 82dc cb28 e669 082a
000003f0: 5163 002b a9ab 282b eaf3 132a 3ced 312a
