dagster_ais/mlruns/0/6ff15dc574a84f66bce919db082ccea3/artifacts/restored_model_checkpoint/epoch=9-step=20.ckpt (torch, 448127 bytes, 24 tensors)

rnn.weight_ih_l0 f4 [300, 2]
0	0xbd7dc1b6	-0.061952315
1	0xbd9e0278	-0.077153146
2	0x3a4dfd4b	0.0007857873
3	0xbc8d1e70	-0.017226428
4	0x3d89d8c0	0.06730795
5	0xbc91a413	-0.017778432
6	0xbdbc5df4	-0.09197608
7	0xbdc737a9	-0.09727413
8	0x3d8aabc1	0.06771041
9	0x3d3d3b13	0.046198916
10	0xbbf0205d	-0.0073280768
11	0xbd93d0dd	-0.07217572
12	0x3c9fcf0c	0.019507907
13	0x3db28a85	0.08717827
14	0xbda22ef9	-0.079191156
15	0x3da333c3	0.07968857
16	0x3cf0ca8f	0.029393462
17	0x3db8a4c9	0.09015805
18	0xbd3052ba	-0.043047644
19	0xbd171276	-0.03688284
20	0xbdbde888	-0.092728674
21	0x3d7722c1	0.06033588
22	0xbd8f3c9a	-0.06993981
23	0x3d4b7503	0.049672138
24	0x3d9ad8e0	0.07560897
25	0xbd4173aa	-0.047229446
26	0xbd1dfaab	-0.038569134
27	0xbd08b5d5	-0.033376534
28	0x3bfb8041	0.007675201
29	0xbd9704c2	-0.07373954
30	0x3aef683c	0.0018265317
31	0x3d2d37f4	0.04228969
32	0xbcd1db6b	-0.025617322
33	0x3dacd151	0.084383614
34	0x3d5ecfb8	0.054397315
35	0x3a014282	0.000493087
36	0x3d60a254	0.05484231
37	0xbc39e1db	-0.011345352
38	0xbc0023b6	-0.007821014
39	0xbc8baa34	-0.017048933
40	0x3bde9d09	0.0067936224
41	0x3db71957	0.0894038
42	0x3d3bb7e2	0.04582966
43	0xbd228fae	-0.039687805
44	0x3cfb558e	0.030680444
45	0xbc0e5af4	-0.008688677
46	0x3d8e7d16	0.06957452
47	0xbd813d6e	-0.06310545
48	0xbc988d98	-0.018622205
49	0xbdac1147	-0.08401733
50	0x3d31004c	0.043213174
51	0xbd782710	-0.060584128
52	0x3da2b796	0.079451725
53	0x3d243500	0.040089607
54	0x3cee4d1b	0.029089501
55	0x3c874976	0.016514521
56	0xbdc71626	-0.09721021
57	0x3d17c47a	0.03705261
58	0xbd8eed81	-0.06978894
59	0x3cc9ab6f	0.024617879
60	0xbdb4ea18	-0.08833712
61	0xbc2a26a1	-0.010385186
62	0x3d066e79	0.0328202
63	0xbca0f10b	-0.019646188
64	0xbda75127	-0.081697755
65	0x3daa82c0	0.0832572
66	0x3db69a6e	0.08916174
67	0x3d5dc776	0.0541453
68	0xbdb669f6	-0.08906929
69	0xbd8b58ab	-0.068040214
70	0x3d99edb9	0.07516045
71	0xbd1c831d	-0.038210977
72	0xbd36088f	-0.044441756
73	0xbda54d5e	-0.08071397
74	0xbd635c9c	-0.05550824
75	0xbc28a3c7	-0.010292954
76	0xbdcb18fb	-0.09916874
77	0xbca89f7c	-0.02058386
78	0xbdbda293	-0.09259524
79	0xbd874651	-0.06605209
80	0x3c5f0ab6	0.0136133935
81	0x3d4fc5a0	0.05072558
82	0xbd393add	-0.045222152
83	0x3d9aecf8	0.075647295
84	0xbc889161	-0.016670885
85	0x3d1c003b	0.038086157
86	0x3d2d458d	0.042302657
87	0x3dc30706	0.09522824
88	0xbca10134	-0.019653894
89	0x3d155d9d	0.03646623
90	0x3dbcb585	0.092143096
91	0x3d930495	0.07178608
92	0x3d6610a9	0.056168232
93	0x3c5b4765	0.013383721
94	0x3d64a69c	0.055822954
95	0xbcf45086	-0.029823553
96	0x3cba77c0	0.02276218
97	0x3d98461d	0.07435248
98	0x3cca1563	0.024668401
99	0xbc7cf0fa	-0.015438313
100	0xbd8cc0e6	-0.0687273
101	0x3c4c57dd	0.01247212
102	0xbcd11e48	-0.025527135
103	0xbdb1156d	-0.08646665
104	0xbc9f3027	-0.01943214
105	0xbdc401e2	-0.095706716
106	0x3dae9cd5	0.08526007
107	0x3d915b2a	0.07097466
108	0xbcb4cc18	-0.022069976
109	0xbda2836d	-0.07935224
110	0xbad30ec6	-0.0016102425
111	0x3d1a5a33	0.037683677
112	0x3d8fee30	0.070278525
113	0xbd80cc46	-0.06288962
114	0xbd33018a	-0.04370264
115	0x3db51dbc	0.08843562
116	0xbd959a14	-0.07304779
117	0xbd015b6b	-0.031581324
118	0x3cec4217	0.028840108
119	0x3bb13c5c	0.0054088067
120	0x3db7cb23	0.08974292
121	0x3c4e3af3	0.012587297
122	0xbc6b718e	-0.014370335
123	0xbbd64da3	-0.0065400167
124	0xbd18ae0a	-0.03727535
125	0xbdc6a0ff	-0.09698676
126	0xbd5f42d6	-0.0545071
127	0xbd9d5dd8	-0.07683915
128	0x3db26d1e	0.08712219
129	0x3d27a5dd	0.040929664
130	0x3d8262b5	0.06366483
131	0xbd728512	-0.059208937
132	0x3c5d1bb6	0.013495376
133	0x3c6aec51	0.014338569
134	0x3d3dc340	0.046328783
135	0xbd988758	-0.0744769
136	0x39fa5f65	0.0004775479
137	0xbd3147bd	-0.043281306
138	0x3da2c847	0.07948356
139	0x3da90ebb	0.08254763
140	0xbdc6c911	-0.09706319
141	0x3c03f2f1	0.008053527
142	0xbd0686d9	-0.032843444
143	0xbd80f530	-0.06296766
144	0x3d4c29b3	0.049844455
145	0xbda04094	-0.07824817
146	0x3d69e96e	0.05710738
147	0xbdc64713	-0.09681525
148	0x3d5e05a8	0.054204613
149	0xbd131c56	-0.035915695
150	0xbd795a9f	-0.06087744
151	0x3d217a09	0.039423022
152	0xbd81f7e8	-0.063461125
153	0xbda9015f	-0.08252215
154	0x3d692e7f	0.056929108
155	0xbd5603b4	-0.052249625
156	0x3c4f442b	0.01265053
157	0x3d6fe032	0.05856342
158	0x3cd68ca6	0.026190113
159	0x3d73d62b	0.05953042
160	0xbd8d9a1d	-0.069141604
161	0x3dc59430	0.09647405
162	0x3d8ab6cf	0.06773149
163	0x3d91d9a9	0.071215935
164	0x3b0840f5	0.002079067
165	0x3d099e2a	0.033598103
166	0x3c3ab2f2	0.011395203
167	0xbcf5081c	-0.029911093
168	0xbd31afec	-0.043380663
169	0x3da1feff	0.07909965
170	0xbd92429d	-0.07141612
171	0xbdb018a3	-0.08598449
172	0xbdb95d9e	-0.09051059
173	0xbdbdbe67	-0.09264832
174	0xbd942ce1	-0.072351225
175	0xbdc2e76d	-0.09516797
176	0xbdaf319a	-0.085543826
177	0x3cecb3de	0.028894361
178	0xbdc294f3	-0.09501066
179	0xbd8a3dc7	-0.06750064
180	0xbd8860d5	-0.06659094
181	0xbd94ceb8	-0.07265991
182	0x3d87fabf	0.06639623
183	0xbcfc07fb	-0.030765524
184	0xbd6afac7	-0.057368066
185	0xbdc71883	-0.09721472
186	0xbd22ee37	-0.03977796
187	0x3c4a5920	0.012350351
188	0x3d8f821e	0.0700724
189	0x3b7f393f	0.0038944033
190	0xbd998504	-0.07496074
191	0x3d756d00	0.059918404
192	0xbd35f3ba	-0.04442189
193	0x3dc270a4	0.09494141
194	0x3db4a42a	0.08820374
195	0x3dc0184c	0.09379634
196	0x3db3b902	0.08775522
197	0xbbdeae34	-0.006795669
198	0xbda36fc0	-0.07980299
199	0xbdc7b272	-0.097508326
200	0x3db3667b	0.08759781
201	0xb856b188	-5.1186915e-05
202	0x3c3f0275	0.011658301
203	0x3d06abea	0.032878794
204	0xbd332eba	-0.043745734
205	0xbda82d0c	-0.08211717
206	0x3dc9ea80	0.098591805
207	0x3c07f6af	0.00829856
208	0xbbdfcf65	-0.0068301433
209	0xbd23dc91	-0.04000527
210	0x3d300ce1	0.042981032
211	0xbd5e61ef	-0.054292616
212	0xbcffa775	-0.03120778
213	0xbd5e8338	-0.05432436
214	0x3d26e39d	0.040744413
215	0x3c8c4fb6	0.017127853
216	0xbda92d7d	-0.08260629
217	0x3ceb5655	0.02872769
218	0x3db7228d	0.08942137
219	0xbc08182e	-0.008306546
220	0x3c8834a6	0.016626667
221	0xbd5be9e3	-0.05368985
222	0x3dad6554	0.084665924
223	0xbd9d7f66	-0.07690315
224	0xbbe75e7f	-0.0070608254
225	0x3d91d8d6	0.07121436
226	0xbdbd11ed	-0.09231935
227	0xbdbf45b1	-0.093394645
228	0x3d617f35	0.055052955
229	0x3d0fd590	0.03511578
230	0x3cb2a9f1	0.02180955
231	0xbd58c460	-0.052921653
232	0x3c730ba6	0.01483432
233	0xbd8bd6f9	-0.06828112
234	0xbdb3ac59	-0.08773107
235	0xbd3132af	-0.043261226
236	0xbda8fd78	-0.0825147
237	0x3db2bad0	0.08727038
238	0x3d085dd3	0.033292603
239	0xbae97c1b	-0.0017813476
240	0x3daaacd0	0.083337426
241	0x3d9ddad7	0.07707756
242	0xbdbc18bf	-0.091844074
243	0x3dc9c415	0.09851853
244	0x3d0bdf98	0.034148782
245	0x3af8d6dc	0.0018984932
246	0xbd25d511	-0.0404864
247	0xbd7d9723	-0.061911713
248	0x3c0f56cf	0.008748724
249	0xbd62db04	-0.05538465
250	0xbd81a171	-0.06329621
251	0x3da87018	0.08224505
252	0xbd4e8a8b	-0.050425094
253	0xbd53a098	-0.051666826
254	0x3c8b08a2	0.01697189
255	0xbd89d5b1	-0.067302115

rnn.weight_hh_l0 f4 [300, 100]
0	0xbdc7b05e	-0.09750436
1	0x3b193f6c	0.002338375
2	0xbaebb7cf	-0.0017983856
3	0xbd9db18c	-0.0769988
4	0x3d73c699	0.05951557
5	0x3d9a2765	0.07527045
6	0xbc43f6be	-0.011960683
7	0x3da95916	0.08268945
8	0xbba506a3	-0.0050361915
9	0x3db6bb56	0.0892245
10	0xbda8055c	-0.08204147
11	0x3da75722	0.08170916
12	0xbd82aec5	-0.06380991
13	0xbdc5a02a	-0.096496895
14	0xbd6f71ae	-0.058458023
15	0xbd466dd3	-0.04844458
16	0xbdc68d52	-0.096949235
17	0xbc9c435b	-0.019075086
18	0x3d11c746	0.035590433
19	0xbbd12be6	-0.006383407
20	0x3d133487	0.035938766
21	0xbdbf4a09	-0.09340293
22	0x3d255131	0.040360633
23	0x3d987766	0.074446484
24	0xbd1f121f	-0.03883564
25	0xbbd679c2	-0.0065452764
26	0x3d384216	0.0449849
27	0xbd29f913	-0.0414973
28	0xbd73c15c	-0.059510574
29	0xbdb7f237	-0.08981746
30	0xbd8a897e	-0.06764506
31	0xbc0d177d	-0.008611557
32	0x3beea15a	0.007282418
33	0xbdad2650	-0.08454573
34	0x3ca89b5f	0.0205819
35	0x3da5c6d6	0.080945656
36	0x3da4d5b9	0.08048577
37	0xbdb76289	-0.08954341
38	0xbc9f8b21	-0.019475522
39	0xbb9ae07a	-0.0047264667
40	0xbd7cfb4c	-0.061763093
41	0x3dcd2a1a	0.10017796
42	0xbc8ed4b8	-0.017435417
43	0x3c22f776	0.009946695
44	0x3dbd06d6	0.092298195
45	0xbc8d71a9	-0.017266111
46	0xbcd14e86	-0.025550138
47	0xbdc508f5	-0.09620849
48	0xbd024e5a	-0.031813003
49	0x3d39b9bd	0.04534315
50	0xba12edab	-0.00056048733
51	0xbd234321	-0.03985894
52	0xbdb48723	-0.08814838
53	0xbd7b1f25	-0.061309
54	0x3d1a98f6	0.03774353
55	0xbd968068	-0.0734871
56	0x3d661169	0.056168947
57	0x3cf682b2	0.030091617
58	0xbd7ae632	-0.061254688
59	0xbdbd4784	-0.09242156
60	0xbdb4a2f7	-0.088201456
61	0xbd772c1b	-0.060344797
62	0x3daa21b7	0.08307212
63	0x3d8fe08b	0.0702525
64	0xbbe699f2	-0.0070373947
65	0x3c9012aa	0.017587025
66	0xbdc98ff5	-0.09841911
67	0xbbd9a295	-0.0066416957
68	0xbdc5cbc0	-0.09658003
69	0x3d494d1c	0.049145803
70	0x3a7cb2d9	0.00096396875
71	0x3d780ba9	0.060557995
72	0xbd91894c	-0.071062654
73	0xbd93b71a	-0.07212658
74	0xbd13f8a0	-0.03612578
75	0xbdbe32ee	-0.09287058
76	0xbd01c44a	-0.031681336
77	0xbd1740bd	-0.036926974
78	0x3d0419fc	0.032251343
79	0x3d5a0589	0.053227935
80	0xbcae712e	-0.021294203
81	0x3dac8f1d	0.08425734
82	0xbd67b428	-0.056568295
83	0xbd443446	-0.047901414
84	0x3da0f6d9	0.078595825
85	0x3c989d2a	0.01862963
86	0x3cdb855f	0.026796995
87	0xbd15660e	-0.03647428
88	0xbd8b6ab4	-0.068074614
89	0x3c083eab	0.008315722
90	0x3dbf111c	0.09329435
91	0x3dbe3daf	0.09289109
92	0xbc8e39c5	-0.017361531
93	0x3d47d876	0.048790418
94	0x3d1613df	0.036640044
95	0xbd5f5b4d	-0.05453043
96	0xbca44a14	-0.020054854
97	0x3c882519	0.016619252
98	0x3d867987	0.06566148
99	0xbd82a7c4	-0.06379655
100	0xbd25fa9f	-0.040522214
101	0xbd8d2607	-0.06892019
102	0x3d835769	0.064131565
103	0x3d44a36e	0.04800742
104	0xbd7f91ad	-0.062394787
105	0x3d755bd2	0.05990202
106	0xbd7f1e7e	-0.06228494
107	0x3bdc5409	0.006723885
108	0x3d40ec28	0.047100216
109	0xbcd1a88b	-0.025593063
110	0xbda21547	-0.079142146
111	0xbd18fb92	-0.03734929
112	0x3d43b412	0.04777915
113	0x3c950375	0.018190125
114	0x3d9d2c5f	0.07674479
115	0x3d297788	0.04137376
116	0x3dc8905e	0.09793161
117	0x3dbb09b6	0.091327116
118	0xbda94ae0	-0.082662344
119	0x3b491228	0.0030680988
120	0xbd53e601	-0.05173302
121	0x3d9ac66b	0.075573765
122	0xbc81c310	-0.015840083
123	0xbcdfa58e	-0.027300622
124	0xba873f8e	-0.0010318623
125	0x3d08afee	0.033370905
126	0xbda1eb61	-0.07906223
127	0xbd41c28e	-0.047304682
128	0xbd808c0e	-0.06276713
129	0x3a266cb1	0.0006348594
130	0x3bf82a27	0.0075733843
131	0x3cc89869	0.024486737
132	0x3d14c46b	0.03632013
133	0x3d8a724c	0.06760082
134	0x3d160c35	0.036632735
135	0xbc9779b3	-0.018490648
136	0xbbcac018	-0.00618745
137	0x3b8baea9	0.0042627645
138	0x3cd61f5e	0.026138004
139	0xbd2bd777	-0.04195353
140	0x3c22f532	0.009946154
141	0xbd4faa4a	-0.05069951
142	0xba00af18	-0.00049089035
143	0x3c898045	0.016784796
144	0x3cbca2cd	0.023026848
145	0x3db0bb5a	0.086294845
146	0x3c34b1a5	0.011028682
147	0xbd403e3d	-0.046934355
148	0x3dc5b5ae	0.09653793
149	0x3b50c33f	0.0031854657
150	0x3d342373	0.04397912
151	0xbdc1ada3	-0.09456947
152	0x3c1a5685	0.009420042
153	0xbd7c6910	-0.061623633
154	0xbdc89e72	-0.09795846
155	0x3b8b8ccd	0.004258728
156	0xbd10793b	-0.035271864
157	0x3d1b9cbb	0.037991267
158	0x3c38f358	0.011288486
159	0x3dd00e69	0.101589985
160	0x3d8091a6	0.0627778
161	0x3cc3cded	0.023901904
162	0x3d77682c	0.06040208
163	0x3d9df04f	0.07711851
164	0x3d33fd92	0.043942995
165	0x3c8703d9	0.016481327
166	0xbd6f41fa	-0.05841253
167	0xbd6029a2	-0.054727204
168	0x3d32f0b8	0.0436866
169	0xbd37c10a	-0.04486183
170	0xbbf1d523	-0.007380144
171	0x3cd9993e	0.02656233
172	0x3d2b5eb7	0.041838374
173	0x3d85bdd3	0.06530347
174	0xbcd21f66	-0.025649738
175	0x3bc4c572	0.0060049826
176	0xbcbefadb	-0.023312977
177	0x3bfa9c4f	0.007648028
178	0xbcf91abb	-0.030408254
179	0x3d3cb37b	0.046069603
180	0x3b4a14a5	0.003083506
181	0x3c89735a	0.016778637
182	0x3b8dbee6	0.0043257354
183	0x3c8a1d9e	0.016859826
184	0xbc1035be	-0.008801876
185	0xbc9663e5	-0.01835818
186	0xbda56661	-0.08076168
187	0x3d48281a	0.04886637
188	0xbda90b56	-0.08254115
189	0xbc7c2804	-0.0153904
190	0x3dc06230	0.09393728
191	0x3a1b39e3	0.00059214066
192	0x3c8bebce	0.017080214
193	0xbc4e78be	-0.012602029
194	0x3da8e821	0.082474
195	0xbd6cdcd4	-0.057827786
196	0x3d5735f3	0.052541684
197	0xbae753d3	-0.0017648883
198	0x3c62cdb4	0.013842989
199	0xbcdefabc	-0.027219169
200	0xbb686675	-0.003546146
201	0xbd018ecd	-0.031630326
202	0xbd835db5	-0.064143576
203	0xbc239ab9	-0.009985619
204	0xbd7aa910	-0.061196387
205	0xbbeabef2	-0.0071638757
206	0xbdc2d53b	-0.09513327
207	0x3a7f2edc	0.00097344606
208	0x3bc18e80	0.00590688
209	0xbc72031d	-0.01477125
210	0x3d0fbe52	0.035093613
211	0xbcb43afe	-0.022000786
212	0xbd298d7d	-0.0413947
213	0x3d7e8b95	0.062144835
214	0x3d7a7d58	0.061154693
215	0x3d289c80	0.041164875
216	0x3cf00103	0.029297357
217	0xbd6405d8	-0.055669636
218	0x3da14e99	0.078763194
219	0xbc5b77fb	-0.013395305
220	0x3d965f93	0.07342448
221	0xbd9f5a35	-0.077808775
222	0x3db74ca8	0.08950168
223	0x3cb4a2a0	0.022050202
224	0x3c62c2b9	0.013840371
225	0x3cd40acb	0.025884053
226	0x3db0dc67	0.086357884
227	0x3cb28929	0.021793919
228	0xbcae9d73	-0.021315312
229	0x3ca461f0	0.020066231
230	0x3d39213b	0.045197707
231	0x3d9ff771	0.078108676
232	0xbc8a79f0	-0.016903847
233	0x3d8a3060	0.06747508
234	0x3d8fce06	0.07021718
235	0x3c887f15	0.01666216
236	0xbd0d0425	-0.03442778
237	0xbd21f140	-0.039536715
238	0xbc8e32f4	-0.01735828
239	0x3d53b294	0.051683977
240	0x3da71302	0.08157922
241	0xbd3e0039	-0.04638693
242	0x3cb44a85	0.02200819
243	0xbd89c4ac	-0.06726965
244	0x3cb3522f	0.021889774
245	0x3cecc616	0.028903048
246	0xbcf0c7be	-0.02939212
247	0x3cbeefba	0.02330767
248	0x3c5386d9	0.012910568
249	0x3d1b3668	0.037893683
250	0xbd01f68d	-0.03172927
251	0x3d811df3	0.063045405
252	0x3d6156ee	0.055014543
253	0xbd8cf325	-0.06882314
254	0xbd450a64	-0.048105612
255	0x3ac4a41f	0.0015002525

rnn.bias_ih_l0 f4 [300]
0	0xbd93c0d1	-0.07214511
1	0xbcc70ce2	-0.024298135
2	0x3d0a8363	0.033816706
3	0xbc9ac081	-0.018890621
4	0xbd3d3d36	-0.046200953
5	0xbcd7d710	-0.026347667
6	0x3d527b57	0.051387157
7	0xba780b35	-0.0009462119
8	0x3983802e	0.00025081768
9	0xbdb06256	-0.08612506
10	0x3d7f78bc	0.062371
11	0x3d70b764	0.058768645
12	0x3d9fd783	0.078047775
13	0xbd8ad77d	-0.067793824
14	0xbd81c4ec	-0.06336388
15	0xbd2a0932	-0.041512676
16	0xbbe4a8fd	-0.006978153
17	0x3c18ed38	0.009333901
18	0xbd678316	-0.056521498
19	0xbbc44d80	-0.005990684
20	0x3dab9dbf	0.08379697
21	0x3c832203	0.016007429
22	0x3d87be1c	0.06628057
23	0xbc3048ad	-0.010759515
24	0xbcd470ba	-0.025932658
25	0xbbe91032	-0.0071125263
26	0xbce1b3b0	-0.027551502
27	0xbd2f9ec7	-0.04287603
28	0xbd60cb96	-0.054881655
29	0x3ced2433	0.028947925
30	0xbd9b3f59	-0.07580442
31	0x3d8e3286	0.0694323
32	0xbc7cf713	-0.015439766
33	0x3bbfc989	0.0058528823
34	0x3d276edd	0.04087721
35	0x3d29e9bc	0.041482672
36	0x3c7d1bd0	0.015448526
37	0xbc014795	-0.007890602
38	0x3c9e00d9	0.019287514
39	0xbda089cd	-0.078387834
40	0xbb8a0463	-0.0042119487
41	0x3cd47b2a	0.025937635
42	0xbdba7406	-0.09104161
43	0x3d862856	0.06550662
44	0x3d2edeb7	0.042692866
45	0x3d46908c	0.048477694
46	0x3dc13686	0.09434228
47	0xbdbdaa9d	-0.092610575
48	0x3c9bcd7b	0.01901888
49	0xbd143670	-0.03618473
50	0x3cc28de2	0.023749296
51	0x3d364481	0.044498924
52	0xbd71d4a3	-0.059040677
53	0x3d36e57f	0.04465246
54	0xbd829453	-0.06375947
55	0xbcfc7eaa	-0.030822117
56	0x3d538d98	0.051648706
57	0x3bad52fc	0.0052894335
58	0xbd99f86f	-0.07518088
59	0xbd959025	-0.07302884
60	0xbd2a1ce9	-0.041531477
61	0x3cbba2fe	0.02290487
62	0x3d0105c5	0.031499643
63	0xbc6b2d91	-0.014354126
64	0xbc777428	-0.015103377
65	0xbbe12e20	-0.0068719536
66	0xbd96509f	-0.07339596
67	0x3da970d6	0.08273475
68	0xbd2b2ab7	-0.041788783
69	0xbd8398b7	-0.064256124
70	0x3d1e6f08	0.038680106
71	0x3dc3a4d5	0.095529236
72	0xbca02049	-0.019546645
73	0x3d97e10d	0.07415972
74	0xbbc21eed	-0.005924097
75	0x3dbe01cd	0.09277687
76	0xbd95d5d5	-0.07316176
77	0xbd621f44	-0.0552056
78	0x3dae605e	0.08514474
79	0xbd2249a8	-0.039621025
80	0x3d177dd9	0.036985252
81	0xbca60aaf	-0.020268766
82	0x3b3c0294	0.002868806
83	0x3d3eaa78	0.04654929
84	0x3db554a2	0.08854033
85	0xbc8d9bc0	-0.017286181
86	0x3db33666	0.0875061
87	0x3c70404d	0.014663768
88	0x3d0dc514	0.034611776
89	0xbd407ecb	-0.04699592
90	0x3c528a34	0.012850333
91	0xbd9bfc06	-0.07616429
92	0x3cc2dd26	0.023787092
93	0xbd3c0a26	-0.045908116
94	0x3d240416	0.04004296
95	0xbdc37fa0	-0.09545827
96	0xbc556cab	-0.013026397
97	0x3d0f27db	0.03495012
98	0xbc86272f	-0.016376106
99	0x39d532c0	0.00040664338
100	0x3d1dc627	0.03851905
101	0x3ceb8190	0.028748304
102	0x3d7154e9	0.058918867
103	0xbd7f5d6d	-0.062344957
104	0xbc57db17	-0.013174794
105	0x3d71f043	0.059067022
106	0xbd9b3451	-0.07578338
107	0xbd5d93a3	-0.054095875
108	0xbd266922	-0.040627606
109	0xbd80dd7f	-0.06292247
110	0x3d21f926	0.039544247
111	0x3cf05c08	0.029340759
112	0x3da15198	0.07876891
113	0xbd73d6fa	-0.05953119
114	0xbdcbe7d8	-0.0995633
115	0x3dabb59a	0.08384247
116	0x3d44ff07	0.048094776
117	0xbcb9ff98	-0.022704884
118	0xbda48f37	-0.080351286
119	0xbc83e10a	-0.016098518
120	0x3d5618ac	0.052269623
121	0xbd3a465f	-0.045477267
122	0x3c477653	0.012174207
123	0xbcf7a968	-0.030232146
124	0x3d83846a	0.0642174
125	0xbd2bed95	-0.041974623
126	0xbd840b40	-0.06447458
127	0x3ce638eb	0.028103312
128	0x3c2c2b9b	0.010508443
129	0x3da9a2cf	0.082830064
130	0xbd35d113	-0.04438884
131	0xbcb24e28	-0.021765783
132	0xbd91fdd9	-0.07128496
133	0x3d826369	0.06366617
134	0xbd74e901	-0.059792522
135	0x3d899852	0.06718506
136	0x3db66a16	0.08906953
137	0x3da80ce4	0.08205584
138	0xbcab0309	-0.02087547
139	0x3bcffede	0.006347521
140	0x3d378c74	0.04481168
141	0x3d504f59	0.05085692
142	0x3c9a9770	0.01887104
143	0x3db8b682	0.090191856
144	0xbc2125b8	-0.009835653
145	0xbdb0d7c2	-0.086349025
146	0xbcdb182a	-0.02674492
147	0xbdae32a9	-0.085057564
148	0x3c3441a9	0.011001983
149	0xbdab3566	-0.08359794
150	0x3d9c3346	0.07626967
151	0x3b8b639c	0.0042538177
152	0x3dbb0df5	0.091335215
153	0x3d589836	0.052879535
154	0xbd18b3f7	-0.037281003
155	0xbd9a5925	-0.07536534
156	0xbd937490	-0.07199967
157	0x3da3dca2	0.08001067
158	0xbd152320	-0.03641045
159	0x3d15de4a	0.036588944
160	0xbd6bb4e2	-0.05754555
161	0x3d91298b	0.07088002
162	0xbdcaa5dc	-0.098949164
163	0xbd43f171	-0.04783768
164	0x3cc8ea79	0.024525868
165	0x3c05c4c7	0.008164591
166	0xbd0d211e	-0.03445541
167	0x3d2f8814	0.042854384
168	0xbd86efca	-0.06588705
169	0x3d869aca	0.065724924
170	0x3d8d90e6	0.06912403
171	0xbd0246a5	-0.031805653
172	0x3dbc730c	0.09201631
173	0x3dbcb3fc	0.09214017
174	0x3d137066	0.035995863
175	0x39b3bc3a	0.0003428178
176	0x3c59c3d8	0.013291322
177	0x3d0fc6b0	0.035101593
178	0xbca8acd4	-0.020590223
179	0x3c8eb4bf	0.01742017
180	0xbdb83a37	-0.089954786
181	0x3dc1f121	0.0946982
182	0x3c023f1b	0.007949616
183	0xbda1a184	-0.07892135
184	0x3d8e305c	0.069428176
185	0x3d32cb88	0.043651134
186	0x3d402ae3	0.0469159
187	0x3d5c97be	0.05385565
188	0x3d1e5cac	0.038662598
189	0x3cc6e595	0.024279395
190	0xbdcf50c0	-0.10122824
191	0xbc349a8d	-0.011023176
192	0xbda37732	-0.07981719
193	0x3c88cc32	0.01669893
194	0xbd4dac01	-0.050212864
195	0xbd71f18b	-0.059068244
196	0x3da3b20c	0.07992944
197	0x3d99e65f	0.07514643
198	0xbd740229	-0.059572373
199	0xbd38bf23	-0.045104157
200	0xbc61844c	-0.013764452
201	0xbc90ae3c	-0.017661206
202	0xbceec18e	-0.029145028
203	0x3d1c04f8	0.038090676
204	0x3d18417c	0.037171826
205	0xbdb9fe07	-0.09081655
206	0x3d8f4dfc	0.06997296
207	0xbda86aac	-0.08223471
208	0x3db406ea	0.08790381
209	0xbce1f3a5	-0.027582
210	0xbdba6e40	-0.0910306
211	0x3d64b0c7	0.05583265
212	0xbd44293a	-0.04789088
213	0xbd8a0352	-0.067389145
214	0x3dafe698	0.08588904
215	0x3d9301fb	0.07178112
216	0x3d52c978	0.051461667
217	0xbd934461	-0.071907766
218	0x3d1536e7	0.036429312
219	0xbcc9f5d5	-0.024653355
220	0xbd723f2f	-0.059142288
221	0x3d63b14e	0.055589013
222	0x3d806404	0.062690765
223	0x3d250713	0.04028995
224	0xbd4a30c9	-0.04936293
225	0xbd014bf9	-0.031566594
226	0xbd5bc129	-0.05365101
227	0x3dbce3e3	0.092231534
228	0x3ce5d4c8	0.028055564
229	0xbb068306	-0.0020524873
230	0xbcf0d03e	-0.029396173
231	0xbda75327	-0.08170157
232	0x3d9c07a9	0.076186486
233	0xbd7524d5	-0.05984958
234	0x3c16076a	0.009157041
235	0xbcf0d474	-0.02939818
236	0xbd89b3f3	-0.06723776
237	0xbc06a991	-0.008219139
238	0x3d389839	0.045067046
239	0xbda2a4e0	-0.07941604
240	0xbdc2a394	-0.09503856
241	0xbd4f190d	-0.050561
242	0x3d15f9f1	0.036615316
243	0x3c397cc8	0.011321254
244	0x3d1dc6f4	0.038519815
245	0xbd7459cf	-0.05965596
246	0x3d9c911c	0.07644865
247	0xbd13691b	-0.03598891
248	0x3d3402bd	0.043947924
249	0xbd051e6b	-0.032499712
250	0x3d97cff1	0.074127086
251	0x3c0ef735	0.008725931
252	0xbd740c13	-0.059581827
253	0xbd76795e	-0.06017434
254	0x3db90534	0.090341955
255	0x3db5634b	0.08856829

rnn.bias_hh_l0 f4 [300]
0	0x3dc16660	0.094433546
1	0x3da8609e	0.08221553
2	0x3d602950	0.0547269
3	0x3dcb5c12	0.099296704
4	0xbd6eb043	-0.058273565
5	0x3d3aa851	0.045570675
6	0xbda7d55c	-0.08194992
7	0x3caad102	0.020851616
8	0xbdb7e632	-0.08979453
9	0x3b6219b4	0.0034500184
10	0xbd681e01	-0.05666924
11	0x3c7d603c	0.015464839
12	0x3dba4363	0.09094884
13	0x3d7af5c6	0.061269544
14	0x3c3a16f7	0.011358014
15	0x3d300e78	0.04298255
16	0xbd073ee3	-0.033018958
17	0x3da122ca	0.078679636
18	0x3da0e1e8	0.07855588
19	0x3d451cc3	0.048123132
20	0xbd9e3d98	-0.07726592
21	0xbdc94bdf	-0.098289244
22	0xbd1e39ec	-0.038629457
23	0x3d830437	0.06397288
24	0xbcaec887	-0.021335853
25	0x3d96ab06	0.07356839
26	0xbd6d265d	-0.057897914
27	0x3dbd92d9	0.092565246
28	0xbdbfa706	-0.09358029
29	0xbb4cb1d6	-0.0031233928
30	0x39d310ea	0.00040257658
31	0xbd6850c9	-0.056717668
32	0x3d564da5	0.05232014
33	0xbd8776df	-0.0661447
34	0x3cb6c92f	0.022312729
35	0x3c0d28fe	0.00861573
36	0x3bf4f4a3	0.007475452
37	0xbdb7d1b8	-0.089755476
38	0xbdbc6020	-0.09198022
39	0xbc3b65a9	-0.011437812
40	0x3d897a0c	0.06712732
41	0xbd856e8f	-0.06515228
42	0xbc452b0e	-0.012034191
43	0x3d368ad9	0.04456601
44	0x3d7b968a	0.061422862
45	0xbcb5d7dc	-0.022197656
46	0xb9c59afc	-0.0003769024
47	0x3d6354a1	0.05550063
48	0xbce24832	-0.027622316
49	0x3d657bf4	0.056026414
50	0x3d336b50	0.043803513
51	0xbd55c2b5	-0.05218764
52	0x3cca1acc	0.02467098
53	0x3d0ce385	0.034396667
54	0xbdc2ce4e	-0.09512006
55	0x3da84632	0.08216514
56	0x3d414678	0.047186345
57	0x3d857a40	0.06517458
58	0xbc56703e	-0.013088284
59	0xbda58b2e	-0.08083187
60	0xbd02ad60	-0.031903625
61	0xbdc392fb	-0.09549519
62	0x3cad15dd	0.02112859
63	0x3dcca3fe	0.099922165
64	0x3d001d10	0.031277716
65	0x3d6c9910	0.05776316
66	0xbd06fa5e	-0.032953613
67	0x3da2b5cf	0.079448335
68	0x3b6fce7d	0.0036591582
69	0x3d8fba24	0.070179254
70	0xbdb88085	-0.09008888
71	0x3da2753a	0.079325154
72	0x3d5ea617	0.054357614
73	0x3d092fe7	0.03349295
74	0x3d747ae3	0.059687506
75	0x3ce3d8be	0.027813312
76	0xbd8828ff	-0.066484444
77	0xbd85ef61	-0.065397985
78	0x3d8a549c	0.06754419
79	0xbd530918	-0.051522344
80	0x3d8e7bc8	0.06957203
81	0xbdb0ce07	-0.086330466
82	0x3c1245a7	0.008927739
83	0x3db37e2f	0.08764302
84	0xbdbaca7d	-0.09120653
85	0x3cd91e73	0.026503777
86	0xbaa4568b	-0.0012537999
87	0x3d69fbcb	0.057124894
88	0x3d088b7e	0.033336155
89	0x3cd10e8d	0.025519634
90	0x3ca957da	0.020671774
91	0xbd5c0433	-0.053714942
92	0xbdb50fc2	-0.08840896
93	0x3d390837	0.04517385
94	0xbd8ead0f	-0.06966602
95	0x3d916c8e	0.07100783
96	0x3b2d075f	0.0026402099
97	0xbcc75c82	-0.024336103
98	0x3b306758	0.0026917066
99	0x3c257f72	0.010101186
100	0x3da6cf22	0.08144976
101	0x3d7a0fd8	0.061050266
102	0x3bc7f911	0.006102689
103	0x3d9027e3	0.07038858
104	0xbca0f94b	-0.019650122
105	0x3d49dee9	0.04928485
106	0xbd617392	-0.055041857
107	0x3d2195b7	0.03944942
108	0x3cb5ed2b	0.022207817
109	0xbd0c68d8	-0.034279674
110	0xbd039331	-0.032122795
111	0x3d9428da	0.07234354
112	0x3c85c9f1	0.016331645
113	0xbd744517	-0.0596362
114	0xbb2c813a	-0.0026322142
115	0x3dabafef	0.08383166
116	0xbcb40ad6	-0.021977823
117	0xbdb5b571	-0.08872498
118	0x3d9e3148	0.077242434
119	0xbd8ef7ef	-0.06980883
120	0x3d1ad980	0.03780508
121	0x3d94a2a0	0.07257581
122	0xbcfb7895	-0.030697146
123	0x3ca50b92	0.020147119
124	0xbd67457d	-0.056462754
125	0x3d0c87c9	0.034309182
126	0x3d3ada72	0.045618482
127	0xbda91a24	-0.08256939
128	0x3dc0d892	0.094163075
129	0x3d840f85	0.064482726
130	0x3d8770de	0.066133246
131	0x3cd99878	0.02656196
132	0x3ce5191c	0.027966075
133	0xbd745ec3	-0.059660684
134	0xbd929887	-0.071579985
135	0x3c0b036f	0.008484705
136	0x3d892313	0.06696143
137	0xbdc7fa34	-0.09764519
138	0xbb8b9d6d	-0.00426071
139	0x3d061c92	0.03274209
140	0xbd545bb9	-0.051845286
141	0xbc05bc8d	-0.00816263
142	0xbc7bbb3d	-0.015364465
143	0x3d104b5a	0.03522811
144	0x3d98bf27	0.074583344
145	0xbd84bb5e	-0.0648105
146	0xbc4afdc8	-0.012389608
147	0x3d3de998	0.04636535
148	0xbcca7df8	-0.02471827
149	0x3dbe5016	0.09292619
150	0x3d2882db	0.04114042
151	0x3db077c7	0.08616596
152	0xbd9642ea	-0.073369816
153	0x3d0489fc	0.032358155
154	0xbd46fe87	-0.04858258
155	0x3d342f51	0.043990437
156	0x3dbec89d	0.09315608
157	0x3ceb118f	0.028694896
158	0x3d9596ad	0.0730413
159	0xbcfdadf4	-0.030966736
160	0xbc681705	-0.0141656445
161	0xbdaadced	-0.083429195
162	0xbdbc60ec	-0.09198174
163	0x3c93110d	0.017952466
164	0xbd6a75f8	-0.05724141
165	0xbd4f51e5	-0.05061521
166	0x3d51a509	0.05118278
167	0x3daf3550	0.085550904
168	0xbd4f2793	-0.05057485
169	0x3d2ff374	0.042956784
170	0x3d4f02b3	0.050539684
171	0x3d3b7c6e	0.045772962
172	0x3da04fb9	0.07827706
173	0x3d0034af	0.031300243
174	0x3da19302	0.07889368
175	0xbd30fea1	-0.043211583
176	0xbdb07c0b	-0.08617409
177	0x3d609e5d	0.054838527
178	0xbc82b581	-0.015955688
179	0x3d3b049f	0.045658704
180	0x3d00b74f	0.031424817
181	0x3d3748f4	0.044747308
182	0xbdbc5f97	-0.0919792
183	0xbce6bfcd	-0.02816763
184	0xbc120d84	-0.008914355
185	0x3dc8873a	0.097914174
186	0x3d496bc6	0.049175046
187	0xbcfbcd19	-0.030737447
188	0xbce133a4	-0.027490444
189	0x3ca15835	0.01969538
190	0xbd836e91	-0.06417573
191	0xbd392456	-0.04520067
192	0x3c18ad49	0.009318658
193	0xbc5851b8	-0.013203077
194	0x3cda119b	0.026619723
195	0xbcd16a6c	-0.025563441
196	0xbb8a24ea	-0.0042158263
197	0x3cdfdb52	0.02732626
198	0x3dbdd8ad	0.09269843
199	0x3cd91520	0.026499331
200	0xbdb6babe	-0.08922337
201	0xbd2eaaaf	-0.042643245
202	0x3c989b45	0.018628726
203	0x3d89e8cd	0.06733856
204	0xbd2012e6	-0.039080523
205	0xbdc30207	-0.09521871
206	0xbcb5381a	-0.022121478
207	0xbd375894	-0.04476221
208	0xbd8be2fa	-0.06830402
209	0xbc324f39	-0.010883146
210	0x3db85510	0.090005994
211	0x3da23dc3	0.07921936
212	0xbd447f97	-0.04797324
213	0xbd085a04	-0.03328897
214	0x3d1cf449	0.038318906
215	0xbabefe46	-0.0014571629
216	0x3d13df42	0.036101587
217	0x3ccc2979	0.02492212
218	0xb994ec21	-0.0002840469
219	0x3da5db3f	0.080984585
220	0xbd78c0c0	-0.060730696
221	0xbd888854	-0.066666275
222	0x3c4099db	0.011755432
223	0xbda2cbcf	-0.0794903
224	0xbc9cee6c	-0.019156657
225	0x3dc12e1c	0.09432623
226	0x3be2cb59	0.0069212136
227	0x3d58b3f1	0.05290598
228	0x3dc5c7fe	0.09657286
229	0x3d7d4ab1	0.06183881
230	0x3d4658ba	0.04842446
231	0xbb38cfd0	-0.0028200038
232	0xbdbe0253	-0.09277787
233	0x3dc4afd9	0.09603853
234	0xbdc04c74	-0.09389582
235	0xbd9cb2a7	-0.07651263
236	0x3cd8e847	0.026477946
237	0xbda2fca9	-0.07958347
238	0xbd324388	-0.043521434
239	0x3dc2a294	0.095036656
240	0xbdc2a727	-0.09504538
241	0xbd71c23f	-0.059023138
242	0x3d1f6c44	0.03892161
243	0x3c1a7e13	0.0094294725
244	0x3d101356	0.03517469
245	0xbc5ba3f2	-0.013405787
246	0x3c70fb71	0.014708386
247	0x3d9656a0	0.07340741
248	0xbcfc8959	-0.030827211
249	0xbc49f366	-0.012326097
250	0xbd7f2970	-0.062295377
251	0x3d8e2cf7	0.0694217
252	0x3d817186	0.06320481
253	0x3d0c5d86	0.03426888
254	0x3db3313c	0.08749625
255	0xbd50bfbf	-0.050964113

fc_out1.weight f4 [50, 100]
0	0x3d144155	0.036195118
1	0xbcb4c845	-0.022068152
2	0xbd422c59	-0.047405574
3	0xbdc57f50	-0.096434236
4	0xbd1671a8	-0.036729485
5	0x3d907f9c	0.070555896
6	0x3c3dd5d0	0.011586621
7	0xbcd6b614	-0.026209868
8	0xbcf395e1	-0.029734554
9	0x3db2818a	0.08716114
10	0xbda87410	-0.08225262
11	0xbdb74e55	-0.089504875
12	0xbcb54eb7	-0.02213226
13	0xbdcc9b2c	-0.09990534
14	0xb80fa984	-3.425173e-05
15	0x3d25bfca	0.040466107
16	0x3db4ae3e	0.088222966
17	0x3dbd9c7d	0.092583634
18	0x3d19918b	0.037492316
19	0x3cc76f20	0.02434498
20	0x3dc6e473	0.09711542
21	0x3c8f47ad	0.017490232
22	0xbdbd3a52	-0.09239639
23	0x3db81dcf	0.089900605
24	0xbc9e7c6d	-0.01934644
25	0x3d320d90	0.043469965
26	0xbd50ee76	-0.051008664
27	0x3d8d94aa	0.06913121
28	0x3d9c9aed	0.07646737
29	0xbd544258	-0.051821083
30	0x3c7cc7cf	0.015428497
31	0x3ccbf3ef	0.02489659
32	0x3d730eeb	0.0593404
33	0x3d90ddb2	0.07073535
34	0xbd67545b	-0.056476932
35	0xbcc7130c	-0.024301074
36	0x3d4c1a82	0.049829967
37	0x3b285d16	0.002569025
38	0xbc429803	-0.011877063
39	0xbd68c5d3	-0.056829285
40	0xbdab0e07	-0.08352285
41	0xbcc67fce	-0.024230864
42	0x3d16aebd	0.036787737
43	0xbd2f6e6b	-0.042829912
44	0x3d6802ee	0.05664342
45	0x3db4f3e5	0.08835582
46	0xbd6bd0eb	-0.057572287
47	0x3d81d9f1	0.06340397
48	0x3dc88769	0.097914524
49	0x3d9725e1	0.07380272
50	0xbda71144	-0.0815759
51	0x3b58d4eb	0.0033085893
52	0x3d1a0b6e	0.037608556
53	0x3dc71c1a	0.09722157
54	0x39f605ce	0.000469251
55	0xbdaaa3d4	-0.08332029
56	0x3be929e3	0.007115589
57	0xbd60c540	-0.054875612
58	0xbd02664b	-0.031835835
59	0xbdc1226a	-0.09430392
60	0x3d7f6199	0.062348936
61	0xbdb213a9	-0.08695156
62	0x3d4cc7bd	0.049995173
63	0x3d276c42	0.040874727
64	0xbdc12809	-0.09431464
65	0xbd4434e3	-0.047902
66	0xbbcad681	-0.0061901216
67	0xbd3acf94	-0.04560812
68	0xbd7ed7ab	-0.062217396
69	0xbd889bd0	-0.06670344
70	0x3d5c762c	0.053823635
71	0xbd138bc6	-0.03602197
72	0x3d9e4eb3	0.077298544
73	0x3dbff463	0.09372785
74	0x3d7add02	0.061245926
75	0x3b877714	0.0041340683
76	0x3d20d688	0.039267093
77	0xbd137849	-0.036003385
78	0xbd9ea13e	-0.07745598
79	0x3b6c97ec	0.0036101295
80	0x3bc49eba	0.006000367
81	0xbdab3f0c	-0.083616346
82	0xbc286882	-0.010278823
83	0xbda32854	-0.07966676
84	0xbcd1da04	-0.025616653
85	0xbbef4fb7	-0.007303204
86	0xba9b2246	-0.0011835776
87	0xbd186447	-0.037205007
88	0x3dafc38b	0.08582219
89	0x3d83db9e	0.06438373
90	0x3cff4b12	0.031163726
91	0xbd1e4ab6	-0.03864547
92	0xbdc36f9f	-0.095427744
93	0xbd4250ce	-0.047440343
94	0xbd5202ec	-0.051272318
95	0x3da981d5	0.082767166
96	0xbcb39aa8	-0.021924332
97	0xbc885b61	-0.016645135
98	0xbd863caf	-0.06554543
99	0x3d4a1124	0.049332753
100	0x3c7003c0	0.014649332
101	0x3d995a22	0.074878946
102	0x3d8e0d18	0.06936091
103	0xbcdae427	-0.02672012
104	0x3bac2b1a	0.0052541615
105	0x3d2404da	0.04004369
106	0x3d7c7b1a	0.061640836
107	0x3db9774d	0.09055958
108	0x3d4497d7	0.04799637
109	0x3dacd32d	0.08438716
110	0x3cf1dea7	0.029525114
111	0x3da7f910	0.08201802
112	0x3dc1335f	0.094336264
113	0xbc04db0d	-0.008108866
114	0x3d44dd0d	0.048062373
115	0xbb55e79a	-0.0032639266
116	0x3d8a80dd	0.0676286
117	0x3cc35a7a	0.023846854
118	0x3c766d73	0.015040743
119	0x3d610453	0.054935765
120	0xbc19454d	-0.0093549015
121	0x3cc34ec7	0.023841275
122	0x3c8b68c7	0.017017735
123	0xbd75e5bd	-0.06003355
124	0xbdca7fdf	-0.09887671
125	0x3ad82e67	0.0016493321
126	0x3b267b00	0.0025402904
127	0x3dbd175f	0.09232973
128	0x3d8eccaf	0.06972634
129	0xbda9b56f	-0.08286559
130	0x3bfd4780	0.0077294707
131	0x3dcb1948	0.099169314
132	0x3c4180f3	0.011810529
133	0x3d2ed450	0.042682946
134	0x3c803db3	0.01565442
135	0x3d54c813	0.05194862
136	0x3b613633	0.003436458
137	0x3da54ab2	0.080708876
138	0x3d7cbd7d	0.061704148
139	0xbd35a15a	-0.04434333
140	0x3d43ee17	0.047834482
141	0x3c3cf95a	0.011534059
142	0xbd749127	-0.05970874
143	0xbd84f0a2	-0.064912096
144	0x3d65e140	0.05612302
145	0x3d91b2a5	0.07114152
146	0xbd2e1eca	-0.04250983
147	0xba8f5ccd	-0.0010937691
148	0xbd1173e0	-0.035510898
149	0x3c845907	0.016155733
150	0x3d4a8c1a	0.049450018
151	0x3d61abcd	0.055095483
152	0x3db7ced0	0.08974993
153	0x3b38079a	0.0028080703
154	0xbb67c19a	-0.0035363198
155	0x3d37edfd	0.044904698
156	0x3d87acf8	0.06624788
157	0xbb064400	-0.0020487309
158	0x3c2263cd	0.00991149
159	0x3d6b0007	0.057373073
160	0x3d81076a	0.06300242
161	0x3db7feb2	0.08984126
162	0x3c307a33	0.010771322
163	0xbcdb742d	-0.026788795
164	0x3bdc474d	0.006722367
165	0xbd62dff3	-0.055389356
166	0x3d137847	0.036003377
167	0xbd88b187	-0.06674486
168	0x3d17a98d	0.03702693
169	0xbc12b54d	-0.008954358
170	0x3a46499a	0.0007564068
171	0x3d8e0660	0.0693481
172	0xbd62f87a	-0.055412747
173	0x3db4aa3d	0.08821533
174	0x3d460637	0.04834577
175	0xbda64f93	-0.08120646
176	0x3dcb10fa	0.099153474
177	0x3c0b13a7	0.008488572
178	0xbcd8240d	-0.026384378
179	0x3d2aeb20	0.04172814
180	0x3daad7f2	0.083419695
181	0xbd53184a	-0.051536836
182	0x3d9075c7	0.07053714
183	0x3c9ad087	0.018898262
184	0xbd96a05a	-0.073548034
185	0xbce359a0	-0.027752697
186	0xba3e7f33	-0.0007266879
187	0xbdb425a3	-0.08796241
188	0xbd84dcf8	-0.06487459
189	0xbcfce640	-0.03087151
190	0x3cf2d14d	0.029640818
191	0x3d000357	0.031253185
192	0x3d135d47	0.035977628
193	0xbc08899a	-0.008333588
194	0x3d96cb7a	0.07363029
195	0x3d7cd06a	0.061722197
196	0x3d01747d	0.031605233
197	0x3d9e5e07	0.07732778
198	0xbd19dcf7	-0.037564244
199	0xbd81ce23	-0.063381456
200	0xbdc291c8	-0.09500462
201	0xbd89a951	-0.06721748
202	0x3db3146d	0.0874413
203	0xbda5f930	-0.08104169
204	0xbda70c0c	-0.08156595
205	0xbd06683e	-0.032814257
206	0xbc03f23c	-0.008053359
207	0x3a82c37c	0.0009976472
208	0x3d32e483	0.043674957
209	0xbda5df3a	-0.08099218
210	0xbd849edc	-0.064756125
211	0x3d0b82aa	0.034060158
212	0x3c5a679a	0.013330365
213	0xbcf3c98e	-0.029759195
214	0x3cc02d13	0.023458993
215	0xbd30923f	-0.04310822
216	0x3c0694f1	0.008214221
217	0xbad65333	-0.00163517
218	0x3da66810	0.08125317
219	0xbda88b56	-0.08229701
220	0xbd6d02c4	-0.057863966
221	0xbcd16a15	-0.02556328
222	0xbca8d248	-0.020608082
223	0xbdc7b77a	-0.09751792
224	0xbd00a237	-0.0314047
225	0x3afbca2d	0.0019210033
226	0x3cdd393b	0.027004829
227	0x3d472d53	0.04862721
228	0x3c558e2f	0.0130343875
229	0xbc10716c	-0.008816104
230	0xbda4bc2d	-0.08043704
231	0xbca97a72	-0.02068827
232	0x3cc1a08e	0.023636129
233	0xbd0ed74e	-0.0348733
234	0xbc35c354	-0.011093933
235	0xbd7c89a9	-0.06165472
236	0xbdc999c1	-0.09843779
237	0xbdb51d7d	-0.08843515
238	0x3dc0fa10	0.09422696
239	0xbd6d0973	-0.05787034
240	0xbd86f655	-0.06589953
241	0x3c44987f	0.0119992485
242	0xbc52cc08	-0.012866028
243	0xbdb5a838	-0.08869976
244	0x3d6a8f36	0.057265483
245	0xbdae7e42	-0.085201755
246	0x3d6c05bf	0.057622667
247	0xbd9c0e50	-0.076199174
248	0x3d0ddf78	0.034636945
249	0xbdcda88b	-0.10041913
250	0x3d3408cc	0.0439537
251	0x3dacf313	0.084448
252	0x3d3a61b1	0.045503322
253	0xbd8877f8	-0.06663507
254	0x3abbd0dc	0.0014329213
255	0xbdb27598	-0.087138355

fc_out1.bias f4 [50]
0	0x3d1f2e8e	0.038862757
1	0xbd37bb3a	-0.044856288
2	0xbd017c47	-0.03161266
3	0x3db38390	0.08765328
4	0x3bfc019f	0.007690623
5	0xbd0efcdc	-0.034909114
6	0xbbf57541	-0.0074907844
7	0x3c61428e	0.013748778
8	0x3c643d96	0.013930699
9	0x3da2a0e1	0.079408415
10	0x3d1cc371	0.038272325
11	0xbda2471e	-0.07923721
12	0x3ce817da	0.028331686
13	0x3dc80a18	0.0976755
14	0xbcd032f3	-0.02541492
15	0x3d884a03	0.066547416
16	0x3dadbb7c	0.084830254
17	0xbc5cc5f5	-0.013474931
18	0xbda96743	-0.08271649
19	0x3d2060fd	0.039154995
20	0x3db0bb93	0.08629527
21	0xbd8e7432	-0.06955756
22	0x3cf31e74	0.029677607
23	0xbd2f01ad	-0.042726208
24	0xbd299e40	-0.041410685
25	0xbd4147cc	-0.04718761
26	0x3cdb4588	0.026766554
27	0xbc2ab75a	-0.010419691
28	0xbafa4b33	-0.0019095897
29	0x3cfd3338	0.030908212
30	0x3d190f0a	0.037367858
31	0x3d74855a	0.059697486
32	0x3db049e7	0.08607846
33	0xbd2aed03	-0.04172994
34	0x3c7d6ae4	0.015467379
35	0xbd37a310	-0.044833243
36	0x3dad5e51	0.08465255
37	0xbd5f63aa	-0.054538406
38	0xbd8366e8	-0.06416112
39	0x3d1b1808	0.037864715
40	0x3dc4b39d	0.09604571
41	0xbd6438c3	-0.055718195
42	0xbd76920a	-0.060197867
43	0xbc2fa703	-0.010720971
44	0x3d9766e3	0.07392671
45	0x3c54de35	0.012992431
46	0x3d1f0c4e	0.038830094
47	0x3d1dc40a	0.038517036
48	0x3d03a5ac	0.03214042
49	0x3d218f97	0.03944358

fc_out.weight f4 [2, 50]
0	0xbdf0d36a	-0.11759074
1	0x3c6074fc	0.013699766
2	0x3cd39fd1	0.025833042
3	0xbda5ccd8	-0.080957115
4	0x3da1f51d	0.0790808
5	0xbdac1bc3	-0.08403733
6	0x3dcb63a1	0.09931112
7	0x3caf8164	0.021424003
8	0x3da529f2	0.08064641
9	0x3dfb38a7	0.12266665
10	0x3dced1f2	0.10098638
11	0xbac0bd2e	-0.0014704817
12	0xbde4318f	-0.11142265
13	0x3da07f76	0.07836811
14	0x3c108bad	0.008822364
15	0xb9f7fb29	-0.0004729864
16	0xbdceba5f	-0.10094141
17	0x3db16855	0.08662478
18	0xbd94640d	-0.07245646
19	0xbd446001	-0.04794312
20	0x3ca0215d	0.019547159
21	0xbddabb82	-0.106802955
22	0xbd716180	-0.058930874
23	0xbdace3de	-0.084419
24	0xbdd8e543	-0.10590603
25	0x3d1c0414	0.038089827
26	0xbc3b2192	-0.011421578
27	0xbc524622	-0.012834104
28	0x3d9d70b3	0.07687511
29	0x3df87512	0.121317044
30	0x3d2d52de	0.042315356
31	0xbd84ff2f	-0.06493985
32	0x3c5f8bc5	0.0136441635
33	0x3d63f093	0.05564935
34	0xbe074673	-0.13210468
35	0x3d37e9e0	0.044900775
36	0xbd6ab9f1	-0.057306234
37	0x3bcc34d5	0.006231884
38	0xbc0e66f6	-0.00869154
39	0x3dad497e	0.08461283
40	0x3d69c3c7	0.057071473
41	0xbdc41b0c	-0.09575471
42	0xbc7a12fa	-0.015263313
43	0x3d8a1d86	0.067439124
44	0xbd0b82e1	-0.034060363
45	0x3b9fd8b6	0.004878129
46	0x3e0b7dd7	0.13622223
47	0x3c834b00	0.016026974
48	0xbdb87bba	-0.09007974
49	0x3d3762a8	0.04477182
50	0xbd8b68d9	-0.068071075
51	0x3e0ec2ff	0.13941573
52	0x3d2c590a	0.0420771
53	0x3d88f8a7	0.06688052
54	0xbd25f35d	-0.040515292
55	0xbe03358c	-0.12813395
56	0x3d4d7a4f	0.05016547
57	0x3dceb52e	0.10093151
58	0x3d57a729	0.05264965
59	0x3cdf13a4	0.027231045
60	0xbd3c8a57	-0.04603037
61	0x3dd097b5	0.10185186
62	0x3cfdda65	0.030987928
63	0xbcdab33b	-0.026696792
64	0xbda96c77	-0.08272641
65	0xbd084dc8	-0.033277303
66	0x3db523f6	0.0884475
67	0xbde4c32c	-0.111700386
68	0x3dab6b4a	0.08370073
69	0x3dca4482	0.09876348
70	0xbdd08911	-0.10182393
71	0x3d1da031	0.03848285
72	0xbdb45a5a	-0.08806296
73	0x3d8f2c50	0.06990874
74	0xbe0cb278	-0.13739955
75	0x3ddc662b	0.107616745
76	0x3ccfed4c	0.025381707
77	0x3e004041	0.12524511
78	0x3c32cc28	0.010912932
79	0xbdc58342	-0.09644176
80	0x3dce4d41	0.10073329
81	0xbd1f8ed3	-0.038954567
82	0xbc141e9e	-0.009040503
83	0xbb72804d	-0.0037002743
84	0x3dbf4d1d	0.0934088
85	0xbe0dcf8f	-0.13848709
86	0xbde51d4d	-0.11187229
87	0xbd94c59f	-0.07264256
88	0x3dae6857	0.08515995
89	0x3da9f98b	0.0829955
90	0x3e0a51ff	0.13507842
91	0xbb632a72	-0.003466275
92	0xbda05779	-0.07829184
93	0xbb5b53cb	-0.0033466693
94	0xbcd4a7e9	-0.025958972
95	0x3b8efad7	0.0043633985
96	0xbe04cf25	-0.12969644
97	0xbdf930fa	-0.12167545
98	0xbd7c00e7	-0.061524298
99	0x3d24f750	0.040274918

fc_out.bias f4 [2]
0	0x3dc7eae7	0.09761601
1	0x3d785074	0.0606236

exp_avg f4 [300, 2]
0	0xb84658b6	-4.7289497e-05
1	0xb8976837	-7.2196526e-05
2	0x37a21d98	1.9325686e-05
3	0xb81c5a2f	-3.727729e-05
4	0xb8648564	-5.4483666e-05
5	0xb8aedbc7	-8.337903e-05
6	0xb57420fc	-9.094508e-07
7	0x35408523	7.1719313e-07
8	0x3708e287	8.158974e-06
9	0xb774fd66	-1.4602532e-05
10	0xb89a9b2c	-7.372195e-05
11	0xb8cbb015	-9.712592e-05
12	0xb8e69d99	-0.000109966095
13	0xb934184b	-0.00017175188
14	0x39abc04d	0.00032758937
15	0x3981f5e8	0.00024788012
16	0xb89e81ce	-7.558205e-05
17	0xb8ac9652	-8.2295985e-05
18	0x38772c36	5.8930564e-05
19	0x388be351	6.6703775e-05
20	0x38615f5f	5.3733e-05
21	0xb6afc30d	-5.2381133e-06
22	0xb96f0ff8	-0.00022798765
23	0xb9606605	-0.0002140031
24	0xb816384d	-3.581522e-05
25	0xb8351b05	-4.3178927e-05
26	0x3975d362	0.00023443767
27	0x39966387	0.00028684383
28	0x37e1e1dc	2.6927264e-05
29	0x38c46232	9.3642986e-05
30	0xb9816291	-0.00024678235
31	0xb998a759	-0.00029116383
32	0x37a23589	1.9336834e-05
33	0x37219e07	9.633141e-06
34	0x385b7e30	5.233119e-05
35	0xb75d68ca	-1.3197025e-05
36	0xb7577244	-1.2841603e-05
37	0xb7a4fb24	-1.966727e-05
38	0x38fed824	0.00012151923
39	0x393830bc	0.00017565762
40	0x38b10fb3	8.442942e-05
41	0x3923b0f7	0.00015610816
42	0xb7e2e18d	-2.704633e-05
43	0xb8362bc9	-4.343296e-05
44	0x37af20d5	2.0876914e-05
45	0x384d04ac	4.888016e-05
46	0xb932c058	-0.00017047056
47	0xb94cfaf4	-0.00019548443
48	0x34e368cf	4.2358303e-07
49	0xb75f835d	-1.3322421e-05
50	0x382aa446	4.068415e-05
51	0x38406e73	4.587923e-05
52	0xb60eee9f	-2.1298545e-06
53	0x3601e127	1.9353554e-06
54	0x37e82bb1	2.76769e-05
55	0x37f7dd57	2.9547764e-05
56	0xb8580f7c	-5.1512834e-05
57	0xb8f4e9d5	-0.00011678381
58	0x37347174	1.0755251e-05
59	0xb274def6	-1.4253365e-08
60	0xb8656b18	-5.4697593e-05
61	0xb88f7c52	-6.841928e-05
62	0xb90c76cc	-0.00013395696
63	0xb9273aa9	-0.00015948214
64	0xb8df8eb4	-0.00010660049
65	0xb90c5910	-0.00013384619
66	0x38f558c5	0.00011699045
67	0x3922792e	0.00015494667
68	0xb8522f5e	-5.0112016e-05
69	0xb8fef908	-0.000121580495
70	0xb83cd5e3	-4.502189e-05
71	0xb7fde709	-3.0267534e-05
72	0x3928e302	0.00016106296
73	0x393d07cc	0.00018027349
74	0xb8bc55ae	-8.980498e-05
75	0xb92e1bfa	-0.00016604355
76	0x381e2aa4	3.7709848e-05
77	0x38a7efbb	8.007834e-05
78	0x37c7af76	2.3804354e-05
79	0xb84fb2df	-4.9519233e-05
80	0xb863c528	-5.4304634e-05
81	0xb884ce33	-6.332658e-05
82	0xb8c8a4c3	-9.5674324e-05
83	0xb90713d6	-0.00012881993
84	0xb64c22b3	-3.0418566e-06
85	0xb44c11bc	-1.9005432e-07
86	0x37d93b99	2.5896168e-05
87	0x3812e19d	3.501923e-05
88	0xb899393f	-7.3062714e-05
89	0xb900d58d	-0.00012286585
90	0x3553bbea	7.8877076e-07
91	0xb64c94cf	-3.0484987e-06
92	0x38f6c502	0.0001176689
93	0x38adff3f	8.296826e-05
94	0x38ffe7d9	0.000122025325
95	0x392a24e0	0.000162262
96	0xb8e46296	-0.0001089025
97	0xb933b1ec	-0.00017137051
98	0xb89c3a9f	-7.449579e-05
99	0xb8be3a00	-9.070709e-05
100	0x366c6519	3.5225587e-06
101	0xb820c8c1	-3.833394e-05
102	0x37d24af3	2.5068852e-05
103	0x38165d43	3.5849644e-05
104	0x387c4e98	6.0154678e-05
105	0x38daa937	0.00010426569
106	0xb6ef543a	-7.1325603e-06
107	0xb8422748	-4.6289788e-05
108	0x35d4799d	1.5830625e-06
109	0x3837cc29	4.382074e-05
110	0x380d8ce5	3.3748238e-05
111	0x3833f7be	4.2907654e-05
112	0xb8b07aa1	-8.4151754e-05
113	0xb8d0dce8	-9.95936e-05
114	0x36ec0756	7.034202e-06
115	0x36794c10	3.7148166e-06
116	0xb7114a1d	-8.659929e-06
117	0xb71b35be	-9.251233e-06
118	0x3880b215	6.136686e-05
119	0x38a2107b	7.727832e-05
120	0xb74f96d8	-1.23732825e-05
121	0xb7d3ec93	-2.5263324e-05
122	0x379d7af8	1.877312e-05
123	0x379cd941	1.8697816e-05
124	0xb58b2a11	-1.036855e-06
125	0x36a006c3	4.7691587e-06
126	0x35619208	8.4031535e-07
127	0xb7229073	-9.689585e-06
128	0x39af3c60	0.00033423584
129	0x39e40a05	0.00043495014
130	0xb9981940	-0.00029010512
131	0xb9c85f64	-0.00038218044
132	0xb636d1a1	-2.7242133e-06
133	0xb802e50d	-3.1207735e-05
134	0x38539290	5.0442817e-05
135	0x376d969c	1.4161367e-05
136	0xb93042db	-0.00016809574
137	0xb963ab3b	-0.00021712195
138	0x37341ecb	1.0736006e-05
139	0x37016b87	7.714035e-06
140	0x38cb8a3e	9.705544e-05
141	0x388058b0	6.120035e-05
142	0xb73a1a72	-1.1092621e-05
143	0xb7abffa3	-2.0503829e-05
144	0x389305e3	7.010603e-05
145	0x391b5fa8	0.00014817587
146	0x37dab32f	2.6071064e-05
147	0x371adaae	9.230031e-06
148	0xb7ffa349	-3.0474404e-05
149	0xb5ae1845	-1.2971074e-06
150	0xb81876bf	-3.6350215e-05
151	0xb7c16959	-2.305645e-05
152	0x3910cbe3	0.00013808864
153	0x3908afa9	0.00013035409
154	0x37b2ab11	2.1298913e-05
155	0x3828bdd1	4.02311e-05
156	0x36e545fa	6.832878e-06
157	0x35c447c0	1.462402e-06
158	0x379acb86	1.8453004e-05
159	0x37900948	1.717046e-05
160	0x37fd5d56	3.0203413e-05
161	0x37af2d40	2.0882697e-05
162	0xb862a52d	-5.403643e-05
163	0xb8d37bb8	-0.000100843085
164	0x392c8738	0.00016453571
165	0x3950dc52	0.00019918501
166	0x388eb2cb	6.8043904e-05
167	0x38b3af03	8.5679836e-05
168	0x36a06c86	4.7810054e-06
169	0xb83389ab	-4.280514e-05
170	0xb5d6f2be	-1.601489e-06
171	0x35f6c7ce	1.8386579e-06
172	0x36aac283	5.089039e-06
173	0x36c73f1a	5.938008e-06
174	0xb9042f48	-0.00012606115
175	0xb91a1b9e	-0.00014696873
176	0x3909218e	0.00013077838
177	0x39270a23	0.00015930137
178	0x36d8aa02	6.457093e-06
179	0x3754da5d	1.2687026e-05
180	0x37626c58	1.34958755e-05
181	0xb81a9782	-3.6857564e-05
182	0xb7f3bfbd	-2.9057142e-05
183	0xb75d8b02	-1.3204992e-05
184	0x378fa4d2	1.7123679e-05
185	0x359ff9c5	1.1919116e-06
186	0x39612827	0.0002147263
187	0x398fb9f8	0.00027413643
188	0x39899a75	0.00026245756
189	0x39ac77c3	0.00032895626
190	0x374a1afa	1.2046419e-05
191	0x37267a07	9.922783e-06
192	0x37e2c730	2.7034053e-05
193	0xb6bfc5af	-5.715257e-06
194	0x38573cb1	5.1316518e-05
195	0x374b194e	1.2105635e-05
196	0x3803be3e	3.141001e-05
197	0x3805783a	3.182164e-05
198	0x37aa5a81	2.0307723e-05
199	0xb81f3b4a	-3.796377e-05
200	0x34e493a7	4.257574e-07
201	0x3481aa4f	2.4152038e-07
202	0x368345c1	3.9122247e-06
203	0x36fc68b9	7.5223766e-06
204	0xb68e38a4	-4.2385236e-06
205	0xb641e5dc	-2.8893037e-06
206	0xb4e80bc4	-4.3221928e-07
207	0x34f1e50f	4.505641e-07
208	0x359d0152	1.1697796e-06
209	0x362ace3d	2.545202e-06
210	0xb69be04e	-4.6454725e-06
211	0xb6c49e5e	-5.8596916e-06
212	0x35b5ed8a	1.3554684e-06
213	0x361a1847	2.296192e-06
214	0xb7e6efa9	-2.7529737e-05
215	0xb7d41444	-2.5281806e-05
216	0xb52d3cfb	-6.453626e-07
217	0xb4d68f92	-3.9965067e-07
218	0xb633d06d	-2.6794398e-06
219	0xb6441902	-2.9220832e-06
220	0x36c148d8	5.7603283e-06
221	0x370f2b0f	8.53349e-06
222	0x378dbf3f	1.6897566e-05
223	0x378d8991	1.687257e-05
224	0x37325111	1.06285015e-05
225	0x374b1657	1.2104944e-05
226	0xb6cbbf74	-6.0721595e-06
227	0xb6eb1b95	-7.0067567e-06
228	0xb63d3187	-2.8192023e-06
229	0xb6c52b0c	-5.876069e-06
230	0x384eeac4	4.933287e-05
231	0x387895da	5.9267368e-05
232	0xb63f2d8c	-2.848773e-06
233	0xb63e70d8	-2.837789e-06
234	0x363eef87	2.845163e-06
235	0x368ed1ad	4.2563393e-06
236	0x36959e8b	4.459003e-06
237	0x36ae2f8d	5.1911397e-06
238	0x3368e193	5.4221868e-08
239	0x34ba8091	3.4738744e-07
240	0xb4b4178e	-3.354475e-07
241	0xb4bfb473	-3.5707816e-07
242	0x3699ce04	4.5837387e-06
243	0x3639817d	2.764252e-06
244	0xb6f0e68c	-7.1793966e-06
245	0xb712e277	-8.755006e-06
246	0xb5a07a16	-1.1956461e-06
247	0xb49d42b2	-2.9292056e-07
248	0x356e8647	8.885731e-07
249	0x348f6a27	2.6713062e-07
250	0x36ae6bc0	5.198148e-06
251	0x37090dc5	8.169042e-06
252	0xb4cd8368	-3.8279836e-07
253	0xb58894ce	-1.0176097e-06
254	0xb69a009c	-4.5896286e-06
255	0xb6ba6581	-5.5550486e-06
