prefect_ais/ML_data_pipeline/lightning_logs/version_1/checkpoints/epoch=642-step=643.ckpt (torch, 448127 bytes, 24 tensors)

rnn.weight_ih_l0 f4 [300, 2]
0.014322491 -0.01379209 -0.06521909 -0.055731747 0.012997171 0.09190847 0.033314172 -0.075809196
-0.041842677 -0.10239474 -0.034500003 0.02027668 -0.035238873 0.09291257 0.06471863 -0.00620048
0.06477807 0.039007973 -0.070928514 -0.09722868 -0.07619916 0.061281182 -0.050768852 0.00810165
0.03609187 -0.068690665 0.05326534 0.02764032 0.08742566 -0.026897449 0.022483237 -0.029717023
-0.080112524 0.02435258 0.078869015 -0.089664556 -0.0100095365 -0.055688594 0.123845585 0.061062045
-0.056297477 0.005821913 0.02434621 0.10087943 -0.10936979 0.0806655 0.02631424 -0.0821004
0.02549045 0.074974485 -0.021818152 -0.021877414 0.024471067 -0.05644732 -0.040927816 0.10351165
0.023876121 0.04095257 0.011709475 -0.027808115 -0.089943744 0.05184427 0.063857734 -0.052652486
-0.08623177 0.049052756 -0.15102679 0.086415514 0.11924584 0.028955001 0.07874681 -0.08767814
0.0026281239 0.09407344 0.0006213012 -0.06269417 -0.012903101 -0.09896969 0.016596181 -0.080774814
0.05986481 -0.02483064 0.0024503816 -0.09991283 0.020664351 -0.09664321 -0.06337757 0.10020024
0.08536309 0.032041695 0.055694807 -0.034158997 0.0282784 -0.036118373 6.09867e-05 -0.05037063
0.042650122 0.10427993 0.042280395 -0.09689123 0.009046973 -0.11688704 0.06519701 -0.10593273
-0.03080108 0.03095484 -0.041865773 0.02501752 -0.10196937 -0.07008394 -0.06308155 -0.05051105
-0.068091296 0.020826088 -0.042208467 -0.01689012 0.06746073 -0.077775456 0.05181661 -0.11396506
-0.036624465 -0.06321385 0.021988625 0.070389815 -0.0189777 0.08959939 -0.050017234 0.03722119
-0.07217724 0.013219694 -0.108948864 -0.05678529 0.035926167 0.11126589 0.036724143 0.046012547
0.013093397 -0.03365446 -0.08423618 -0.017945427 -0.11227096 0.009513814 -0.11348003 0.0038337447
0.044936866 0.04273185 -0.01471442 6.0995066e-05 0.009106219 -0.016026843 -0.07572365 0.07286655
-0.079037026 -0.0532929 0.09389734 0.039838724 0.017783863 -0.1145281 -0.013539753 -0.055618387
0.03305982 -0.031638738 0.039566014 -0.060890485 -0.041705262 0.0661103 -0.09998147 0.04020209
-0.0016694095 -0.035034515 -0.094848506 -0.027943011 -0.007989323 -0.017805032 0.034396358 -0.05667494
-0.10885784 0.00023405609 -0.026960794 -0.023396697 -0.050946772 0.04294052 0.021004705 -0.016053103
-0.074988395 0.020109734 0.02202744 -0.068008095 -0.030297935 -0.0027200773 0.009335272 -0.024428328
0.017769821 0.064314015 0.061858952 -0.037923124 -0.004363297 0.08272891 -0.0033361518 0.05664573
0.073447235 -0.024648217 0.019966649 0.08820852 0.03142966 -0.028171798 0.045673326 -0.06548149
0.10150536 -0.045781028 0.090426885 0.019347603 0.1029028 -0.09119843 -0.07604979 -0.04045475
-0.058999952 -0.049643 0.0013209933 -0.041558914 -0.06839108 0.015528635 -0.023005927 0.073852144
-0.027911907 -0.01527342 -0.046696294 -0.07528065 0.09640569 0.07090369 0.06490423 -0.089972086
0.02854255 -0.0099221235 0.06784436 -0.023541579 0.00861337 0.1082845 0.016884431 0.064591356
0.13825843 0.00037218712 0.06811318 -0.15220676 -0.02740347 0.040099557 0.07027863 0.054991506
-0.020654261 -0.060320016 0.08855307 -0.014636373 -0.007310315 0.055572025 -0.062427476 0.031799223
00000000: e2a8 6a3c 38f8 61bc 9691 85bd f946 64bd
00000010: 16f2 543c 823a bc3d 7174 083d da41 9bbd
00000020: 3a63 2bbd 55b4 d1bd e04f 0dbd 481b a63c
00000030: a356 10bd f248 be3d 338b 843d 652d cbbb
00000040: 5daa 843d d3c6 1f3d f842 91bd d51f c7bd
00000050: 4e0e 9cbd fa01 7b3d 00f3 4fbd c8bc 043c
00000060: 12d5 133d b1ad 8cbd c22c 5a3d f46d e23c
00000070: 390c b33d 0a58 dcbc c42e b83c 1d71 f3bc
00000080: 0912 a4bd 107f c73c 1486 a13d 0da2 b7bd
00000090: 0aff 23bc b919 64bd c1a2 fd3d 321c 7a3d
000000a0: 2f98 66bd bfc5 be3b b471 c73c e099 ce3d
000000b0: 45fd dfbd f433 a53d f690 d73c 4124 a8bd
000000c0: 59d1 d03c 398c 993d fbbb b2bc 4338 b3bc
000000d0: 8c77 c83c 4e35 67bd eda3 27bd eafd d33d
000000e0: db97 c33c e2bd 273d 19d9 3f3c d8cd e3bc
000000f0: 6d34 b8bd a85a 543d d8c7 823d 22aa 57bd
00000100: 489a b0bd 8beb 483d c4a6 1abe 9efa b03d
00000110: 2a37 f43d 0a33 ed3c 0246 a13d 9990 b3bd
00000120: 9a3c 2c3b 93a9 c03d d1de 223a cd65 80bd
00000130: 8767 53bc 9fb0 cabd b7f4 873c 446d a5bd
00000140: ce34 753d a069 cbbc 9596 203b 199f ccbd
00000150: 4948 a93c e0ec c5bd 19cc 81bd c935 cd3d
00000160: d8d2 ae3d 273e 033d 3d20 643d 4eea 0bbd
00000170: 1aa8 e73c dcf0 13bd f8cb 7f38 6f51 4ebd
00000180: e5b1 2e3d b790 d53d 352e 2d3d e96e c6bd
00000190: c139 143c 7962 efbd 0386 853d 42f3 d8bd
000001a0: 8c52 fcbc 0195 fd3c 727b 2bbd 8bf1 cc3c
000001b0: 51d5 d0bd 2b88 8fbd e630 81bd ade4 4ebd
000001c0: 7373 8bbd 799b aa3c c9e2 2cbd 265d 8abc
000001d0: da28 8a3d bd48 9fbd a73d 543d 8366 e9bd
000001e0: 8903 16bd 4376 81bd 7d21 b43c 8928 903d
000001f0: 1f77 9bbc e37f b73d dfde 4cbd 3f75 183d
00000200: a9d1 93bd 6a97 583c 9520 dfbd b197 68bd
00000210: 5127 133d 5fdf e33d 0e6c 163d a777 3c3d
00000220: b085 563c 42d9 09bd 0584 acbd 4a02 93bc
00000230: 51ee e5bd d4df 1b3c 3868 e8bd 903f 7b3b
00000240: b80f 383d 9807 2f3d c014 71bc f4d4 7f38
00000250: 4032 153c ba4a 83bc 0015 9bbd 0f3b 953d
00000260: 2ade a1bd a849 5abd 404d c03d ee2d 233d
00000270: 77af 913c b58d eabd d7d5 5dbc 1bd0 63bd
00000280: bc69 073d 9f97 01bd f90f 223d 4d68 79bd
00000290: 23d3 2abd d664 873d 16c3 ccbd f2aa 243d
000002a0: 16d0 daba 5a80 0fbd ef3f c2bd bee8 e4bc
000002b0: a6e5 02bc dcdb 91bc 32e3 0c3d fb23 68bd
000002c0: dcf0 debd f46c 7539 e2dc dcbc 6eaa bfbc
000002d0: 90ad 50bd 66e2 2f3d 0f12 ac3c cc81 83bc
000002e0: 8493 99bd 2bbd a43c e472 b43c d447 8bbd
000002f0: 6033 f8bc 5343 32bb f8f2 183c eb1d c8bc
00000300: 0492 913c 11b7 833d d05f 7d3d 4755 1bbd
00000310: fdf9 8ebb c66d a93d 57a3 5abb 5a05 683d
00000320: 816b 963d 0feb c9bc 1991 a33c aba6 b43d
00000330: 63bc 003d 8bc8 e6bc f413 3b3d 291b 86bd
00000340: 0be2 cf3d e384 3bbd bb31 b93d dd7e 9e3c
00000350: b4be d23d 3ec6 babd febf 9bbd e1b3 25bd
00000360: efa9 71bd 7556 4bbd 2e25 ad3a ae39 2abd
00000370: 9f10 8cbd d16b 7e3c ed76 bcbc cb3f 973d
00000380: 83a7 e4bc 5e3d 7abc 9d44 3fbd be2c 9abd
00000390: 5970 c53d f435 913d 82ec 843d 4943 b8bd
000003a0: 11d2 e93c 6790 22bc fcf1 8a3d 45da c0bc
000003b0: 181f 0d3c 44c4 dd3d 3851 8a3c 7948 843d
000003c0: 9e93 0d3e 1c22 c339 ec7e 8b3d 17dc 1bbe
000003d0: 3e7d e0bc 6f3f 243d 3eee 8f3d c63e 613d
000003e0: 2033 a9bc 1f12 77bd 505b b53d 66cd 6fbc
000003f0: 5e8b efbb 7e9f 633d f4b3 7fbd e73f 023d

rnn.weight_hh_l0 f4 [300, 100]
0.07765186 -0.059560232 -0.005313817 -0.040865723 0.02180075 0.06713617 0.06287373 -0.10917172
-0.11362567 -0.12025474 -0.120135576 0.089877225 0.040904045 0.07897145 -0.11125545 -0.0027464156
0.041753285 -0.044724483 0.0061645024 -0.034358718 -0.117527604 -0.096845955 -0.0358903 0.108888924
0.03956733 0.0671327 0.014703672 0.10776894 -0.043405443 -0.010053567 0.05170057 0.017415263
-0.0008457886 0.06677722 0.059625573 -0.10537276 0.006828877 0.07042256 0.053587105 0.03749681
-0.021381732 -0.027912846 0.053302024 -0.104049504 -0.017894804 0.0433682 -0.11228763 -0.04130104
-0.041832212 -0.08566146 -0.0056245234 -0.062183477 -0.07391062 -0.12824437 0.026763739 0.018660203
0.03296195 0.009997976 0.108737536 0.006255905 -0.04913658 0.10459031 0.061970126 -0.03660339
-0.07619046 -0.047781 0.108393066 -0.0090071615 0.016989432 -0.007180351 -0.066534884 0.044582207
-0.02501715 -0.003065711 0.033930827 0.039152995 0.009018691 -0.02807089 0.007909392 -0.11040249
-0.03888617 -0.034036357 -0.05607817 -0.06494569 0.120260194 0.09536795 0.06599236 0.080224976
-0.039652057 0.11406295 0.0696832 -0.11048809 -0.119852535 0.051162522 0.12248177 0.079783775
0.056792982 -0.012217928 -0.01947104 -0.0676458 0.09164246 -0.08217245 0.054817013 0.0018318676
-0.08733209 0.054063693 -0.06945293 0.10929461 -0.0056787194 0.002588462 0.069385655 0.040868923
-0.05712017 0.0051401863 -0.03893703 0.10046249 -0.008220385 0.042049434 -0.03042381 -0.0008396109
0.07559105 -0.094507284 0.05274348 0.05690485 0.044120252 0.04256072 0.08967959 -0.06984695
0.0440733 0.055867884 0.0838993 -0.004645202 0.06653496 -0.018366497 0.055717614 -0.001635917
-0.08190996 -0.0029069984 0.085827105 0.11618929 0.027836425 -0.012467627 0.07896846 -0.082719415
-0.11035184 0.100124545 -0.07851818 -0.065954186 -0.024216333 -0.065064535 0.043390695 0.074357145
-0.03860793 -0.07007953 -0.0059222546 0.068907425 0.048944555 -0.011544473 -0.094782 0.043108266
-0.06867125 -0.031445026 0.06896567 -0.05671554 0.046114206 -0.09629171 0.00966652 0.032598004
-0.046564784 0.07370905 0.013469632 0.0040689255 -0.07369532 0.04690703 -0.051043898 0.021542413
-0.03870163 -0.08169219 -0.02708442 0.0047052223 -0.09493751 -0.025052477 0.05706583 -0.009756301
0.018249806 0.037401196 0.035308156 -0.06834397 0.029007474 0.054040357 -0.02048603 0.066239916
-0.066985995 0.06579535 0.08548422 0.03131627 -0.087877646 -0.06332699 -0.04121915 0.082757965
-0.01998806 0.02063838 -0.06463088 -0.043358505 0.11514851 -0.104041286 -0.071342975 -0.014333547
0.0042645885 0.053388182 -0.062060785 0.018383767 -0.10219369 0.029172383 0.047025416 -0.0342874
0.08994936 0.07613106 0.08202234 0.11878978 0.052504342 -0.033857428 -0.015076718 -0.05948695
0.02322998 0.059302453 0.024798078 -0.0577817 -0.01844998 -0.08265648 0.11563924 -0.04599721
0.022526894 0.037908018 0.06598812 0.026713816 0.038545914 0.06384346 -0.06745891 0.109759375
0.06349949 -0.06810732 -0.00626768 0.0137019595 -0.06835807 0.046590496 -0.07538123 0.09900352
-0.0014751183 0.06287399 0.09619949 0.048899375 -0.05633577 0.06258444 0.060924202 -0.029182952
00000000: f007 9f3d 6ef5 73bd 871f aebb d162 27bd
00000010: 7d97 b23c b07e 893d f1c3 803d 6c95 dfbd
00000020: 93b4 e8bd 1e48 f6bd a409 f6bd 8d11 b83d
00000030: 008b 273d c9bb a13d e6d9 e3bd 35fd 33bb
00000040: 7e05 2b3d 0531 37bd 98ff c93b babb 0cbd
00000050: 50b2 f0bd 2c57 c6bd b501 13bd 2801 df3d
00000060: 5a11 223d de7c 893d ace7 703c f6b5 dc3d
00000070: e8c9 31bd b7b7 24bc fac3 533d 74aa 8e3c
00000080: eab7 5dba 7fc2 883d f239 743d accd d7bd
00000090: c6c4 df3b b439 903d 277e 5b3d 4196 193d
000000a0: be28 afbc 7ba9 e4bc 3953 5a3d e817 d5bd
000000b0: 2098 92bc dba2 313d 0ff7 e5bd 482b 29bd
000000c0: 4158 2bbd 476f afbd ec4d b8bb 1ab4 7ebd
000000d0: 735e 97bd 7e52 03be a13f db3c 48dd 983c
000000e0: 1c03 073d 8dce 233c c9b1 de3d 56fe cc3b
000000f0: 7043 49bd 7233 d63d 63d4 7d3d 70ed 15bd
00000100: be09 9cbd 03b6 43bd 2ffd dd3d c692 13bc
00000110: 6c2d 8b3c 2649 ebbb 7143 88bd d59b 363d
00000120: c4f0 ccbc 18ea 48bb 0dfb 0a3d e45e 203d
00000130: 22c3 133c ecf4 e5bc 6596 013c b31a e2bd
00000140: 1b47 1fbd b569 0bbd 39b2 65bd 3f02 85bd
00000150: fa4a f63d 4650 c33d 0127 873d fe4c a43d
00000160: 326a 22bd d699 e93d 11b6 8e3d 9447 e2bd
00000170: 3f75 f5bd cb8f 513d b9d7 fa3d ad65 a33d
00000180: c29f 683d b42d 48bc bb81 9fbc e289 8abd
00000190: 0baf bb3d 084a a8bd ce87 603d 471b f03a
000001a0: 2bdb b2bd e471 5d3d 563d 8ebd dad5 df3d
000001b0: 8d14 babb 30a3 293b 111a 8e3d 2c66 273d
000001c0: d7f6 69bd 026f a83b 6f7c 1fbd 47bf cd3d
000001d0: cbae 06bc 073c 2c3d 5b3b f9bc 5519 5cba
000001e0: 7bcf 9a3d 098d c1bd 8c09 583d 0f15 693d
000001f0: 70b7 343d 2654 2e3d efa9 b73d eb0b 8fbd
00000200: 3486 343d b9d5 643d 65d3 ab3d c736 98bb
00000210: 7b43 883d 5675 96bc 2738 643d 446c d6ba
00000220: 69c0 a7bd 5783 3ebb 1fc6 af3d a7f4 ed3d
00000230: 3709 e43c 0545 4cbc 37ba a13d cc68 a9bd
00000240: 2500 e2bd 190e cd3d 24ce a0bd fd12 87bd
00000250: 5561 c6bc 8e40 85bd 71ba 313d 8f48 983d
00000260: 5923 1ebd db85 8fbd 790f c2bb 561f 8d3d
00000270: 167a 483d 0725 3dbc 111d c2bd 4b92 303d
00000280: 83a3 8cbd 80cc 00bd e03d 8d3d 8e4e 68bd
00000290: 40e2 3c3d 9734 c5bd 5360 1e3c 7c85 053d
000002a0: b7ba 3ebd c5f4 963d bbaf 5c3c 9f54 853b
000002b0: 92ed 96bd 9621 403d 6813 51bd b779 b03c
000002c0: 9a85 1ebd 3c4e a7bd 25e0 ddbc 442e 9a3b
000002d0: 996e c2bd da3a cdbc dcbd 693d e4d8 1fbc
000002e0: 9e80 953c ff31 193d 499f 103d ecf7 8bbd
000002f0: 15a1 ed3c 6c59 5d3d 52d2 a7bc cba8 873d
00000300: f42f 89bd b6bf 863d 5a12 af3d 7d45 003d
00000310: 32f9 b3bd 95b1 81bd 69d5 28bd 027d a93d
00000320: 00be a3bc d211 a93c 325d 84bd b098 31bd
00000330: fbd2 eb3d 9913 d5bd 441c 92bd 41d7 6abc
00000340: f6bd 8b3b 91ad 5a3d 7333 7ebd 8e99 963c
00000350: ed4a d1bd ecfa ee3c b99d 403d f270 0cbd
00000360: 5f37 b83d 9aea 9b3d 54fb a73d 0e48 f33d
00000370: cb0e 573d 16ae 0abd 5704 77bc 97a8 73bd
00000380: cd4c be3c 21e7 723d 5725 cb3c 81ac 6cbd
00000390: 6a24 97bc cd47 a9bd 44d4 ec3d 9267 3cbd
000003a0: 528a b83c 7045 1b3d c824 873d efd6 da3c
000003b0: 52e2 1d3d 5cc0 823d e627 8abd 86c9 e03d
000003c0: 050c 823d da7b 8bbd 1c61 cdbb 2f7e 603c
000003d0: 51ff 8bbd add5 3e3d 7961 9abd 5cc2 ca3d
000003e0: c258 c1ba 14c4 803d 3d04 c53d b64a 483d
000003f0: 56c0 66bd 452c 803d a88b 793d 1611 efbc

rnn.bias_ih_l0 f4 [300]
-0.022851145 -0.017604921 0.009749054 0.05507727 0.00044073447 0.019527204 0.06392396 0.118360035
0.1233864 0.027125634 0.00893335 -0.07759718 0.0421926 -0.014700623 0.005406212 -0.018030595
0.077857606 0.06412495 -0.022829194 -0.0012824524 -0.050620627 -0.035695024 -0.040953998 -0.0063713817
0.043072328 0.11238396 0.0025634926 0.09734722 0.10593364 0.017660834 -0.057326768 0.11849762
-0.029047895 0.09993535 -0.061626337 0.104421526 0.050189365 -0.044890918 0.104753725 -0.058343176
0.034268253 -0.03323369 -0.046807837 0.0988216 0.02678708 0.058729503 0.08908795 0.033666592
-0.02441873 -0.08098389 -0.03582872 -0.0827017 0.00061154034 0.029959546 0.07521501 -0.022908086
0.077647865 0.08409299 0.018589657 -0.027960366 0.032527864 0.04792219 0.065442145 0.035124388
0.0033435118 -0.077925384 0.0046804645 0.08701458 0.010359716 -0.021455457 -0.013858765 -0.08741227
0.01912072 -0.0051207826 0.10908029 -0.001558171 0.05564307 0.04949308 -0.030139616 -0.012102098
0.102046855 0.08391604 -0.033601902 0.009185669 0.113235384 0.10690191 0.030465329 0.021720164
0.010444968 -0.07846192 0.049463745 0.061317865 -0.018418826 0.034006704 0.012802109 -0.083756685
0.08619086 0.08041336 0.07069274 -0.008274661 0.0055651423 -0.10928107 0.07230652 -0.0676583
-0.010622069 -0.11584324 0.015826365 -0.010338798 -0.113641135 -0.08049452 -0.044653613 0.035799902
-0.096678704 -0.08509501 -0.049201176 0.07498662 0.02314792 -0.053800408 -0.030167421 0.032150116
-0.06974612 0.01806813 -0.0050766757 -0.07413113 -0.11678406 -0.1273604 -0.07400197 0.0042505725
-0.04711368 -0.035994343 -0.04720726 -0.02283741 -0.10467738 -0.09358633 -0.06302431 -0.025257586
-0.04503409 0.0023636797 -0.083810054 -0.111069135 -0.042498246 -0.045930408 -0.027718384 -0.11585824
0.06283935 -0.0073078214 0.06363594 -0.02398066 -0.06387482 0.049930777 -0.102477685 0.057076722
-0.037045617 -0.14076321 0.014934316 0.0060298285 0.059035204 -0.11279472 -0.059254166 -0.09444596
-0.019160137 0.06956289 0.013059113 -0.041582644 -0.096842445 -0.07359444 0.061828043 -0.1527517
0.084060065 -0.09241558 -0.14502536 -0.06464243 -0.0054111537 0.06473871 -0.11531273 -0.09161312
-0.11169643 -0.1085808 -0.034505267 -0.044563647 0.024026515 -0.14477418 0.043712754 0.06422774
-0.019049708 0.030230472 -0.09747108 0.07765391 -0.0004748239 -0.07112367 0.020838326 -0.039040774
-0.029055715 -0.0015728071 -0.108166285 -0.08009395 -0.1018263 -0.057719987 0.0008598718 -0.0072636814
0.07867222 -0.054443974 -0.02003486 -0.026060665 0.028154561 -0.07605597 0.0024337678 0.07310853
-0.0077418447 0.030009128 -4.0230112e-05 -0.028091341 0.0066263583 0.10043727 0.01038193 -0.010655145
0.07601628 -0.065409064 -0.047109094 0.082597815 -0.093843915 -0.105886735 -0.036707032 0.071534626
0.035394136 -0.08796688 -0.036785778 0.078198574 -0.075959 0.0389079 0.04361378 0.0049562687
-0.10622661 -0.06124853 0.044198092 0.012290123 -0.05769432 0.04242554 0.049506024 0.105492204
0.0766408 -0.09246165 0.010397371 0.055185 -0.0719084 -0.005977918 -0.055615008 0.06157325
-0.07325333 -0.09626307 0.074657 -0.084805764 0.11492899 -0.022963552 -0.016781513 0.09049461
00000000: 5332 bbbc 3238 90bc 7fba 1f3c b498 613d
00000010: 6112 e739 84f7 9f3c 91ea 823d bf66 f23d
00000020: 02b2 fc3d 9436 de3c 305d 123c 45eb 9ebd
00000030: 26d2 2c3d e2da 70bc 9826 b13b e6b4 93bc
00000040: cf73 9f3d f153 833d 4a04 bbbc f617 a8ba
00000050: 9357 4fbd f234 12bd 61bf 27bd 06c7 d0bb
00000060: 9c6c 303d 9029 e63d 4500 283b fb5d c73d
00000070: bcf3 d83d 74ad 903c 79cf 6abd e1ae f23d
00000080: daf5 edbc e8aa cc3d e66b 7cbd f4da d53d
00000090: 5d93 4d3d 8adf 37bd 1f89 d63d 41f9 6ebd
000000a0: de5c 0c3d 0d20 08bd 93b9 3fbd fb62 ca3d
000000b0: 9470 db3c 598e 703d be73 b63d fbe5 093d
000000c0: ca09 c8bc e2da a5bd 23c1 12bd 825f a9bd
000000d0: c74f 203a b96d f53c 540a 9a3d bda9 bbbc
000000e0: d805 9f3d f238 ac3d 5649 983c 230d e5bc
000000f0: f03b 053d 0f4a 443d 8806 863d 97de 0f3d
00000100: d21e 5b3b 5897 9fbd 955e 993b b334 b23d
00000110: ccbb 293c 5bc3 afbc e00f 63bc 3405 b3bd
00000120: 0ea3 9c3c 3dcc a7bb 7d65 df3d 8b3b ccba
00000130: fde9 633d 41b9 4a3d 5be7 f6bc e147 46bc
00000140: f1fd d03d 2cdc ab3d 26a2 09bd 7d7f 163c
00000150: f4e7 e73d 63ef da3d 6d92 f93c 7cee b13c
00000160: 5f21 2b3c a5b0 a0bd 7f9a 4a3d 7128 7b3d
00000170: 14e3 96bc 9d4a 0b3d f0bf 513c a088 abbd
00000180: d584 b03d c2af a43d 5bc7 903d 7292 07bc
00000190: cc5b b63b c1ce dfbd 7115 943d 6f90 8abd
000001a0: 3008 2ebc 383f edbd 4ba6 813c 1064 29bc
000001b0: afbc e8bd 50da a4bd b5e6 36bd eba2 123d
000001c0: 7cff c5bd 4b46 aebd 2c87 49bd 9692 993d
000001d0: b5a0 bd3c d15d 5cbd ab21 f7bc d7af 033d
000001e0: 0ed7 8ebd 9d03 943c 3e5a a6bb 10d2 97bd
000001f0: 7b2c efbd c46a 02be 588e 97bd 6348 8b3b
00000200: 46fa 40bd ce6e 13bd 665c 41bd 8515 bbbc
00000210: 1861 d6bd 31aa bfbd e412 81bd ffe8 cebc
00000220: aa75 38bd f7e7 1a3b 9ba4 abbd 3778 e3bd
00000230: a412 2ebd 8621 3cbd aa11 e3bc 1647 edbd
00000240: ebb1 803d 7376 efbb 8f53 823d 1773 c4bc
00000250: cdd0 82bd 3784 4c3d d2df d1bd 48c9 693d
00000260: 25bd 17bd 3b24 10be 10af 743c de95 c53b
00000270: e6ce 713d eb00 e7bd 7fb4 72bd e26c c1bd
00000280: b8f5 9cbc fd76 8e3d e4f5 553c 9052 2abd
00000290: 5555 c6bd afb8 96bd 673f 7d3d f16a 1cbe
000002a0: af27 ac3d 6144 bdbd 8781 14be 4063 84bd
000002b0: 0c50 b1bb bb95 843d 1529 ecbd a99f bbbd
000002c0: 19c1 e4bd 9c5f debd 6555 0dbd 5f88 36bd
000002d0: 41d3 c43c af3f 14be 250c 333d d589 833d
000002e0: 220e 9cbc e5a5 f73c eb9e c7bd 0309 9f3d
000002f0: c9f1 f8b9 49a9 91bd 23b5 aa3c 38e9 1fbd
00000300: 4006 eebc a626 ceba 4986 ddbd 4c08 a4bd
00000310: 4f8a d0bd cb6b 6cbd 0569 613a 2d04 eebb
00000320: e71e a13d a500 5fbd 2620 a4bc 2d7d d5bc
00000330: 65a4 e63c 3bc3 9bbd d97f 1f3b edb9 953d
00000340: 4daf fdbb b4d5 f53c c1bc 28b8 d01f e6bc
00000350: ec21 d93b 0eb2 cd3d f818 2a3c eb92 2ebc
00000360: 6cae 9b3d 30f5 85bd 77f5 40bd 0b29 a93d
00000370: 3d31 c0bd 25db d8bd 1d5a 16bd bf80 923d
00000380: 71f9 103d fb27 b4bd afac 16bd 9326 a03d
00000390: 6490 9bbd e45d 1f3d 5da4 323d 3268 a23b
000003a0: 568d d9bd bddf 7abd 0f09 353d 835c 493c
000003b0: e150 6cbd 67c6 2d3d d4c6 4a3d 4c0c d83d
000003c0: daf5 9c3d 895c bdbd bc59 2a3c ab09 623d
000003d0: b644 93bd 69e2 c3bb 90cc 63bd 3b34 7c3d
000003e0: d805 96bd 9325 c5bd c5e5 983d a5ae adbd
000003f0: e45f eb3d 0f1e bcbc 6279 89bc 3d55 b93d

rnn.bias_hh_l0 f4 [300]
0.10136466 0.046623968 -0.070735976 0.0143375965 0.026141737 0.028724354 0.08546831 -0.05137774
0.044765033 0.042072363 -0.045067668 -0.06662559 0.09531903 -0.011493446 0.041223675 0.0013128977
0.038022764 0.114130214 0.009441764 0.05276447 0.00097179034 0.029840041 0.06478196 0.0202382
0.014416335 0.11492758 -0.05945763 0.031078592 -0.043630507 0.035905413 0.027859587 -0.054449372
0.02241319 -0.008476534 0.05855563 0.11478627 0.0094300285 0.05034706 0.0784562 0.09201797
0.069835275 0.067503065 0.07783519 -0.02346974 0.058352865 -0.004528097 0.05921124 -0.029907113
0.11743868 0.01229453 -0.050646737 0.036319353 -0.023659183 0.06261274 0.06676136 0.08052415
-0.063099615 -0.026313744 -0.054735336 -0.0021512413 0.089020655 0.059309404 0.1295931 0.08550608
-0.031777196 -0.03963582 -0.03981391 0.0075869197 0.07404805 0.06739422 0.10923603 0.049831092
-0.03628493 -0.042995024 0.043122604 -0.036947064 0.0016608665 0.0992032 -0.00826582 0.03591172
-0.023168657 0.14024357 -0.053865217 0.08882673 9.065316e-05 -0.026308816 -0.01722331 -0.03367936
-0.06369052 0.086440556 0.033156287 0.118744746 0.095591836 -0.0042152703 0.037674636 0.05995563
-0.010971455 0.06349504 0.11819059 0.05789294 0.0009942375 -0.08062712 0.020539803 -0.063654035
-0.016030323 -0.013057268 -0.054454602 -0.030550407 -0.02529063 -0.0979551 -0.10640925 0.08933276
-0.06266779 -0.002094994 -0.07438429 -0.021717345 -0.077446 -0.0068417257 -0.10982246 -0.05238377
-0.044051304 -0.039374057 -0.04218806 0.014980123 0.018863356 -0.120995924 0.08123835 -0.05461286
0.018557573 -0.03832648 0.076021075 -0.00042860498 -0.10258267 -0.13160546 -0.10557956 0.0075157033
-0.10448207 0.02807484 -0.060383014 0.038949735 -0.115949236 -0.08887802 -0.006763675 -0.0454709
-0.0767192 -0.095594555 -0.0041832123 -0.004396398 -0.07870695 0.056513682 -0.08996206 -0.018349173
-0.00918131 -0.05238859 0.022886153 -0.09228858 -0.10715105 0.061036274 -0.038170476 -0.12897278
-0.049276114 -0.06299776 -0.059453584 -0.11448236 -0.0026937795 -0.078246064 0.069004714 -0.012424245
0.030462263 0.010272993 -0.06005314 -0.057741523 0.052395932 -0.07899008 -0.021085108 -0.070185944
0.01783433 0.021956835 0.020131098 -0.119989276 0.0004888753 -0.08475407 -0.12413592 -0.05077024
-0.07415731 -0.09211189 -0.04248209 -0.09046184 0.043493792 0.079532675 -0.07232937 0.011622952
-0.1271766 -0.05727098 -0.013205666 0.074167214 0.060173266 -0.036240306 -0.10412913 0.069494374
0.062970564 0.04813691 0.042399716 0.025708752 0.07886529 0.021594033 0.06472301 -0.043974053
-0.051234297 -0.03714541 -0.07615049 -0.03982775 -0.1063405 0.057264388 0.05609685 0.06759848
-0.022718588 0.017272742 0.008120034 -0.0034286454 -0.061655555 -0.064833514 -0.030688515 0.018025652
0.058738545 -0.08665456 0.021238307 0.03659309 -0.009494218 -0.092686 0.05885394 0.009861505
-0.016006274 -0.033821177 -0.08977065 -0.034033183 0.06197436 -0.06899127 -0.10297189 0.008674086
-0.016410299 -0.05699061 -0.050941464 -0.01264566 -0.057587244 0.0059385835 -0.07625155 -0.023227891
-0.034962848 -0.0946898 0.07523524 -0.051732115 0.028430806 -0.08009892 -0.10908985 0.042856764
00000000: 4698 cf3d c6f8 3e3d 06de 90bd 3de8 6a3c
00000010: 3227 d63c 564f eb3c 020a af3d 7771 52bd
00000020: 8a5b 373d 1254 2c3d e098 38bd ff72 88bd
00000030: a036 c33d 024f 3cbc 28da 283d 8915 ac3a
00000040: c2bd 1b3d 1abd e93d a1b1 1a3c 8f1f 583d
00000050: bfbf 7e3a 1a73 f43c 67ac 843d 95ca a53c
00000060: 7e32 6c3c 275f eb3d d889 73bd 8898 fe3c
00000070: e7b5 32bd 8e11 133d ca39 e43c 4e06 5fbd
00000080: de9b b73c 29e1 0abc 07d8 6f3d 1015 eb3d
00000090: 6880 1a3c b838 4e3d a5ad a03d eb73 bc3d
000000a0: cc05 8f3d 0c3f 8a3d 0e68 9f3d 9d43 c0bc
000000b0: 6a03 6f3d 6e60 94bb 7c87 723d c3ff f4bc
000000c0: b183 f03d ff6e 493c f472 4fbd 9ac3 143d
000000d0: e7d0 c1bc 1c3b 803d 2eba 883d d8e9 a43d
000000e0: 5f3a 81bd ec8f d7bc 2932 60bd d7fb 0cbb
000000f0: 7650 b63d 6bee 723d 0eb4 043e d01d af3d
00000100: ce28 02bd 2b59 22bd e913 23bd b29b f83b
00000110: 81a6 973d fb05 8a3d 24b7 df3d b01b 4c3d
00000120: 829f 14bd 8d1b 30bd 54a1 303d ce55 17bd
00000130: 6fb1 d93a 0c2b cb3d 5d6d 07bc 2b18 133d
00000140: 32cc bdbc 039c 0f3e c6a1 5cbd caea b53d
00000150: 0b1d be38 9685 d7bc e617 8dbc 5ef3 09bd
00000160: 2d70 82bd bf07 b13d e3ce 073d 7230 f33d
00000170: a7c5 c33d 4020 8abb b850 1a3d 0994 753d
00000180: 9ec1 33bc b009 823d e80d f23d 2621 6d3d
00000190: 1351 823a d51f a5bd 1743 a83c 0c5d 82bd
000001a0: 0652 83bc 27ee 55bc ca0b 5fbd d944 fabc
000001b0: 4c2e cfbc af9c c8bd 18ed d9bd 18f4 b63d
000001c0: f857 80bd 2b4c 09bb ca56 98bd 93e8 b1bc
000001d0: 029c 9ebd 8e30 e0bb 99ea e0bd 5d90 56bd
000001e0: 246f 34bd b146 21bd 63cd 2cbd 316f 753c
000001f0: 5387 9a3c b6cc f7bd 4b60 a63d bcb1 5fbd
00000200: 0d06 983c 3afc 1cbd f0b0 9b3d 63b6 e0b9
00000210: dd16 d2bd 95c3 06be 193a d8bd 4a46 f63b
00000220: b2fa d5bd 35fd e53c 2e54 77bd c289 1f3d
00000230: cb76 edbd ae05 b6bd d1a1 ddbb b23f 3abd
00000240: f51e 9dbd 14c7 c3bd 5413 89bb a90f 90bb
00000250: 1c31 a1bd e47a 673d 073e b8bd 0151 96bc
00000260: 356d 16bc 6b95 56bd be7b bb3c cc01 bdbd
00000270: 0272 dbbd 2c01 7a3d a558 1cbd 7111 04be
00000280: c0d5 49bd f804 81bd 9a85 73bd ba75 eabd
00000290: 1f8a 30bb 793f a0bd 5852 8d3d 0f8f 4bbc
000002a0: ff8b f93c 0e50 283c 48fa 75bd 6082 6cbd
000002b0: 1e9d 563d 8dc5 a1bd adba acbc a6bd 8fbd
000002c0: 4d19 923c d2de b33c f9e9 a43c f0bc f5bd
000002d0: de27 003a 8b93 adbd f93a febd 75f4 4fbd
000002e0: cadf 97bd 29a5 bcbd b301 2ebd 0f44 b9bd
000002f0: 8c26 323d 07e2 a23d 6c21 94bd 326e 3e3c
00000300: 953a 02be fa94 6abd 945c 58bc fbe4 973d
00000310: 3e78 763d b770 14bd a741 d5bd 1153 8e3d
00000320: b6f6 803d 352b 453d 53ab 2d3d 299b d23c
00000330: 2084 a13d f8e5 b03c 7f8d 843d 231e 34bd
00000340: 0edb 51bd c925 18bd caf4 9bbd 6c22 23bd
00000350: 0cc9 d9bd 108e 6a3d d0c5 653d 1271 8a3d
00000360: 551c babc 917f 8d3c e409 053c 20b3 60bb
00000370: 898a 7cbd 6fc7 84bd 7b66 fbbc 88aa 933c
00000380: d497 703d f277 b1bd f5fb ad3c a3e2 153d
00000390: a38d 1bbc 28d2 bdbd d410 713d 2692 213c
000003a0: 971f 83bc 1388 0abd add9 b7bd 6166 0bbd
000003b0: d4d8 7d3d 4c4b 8dbd ede2 d2bd c11d 0e3c
000003c0: e46e 86bc fc6e 69bd ffa7 50bd be2f 4fbc
000003d0: 9ae0 6bbd 7398 c23b c629 9cbd 6b48 bebc
000003e0: 3435 0fbd baec c1bd ef14 9a3d 0ee5 53bd
000003f0: b9e7 e83c e70a a4bd 806a dfbd 938a 2f3d

fc_out1.weight f4 [50, 100]
0.08539531 -0.0030018545 0.0056008524 0.033753887 -0.08882009 0.029025018 -0.0026381626 -0.018734733
0.08468993 -0.0029893096 0.033059254 0.057442073 -0.023290493 0.081328385 -0.07106903 -0.0945659
0.028319431 0.06315046 -0.04187472 0.0064135315 -0.011197369 0.10174514 0.0016519304 0.06572326
-0.081119545 -0.010545338 0.004650039 0.049880914 0.03766379 -0.08190969 0.0382649 -0.07780338
0.021893946 -0.07967063 0.06973067 0.03100159 -0.007265151 -0.021567995 0.087612145 -0.0022031434
0.03357656 0.030038362 0.03903959 0.021693183 -0.05017676 -0.09931974 -0.05024452 0.05616759
-0.07282406 0.05558397 0.051790792 -0.08450152 0.0028064 0.055619407 -0.0020615018 0.03210885
0.07385591 -0.077471346 -0.040309694 0.05981663 0.040817387 0.090653926 -0.08501793 -0.017747393
0.07857647 -0.07404206 0.07140319 -0.057758402 -0.061558157 -0.013504781 -0.05050757 0.031244474
0.06272784 0.0051613543 -0.05366543 -0.01654653 -0.05898464 0.087135255 0.019830255 0.08466729
0.035762664 -0.041441243 -0.007854625 -0.08745475 -0.07968536 -0.08609727 -0.01754315 0.020226369
0.06598129 0.030137856 0.021385916 0.07349748 0.009348846 0.032989085 0.083588704 -0.014645434
-0.0526365 -0.09312155 0.022293368 -0.03860387 -0.04796235 -0.107203424 0.01613508 0.057333726
-0.04991652 -0.047979467 -0.024952903 0.029196259 -0.08534217 -0.062993914 -0.09749172 -0.045932166
0.053671334 0.09273442 0.061599676 0.07138223 -0.082929745 -0.07801133 0.061039463 0.066320606
-0.093959115 -0.017013585 0.074916944 -0.060661275 -0.037908718 -0.08823092 -0.07669717 -0.067637764
0.026730694 -0.014380373 -0.009117746 -0.056669116 0.008593257 0.07861125 0.065396115 0.072816186
0.07301413 -0.020727647 -0.05045908 -0.048418067 0.041594207 -0.04138297 0.064430766 0.03834158
-0.026397198 -0.021449428 0.0152120115 0.041351292 0.0025841414 -0.08114614 -0.029846547 -0.013144145
-0.038948365 -0.06419911 -0.08559999 0.0135089345 -0.014234861 0.101535775 -0.020777198 0.052829143
0.006746844 -0.05693178 0.06624741 0.0596711 3.124277e-05 -0.09941142 -0.012084843 0.013975036
0.108929396 -0.07333412 0.04869892 0.10162617 0.0635456 0.10961189 -0.019349327 -0.056136444
0.011868245 0.061379146 -0.07478308 -0.04222532 -0.027568037 -0.04363864 0.048560776 -0.05987767
0.007393417 -0.018699406 0.061564606 0.09815507 0.09904462 0.07129167 -0.036987662 -0.041672617
-0.033601902 0.06362986 0.10071413 0.03116919 -0.050294332 0.048201684 -0.020402554 0.077653654
0.013782886 0.077684395 -0.051283572 -0.0024802594 -0.09985458 -0.087044075 -0.07121265 0.114576265
0.074729405 0.10571521 0.0842097 -0.028660683 0.049184393 -0.019531323 0.09684327 -0.042275414
0.12279157 0.040444613 -0.121867396 0.056811858 0.02041571 -0.011470772 -0.077868745 -0.0665405
0.0072949976 -0.044643775 -0.081764586 -0.012591642 -0.003982876 0.09445909 -0.03011634 -0.036334142
-0.028739892 -0.0105570555 -0.07823753 0.11813194 0.027150754 -0.09997104 -0.031793926 0.05016286
-0.062479783 -0.028091747 -0.06690756 -0.0145807965 0.05227894 0.044755783 -0.0865044 -0.031254314
-0.11450751 0.0777948 0.027946334 -0.08312885 0.032426808 0.040999133 0.08442983 0.06906724
00000000: bce3 ae3d c3ba 44bb 5b87 b73b 8441 0a3d
00000010: 4fe7 b5bd e0c5 ed3c 06e5 2cbb 9579 99bc
00000020: ea71 ad3d 4be8 43bb 2469 073d 6148 6b3d
00000030: b4cb bebc 7f8f a63d a48c 91bd c4ab c1bd
00000040: 27fe e73c 0755 813d d484 2bbd 9a28 d23b
00000050: 2b75 37bc c25f d03d 9685 d83a eb99 863d
00000060: 0122 a6bd 5ac6 2cbc 5b5f 983b ee4f 4c3d
00000070: 5945 1a3d 44c0 a7bd a8bb 1c3d 6157 9fbd
00000080: ef5a b33c 5b2a a3bd f4ce 8e3d 0cf7 fd3c
00000090: 8110 eebb 5daf b0bc ff6d b33d 9d62 10bb
000000a0: 9387 093d 0313 f63c fae7 1f3d e7b5 b13c
000000b0: 2586 4dbd 2668 cbbd 33cd 4dbd fd0f 663d
000000c0: c824 95bd 04ac 633d 9522 543d 220f adbd
000000d0: 94eb 373b 2dd1 633d 431a 07bb 9284 033d
000000e0: c441 973d 4ca9 9ebd c71b 25bd 4802 753d
000000f0: 2230 273d c4a8 b93d e11d aebd fb62 91bc
00000100: b3ec a03d 5da3 97bd d63b 923d 1394 6cbd
00000110: 6824 7cbd 2843 5dbc 07e1 4ebd 69f4 ff3c
00000120: 7477 803d 9420 a93b 48d0 5bbd 978c 87bc
00000130: e199 71bd f873 b23d 0f73 a23c 0b66 ad3d
00000140: df7b 123d 4bbe 29bd afb0 00bc 7a1b b3bd
00000150: 1432 a3bd c453 b0bd a7b6 8fbc c5b1 a53c
00000160: 3321 873d aae3 f63c 8431 af3c d985 963d
00000170: e72b 193c 901f 073d 8e30 ab3d 67f3 6fbc
00000180: 5f99 57bd 83b6 bebd 95a0 b63c 171f 1ebd
00000190: 2b74 44bd 788d dbbd b72d 843c c5d6 6a3d
000001a0: 4475 4cbd 1e86 44bd 086a ccbc fe2c ef3c
000001b0: e0c7 aebd f402 81bd bda9 c7bd 5e23 3cbd
000001c0: 79d6 5b3d 8beb bd3d f14f 7c3d d930 923d
000001d0: 12d7 a9bd 67c4 9fbd 8404 7a3d 19d3 873d
000001e0: a36d c0bd 1360 8bbc 0e6e 993d f577 78bd
000001f0: 2c46 1bbd 6ab2 b4bd 6813 9dbd ab85 8abd
00000200: 54fa da3c a89b 6bbc 9962 15bc e01d 68bd
00000210: bbca 0c3c effe a03d 66ee 853d a720 953d
00000220: 6f88 953d 07cd a9bc 2eae 4ebd 0652 46bd
00000230: b05e 2a3d 3081 29bd 47f4 833d 100c 1d3d
00000240: f03e d8bc b6b6 afbc cd3b 793c f95f 293d
00000250: b35a 293b f32f a6bd bf80 f4bc 8a5a 57bc
00000260: 5288 1fbd d37a 83bd 0c4f afbd 9454 5d3c
00000270: 5639 69bc fdf1 cf3d f134 aabc 5f63 583d
00000280: a114 dd3b 4c31 69bd b9ac 873d af69 743d
00000290: ab0a 0338 3798 cbbd 81ff 45bc 8df7 643c
000002a0: 6016 df3d 3330 96bd 8578 473d 6221 d03d
000002b0: 3224 823d 337c e03d 7b82 9ebc 54ef 65bd
000002c0: 0773 423c b368 7b3d df27 99bd 75f4 2cbd
000002d0: 5dd6 e1bc 6ebe 32bd aae7 463d 4a42 75bd
000002e0: 7a44 f23b 7f2f 99bc 2b2b 7c3d 8605 c93d
000002f0: e8d7 ca3d 5e01 923d 6080 17bd e8b0 2abd
00000300: 26a2 09bd 5f50 823d 3643 ce3d 8756 ff3c
00000310: 6e01 4ebd 216f 453d 4223 a7bc e108 9f3d
00000320: 9dd1 613c ff18 9f3d b90e 52bd d98b 22bb
00000330: 8f80 ccbd 2a44 b2bd f0d7 91bd f6a6 ea3d
00000340: bb0b 993d 3781 d83d 2376 ac3d cfc9 eabc
00000350: 9375 493d 2700 a0bc c455 c63d fc28 2dbd
00000360: 267a fb3d 40a9 253d 9d95 f9bd 8db3 683d
00000370: d93e a73c e8ef 3bbc a679 9fbd 6346 88bd
00000380: e00a ef3b 64dc 36bd 3174 a7bd 2d4d 4ebc
00000390: c982 82bb c473 c13d 8bb6 f6bc 1cd3 14bd
000003a0: ec6f ebbc 80f7 2cbc 003b a0bd 29ef f13d
000003b0: 426b de3c 9ebd ccbd 593a 02bd 9277 4d3d
000003c0: cdea 7fbd aa20 e6bc d506 89bd 4be4 6ebc
000003d0: 7122 563d d751 373d 3829 b1bd 8604 00bd
000003e0: ea82 eabd e152 9f3d b6ef e43c 753f aabd
000003f0: f9d1 043d b5ee 273d 8ce9 ac3d 2073 8d3d

fc_out1.bias f4 [50]
-0.04363421 0.028190168 0.09608571 0.08116162 0.084172346 -0.0073340647 -0.060873915 0.07548647
-0.09120779 -0.048009444 0.017643318 -0.04257822 0.0842952 -0.0054903836 -0.064701535 -0.03311558
0.066940136 -0.078484215 -0.08311661 -0.06032722 -0.01010406 -0.083489835 -0.001608483 0.054840356
-0.03230596 -0.051557913 0.07484415 -0.016746674 0.04339754 -0.031899355 0.00083145814 -0.018781722
-0.021904292 0.101419196 0.06694342 0.065709196 0.0134469215 0.08648314 0.028994497 -0.012510024
0.106687196 -0.07669104 0.06504916 -0.014183572 -0.03810434 0.02705722 -0.068402864 -0.057744794
0.05414819 0.091515705
00000000: c9b9 32bd 11ef e63c 96c8 c43d 1038 a63d
00000010: 8d62 ac3d 9852 f0bb ed56 79bd a698 9a3d
00000020: 26cb babd 8da5 44bd b888 903c 8066 2ebd
00000030: f6a2 ac3d ade8 b3bb 3d82 84bd 34a4 07bd
00000040: e917 893d 55bc a0bd 0b39 aabd ad19 77bd
00000050: 808b 25bc b8fc aabd bcd3 d2ba 48a0 603d
00000060: 4153 04bd 642e 53bd e447 993d 5230 89bc
00000070: 9ec1 313d e6a8 02bd 36f6 593a 20dc 99bc
00000080: a170 b3bc deb4 cf3d a219 893d 8b92 863d
00000090: 7a50 5c3c 131e b13d de85 ed3c d8f6 4cbc
000000a0: d17e da3d 3110 9dbd 7e38 853d 3662 68bc
000000b0: 4c13 1cbd 1aa7 dd3c cd16 8cbd ce85 6cbd
000000c0: 7eca 5d3d 966c bb3d

fc_out.weight f4 [2, 50]
0.042295113 -0.02726431 0.17060454 -0.023797436 -0.13017878 -0.048384238 -0.14387004 0.06498735
0.019861909 0.090064354 0.11789072 -0.11838904 0.111212336 0.013648068 -0.07551824 -0.13666554
-0.0879289 -0.068510294 0.12275086 0.063628584 -0.035689294 -0.09748135 0.09147155 0.026050007
-0.055104855 0.025218504 -0.0032834404 -0.056337256 0.09252504 -0.11262201 0.045127228 0.082350984
-0.01886763 0.044898488 0.08204012 -0.14199705 0.10957775 0.11015652 0.11490472 0.02203204
-0.038023278 -0.1017065 -0.11717474 -0.22265138 0.031301256 0.1762922 -0.08663122 -0.0821446
-0.01822638 0.078871205 -0.08732551 -0.043781776 0.01246232 -0.10594263 -0.05602826 0.06832305
-0.15694387 -0.1270668 0.0078260405 -0.055177905 0.04443806 -0.05019585 0.1300614 -0.061455235
0.02732802 0.07512574 -0.011643578 -0.055515327 -0.056694053 -0.07401969 0.1358305 0.083136976
-0.12780936 0.16390602 0.10208332 -0.058163434 -0.06578655 -0.0720601 0.060410272 0.026668638
0.10562299 -0.116824545 0.02223034 0.058527052 -0.05410166 0.007716102 -0.0009803161 0.1439122
0.06715109 -0.11022932 -0.08805814 0.09532784 0.00443245 0.1178949 -0.00665922 -0.0902208
-0.10992668 -0.15320586 -0.06381753 0.031050704
00000000: a43d 2d3d 6759 dfbc f5b2 2e3e d7f2 c2bc
00000010: 964d 05be 8d2e 46bd ab52 13be 1618 853d
00000020: 71b5 a23c a973 b83d b170 f13d f475 f2bd
00000030: 4bc3 e33d 259c 5f3c 4fa9 9abd 0df2 0bbe
00000040: 1114 b4bd 204f 8cbd ce64 fb3d b44f 823d
00000050: f02e 12bd 4da4 c7bd 7055 bb3d d366 d53c
00000060: a1b5 61bd 0997 ce3c fd2e 57bb e5c1 66bd
00000070: c57d bd3d 5ea6 e6bd 54d7 383d a2a7 a83d
00000080: 4a90 9abc 7ae7 373d a704 a83d ad67 11be
00000090: 4d6a e03d be99 e13d 2a53 eb3d 897c b43c
000000a0: 4cbe 1bbd 7f4b d0bd 4ff9 efbd b9fe 63be
000000b0: bf35 003d f185 343e b66b b1bd 6e3b a8bd
000000c0: 7d4f 95bc 3a87 a13d b8d7 b2bd 8554 33bd
000000d0: c22e 4c3c 73f8 d8bd e47d 65bd f5ec 8b3d
000000e0: e5b5 20be cd1d 02be cb38 003c 3a02 62bd
000000f0: af04 363d 2a9a 4dbd d12e 053e 7cb8 7bbd
00000100: 03df df3c 86db 993d b5c4 3ebc 0a64 63bd
00000110: 0638 68bd a397 97bd 2717 0b3e b843 aa3d
00000120: 75e0 02be fbd6 273e 0f11 d13d c83c 6ebd
00000130: 19bb 86bd 3f94 93bd c370 773d 3078 da3c
00000140: de50 d83d b541 efbd 671c b63c 10ba 6f3d
00000150: b499 5dbd 5bd7 fc3b f37d 80ba b85d 133e
00000160: 8386 893d e9bf e1bd d357 b4bd 3e3b c33d
00000170: 163e 913b e272 f13d 9635 dabb afc5 b8bd
00000180: 3d21 e1bd ffe1 1cbe c4b2 82bd 0c5e fe3c

fc_out.bias f4 [2]
0.017151076 -0.13420944
00000000: 6a80 8c3c 336e 09be

exp_avg f4 [300, 2]
-6.275341e-06 -1.5190383e-06 -7.1079185e-06 -2.83804e-06 -4.4998587e-06 -7.146401e-07 -2.2957438e-06 2.7927301e-06
-1.2156582e-05 -1.0482358e-05 -3.805242e-06 3.6384424e-06 -2.3920652e-06 8.1468716e-07 -8.017852e-06 -7.805788e-06
-2.5417884e-07 2.0563952e-05 -6.0333173e-06 6.168333e-06 -3.8935514e-06 -1.4790161e-06 -1.1916768e-05 -5.2137807e-06
-9.634591e-06 -2.0577022e-06 -4.4492967e-06 5.7461534e-07 7.5658527e-06 2.6067244e-05 -2.742045e-06 -4.0742123e-07
1.2742963e-07 9.600029e-07 -1.1523349e-05 -6.751241e-06 -1.3173305e-05 1.7897493e-05 -5.4429743e-06 -2.6955245e-06
-3.8530975e-06 2.1587273e-06 -3.523729e-06 1.2747804e-06 -5.84727e-06 4.810549e-06 4.5737756e-06 7.701253e-06
-1.4815156e-05 -8.2644765e-06 1.704545e-06 5.7349152e-06 -4.632438e-06 -5.447906e-06 -4.354064e-06 2.3357018e-06
2.8349657e-06 2.6363412e-06 -7.546859e-06 7.323053e-06 -6.473808e-06 2.381903e-06 -8.100229e-06 -6.1792916e-06
6.6108066e-07 4.2932234e-06 -1.7352985e-06 7.857654e-06 -1.2402865e-05 1.5898363e-06 -7.344156e-07 1.3568483e-05
7.1306313e-06 1.891013e-05 -4.1055982e-06 3.4867394e-06 5.1244488e-06 -5.327326e-07 -4.8411985e-06 2.7084209e-06
-1.636786e-05 -6.945986e-06 3.572372e-07 2.1975077e-06 -1.620805e-06 1.0713603e-06 -8.1894e-06 2.7761932e-06
-4.4613294e-06 6.3315365e-06 -6.1442427e-07 7.411142e-06 -7.2927837e-06 2.2645208e-06 -6.9150965e-06 -1.6331337e-06
-8.822112e-06 5.9866225e-06 9.96662e-06 1.3529071e-05 1.0553597e-06 3.5353664e-06 6.6778216e-06 4.8328347e-06
-1.3170511e-05 -5.6695094e-06 -1.4717377e-06 1.284601e-05 -7.6080914e-06 -6.3947214e-06 1.1224888e-06 3.0096246e-06
-4.232058e-06 -2.092715e-06 1.4524772e-06 8.476389e-06 -4.911121e-07 3.6290057e-06 -1.1194435e-06 1.4163184e-05
1.5341606e-06 3.3736355e-06 4.109117e-06 2.154721e-05 -9.243783e-06 -2.330276e-06 9.43208e-06 1.3443939e-05
-7.705407e-06 -5.1309407e-06 1.0348451e-06 2.5727131e-06 7.324142e-06 7.081355e-06 -1.6046262e-06 1.3323822e-05
-1.0787436e-05 -8.992348e-06 8.264846e-07 -1.5964487e-06 6.344627e-06 1.2908103e-05 4.166112e-06 5.650686e-06
-1.42002855e-05 5.8976684e-06 -1.0471782e-05 -1.15558805e-05 -5.934593e-06 -7.944449e-06 -4.9207897e-06 2.2398672e-06
1.161094e-05 1.4072923e-05 -2.8319207e-06 2.1644926e-06 -8.78414e-06 1.3182726e-06 -3.9042466e-06 7.936905e-06
2.000616e-06 3.6543227e-06 -6.279466e-06 -8.6132627e-07 -4.51723e-06 1.1583676e-06 -5.7636285e-06 -3.7221046e-06
-5.680766e-06 8.245164e-07 -6.6690145e-06 -3.486496e-06 -6.547397e-07 6.675237e-06 1.1507115e-06 1.5937283e-06
4.5705015e-06 1.441047e-05 8.9029083e-07 2.4782885e-06 2.3689481e-06 -3.719456e-06 -3.53941e-06 5.7385682e-06
-3.6437016e-06 -1.2736507e-06 7.800505e-06 1.0584438e-05 3.5730816e-06 2.4263618e-05 -7.271177e-06 -7.431123e-06
-7.4695563e-06 1.8413309e-06 4.669586e-06 1.0781402e-05 -1.4382746e-05 -7.1011273e-06 1.403055e-06 5.7122475e-06
-1.2223209e-06 -3.50668e-06 1.7406282e-06 9.655001e-07 1.187192e-06 6.806806e-07 4.1872283e-08 -1.8914315e-06
1.0949839e-06 4.3292815e-07 1.0967677e-06 -8.52768e-07 1.811604e-06 1.0341032e-06 6.867631e-07 1.0532875e-06
-5.2926202e-06 -1.0141066e-05 -1.3987703e-06 -4.6536925e-06 1.2635625e-06 1.6770817e-07 5.233003e-07 -1.0973774e-07
9.796283e-07 -1.2037669e-06 5.9900134e-07 -6.6074017e-07 1.7115663e-07 -5.6562194e-06 3.395326e-08 -3.9950893e-07
-1.2054952e-06 -1.734796e-06 6.5264344e-06 4.7033423e-06 -8.867898e-07 -7.5293015e-06 -2.3222349e-06 -1.4211518e-06
-1.1417695e-06 -2.405134e-06 -7.746252e-08 -1.7319978e-06 7.455296e-07 -5.0498656e-06 -2.1559547e-06 -3.533089e-06
2.8583981e-06 1.0250757e-06 2.2481672e-07 -7.5659443e-07 9.629072e-07 8.905882e-07 1.9988889e-07 -1.4262915e-06
00000000: c590 d2b6 c2e1 cbb5 8e80 eeb6 2875 3eb6
00000010: 7efd 96b6 b2d5 3fb5 9410 1ab6 bd6a 3b36
00000020: 1ff4 4bb7 63dd 2fb7 8f5d 7fb6 f72b 7436
00000030: 5e87 20b6 e0b0 5a35 6a84 06b7 9bf5 02b7
00000040: 1376 88b4 c080 ac37 cd71 cab6 94f9 ce36
00000050: 5aa5 82b6 9b82 c6b5 21ee 47b7 09f2 aeb6
00000060: 41a4 21b7 0e17 0ab6 2b4b 95b6 443f 1a35
00000070: 2ede fd36 fbaa da37 f903 38b6 8cbb dab4
00000080: 97d3 0834 73d9 8035 6854 41b7 b888 e2b6
00000090: ea02 5db7 9322 9637 cba2 b6b6 c2e4 34b6
000000a0: db49 81b6 a7de 1036 3479 6cb6 1f19 ab35
000000b0: ab33 c4b6 4d6a a136 6f78 9936 a134 0137
000000c0: 9c8e 78b7 a8a7 0ab7 b8c7 e435 8c6e c036
000000d0: 5770 9bb6 28cd b6b6 2019 92b6 0dbf 1c36
000000e0: 5740 3e36 ffeb 3036 063b fdb6 8cb8 f536
000000f0: 9639 d9b6 c8d8 1f36 38e6 07b7 b657 cfb6
00000100: 1e75 3135 820e 9036 67e8 e8b5 5ed4 0337
00000110: e615 50b7 5c62 d535 a824 45b5 31a4 6337
00000120: a843 ef36 32a1 9e37 d2c2 89b6 bafd 6936
00000130: aef2 ab36 1b01 0fb5 9471 a2b6 51c2 3536
00000140: b64d 89b7 9111 e9b6 4fca bf34 e578 1336
00000150: 708a d9b5 a9cb 8f35 3565 09b7 a34e 3a36
00000160: 87b2 95b6 7c73 d436 eaee 24b5 3aad f836
00000170: 89b4 f4b6 2cf8 1736 3a08 e8b6 0c32 dbb5
00000180: af02 14b7 b2e0 c836 4f36 2737 ebfa 6237
00000190: e2a5 8d35 2241 6d36 0d12 e036 bc29 a236
000001a0: eaf6 5cb7 b73c beb6 8688 c5b5 3185 5737
000001b0: 0249 ffb6 3d92 d6b6 6ca8 9635 f5f8 4936
000001c0: 1a01 8eb6 9270 0cb6 bdf2 c235 d035 0e37
000001d0: f7d4 03b5 d889 7336 c93f 96b5 699e 6d37
000001e0: 5be9 cd35 9e66 6236 0ce1 8936 48c0 b437
000001f0: bf15 1bb7 d661 1cb6 7a3e 1e37 478d 6137
00000200: 7946 01b7 722a acb6 02e5 8a35 e0a6 2c36
00000210: e7c1 f536 609c ed36 895e d7b5 6189 5f37
00000220: affb 34b7 d7dd 16b7 97db 5d35 8f45 d6b5
00000230: eee3 d436 e18f 5837 a1ca 8b36 069b bd36
00000240: c33d 6eb7 96e4 c536 f6af 2fb7 21e0 41b7
00000250: c421 c7b6 2649 05b7 431d a5b6 a050 1636
00000260: 9ccc 4237 be1a 6c37 070c 3eb6 b341 1136
00000270: 985f 13b7 80ef b035 3901 83b6 bf28 0537
00000280: 5242 0636 c93c 7536 34b4 d2b6 e435 67b5
00000290: b692 97b6 3579 9b35 3165 c1b6 45c9 79b6
000002a0: 699d beb6 5654 5d35 66c6 dfb6 8cf9 69b6
000002b0: 5fc1 2fb5 d9fb df36 2572 9a35 16e8 d535
000002c0: 4f5c 9936 7fc4 7137 52fc 6e35 ac50 2636
000002d0: 38fa 1e36 c49b 79b6 9a86 6db6 ed8d c036
000002e0: 5186 74b6 4ef2 aab5 eade 0237 d193 3137
000002f0: 13c9 6f36 b989 cb37 effa f3b6 dc58 f9b6
00000300: 00a3 fab6 a623 f735 70af 9c36 c5e1 3437
00000310: 6c4d 71b7 3846 eeb6 9a50 bc35 d5ab bf36
00000320: a00e a4b5 4e54 6bb6 889f e935 5596 8135
00000330: 9b57 9f35 04b8 3635 10d7 3333 17dd fdb5
00000340: 5cf7 9235 316d e834 a734 9335 c5e9 64b5
00000350: 3d26 f335 84cb 8a35 005a 3835 af5e 8d35
00000360: 4397 b1b6 8c23 2ab7 62bd bbb5 ea26 9cb6
00000370: ad97 a935 4513 3434 ec78 0c35 f6a8 ebb3
00000380: c67b 8335 1e91 a1b5 0fcb 2035 b85d 31b5
00000390: 2dc7 3734 8eca bdb6 01d4 1133 177c d6b4
000003a0: 80cc a1b5 23d7 e8b5 a5fd da36 67d1 9d36
000003b0: bb0b 6eb5 35a4 fcb6 b1d7 1bb6 67be beb5
000003c0: e73e 99b5 e367 21b6 7959 a6b3 fe76 e8b5
000003d0: 6720 4835 0472 a9b6 05af 10b6 021a 6db6
000003e0: e8d2 3f36 5595 8935 2665 7134 c618 4bb5
000003f0: 3d3d 8135 c110 6f35 0aa1 5634 016f bfb5

exp_avg_sq f4 [300, 2]
1.3938394e-08 1.5646242e-08 1.8430786e-09 1.0906447e-09 4.425899e-09 4.6131103e-09 8.664037e-11 2.0167372e-10
3.1070222e-08 3.120037e-08 4.15608e-09 2.7965303e-09 2.8635003e-09 1.0013304e-08 4.1467447e-09 4.1439563e-09
5.314195e-09 4.00593e-09 2.2439513e-08 2.5643454e-08 2.3699425e-08 2.1358272e-08 1.4208303e-10 2.1379484e-10
2.449036e-08 3.110674e-08 3.4011902e-09 3.4764358e-09 3.3551837e-09 3.1605334e-09 1.2180097e-09 3.5389347e-09
1.3738969e-08 1.301758e-08 2.9548763e-09 2.9352614e-09 3.8074674e-08 3.814416e-08 8.342137e-10 1.010047e-09
6.179488e-09 5.7911085e-09 6.0548e-10 7.688474e-10 2.6255276e-09 2.347841e-09 3.7487338e-09 3.7047843e-09
1.0026305e-09 4.5758646e-09 1.2401055e-08 9.783295e-09 7.93559e-09 8.031159e-09 3.894421e-09 3.392749e-09
4.2476986e-10 5.080898e-10 1.5444188e-08 1.4425544e-08 7.663089e-09 8.952103e-09 4.143788e-09 8.214075e-09
1.1116961e-08 1.10778124e-08 1.1499819e-09 7.865556e-10 7.900105e-10 2.4574776e-09 3.0214413e-09 8.7997754e-10
4.2332296e-08 3.1201758e-08 4.1600728e-10 5.5309796e-10 2.0194841e-08 1.9457925e-08 1.3748508e-09 2.1076088e-09
1.271094e-08 2.3701483e-08 6.42204e-10 5.4257326e-10 5.0704845e-09 5.4656604e-09 4.751062e-09 5.0309974e-09
2.8819525e-09 3.7547934e-09 2.1443823e-08 2.6026113e-08 4.705775e-10 3.215323e-10 5.503009e-10 1.1656338e-09
3.517219e-09 4.7855875e-10 2.3188662e-08 2.6382924e-08 4.055458e-09 3.8778034e-09 3.0449048e-09 2.47493e-09
7.907037e-09 9.7907025e-09 8.689396e-09 8.001217e-09 5.1334492e-08 4.898404e-08 2.7073495e-09 2.4878022e-09
3.567302e-09 2.8330993e-09 6.651178e-09 6.539823e-09 5.0299153e-08 6.0757294e-08 9.2947845e-09 1.0336523e-08
2.7573561e-09 1.6605369e-09 2.237837e-08 1.7250636e-08 1.865308e-09 3.2907288e-09 1.460875e-08 1.4143589e-08
5.4971614e-09 7.1486856e-09 1.4523762e-08 1.5337879e-08 6.4893477e-09 9.094042e-09 5.188235e-09 2.5102973e-09
6.1692434e-10 1.0521158e-09 3.3153207e-09 5.9488707e-09 8.10716e-09 4.8362985e-09 2.5423186e-09 2.1964235e-09
1.9237736e-09 1.7866739e-10 7.376854e-08 8.250347e-08 4.953387e-09 5.8517395e-09 1.27308395e-08 1.4507435e-08
1.0155205e-08 8.953793e-09 2.6547133e-09 3.934141e-09 4.7674367e-09 4.3065618e-09 1.5260574e-09 6.8097916e-10
1.7367382e-08 2.053938e-08 1.6246706e-09 3.201189e-09 1.275439e-09 1.4565839e-09 7.9919356e-11 1.7080813e-10
3.295343e-08 3.8636877e-08 2.6813854e-10 6.261328e-10 4.00176e-09 5.4492286e-09 1.6074612e-09 2.0432018e-09
1.41226355e-08 1.4501266e-08 4.4774153e-09 4.5976067e-09 1.21761e-08 1.519379e-08 8.836647e-09 7.887265e-09
2.8746163e-09 4.58555e-09 1.0680295e-08 1.0941071e-08 1.4467809e-08 1.4534376e-08 7.7671636e-10 6.9073586e-10
2.8365341e-09 2.9276008e-09 2.4747447e-08 2.3338535e-08 4.6137254e-09 5.250539e-09 1.4680299e-08 1.8047325e-08
1.4472976e-09 1.422822e-09 8.527035e-11 7.832423e-11 3.7311798e-10 3.6162098e-10 6.2480993e-12 9.997348e-12
1.7961168e-09 1.8530351e-09 2.6992342e-10 2.3343058e-10 9.912724e-11 3.1312097e-10 1.3404151e-10 1.5444863e-10
4.904e-10 4.5898446e-10 4.5414464e-10 4.9605586e-10 2.824522e-10 2.4156788e-10 1.5556813e-11 2.3006612e-11
9.567531e-10 9.73251e-10 2.513905e-10 2.3355318e-10 9.147445e-11 7.8647394e-11 9.174719e-11 2.1217576e-10
3.9758868e-10 4.2751006e-10 8.258972e-11 1.4439683e-10 4.8256504e-10 5.150085e-10 3.3806676e-11 3.0669228e-11
2.2076463e-10 1.8680212e-10 1.0833115e-10 6.374361e-11 1.9903623e-10 2.566819e-10 2.7809555e-10 2.755408e-10
4.7643913e-11 1.3660202e-10 1.8662086e-10 1.5874815e-10 3.370508e-10 3.7062992e-10 1.2606459e-10 1.1971955e-10
00000000: b575 6f32 7366 8632 904f fd30 a6e5 9530
00000010: 9f12 9831 5981 9e31 3186 be2e 1bbe 5d2f
00000020: 1272 0533 2b01 0633 44cd 8e31 152d 4031
00000030: 3bc7 4431 fa06 2c32 277b 8e31 a062 8e31
00000040: 2798 b631 88a4 8931 03c1 c032 8d46 dc32
00000050: 9693 cb32 5677 b732 d138 1c2f e611 6b2f
00000060: df5e d232 399a 0533 5fba 6931 1be6 6e31
00000070: 0491 6631 b130 5931 e866 a730 9931 7331
00000080: a008 6c32 eca3 5f32 bc0e 4b31 aab5 4931
00000090: 8c87 2333 f3d3 2333 924e 6530 dfd1 8a30
000000a0: 5a53 d431 21fb c631 de6e 2630 d356 5330
000000b0: c56c 3431 a857 2131 36ce 8031 4197 7e31
000000c0: edcc 8930 bb39 9d31 6b0c 5532 6313 2832
000000d0: 1855 0832 69f9 0932 b0cf 8531 df25 6931
000000e0: 0b85 e92f a4a9 0b30 21aa 8432 37d4 7732
000000f0: 9fa6 0332 c4cb 1932 2561 8e31 e21d 0d32
00000100: e9fc 3e32 bc50 3e32 640d 9e30 ee34 5830
00000110: 0c28 5930 67e0 2831 c2a1 4f31 eae2 7130
00000120: dad0 3533 b202 0633 d2b3 e42f cf08 1830
00000130: ed78 ad32 6e24 a732 43f5 bc30 72d5 1031
00000140: 4e5f 5a32 1d98 cb32 1787 3030 3324 1530
00000150: 7438 ae31 75cc bb31 c93e a331 1fdd ac31
00000160: d80b 4631 8303 8131 7733 b832 0790 df32
00000170: f359 0130 a6c3 b02f fc43 1730 1834 a030
00000180: 92b3 7131 948b 0330 6830 c732 aaa0 e232
00000190: 3058 8b31 853d 8531 883e 5131 6e13 2a31
000001a0: 84d7 0732 f733 2832 5e48 1532 b975 0932
000001b0: df7a 5c33 8662 5233 320c 3a31 e1f5 2a31
000001c0: a424 7531 69b0 4231 6188 e431 e4b4 e031
000001d0: 8108 5833 ad79 8233 e5ae 1f32 8294 3132
000001e0: ec7b 3d31 f338 e430 8e3a c032 8d2e 9432
000001f0: d82e 0031 1d23 6231 f6f9 7a32 2afc 7232
00000200: 8be1 bc31 81a0 f531 2e84 7932 5ac0 8332
00000210: e8f8 de31 053c 1c32 3344 b231 9e81 2c31
00000220: 3194 2930 099a 9030 bdd3 6331 d266 cc31
00000230: ab47 0b32 882c a631 f1b4 2e31 e4ef 1631
00000240: 6233 0431 6672 442f af6a 9e33 c32c b133
00000250: 7432 aa31 7210 c931 d3b6 5a32 603c 7932
00000260: 1077 2e32 33d3 1932 366e 3631 122d 8731
00000270: d1ce a331 ebf8 9331 5fbd d130 a62f 3b30
00000280: 472f 9532 936e b032 044b df30 eafb 5b31
00000290: 854b af30 fd30 c830 99be af2e 37ce 3b2f
000002a0: ae88 0d33 b2f1 2533 2569 932f 2e1c 2c30
000002b0: da7f 8931 ec3b bb31 83ed dc30 6368 0c31
000002c0: 02a0 7232 3e21 7932 c3d7 9931 faf8 9d31
000002d0: 0e2f 5132 7f83 8232 fccf 1732 8f80 0732
000002e0: c98a 4531 ed8e 9d31 6f7c 3732 57f7 3b32
000002f0: 198e 7832 ddb2 7932 8e80 5530 37de 3d30
00000300: d6ec 4231 e62e 4931 3694 d432 fb79 c832
00000310: c286 9e31 3b68 b431 a334 7c32 7d06 9b32
00000320: 42ea c630 198d c330 f182 bb2e 9f3c ac2e
00000330: b01f cd2f a1cd c62f e0d5 db2c 0de0 2f2d
00000340: 3edb f630 e0ad fe30 5864 942f 6f54 802f
00000350: adfb d92e dc23 ac2f 5561 132f 6dd1 292f
00000360: d5cc 0630 5254 fc2f 2dab f92f d45a 0830
00000370: 9d47 9b2f a8cd 842f d4d6 882d 495e ca2d
00000380: c27e 8330 3ac3 8530 1134 8a2f b065 802f
00000390: 8a27 c92e 8cf2 ac2e 14c1 c92e 2b4a 692f
000003a0: a293 da2f b106 eb2f e19d b52e 18c4 1e2f
000003b0: 7fa5 0430 8090 0d30 efae 142e 7be2 062e
000003c0: b8bb 722f 1f64 4d2f 0439 ee2e 762c 8c2e
000003d0: b8d7 5a2f c41c 8d2f 78e2 982f ec7a 972f
000003e0: 478a 512e 0d32 162f 1a31 4d2f a28b 2e2f
000003f0: af4b b92f 86c1 cb2f 079c 0a2f 0fa2 032f
