dagster_ais/lightning_logs/version_1/checkpoints/epoch=9-step=20.ckpt (torch, 448127 bytes, 24 tensors)

rnn.weight_ih_l0 f4 [300, 2]
00000000: f711 bf3d 6781 debc e10e 253d 4002 123d
00000010: 3861 5f3c c3d1 8cbd 7194 e93c 5250 5bbd
00000020: 68d2 c5bd 99f5 443d 73a1 4a3b f5f3 64bc
00000030: 28a8 0bbd 0d5a 7cbd a75a c5bd 596e a1bd
00000040: 9078 b33d 1f49 17bc 38f5 c43d a9da 853d
00000050: 44a2 973c e18a 143c c1e1 b93d 79e1 a83d
00000060: 3f60 03bd da23 a1bd bed4 aabd 7b97 abbd
00000070: 29a5 cc3b a78e 983d cdb7 e8bc acdb 173d
00000080: 2228 913b 4093 54bd aa51 65bd fd5c a2bd
00000090: 54a0 c7bd c1ff 4bb9 795d 7ebd ef8b bd3d
000000a0: 69e8 09bc 086b ab3d ba2e 5c3d 2414 7fbd
000000b0: 9f3e cc3d 70e9 be3d fcaf 80bd 1555 8abd
000000c0: 4fd9 c03d efb8 adbb e467 a7ba 34b0 e1bb
000000d0: 2a70 d5bc d7bc 113b 6107 c0bd 8385 34bd
000000e0: 14ec a0bd 3198 b93c 96ad c43d 9aaf 0dbd
000000f0: 0347 ecbb 5c74 183c 1290 823d 0b26 88bd
00000100: 2af0 7cbd e6d6 45bd 73ba 993d f452 9a3d
00000110: e2ab d5bc 3e84 f0bc 66c1 fe3c 2598 a23d
00000120: 347a c33d 5d4c 77bd cc9e 6a3d e1ed c13a
00000130: 83e1 f8bc 24ea a7bd 3697 e2bc d1b4 143c
00000140: 3f65 9b3d 6082 7f3d 63b8 9a3d 512c 1b3d
00000150: e9d9 b23c b226 933d bc67 843d c372 ac3d
00000160: 4230 abbd be77 b03d ec78 183d 3d80 edbc
00000170: ffeb a63d 7957 173d 36ea 8abc 8f44 953d
00000180: cf4f 583d 05cf 2abd 569a 3c3d 0a99 103d
00000190: 4c1d c1bd d880 80bd 22f6 473c bc69 a1bc
000001a0: 9ff4 ba39 14f1 8d3c 4511 10bd de69 803d
000001b0: 3ac9 103c b4cd c9bc a382 9bbd be50 3cbd
000001c0: 484e a53d 7a59 993c 004e c33d f8f2 c2bd
000001d0: 938f bc3d 415b ee3c 8b8b cebd e58b 3ebd
000001e0: f243 d2bc ea8b 233d 2e66 bebd eec4 c53d
000001f0: 77c9 cbbd fd8f c6bd 0994 fd3a f37f 103d
00000200: b930 a43d c4c9 333c e864 afbd c20a 9abd
00000210: 75a5 dbbb ee2e 83bd 0e31 1b3d d6a7 1a3d
00000220: 6da4 b8bd 2e49 8d3c 13cd 18bd e1eb 3aba
00000230: 1e03 59bd d4c8 953d 99da 873d e613 b03d
00000240: 8468 6bbd c0f9 82bd ab48 413d cc18 07bd
00000250: 072f acbd 59ef c53c 85db 9c3d 2d88 6abd
00000260: 7cbc 10bd f203 b23d fe93 8e3d 3085 833d
00000270: 8d79 833d de85 e8bc 7443 60bc 095c 1dbd
00000280: 1bee 9e3d 2824 0b3d 5abd c8bd 78ac a6bd
00000290: 4c9b e8bc 2e40 693d 8a72 a73d 1bf0 3d3d
000002a0: 77e7 abbd 611b a9bd be44 5a3d cc0c 373d
000002b0: dae3 1d39 3ba5 24bd d981 cebc f5fe c93c
000002c0: 55b4 023d 98f8 fd3c de18 803d 84bf 60bc
000002d0: e5bd 2a3d 9406 1f3d ba19 4fbc e3b8 953c
000002e0: e32a 43bd 682c c03d 87a2 bfbd 59e8 8e3d
000002f0: 7e56 963d a85e bf3d 6552 10bd 2bf3 5dbd
00000300: 3b90 bc3d 94c0 383b 88e8 b4bc f17c c73d
00000310: 2696 863a 72fc 12bd cc02 993d da56 3bbd
00000320: ef5d cabd 20a0 873d 7f19 ea3c d4d1 b9bd
00000330: 7ec2 67bd 16d6 cebd baa3 a6bd 0b43 08bd
00000340: f5ae 233a 042a 2cbc b539 98bd 537c 3c3b
00000350: 6919 103d 2c4f c4bd 5628 cdbd 8bc3 c63d
00000360: 16b1 9bbd 1f21 efbc e1f7 73bd 6f74 663d
00000370: 45d4 913c 4b61 243d e849 05bd 70fd 93bd
00000380: 64f0 57bd 6a05 5e3d 9acb 813d d9be 853c
00000390: 61b7 083c 598a e0bc cf1e cebd 49fd c63d
000003a0: 9781 69bd fcad bb3d 5f05 b13b 7add 073d
000003b0: 88a9 a03d 0e65 4a3d 0a69 333d dcbd ec3c
000003c0: 0545 6d3d 0a24 babd 6d43 70ba 5bfe a93d
000003d0: 5af1 923d 05af 553d c28f a93d 349a 313d
000003e0: ca15 803d 9d62 c2bc 6e6b be3d f619 88bb
000003f0: 8e9e bdbd 9b32 1d3c c213 54bc 9e47 90bd
0.093295984 -0.027161313 0.040297393 0.035646677 0.013634019 -0.068759464 0.028513165 -0.053543396
-0.096592724 0.048085783 0.0030918985 -0.0139741795 -0.034095913 -0.061609317 -0.09636431 -0.07882375
0.0876323 -0.009233742 0.09617084 0.06535847 0.018509991 0.009066314 0.09076262 0.082461305
-0.03207421 -0.07868166 -0.083413586 -0.08378502 0.0062452746 0.07449084 -0.028407956 0.03707473
0.004429833 -0.05189824 -0.055986084 -0.07927892 -0.09747377 -0.00019454864 -0.06210086 0.09255206
-0.008417227 0.08370024 0.0537555 -0.062275067 0.099728815 0.093218684 -0.06283566 -0.06754509
0.09416448 -0.005301587 -0.0012772051 -0.00688746 -0.02605446 0.0022237801 -0.093764074 -0.04407264
-0.07857528 0.022655578 0.096034214 -0.034591295 -0.0072106137 0.009305086 0.063751355 -0.06647881
-0.061752476 -0.048300646 0.075062655 0.07535353 -0.026082937 -0.029359933 0.031098079 0.079391755
0.09544793 -0.06037556 0.057280347 0.0014795625 -0.03038097 -0.08198956 -0.027659994 0.009076313
0.075876705 0.062380195 0.075547 0.03788406 0.021832423 0.07185115 0.06465098 0.084203266
-0.08358814 0.08616589 0.037224695 -0.028991813 0.081504814 0.036948655 -0.016957384 0.07288467
0.052810486 -0.041701335 0.046045624 0.0353022 -0.09429416 -0.06274575 0.012204679 -0.019703738
0.00035658941 0.01732687 -0.03517272 0.062701926 0.008837039 -0.02463422 -0.07593276 -0.04597544
0.080715716 0.018719424 0.09536362 -0.09518999 0.09207072 0.029096248 -0.100852095 -0.046520133
-0.025667164 0.039928354 -0.09296833 0.09656702 -0.09950536 -0.09695432 0.0019346486 0.035278272
0.080171056 0.010973398 -0.08564168 -0.07521583 -0.0067030736 -0.064054355 0.03788858 0.037757717
-0.09015737 0.017246809 -0.03730495 -0.00071304856 -0.05298149 0.073136955 0.06633491 0.08597545
-0.05747272 -0.06395292 0.047188442 -0.032982633 -0.08407407 0.024161981 0.076590575 -0.057258774
-0.035336003 0.08692159 0.06961821 0.06421888 0.06419668 -0.028384145 -0.013687957 -0.03841785
0.07760259 0.03397003 -0.09801741 -0.081383646 -0.028394364 0.056945972 0.081761435 0.04637156
-0.08393758 -0.08257175 0.053288214 0.04468994 0.00015057568 -0.04019664 -0.0252084 0.024657706
0.03191026 0.031002328 0.06254743 -0.013717536 0.041685004 0.038824633 -0.012640411 0.018276637
-0.04764832 0.0938347 -0.093571715 0.069779105 0.07340716 0.09344226 -0.035234828 -0.05418698
0.09207197 0.0028190957 -0.022083536 0.097406276 0.0010268136 -0.03588528 0.074712366 -0.045737125
-0.09881198 0.06622338 0.02857661 -0.09073225 -0.056581967 -0.100994274 -0.08136697 -0.033267062
0.0006244027 -0.010508064 -0.07432882 0.0028760626 0.035180483 -0.09585413 -0.10017459 0.097052656
-0.07602136 -0.029190598 -0.059562568 0.056263383 0.017801413 0.04013185 -0.032541186 -0.07226074
-0.05271949 0.054204382 0.06337662 0.016326355 0.008344502 -0.02740972 -0.1006447 0.09716279
-0.057008352 0.09164044 0.0054022516 0.0331702 0.078448355 0.04941278 0.043801345 0.028899126
0.05792715 -0.09088905 -0.00091653207 0.083004676 0.071749404 0.052168865 0.08279373 0.04335995
0.06254156 -0.023728663 0.09297834 -0.0041534854 -0.092587575 0.009594585 -0.012944164 -0.0704491

rnn.weight_hh_l0 f4 [300, 100]
00000000: cb23 61bd cc56 9dbd 33e0 93bc 43e1 b3bd
00000010: 16f0 8fbc 54ae 9bbd 9f7f 56bd fc76 173d
00000020: dff2 81bd c3d4 90bd 8cb8 a9bd 177d 773d
00000030: 0a39 4d3d 1de2 bdbd 839e a43c b3da 6fbd
00000040: eee2 173d 4d1a 933c 0826 78bc 2df5 b0bd
00000050: 1a9a ac3d f79b 813d cd40 babc 54fa b9bd
00000060: 5b5d 82bc b459 883d 82ef 2e3d a2be c9bd
00000070: bdb4 133d 89b1 a03a eb48 ee3c 3cf0 babb
00000080: 5c25 13bc c518 21bd 0e2b ce3d 0be9 44bd
00000090: 9f60 ccbc 3695 76bc a556 1f3d 73ad bb3d
000000a0: cb48 893d 9909 c0bb 40bc 8b3d 62a6 8abd
000000b0: 5e48 bc3d 3396 8dbc e706 6d3c e3ec cebd
000000c0: be30 4c3d 3bec 2b3c 2e7b 673d 0b93 9abd
000000d0: 9794 023d 8580 b3bd b5c5 213b a5a8 b33d
000000e0: dbbb 523d 2252 783d 38fe 80bd 6c92 bebc
000000f0: 2113 813d 53d3 6d3d 2f2d 94bd cbae dc3c
00000100: d047 74bb 87d2 e9bc d539 67bc 46a6 1d3c
00000110: 2cdc 683c 36a7 973c fba7 aabd c1ec 013d
00000120: 9e53 563b 0ecf 813d 6f0c 5bbd 4ff5 cbbd
00000130: 28ba 893c 2126 953d 4f9f 443c 6671 afbd
00000140: 8864 13bd a8f6 3dbd 3caa 843d cd00 493b
00000150: 0517 bfbc 905b 33bd fbf9 c7bc 982c 843d
00000160: df21 20bb b619 17bd 8efd 8e3d 128d 893d
00000170: 481e 1a3d 63a0 953d 1575 ebbc 8798 a83d
00000180: 023c bdbc 790c bcbd 6413 9ebd 3030 27bd
00000190: 781e aabd 5496 2f3d 9bb5 a63c d8bf 9bbd
000001a0: ae1d 9e3d ad4c 98bd 603f aebd bce9 0dbd
000001b0: e210 653b 5086 68bd 6cee aa3c ae93 43bd
000001c0: 6bb8 c3bd 82f2 36bd 643b bdbc d5be 83bd
000001d0: 1d2c 1d3d b19a 2c3d de80 9cbd fe8e 043d
000001e0: ffe6 8c3c a811 0c3d 75bb 1abc ec9c 293c
000001f0: c082 8bbd 8fba 513d 9095 2b3d d01e c83d
00000200: c80c 8d3d b189 89bc 1bca edbc d658 be3d
00000210: 0aa3 67bb 6109 cc3b e08d 833d 70a6 973d
00000220: b92a 4bbd e0f6 32bd 1013 94bd e92d c7bd
00000230: 4706 313d 0fcf ab3d f7d6 7ebd d783 e23c
00000240: b99c e33c e8f5 c4bd b818 9939 0bb8 e73c
00000250: 3d5c b53d ccd6 85bd 6073 aabd 5fc6 8a3d
00000260: a8a5 8dbc e8bd 053d 6981 8b3d 7ddc d63c
00000270: 6804 c9bd f3eb a9bd 580b 84bd 9d7f 5e3b
00000280: 7674 ee3c c0a3 e5bc ebd5 e7bc c8cd 6abd
00000290: 297a bbbd 9309 6b3c 0754 41bd 89eb 863d
000002a0: 66a3 593d 04ca e43c 4f06 a83c a17c 38bd
000002b0: 8377 3cbd cc95 33bd 84d0 7abb 2444 e93c
000002c0: 0413 d8bc 9514 afbd 6a44 cb3d 4207 983d
000002d0: c85d a73d 4c36 7bbc 704d f63c 6073 2abd
000002e0: 95b5 0d3d 3c48 e13b 7181 9e3d 3bc1 3bbd
000002f0: f2eb 303c 1aef 833d b1cc b73d 920b f2bc
00000300: fdb7 c13d 6db3 b8bd 0b75 93bd 1423 92bc
00000310: fd74 2ebd 71fb a7bd d54f a0bc 7542 97bd
00000320: e2a5 a43c 45ab 593d 39da b1bc 2147 32bd
00000330: e851 a8bd bb3d c8bd 095a b1bd c6f6 9cbd
00000340: e848 313c 1a2e c8bc 9b9d 01bc 2029 533d
00000350: 1107 cb3d 15a1 6d3d 2191 b1bd 558e d1bc
00000360: fa5b 42bd 7b80 6fbd 08be 0abd 3f5f a9bd
00000370: 54b9 c1bd dfdc cbbd 894c febc ef1f 90bd
00000380: 9269 c3bd 98b5 0f3d b7e9 5a3d 2799 89bd
00000390: b145 a43c 31fc b03d de77 0f3b 6018 c7bd
000003a0: 9610 613c eac8 44bd 0b8b 9b3d 3a32 1cbd
000003b0: b47c bc3d c4d8 b13c 3e12 aebd 8eed 4e3d
000003c0: 9f57 ea3c 60a2 c3ba b143 35bc 3f09 1fbd
000003d0: e01f 6fbd f6f8 033d b72e c8bd 8899 30bd
000003e0: 28b4 16bd a5bc 363d 6c82 47bd 44a0 9c3c
000003f0: 9aa8 c33d a12d ccbd 094b 39bd dd7f 45bd
-0.054965775 -0.07682571 -0.018051242 -0.087832 -0.017570537 -0.0760161 -0.052367803 0.036978707
-0.06345152 -0.07071831 -0.08287153 0.06042203 0.050103225 -0.09271643 0.020095116 -0.058558177
0.03708165 0.017956877 -0.015145786 -0.086405136 0.0842783 0.06328576 -0.022735978 -0.090809494
-0.015913656 0.066577345 0.04270888 -0.098508134 0.036061037 0.0012259941 0.029087504 -0.0057049077
-0.008981075 -0.039330263 0.10066806 -0.04807381 -0.024948416 -0.015050223 0.03890099 0.09163942
0.06703337 -0.005860519 0.06823015 -0.06770016 0.091934904 -0.017283535 0.014466978 -0.10103776
0.04985117 0.010493333 0.056513958 -0.075475775 0.031879988 -0.087647475 0.0024684493 0.08772401
0.051448684 0.060625203 -0.062984884 -0.023263179 0.06302477 0.058062863 -0.072351806 0.026938817
-0.003727425 -0.02854277 -0.014112909 0.009622162 0.014212649 0.01851235 -0.08332821 0.031719927
0.0032703648 0.06338321 -0.053478654 -0.09958898 0.016812399 0.07282663 0.012000873 -0.08566551
-0.035984546 -0.046377808 0.06477782 0.0030670643 -0.023326406 -0.043788493 -0.024411192 0.06453818
-0.0024434251 -0.036889754 0.069819555 0.0671636 0.037626535 0.07305982 -0.028742353 0.08232217
-0.023099903 -0.091820665 -0.07718542 -0.04081744 -0.08306593 0.042867973 0.020350268 -0.07604951
0.07720505 -0.074365 -0.085081816 -0.034646735 0.003495269 -0.056768715 0.020865642 -0.04774826
-0.09556659 -0.044664867 -0.023099609 -0.06432883 0.038372148 0.042139713 -0.07641767 0.03236293
0.017199991 0.034196526 -0.009444107 0.0103523545 -0.06812048 0.051203307 0.04189068 0.09771502
0.068872035 -0.01678929 -0.029027035 0.09294288 -0.0035344982 0.006226704 0.06423545 0.07404792
-0.04960129 -0.04369247 -0.072301984 -0.097255535 0.043218877 0.08389103 -0.062216725 0.027650757
0.027784692 -0.096172154 0.0002920085 0.028286 0.08855484 -0.0653511 -0.08322787 0.067761175
-0.017290905 0.03265181 0.068117924 0.026228184 -0.098152936 -0.08296957 -0.06447476 0.0033950575
0.029108267 -0.028032184 -0.028300246 -0.057325155 -0.091541596 0.014345544 -0.047199275 0.065878935
0.053134345 0.02792836 0.02051082 -0.04504073 -0.046012413 -0.04384403 -0.0038271258 0.028474875
-0.026376255 -0.085488476 0.09925158 0.07423259 0.08172184 -0.01533277 0.030066222 -0.041613936
0.034597 0.006875066 0.07739533 -0.045838576 0.010798441 0.064420894 0.08974589 -0.029546533
0.09458921 -0.09018598 -0.072000585 -0.017838992 -0.042592037 -0.082022555 -0.019569317 -0.073857225
0.02009863 0.05314185 -0.021710502 -0.043524865 -0.082187474 -0.09777399 -0.08659751 -0.07664256
0.010820605 -0.024436045 -0.007911111 0.05155289 0.09913457 0.058014948 -0.08670259 -0.025580565
-0.047450997 -0.058472138 -0.033872634 -0.0827012 -0.09459177 -0.09954237 -0.031042354 -0.07037341
-0.0954162 0.03508529 0.053445544 -0.067186646 0.020052763 0.08641852 0.0021891515 -0.09721446
0.013736865 -0.04804317 0.0759488 -0.038133837 0.09203473 0.021709807 -0.08499573 0.05051952
0.028606234 -0.0014925711 -0.011063502 -0.038827177 -0.058380008 0.03221985 -0.09774535 -0.04311517
-0.036792904 0.0446135 -0.048708364 0.01911939 0.095536426 -0.099696405 -0.045237575 -0.048217643

rnn.bias_ih_l0 f4 [300]
00000000: 94b4 a4bd f650 b13d 5940 2a3d 9b4b 963c
00000010: 88cd 86bd efe0 7a3d 08d7 b6bd 6882 20bd
00000020: 1e49 f9bb de92 6ebd ab6d 8e3d c89b 8a3d
00000030: eefb 9a3c e050 8a3d d961 c4bc d65b c33d
00000040: 44f9 ae3d df2f 383d 21c7 be3d 7569 a23d
00000050: cd4b 80bd 063f 3dbb b36a 1c3d 165c c03d
00000060: e300 c83c 7290 c5bd 44ab a23d bd5b 50bd
00000070: 7b56 b93c 6220 863d 101f 1738 aefa a43d
00000080: a0a6 753c c8f5 8a3d 2f9b 1a3d 55fc 803b
00000090: 81cf 673d 8cb9 2dbd 914c dfbc dfe4 3dbd
000000a0: 49a7 223d fd02 d03b 1bf7 b0bc 66e8 8e3d
000000b0: 5331 c0bd a2ad 45bd b7f4 abbc 6422 4fbd
000000c0: 1a13 303d 0d08 be3d da14 14bd 5a72 43bd
000000d0: 0e35 9abd 5312 503d e38c 013d 6a11 50bd
000000e0: f171 353c e76b 8b3d d0cf 88bd 9710 363d
000000f0: 14bb 10bd 4096 b2bd 9b46 82bd 744d 493d
00000100: 2ea3 89bd 3df9 b13d bb91 6dbd e3ed 88bd
00000110: c440 76bd 3813 c43b 2928 8cbd c6b3 be3d
00000120: 4261 c73d f460 c9bd c1c7 79bd 2f14 cc3d
00000130: 5afc dd3c 69d7 7f3d d0dd a83d 15e2 69bd
00000140: b6b7 bfbd f55e 693c c4e6 a73d 4ec3 883d
00000150: d3da 6cbd 4cdd 473d 6a4a 77bd 5f93 55bc
00000160: 0cfa 3d3d e733 45bc a425 a23d c1e2 a9bd
00000170: 2d87 2c3c 77c7 903d 7bb7 94bc 2fe0 a4bd
00000180: 791f ca3d 12d0 0d3b 6e76 6abd b474 963d
00000190: e72d a83c 67af ac3d 8d9d 9f3d 1523 4ebd
000001a0: c353 763d de0f a6bd 2e7a 433d 2ca9 fd3c
000001b0: 7001 93bd 352b c0bd d5cf 55bd d75c 58bd
000001c0: 6d47 8ebd 444d 913d 4fd0 8ebc 44c2 353d
000001d0: 116c c8bd 5cbb 303d d7b8 edbb 63f1 61bd
000001e0: d213 90bd 1cf8 893d 08d8 72bb ac2d 5dbd
000001f0: be1e 003d e70b 263d 7819 4ebd da58 8dbd
00000200: 28da 833d 41a0 d6bc 81dd fa3c ad94 ecbc
00000210: 6618 2c3d 76bb 03bd 1629 5f3d af77 8a3d
00000220: d621 4d3d 4421 20bd cc80 bebd 1b52 66bd
00000230: 9b04 3ebd 8049 603c 9ee8 8abd 087a f43c
00000240: b7c0 1abd 903f b23d 43fe b2bc b9e8 4f3d
00000250: 7eec 2abd 3695 a6bd 32f2 c6bd 896e 61bd
00000260: 6d35 9c3d 9221 07bd 74bf 98bd a274 c0bd
00000270: f18d 9e3d 847b b9bd e5e7 eb3b a81e 93bc
00000280: 8e5a c23d 2397 7cbd e981 923d 009b 99bd
00000290: 0d9b 8abc d20e 57bd c61a 9e3c 9479 b7bd
000002a0: a68b 2fbd cc96 c3bd f19a 5d3d 8c60 f9bb
000002b0: 1a67 a23d 77e3 86bd 59f9 813d 5886 a1bc
000002c0: cc2d 9fbd 7ef6 afbd 0b7c 27bd fa4e 013d
000002d0: 3224 b3bd 552c 073d eb67 6fbd 83e5 0abd
000002e0: 23de 36bc d3e0 373c 377e 3a3d 5dc6 d93b
000002f0: 2041 893d f803 74bc 77e3 ed3c 2710 f5bc
00000300: ddd1 98bc 4c3f 83bd 066f 9e3d bd8b 2ebd
00000310: 8718 a9bd 34ea 47bd c5b0 9d39 5695 a53d
00000320: 42b8 ec3b 8f82 8bbd 2157 8d3d 5be7 f9bc
00000330: 64f3 b93d 0a7b 1bbd 6ea0 0b3d 18f1 4fbd
00000340: a155 fabb bb9c 7bbd 1074 84bd 5d78 8cb9
00000350: 34b1 74bd 43bd 663d 9f41 08bd 3e54 cfbc
00000360: 337c 3bbd 52b5 833d e2f3 c6bb 0e87 bc3d
00000370: 4c71 93bb 8a41 b1bd 34bc d9bc 0247 c9bd
00000380: 5f5b 0a3d 4d70 ccbc d39f 89bd 19af c03d
00000390: 1a4a b4bd 8e38 f8ba 9daf a2bd 872f 97bd
000003a0: 4331 763d ba15 88bd 2adc a7bd b98a a53c
000003b0: f3d3 5bbb 1ff6 a83c f71d 8b3d 3fe9 99bd
000003c0: 841e e73c 90a9 db3c 47d5 b0bd 1a5d b83b
000003d0: 9492 853a 74f3 12bc ba33 293d 0821 84bb
000003e0: 4e3c 7ebd c820 623d b173 1f3d eebc 033a
000003f0: cf55 153c 6887 c73d e06d aabd f48b ac3d
-0.08042255 0.0865802 0.041565273 0.018346598 -0.06582171 0.06124967 -0.08927733 -0.039186865
-0.007607593 -0.058245532 0.06954511 0.06767994 0.018918958 0.06753707 -0.023972439 0.09539001
0.085436374 0.04496753 0.093153246 0.079302706 -0.06264458 -0.0028876676 0.038187694 0.09392564
0.024414485 -0.096466914 0.079428226 -0.05086874 0.022624245 0.06549145 3.6030135e-05 0.08055626
0.01499334 0.0678516 0.03774565 0.0039363303 0.056594376 -0.04241328 -0.02725819 -0.046360847
0.039710317 0.0063480125 -0.021602204 0.0697792 -0.09384408 -0.048261292 -0.020990713 -0.050569907
0.042986967 0.09278879 -0.036152698 -0.047716476 -0.07529651 0.050798725 0.0316285 -0.050797857
0.011074529 0.0680769 -0.06680262 0.044449415 -0.03533466 -0.08720064 -0.06361123 0.04914613
-0.06720577 0.086901166 -0.058000308 -0.06685998 -0.06012036 0.0059837364 -0.068435974 0.09311633
0.09735347 -0.098329455 -0.060981516 0.09964787 0.02709787 0.06246129 0.082454324 -0.057100374
-0.09361212 0.014243831 0.08198312 0.066778764 -0.057825875 0.04879503 -0.0603737 -0.013035624
0.04638104 -0.0120363 0.07917336 -0.08295203 0.010530275 0.07069295 -0.018153897 -0.08050572
0.09869284 0.0021638912 -0.05724185 0.07346478 0.0205297 0.08431893 0.07793722 -0.050326426
0.060138475 -0.08108495 0.04772394 0.030964456 -0.071780086 -0.09383241 -0.052200157 -0.052822914
-0.06947217 0.070948154 -0.017433314 0.04437472 -0.09786237 0.04314743 -0.0072547006 -0.055161845
-0.070350304 0.06736776 -0.0037055034 -0.053998634 0.031279318 0.040538695 -0.050317258 -0.06901713
0.064380944 -0.026199462 0.0306232 -0.028879488 0.042015456 -0.0321612 0.054482542 0.06761109
0.050081097 -0.039094225 -0.0930191 -0.056230646 -0.04639111 0.013689399 -0.067826495 0.029843345
-0.037781443 0.0870353 -0.021849757 0.05075905 -0.041729443 -0.081339285 -0.09714164 -0.055037055
0.07627378 -0.032991 -0.07458392 -0.09397246 0.07741917 -0.09056762 0.007199275 -0.017958954
0.09489928 -0.061667573 0.07153685 -0.07500267 -0.016919637 -0.052504368 0.019299876 -0.08958736
-0.04285779 -0.095502466 0.05410284 -0.0076103862 0.07929821 -0.06586354 0.063463874 -0.01971738
-0.07772407 -0.085919365 -0.04088978 0.03156946 -0.08747138 0.033001263 -0.058448713 -0.033910286
-0.01116136 0.011223036 0.045530524 0.006645961 0.06701875 -0.014893524 0.029039128 -0.029914929
-0.018654758 -0.06408557 0.0773602 -0.042613734 -0.08256631 -0.048807338 0.00030077077 0.08085124
0.0072241137 -0.068120115 0.06901384 -0.030505827 0.09079626 -0.037959136 0.034088545 -0.050767034
-0.0076396023 -0.061428767 -0.0646745 -0.00026792558 -0.059739307 0.056332838 -0.033265706 -0.025308724
-0.045772742 0.064310685 -0.0060715536 0.09205447 -0.00449959 -0.08655079 -0.026579 -0.09827997
0.033778545 -0.024955893 -0.06719937 0.09408397 -0.08803196 -0.0018937753 -0.07943652 -0.07382112
0.060105573 -0.06644769 -0.0819629 0.02020775 -0.003354308 0.020625172 0.06792825 -0.07515191
0.028212793 0.026814252 -0.086344294 0.005626333 0.0010190778 -0.008969177 0.041309096 -0.004032258
-0.06206923 0.055207044 0.03892869 0.0005025406 0.009114697 0.097426236 -0.08321738 0.084251314

rnn.bias_hh_l0 f4 [300]
00000000: 1b0d b73d 9625 babd e4a7 a73d 5d9c a53d
00000010: 6690 a2bd 95ea 943d 509f 7fbd f34b c13d
00000020: a5e9 913d e19c 80bc c248 7abd 0837 06bd
00000030: d444 a13c 2042 c73d 4853 523d 600a af3d
00000040: 628a 40bd c237 6e3d ac92 50bd d1e4 8c3d
00000050: 02ec d9bc ef42 983d 5773 0ebd f939 5c3d
00000060: 7744 b63d f37a 9d3d 46e9 943d 2950 a43d
00000070: 7d52 a73d ca91 e63c 432f b4bd 42e3 a6bc
00000080: 9fd3 a83d 66c2 22bd cfa4 90bd 0507 693c
00000090: d59c 29bd 751c 8abd 3eed b5bc fe7e 9d3b
000000a0: d04e 96bd 8fd7 c0bc 54c3 ae3d c6c2 793c
000000b0: 46b1 c9bd 9717 a8bd 430d e23c c2ec 473d
000000c0: 9f75 b53d 53ef af3c 7e0a aebd 2a2d b13d
000000d0: 8533 a4bc 6fd7 ffbb e71a 863d 8e64 9d3d
000000e0: 1de3 babd 3fef aebc 31a7 7d3b 6d71 87bc
000000f0: 5211 af3d 2496 c03d 7a6c bb3d f839 afbd
00000100: 0332 f4bc 4065 a6bc 61de 6a3c 2c90 b0bc
00000110: a7c1 e03c da2e 9bbd 41f3 703d 2381 873d
00000120: c329 67bd 4493 643c 177e 1abd 9cb4 a2bd
00000130: fbaf d0bb db34 c33d e0eb bf3d 6b27 7a3d
00000140: df47 0f3c 8b1a 13bd e8f4 bebb 78cf 75bd
00000150: 14e3 753d 20a0 c83d 2e90 9e3d dd0e b6bd
00000160: cfb5 163d 446f 81bd fa40 863d 3cfe 12bc
00000170: fb77 aabd d676 c7bd c4ee 303d 58c1 893c
00000180: 38b1 733d dbc3 85ba 1eba aabd 0fa4 f73c
00000190: 3411 623d db29 63bc 9065 aebd acda 40bc
000001a0: c14e ae3d c682 1abd 2c45 0d3b 7b35 aebb
000001b0: 3710 97bd 59d5 883d fa03 9f3d 9668 b7bc
000001c0: f5ad b5bd 2c9e 5dbd ff49 943d 6aa9 97bd
000001d0: d999 a8bd 7c89 7b3d b222 fb3c 6c8b e9bb
000001e0: c8f3 6b3d 6a4a b3bd a73b bc3c 53f6 c0bd
000001f0: 5899 9b3c 03dc 43ba 6263 5b3d 7af3 66bb
00000200: 76d4 d6ba 1e4b 74bc 5909 babb 3ef8 743d
00000210: a962 4dbc 4cda 0bbd c679 bf3d f584 183d
00000220: bc8d b43d 657c aabd 065e d83c b804 963b
00000230: 5bc6 0fbd 7ec1 7c3d df56 983d ba6a 383d
00000240: 8800 a33d 9245 bebd 4dba 4dbd 2ca3 7a3d
00000250: 7e6a fa3c c62a 423b 00d0 343d 2a71 b5bd
00000260: cc46 753c f733 af3d cad7 2cbd e572 b2bd
00000270: f685 ffbc d0d5 803d 3bac 373d 4d30 1cbd
00000280: b414 8d3d 650f e1bc 7170 8d3d 1c88 703d
00000290: c07b aabc a287 6bbd a099 8d3c 7e0a a03d
000002a0: e4b5 193d c64a 4e3d 0665 cc3c af0d 9cbd
000002b0: 9039 82bd a7e0 3abd 5180 c8bd d072 92bd
000002c0: ed81 12bd b801 bdbc a2d3 f93c 8049 493d
000002d0: 3009 19bc 7ebf 33bd 0c7b bcbd a7ef 8a3d
000002e0: 2954 f6bc e12b be3c abd2 9b3d fc58 adbc
000002f0: 9f14 ac3b c5c7 97bd 7a53 86bd fbb2 bbbd
00000300: 4aa1 a03c 8539 e13c 867a 4bbc 60c9 5bbd
00000310: e2bb ea3c bfbf 8fbc 8bee 93bd d796 89bd
00000320: b3f9 b93d c7de a1bd fbd4 563d 2cd6 9dbc
00000330: 8c58 af3d 9a6c 41bd 18e2 8abd 7379 77bc
00000340: a46a bebd f13f 0b3d 8ddc d2bc 17df aabd
00000350: ad03 97bd 8e26 be3d ab53 bc3d fc68 c1bd
00000360: c9d6 ad3d 391c 2f3d ddf5 2abd 1f10 67bc
00000370: c8fb 16bd 4827 623c d1f7 133d 131a a1bd
00000380: 650a efbc 8dac 9ebc 4e17 443d e24f a6bd
00000390: 4015 713d 83ab 693d bb14 b03c 5664 c4bd
000003a0: 3d81 41bd 07e4 dcbc 40bf 6f3d bce0 5e3d
000003b0: f5c6 d4bc 767e 05bc aafa 61bd 6e9e f1bc
000003c0: f3fa b53d 1918 adbd 7a8c 97bd af6e b23d
000003d0: 13ce c0bd 2beb d2bc cab0 2abd 7c41 813c
000003e0: 2719 a2bd b32f 3f3c 16e3 f6bc 92b4 2e3c
000003f0: cb8f a3bd 1979 b63d 6c3b 29bd 9f69 98bd
0.089380465 -0.090892 0.081863195 0.080864646 -0.07937698 0.072713055 -0.06240779 0.09438314
0.07124642 -0.015699806 -0.061104544 -0.032767326 0.01968614 0.09729409 0.051348954 0.08546901
-0.047006972 0.058158644 -0.050921127 0.06879581 -0.026601795 0.074346416 -0.034777965 0.053766225
0.088997774 0.07689466 0.07271056 0.08023102 0.0817003 0.02814569 -0.08798077 -0.020372037
0.082434885 -0.039736174 -0.07062685 0.014222865 -0.041409332 -0.06743709 -0.022207852 0.0048063984
-0.07339251 -0.023540286 0.0853335 0.0152441915 -0.09848265 -0.082076244 0.027594214 0.048809774
0.08860325 0.021476423 -0.08498095 0.086511925 -0.020044098 -0.007807664 0.065481 0.07685195
-0.0912535 -0.021354316 0.003870439 -0.016533578 0.085482255 0.09403637 0.0915155 -0.085559785
-0.029809004 -0.020311952 0.014335246 -0.021553122 0.02743609 -0.075772956 0.058825735 0.06616428
-0.05643631 0.0139511265 -0.037717905 -0.07944605 -0.0063686348 0.09531566 0.093711615 0.06107275
0.008745163 -0.035913985 -0.005827535 -0.06001231 0.06003101 0.097961664 0.07742344 -0.08889554
0.03679448 -0.0632005 0.06555362 -0.008971747 -0.08323666 -0.09739463 0.043196455 0.016815826
0.05949518 -0.0010205464 -0.0833628 0.030229596 0.055192187 -0.01386496 -0.08515465 -0.011770885
0.08511115 -0.03772237 0.0021556122 -0.005316434 -0.073761396 0.06681318 0.0776443 -0.022388738
-0.0887107 -0.054105923 0.07240676 -0.0740536 -0.08232469 0.061410412 0.030656192 -0.007127216
0.057605535 -0.08754428 0.022977663 -0.094219826 0.018994018 -0.0007471444 0.053561576 -0.0035240338
-0.0016390223 -0.014910487 -0.005677384 0.059807055 -0.012535729 -0.03414373 0.09349398 0.037236173
0.08816096 -0.083245076 0.026412021 0.0045781992 -0.035101276 0.061707966 0.07438444 0.045023657
0.07959086 -0.09290613 -0.0502265 0.06119077 0.030568358 0.0029627546 0.044143677 -0.08859475
0.014970493 0.085548334 -0.04219798 -0.08713321 -0.031191807 0.062907815 0.044841986 -0.038132
0.068887144 -0.027473161 0.06906212 0.058723554 -0.020810962 -0.057502396 0.017285168 0.07814501
0.03752698 0.05036428 0.024950515 -0.076197974 -0.063586354 -0.0456244 -0.097900994 -0.07150805
-0.035768438 -0.023072109 0.030496422 0.04914236 -0.009340569 -0.043883793 -0.09203157 0.06783991
-0.030069428 0.023214282 0.07608541 -0.021160595 0.0052514817 -0.0741115 -0.06558891 -0.09164997
0.019608159 0.027493248 -0.012419349 -0.053658843 0.028654043 -0.017547486 -0.07223233 -0.067182235
0.090808295 -0.079038195 0.052449208 -0.019267164 0.08561811 -0.04722271 -0.06781405 -0.015104639
-0.09297684 0.033996526 -0.025739932 -0.08343332 -0.07373748 0.092846975 0.09195646 -0.09443852
0.08488233 0.042751525 -0.04173838 -0.014102965 -0.03686121 0.013803311 0.036125008 -0.078663014
-0.029179761 -0.019369388 0.047873788 -0.08120705 0.058858156 0.057048332 0.02149426 -0.0958945
-0.04724239 -0.0269642 0.058532 0.054413542 -0.025973776 -0.008147826 -0.055170693 -0.02949449
0.088857554 -0.08451862 -0.07399841 0.087125175 -0.094143055 -0.025746902 -0.041672505 0.015778296
-0.07914954 0.011669087 -0.03013758 0.0106631685 -0.07986411 0.08909816 -0.041316435 -0.074420206

fc_out1.weight f4 [50, 100]
00000000: 5889 2d3d 77f7 4bbd 06ba b53d cd5d c9bd
00000010: aff8 983c c084 8c3d 1158 cf3b 99b4 46bd
00000020: 6cbb 7dbd fb40 bebd 804a 42bc f039 bf3d
00000030: 8b91 823d ad14 f5bc 30fe 8d3d 2b0b 07bd
00000040: 3adb 5b3d a098 eebb a575 553d a1a1 863d
00000050: db46 22bd 85e6 91bb db46 a13d cba2 5abc
00000060: bd2a d4bb 0782 91bd 6613 993d 1395 3abd
00000070: 5feb 93bc 0f5e 74bd 6e20 203d 36a2 bd3c
00000080: 3037 113d dde8 083d 61a0 8a3d 6acd 523d
00000090: 1eeb 983d 5c48 53bd 0751 a63d 2490 333d
000000a0: d943 9e3c 30b1 013d 66eb 5139 da16 b0bd
000000b0: 5c1d a7bc 6bc3 313d dc5d c0bc ae68 9abd
000000c0: 78d0 b03c ea9e 17bd 3a7f 3d3d e303 c3bd
000000d0: 9acf b43d 66f1 30bc 00e2 72bd 32f1 773d
000000e0: 1f65 07bd 4fed 8d3d 4a05 bb3d 225a debb
000000f0: 216b 593d 069a 88bc ecce 1dbd 4410 97bd
00000100: 93be a53c 7a9a 21bc 205b 2dbd a40b 96bd
00000110: f3bf 02bd d018 4cbc c6ff 7a3d e1c7 7d3c
00000120: 2e48 5fbc fd9b cbbd 7fd5 aa3d 5e4e 36bd
00000130: ff1d a8bc 4675 693c 68fe 0b3d 7755 4dbd
00000140: a822 b13d df5b bfbd d576 ad3d f19b e9bb
00000150: cf23 113d cfa7 92bb a410 00bc f2e7 c53d
00000160: 0306 92bd ba34 1f3d 1a95 533d ced2 533d
00000170: fc12 b8bc 5080 af3d 529f 9bbd e972 b23c
00000180: aa83 53bb 1ffe 9a3c 12b4 463d bf66 0cbc
00000190: fe91 3b3c aa65 c2bd 1627 b0bd 677c a13d
000001a0: 4631 32bc 1c53 433d bf7d bc3d 18cc ec3c
000001b0: 527f d4bb f7ba 513d c4d9 e7bc a286 d3bc
000001c0: 3498 bc3d 8e08 493d 781d a2bd 33a4 543c
000001d0: df17 17bd af86 9fbd 3178 32bd 41f6 68bd
000001e0: 041f 7c3d 27f0 9ebd 6bf8 2d3c 6d6c 0f3d
000001f0: 0826 82bd 10c5 433d f72a 483d 61fd 5b3d
00000200: 2a08 be3c cb5b 503d bb38 1f3d dce6 09bc
00000210: 3cc6 22bd 4169 72bd 63f0 96bd d655 92bd
00000220: 0f0f 0c3d 430a 9f3d 6c7a e23c d381 10bd
00000230: 0595 c2bb 0e06 b2bd eb71 7fbd 55f3 46bc
00000240: e150 be3d 3a35 9fbd 3b21 353d 90b4 c1bd
00000250: 065d 9dbd 3c47 fa3a 7d79 e43c cee2 cfbc
00000260: e314 813d 44f7 603d b78f 8c3c 1f48 553d
00000270: fdbc 233d 30fc 083d 36ce 1dbd 8cec b53c
00000280: 7597 333c 254a 18bd 1f26 73bc 1825 3cbd
00000290: 8bfe 753d a118 c7bd 4499 4e3d 3dbd 8cbd
000002a0: fec9 bdbd 5a50 c1bd 927f 273d 735c 2c3d
000002b0: c12b a83d 26ac a13d a3be b53d 50cf a53d
000002c0: eb1d c1bc c8cd 67bd aa86 94bd dd0f 9e3b
000002d0: ddba 773d 4c8a bc3d 67da 033d fa59 b6bd
000002e0: 1305 ebbc 3f74 52bd b9dd b6bd 1f7f b73d
000002f0: f05e 213b 0010 94bc 2364 acbb b4a2 e0bc
00000300: 0afe a3bd f018 28bd b41c b0bb 0773 ff3c
00000310: 0f38 933c 981a 2c3c 7036 18bd 57e3 833d
00000320: 7add a4bc 33bb a73a 1fb2 ac3d a0fa 783d
00000330: ba81 5cbd 1d14 90bd 9ac2 7e3d 9a32 cbbd
00000340: 1d94 94bd 5a80 75bc 60aa dbbc f7ea 5dbd
00000350: b7ac 163d cd40 ee3c cbc1 9f3d 1a8a 333d
00000360: 339c 653d 2717 933c fdf5 5cbd 0069 b9bb
00000370: 5310 cb3c 6707 513b fd7f 463d 4a61 3ebd
00000380: 1a7a aa3d 9f75 a33d a073 e6bc 709f aa3d
00000390: 2715 2bbc c7de 65bd ea53 1abd 3a0f bd3d
000003a0: fde1 5b3d 0b48 9cbd 201f 8e3d 5af3 1f3c
000003b0: 9a39 39bc 4316 c93d dd6c 813d 7aab 94bc
000003c0: 08df 803d da95 743c 7524 88bd cd78 dabb
000003d0: 3f1e 83bd 673c ad3a 5ac0 393c 03d8 03bd
000003e0: e716 cdbc 351d 97bd ad0f 8abd e714 25bc
000003f0: 6bf7 963d 8a71 6bbd c72c 383d 1ff7 bf3d
0.04236731 -0.049796548 0.08873372 -0.09832344 0.01867327 0.068612576 0.006327637 -0.048512075
-0.061946318 -0.09289738 -0.0118585825 0.093372226 0.06375416 -0.029917086 0.06933248 -0.032969635
0.053675868 -0.007281378 0.052114148 0.06573797 -0.039618354 -0.004452529 0.07874843 -0.013344477
-0.0064748214 -0.07104879 0.07474403 -0.045552325 -0.01805657 -0.059660014 0.039093427 0.023148637
0.03545302 0.0334252 0.06768871 0.05146543 0.0746672 -0.05158268 0.081209235 0.043838635
0.019319462 0.03166312 0.00020019486 -0.085981086 -0.020399742 0.043399256 -0.023482256 -0.07539497
0.02158378 -0.037016787 0.04626391 -0.09522226 0.08828659 -0.010799741 -0.05929756 0.060532756
-0.03305542 0.06930029 0.09131868 -0.006785647 0.05308068 -0.016675007 -0.038527414 -0.07376149
0.020232474 -0.00986349 -0.04232323 -0.07326439 -0.03192134 -0.012457088 0.06127908 0.015489549
-0.013628049 -0.09941862 0.083415024 -0.04450833 -0.020522116 0.014249152 0.034178168 -0.050130334
0.08649188 -0.09343695 0.08469931 -0.0071291854 0.03543454 -0.0044755707 -0.007816467 0.09663381
-0.07130053 0.038868643 0.051655866 0.05171471 -0.02246999 0.085693955 -0.07598747 0.021783309
-0.0032274523 0.018920003 0.048511572 -0.008569418 0.0114483815 -0.09492047 -0.08601205 0.07885056
-0.0108760055 0.04768668 0.09203672 0.028905913 -0.0064849043 0.051203694 -0.02830208 -0.025821034
0.09208718 0.049080424 -0.07915777 0.012978601 -0.036888 -0.07789361 -0.043571655 -0.05687547
0.061553016 -0.07760649 0.0106183095 0.035015512 -0.0635491 0.047795355 0.0488691 0.053708438
0.023197252 0.05086879 0.03887246 -0.008416858 -0.039739832 -0.05918241 -0.07370069 -0.07145278
0.03419405 0.07765629 0.027646266 -0.03528006 -0.0059381747 -0.08692561 -0.0623645 -0.012142976
0.0929277 -0.07773824 0.044221144 -0.09458268 -0.076837584 0.0019094716 0.027889961 -0.025376704
0.06302812 0.05492331 0.017158372 0.052070733 0.039975155 0.03344363 -0.038526736 0.02220752
0.010961403 -0.037180085 -0.014840632 -0.045933813 0.060057204 -0.097214945 0.050439134 -0.06872032
-0.092670426 -0.09439154 0.040893145 0.042080354 0.082114704 0.07894163 0.08874252 0.08096182
-0.023573836 -0.056592733 -0.07252248 0.0048236684 0.06048094 0.092060655 0.032190707 -0.089038804
-0.028688943 -0.051380392 -0.08929009 0.08959793 0.0024623238 -0.018074036 -0.0052609607 -0.027421333
-0.080074385 -0.041039407 -0.0053745154 0.031182779 0.017971067 0.010504387 -0.03716129 0.06439846
-0.02012514 0.0012796879 0.084324114 0.06078589 -0.053834654 -0.07035086 0.062197305 -0.09921761
-0.07254813 -0.014984215 -0.02681464 -0.054179158 0.036785807 0.029083634 0.07800635 0.043832876
0.056057166 0.017955376 -0.05394553 -0.005658269 0.024788057 0.0031895281 0.048461903 -0.0464795
0.0832407 0.07981419 -0.028131306 0.083311915 -0.010442055 -0.05612066 -0.037677683 0.0923142
0.053682316 -0.076309286 0.069395304 0.009762609 -0.011305237 0.09818699 0.06319592 -0.018148173
0.0629254 0.0149283055 -0.066475786 -0.0066672326 -0.06402253 0.0013216854 0.011337364 -0.032188427
-0.025035335 -0.07378618 -0.06741271 -0.010075784 0.0737141 -0.057481326 0.044964578 0.093733065

fc_out1.bias f4 [50]
00000000: 11d8 363d e457 893d 35de c7bd 2250 9cbd
00000010: 7839 bfbd f3bc 0fbd c2b7 ae3d d848 59bd
00000020: 6674 983c 565c 103d 842d 03bd 9aa6 b7bd
00000030: e5e2 46bb 95fe a8bd 0d17 87bd 5074 203b
00000040: 8c74 52bd 19e5 fcbc 0718 67bd 62af c73d
00000050: ad3f 113c da0f 26bd 43d4 633d 4203 aabd
00000060: caa4 9dbd 64d1 bfbd 6794 abbd a715 063d
00000070: 794c ac3c 41ea 5c3d 1389 ab3d 0895 6b3d
00000080: d1c7 e53c 0349 b0bd d522 94bd a2d2 963d
00000090: 88f4 80bd 04be 973b 3b65 783d b5c4 c03d
000000a0: e348 a83d 10d0 c5bc 20eb c2bd e07f 75bc
000000b0: 0cc7 cc3c 8a02 2abd a392 8c3d 7341 cc3c
000000c0: a6e7 a83d 7acd 8e3c
0.04463965 0.06706217 -0.097591795 -0.076324716 -0.09337133 -0.035092305 0.08531143 -0.053047985
0.01861019 0.03524431 -0.03202583 -0.089673236 -0.0030347642 -0.08251683 -0.065961935 0.002448339
-0.05138068 -0.030870961 -0.0564194 0.097502485 0.008865279 -0.04054246 0.05562235 -0.08301403
-0.07697447 -0.0936611 -0.08377915 0.032735493 0.021032559 0.05393434 0.08375754 0.057515174
0.028049381 -0.08607676 -0.07233206 0.07364394 -0.06296641 0.004630806 0.060643416 0.09412519
0.08217027 -0.024147063 -0.09517503 -0.014984101 0.024997257 -0.041506328 0.06863906 0.024933552
0.082473084 0.017431963

fc_out.weight f4 [2, 50]
00000000: cc83 9c3d 39a2 213d 41dd a33d f204 be3d
00000010: 201e 5fbd 66eb 153d c736 bbbd 2af6 e03d
00000020: 3f91 67bc debc 09bc 102e ee3d 0ea7 70bd
00000030: 6e0a ef3d daeb d43d de1f a03d 7c9b d6bd
00000040: 1e2b 8d3d 93c2 a83b d8d8 0a3e c1ac 803c
00000050: 0b98 613c 150c 8cbd cc9b b33c e5fb e83d
00000060: d9af e3bd adff fdbd f96c 213d 9dae dc3d
00000070: d35a 3dbc 715b e33d 7c46 403d b175 b6bd
00000080: 778f 4abd b54a a1bd 8b32 89bd aab1 a3bd
00000090: e107 e93c f80b 463b c3c5 8dbd 4536 133d
000000a0: f221 783d c332 0a3e 196b 243c b10f 193d
000000b0: e1d4 6cbd af3b 733d dd1b 883d 3801 723b
000000c0: 6aff ca3d fc2f 53bb 8287 c6bd 4b24 463d
000000d0: 2144 e53b d12d 89bd 7dbe e1bd 0789 d0bd
000000e0: ea8c 60bd abe0 f43d 6338 ef3d dac7 b83c
000000f0: 91be 84bd c98d c73d 7637 5d3d f564 9abd
00000100: 1ad6 8dbd eb6d d7ba 2d54 cdbd ea4d 503a
00000110: 4e16 123e 29df e53c 4b0b a73c ba4f 0dbe
00000120: a624 c63d 2660 1abd 57e4 023e 6a2f e8bd
00000130: f4fe ac3d d709 af3b 3839 04bd 9b1f 843d
00000140: ccec 09bc 4150 033e 7e56 4c3c a109 d53c
00000150: b753 153d ba80 cbbd bfb2 523d 7d98 dabd
00000160: 41d7 073e e7b6 1ebd cd6b 963d 14d6 843d
00000170: ce78 b43c 23b8 e0bc fa38 9ebc dda9 46bd
00000180: c74f 35bd 3824 563d 3b21 98bd 198d ea3d
0.07642326 0.03946135 0.08001185 0.09278287 -0.05447209 0.036601447 -0.09141307 0.10984452
-0.01413375 -0.008406846 0.116298795 -0.058753066 0.11671911 0.103965476 0.07818578 -0.10478875
0.068929896 0.005150148 0.13559282 0.015707375 0.01376916 -0.06838242 0.021924876 0.1137617
-0.11117525 -0.12402282 0.039410565 0.10775492 -0.011557299 0.111014254 0.04694222 -0.089091666
-0.049453225 -0.07875577 -0.066990934 -0.07992871 0.02844614 0.0030219536 -0.06922486 0.035940427
0.060579248 0.13495927 0.0100353 0.03736848 -0.057820205 0.05938309 0.066459395 0.0036926996
0.099119976 -0.0032224646 -0.09693815 0.048374455 0.006996647 -0.06698192 -0.11022661 -0.10182386
-0.054821886 0.119569145 0.11680677 0.022556234 -0.0648166 0.0974384 0.05400797 -0.07538787
-0.06925602 -0.0016435956 -0.10025821 0.00079461804 0.14266321 0.028060513 0.020391127 -0.13799945
0.09674959 -0.03768935 0.12782417 -0.113371685 0.08447066 0.005341749 -0.03228113 0.06451341
-0.008418273 0.12823583 0.012471793 0.026005568 0.03645679 -0.09936662 0.051439997 -0.10673616
0.13265707 -0.038748648 0.0734478 0.06486145 0.02203026 -0.027431553 -0.019314278 -0.048501838
-0.044265535 0.052280635 -0.07428213 0.114526935

fc_out.bias f4 [2]
00000000: 467a 013d fc0d 8cbd
0.03161075 -0.06838605

exp_avg f4 [300, 2]
00000000: 4683 9cb8 906b bdb8 eaea 90b8 4b6d efb8
00000010: 196b 71b8 8e5b 85b8 2eb8 c438 68b3 2a39
00000020: ac6c 2137 b32b e737 3de9 6836 3155 4436
00000030: af1b 5237 0bce 70b5 5b8f 56b8 5465 a0b8
00000040: 18a7 37b9 9ede 2bb9 6aae 92b7 bc73 6937
00000050: e209 2738 0f17 4c38 4fd2 fe38 b943 ea38
00000060: 3cc4 f636 f6d6 7637 0887 9cb9 113c c3b9
00000070: 5f87 92b7 52fe 8eb7 64f7 7237 b672 8337
00000080: 6e18 0c34 07d4 c735 6184 2637 9c86 46b7
00000090: 510d 1bb6 fc7b 3f38 f2df ddb4 683a 14b6
000000a0: a2a3 9336 ff29 e137 e557 de36 8535 f737
000000b0: 989d 0236 5091 0437 2b5f 6237 546d 8237
000000c0: 89dd e536 c020 3b36 ab0c 58b6 0c96 cab6
000000d0: 36b6 1c38 b893 5938 27d3 08b9 3ad3 1cb9
000000e0: 9560 0d38 cd79 c537 2247 23b7 2b4e 09b8
000000f0: ff3a bb35 71c6 0336 569c 4538 23d4 7d38
00000100: ba10 0239 f8ac 2839 a7c7 8f37 fa07 93b8
00000110: 28b4 c1b7 d7c8 7736 7b71 ad36 08d9 6337
00000120: c8a6 b237 5da2 d937 be0d ad35 4725 32b8
00000130: 0ff3 dcb7 ae26 78b8 08d3 d7b8 b7b6 0fb9
00000140: 3256 29b9 2453 58b9 024b 8238 6103 8d38
00000150: 1289 09b9 9de7 38b9 c088 fcb5 7c3d 5eb7
00000160: 53d9 4eb8 2291 ca37 30bb 0637 cd5d 9237
00000170: 85c1 14b7 f57b 48b7 c609 43b7 9298 33b7
00000180: a7a2 3a38 1010 8838 57d2 4ab7 9ab1 adb7
00000190: 8669 9f36 8892 e436 a6cb 6836 e69d 9636
000001a0: d9a0 b1b8 fe66 28b9 73ad fd37 e657 80b8
000001b0: 26bc 9e37 9e28 0437 4b93 4339 6f1a 4439
000001c0: 86f1 9037 6828 8137 6411 adb5 9780 9736
000001d0: f210 33b8 9533 73b8 06f2 8936 f206 dc36
000001e0: 1649 59b8 9991 99b8 652c 4e36 cbe3 8e33
000001f0: 753a a936 35ca a136 ccb7 4cb8 e0de 73b8
00000200: be79 f0b8 38fc 13b9 d859 ee32 84fb a3b7
00000210: a166 27b8 c9b7 82b8 8ad7 61b7 bbd6 91b7
00000220: 410c dcb7 a3e7 24b8 4f3a 8437 878c b6b3
00000230: 2632 9a38 a958 af38 9bf2 56b7 7e69 80b7
00000240: 972f 7938 630b 0439 3909 ccb8 3530 32b9
00000250: d36f 3338 5357 8438 1b26 2b38 ee91 04b8
00000260: 3451 2538 6f34 3338 8325 8c38 5e7e ce38
00000270: a94a 8a37 2217 af37 64fc 5fb7 c12e 58b5
00000280: 60e3 f9b7 0bb3 75b8 3d16 d236 43df 81b7
00000290: ad48 3637 d7a1 1337 6e29 5735 0120 9735
000002a0: 3395 0336 4153 aeb6 b5f1 c4b5 4890 a136
000002b0: 800b d9b7 2070 d1b7 2050 0cb8 8918 78b8
000002c0: b2ce bbb7 9b28 c7b7 5198 acb6 c51e 94b6
000002d0: ad2b a635 09ee 8cb6 80c1 8437 9319 1db8
000002e0: d68d 5938 0f90 0f39 7354 07b6 c23d 7d38
000002f0: 0ea0 6fb6 5bb6 6eb7 3788 04b8 ac85 2cb8
00000300: 07dc a837 4db0 abb8 89ba 1737 099c 0038
00000310: 2998 2cb9 f078 50b9 8179 7935 5f52 d736
00000320: 2395 e534 b021 c134 05a3 8b36 a903 ba36
00000330: 79e7 9636 4d4d 9036 9a92 29b7 db14 79b7
00000340: 659c 5db6 040c aeb6 eb4e 7834 3d3a 68b5
00000350: bb7a 8935 b6ec 8235 0a7c 9936 fe2f d336
00000360: 404e fc36 9728 0a37 0e28 9eb6 8140 46b7
00000370: 79ed 94b5 fcfc ceb5 e9f1 1fb3 6127 17b3
00000380: e015 6c36 c5ca 6336 01bd 4737 d83b 4e37
00000390: 4948 93b5 0afa 78b5 42d7 1136 1421 3c36
000003a0: 54fe e333 a80b a4b5 378e a634 e4e2 d235
000003b0: 87bb c5b5 1804 a9b6 d4bf 9936 36d8 a236
000003c0: 8f0f 6034 0c8a 1db5 3599 7cb6 a731 0cb7
000003d0: 845f e735 fa90 2736 564f a8b4 48c5 8db5
000003e0: 72bf 2bb5 f452 a2b4 0320 00b5 3214 65b4
000003f0: a836 0036 fe32 d236 ecf3 6cb6 737d 88b6
-7.463111e-05 -9.0322574e-05 -6.910211e-05 -0.000114167655 -5.755862e-05 -6.3589876e-05 9.3803144e-05 0.00016279297
9.62165e-06 2.7557695e-05 3.4706457e-06 2.9255864e-06 1.2523421e-05 -8.97068e-07 -5.1155086e-05 -7.6482684e-05
-0.00017514487 -0.00016390762 -1.7485774e-05 1.3914829e-05 3.9825107e-05 4.8658865e-05 0.00012150837 0.00011170604
7.354216e-06 1.4712792e-05 -0.00029855245 -0.0003723805 -1.7467593e-05 -1.7046146e-05 1.4481924e-05 1.5669833e-05
1.3047404e-07 1.4888363e-06 9.925193e-06 -1.1833061e-05 -2.310455e-06 4.5653418e-05 -4.13274e-07 -2.2087715e-06
4.3999908e-06 2.6841646e-05 6.626348e-06 2.9469616e-05 1.9463241e-06 7.901646e-06 1.3492808e-05 1.5548118e-05
6.850522e-06 2.7884234e-06 -3.2193882e-06 -6.037537e-06 3.7362995e-05 5.1874405e-05 -0.00013048631 -0.00014956007
3.370697e-05 2.3540948e-05 -9.732119e-06 -3.2736145e-05 1.3949756e-06 1.963603e-06 4.711406e-05 6.051747e-05
0.00012403997 0.00016086164 1.7139899e-05 -7.010992e-05 -2.3091285e-05 3.6922772e-06 5.1690126e-06 1.3580786e-05
2.1296917e-05 2.5944022e-05 1.2893504e-06 -4.2473224e-05 -2.6339227e-05 -5.916383e-05 -0.000102913065 -0.0001370561
-0.00016149206 -0.00020630338 6.212854e-05 6.724033e-05 -0.00013116401 -0.0001763389 -1.8815263e-06 -1.3246547e-05
-4.9316626e-05 2.414786e-05 8.030605e-06 1.7448236e-05 -8.866545e-06 -1.194979e-05 -1.1625181e-05 -1.07047545e-05
4.4497338e-05 6.487977e-05 -1.2089112e-05 -2.070591e-05 4.750854e-06 6.811988e-06 3.4689233e-06 4.48873e-06
-8.469978e-05 -0.00016060096 3.0240719e-05 -6.119888e-05 1.8922681e-05 7.87727e-06 0.0001865152 0.00018701864
1.7278606e-05 1.5396814e-05 -1.2894566e-06 4.5151205e-06 -4.2692707e-05 -5.7983754e-05 4.1110934e-06 6.5573195e-06
-5.18049e-05 -7.322728e-05 3.0722233e-06 6.6538256e-08 5.043398e-06 4.821714e-06 -4.8808564e-05 -5.8143283e-05
-0.00011466768 -0.00014112971 2.7747703e-08 -1.9548235e-05 -3.9911483e-05 -6.233116e-05 -1.3461229e-05 -1.7385339e-05
-2.623175e-05 -3.9316375e-05 1.5762778e-05 -8.500597e-08 7.352633e-05 8.3611645e-05 -1.281188e-05 -1.5307913e-05
5.9410548e-05 0.00012592743 -9.729196e-05 -0.00016993361 4.278107e-05 6.310516e-05 4.0805066e-05 -3.160716e-05
3.9414692e-05 4.272576e-05 6.682707e-05 9.846383e-05 1.6485648e-05 2.0872398e-05 -1.33506e-05 -8.0534306e-07
-2.9788993e-05 -5.85793e-05 6.2610766e-06 -1.5481963e-05 1.08649665e-05 8.799564e-06 8.015403e-07 1.1259691e-06
1.9607367e-06 -5.195296e-06 -1.4673484e-06 4.8149705e-06 -2.5873771e-05 -2.4966954e-05 -3.3453223e-05 -5.9150658e-05
-2.2388387e-05 -2.3741557e-05 -5.1437314e-06 -4.4143258e-06 1.2380675e-06 -4.200036e-06 1.5825732e-05 -3.7455535e-05
5.1868927e-05 0.00013691209 -2.0165724e-06 6.0377417e-05 -3.570694e-06 -1.4228363e-05 -3.1598112e-05 -4.1132487e-05
2.0129619e-05 -8.186754e-05 9.0437325e-06 3.0662897e-05 -0.00016459882 -0.00019881479 9.293654e-07 6.4170886e-06
4.2763085e-07 3.5973562e-07 4.161501e-06 5.543658e-06 4.4972953e-06 4.3005334e-06 -1.0107318e-05 -1.4846412e-05
-3.30226e-06 -5.187003e-06 2.312551e-07 -8.651148e-07 1.0243015e-06 9.754647e-07 4.5741954e-06 6.293877e-06
7.5192947e-06 8.2348915e-06 -4.71343e-06 -1.1816738e-05 -1.1095973e-06 -1.5421824e-06 -3.724009e-08 -3.5193242e-08
3.5179473e-06 3.3943663e-06 1.190533e-05 1.229249e-05 -1.0973391e-06 -9.2751054e-07 2.173198e-06 2.8033437e-06
1.0616773e-07 -1.2222345e-06 3.1023384e-07 1.5712253e-06 -1.4732221e-06 -5.037069e-06 4.582087e-06 4.8531465e-06
2.0867286e-07 -5.868794e-07 -3.7640104e-06 -8.356211e-06 1.723864e-06 2.4969327e-06 -3.1350163e-07 -1.0562735e-06
-6.3981054e-07 -3.0235208e-07 -4.77303e-07 -2.1334634e-07 1.91053e-06 6.264424e-06 -3.5308722e-06 -4.06772e-06

exp_avg_sq f4 [300, 2]
00000000: cb21 9e2f 9d6a e42f 34e2 8b2f 8112 0030
00000010: 19dd 132f 4eb0 402f 5229 fe2f 4284 8230
00000020: e68f b12c 49f6 9f2d 8066 b12b a206 c72b
00000030: 9e55 482d 0c7b 832d 0bfd 102f 2ed6 822f
00000040: 6cd9 bf30 bd19 d330 6e9d b52d ec47 812e
00000050: ed0f bd2e 9bc6 f12e 51f8 1d30 3bbb 3930
00000060: 438f 402c b794 122d a804 8431 bc78 b431
00000070: 500e 9a2d 8072 a32d 1432 732d 6f23 492d
00000080: 2031 6b29 608c 1b2a bf35 722c 2086 fc2c
00000090: 4034 722b 3c33 b32e a276 0829 ac86 792a
000000a0: f412 2b2b 6e9e b32d 3fa0 9c2c e7a1 2d2e
000000b0: a324 8d2c 85d0 632d fe4b f92d 70d0 f52d
000000c0: df5e 122d a354 e62c 08e5 132c 1d0a 372c
000000d0: 9b97 8f2e 01a7 e12e c6a4 5730 6898 8a30
000000e0: 4e3b 432e 8401 952e 9e2f 892c 82e1 0a2e
000000f0: 41b6 9e2b 298f 002c a277 ea2e 4d64 3c2f
00000100: 71f5 3630 f541 8230 587b 1f2d ce72 112f
00000110: 1e4d 292e 5315 432e c225 f62b 7b6f bb2c
00000120: 0bd8 332e def3 5e2e c23a 512c cc95 562e
00000130: e202 d22d cb1a d72e 1cd6 3230 a7a8 8230
00000140: f44b af30 7207 fc30 0900 3d2f deb1 552f
00000150: b87f 5630 c3a1 a830 bb39 da2a 1b51 892c
00000160: eb17 432f a031 572f 6b24 382c 1399 6c2d
00000170: ddbb 232d 8afe 6b2d 2ac7 b22d 32d0 b72d
00000180: ceeb 122f 17bf 572f 19e2 372d 6771 c92d
00000190: 8593 202c 57b9 872c 74c0 002b d7c9 2c2b
000001a0: 82c9 eb2f c14f 7e30 6cc3 d92d 58b6 152f
000001b0: 364b 6a2d 2c20 be2d 724b e830 9fb0 0031
000001c0: 7d0d 072d 355d 292d 13a1 bb2b fb16 242c
000001d0: e916 cc2e c79f 142f 8c99 f52b a2bf 502c
000001e0: 6de6 232f 1a5e 792f d42d 7e2b 8033 d82b
000001f0: fb89 642b 61e6 5c2b 2d12 fd2e bcd3 292f
00000200: 8eb8 3130 7c5f 7e30 df30 6d29 735c 4a2d
00000210: 9559 b62e da6d 282f 5460 4e2d 64de aa2d
00000220: 65db 3d2e 8c82 932e 12cc 352d a9dc de2d
00000230: ea46 ac2f 9edf bd2f 02c6 7e2d c045 ac2d
00000240: b9ce 602f 5789 0730 ba1a 0730 a718 8b30
00000250: 9126 dc2e 2d8c 282f c302 872e db60 0b2f
00000260: ab30 9c2e 194c b72e 6566 802f 3e4a c22f
00000270: d6d0 5e2d f6fc a02d 03d4 cb2c 93c9 fb2b
00000280: ff84 7b2e b758 0a2f 53b5 822b 0e23 292d
00000290: ccdd 052d e637 1f2d 6df5 c72a 8675 c12b
000002a0: 7791 3f2a 19c1 812b 2ab4 832b 8c9a 6e2c
000002b0: de28 702e 517a 952e 7553 372e c3a7 d62e
000002c0: c5a7 342e 8c6f 892e 3b13 042d 521f 762d
000002d0: 5f87 f82a b161 4c2c a49f cd2c cb05 2c2e
000002e0: 3fcd ef2e 2b41 0e30 0252 192d 8f5d e92e
000002f0: da1c f52b d5aa bc2c 5dd4 232e a83f 952e
00000300: 6743 302d e300 6c2f dae8 082c 6537 ba2d
00000310: 18f7 ac30 3309 e230 7841 012b d6d7 ec2b
00000320: 2231 7028 bbd1 c628 9c2f 5d2b 6185 c42b
00000330: eb32 5f2b 77c2 862b f475 bd2c 8d69 222d
00000340: c877 122b 7dfe 8d2b fce4 ad27 8899 3029
00000350: ea8c 5b29 4bed af29 8527 a52b 6cef f12b
00000360: 18e6 362c 42a7 6f2c 2c40 a32b 97fd 812c
00000370: 4f46 a929 b52f de29 9ff1 5127 dc3c 9a27
00000380: 72ea 1d2b ed33 3c2b efc3 b72c 0203 c32c
00000390: e3f8 a329 ba70 8d29 ec19 812a c152 da2a
000003a0: 4ae9 b426 1c10 3f29 2d6c c228 dca9 9a29
000003b0: 680b 142a 8f1c 572b bfa4 9a2b 8264 c32b
000003c0: cb26 ca27 2de6 d528 91f2 042b 64d1 032c
000003d0: dbb1 472a c10b ac2a 9632 0529 8fb3 3c29
000003e0: f528 bc28 a4cc 0d29 01d7 1328 732d 8c28
000003f0: 189a 362a 4b14 762b 529d 252b 917f 6a2b
2.8764044e-10 4.1548712e-10 2.544468e-10 4.6592424e-10 1.3448122e-10 1.7524934e-10 4.623169e-10 9.496335e-10
5.0466185e-12 1.818558e-11 1.2605056e-12 1.4141641e-12 1.1387695e-11 1.494762e-11 1.3186623e-10 2.3799046e-10
1.3958874e-09 1.5359586e-09 2.064723e-11 5.879017e-11 8.597554e-11 1.09946906e-10 5.7469146e-10 6.756868e-10
2.7364367e-12 8.3321605e-12 3.842235e-09 5.2524154e-09 1.7514129e-11 1.8581803e-11 1.382407e-11 1.1433395e-11
5.222309e-14 1.3815468e-13 3.4420103e-12 7.1771616e-12 8.604818e-13 8.1490786e-11 3.0300964e-14 2.2162366e-13
6.0777707e-13 2.04203e-11 4.4515776e-12 3.9479444e-11 4.0115285e-12 1.2949757e-11 2.834177e-11 2.794584e-11
8.320205e-12 6.5463897e-12 2.1017094e-12 2.6011478e-12 6.529818e-11 1.0261481e-10 7.84507e-10 1.0084138e-09
4.439054e-11 6.776005e-11 3.8990608e-12 3.157786e-11 1.1277161e-12 1.8269364e-12 1.0662339e-10 1.7134134e-10
6.656001e-10 9.477491e-10 9.065491e-12 1.322846e-10 3.8494645e-11 4.4356806e-11 1.7489831e-12 5.3272365e-12
4.0891773e-11 5.0693554e-11 2.9733303e-12 4.8791013e-11 2.3875516e-11 9.7818274e-11 6.506029e-10 9.506679e-10
1.2754513e-09 1.8337529e-09 1.7189462e-10 1.9435428e-10 7.8034246e-10 1.2269584e-09 3.8764638e-13 3.9027787e-12
1.7743644e-10 1.9571766e-10 2.6168189e-12 1.3449036e-11 9.307191e-12 1.34147225e-11 2.0324704e-11 2.0897149e-11
1.3362397e-10 1.9622025e-10 1.0452549e-11 2.2901415e-11 2.2819257e-12 3.8575076e-12 4.574182e-13 6.1386784e-13
4.288943e-10 9.2518e-10 2.4756829e-11 1.3616253e-10 1.331806e-11 2.1614786e-11 1.6901665e-09 1.872685e-09
7.6768565e-12 9.627234e-12 1.3331856e-12 2.3318558e-12 9.2809156e-11 1.3517286e-10 1.7450915e-12 2.9664955e-12
1.4906627e-10 2.267985e-10 9.0302527e-13 1.5362017e-12 8.119336e-13 7.8479416e-13 1.15083366e-10 1.5445684e-10
6.4654493e-10 9.2540353e-10 5.266696e-14 1.15028985e-11 8.292315e-11 1.5318538e-10 1.1731133e-11 1.9425524e-11
4.3168486e-11 6.707976e-11 1.03339715e-11 2.533647e-11 3.1337005e-10 3.453779e-10 1.4482195e-11 1.9585111e-11
2.0446124e-10 4.9307886e-10 4.9150695e-10 1.0120588e-09 1.00112925e-10 1.5329311e-10 6.13958e-11 1.2676386e-10
7.102704e-11 8.335394e-11 2.335582e-10 3.5341147e-10 1.266561e-11 1.8302231e-11 5.793145e-12 1.7890571e-12
5.7188917e-11 1.2582545e-10 9.287383e-13 9.6143215e-12 7.6094235e-12 9.0505155e-12 3.55198e-13 1.3746094e-12
1.7014676e-13 9.219597e-13 9.358115e-13 3.3907625e-12 5.460598e-11 6.797463e-11 4.1683507e-11 9.761394e-11
4.107627e-11 6.2498534e-11 7.507601e-12 1.39904355e-11 4.4147582e-13 2.9044373e-12 5.844174e-12 3.9113417e-11
1.0904921e-10 5.175191e-10 8.7152525e-12 1.06122326e-10 1.7416305e-12 5.3622475e-12 3.7250526e-11 6.787043e-11
1.0019408e-11 2.146439e-10 1.945602e-12 2.1170352e-11 1.2584875e-09 1.6446279e-09 4.592086e-13 1.6828715e-12
1.333333e-14 2.2073372e-14 7.8581044e-13 1.3963658e-12 7.929618e-13 9.575247e-13 5.3847985e-12 9.232071e-12
5.203585e-13 1.0089287e-12 4.826541e-15 3.9213018e-14 4.8749992e-14 7.812725e-14 1.1734924e-12 1.7190533e-12
2.5991483e-12 3.405679e-12 1.1599658e-12 3.6945546e-12 7.517304e-14 9.867056e-14 2.913556e-15 4.280957e-15
5.6102963e-13 6.686308e-13 5.222926e-12 5.5425673e-12 7.281829e-14 6.281213e-14 2.293299e-13 3.8782e-13
1.2553242e-15 4.2424492e-14 2.158524e-14 6.86844e-14 1.3148998e-13 7.6422977e-13 1.0988084e-12 1.388348e-12
5.6108322e-15 2.3747573e-14 4.723245e-13 1.8732455e-12 1.7736457e-13 3.0561494e-13 2.957581e-14 4.1900128e-14
2.0889955e-14 3.1485787e-14 8.206761e-15 1.5562833e-14 1.6218309e-13 8.742492e-13 5.88381e-13 8.3310534e-13
