airflow_ais/dags/ML_data_pipeline/lightning_logs/version_2/checkpoints/epoch=50-step=102.ckpt (torch, 448063 bytes, 24 tensors)

rnn.weight_ih_l0 f4 [300, 2]
0	0x3da49c0c	0.08037576
1	0xbde4c0f0	-0.111696124
2	0x3d624865	0.055244822
3	0xbd844871	-0.064591296
4	0xbdb95be5	-0.090507306
5	0x3d7fee23	0.062482964
6	0x3da488b3	0.08033886
7	0x3cc7c355	0.024385134
8	0xbddbbc71	-0.10729302
9	0x3ce8ff32	0.028442
10	0xbd56798d	-0.052362014
11	0x3d793996	0.060845934
12	0x3b4cc691	0.0031246284
13	0x3cf88356	0.030336063
14	0xbd4c14ef	-0.04982465
15	0x3d90286e	0.07038961
16	0xbbcedcee	-0.006312958
17	0xbc1d7ce7	-0.009612299
18	0x3d7c95e2	0.061666377
19	0x3c9887d7	0.018619461
20	0x3dbc4969	0.091936894
21	0x3ca1550b	0.019693872
22	0xbcb17d91	-0.02166632
23	0xbba1398b	-0.0049201897
24	0xbd9ad105	-0.075593986
25	0x3b957853	0.004561463
26	0xbb22790b	-0.0024791386
27	0x3d067c3a	0.032833315
28	0xbcc60c17	-0.024175687
29	0x3cc2886c	0.023746692
30	0x3b83b5f1	0.004019492
31	0x3da86a73	0.082234286
32	0x3d00c4fb	0.031437855
33	0x3d3cf185	0.04612877
34	0xbd5f265c	-0.05447994
35	0x3cc43994	0.023953237
36	0xbd188ee2	-0.03724564
37	0x3d01977e	0.031638615
38	0x3d1ca659	0.03824458
39	0x3d1c552f	0.038167175
40	0xbd91f4c6	-0.07126765
41	0xbd7500d5	-0.059815247
42	0xbd4786db	-0.048712593
43	0x3d9dc85f	0.077042334
44	0xbd12c62b	-0.03583352
45	0x3cbb03dd	0.02282899
46	0xbd8c6618	-0.0685541
47	0xbdd4f6f0	-0.10398662
48	0x3ce80d72	0.028326724
49	0x3d827dd8	0.06371659
50	0x3d02ecf2	0.03196425
51	0xbc88866b	-0.016665658
52	0x3d6252a1	0.055254582
53	0x3ca0272b	0.019549927
54	0xbdc2eba3	-0.095176004
55	0xbba22682	-0.004948438
56	0x3cb6857d	0.022280449
57	0x3cedc196	0.029022973
58	0x3d02a408	0.031894714
59	0x3d4e5b30	0.050379932
60	0x3d7ecc40	0.062206507
61	0x3c263a1d	0.010145691
62	0xbd5a53e6	-0.053302668
63	0x3cce4f77	0.025184376
64	0x3d4a8bc4	0.049449697
65	0xbde4d066	-0.11172561
66	0xbdc237d6	-0.09483306
67	0xbcc0cf7f	-0.023536442
68	0x3b005f57	0.0019588077
69	0xbb4b0ab8	-0.003098173
70	0x3c4489c1	0.011995734
71	0x3cfbdeaf	0.030745832
72	0xbcbb3127	-0.022850586
73	0x3cf2138a	0.029550333
74	0x3d9fd77b	0.078047715
75	0x3d6c43d3	0.05768187
76	0x3b9ebb23	0.004844086
77	0x3cdfebf4	0.02733419
78	0x3d8821b1	0.06647051
79	0xbd1624df	-0.036656257
80	0xbd846434	-0.06464425
81	0xbd267414	-0.040638044
82	0xbdb0155b	-0.08597823
83	0xbd86641d	-0.06562064
84	0x3d32ef48	0.043685228
85	0xbbb1442c	-0.005409738
86	0x3c512fb2	0.012767719
87	0x3d5c98fb	0.05385683
88	0x3c2612f5	0.010136356
89	0xbbe58ded	-0.0070054443
90	0xbddb9818	-0.10722369
91	0xbd80653b	-0.06269308
92	0xbd8e3e79	-0.069455095
93	0xbd91702e	-0.07101475
94	0xbc21758f	-0.009854688
95	0xbd0f57aa	-0.034995712
96	0xbd81fae4	-0.06346682
97	0x3d452de0	0.048139453
98	0xbd8b6086	-0.0680552
99	0xbdb583ad	-0.08863006
100	0xbd847bc1	-0.06468917
101	0xbdd4cd27	-0.10390692
102	0xbbc55dde	-0.0060231527
103	0xbdb98e87	-0.09060388
104	0xbddca258	-0.10773152
105	0xbd7cde4b	-0.061735433
106	0x3c8813c9	0.016610997
107	0x3d4fda6e	0.05074542
108	0xbdcf2173	-0.10113802
109	0x3dab2e2b	0.08358415
110	0xbd42fd7c	-0.047605023
111	0x3d8738b2	0.06602611
112	0xbd84bfcc	-0.06481895
113	0xbd9e79f3	-0.07738104
114	0xbc97bc24	-0.01852233
115	0xbdd0d5a0	-0.10196996
116	0xbdb0da70	-0.08635414
117	0xbd2d561b	-0.042318445
118	0x3d89bbf8	0.06725305
119	0x3db2620f	0.087101094
120	0xbdd8fce2	-0.105951086
121	0xbb33c673	-0.0027431517
122	0x3d22224a	0.03958348
123	0xbdd6e7c8	-0.104934275
124	0x3cf5144a	0.029916901
125	0xbda0c724	-0.07850483
126	0x3d8e7071	0.0695504
127	0x3d015ce8	0.031582743
128	0xbce086c6	-0.027408015
129	0xbcbb3b6a	-0.02285548
130	0x3d8cb6a5	0.06870774
131	0x3d45aede	0.04826247
132	0x3d04dfd4	0.03244002
133	0xbd1e5724	-0.038657323
134	0x3d928cbb	0.071557485
135	0x3d9e7c86	0.07738595
136	0xbde47321	-0.111547716
137	0x3cab6053	0.020919954
138	0x3c84c6fc	0.016208164
139	0xbd1fb4ad	-0.038990665
140	0xbd6c5f1a	-0.057707883
141	0x3c27a134	0.010231305
142	0x3d1c54ad	0.03816669
143	0x3dbe38d2	0.09288181
144	0x3d5beaef	0.053690847
145	0xbcb712b6	-0.02234779
146	0x3cf8d576	0.030375224
147	0xbd06e56a	-0.03293363
148	0xbbc67533	-0.0060564517
149	0x3c8b1495	0.016977588
150	0xbd7bbc96	-0.061459146
151	0xbbb5999b	-0.005541993
152	0xbdd7a0c1	-0.10528708
153	0xbda04d12	-0.078272
154	0x3d683f85	0.056701202
155	0xbd107586	-0.03526833
156	0x3d8f7fa8	0.0700677
157	0xbd36fa8e	-0.04467254
158	0xbd99b0ad	-0.07504401
159	0x3d1d3223	0.038377892
160	0xbcc0cdce	-0.023535635
161	0xbd961907	-0.07328992
162	0x3d5c94f4	0.05385299
163	0xbd24613c	-0.040131792
164	0x3a5acbd1	0.0008346411
165	0xbc185cbc	-0.009299453
166	0xbc9a7cb9	-0.0188583
167	0x3d3206b9	0.043463442
168	0x3d2e2779	0.042518113
169	0x3d1132e9	0.035448942
170	0x3d8dc482	0.069222465
171	0x3c3fb0c3	0.011699858
172	0x3da68c99	0.081322856
173	0xbd448dd2	-0.047986813
174	0xbd9c3289	-0.07626826
175	0x3dbcc06e	0.092163906
176	0x3cc55883	0.024090057
177	0xbde20933	-0.11036911
178	0xbda2582c	-0.07926974
179	0xbd8ddc8a	-0.0692683
180	0x3dc8a158	0.09796399
181	0x3c199937	0.009374908
182	0xbc3d4a9f	-0.011553436
183	0xbd008216	-0.03137406
184	0x3ca56532	0.020189855
185	0x3c97efa9	0.018546896
186	0x3d68f9db	0.056878906
187	0xbd1ac719	-0.03778753
188	0x3c856395	0.016282836
189	0x3d81ec7c	0.06343934
190	0x3dd5cc1c	0.104393214
191	0xbd703e5c	-0.05865322
192	0x3c98cc9b	0.018652251
193	0xbd4c0c8b	-0.04981665
194	0x3d0977b2	0.033561416
195	0xbd6a3da6	-0.0571877
196	0xbcf3cee0	-0.029761732
197	0xbd95f201	-0.07321549
198	0xbd83777f	-0.064192764
199	0x3d0c4751	0.0342477
200	0x3d85a095	0.06524769
201	0x3deb0c22	0.114769235
202	0xbd8e3ad0	-0.06944811
203	0xbd5efd22	-0.054440625
204	0xbd8de5c5	-0.06928591
205	0x3b237056	0.0024938784
206	0xbc3e9ae3	-0.011633608
207	0x3d9d105a	0.076691344
208	0x3ca322fa	0.019914139
209	0x3bdf105e	0.006807371
210	0xbd6aeb55	-0.057353336
211	0xbda197e2	-0.078902975
212	0xbc68445c	-0.014176454
213	0xbc83a691	-0.016070636
214	0xbc67ec19	-0.014155411
215	0xbd9584b4	-0.07300702
216	0x3c5c69c1	0.013452948
217	0xbd9b9717	-0.075971775
218	0x3d4107d0	0.04712659
219	0xbb3cae85	-0.0028790545
220	0xb96848ea	-0.00022152407
221	0x3dc20ce2	0.094751135
222	0xbdca001e	-0.098633036
223	0x3cf79648	0.030223027
224	0x3d81415e	0.06311296
225	0x3d77c24c	0.06048803
226	0xbdb889a5	-0.090106286
227	0x3dc705bb	0.0971789
228	0xbd8aeb5b	-0.06783172
229	0xbd404edb	-0.046950202
230	0x3dbefc5c	0.093254775
231	0x3db72e01	0.089443214
232	0x3d1c0ba1	0.038097028
233	0x3d87ec57	0.06636875
234	0xbd3d6fbe	-0.046249144
235	0xbd85c87a	-0.065323785
236	0xbd137077	-0.035995927
237	0x3d954527	0.072885804
238	0x3de03a25	0.1094859
239	0x3d8a8bd2	0.0676495
240	0x3dd57ea0	0.104245424
241	0x3c8396e7	0.016063167
242	0x3dc8edc7	0.098109774
243	0x3d64af42	0.0558312
244	0x3d174585	0.036931533
245	0xbd9c5df8	-0.076351106
246	0xbd0c1577	-0.034200158
247	0xbbd9a3b4	-0.0066418294
248	0x3b26a190	0.0025425889
249	0xbcf6fa0f	-0.030148534
250	0xbdaaf042	-0.08346607
251	0xbd94748c	-0.07248792
252	0xbd886543	-0.06659939
253	0xbd9104d2	-0.070809975
254	0x3cd824f3	0.026384806
255	0xbd16d100	-0.03682041

rnn.weight_hh_l0 f4 [300, 100]
0	0x3d986689	0.07441432
1	0xbdc7d8da	-0.09758158
2	0xbdd048ac	-0.10170111
3	0xbd6a0955	-0.057137806
4	0xbd9f7225	-0.07785443
5	0xbdb17326	-0.08664541
6	0x3d11df28	0.03561321
7	0x3dd8a17f	0.10577678
8	0x3c1f8ac0	0.00973767
9	0xbd3c8285	-0.04602291
10	0x3d424cf7	0.04743668
11	0xbd49a464	-0.04922904
12	0x3b21ccb2	0.0024688658
13	0x3d8b90e8	0.06814748
14	0xbc81fd99	-0.015867995
15	0x3daba6b5	0.08381406
16	0xbd81909b	-0.063264094
17	0xbda3bcdf	-0.07995009
18	0xbd8c35f3	-0.068462275
19	0x3da9f637	0.08298915
20	0xbd8ef340	-0.0697999
21	0x3bdddb04	0.0067704935
22	0xbd9c2e4e	-0.076260194
23	0x3d49f3dd	0.04930483
24	0xbd1dcc6b	-0.038525026
25	0x3da1d609	0.07902152
26	0xbd990dae	-0.07473312
27	0x3ccf109b	0.025276473
28	0x3da7c229	0.0819133
29	0xbc835088	-0.016029611
30	0x3d5f47d7	0.05451187
31	0xbc120922	-0.00891331
32	0x3dcbbc3d	0.09948013
33	0xbd2aef70	-0.04173225
34	0xbd477ff7	-0.04870602
35	0xbca0e5aa	-0.019640762
36	0x3dc0cf9c	0.09414598
37	0xbc9ff3ff	-0.019525526
38	0xbdc29a84	-0.09502128
39	0x3c72129a	0.014774943
40	0xbcf4c584	-0.029879339
41	0xbc056d53	-0.008143741
42	0x3dc0eda3	0.094203256
43	0x3da51b4b	0.08061846
44	0xbd99621a	-0.074894145
45	0xbd0690b3	-0.03285284
46	0xbd89c0a0	-0.067261934
47	0xbbf275c8	-0.0073992945
48	0xbbd0e49f	-0.00637491
49	0x3d257046	0.040390275
50	0x3d46f0fa	0.048569657
51	0xba52d0fb	-0.0008042005
52	0xbd288814	-0.0411454
53	0xbd83a263	-0.06427457
54	0xbd5d8c69	-0.054088984
55	0xbd12e1e3	-0.035859954
56	0x3d442666	0.047888182
57	0xbc99f0a8	-0.018791512
58	0x3be37937	0.00694194
59	0x3da74b68	0.081686795
60	0x3d697d9e	0.057004564
61	0xbd76e292	-0.060274668
62	0x3d8dddd6	0.069270775
63	0xbc86a753	-0.016437208
64	0xbd4de000	-0.05026245
65	0x3caa725e	0.020806488
66	0xbc8f1cd9	-0.01746981
67	0x3d065ab9	0.032801364
68	0x3d4e3691	0.050345007
69	0x3d2a4044	0.041565195
70	0xbde21d66	-0.110407636
71	0x3da1d689	0.079022475
72	0xbd29add8	-0.041425556
73	0xbd7f4bd7	-0.062328186
74	0xbdc8c867	-0.09803849
75	0xbdae5d96	-0.08513944
76	0xb9227f8b	-0.00015497037
77	0x3d1f1bc1	0.038844828
78	0xbd3b31e5	-0.04570188
79	0xbd988700	-0.07447624
80	0xbd68942b	-0.05678193
81	0x3c4e6cce	0.012599183
82	0x3dd4b0e2	0.103853
83	0xbdc2ed43	-0.0951791
84	0x3d981d9d	0.07427523
85	0x3d01545f	0.031574603
86	0xbcb3c1cf	-0.021943001
87	0xba99a1f6	-0.0011721242
88	0xbc506535	-0.012719442
89	0x3da91f8e	0.08257972
90	0xbddcd35d	-0.10782502
91	0xbbadb65b	-0.0053012795
92	0xbdbdd37c	-0.09268853
93	0x3d743bed	0.059627462
94	0x3d36a549	0.044591222
95	0xbc8428db	-0.016132763
96	0x3dda022d	0.10644946
97	0xbcd283a0	-0.02569753
98	0xbd314cb4	-0.04328604
99	0x3d27256b	0.04080717
100	0xbd5c8785	-0.05384018
101	0x3dccdaa4	0.1000264
102	0xbd55aee4	-0.05216874
103	0xbd6e8f67	-0.058242228
104	0x3ca68e67	0.020331575
105	0xbce2ad90	-0.027670652
106	0x3d10f167	0.03538647
107	0x3d33eec4	0.043928877
108	0xbb1bf78f	-0.002379868
109	0xbd4f1cd4	-0.050564602
110	0x3d74cc3d	0.05976509
111	0xbb0822aa	-0.0020772615
112	0xbd85abed	-0.06526933
113	0xbd3183bc	-0.043338522
114	0xbc83907e	-0.01606011
115	0x3dbd1910	0.09233296
116	0x3dd3c417	0.103401355
117	0x3d6bb5bd	0.057546366
118	0x3da698f7	0.081346445
119	0x3db88c14	0.09011093
120	0xbdd28770	-0.10279739
121	0xbc7a5dd3	-0.0152811585
122	0x3d71b946	0.05901458
123	0x3d5f11c0	0.054460287
124	0xbd5cc8f5	-0.053902585
125	0xbc62f9da	-0.013853515
126	0x3db3b39c	0.08774492
127	0xbd5bcb33	-0.053660583
128	0xbd41f8e3	-0.047356497
129	0x3d5aa3a8	0.05337873
130	0xbc3894df	-0.011265962
131	0xbd24fa53	-0.04027779
132	0xbcb4cd9a	-0.022070695
133	0x3da7d0b3	0.08194103
134	0xbd2ddd6c	-0.042447492
135	0xbd66d933	-0.05635948
136	0x3aab1d7c	0.0013055052
137	0xbd47f48d	-0.048817206
138	0x3db78aee	0.089620456
139	0xbd094106	-0.033509277
140	0x3c1837fe	0.009290693
141	0x3d970f1c	0.07375929
142	0xbd218ca1	-0.039440755
143	0xbc9a70c6	-0.018852603
144	0xbd96f9f8	-0.073718965
145	0xbd84d465	-0.064858235
146	0x3ca86eee	0.020560708
147	0x3db1f43e	0.086891636
148	0xbcbc6844	-0.022998936
149	0x3d3b3c52	0.045711823
150	0x3ca96635	0.020678619
151	0x3d92c80c	0.07167062
152	0x3d1e7606	0.038686775
153	0x3d8ae2a4	0.067815095
154	0xbdb44bc9	-0.08803517
155	0x3d859148	0.06521851
156	0xbd756a50	-0.05991584
157	0xbd3dd4dc	-0.046345577
158	0x3d83ce23	0.06435802
159	0xbc896f75	-0.01677678
160	0x3dba4334	0.09094849
161	0xbdd2c3c0	-0.102912426
162	0x3c2ec661	0.010667414
163	0x3da0000b	0.07812508
164	0xbda03039	-0.07821698
165	0xbd6973c4	-0.05699517
166	0xbd9c3f10	-0.07629216
167	0x3cae0b3c	0.021245591
168	0xba1f0ae2	-0.00060669903
169	0xbd89d2fa	-0.06729694
170	0x3caa4133	0.020783043
171	0xbd16d09f	-0.03682005
172	0x3c1732d8	0.009228431
173	0x3d017c3e	0.031612627
174	0x3ca4d0f4	0.020119168
175	0xbcf76bdd	-0.0302028
176	0x3d4f5c7a	0.050625302
177	0xbc904f63	-0.01761598
178	0x3d061c96	0.032742105
179	0xbdb3918f	-0.087679975
180	0x3d3dfe3d	0.04638504
181	0xbb9b56bc	-0.004740564
182	0x3d9604fb	0.07325169
183	0xbd7f40a8	-0.06231752
184	0x3a92ed7d	0.0011209693
185	0x3dc42502	0.09577371
186	0xbd856e4e	-0.065151796
187	0x3d4734a7	0.048634198
188	0xbd2a41e9	-0.041566763
189	0x3d946bbc	0.07247111
190	0x3d1c05ea	0.038091578
191	0xbd45b294	-0.04826601
192	0xbdab3a7f	-0.083607666
193	0x3da31fbb	0.079650365
194	0x3d31ee97	0.043440428
195	0x3c723d6f	0.014785155
196	0xbd5e296f	-0.054238733
197	0xbd6e034f	-0.058108624
198	0x3d26175c	0.04054962
199	0x3c966c03	0.01836205
200	0xbdd96781	-0.10615445
201	0x3db0f5a9	0.08640606
202	0x3cb01ca7	0.021498038
203	0x3d82a037	0.06378215
204	0xbbcd9970	-0.0062743947
205	0xbd9a1ce1	-0.075250395
206	0x3cfe6154	0.031052269
207	0x3ca6ad32	0.020346258
208	0xbda80d12	-0.08205618
209	0x3dc0d99a	0.09416504
210	0xbd93f61e	-0.072246775
211	0xbd2db77c	-0.042411312
212	0xbc96cb13	-0.01840738
213	0xbdb5aa6b	-0.08870395
214	0x3dae41dd	0.08508656
215	0x3d53e159	0.05172858
216	0xbbcdb9cf	-0.0062782536
217	0xbdabcf37	-0.083891325
218	0x3b04b769	0.0020250923
219	0xbd2ac64d	-0.04169302
220	0xbc87bcd8	-0.01656954
221	0x3d98bf72	0.0745839
222	0x3da4537a	0.080237344
223	0xbd543e48	-0.05181721
224	0xbcc94215	-0.024567643
225	0xbdd230b8	-0.102631986
226	0x3d0f3e56	0.034971558
227	0x3d76deb2	0.060270973
228	0xbb36f450	-0.0027916618
229	0x3dbada9f	0.0912373
230	0x3d57f843	0.052726995
231	0x3ce918fe	0.0284543
232	0x3c19be0c	0.00938369
233	0x3bd11918	0.0063811652
234	0x3cb3d9c5	0.021954427
235	0xbddad4f2	-0.10685147
236	0x3d712a70	0.058878362
237	0xbd823a01	-0.063587196
238	0xbd634317	-0.055483904
239	0xbc3ad944	-0.011404339
240	0x3da5ea2f	0.081013076
241	0x3c619cc2	0.013770284
242	0xbd5307e0	-0.051521182
243	0x3cc55ee8	0.024093106
244	0x3d83967d	0.06425188
245	0xbc69c882	-0.014268996
246	0xbcd88bcb	-0.026433846
247	0xbd3b50c2	-0.045731314
248	0xbc14bb2d	-0.009077829
249	0x3d336139	0.04379389
250	0x3d8344f5	0.06409637
251	0x3de2e51c	0.110788554
252	0x3dcf5b19	0.101247974
253	0xbdbeb908	-0.09312636
254	0xbdab316d	-0.083590366
255	0xbcef864a	-0.029238839

rnn.bias_ih_l0 f4 [300]
0	0xbcb57ca7	-0.022154165
1	0xbd6c26ad	-0.05765407
2	0x3c786511	0.015160815
3	0x3cb0a2b6	0.021561962
4	0xbd97d5c7	-0.07413822
5	0xbce13898	-0.027492806
6	0x3cfa4c6e	0.030554023
7	0x3d956cd3	0.07296147
8	0xbd7e7f76	-0.062133275
9	0x3cd21467	0.025644494
10	0xbacdd3aa	-0.001570334
11	0xbd19bec2	-0.037535436
12	0xbd69802c	-0.057007
13	0x3c31f25f	0.010861008
14	0x3d39f61c	0.045400724
15	0xbd60a377	-0.054843392
16	0x3cc07e3b	0.023497691
17	0x3d1e08f6	0.038582765
18	0xbd49a6c5	-0.04923131
19	0xbaa7e34c	-0.0012808829
20	0x3cb07317	0.021539254
21	0xbc96e929	-0.018421726
22	0x3cf1fda9	0.0295399
23	0x3c690ac5	0.014223759
24	0xbdb65d6d	-0.08904538
25	0xbd5fa770	-0.05460304
26	0xbd448f95	-0.047988493
27	0xbd63f175	-0.055650193
28	0xbd6196ac	-0.055075333
29	0xbd88f818	-0.06687945
30	0xbcf84025	-0.030304024
31	0xbd892202	-0.066959396
32	0x3d0591f9	0.032609913
33	0xbda06391	-0.07831491
34	0x3d0d083a	0.034431674
35	0xbd2568bb	-0.040383082
36	0x3d9e3b7b	0.07726189
37	0xbdd06f0c	-0.101774305
38	0x3db80a63	0.08986356
39	0xbd9bf2fb	-0.07614704
40	0xbd6794cb	-0.056538384
41	0x3c6fd864	0.014638994
42	0xbaaf017c	-0.0013351883
43	0xbd486fed	-0.048934866
44	0xbbb99612	-0.0056636417
45	0xbd044210	-0.032289565
46	0xbda06fa4	-0.07833794
47	0xbcf9653c	-0.03044378
48	0x3dd17e5f	0.102291815
49	0xbcfd364c	-0.03090968
50	0xbd35068a	-0.04419569
51	0xbcb7360c	-0.022364639
52	0xbda9f0af	-0.0829786
53	0x3d69ade1	0.05705059
54	0x3c9aab5f	0.018880544
55	0xbcc1f0af	-0.023674337
56	0x3cfb3d5a	0.030668903
57	0x3cc6f533	0.024286842
58	0x3d111c78	0.03542754
59	0x3dba128a	0.09085567
60	0xbd1d3063	-0.038376223
61	0x3dd75457	0.105141334
62	0x3c8774fe	0.016535278
63	0xbdc0cb5a	-0.09413786
64	0xbd5b6a5d	-0.053568233
65	0x3c8eb321	0.0174194
66	0xbd14ee93	-0.036360335
67	0xbd9044f9	-0.070444055
68	0x3d8918f6	0.06694214
69	0x3da0568e	0.07829009
70	0xbd6e4f8f	-0.05818134
71	0xbd3cd754	-0.04610379
72	0x3d4fb73f	0.050711866
73	0xbdb6ce13	-0.08926024
74	0xbd0658ab	-0.032799404
75	0x3dc9230b	0.09821137
76	0x3d6492c4	0.05580403
77	0x3c256052	0.010093765
78	0xbda43401	-0.080177315
79	0x3d276829	0.04087082
80	0x3cb38d43	0.021917945
81	0xbc2e3bc6	-0.010634368
82	0xbcc899a2	-0.02448732
83	0x3c3e89cc	0.011629533
84	0xbd128c0c	-0.03577809
85	0x3d81647d	0.06317995
86	0xbdc920fb	-0.09820744
87	0xbd8b541f	-0.06803154
88	0xbd87c277	-0.06628888
89	0x3cc85741	0.024455668
90	0xbdb1aeab	-0.086758934
91	0xbc8fa329	-0.017533856
92	0xbd20e012	-0.03927619
93	0x3d3fcbd0	0.04682523
94	0xbd9d8601	-0.07691575
95	0xbd8381ac	-0.06421217
96	0x3d23928e	0.039934687
97	0xbcaffce3	-0.02148289
98	0xbdabe1a7	-0.08392649
99	0x3dc3776f	0.095442645
100	0x3d79f26c	0.061022207
101	0x3c36a255	0.011147101
102	0xbdc01944	-0.09379819
103	0x3cd84955	0.026402155
104	0xbda2cb7d	-0.079489686
105	0x3d09747d	0.033558358
106	0x3d3052e3	0.043047797
107	0xbd8c9c25	-0.0686572
108	0x3d15511e	0.036454313
109	0x3d1a3846	0.037651323
110	0x3d06e6c0	0.032934904
111	0x3cb4f094	0.022087373
112	0x3cb3df40	0.02195704
113	0xbdd0c2ed	-0.10193429
114	0xbcf32658	-0.02968137
115	0xbcf143a1	-0.029451193
116	0x3d3f4f19	0.046706293
117	0x3d1671a9	0.03672949
118	0xbd9da7d9	-0.0769803
119	0x3d290d35	0.04127236
120	0xbd1d827a	-0.03845451
121	0x3cfbb66d	0.030726636
122	0xbd4f2dd6	-0.050580822
123	0xbd8cc2e1	-0.06873108
124	0x3d9a2ecb	0.07528456
125	0xbd73dc69	-0.05953637
126	0x3db0270f	0.086012
127	0xbd4c70ab	-0.049912136
128	0x3c82f537	0.015986068
129	0x3c9340fe	0.017975327
130	0xbd895b54	-0.067068726
131	0x3c9cc130	0.019135088
132	0xbd995a49	-0.07487924
133	0x3d1dd1c5	0.03853013
134	0x3cab2879	0.020893322
135	0x3cbe0cdd	0.023199493
136	0xbc0b218f	-0.008491888
137	0x3dc064a4	0.09394196
138	0x3d4a5437	0.04939672
139	0x3d993279	0.0748033
140	0xbd9fd60b	-0.07804497
141	0x3d0d058c	0.034429118
142	0x3ca5b2e8	0.02022691
143	0x3d1cef8d	0.03831439
144	0xbda49f8a	-0.08038242
145	0xbd6382e6	-0.055544756
146	0xbd7911b5	-0.060807902
147	0x3d5c47dd	0.05377947
148	0x3c967842	0.01836789
149	0xbde24e9d	-0.110501505
150	0xbd7c3fad	-0.061584163
151	0x3ca679da	0.020321775
152	0x3bd5180d	0.006503111
153	0x3d2f978f	0.042869147
154	0x3d455edd	0.04818617
155	0x3d2c57e9	0.042076025
156	0x3c3285ff	0.010896205
157	0x3b419379	0.0029537363
158	0x3d444b83	0.047923576
159	0x3d9bdcbe	0.076104626
160	0x3d4ef03f	0.050522085
161	0xbd0fbc6b	-0.0350918
162	0xbda8db38	-0.08244938
163	0xbd36c4e3	-0.04462136
164	0xbd586dfd	-0.052839268
165	0x3d7dec7d	0.06199311
166	0x3cc78816	0.024356883
167	0xbd9c2f81	-0.07626248
168	0x3d539a15	0.051660616
169	0xbdb27367	-0.087134175
170	0xbcf3b304	-0.029748447
171	0xbd533537	-0.05156442
172	0xbd646124	-0.055756703
173	0xbc6cc395	-0.014450927
174	0xbcaad406	-0.020853054
175	0x3c9cc6b0	0.01913771
176	0xbda1d23e	-0.07901429
177	0xbcfbff19	-0.030761288
178	0xbc698c86	-0.014254695
179	0x3d8c458e	0.06849204
180	0xbda930f2	-0.08261289
181	0x3d615e40	0.055021524
182	0xbd91a4a6	-0.07111482
183	0x3a2a8f42	0.00065063324
184	0x3d6810b2	0.056656547
185	0xbd729b95	-0.059230406
186	0xbd906251	-0.07050002
187	0x3d8d2087	0.0689097
188	0xbd8746ae	-0.06605278
189	0xbd8c948f	-0.06864273
190	0xbd99e805	-0.07514957
191	0xbd78aef9	-0.060713742
192	0x3db1726f	0.086644046
193	0xbbf4e84f	-0.0074739824
194	0x3ca9b79d	0.020717436
195	0x3ca61512	0.020273719
196	0xbd9057ec	-0.0704802
197	0x3d78bc97	0.06072673
198	0xbcece012	-0.028915439
199	0x3d337de6	0.043821238
200	0xbc704bd9	-0.014666521
201	0xbdabab67	-0.08382302
202	0x3d287aa2	0.041132577
203	0xbcd4650b	-0.025927087
204	0xbcc8ad12	-0.024496589
205	0x3d25494b	0.0403531
206	0x3da685fb	0.081310235
207	0x3d67c557	0.056584682
208	0xbd4e24aa	-0.050327934
209	0xbc841f8c	-0.016128324
210	0x3d78d033	0.06074543
211	0x3c287e39	0.010284
212	0x3d1c9adb	0.03823362
213	0x3d98557d	0.074381806
214	0x3dc477b5	0.09593145
215	0xbcdb3a12	-0.026761089
216	0xbba9e46e	-0.0051847016
217	0x3dab2781	0.08357144
218	0x3dda0025	0.10644559
219	0x3c19c69c	0.009385731
220	0x3d82ae32	0.06380881
221	0x3d2f367c	0.04277657
222	0x3db6caf9	0.08925433
223	0x3d8b7cc2	0.06810905
224	0x3d6bdfb5	0.05758639
225	0xbd386fbc	-0.045028433
226	0xbd0de390	-0.03464085
227	0xbd2fa584	-0.042882457
228	0xbd412c6a	-0.047161497
229	0xbc4c877b	-0.012483473
230	0x3d46bba4	0.04851879
231	0x3ddf3dd7	0.10900467
232	0x3da5530b	0.0807248
233	0xbb78a184	-0.0037938068
234	0xbc729805	-0.014806752
235	0xbd6a96b8	-0.057272643
236	0x3d596d2c	0.05308263
237	0x3d6d1254	0.057878807
238	0xbdb5a91c	-0.08870146
239	0x3c806c21	0.01567656
240	0x3da7a35a	0.08185454
241	0x3d248aae	0.040171318
242	0xbbb032eb	-0.0053771636
243	0xbc832cbf	-0.016012548
244	0x3c81755d	0.015803033
245	0xbda778be	-0.081773266
246	0x3c56dfc4	0.013114873
247	0x3dad46ba	0.08460756
248	0x3d9879fa	0.0744514
249	0xbd8c5d69	-0.06853754
250	0xbc5bd3ae	-0.013417168
251	0x3c410caa	0.0117828045
252	0x3cf33817	0.029689832
253	0xbd23ffa1	-0.04003871
254	0xbccee47d	-0.025255436
255	0x3c292686	0.010324126

rnn.bias_hh_l0 f4 [300]
0	0x3d8087d7	0.062759094
1	0x3d56fdf3	0.05248828
2	0xbc4324f4	-0.011910666
3	0x3db7d6bb	0.089765035
4	0xb98ab3f0	-0.00026455475
5	0x3da4561e	0.08024238
6	0xbb6022bb	-0.0034200388
7	0xbda19dda	-0.07891436
8	0xbd232f93	-0.039840292
9	0x3d3aea99	0.045633886
10	0x3b43b2ba	0.0029861168
11	0x3d9beab5	0.07613126
12	0x3ca564af	0.020189611
13	0xbd8aaca3	-0.06771209
14	0x3cdcfd65	0.026976297
15	0x3c89692b	0.01677378
16	0xba137132	-0.00056244724
17	0xbd03c778	-0.03217265
18	0xbd272742	-0.040808924
19	0xbd9796c0	-0.074018
20	0x3c14b926	0.009077346
21	0xbcd0f330	-0.025506586
22	0x3c90401e	0.017608698
23	0xbd0ffde9	-0.035154257
24	0xbd9d4964	-0.07680014
25	0x3d24cef1	0.040236417
26	0xbd912255	-0.070866264
27	0x3dcd6a35	0.10030023
28	0x3d584ccb	0.05280761
29	0x3c6bdf86	0.014396554
30	0xbda284ac	-0.079354614
31	0x3dd1e844	0.10249379
32	0x3d87ae7a	0.06625076
33	0xbd6dd9e7	-0.058069136
34	0x3c5a5213	0.013325232
35	0x3d7050bc	0.058670744
36	0xbdb84cc9	-0.089990206
37	0x3d8abe7b	0.067746125
38	0x3d22e952	0.039773293
39	0x3b661fdf	0.0035114211
40	0x3dc18deb	0.09450897
41	0x3de8ca2d	0.11366687
42	0x3db74801	0.089492805
43	0x3c02bc02	0.007979395
44	0xbd377974	-0.04479356
45	0xbd8706c9	-0.06593091
46	0xbd53fd58	-0.05175528
47	0xbd45f116	-0.04832562
48	0x3bd7ee01	0.0065896516
49	0xbdab83d6	-0.08374755
50	0xbd88c255	-0.06677691
51	0xbd861d9c	-0.06548616
52	0xbbbfc66b	-0.0058525107
53	0x3dbbb1f8	0.09164804
54	0x3dd069a3	0.101763986
55	0x3dc98b26	0.098409936
56	0x3cfb0efa	0.03064679
57	0x3bbfb002	0.005849839
58	0xbd370ab1	-0.04468793
59	0xbdafc93b	-0.085833035
60	0x3d90880d	0.070571996
61	0xbcaf9315	-0.021432439
62	0x3db006ea	0.08595069
63	0x3ccc04b1	0.02490458
64	0x3d1eee4a	0.03880147
65	0x3bfc2e06	0.007695916
66	0xbcf96925	-0.030445645
67	0x3db348b4	0.087541014
68	0x3af5f982	0.0018766376
69	0xbd7ee544	-0.062230363
70	0xbd3ae106	-0.045624755
71	0x3dc8b070	0.09799278
72	0xbd944b48	-0.07240921
73	0xbdb5d09e	-0.08877681
74	0x3c33d4bb	0.010976012
75	0x3dc1692a	0.094438866
76	0x3db523bb	0.08844706
77	0xbbd5d63c	-0.006525783
78	0xbd3c7e1a	-0.046018697
79	0x3d374ab9	0.044748995
80	0xbd554519	-0.05206785
81	0x3d0022fc	0.031283364
82	0xbc5ef5e1	-0.013608427
83	0x3da31f84	0.079649955
84	0x3d7eb192	0.062181063
85	0x3d9fe20e	0.078067884
86	0xbd6d18d6	-0.057885014
87	0x3d54cdac	0.051953956
88	0x3ce30887	0.027714027
89	0xbda854fe	-0.08219336
90	0xbdd9f5ab	-0.106425606
91	0xbd263c6a	-0.04058496
92	0x3c6b1a5e	0.014349548
93	0x3c878f5a	0.016547848
94	0x3b49fca4	0.0030820752
95	0xbc1dd283	-0.009632709
96	0xbd8f48a0	-0.06996274
97	0x3d8fb996	0.070178196
98	0xbdaf53b5	-0.08560888
99	0xbcafd060	-0.021461666
100	0x3d814c91	0.06313432
101	0xbdcbe0bc	-0.09954974
102	0x3cc14a73	0.02359507
103	0x3b425a91	0.0029656033
104	0x3d6e285d	0.058143962
105	0xbd27791c	-0.040886983
106	0x3cd532f2	0.02602527
107	0x3d8028cf	0.062577836
108	0x3d81bc82	0.06334783
109	0xbd7a49ea	-0.061105646
110	0xbd0ebe54	-0.03484948
111	0x3c16edbd	0.009211955
112	0x3d37a1d1	0.044832055
113	0xbd9b9fd8	-0.07598847
114	0x3d782352	0.06058056
115	0xbcf7e794	-0.030261792
116	0x3d946dde	0.07247518
117	0x3d3a3303	0.045458805
118	0xbceda283	-0.029008156
119	0xbc8fce25	-0.017554352
120	0xbd82fa29	-0.063953705
121	0x3da3decb	0.08001479
122	0xbb90f2ef	-0.004423491
123	0x3c0369cc	0.008020829
124	0xbd820fb0	-0.063506484
125	0xbd1b6cd0	-0.03794557
126	0xbc48dfd7	-0.012260399
127	0x3d94442a	0.07239564
128	0xbda74da7	-0.08169108
129	0x3c30ce4e	0.010791374
130	0xbdb826f9	-0.089918084
131	0x3d44fdf1	0.04809374
132	0x3d2f25e3	0.04276074
133	0xbdcb1715	-0.09916512
134	0xbd04cb4f	-0.032420453
135	0x3d04179b	0.032249074
136	0x3c089c0b	0.008337985
137	0x3d841f70	0.06451309
138	0xbdba050f	-0.09082996
139	0xbd89e019	-0.06732196
140	0xbda73007	-0.08163457
141	0xbd32ede4	-0.0436839
142	0xbcc24811	-0.023716005
143	0x3d934b40	0.07192087
144	0xbda276b5	-0.07932798
145	0xbc208aad	-0.009798688
146	0x3d6fe5fb	0.058568936
147	0xbd44b7ea	-0.048026957
148	0xbdc3d81f	-0.09562706
149	0x3d93c8db	0.072160445
150	0x3ce8d9c7	0.028424157
151	0x3ba73994	0.0051032994
152	0x3db20af9	0.08693499
153	0xbdb56767	-0.08857613
154	0xbd8a1f10	-0.06744206
155	0xbbe8ec05	-0.007108214
156	0xbdc39db4	-0.09551564
157	0xbd08fbb0	-0.033443153
158	0x3d189b0d	0.037257243
159	0x3d8c790b	0.068590246
160	0x3d141bb7	0.036159243
161	0x3c274fa7	0.010211862
162	0xbc9ba1d0	-0.018998057
163	0x3cd33906	0.025784027
164	0x3d0a5454	0.033771828
165	0x3d314c5e	0.04328572
166	0x3d93520c	0.071933836
167	0xbd22f203	-0.03978158
168	0xbd95c9f5	-0.07313911
169	0xbd1b40b9	-0.03790352
170	0xbccaf2df	-0.024774013
171	0xbd84b3a8	-0.06479579
172	0xbd7f9be4	-0.06240453
173	0xbcb96559	-0.022631334
174	0x3ac1e3f2	0.0014792664
175	0xbbd1fc73	-0.006408268
176	0xbdc18e1b	-0.094509326
177	0x3cb651e1	0.02225584
178	0xbd5cabc2	-0.05387474
179	0x3b1ec1ac	0.0024224324
180	0x3d7dae08	0.061933547
181	0x3db73b6f	0.08946883
182	0xbd7c7d0e	-0.0616427
183	0xbdb8de37	-0.09026759
184	0x3d1d7c6c	0.038448736
185	0x3cb49828	0.02204521
186	0x3d36488e	0.044502787
187	0xbd89493e	-0.06703423
188	0xbd4161ec	-0.047212526
189	0x3bbe0b6a	0.0057997005
190	0x3d5d6a57	0.05405649
191	0x3c7e37ea	0.015516261
192	0xbd70e4db	-0.058812004
193	0x3dac7da5	0.08422402
194	0x3d9794d4	0.074014336
195	0x3dd7e6f6	0.10542099
196	0xbdaa0506	-0.083017394
197	0x3d3dba41	0.046320204
198	0xbd635edc	-0.055510387
199	0x3da8e2fe	0.0824642
200	0xbce9a426	-0.028520655
201	0xbd3b1c03	-0.04568101
202	0xbcd01669	-0.025401311
203	0xbc8a79e9	-0.016903834
204	0xbddb769a	-0.10715981
205	0x3d43b49a	0.047779657
206	0xbc0c1e65	-0.0085521685
207	0x39e709fc	0.00044067192
208	0xbddb1895	-0.10698048
209	0x3da5daf5	0.08098403
210	0xbda55dec	-0.08074555
211	0xbd52dba3	-0.051478993
212	0xbc405dc3	-0.011741105
213	0xbac2f85f	-0.0014875046
214	0xbdb500dd	-0.08838055
215	0x3d4d169f	0.0500704
216	0x3d8ae773	0.06782427
217	0xbd13462b	-0.03595559
218	0xbd49fc32	-0.049312778
219	0x3db8b71e	0.09019302
220	0xbd70e04b	-0.058807652
221	0xbd708ff2	-0.058731027
222	0x3da9fe73	0.083004855
223	0xbcba6130	-0.02275142
224	0xbd297d0c	-0.04137902
225	0x3da185c4	0.07886842
226	0xbc0cff0d	-0.008605731
227	0x3bf0a06d	0.007343343
228	0xbaf1edc5	-0.0018457702
229	0xbce11c4a	-0.02747931
230	0xbcb49b09	-0.022046583
231	0x3d721a4e	0.059107117
232	0x3d6871b4	0.05674906
233	0x3d9b4a23	0.075825
234	0xbdb88280	-0.09009266
235	0x3db3cfad	0.087798454
236	0x3d58cb4b	0.05292825
237	0x3d86c462	0.06580426
238	0xbcafa26d	-0.021439755
239	0x3d19b7f9	0.037528966
240	0xbd3778c4	-0.044792905
241	0x3d9dbad4	0.0770165
242	0x3da52f19	0.08065624
243	0xbd337d73	-0.04382081
244	0xbda9e74e	-0.08296071
245	0x3cc3e750	0.02391401
246	0xbda352ef	-0.07974803
247	0xbd3d5a68	-0.046228796
248	0xbcd2b563	-0.025721258
249	0x3cc90444	0.024538167
250	0xbd0c6fe8	-0.03428641
251	0x3ce73cf2	0.028227303
252	0x3dc28d38	0.094995916
253	0xbc593b16	-0.013258716
254	0xbde06231	-0.109562285
255	0xbce9f0fe	-0.028557297

fc_out1.weight f4 [50, 100]
0	0xbd6f09da	-0.058359005
1	0x3d754da3	0.059888493
2	0x3d0f7517	0.035023775
3	0x3dc65005	0.09683231
4	0x3cc232ad	0.023705805
5	0xbd98d57d	-0.07462595
6	0x3d0e3e1a	0.034727193
7	0x3d1ddc00	0.038539886
8	0x3c83747a	0.016046751
9	0x3c800967	0.015629483
10	0x3d40bbd7	0.047054138
11	0xbcdfa1fa	-0.027298916
12	0xbca69ac0	-0.020337462
13	0x3d7c8a73	0.061655473
14	0xba20799a	-0.00061216357
15	0x3dbfc113	0.09362998
16	0xbd74c857	-0.05976137
17	0xbd88b4c8	-0.06675106
18	0x3dcb5d2d	0.09929881
19	0xbcb2582d	-0.021770561
20	0x3d8f533f	0.069983
21	0xbc8300ed	-0.015991652
22	0xbd93d54f	-0.0721842
23	0x3daad6ad	0.083417274
24	0xbd6b9d57	-0.057523098
25	0x3d8f12ca	0.069860056
26	0x3d4ac117	0.04950055
27	0xbdbe90d2	-0.09304966
28	0xbd6dc7fa	-0.05805204
29	0xbd55f487	-0.052235153
30	0xbdbcbaad	-0.09215293
31	0xbd865cf7	-0.065607004
32	0x3a01fc00	0.00049585104
33	0xbc98b073	-0.018638825
34	0x3d015267	0.031572726
35	0x3d716df7	0.05894276
36	0xbda948c5	-0.08265833
37	0xbda018a0	-0.07817197
38	0xbd2ddc2d	-0.042446304
39	0xbccdaf3a	-0.025107969
40	0x3d963ee3	0.073362134
41	0x3d16aead	0.036787678
42	0xbabdc467	-0.0014478088
43	0xbd53bf13	-0.051695894
44	0xbda3a468	-0.079903424
45	0xbdb59022	-0.08865382
46	0x3dc1376b	0.09434398
47	0x3d321ebd	0.043486346
48	0x3d03a13d	0.03213619
49	0xbd59d7a0	-0.05318415
50	0xbd16ff20	-0.0368644
51	0xbce4a220	-0.027909338
52	0x3d928cb5	0.07155744
53	0xbca3c85a	-0.019992996
54	0xbb15c833	-0.0022854924
55	0x3d1b7130	0.03794974
56	0xbd98c2ba	-0.07459016
57	0x3cbb83f3	0.022890067
58	0xbd194e9d	-0.037428487
59	0xbd77266d	-0.06033938
60	0x3d85bf9d	0.06530688
61	0xbd425fa0	-0.047454476
62	0x3d1228dd	0.0356835
63	0x3d805f5b	0.062681876
64	0xbb44c39a	-0.0030023814
65	0xbd39b8ba	-0.045342185
66	0x3bdcc74d	0.0067376257
67	0xbbf4fe67	-0.007476616
68	0xbd271f10	-0.040801108
69	0xbc07eba7	-0.00829593
70	0x3da402e8	0.08008367
71	0xbcd71493	-0.026254928
72	0x3d83b305	0.0643063
73	0xbdb0c4fb	-0.08631321
74	0xbd995f4b	-0.07488879
75	0xbdc769fd	-0.097370125
76	0x3d7b44fa	0.061345078
77	0x3d87e5f3	0.06635656
78	0x3cb749f3	0.022374129
79	0xbc61a3a7	-0.013771928
80	0xbd8fcc5a	-0.07021399
81	0xbb84ec1a	-0.004056466
82	0x3d8001cd	0.062503435
83	0xbdaf228b	-0.085515104
84	0xbd957f2b	-0.07299646
85	0x3dbfc36d	0.093634464
86	0x3c486e4d	0.012233329
87	0xbcbec6fa	-0.023288239
88	0xb9d74b33	-0.00041064023
89	0x3cc78eda	0.02436011
90	0xbd4896dd	-0.048972
91	0xbd98340d	-0.07431803
92	0x3d83ca5a	0.0643508
93	0xbcd5702d	-0.026054466
94	0xbcacd000	-0.021095276
95	0x3d13a0b0	0.036041915
96	0x3bc0bf33	0.0058821677
97	0xbc7b2b33	-0.015330124
98	0xbdcc6ae2	-0.09981324
99	0xbd986d77	-0.07442754
100	0x3cfe86eb	0.031070193
101	0x3db3de49	0.08782632
102	0x3d46858e	0.04846721
103	0x3da95add	0.08269284
104	0xbbc91780	-0.0061368346
105	0xbd84f497	-0.06491964
106	0x3db58bff	0.08864593
107	0x3d730d6b	0.05933897
108	0xbcc430c6	-0.023949038
109	0xbd47f766	-0.048819922
110	0xbc239221	-0.00998357
111	0x3d911e22	0.070858255
112	0x3ca0e78b	0.019641658
113	0x3c7b1fe4	0.015327428
114	0x3c9073c9	0.017633336
115	0x3d700287	0.05859616
116	0xbcd04a28	-0.025425985
117	0x3d934d56	0.07192485
118	0xbd68e64f	-0.056860264
119	0xbd9aa198	-0.07550353
120	0xbca76102	-0.020432
121	0xbd2a6784	-0.041602626
122	0xbc8916bb	-0.016734472
123	0x3d2566fd	0.04038142
124	0xbce1b082	-0.027549986
125	0xbcb253c9	-0.021768468
126	0xbc8082a1	-0.015687289
127	0x3d127a27	0.035761025
128	0xbd9a6302	-0.075384155
129	0x3d976f4b	0.07394274
130	0xbd853e3e	-0.065060124
131	0xbd79350c	-0.060841605
132	0x3d8d957f	0.0691328
133	0x3d3e8dd6	0.046521984
134	0xbdca12d1	-0.0986687
135	0x3c098106	0.008392578
136	0xbdaef5b8	-0.08542961
137	0xbd54b367	-0.051928904
138	0x3d7ae6c2	0.061255224
139	0x3d2cdc3d	0.042202223
140	0xbd952ccf	-0.07283937
141	0xbd987c3e	-0.07445572
142	0x3cd684cd	0.026186371
143	0x3ba88b4a	0.0051435577
144	0xbdc06e7a	-0.09396072
145	0x3d8550fa	0.06509586
146	0x3cbe7d17	0.023253007
147	0xbc270bda	-0.010195697
148	0xbd4317d5	-0.04763015
149	0x3ca00242	0.019532327
150	0xbd6c8ab0	-0.05774945
151	0xbd6a4e31	-0.057203475
152	0x3c0138a4	0.007887039
153	0x3c3f46c7	0.0116745895
154	0xbd3ad5dc	-0.04561411
155	0xbc2ebbe0	-0.01066491
156	0x3dae078f	0.084975354
157	0xbc7df2c3	-0.015499773
158	0xbbbd18d7	-0.0057707834
159	0xbd2d5689	-0.042318854
160	0xbbbdcea0	-0.005792454
161	0xbd0ecf38	-0.034865588
162	0x3caccdcf	0.021094231
163	0xbcefe29a	-0.029282857
164	0x3d8b860f	0.06812679
165	0x3bba900e	0.005693442
166	0x3d1d4ac1	0.03840137
167	0xbd30f2b9	-0.04320023
168	0x3d34659a	0.044042207
169	0xbd6299de	-0.05532252
170	0xbdb4babb	-0.088246785
171	0x3cc7f776	0.02440999
172	0xbd28e0e5	-0.0412301
173	0xbd2850ba	-0.04109261
174	0xbd8575af	-0.06516587
175	0x3cc25a3e	0.023724671
176	0xbd8f901f	-0.07009911
177	0x3ce560fe	0.028000351
178	0x3cdd43ef	0.027009932
179	0xbd458fe8	-0.048232943
180	0xbc9e3db4	-0.019316532
181	0xbcaa6062	-0.020797912
182	0x3d6b827f	0.057497498
183	0x3c06de12	0.008231657
184	0xbd45713d	-0.048203696
185	0xbcf0b8f9	-0.029385077
186	0xbd543e16	-0.051817022
187	0xbd97a6ee	-0.07404886
188	0xbd390676	-0.045172177
189	0x3d8421a0	0.06451726
190	0xbdbb0012	-0.09130873
191	0xbd61435e	-0.054995887
192	0xbdc8e205	-0.09808735
193	0xbd0ae6e1	-0.03391159
194	0xbcb2e5c4	-0.021838076
195	0x3d896462	0.067085996
196	0xbda78507	-0.0817967
197	0xbdafb174	-0.085787684
198	0xbcc739dc	-0.024319582
199	0xbdaa6982	-0.08320905
200	0xbda32c3b	-0.07967421
201	0xbc9bb5ef	-0.019007651
202	0xbd4c2581	-0.049840454
203	0xbd670dfb	-0.056409817
204	0x3d92265e	0.07136224
205	0xbd880397	-0.0664131
206	0x3ca40c17	0.020025296
207	0xbd7a8e97	-0.06117114
208	0x3dae293a	0.08503957
209	0xbd4fc069	-0.050720606
210	0xbd2abf89	-0.04168657
211	0xbdceb396	-0.10092847
212	0xbd21c9db	-0.039499145
213	0x3d4271f6	0.047471963
214	0x3dacf83e	0.08445786
215	0xbd99700c	-0.07492074
216	0xbcbd7a7f	-0.0231297
217	0x3da984ac	0.08277258
218	0x3d5193b7	0.051166262
219	0x3d5ccca2	0.05390609
220	0xbd8ae92f	-0.067827575
221	0x3d7accaa	0.06123034
222	0x3da0490d	0.07826433
223	0x3baff28a	0.005369489
224	0x3d5a852a	0.05334965
225	0xbd765116	-0.060135923
226	0x3d8eb646	0.0696836
227	0x3cc85f22	0.024459425
228	0xbd810d4c	-0.06301364
229	0xba2bc9b8	-0.0006553191
230	0xbdc9424c	-0.09827098
231	0xbd43c3d6	-0.047794186
232	0xbd63c84d	-0.055610944
233	0x3c9b887b	0.018985977
234	0x3cc329d0	0.023823649
235	0x3b96c1e1	0.004600749
236	0xbd89d270	-0.06729591
237	0x3d75ec91	0.06004006
238	0xbce9e212	-0.028550182
239	0x3d790b6a	0.0608019
240	0xbcd70673	-0.026248192
241	0xbb3bbe83	-0.002864749
242	0x3bd14d44	0.0063873846
243	0xbc781fba	-0.015144283
244	0xbcf0946f	-0.029367654
245	0x3d4c136c	0.04982321
246	0x3cbbeb73	0.02293942
247	0xbd3abcd0	-0.045590222
248	0xbc68179c	-0.014165785
249	0xbddf6db2	-0.109095946
250	0x3cf285e6	0.029604863
251	0x3c45b2f6	0.012066593
252	0x3d34e053	0.044159245
253	0xbd9f8285	-0.077885665
254	0xbd71d780	-0.059043407
255	0x3d303b19	0.04302511

fc_out1.bias f4 [50]
0	0xbd62aad3	-0.055338692
1	0xbd30e895	-0.043190558
2	0xbd501874	-0.05080457
3	0xbdb5ace6	-0.088708684
4	0xbd2da79d	-0.042396177
5	0xbd6ef28e	-0.058336787
6	0x3d27e1f0	0.040986955
7	0xbda7be0f	-0.08190548
8	0x3d20bf44	0.039244905
9	0xbd234ea7	-0.03986993
10	0xbd54f26d	-0.051989008
11	0x3d86b6de	0.06577848
12	0xbdc1468d	-0.094372846
13	0x3dbf1460	0.09330058
14	0x3dc8cedf	0.098050825
15	0xbd94c451	-0.07264007
16	0xbc723aac	-0.014784496
17	0xbd2cef07	-0.04222014
18	0xbd08a4e0	-0.033360362
19	0xbc3b623f	-0.011436998
20	0x3d6dc4a4	0.05804886
21	0xbd60e44a	-0.054905213
22	0x3c8cf8b2	0.01720843
23	0xbc7c2295	-0.015389104
24	0xbd5c3dfa	-0.053770043
25	0xbd3ed73d	-0.046591986
26	0x3d89605f	0.067078345
27	0xbd8dfa53	-0.06932511
28	0xbdbeb8c5	-0.09312586
29	0xbda7d932	-0.081957236
30	0x3d91e86a	0.071244076
31	0xbbc02fa3	-0.0058650537
32	0x3c867437	0.016412837
33	0x3db4d2ae	0.088292465
34	0x3c81f870	0.015865535
35	0xbd9eabcd	-0.07747612
36	0x3bfb831f	0.007675543
37	0xbda59900	-0.08085823
38	0xbd7523f7	-0.059848752
39	0x3ab94939	0.0014136202
40	0xbd835d8e	-0.064143285
41	0x3da4503a	0.080231145
42	0x3d6c0a07	0.05762675
43	0xbd829faf	-0.063781135
44	0xbb63506d	-0.0034685389
45	0x3d5a85ad	0.05335014
46	0x3c2ae625	0.010430847
47	0xbd6b2197	-0.05740508
48	0xbd8a6f37	-0.06759494
49	0xbdb970ff	-0.090547554

fc_out.weight f4 [2, 50]
0	0x3dfe19b8	0.12407249
1	0x3c362bcc	0.01111884
2	0xbda9e7ed	-0.082961895
3	0x3c4f55bc	0.012654718
4	0xbe0ce1bd	-0.13757987
5	0xbdfa968f	-0.12235748
6	0xbda335b9	-0.07969231
7	0xbc66e838	-0.014093451
8	0xbd432705	-0.047644634
9	0xbd753442	-0.05986429
10	0x3d98bb79	0.074576326
11	0x3dccad96	0.099940464
12	0x3df30890	0.118668675
13	0x3e02bff6	0.1276854
14	0xbdcb4fdc	-0.09927341
15	0x3dd55b51	0.10417808
16	0x3c29e40f	0.010369315
17	0x3c06c997	0.008226774
18	0xbdcc252b	-0.09968027
19	0xbdf86e82	-0.12130453
20	0xbc7ba446	-0.01535899
21	0xbb13acc2	-0.0022533392
22	0xbdbbdc20	-0.09172845
23	0xbd68436f	-0.056704935
24	0xbc69a180	-0.014259696
25	0x3ddcf26e	0.10788427
26	0x3e162e99	0.14666213
27	0xbdd50927	-0.10402136
28	0x3cea0354	0.02856604
29	0xbdd24a55	-0.10268084
30	0x3da846e8	0.08216649
31	0x3c2d0b52	0.010561781
32	0x3adb0fe6	0.0016713112
33	0x3d8086c2	0.06275703
34	0x3ddab049	0.10678155
35	0xbcd8362f	-0.026393024
36	0x3da4a087	0.08038431
37	0xbdf137d1	-0.11778224
38	0xbe00def6	-0.12585053
39	0x3da5a294	0.0808765
40	0xbdc48d68	-0.095972836
41	0x3cbf784b	0.02337279
42	0xbcad2f1d	-0.02114063
43	0x3d65c6d6	0.056097828
44	0xbe01b400	-0.12666321
45	0xbdb76ce0	-0.08956313
46	0x3deafd87	0.11474138
47	0x3d2b077d	0.04175519
48	0x3dbd9417	0.092567615
49	0x3def97a3	0.11698844
50	0xbdd06877	-0.10176175
51	0xbdc7a264	-0.097477704
52	0x3dc0ad5e	0.09408067
53	0xbd30725a	-0.043077804
54	0x3d4212ef	0.047381338
55	0x3deefcab	0.11669286
56	0x3d8efd23	0.06981876
57	0x3d43551c	0.04768859
58	0x3d40eb88	0.04709962
59	0x3c816ff2	0.01580045
60	0x3d48cc8d	0.0490232
61	0xbc2672b4	-0.010159183
62	0x3df1e65b	0.11811515
63	0x3da06c83	0.07833197
64	0xbdf6f2ed	-0.12058053
65	0x3d8857ae	0.066573486
66	0xbca86269	-0.020554738
67	0xbdbedd48	-0.0931955
68	0xbdbb755a	-0.091532424
69	0x3dbcd9b1	0.09221209
70	0xbd9ed707	-0.07755857
71	0xbcee5100	-0.029091358
72	0x3cfae453	0.030626452
73	0x3dff2718	0.124586284
74	0x3e0ffce7	0.14061318
75	0x3d82115e	0.06350969
76	0xbd1f297d	-0.038857926
77	0xbe06e73b	-0.13174145
78	0xbdb42a97	-0.08797186
79	0x3dc9237e	0.09821223
80	0x3db10cc4	0.08645013
81	0xbda1f196	-0.07907407
82	0xbdb8689e	-0.09004329
83	0x3d9c28f0	0.07624996
84	0x3dc98882	0.0984049
85	0xbe048df9	-0.12944783
86	0xbdf441b0	-0.119265914
87	0x3d2dd52f	0.042439636
88	0xbc39ebb7	-0.011347703
89	0xbdb453bb	-0.08805033
90	0xbddeae73	-0.10873117
91	0xbe0d2bc5	-0.13786228
92	0x3dee32d0	0.116307855
93	0x3df6b29c	0.12045786
94	0xbde6dcbd	-0.11272571
95	0xbdfe8f89	-0.12429721
96	0x3d87006d	0.06591878
97	0xbd787075	-0.060654122
98	0xbd30309c	-0.043015108
99	0xbe0906bf	-0.1338148

fc_out.bias f4 [2]
0	0x39339f52	0.00017130122
1	0xbcc25340	-0.023721337

exp_avg f4 [300, 2]
0	0x3999c5a3	0.00029329685
1	0x39b1c9c2	0.00033910392
2	0x36175aac	2.2553531e-06
3	0x368c9180	4.1892636e-06
4	0x3a2d36f8	0.0006607617
5	0x3a2fc37f	0.00067048514
6	0x3a15eece	0.00057194836
7	0x3a23b6df	0.00062452065
8	0x39ecec91	0.00045189683
9	0x39e6a8cc	0.00043994782
10	0x39a272ca	0.00030984572
11	0x39b10e06	0.0003377052
12	0x3a6985f9	0.0008908208
13	0x3a7efca8	0.000972698
14	0x3a3d39f0	0.0007218411
15	0x3a3e6e2c	0.00072643417
16	0x3a86965d	0.00102682
17	0x3a95cf5e	0.0011429598
18	0x3a3ddd52	0.0007242757
19	0x3a47a39d	0.0007615628
20	0x3a2529f2	0.0006300501
21	0x3a2611ef	0.000633507
22	0x3693b21d	4.4016765e-06
23	0xb6df40b5	-6.653451e-06
24	0x39f328cf	0.00046378977
25	0x3a091696	0.0005229501
26	0x3989847a	0.0002622938
27	0x398452b8	0.00025238632
28	0x3953a85e	0.0002018525
29	0x3969e5d9	0.00022306236
30	0xb9125d63	-0.00013958434
31	0xb93468db	-0.000172052
32	0x38d7c644	0.00010288929
33	0x38b689d2	8.704107e-05
34	0x395d0866	0.00021079331
35	0x395a1c3e	0.00020800621
36	0x3840983c	4.5918146e-05
37	0x38210347	3.8388443e-05
38	0x3a61c042	0.00086117175
39	0x3a84d749	0.0010134961
40	0x3a4687c1	0.00075733295
41	0x3a5375ff	0.0008066594
42	0x3a0b8350	0.0005321996
43	0x3a13740f	0.0005624899
44	0x3a34a338	0.00068907766
45	0x3a3e145b	0.0007250958
46	0x37f0ef08	2.8721537e-05
47	0x380a1026	3.2916803e-05
48	0x3a5cc2be	0.0008421353
49	0x3a757186	0.00093629246
50	0x39c9a026	0.00038457027
51	0x39c9f3a4	0.00038519234
52	0xb848cf4e	-4.7876783e-05
53	0xb88c8a86	-6.701522e-05
54	0x391291b5	0.00013977925
55	0x392fe103	0.00016773124
56	0x39f92a57	0.00047524527
57	0x39feb064	0.00048578077
58	0x388f422d	6.8310976e-05
59	0x38a8fc07	8.057808e-05
60	0x39dc68af	0.00042039665
61	0x39de63bd	0.0004241745
62	0x3a68934a	0.00088720454
63	0x3a7c8040	0.0009632148
64	0x399766fd	0.00028877697
65	0x39bae20f	0.0003564511
66	0x3a0d469b	0.0005389244
67	0x3a19a04e	0.0005860374
68	0x3a634b8d	0.0008670621
69	0x3a8065ca	0.000979596
70	0x393b8d1f	0.00017886281
71	0x394be78d	0.00019445848
72	0xb7c2baf8	-2.3213666e-05
73	0xb7c4471b	-2.3398132e-05
74	0x3780ab9f	1.5338706e-05
75	0x37a58961	1.9733505e-05
76	0x39ada91c	0.00033123128
77	0x39b0eb35	0.0003374458
78	0x39874dec	0.00025807263
79	0x39987524	0.00029078976
80	0x37dbd7b8	2.6207286e-05
81	0x37b33962	2.1365184e-05
82	0x39c59d2d	0.00037691873
83	0x39c258eb	0.00037068813
84	0x3a03ac57	0.0005022934
85	0x3a1213d8	0.0005572415
86	0x38aa7112	8.127293e-05
87	0x38ea718b	0.000111791385
88	0x38062955	3.1986583e-05
89	0x3844fa56	4.6963185e-05
90	0x3729159c	1.0078216e-05
91	0x37c20e78	2.313334e-05
92	0x3a20a3a4	0.00061279
93	0x3a2d9740	0.0006621964
94	0x39d5111a	0.00040639268
95	0x39e02709	0.00042753693
96	0x3a5cd0ec	0.0008423466
97	0x3a804dc3	0.00097888
98	0x39cae12b	0.00038696206
99	0x39d6631b	0.000408911
100	0x3a35e38f	0.0006938511
101	0x3a3d1069	0.0007212223
102	0x39b08792	0.00033670344
103	0x39c01e9c	0.000366439
104	0x39bedd10	0.00036404328
105	0x39dceb27	0.00042136872
106	0x3a378a45	0.00070015
107	0x3a4899a6	0.000765229
108	0x39eaf681	0.00044815618
109	0x39ea6e3b	0.00044714086
110	0x3a659fe5	0.0008759483
111	0x3a752b6f	0.00093524804
112	0xb86b1efa	-5.6057215e-05
113	0xb82d368f	-4.1297226e-05
114	0x3a1b99c2	0.00059356925
115	0x3a2aace2	0.0006510747
116	0x3a28e869	0.0006443323
117	0x3a32724f	0.00068071944
118	0x3a07fc23	0.00051874126
119	0x3a0d4969	0.0005389662
120	0xb6cfdcaf	-6.1947717e-06
121	0xb74138d9	-1.1516932e-05
122	0xb6ee7ef7	-7.1077334e-06
123	0x36a9bef6	5.0588233e-06
124	0x3a0fcb41	0.0005485304
125	0x3a0b7044	0.0005319158
126	0x3885a2fa	6.372291e-05
127	0x3884c374	6.3306565e-05
128	0xb9413c80	-0.00018428452
129	0xb9277330	-0.00015969272
130	0x39583861	0.00020620368
131	0x3960173d	0.00021370962
132	0x39dd91b6	0.00042260968
133	0x39f96995	0.00047571646
134	0x3a665a79	0.0008787285
135	0x3a818e6b	0.0009884363
136	0x3a23c73d	0.00062476454
137	0x3a2b5b7d	0.0006536765
138	0x3a20c092	0.0006132211
139	0x3a3333f4	0.000683605
140	0x3a09f2a7	0.0005262293
141	0x3a0c29e0	0.0005346816
142	0x391436c6	0.00014134785
143	0x39291aa1	0.00016127016
144	0x3a5c1c9a	0.0008396596
145	0x3a6d8ea2	0.00090620865
146	0x380fc20f	3.4274588e-05
147	0x3814ad59	3.5447392e-05
148	0xb779b299	-1.488314e-05
149	0xb7241aee	-9.781432e-06
150	0x3982a7fd	0.00024920693
151	0x398c55ed	0.000267669
152	0x3a5407b0	0.0008088304
153	0x3a56c300	0.00081925094
154	0x39fd288d	0.00048286133
155	0x39efb703	0.00045721987
156	0x38335d6d	4.2763935e-05
157	0x38391ca1	4.41341e-05
158	0x397d2a72	0.00024143772
159	0x39895d6d	0.00026200284
160	0x3a17e1fd	0.0005793868
161	0x3a2a87b8	0.0006505209
162	0x39126315	0.00013960556
163	0x391f6361	0.00015200443
164	0x39d0364d	0.0003971331
165	0x39cc547c	0.00038972858
166	0x397676ad	0.00023504598
167	0x397a3588	0.000238618
168	0x3a7bb195	0.0009601352
169	0x3a85bab4	0.0010202737
170	0x3a931ebc	0.001122437
171	0x3a9d7b1d	0.001201484
172	0x3766f672	1.3766448e-05
173	0x37d8a08b	2.5823965e-05
174	0x38c4812a	9.370067e-05
175	0x38e51009	0.00010922558
176	0x387dd6d7	6.0519986e-05
177	0x38c74244	9.5014024e-05
178	0xb828e4cc	-4.0267405e-05
179	0xb82d18f0	-4.126964e-05
180	0x37411a34	1.1509797e-05
181	0x3720912f	9.570546e-06
182	0x38723ca1	5.775376e-05
183	0x38804a5e	6.1173676e-05
184	0x3a023caa	0.0004968146
185	0x3a18641a	0.0005813256
186	0x3a0c29fb	0.0005346832
187	0x39fc20d9	0.0004808966
188	0x39db73da	0.0004185725
189	0x39e02c7d	0.00042757756
190	0xb82887a5	-4.018065e-05
191	0xb8337c04	-4.2792424e-05
192	0x3a06e8a5	0.0005146361
193	0x3a12a988	0.000559472
194	0x39b4c4a1	0.00034478775
195	0x39dfa005	0.00042653098
196	0x39c0ad34	0.0003675014
197	0x39d2bee9	0.0004019656
198	0x39a79ffa	0.00031971914
199	0x39d3d905	0.00040406748
200	0xb893b20f	-7.042672e-05
201	0xb8ad6b82	-8.269308e-05
202	0xb6ef5f15	-7.133824e-06
203	0xb6ddc77a	-6.6095354e-06
204	0xb8b312c3	-8.53888e-05
205	0xb8b8d629	-8.813694e-05
206	0xb8b7219d	-8.732381e-05
207	0xb8c67859	-9.463792e-05
208	0xb88c1195	-6.678995e-05
209	0xb896814a	-7.176639e-05
210	0xb900a9dd	-0.0001227031
211	0xb90cb948	-0.00013420463
212	0xb92b05bd	-0.00016309968
213	0xb935a28c	-0.00017322059
214	0xb91e6a4f	-0.00015107657
215	0xb9279b08	-0.00015984115
216	0xb952252b	-0.00020041007
217	0xb9658b86	-0.00021891118
218	0xb88a7d30	-6.603671e-05
219	0xb8947963	-7.0798e-05
220	0xb9481c3d	-0.00019084006
221	0xb94d02a8	-0.00019551313
222	0xb783ece9	-1.5726737e-05
223	0xb783356a	-1.564129e-05
224	0xb8aa6de6	-8.126702e-05
225	0xb8b87ab3	-8.796658e-05
226	0xb8768bcc	-5.8781166e-05
227	0xb873d81a	-5.8136975e-05
228	0xb897f28b	-7.245418e-05
229	0xb89d0180	-7.486623e-05
230	0xb6dce1ed	-6.582812e-06
231	0xb6b592f4	-5.411328e-06
232	0xb88cb6b4	-6.709751e-05
233	0xb88c652f	-6.694567e-05
234	0xb8834cbd	-6.2608604e-05
235	0xb87da872	-6.0476777e-05
236	0xb6ac3b6b	-5.1329166e-06
237	0xb647c9e0	-2.9770817e-06
238	0xb9383fa2	-0.00017571312
239	0xb94be3c0	-0.00019444432
240	0xb92c25a2	-0.00016417218
241	0xb934ca25	-0.00017241442
242	0xb8fb89b7	-0.00011994264
243	0xb90c106b	-0.00013357557
244	0xb8b267b4	-8.5070176e-05
245	0xb8c1a622	-9.233902e-05
246	0x3673128b	3.6220615e-06
247	0x368fd91a	4.287006e-06
248	0xb9901311	-0.00027480026
249	0xb99da930	-0.00030071428
250	0xb91f9ae7	-0.00015221127
251	0xb9255d9e	-0.00015770501
252	0x3608fb7b	2.041196e-06
253	0x36440165	2.9207088e-06
254	0xb83a18b8	-4.4368877e-05
255	0xb8533ea0	-5.0364644e-05
