dagster_ais/mlruns/0/c6c1ee410b844ead9c148d37e7799501/artifacts/prediction_model/data/model.pth (torch, 157327 bytes, 8 tensors)

weight_ih_l0 f4 [300, 2]
00000000: 60fc 153d 3303 373c 17d7 7e3d f309 f3bc
00000010: b370 213d f878 9a3d b298 b5bd 6370 89bd
00000020: 1afc 543d 137d 973c c719 dd3c 8072 2d3d
00000030: 1ab4 f93c 3379 a03a c09c 1bbc f249 87bd
00000040: cacc 643d 7adc ac3c dd49 55bd 8d66 cb3c
00000050: b766 953d da9f 613d b302 4a3d 3be1 993d
00000060: ad6d 8ebd 9bcd c63d 8232 af3d a8bc a4bd
00000070: 3ab9 c83c 33e9 923c 905e 3ebd 4aa0 7dbd
00000080: 98af 9bbd 87b9 4bbd d0a2 04bd 4d5a 9ebb
00000090: 1aac 983c b867 863d a04e 0fbd b340 2d3c
000000a0: 5d4f 19bd 7abb 833d 08d4 a03d 4f0d a43d
000000b0: 3d0d aa3d c743 f33c 38ae c13d 8a8b 7e3d
000000c0: 8d41 233c 604b ddbc 6819 86bd 5b1a b2bd
000000d0: e758 663c f238 b3bd 6749 30bc bf92 9ebd
000000e0: 4da8 10bd 0af3 0ebd e0ab b33c 40b1 1d3d
000000f0: b57b ab3d 6060 c23d fa76 a4bc d57d 873d
00000100: c7e1 993d 77df a5bd a05f c4bc 7350 4cbc
00000110: 05c6 cbbd 957c 93bd 37d9 65bd fa0f 0ebd
00000120: 9bb9 853d 4d4b b93c 43ec 60bd 4d56 cd3b
00000130: 90aa 093d 57f9 743d 5a35 2d3c 0a45 b7bd
00000140: 989a 86bd 0397 85bd 4d6a 59bc 00e0 2dbb
00000150: 7a48 08bd 4d9d abbc c74e f9bc f3d7 49bd
00000160: f70c 87bd 402c 8c3c 98a5 9f3d 605c 9bbc
00000170: daea 8cbd 3333 8cba da02 2fbd 8001 e93b
00000180: 33e2 da3c 2018 bd3c 67bf b53c 5369 9c3d
00000190: dac0 b13c 735d a93d f322 af3c dd9f 5c3d
000001a0: d75e 863d 873c 423d 5a41 eebc 9ad7 bd3a
000001b0: 2db8 8d3c 2d90 713d ca84 4a3d e354 b2bd
000001c0: 8d7c c4bd cd20 c13a ca40 79bd 4da5 42bc
000001d0: 3af4 e63c b326 993c 2d66 403d b300 853b
000001e0: 9a6e e43c 33e9 91bc 1d37 59bd cf9b c23d
000001f0: 7d9c 26bd 8591 8e3d 1790 6b3d b0e9 98bd
00000200: 6749 c8bd 9742 bebd 80e9 ab3c 131c b93c
00000210: 9a68 333b b09d 273d 0d2f 323d 6047 bcbd
00000220: 4df0 7a3c d5b0 c43d a3fc 7cbd 1b24 97bd
00000230: 4046 5b3c f2f1 be3d da58 c0bc c3ce 513d
00000240: 5394 aabc 930f f9bc c034 a23c fa10 d0bc
00000250: 63ab af3d cde5 bd3d 2a1b 8fbd 8075 d13b
00000260: e7bf 3a3d 4dbe 33bd d7c4 763d 9335 903c
00000270: 4793 863d a25a a23d 77b2 033d 80c1 0ebc
00000280: c7e4 0f3d 70e7 acbd 9882 94bd 230a 643d
00000290: 33a5 943d f7d1 babd a233 853d 2bb2 b13d
000002a0: e0f0 ccbc 9a80 a7bc 1fe8 883d e713 c5bb
000002b0: dd7d 30bd d037 6e3d 274e 21bd 3322 0f3c
000002c0: 0519 843d 85f3 ac3d 9a19 373c 5d55 6b3d
000002d0: cd28 2b3a cf95 84bd cd20 0d3a d78f 773d
000002e0: 9acd 3b3d baf8 9bbd 0a55 403d 7dd9 a2bd
000002f0: db4c b53d e713 8dbb 0a35 983d da54 c73c
00000300: 072c 983c 108b 403d 6a82 413d 8a15 47bd
00000310: 9a96 cb3b 9d54 5c3d 478b aabd f73d 3cbd
00000320: 2358 b93d 33dd a4bb bafd 2f3d c031 1e3c
00000330: 9a41 f03b 4d0d 263d 5de8 54bd 000d a5bc
00000340: fa03 803c a807 96bd 2707 a73d c052 613d
00000350: 9340 963d 27d6 23bc 8554 b7bd 8d4b 72bd
00000360: 7f03 afbd 001b 12bb b3dd 5cbd 581d a3bd
00000370: cd75 debb 3a82 a53c d2e0 b6bd 2d34 b43d
00000380: 8a97 c23d 3299 b3bd b392 883c 338f 0f3a
00000390: 1a46 023d 0a94 4e3d 4dd0 533d 5380 c53c
000003a0: 4838 c0bd a325 3fbd 008a 453c 9dfb 663d
000003b0: 006c afbc 00fb 2c3d 909a 50bd 73a5 d03c
000003c0: 7d43 1bbd 93fa 5dbd bf53 a7bd 0041 78bb
000003d0: e7a7 efbb ba26 da3c 5a48 a0bd 6802 adbd
000003e0: 9099 5b3d 8d7b 9a3c 1a77 81bc 2d2d e5bc
000003f0: dabe 333c b344 23bd c7d5 ffbc 7723 79bd
0.036617637 0.011170196 0.062216844 -0.02966783 0.03941412 0.07542604 -0.08867015 -0.06710889
0.051998235 0.018492257 0.02698983 0.042345524 0.030481387 0.0012243151 -0.009497821 -0.06605901
0.055859365 0.021101225 -0.052072395 0.024829173 0.07294982 0.055084087 0.04931898 0.075136624
-0.06954513 0.09707185 0.085545555 -0.08043796 0.024502385 0.017933464 -0.0464769 -0.06192044
-0.07601851 -0.04973748 -0.032381833 -0.004832542 0.018636752 0.065627515 -0.034987092 0.0105745075
-0.037429202 0.06432243 0.07852942 0.08010351 0.08303306 0.029695405 0.09457058 0.062144794
0.009964359 -0.02701348 -0.065478146 -0.08696433 0.014059282 -0.08751096 -0.010759688 -0.07742833
-0.035316754 -0.03489975 0.021932542 0.038499117 0.083732046 0.09491038 -0.020076264 0.066157974
0.07513767 -0.08099263 -0.023971379 -0.012470352 -0.099498786 -0.072014965 -0.056115355 -0.034683205
0.06529542 0.022618914 -0.054912817 0.0062663914 0.033609927 0.0598081 0.010571802 -0.08948715
-0.06572455 -0.06522944 -0.013269973 -0.002653122 -0.033272244 -0.02094903 -0.030433072 -0.04927821
-0.0659427 0.017110944 0.077952564 -0.018964946 -0.06880732 -0.0010696411 -0.04272733 0.0071107745
0.026719188 0.023082793 0.022185994 0.076372765 0.021698404 0.08269777 0.02137897 0.053863395
0.06561058 0.047421005 -0.029083896 0.001448381 0.017299736 0.058975387 0.049443044 -0.08707597
-0.09594069 0.0014734507 -0.060852803 -0.011880231 0.028192628 0.018695211 0.046972442 0.0040589212
0.02788477 -0.017811393 -0.053031076 0.095023744 -0.040676583 0.069613494 0.05751046 -0.07466447
-0.097796254 -0.09290045 0.020985365 0.022596395 0.002737558 0.040921867 0.043501902 -0.09193301
0.015316081 0.096040405 -0.06176437 -0.073799334 0.013383448 0.09323491 -0.023479868 0.051222574
-0.02082268 -0.030402934 0.019800544 -0.02539872 0.08577611 0.09272347 -0.06987603 0.006392181
0.04559317 -0.043882657 0.060246315 0.017603671 0.0657106 0.07927443 0.03215262 -0.008713126
0.03513029 -0.08442581 -0.07251471 0.05567373 0.07258072 -0.09122079 0.06503989 0.08676561
-0.025017202 -0.020447064 0.066848986 -0.0060143354 -0.043088783 0.058158696 -0.039381173 0.008736181
0.064500846 0.08444885 0.0111755375 0.057454456 0.0006529212 -0.06473886 0.0005383611 0.06043991
0.045850374 -0.076158 0.0469561 -0.07951639 0.0885255 -0.004305351 0.074319914 0.024332453
0.018575681 0.04700762 0.047243513 -0.048604526 0.0062130215 0.05379163 -0.08327346 -0.04595753
0.09050014 -0.005031252 0.042966582 0.009655416 0.007332039 0.04054003 -0.05197941 -0.0201478
0.015626896 -0.07325679 0.08155661 0.055010557 0.07336535 -0.009999788 -0.08951668 -0.059154082
-0.08545589 -0.0022293925 -0.053922366 -0.07964581 -0.0067889453 0.020203698 -0.089296 0.08799014
0.0950156 -0.08769454 0.016671514 0.00054763554 0.031805135 0.05043415 0.051712323 0.024109041
-0.09385735 -0.046666753 0.012056828 0.0563923 -0.021413803 0.04223156 -0.050928652 0.025469517
-0.03790616 -0.054194044 -0.0817027 -0.003788054 -0.0073137167 0.026629794 -0.078263 -0.084477246
0.053613245 0.018857742 -0.015803862 -0.027975643 0.0109707955 -0.03986044 -0.031229867 -0.060824838

weight_hh_l0 f4 [300, 100]
00000000: 5a23 333c 684a c2bd 7aa3 a63c 1a1d ec3b
00000010: ea70 8abd b0fa 9ebd 4d82 783d 2d8c 14bd
00000020: 1aae 3a3c 9705 62bd 00fe ba3a 3bf5 8abd
00000030: 6339 7fbd 23a8 61bd 2a1a 8e3d 8752 373d
00000040: 6d9d 97bd d344 563d 7387 80bc 822a bb3d
00000050: e7db 973b 2d1a 903d 6716 90bd 4d04 503d
00000060: 3a08 973d b397 9a3c 8d48 7c3d 0d80 8bbc
00000070: 47ad 34bd 9a18 0cbb dd92 6b3d 6054 70bd
00000080: 7d6f 1a3d 1d7e 78bd 1f94 bf3d b354 883b
00000090: 539c 4ebd ea02 43bd 7056 923d db7c ad3d
000000a0: 3d6b 11bd e7bd 81bb 9a4a 96bb 9d36 afbd
000000b0: 4bb1 863d 3dd2 52bd 88bc 8b3d 37b1 a3bd
000000c0: a737 8b3c d38c 003d d8e2 9e3d f85a a0bd
000000d0: 1af8 bf3d 9aaf d7bc 333e 8fbb f091 b83d
000000e0: 4d1f e83b cd8a b1bc 35d1 8b3d 450e c7bd
000000f0: 5a43 d83c 0704 d3bc 5b7e a8bd 4f57 9a3d
00000100: 5ae6 a1bc 4f0c 8fbd 9ab9 aa3b 00c6 adbd
00000110: 4a0a 40bd 9349 2dbd 4d71 12bc 40ca 5e3c
00000120: 0a97 af3d bb1d c6bd 0bca 873d 0776 fcbc
00000130: a07b 8a3d 95d5 c3bd bb20 b03d e7fc 093c
00000140: 6d80 36bd 2533 c33d f37e 49bc 1a2e c13b
00000150: cd39 d3bb 8d33 2cbc 185d cabd e236 a63d
00000160: 7dc2 1c3d e7c4 c93c 9a81 aa3c aff5 c1bd
00000170: 5aaf 9c3c 8aea 2c3d cd5c c0b9 aa5b 37bd
00000180: 033e 933d 67c3 a63c 4d88 e2bb c3e1 72bd
00000190: b394 f53c d22c b9bd f521 c13d 78c5 b9bd
000001a0: ba14 41bd 0366 58bd 7071 7fbd 83d1 b23d
000001b0: bd8a b73d 6a75 15bd 0037 b43d 805c 74bd
000001c0: 6b26 963d 62b1 bc3d ade2 c5bc 9a35 a23c
000001d0: 8d4c 1cbd d360 d23c b747 b2bd ea12 2bbd
000001e0: da55 c83c ca32 aa3d ed05 78bd c05c 6c3c
000001f0: f345 593d ad75 a9bc 9a0b deba 63d7 1fbd
00000200: dae2 bfbd 3fa6 cabd 5da3 8f3d 072e 4ebd
00000210: 135b 9d3d f551 953d 0702 263d 88c2 8dbd
00000220: b04d 0b3d ba26 7fbd cd34 9e3c adcb d23c
00000230: 70b9 2f3d bacd 113d 1873 8b3d f3f5 213d
00000240: 7d96 c83d 503e 44bd 13ac d53c c79d 3ebd
00000250: 70b0 08bd 3ac9 653d 179e c0bd 471f ae3d
00000260: 4328 043d 98f8 cbbd cdac 8f3b 307e 793d
00000270: 931c 8c3d 330a e63b 43aa 33bd 9387 043d
00000280: 786a b73d 708d 9ebd 9528 b93d 3de8 863d
00000290: f5d7 903d 0d13 6abc a293 bdbd f78d 4dbd
000002a0: 9845 93bd 4dca 83bc 0aaf 553d 404b 1f3c
000002b0: 6a09 bb3d b3fc 2cbd 6d48 b2bd 62bd bfbd
000002c0: 3d41 39bd d0b4 05bd 272b a7bd 67dd b63d
000002d0: 4b68 c43d d00f 363d a59a 8e3d 078f 7bbd
000002e0: 0095 96bc 4254 8f3d 67c3 003d 7255 913d
000002f0: 9a39 0abb 9d76 4f3d fb5c b7bd 003b 3f3c
00000300: 2720 b23c 47b7 cbbd 209e a3bd 8d34 52bd
00000310: d393 0f3d 0876 be3d ca11 4fbd 807b c03b
00000320: 5a89 683c 8078 643c 6029 813c 7759 933d
00000330: 3316 68bc 7084 b9bd 5009 2a3d 1a51 3cbc
00000340: 50f7 4d3d b869 c8bd ddef 5abd 708b a4bd
00000350: 3a4f 88bd dd2f 16bd 6abb 723d 803d 883b
00000360: dae0 cdbc a71d 923c 0081 06bb 476d febc
00000370: 13f6 07bd a7df babc 7b0a af3d babb 863d
00000380: b577 a2bd 77c1 78bd 4a07 27bd fa07 3c3d
00000390: 4272 b93d d346 79bd 9344 9b3c 2d8d 3b3d
000003a0: 004b 1bbd cd34 b2ba b360 8fbd 4d20 ff3c
000003b0: ad83 233d ed8c d9bc bf89 a8bd 77d4 96bd
000003c0: bb1d be3d 3a72 c93c 536b 4f3d 4055 04bd
000003d0: 072d 93bc fdbb 203d 170d 153d 335f 1ebb
000003e0: 60dd 1a3d 20bf a13d 009e bcbc aaff 9c3d
000003f0: 9ac3 193c b78e a6bd 67ef 85bb 00f6 113d
0.010933721 -0.09486848 0.020341624 0.0072056176 -0.06759818 -0.077626586 0.06067114 -0.036266495
0.011394048 -0.055181112 0.0014266372 -0.06785055 -0.062310588 -0.05509199 0.06938584 0.04475644
-0.074030735 0.05231173 -0.015689587 0.09138967 0.0046343687 0.07036243 -0.07035523 0.05078535
0.07374616 0.018871164 0.061592627 -0.017028833 -0.044110563 -0.0021376968 0.057513107 -0.058674216
0.03770398 -0.060667146 0.09354424 0.0041604876 -0.05044205 -0.0476102 0.07145393 0.0847108
-0.03550266 -0.0039594057 -0.00458653 -0.085553385 0.06576785 -0.05147003 0.06823069 -0.079927854
0.01699431 0.0313843 0.07758111 -0.07829851 0.093734935 -0.02632885 -0.0043714284 0.0901221
0.0070838095 -0.02167263 0.068270124 -0.097195186 0.026399303 -0.025758756 -0.082272254 0.07536184
-0.01976316 -0.069847696 0.0052101137 -0.08485031 -0.046884812 -0.042306494 -0.008938146 0.013598025
0.0857373 -0.096736394 0.066303335 -0.030817999 0.06761861 -0.09562222 0.08599993 0.008422113
-0.04455607 0.095312394 -0.012298333 0.0058953883 -0.0064460994 -0.010510338 -0.098810375 0.08115937
0.038271416 0.024630023 0.020813752 -0.094706886 0.019126583 0.04221586 -0.00036690236 -0.044765152
0.07189562 0.020356847 -0.006913221 -0.059297334 0.029978132 -0.09041752 0.09430305 -0.09070867
-0.047138907 -0.05283166 -0.06236404 0.087313674 0.08962009 -0.036488928 0.08799553 -0.059658527
0.073315464 0.092135206 -0.024155939 0.01980095 -0.038158942 0.025680935 -0.08705085 -0.041766085
0.024455 0.083104685 -0.060552526 0.01442641 0.053045224 -0.020685995 -0.0016940713 -0.03902377
-0.093694404 -0.0989499 0.07013581 -0.050336864 0.07683387 0.07291023 0.040529277 -0.069218695
0.034009635 -0.062292792 0.019312287 0.025731886 0.042901456 0.035596587 0.06809062 0.039541196
0.09794328 -0.04791099 0.026083028 -0.046537187 -0.03337139 0.056100108 -0.09405153 0.085020594
0.03226496 -0.09959525 0.004384613 0.060911357 0.068413876 0.007020259 -0.043863546 0.032355856
0.08955854 -0.07741821 0.090409435 0.06587265 0.070724405 -0.014286769 -0.09256674 -0.050184216
-0.07191008 -0.016087675 0.052168883 0.009722531 0.09132655 -0.04223318 -0.0870522 -0.09362294
-0.04522823 -0.03264314 -0.081625275 0.08928948 0.09590205 0.044448674 0.0696309 -0.0614157
-0.018381596 0.06998493 0.03143635 0.070963755 -0.0021091462 0.050650228 -0.089532815 0.011671782
0.021743847 -0.09947067 -0.07989144 -0.051319648 0.035053086 0.092998564 -0.050554074 0.0058740973
0.014192903 0.013944745 0.0157668 0.071947984 -0.014165449 -0.090584636 0.041512787 -0.0114939455
0.050284684 -0.09785789 -0.053451408 -0.08034408 -0.06655736 -0.03666674 0.059260763 0.004157722
-0.025131632 0.017836405 -0.0020523667 -0.031057967 -0.03319366 -0.022811724 0.08546921 0.06578775
-0.079329886 -0.060731377 -0.040778436 0.045906045 0.09054996 -0.06085856 0.018953597 0.045788933
-0.037913322 -0.0013596058 -0.07000866 0.031143332 0.039920498 -0.026556456 -0.08229398 -0.07364743
0.092830144 0.0245906 0.05063946 -0.032307863 -0.017965807 0.03924178 0.036389437 -0.002416563
0.037808776 0.07897782 -0.023024559 0.076659516 0.009385014 -0.081326894 -0.004087377 0.035634995

bias_ih_l0 f4 [300]
00000000: e044 a33c c0b2 fb3c add7 793d 437f 903d
00000010: 27e7 703c 7392 bfbd 1a76 6f3d b7ac 6ebd
00000020: cdb1 f5bb ebec 8dbd 23b3 38bd 07ab 8e3d
00000030: a73a 0d3d 37da 013d ea48 5b3d da89 efbc
00000040: 2d9d 5ebd 08fa a5bd d548 863d b7eb 11bd
00000050: cd47 21bc 4741 4f3d a201 94bd 3dfa 5fbd
00000060: 9aa7 a5bc 00ae 38bc 8a47 2cbd 529b c5bd
00000070: eddd b2bd ca94 67bd e0ef 43bd b3b4 423d
00000080: db65 9abd d353 033d 0522 c23d cde7 50bd
00000090: 73a9 bebc eff6 b4bd cd06 3ebc cd56 203d
000000a0: 25f7 ba3d e399 85bd 7aac 19bd f3ef d23c
000000b0: 1a1a fabb b338 db3b 007c a33c f395 b13d
000000c0: b359 50bd 7f13 8a3d 335a ac3d 0df1 413c
000000d0: 9a20 543c 7a76 023d ed2f 11bd ed5d 06bd
000000e0: f35b 5f3c 63b6 96bd 4de1 47bd b533 b3bd
000000f0: 3df5 66bd ed26 263d 47cd c23c 1dc8 6d3d
00000100: cd6b e5bb ddfd 073d 60a7 fbbc 73c0 a3bc
00000110: fad9 cbbd 8083 853c 03f7 173d b32b c4bd
00000120: 27d6 d0bc ada0 003d 7aa9 8abc 05ae c53d
00000130: 204f 4a3d cfe9 c83d 9af3 7d3b 802e cdbc
00000140: 5adf 10bd c7c9 873c 5d2e 7e3d 82dd 923d
00000150: e035 f73c 4d64 a0bd cb1f 903d 3d34 723d
00000160: 7a8e 3f3d a39d 143d 6dc3 763d 80db d8bb
00000170: c090 b0bc d312 c43c 4dd8 283c 20bf 513d
00000180: 0070 7b3b 775d a33d 0ac9 57bd f037 6b3d
00000190: c096 dcbc 739b a33c a305 613d bab6 82bd
000001a0: faf3 b53d 1336 99bc 9a9f f0ba f302 52bc
000001b0: 7a12 7a3d ed48 19bd 0fed 99bd b398 81bc
000001c0: 9af6 9ebc a008 72bd 87f4 9cbd aded 4bbd
000001d0: 6a57 7bbd 33bf 84bb b33e 3ebc a335 013d
000001e0: 33a7 7abc 729b cabd 835f ae3d f32b 85bc
000001f0: 85f6 ca3d 27ea fc3c b7bf 523d 933e c8bd
00000200: a37b 403d 0be1 813d 4096 ebbc 5ab5 93bc
00000210: b379 babd 3f40 ca3d 1780 553d 474d d53c
00000220: e22e a03d 5a99 c4bc 9bbb 823d 0dc1 ac3c
00000230: 23ee 0ebd 1d72 983d 5aea c0bc 87ed a23c
00000240: a7d2 2ebc 00b4 4bbc 5a9c 903d 8541 9bbd
00000250: 67f2 5d3a 5d34 3c3d bdc4 353d 92ea 973d
00000260: 73a6 65bc 6be5 a63d 5d59 4d3d 0347 b5bd
00000270: 5032 8e3d 9a4f 9a3b 48b0 813d 00f5 033b
00000280: 37ba 363d d3e8 5abd 73a6 4a3d 57e9 4e3d
00000290: 10f0 a7bd 6bbe 8cbd 40a4 39bc 25d0 a8bd
000002a0: 1345 2cbd 6d53 73bd 271b 9bbc e709 b3bc
000002b0: 4a4f 413d bae5 973c 926e b43d 1a78 163c
000002c0: b266 8f3d 3a71 a03d 80a9 893d edbb acbc
000002d0: b3cf 0c3c fad3 fa3c 7347 b23c f0aa 4ebd
000002e0: e7d9 af3d 7d81 0a3d ba5b b83d 3d3b b9bd
000002f0: 2d1b 833c 808d 303d 035a 023d 0dd2 90bc
00000300: 4d62 803c 75a6 8c3d 9a88 2fbb 7a89 8fbc
00000310: cd7f f53b cdb5 0e3c f7b3 0ebd 9a4d 42bb
00000320: 1d6c 223d 007b f1bc fd46 20bd 908f 9fbd
00000330: e369 c23d 6718 8b3c ff7c b33d 2093 23bd
00000340: e226 a9bd f778 243d bd65 bb3d 1370 07bd
00000350: 802c 40bc cdc9 74bc eb9a 97bd 6d38 bebd
00000360: 0062 fdba b371 afbc f044 c0bd e0cc b43c
00000370: 634e 893d 902f 333d 8383 ac3d ea98 bebd
00000380: dd0d bdbd 5fd9 8bbd f393 013c 0058 9639
00000390: f742 ca3d d5fa b9bd c3e5 51bd ddab 6c3d
000003a0: 9066 453d adaa 8c3c ba02 923d 9afc e1bc
000003b0: 5dde 213d 2a09 90bd 1392 7c3d 8b18 b33d
000003c0: 1d8b 54bd 3789 a93d fb2f a7bd a725 22bc
000003d0: fa28 373d 673b fabc 6daf e1bc 8d90 58bd
000003e0: adbc aa3c 736f 30bd 43b8 42bd 6aa3 383d
000003f0: b368 af3d 4753 573d 5de1 ac3d 4030 3bbc
0.019930303 0.030724883 0.0609967 0.07055523 0.0147035485 -0.09354105 0.05846224 -0.058270182
-0.007498002 -0.06929954 -0.045092713 0.069662146 0.034479763 0.031702247 0.053536333 -0.029240537
-0.054349113 -0.0810433 0.0655686 -0.035625186 -0.009843779 0.050599363 -0.07226874 -0.054682005
-0.02022152 -0.011271954 -0.042060412 -0.096487656 -0.08733735 -0.05653838 -0.047836185 0.04753561
-0.07538959 0.032062363 0.09479145 -0.051002312 -0.023274159 -0.08836161 -0.011598301 0.03914528
0.0912917 -0.06523492 -0.037518002 0.025749182 -0.007632506 0.0066901087 0.019956589 0.08671179
-0.050866794 0.06742 0.08415642 0.011837256 0.012947226 0.03185127 -0.035446096 -0.03280442
0.013632762 -0.07359006 -0.048798848 -0.08750097 -0.05638622 0.040564466 0.023779524 0.05805217
-0.0070013762 0.033201087 -0.030719459 -0.019989228 -0.09953685 0.016298056 0.037100803 -0.095786475
-0.02549274 0.031403232 -0.016926516 0.09652332 0.049391866 0.098102205 0.0038749934 -0.025046587
-0.035369255 0.016575707 0.062055934 0.071711555 0.030177057 -0.07831631 0.07037314 0.05913185
0.046766736 0.036283147 0.060244966 -0.0066179633 -0.021553397 0.023934757 0.010305476 0.05120766
0.0038366318 0.079768114 -0.05268196 0.057426393 -0.026927352 0.019971585 0.054937016 -0.063825086
0.088844255 -0.018702542 -0.0018358112 -0.012818086 0.061052777 -0.037423063 -0.075159185 -0.015819883
-0.019404698 -0.059090257 -0.076638274 -0.049787212 -0.06136266 -0.004051113 -0.011611628 0.031545293
-0.015298652 -0.0989293 0.08514311 -0.016256308 0.09910301 0.030873371 0.051452365 -0.0977756
0.04699291 0.06341752 -0.028758168 -0.018030811 -0.091052435 0.09875535 0.05212411 0.026037825
0.07821442 -0.023998905 0.06383439 0.021088148 -0.034895074 0.074436404 -0.023549248 0.019888652
-0.010670341 -0.012433052 0.07061072 -0.07580856 0.0008466602 0.045948375 0.044377077 0.074177876
-0.014016735 0.08149227 0.05013405 -0.08851435 0.0694319 0.0047091963 0.06332451 0.0020135045
0.044611182 -0.053444695 0.049475145 0.0505155 -0.08200085 -0.06872257 -0.011330664 -0.082428254
-0.04205806 -0.059405733 -0.018933846 -0.021855308 0.047194757 0.01854216 0.08810152 0.009183908
0.070020095 0.07834096 0.06721783 -0.021085704 0.008594441 0.030618656 0.021762585 -0.050455987
0.085864834 0.033814896 0.090018705 -0.09044502 0.01600417 0.043103695 0.031824123 -0.017678285
0.015671873 0.06867687 -0.0026784302 -0.017521609 0.0074920417 0.008710337 -0.034839597 -0.0029648305
0.039653886 -0.029477596 -0.0391302 -0.07791054 0.094928525 0.01697941 0.087640755 -0.03993523
-0.082593694 0.040154424 0.091502644 -0.033065867 -0.01172936 -0.014940691 -0.07402595 -0.09288106
-0.0019331574 -0.02141652 -0.09388149 0.022070348 0.06704404 0.04374653 0.08423521 -0.0930651
-0.0923116 -0.068285696 0.007908809 0.00028675795 0.09876054 -0.090810455 -0.05124451 0.05778109
0.048193514 0.017171228 0.07129426 -0.02758627 0.039518703 -0.07032998 0.061662745 0.087449156
-0.05189048 0.08278125 -0.081634484 -0.009896672 0.044716813 -0.030545903 -0.02754947 -0.05287223
0.02084192 -0.043075036 -0.047539007 0.04507772 0.08564892 0.052569654 0.08441422 -0.011425078

bias_hh_l0 f4 [300]
00000000: ea23 a83d 8dd1 273c 9a50 c4bb 828f 903d
00000010: cdc1 56bd 3dc3 aa3d cdea 06bd b513 8a3d
00000020: a3f3 bd3d 27f4 1d3d e725 a7bd 12fc 9a3d
00000030: 8aaf 10bd 7258 bdbd d28f 88bd 5a6e 72bc
00000040: 9359 f63c ad3a 73bd 5b10 c63d 3337 7cba
00000050: 9301 78bd f3a1 c5bc f3fb b7bd 0247 babd
00000060: fac9 c53d 47ea 3ebd 0a0b 92bd 8da6 9f3c
00000070: 4307 2bbd 33b7 4abd b7ad 2ebd f714 0d3d
00000080: 73b3 5bbc f2a9 813d e074 b8bc 001a ac3c
00000090: da28 7fbd c7a6 ca3c aa8d 10bd 922a c4bd
000000a0: bf3b 92bd b34c 2cbd 502b 5ebd 5a2e c6bd
000000b0: cd33 c53c f33e 683d a5a6 bfbd c722 9e3c
000000c0: 529c a53d 476b b1bc 3a76 323d 8d28 043c
000000d0: 5060 3f3d 80a5 de3c 5ae5 453c 2306 c4bd
000000e0: dd5c 833d 6069 b2bd f3ee 22bc 6dd2 2c3d
000000f0: dac4 b0bc 9a5d 35bb 2793 82bc 3a38 b93d
00000100: 086d 9a3d 27a6 0c3c dd4f 70bd 33c7 933b
00000110: 43cf 14bd 2f5e c8bd 00cc e2bc 2f9a b7bd
00000120: 80a7 eabc e78d fbbc 22dc b9bd 3735 77bd
00000130: 5587 ae3d 1f71 c5bd e513 aa3d e7bd 473d
00000140: a00a 6a3d fa30 c2bc 1a39 abbc 4de2 0ebc
00000150: 1241 b2bd 6d6f 93bc 2041 783d ea67 aa3d
00000160: 8a7f adbd 9865 9c3d c096 4bbd 8701 af3c
00000170: c059 95bd 0f6b c7bd bae3 b4bd a32d 8e3d
00000180: e05a 8c3c 6722 76bc 3a70 5cbd 3369 bd3d
00000190: fbba c83d d0bd c0bd c0f7 7c3c 93b9 9b3c
000001a0: 8a6c 5fbd 3a45 893c b220 b3bd cfa4 ca3d
000001b0: d7e6 8abd f79d 4fbd 4d02 44bc 3a6a 003d
000001c0: 30bf 733d 3fc5 873d 40a1 2fbd 7a0f c03d
000001d0: 0a43 11bd b30f a1bc cdd0 71bd 271d c7bd
000001e0: cdb3 223b f244 8a3d 9fc2 b23d 424e afbd
000001f0: ad81 ec3c b06d 7a3d 0d1d d8bc 5bda b43d
00000200: 7a45 833c d3b9 b03c 43fb a1bd 98ca c23d
00000210: 08fa 8d3d da03 b93d af4e 9b3d 3341 8cba
00000220: c828 853d 33ce 693c 5b67 cb3d f308 083c
00000230: 50c4 833d 3a21 ad3c f06a bcbd f3d3 9fbd
00000240: 9dc2 a73d 4d3f debc 00bf fabb 105d b63d
00000250: 33d3 dabb 1f38 bfbd 77b9 4d3d dad3 53bc
00000260: ea6e 193d 1390 b83d a3ac 213d b792 cc3d
00000270: 8db6 313c 5a4c 333d a834 88bd 3372 57bc
00000280: a79a c33d 20e1 a2bd aa9c 043d 4001 1bbc
00000290: b76f 833d ba45 b8bc 5a37 64bc 002c 723b
000002a0: 13ac 99bd 1ad5 8d3b 2d9e 23bd 1d19 21bd
000002b0: fab4 4d3d 58ba bdbd 0f94 9b3d 43fc 2c3d
000002c0: fa37 c73d 673b 43bd 13b0 9f3c b35e 973d
000002d0: 9af7 ab3d bd20 07bd 326e c23d 7a74 613d
000002e0: ea04 893d ff7c 923d 4731 20bd 888b 853d
000002f0: e7d0 c63c f012 153d 17da 4cbd f059 183d
00000300: 872f 9ebc c7e9 c2bc 78ba a9bd a309 b13d
00000310: da12 f73c e296 b9bd 7b02 8cbd 00ef 863c
00000320: 00d2 e0bb 9d04 69bd a853 84bd 1fe9 a23d
00000330: 67bf bc3d 9000 233d ba4d ef3c cd4a 133c
00000340: 804e 3dbd 6799 c03b e71c 663d dfd2 89bd
00000350: f3e1 ef3c 5039 0c3d 271d 7dbc d700 96bd
00000360: 3f1e ba3d 1028 c33d 5a75 3cbd adb2 7ebd
00000370: 6deb 2bbd 0a1c 163d 15cb afbd 4d1a a73c
00000380: dd43 893d fdcc 11bd 731c 2abd 33fd a03d
00000390: 4d57 d3bb ad3d f4bc 3acd aa3d 42d1 b73d
000003a0: 7726 b3bd 6831 acbd adbf e73c 13f4 afbc
000003b0: 67d6 83b9 f391 0f3d dda8 39bd 3acc 133d
000003c0: 6f86 a63d 87b3 53bd a0e1 853c cdf2 ae3b
000003d0: c71e 8abc 501c 63bd e06f 80bc edd9 2dbd
000003e0: 1ae6 0fbd 13d3 ed3c 9b26 a83d a855 a83d
000003f0: cd98 f2bc 53dd 1bbd 4050 683d bacc 183d
0.08209975 0.010242832 -0.005991054 0.07058622 -0.052430917 0.0833802 -0.032938767 0.0674204
0.09274986 0.03856292 -0.08161526 0.0756761 -0.035323657 -0.09245385 -0.066680565 -0.014796818
0.03007201 -0.05938213 0.09671088 -0.00096212624 -0.060548376 -0.024125075 -0.089836024 -0.09095575
0.096576646 -0.046610143 -0.07131012 0.019488597 -0.041754972 -0.04949112 -0.042646136 0.03444382
-0.013409483 0.063312426 -0.022516668 0.021008492 -0.06229482 0.024737729 -0.03529135 -0.09578432
-0.07140302 -0.042065334 -0.054240525 -0.096768096 0.024072552 0.056700658 -0.09357957 0.019303693
0.08086456 -0.0216576 0.04356978 0.008066309 0.04672271 0.027178526 0.012078607 -0.09571483
0.06414197 -0.08711505 -0.009944665 0.042192865 -0.021578241 -0.00276742 -0.015939308 0.090439275
0.07540327 0.008584536 -0.058669914 0.0045098304 -0.036330473 -0.09783589 -0.027685165 -0.08964955
-0.028644323 -0.030707313 -0.0907519 -0.060353484 0.08521906 -0.09640717 0.08304576 0.04876509
0.05713904 -0.023704994 -0.020901252 -0.0087209465 -0.087038174 -0.017997468 0.060608983 0.08320601
-0.08471592 0.07636565 -0.049704313 0.021363033 -0.07292509 -0.09737217 -0.08832498 0.06942298
0.017133176 -0.015022851 -0.053817965 0.09248581 0.09801289 -0.09411204 0.015439928 0.019009387
-0.05454687 0.016756643 -0.087464705 0.09894716 -0.067823105 -0.050687756 -0.011963439 0.031351306
0.059508502 0.066294186 -0.04287839 0.09377952 -0.035464324 -0.019660806 -0.05903702 -0.09722357
0.0024826408 0.067514315 0.08728527 -0.08559848 0.028870428 0.061139762 -0.02638104 0.088307105
0.01602434 0.021572983 -0.079092525 0.09511298 0.06932455 0.09033938 0.07583367 -0.0010700583
0.06501919 0.014270353 0.09931823 0.008302915 0.06433928 0.021134008 -0.09200084 -0.07804098
0.081914164 -0.027129794 -0.0076521635 0.08904469 -0.006678009 -0.09336876 0.0502257 -0.012928927
0.03745929 0.09011855 0.03947128 0.09988921 0.010846746 0.043773986 -0.066506684 -0.013149786
0.09550982 -0.079530954 0.03237597 -0.009460747 0.06417792 -0.022494186 -0.0139292125 0.0036952496
-0.07503524 0.004328382 -0.03994577 -0.03933059 0.05022142 -0.09264058 0.07596599 0.042232763
0.097274736 -0.047664072 0.019493138 0.07391109 0.083968356 -0.032990206 0.09493674 0.05504272
0.066903904 0.07152747 -0.039109495 0.06520754 0.024269534 0.036395013 -0.050012674 0.037195146
-0.019309772 -0.023793114 -0.08287519 0.08644416 0.030160356 -0.09061982 -0.068364106 0.016471386
-0.0068609715 -0.056889165 -0.06461269 0.079546206 0.092161946 0.03979546 0.029211868 0.008990002
-0.04621744 0.005877662 0.056179907 -0.067296736 0.029282546 0.034234345 -0.015448845 -0.07324379
0.090878 0.09529126 -0.046010353 -0.062182117 -0.041972566 0.036647834 -0.08583657 0.020398283
0.06702397 -0.035595883 -0.041531038 0.07860794 -0.006449616 -0.029814566 0.08339925 0.0897546
-0.08747571 -0.08407861 0.02828964 -0.021478688 -0.0002514601 0.035051297 -0.045327056 0.036083438
0.0813111 -0.051684882 0.016342938 0.0053390027 -0.016860379 -0.055446923 -0.015678346 -0.04244416
-0.03513155 0.029031312 0.082104884 0.08219463 -0.029613877 -0.038052868 0.056717157 0.037304617

weight f4 [50, 100]
00000000: 978c 77bd 1db4 b63d 73a3 563c f002 aebd
00000010: ad47 32bd c78e a5bd 97cd a6bd 67a3 18bd
00000020: 5a5b cebc 979a 703d d0ac c13d 8a05 223d
00000030: 6d2d cd3c 48d6 b03d d0a2 78bd 3766 623d
00000040: 6779 00bc e01d ca3c 6a3f 24bd 7fc4 c13d
00000050: 671e 553c 804f 81bb 7aa1 99bc 8da5 5e3d
00000060: 5af5 17bc 1a58 2fbd 004b b9bd 8009 34bc
00000070: 28b3 af3d 9a41 e53b dd80 c83d afd9 8d3d
00000080: 6ae0 333d 4731 7abd fadd 0bbd 775f 6ebd
00000090: f378 bc3c 806b a73b 65a6 cbbd 1aba 673d
000000a0: 5b81 8c3d aa9a 0a3d 5071 6abd c0a8 843d
000000b0: c743 583d 2de6 733d ba8e 753d 5dab 003d
000000c0: a3b3 933d 8a93 90bd cd8e 993a 577b 1d3d
000000d0: 9df0 0fbd 2016 8fbd 60bf 06bd ab9f 88bd
000000e0: 32ef 8a3d 0d71 b7bc 9ad6 1a3c bae7 f63c
000000f0: 702b 763d ad25 96bc eb92 8ebd 5a87 36bd
00000100: 7735 83bd c77d 43bd e764 cd3b fd67 063d
00000110: 7a85 ccbc 33af 80bd 079a 1d3d c2d7 b1bd
00000120: 1a8a c93d 0357 01bd 3d73 49bd 0004 91bd
00000130: cd60 563d 1a4e bb3b d5be b6bd 67fa 353d
00000140: 30b4 71bd dad2 043c a56d b83d a0b2 4dbd
00000150: 4d6f 813b d30d aabc d298 9c3d 0088 883a
00000160: 4dc2 d73b 7d25 39bd 700b 67bd da1f 513d
00000170: 9ac4 1f3b e710 4abc 2889 bfbd cd9b 6ebd
00000180: db03 b83d 1b36 c2bd 503b 093d 8066 77bd
00000190: 5002 88bd 6da5 693d 9df5 27bd 6782 20bd
000001a0: b3e1 8ebb 77c4 383d ca6a a63d b298 bf3d
000001b0: b3ff bbbd e097 c5bd c792 d63c 70da 65bd
000001c0: dad3 abbd 103d 243d 330e 11bc 0043 ebbc
000001d0: 4d7b a13c 070b 21bd d086 bbbd 6771 85bd
000001e0: 6d47 ecbc 431d 25bd c7cb bf3c b7f8 61bd
000001f0: 4d27 8dbc 8a14 173d da83 2fbd 4060 c9bd
00000200: a727 05bd da4e 45bc e0d4 023d 9099 99bd
00000210: f391 16bd 6595 a8bd 2835 b83d d36c 683d
00000220: 102a 6d3d 937a c5bd fad7 923d 42d2 8c3d
00000230: 600a ba3d 5a2e 7fbd aafe 7a3d e822 90bd
00000240: d5f6 803d 8d18 3b3c 709e 92bd f01b 59bd
00000250: dd35 123d 1aac 39bc a065 073d 72eb 90bd
00000260: f0f2 48bd c791 0fbd 4dd2 503d 4052 f53c
00000270: 50f5 343d dad7 5b3d 7000 06bd fa1d aabc
00000280: 708e 4e3d e763 7fbc 1a75 583c a04f 27bd
00000290: 2795 49bc 00eb 2c3b 85a2 c7bd 3856 cabd
000002a0: d374 8abd 4333 4a3d 0a1a c33d b322 8a3d
000002b0: a090 a6bd 0a19 4b3d 6766 1537 dd7e 683d
000002c0: 0b3c a53d 933b 143d d5fd 9e3d 5a64 2c3c
000002d0: 4b21 8bbd da96 343c 2d91 a43d 4763 7e3d
000002e0: cd5c 303a aa32 08bd 5a17 77bd 9757 3d3d
000002f0: fa5f 96bc 9abc 2fbd bb62 833d 8a71 b1bd
00000300: f865 a4bd 3774 5e3d 73f8 53bd 48d0 ad3d
00000310: 1a66 bd3c a0af d23c a777 b13d cfba 96bd
00000320: b311 eebb 8f53 8abd f7c4 953d b718 59bd
00000330: 7daa c33d 4dff b03b 1bdb 9a3d c085 353c
00000340: 57ec 31bd af24 ca3d ca3a 5bbd 2d35 23bd
00000350: 630a 6fbd 6d64 a83d c7de 023d 9a2b 59bd
00000360: 239e 89bd 3315 beba 27c8 563d 5a0a 203d
00000370: c304 88bd a0c1 dabc 1a7b b0bd e011 85bd
00000380: 4081 56bd 524c 903d 90bb 0b3d 6b9a 903d
00000390: 3b7e a2bd 1a55 c8bd 1dec 88bd f33a 8e3c
000003a0: 678e 28bd f741 443d 7be4 92bd b3c3 1b3c
000003b0: 8ae0 243d b3f8 29bc 4d3b 48bd 8338 7abd
000003c0: 9dbf 2bbd 2d2a 0dbd 53bd 6cbd 02d9 be3d
000003d0: 80ec 69bc c087 c33c f31f ca3d 67e3 af3c
000003e0: b79d 203d 2a5b a9bd 0d41 6f3d 101e a7bd
000003f0: 3788 be3d 001c 7d3c daa7 38bd 0f5b a83d
-0.06043681 0.08921073 0.013100493 -0.08496654 -0.043525387 -0.08083873 -0.08144682 -0.037265208
-0.025190044 0.05874118 0.094567895 0.039556064 0.025046075 0.08634621 -0.060702145 0.05527326
-0.007841445 0.024672449 -0.04009954 0.09461307 0.013007737 -0.0039462447 -0.018753756 0.0543571
-0.009274805 -0.04280863 -0.09047508 -0.010988593 0.08579093 0.0069963457 0.09790204 0.069262855
0.04391519 -0.06108215 -0.03414724 -0.05819651 0.023006892 0.0051092505 -0.099438466 0.056573965
0.0686061 0.033838905 -0.05723697 0.06477499 0.052799013 0.059545685 0.059950568 0.031413425
0.07211997 -0.07059391 0.0011715532 0.038447704 -0.035141576 -0.06986642 -0.032897353 -0.06671079
0.06783904 -0.022392774 0.009450579 0.030139793 0.06010002 -0.018328512 -0.06961616 -0.044562675
-0.06406682 -0.047727372 0.006268132 0.032814015 -0.02496599 -0.062834166 0.03847697 -0.08683731
0.09840794 -0.03157712 -0.049182165 -0.07080841 0.05233841 0.0057160975 -0.08923117 0.044428255
-0.05900973 0.008106912 0.09005288 -0.05021918 0.0039500357 -0.020758545 0.07646336 0.0010416508
0.0065844418 -0.045201767 -0.056407392 0.051055767 0.0024378658 -0.012333131 -0.09352332 -0.058254052
0.0898511 -0.09482976 0.03350383 -0.060400486 -0.06641066 0.057042528 -0.04100572 -0.03918686
-0.0043604015 0.04510924 0.08125837 0.09355296 -0.0917963 -0.096481085 0.026193036 -0.05611652
-0.08390017 0.040097296 -0.008853483 -0.028718472 0.019712115 -0.039317157 -0.09156573 -0.065157704
-0.028842652 -0.04031111 0.023412598 -0.055168834 -0.017230654 0.036884822 -0.042850353 -0.09832811
-0.03250852 -0.012042725 0.031941295 -0.07499993 -0.03676028 -0.0823162 0.08994514 0.056744408
0.057901442 -0.0964252 0.071701005 0.06876041 0.0908401 -0.062300064 0.061278023 -0.07037908
0.062970795 0.011419428 -0.07159126 -0.05300516 0.0356959 -0.011332536 0.0330559 -0.07076158
-0.04905981 -0.035051133 0.05098181 0.029946446 0.04417926 0.05367265 -0.03271526 -0.020766247
0.050428808 -0.015587783 0.013211513 -0.04084742 -0.012303627 0.0026385188 -0.09747795 -0.09879726
-0.06760564 0.049365293 0.09526451 0.067448996 -0.08133054 0.049584426 8.9049345e-06 0.05676161
0.08068093 0.036189627 0.07763258 0.010521973 -0.067934595 0.011022294 0.080355026 0.062106397
0.00067276956 -0.033251442 -0.060325004 0.04622611 -0.018356312 -0.042904474 0.06415316 -0.08664234
-0.080272615 0.05431005 -0.05175061 0.08486992 0.023119975 0.02571851 0.086654 -0.0735985
-0.0072652935 -0.06754219 0.07312959 -0.053002086 0.095540024 0.005401528 0.07561322 0.011079252
-0.043438282 0.09870278 -0.053522862 -0.039845634 -0.058359515 0.0822228 0.03195074 -0.053020097
-0.06719615 -0.0014502167 0.052436974 0.039072372 -0.06641533 -0.026703656 -0.0861723 -0.0649755
-0.052369356 0.07045807 0.03411442 0.07060703 -0.07934233 -0.09781857 -0.0668566 0.017362094
-0.04115143 0.04791447 -0.071724854 0.009507108 0.0402532 -0.010374236 -0.04888468 -0.06108905
-0.041930784 -0.03446405 -0.05779774 0.09318735 -0.014277577 0.023868442 0.09869375 0.021470739
0.03921291 -0.08269341 0.058411647 -0.08160031 0.09303325 0.01544857 -0.04508195 0.08220493

bias f4 [50]
00000000: 1a35 a93b 0b91 c2bd f8b8 a3bd 152c b2bd
00000010: 93a7 83bd 5df6 93bd ea1f 41bd 83d4 62bd
00000020: a0d8 07bd 8bef 9abd c767 dd3c 8080 51bc
00000030: b8c4 b53d 77df c33d 0736 acbc b316 1ebc
00000040: 1533 a63d cf26 943d 57b9 8abd 57d3 4bbd
00000050: 5a35 ed3c 72f7 c4bd 17d3 06bd 4f6a 923d
00000060: b71e 213d cb86 933d d284 a9bd ed67 bbbd
00000070: 8df1 6abd e7e3 803c 6797 0e3d fd97 693d
00000080: b378 5e3c 8050 473d b3e0 1d3c 424e c7bd
00000090: cdaa 88bb ba5d a03d 5f1c 9bbd f29a b1bd
000000a0: 25a4 ca3d 6d0f 843d 837d ca3d c5ab 9a3d
000000b0: d06c c43d 9776 b93d 67f0 e83a 13f7 983c
000000c0: 6a1d 85bd 3ffa b93d
0.005163801 -0.09500321 -0.07994264 -0.08699814 -0.064284466 -0.072247244 -0.047149576 -0.05537845
-0.033165574 -0.075652204 0.027027024 -0.012786984 0.08875412 0.09564107 -0.021021856 -0.009648967
0.08115212 0.07233965 -0.06773632 -0.049762096 0.028956104 -0.09617509 -0.032916155 0.07149183
0.039335933 0.07203444 -0.082772866 -0.09150682 -0.057359267 0.015733672 0.034812357 0.057029713
0.013578582 0.048660755 0.009636092 -0.09731723 -0.0041707517 0.07830377 -0.07573771 -0.086721316
0.09894589 0.06448255 0.09887221 0.07552294 0.09591067 0.09055822 0.0017771841 0.018672502
-0.06499751 0.09080934

weight f4 [2, 50]
00000000: 1ac4 56ba db1a d73d b835 9cbb 7da2 b3bd
00000010: 69fa f3bd 0d21 003e beac 9abc b631 8b3d
00000020: 597a ecbc 03be 133d e385 a8bd 6e72 89bd
00000030: 2b47 703d 34b1 143d 6ef1 68ba 6fe2 a3bd
00000040: c901 0c3e be30 e6bd b575 c4bd cbb6 b3bd
00000050: aa8c 8bbd 0b6a 01be 1b18 55bd a6b0 eb3c
00000060: ddee d5bd 282b ff3d 13f7 bf3b 6b78 04be
00000070: 2ca7 0a3d 9733 ef3d a7a2 373d 50fe 0b3d
00000080: 77ba e2bd 8414 0bbe e1ec 99bd 11eb 843d
00000090: c187 38bc 6193 d9bd 140e 90bd e285 97bd
000000a0: 6180 ff3d 57b2 1b3d da8f cebb 569f e43c
000000b0: 5fe1 09be 94e3 013e af22 fb3d 8de5 05bd
000000c0: 1572 3abd 0a06 293d ff27 413d 69ba cebd
000000d0: ec7a a13d a7be cd3d d244 373a 29a8 413d
000000e0: aae3 c1bd a4ae b63d 636a 613d 96c3 f73d
000000f0: 7dcc a13d d067 973d c26c fc3c d6a2 3cbd
00000100: b280 f73d 4ad9 09be 489a 22bd ba6b 65bc
00000110: 7764 b4bd 81e2 ae3d d855 353b 07c8 d1bd
00000120: 559b 8f3a 3334 9c3c c27f ed3d 06d9 b4bd
00000130: 908d a3bd 66f1 8bbd 2351 dfbd 4820 acbd
00000140: c0c0 09be 19fd 90bd 8768 963d d3bd 40bd
00000150: 7d87 0ebc f7b2 a53d b6cc b4bd a068 d0bb
00000160: bceb 8bbc 9e50 f2bd 564e 053d e744 863d
00000170: 0b6b 863d 6b2c 20bd a3f9 343a 3e69 713d
00000180: 367f 9dbd f0af f8bb c143 d4bd 8f9d c83c
-0.00081926736 0.10503169 -0.004767146 -0.087712266 -0.11912996 0.12512608 -0.018881198 0.06796591
-0.028866934 0.03606988 -0.08228662 -0.06711279 0.05866162 0.036301807 -0.00088860735 -0.08002173
0.13672556 -0.112397656 -0.09592763 -0.08775099 -0.06813939 -0.12638108 -0.052024942 0.028770756
-0.1044595 0.12459403 0.005858311 -0.12936561 0.033850834 0.11679762 0.04483285 0.03417808
-0.110707216 -0.13582045 -0.07515884 0.06490148 -0.011262835 -0.106238134 -0.07033935 -0.07398583
0.12475658 0.038011875 -0.0063037695 0.027908009 -0.13464878 0.1268447 0.12262475 -0.03268962
-0.045518953 0.041265525 0.047157284 -0.10094149 0.078847736 0.1004613 0.0006991151 0.04727951
-0.094672516 0.08920029 0.0550331 0.12097852 0.07900331 0.073928475 0.030813579 -0.04605373
0.120850936 -0.13461795 -0.039697915 -0.014002735 -0.08808225 0.08539296 0.0027669575 -0.1024323
0.0010956327 0.01906786 0.115966335 -0.088304564 -0.07985985 -0.068331525 -0.109041475 -0.08404595
-0.13452435 -0.070795245 0.07344156 -0.04705603 -0.008699295 0.080907755 -0.08828108 -0.0063601285
-0.01708018 -0.11831783 0.03254541 0.06556111 0.065633856 -0.03910486 0.0006903654 0.058938257
-0.07690279 -0.0075893328 -0.103644855 0.024489192

bias f4 [2]
00000000: 9dfa 023e 29f5 86bd
0.12790914 -0.06589729
