test_dagster/lightning_logs/version_5/checkpoints/epoch=9-step=10.ckpt (torch, 448127 bytes, 24 tensors)

rnn.weight_ih_l0 f4 [300, 2]
0	0x3cbb981d	0.022899682
1	0xbdc1f055	-0.09469668
2	0x3db85699	0.09000892
3	0xbdc979d1	-0.09837688
4	0xbd6e0ea9	-0.05811945
5	0xbc362e3a	-0.01111942
6	0xbd859ff1	-0.06524647
7	0x3d72626c	0.059175894
8	0xbc0a73d9	-0.008450472
9	0xbd379ad4	-0.04482539
10	0xbcae9d9e	-0.021315392
11	0xbc18a67d	-0.009317038
12	0x3d1da236	0.038484775
13	0xbd1b3218	-0.03788957
14	0x3d8942c3	0.06702187
15	0x3d3183f4	0.04333873
16	0x3c4e19a6	0.012579357
17	0xbd0ec4b8	-0.034855574
18	0xbcc0ea71	-0.02354929
19	0xbda814e8	-0.082071126
20	0x3d2cb955	0.042168934
21	0x3bb3e3aa	0.005489786
22	0x3d83e7d3	0.06440701
23	0x3ccc2060	0.024917781
24	0x3b190ad1	0.0023352394
25	0x3d9367b1	0.07197512
26	0x3cc89d2e	0.024489012
27	0xbd1b3217	-0.037889566
28	0x3dc20e29	0.09475357
29	0x3cd2b4ee	0.02572104
30	0x3d284129	0.041077767
31	0x3d9210b2	0.07132091
32	0x3d0a732a	0.033801235
33	0x3db5e3fe	0.08881377
34	0x3d06b249	0.03288487
35	0x3d6db171	0.05803055
36	0xbd3e2632	-0.046423145
37	0xbd9f8805	-0.077896155
38	0x3d13283e	0.03592705
39	0xbcc7df0d	-0.024398351
40	0x3d92033b	0.071295224
41	0x3d54d15c	0.051957473
42	0xbdc700a7	-0.09716921
43	0x3d4da93f	0.050210234
44	0x3d9b8e67	0.075955205
45	0xbda9104c	-0.082550615
46	0xbcbd410d	-0.023102308
47	0x3dba7775	0.09104816
48	0xbc8c7c54	-0.017149128
49	0x3cdbd20d	0.026833558
50	0xbd59cc37	-0.05317327
51	0xbc67f6af	-0.014157935
52	0x3d5cd5b0	0.053914726
53	0xbc2d5e14	-0.010581512
54	0xbd2f30ac	-0.042771026
55	0xbdc1fe62	-0.09472348
56	0xbd1a188d	-0.03762107
57	0xbbfb05cf	-0.0076606045
58	0x3db5092a	0.088396385
59	0x3db94c93	0.090478085
60	0xbd372390	-0.04471165
61	0xbda1ece2	-0.0790651
62	0xbdaa83f5	-0.0832595
63	0x3d1a1ef2	0.037627168
64	0xbc7a152b	-0.015263836
65	0xbd24eec9	-0.040266786
66	0x3cbe46ee	0.023227181
67	0xbdc35bb4	-0.09538975
68	0xbbea2824	-0.0071458984
69	0x3ce906b1	0.028445574
70	0xbc0c52be	-0.008564649
71	0xbdb150b1	-0.08657969
72	0xbdbcb815	-0.09214798
73	0xbcfbcff2	-0.030738804
74	0x3db208c1	0.08693076
75	0x3d16b62f	0.036794838
76	0x3dc58a46	0.09645514
77	0xbdc442ce	-0.095830545
78	0xbc31c166	-0.010849332
79	0x3d98ff62	0.074705854
80	0xbd1e7cb3	-0.03869314
81	0xbcc3f879	-0.023922192
82	0xbdb46662	-0.088085905
83	0xbd44e4ca	-0.048069753
84	0x3bd2e05e	0.006435438
85	0xbda84f2a	-0.08218224
86	0x3c86477b	0.016391506
87	0x3db5f43e	0.08884476
88	0x3c8f1407	0.017465604
89	0xbc2ff7e7	-0.010740257
90	0x3d79c1fb	0.06097601
91	0xbd9a7844	-0.0754247
92	0x3c66e6ef	0.014093145
93	0x3d4c4ff1	0.049880926
94	0x3c45fbae	0.012083931
95	0xbd52581b	-0.051353555
96	0xbd86f01c	-0.06588766
97	0x3db9bf66	0.090697095
98	0x3dbfab17	0.09358805
99	0x3d16c33e	0.03680729
100	0x3dbe076a	0.09278758
101	0xbd6e48fb	-0.05817507
102	0x3d857673	0.06516733
103	0x3d5c3ce4	0.053769007
104	0xbd8cbac4	-0.0687156
105	0xbdabd554	-0.083902985
106	0x3d94d456	0.07267062
107	0x3d4b0069	0.049560938
108	0x3cfb9c39	0.030714141
109	0xbd5503e6	-0.05200567
110	0x3bc0a14b	0.0058786026
111	0x3d3b9659	0.04579768
112	0xbd059fd0	-0.032623112
113	0x3d96965f	0.073529
114	0x3d8e3cee	0.06945215
115	0x3d390122	0.045167096
116	0xbdb2f014	-0.087371975
117	0xbd0315a7	-0.03200307
118	0x3dc58f9e	0.096465334
119	0x3ccd5539	0.025065051
120	0x3c9f223e	0.019425508
121	0x3d812477	0.06305783
122	0xbd8d39dc	-0.068958014
123	0xbd92e3fb	-0.0717239
124	0xbd6dd254	-0.058061913
125	0x3c91335c	0.017724685
126	0x3d2ca23f	0.042146917
127	0x3c303a4a	0.010756085
128	0x3da9ae30	0.08285177
129	0x3c5e7214	0.013577003
130	0x3d98302d	0.07431064
131	0xbd81144e	-0.06302701
132	0x3d3df0a4	0.04637207
133	0x3c19baba	0.009382898
134	0x3dc79ec3	0.09747078
135	0x3dbdf0f8	0.09274477
136	0x3dbfa036	0.0935673
137	0x3db74968	0.08949548
138	0x3dbbf282	0.09177114
139	0x3d05594c	0.032555863
140	0xbd9577ee	-0.072982654
141	0x3ce39ed9	0.027785705
142	0xbcbc0921	-0.022953572
143	0xbd6053dc	-0.054767475
144	0xbd1ed8ae	-0.03878086
145	0xbdad1a80	-0.0845232
146	0x3dabd252	0.08389725
147	0xbcef254d	-0.029192591
148	0x3d0256d7	0.0318211
149	0xbc93122d	-0.017953003
150	0x3ce08def	0.02741143
151	0x3d9d61ce	0.076846704
152	0xbc1fb08e	-0.009746684
153	0xbc0657ea	-0.008199671
154	0x3d9279cb	0.071521364
155	0xbbecfb42	-0.0072321007
156	0x3dc74a38	0.09730953
157	0x3d09e3e9	0.033664618
158	0x3d334f43	0.04377676
159	0xbd8e5a64	-0.069508344
160	0x3d980c49	0.07424218
161	0x3d0b15be	0.03395628
162	0x3d2da483	0.04239322
163	0xbd212c7c	-0.039349064
164	0x3ce6e646	0.028185975
165	0xbd981087	-0.07425027
166	0x3d84b753	0.06480279
167	0xbcd56355	-0.026048342
168	0xb8a1f002	-7.721783e-05
169	0x3d37f45e	0.04491078
170	0xbd148cfd	-0.03626727
171	0xbcfb2785	-0.030658493
172	0xbd0cafd2	-0.034347363
173	0xbcabc4d1	-0.020967873
174	0xbdcc04f7	-0.099618845
175	0x3b89e46a	0.0042081373
176	0x3c00de9c	0.007865574
177	0xbd2d0d84	-0.042249218
178	0xbd8613ba	-0.06546731
179	0xbd8fd6d7	-0.07023399
180	0x3dc1f21c	0.09470007
181	0x3cad38a7	0.021145178
182	0x3d67da1d	0.056604493
183	0x3db761ab	0.089541756
184	0x3cdb95db	0.026804855
185	0xbd82719a	-0.06369324
186	0x3d314118	0.04327497
187	0xbdc5895a	-0.09645338
188	0x3d47ec02	0.04880906
189	0xbc69e73f	-0.014276325
190	0x3d8c485b	0.06849738
191	0xbcbb1445	-0.022836814
192	0x3da58ff9	0.08084101
193	0x3d52bb29	0.05144802
194	0xbd3fe2a1	-0.04684699
195	0xbd7d89b6	-0.06189891
196	0x3d44caf2	0.048045106
197	0x3db3d7d5	0.08781401
198	0x3d9c41bc	0.07629725
199	0xbd52bace	-0.051447682
200	0xbba69a62	-0.005084322
201	0x3d8a0a18	0.067402065
202	0xbbca06f9	-0.006165382
203	0x3dc60219	0.09668369
204	0x3dba71ea	0.09103759
205	0x3c9ae1ba	0.018906463
206	0xbcda3db7	-0.026640756
207	0x3d70e51a	0.05881224
208	0x3d1849ec	0.037179872
209	0x3d3ae098	0.045624346
210	0x3c274f3b	0.010211761
211	0xbd4213e6	-0.047382258
212	0x3d278d57	0.040906277
213	0x3da4b493	0.08042254
214	0xbd87f602	-0.06638719
215	0xbd6661ed	-0.056245733
216	0x3d4fb8f6	0.050713502
217	0xbd221da8	-0.039579064
218	0xbd84c3b7	-0.06482642
219	0x3c7d309e	0.015453486
220	0x3d9f2d47	0.07772308
221	0x3d8423b9	0.06452126
222	0x3c961cdc	0.018324308
223	0x3da7631b	0.081732
224	0xbcfb3d98	-0.030669019
225	0x3d9a00bc	0.07519671
226	0xbd8e500c	-0.069488615
227	0x3d53e3d4	0.051730946
228	0xbd87ab9e	-0.0662453
229	0x3d188431	0.037235443
230	0xbd05d9e4	-0.0326785
231	0xbd25608d	-0.04037528
232	0xbc291102	-0.010318996
233	0xbd5c4244	-0.053774133
234	0x3b66dc10	0.0035226382
235	0xbcfd70e5	-0.030937621
236	0x3c82ee72	0.01598284
237	0x3d40dec2	0.04708744
238	0xbdabb43d	-0.08383987
239	0xbd267860	-0.040642142
240	0xbda00db2	-0.07815112
241	0xbd50f78a	-0.05101732
242	0xbd01b7ee	-0.03166955
243	0xbd85edfe	-0.06539534
244	0x3d425e1b	0.047453027
245	0x3dca6ce7	0.09884053
246	0x3dc38f2f	0.095487945
247	0x3c63bc6f	0.013899907
248	0x3dc17735	0.09446565
249	0xbd4fc174	-0.0507216
250	0xbdc9521c	-0.09830114
251	0x3d279c75	0.040920693
252	0x3d0f134e	0.03493052
253	0x3d3b94d5	0.045796234
254	0x3c8cb295	0.017174998
255	0x3998fad4	0.0002917858

rnn.weight_hh_l0 f4 [300, 100]
0	0xbd894a41	-0.06703616
1	0xbcddc542	-0.027071599
2	0xbd874a00	-0.06605911
3	0xbd841188	-0.06448656
4	0xbc5d5d0d	-0.013510955
5	0xbdc1a024	-0.094543725
6	0xbd31636a	-0.0433077
7	0x3d1f8f01	0.03895474
8	0xbd96620e	-0.07342921
9	0xbd98324b	-0.074314676
10	0xbd0b31ff	-0.033983227
11	0x3d3cbaba	0.046076514
12	0xbd84c40f	-0.06482708
13	0xbbed4202	-0.0072405348
14	0xbdbbc603	-0.09168627
15	0x3c14bbe6	0.009078002
16	0x3db62d2e	0.08895336
17	0x3d80cf25	0.0628951
18	0x3c8f3f8f	0.017486362
19	0x3d0e75a9	0.03478018
20	0x3b866fbc	0.0041026752
21	0x3d3473e5	0.04405584
22	0x3cd9ecd1	0.02660218
23	0x3d80d1b5	0.062899984
24	0xbd560106	-0.05224707
25	0x3cf60c72	0.030035231
26	0xbd5834f4	-0.052784875
27	0xbb20bcbc	-0.0024526557
28	0x3dc23e3e	0.09484528
29	0xbd423b91	-0.04742009
30	0x3d86c64f	0.06580793
31	0x3d203930	0.03911704
32	0x3cb2c439	0.021822082
33	0xbdb4a74d	-0.088209726
34	0x3dc0bdf3	0.0941123
35	0xbdac672c	-0.08418116
36	0xbcca7f1f	-0.02471882
37	0xbc539fbe	-0.0129165035
38	0x3d866671	0.06562508
39	0x3da8d284	0.08243278
40	0x3c40237b	0.011727209
41	0xbd61b339	-0.05510256
42	0x3dc62de9	0.096767254
43	0xbdc96b08	-0.09834868
44	0xbdb9b887	-0.09068399
45	0xbc724173	-0.014786112
46	0xbdc7f38f	-0.09763252
47	0xbd59f78a	-0.053214587
48	0x3d66fb15	0.056391794
49	0x3d3bbb83	0.045833122
50	0x3d9507b8	0.07276863
51	0x3bfc427f	0.0076983566
52	0xbdba152a	-0.09086068
53	0xbd8bf7b4	-0.06834355
54	0xbd679e07	-0.05654719
55	0x3d959cc3	0.073052905
56	0xbd9c71e3	-0.0763891
57	0x3cb1c815	0.021701852
58	0xbdc7ba27	-0.097523026
59	0xbcf59f9b	-0.029983332
60	0x3ccd0382	0.025026087
61	0x3cd7c7b0	0.026340336
62	0x3d6563b2	0.05600328
63	0x3d9a526b	0.07535251
64	0x3d42d1d3	0.047563385
65	0x3db19e1d	0.08672736
66	0x3d044f48	0.03230217
67	0xbcdfcc2d	-0.027319038
68	0x3d00ef2b	0.03147809
69	0x3db6abf0	0.08919513
70	0x3cb449f8	0.022007927
71	0x3db59793	0.08866801
72	0xbdba6f20	-0.09103227
73	0x3d4f5fd8	0.050628513
74	0xbdb88eea	-0.09011634
75	0x3cc6f5ad	0.02428707
76	0x3dbffddb	0.09374591
77	0xbcd92635	-0.026507476
78	0x3da7db9d	0.08196185
79	0x3d8b9ba6	0.06816797
80	0x3b1714fe	0.0023053284
81	0x3d2e05b1	0.042485896
82	0x3d5d72aa	0.05406443
83	0xbd23595c	-0.03988014
84	0xbda9dcd4	-0.08294073
85	0xbd24a73f	-0.04019856
86	0xbcbeb17a	-0.023277987
87	0x3bfd8421	0.0077366983
88	0x3d8c310f	0.06845295
89	0xbd88acb8	-0.066735685
90	0x3d84e583	0.064890884
91	0x3cc812c1	0.024423005
92	0x3c1c5ea9	0.009544053
93	0xbd69ef8c	-0.057113215
94	0xbd1d168e	-0.038351588
95	0x3d758246	0.05993869
96	0xbda9cefd	-0.08291433
97	0x3c9d6435	0.019212821
98	0xbdc4a2b8	-0.09601349
99	0x3d865784	0.06559661
100	0x3dc5c85a	0.09657355
101	0x3d9de8b4	0.077104
102	0x3d5883bc	0.052860007
103	0xbd19c3d9	-0.03754029
104	0xbda6ba36	-0.08140986
105	0xbd2f6465	-0.042820353
106	0x3cda3681	0.026637318
107	0xbb6c4c7d	-0.0036056333
108	0x3d352da3	0.044232976
109	0xbd9704e3	-0.07373979
110	0x3d60674d	0.054786015
111	0x3c95681e	0.018238124
112	0xbda145f8	-0.078746736
113	0xbd0ef299	-0.034899328
114	0x3999650a	0.00029257714
115	0xbdb8a9ae	-0.09016739
116	0x3d8a508c	0.06753644
117	0x3dca68cb	0.09883269
118	0xbd64217d	-0.055696
119	0x3d079024	0.033096448
120	0xbd5328ea	-0.05155269
121	0xbd93feca	-0.072263315
122	0x3d963b5d	0.073355414
123	0xbd5405d9	-0.05176339
124	0xbd21dadc	-0.03951536
125	0x3d94f037	0.0727238
126	0x3da24795	0.079238094
127	0x3d3f2408	0.04666522
128	0x3d342a60	0.043985724
129	0xbdaaeb7c	-0.08345696
130	0xbb31b7a4	-0.0027117515
131	0xbdb2eebd	-0.08736942
132	0x3d1d6ade	0.038431995
133	0xbb7544f6	-0.0037425137
134	0x3d57a24d	0.052645016
135	0xbd3b23e1	-0.045688514
136	0xbd0cf31b	-0.03441153
137	0x3d45b2fb	0.048266392
138	0xbd02d65f	-0.03194272
139	0xbd36e5d4	-0.044652775
140	0xbd88e315	-0.066839375
141	0x3c82d243	0.015969401
142	0xbc2548fd	-0.010088203
143	0xbcfe610f	-0.03105214
144	0x3d46cf12	0.04853732
145	0xbd305d68	-0.04305783
146	0x3d563172	0.05229325
147	0x3d0fc15b	0.035096508
148	0xbd45a394	-0.048251703
149	0xbd092702	-0.033484466
150	0xbc584cd6	-0.013201913
151	0x3d14fa67	0.036371615
152	0x3cb25a31	0.021771522
153	0xbcd37227	-0.025811268
154	0xbc83d84d	-0.016094351
155	0x3c82f4c9	0.015985863
156	0x3d974520	0.073862314
157	0xbd1580ba	-0.036499716
158	0x3ba39c60	0.0049930066
159	0xbdb79882	-0.089646354
160	0x3c9e4653	0.019320643
161	0x3d13767d	0.03600167
162	0x3cd0211c	0.025406413
163	0xbd07a90b	-0.033120196
164	0x3cdcb8ac	0.026943527
165	0x3ba90e06	0.0051591424
166	0x3d9754a4	0.07389191
167	0xbd087644	-0.033315912
168	0x3d72f715	0.059317667
169	0x3d44e236	0.048067294
170	0xbd99c308	-0.075079024
171	0x3d474c5b	0.048656803
172	0x3d84285c	0.064530104
173	0x3dbadc46	0.09124045
174	0xbd96cc46	-0.07363181
175	0xbd541288	-0.051775485
176	0xbc24cb0c	-0.010058176
177	0xbd820232	-0.06348075
178	0xbd5289b9	-0.051400874
179	0xbda7c4ca	-0.081918314
180	0x3d03e562	0.03220118
181	0xbd982022	-0.07428004
182	0x3dc563c8	0.096381724
183	0xbdac26fd	-0.08405874
184	0x3dacc74d	0.08436451
185	0x3daf33a8	0.085547745
186	0x3d1ccc2c	0.03828065
187	0x3d3d7212	0.046251364
188	0xbc4b42fc	-0.012406107
189	0x3b13ee6c	0.002257253
190	0xbc4dc029	-0.012558022
191	0x3cafe0aa	0.021469433
192	0x3d887cd1	0.06664432
193	0x3d8e01ca	0.06933935
194	0x3d822155	0.06354014
195	0xbd7da84d	-0.061928082
196	0x3d4399c9	0.047754083
197	0x3da67b13	0.08128943
198	0x3d11e31a	0.03561697
199	0x3db93842	0.090439335
200	0x3d8786bc	0.066174954
201	0xbd45e63b	-0.048315268
202	0x3b8167dc	0.0039491486
203	0xbdba983e	-0.09111069
204	0x3d95fbc3	0.0732341
205	0x3b4b20a5	0.00309948
206	0xbd10326c	-0.035204336
207	0x3ca1a0b6	0.019729953
208	0xbd518561	-0.05115259
209	0xbd859493	-0.06522479
210	0xbd23458e	-0.039861254
211	0x3d07e1f7	0.03317448
212	0xbd0c9b07	-0.034327533
213	0xbd94ca8f	-0.072651975
214	0x3d64da64	0.055872336
215	0x3dc4a18e	0.096011266
216	0x3d2e58d0	0.042565167
217	0xbdcca6fe	-0.09992789
218	0xbd9c8982	-0.07643415
219	0x3dc9cd4b	0.0985361
220	0x3dca27a0	0.09870839
221	0x3d7112f3	0.058855962
222	0x3dc6eca9	0.09713108
223	0xbcabf097	-0.020988746
224	0xbd0e2bce	-0.034709744
225	0xbd571ccf	-0.05251771
226	0xbd23d301	-0.03999615
227	0x3db5310f	0.08847248
228	0x3d0b9f79	0.03408763
229	0x3cbd2e32	0.023093317
230	0xbc6f0cdd	-0.014590469
231	0xbd3571b5	-0.044297893
232	0xba6835ec	-0.00088581326
233	0x3c4e7804	0.012601856
234	0xbd617d28	-0.055051
235	0xbd390018	-0.045166105
236	0xbcdcc8f0	-0.026951283
237	0xbd2b9fa2	-0.041900285
238	0x3dc3877f	0.09547328
239	0x3bc32dfd	0.00595641
240	0x3d8e5ff6	0.06951897
241	0xbc2dffe4	-0.010620091
242	0xbc70016a	-0.014648775
243	0xbd62da91	-0.055384222
244	0xbc66eadc	-0.014094081
245	0xbc53aa52	-0.0129190255
246	0xbc850f55	-0.016242662
247	0x3d339e66	0.043852232
248	0xbda47ebe	-0.08031987
249	0xbd87895e	-0.066179976
250	0x3d8790a6	0.066193864
251	0x3d92eedc	0.07174465
252	0xbc89cc28	-0.016820982
253	0xbdba947a	-0.09110351
254	0x3bd7e0cc	0.006588077
255	0xbdc1a36a	-0.09454997

rnn.bias_ih_l0 f4 [300]
0	0xbd706205	-0.05868723
1	0xbc526985	-0.012842541
2	0xbdc0e979	-0.094195314
3	0x3db893ca	0.090125635
4	0x3c76d7b6	0.015066078
5	0x3cacc039	0.021087753
6	0x3ae2edc8	0.0017313296
7	0x3d4f9298	0.050676912
8	0x3d0c5868	0.034264
9	0xbc421989	-0.011846908
10	0x3c996f93	0.01872996
11	0xbd8809dc	-0.066425055
12	0xbdcba34a	-0.09943254
13	0x3dcae31d	0.099066
14	0x3d91964b	0.07108744
15	0xbbe98b10	-0.0071271732
16	0xbb9f2a42	-0.0048573324
17	0xbdc99856	-0.09843509
18	0xbd1ab316	-0.037768446
19	0xbd75411b	-0.059876543
20	0xbce5b719	-0.02804141
21	0xbd66156c	-0.056172773
22	0x3d80e0b8	0.06292862
23	0x3ca1cef4	0.019752003
24	0x3d95b36e	0.07309614
25	0xbd95e7d7	-0.073196106
26	0x3dc5682d	0.096390106
27	0xbca2ce3c	-0.01987373
28	0xbd26a081	-0.040680412
29	0xbc5e97fd	-0.0135860415
30	0x3cd90e10	0.026495963
31	0xbcb0da6e	-0.02158853
32	0xbd996330	-0.07489622
33	0x3d8faa56	0.07014911
34	0xbdb87d09	-0.090082236
35	0x3d4c021d	0.049806703
36	0x3c721948	0.014776535
37	0xbd33439a	-0.04376564
38	0x3d6d25d5	0.057897408
39	0x3d8bef60	0.068327665
40	0x3c843a9f	0.016141234
41	0x3a5a8321	0.000833558
42	0x3d26a4a9	0.040684376
43	0xbda87284	-0.08224967
44	0xbd2e4ecf	-0.042555626
45	0x3d99e4d4	0.075143486
46	0xbbd51f57	-0.00650398
47	0x3d884781	0.06654263
48	0xbd9b1d30	-0.075739264
49	0x3d747e5b	0.059690814
50	0xbdb8c0e7	-0.09021168
51	0xbdb5db9c	-0.08879778
52	0xbd442cad	-0.04789417
53	0x3c937f52	0.018005047
54	0xbcc8bd62	-0.024504367
55	0xbca890b8	-0.02057682
56	0x3dafcb7c	0.085837334
57	0xbc9c18cc	-0.019054793
58	0x3db7b483	0.08969977
59	0x3d1ccecb	0.03828315
60	0x3d0a124a	0.033708848
61	0xbcf92efb	-0.03041791
62	0xbdab5a2b	-0.083668076
63	0x3d9afd5f	0.07567858
64	0x3d9c1f30	0.07623136
65	0x3dad0906	0.08448987
66	0xbd372ef9	-0.04472253
67	0xbda541cc	-0.080691904
68	0x3d9179f7	0.07103341
69	0xbd5a6ca3	-0.05332626
70	0x3d343459	0.043995235
71	0x3c9f6400	0.019456863
72	0x3ccbf489	0.024896877
73	0xbcdd6701	-0.027026655
74	0xbc5281e0	-0.012848347
75	0x3d6d98c8	0.05800703
76	0xbdb966a0	-0.09052777
77	0xbd2fc216	-0.042909704
78	0x3d531570	0.051534116
79	0x3d2fca32	0.042917438
80	0x3d79d599	0.06099472
81	0x3d8b2e7b	0.06795975
82	0x3af7e7cf	0.0018913689
83	0x3d0aa5a5	0.033849377
84	0x3cc189f3	0.02362535
85	0xbd86a777	-0.0657491
86	0xbd7ca72f	-0.061682876
87	0x3d90d5df	0.07072043
88	0x3d5020b5	0.05081244
89	0x3ce8c268	0.028413013
90	0x3c93d87a	0.01804756
91	0xbd0d8e49	-0.03455952
92	0x3d55e49e	0.05221998
93	0x3d977b04	0.0739651
94	0xbd25abf2	-0.040447183
95	0xbc5d91f9	-0.013523572
96	0x39e2042d	0.0004310919
97	0x3c857307	0.0162902
98	0xbbc573c5	-0.0060257637
99	0x3d8e9274	0.069615275
100	0x3d80a1ea	0.06280883
101	0x3d17b56c	0.03703825
102	0x3d2a36e7	0.041556265
103	0xbd8108b1	-0.06300486
104	0x3cb9b4af	0.022669164
105	0x3dc1f1cc	0.09469947
106	0x3d5833f3	0.052783918
107	0x3ce7dbc6	0.028303038
108	0xbbfab2e0	-0.007650718
109	0xbcc2c070	-0.023773402
110	0xbc05eaf9	-0.008173698
111	0xbd9b34a8	-0.07578403
112	0xbdc589e7	-0.096454434
113	0x3bce9d38	0.006305363
114	0xbdaa8711	-0.08326543
115	0xbcbd8389	-0.02313401
116	0x3d97bebd	0.07409427
117	0x3d261b45	0.04055335
118	0x3d81616e	0.06317411
119	0x3d07894a	0.033089913
120	0xbd65cd74	-0.05610414
121	0xbcbb53d5	-0.022867123
122	0x3d821c6f	0.063530795
123	0xbdb6057e	-0.08887766
124	0xbb044f47	-0.0020188855
125	0xbcdd09c6	-0.0269822
126	0xbc7df6af	-0.0155007085
127	0xbdac6f14	-0.08419624
128	0x3d50b845	0.050956983
129	0x3dc7939e	0.097449526
130	0x3b595e92	0.003316794
131	0xbd1e2b8a	-0.03861574
132	0xbd9ad48b	-0.075600706
133	0xbdc3823c	-0.095463246
134	0x3d880ad6	0.06642692
135	0xbd5be987	-0.053689506
136	0x3dae6124	0.08514622
137	0x3d9bc2fc	0.0760555
138	0x3db2a644	0.08723119
139	0x3d5a1e8b	0.053251784
140	0xbdb30b9e	-0.0874245
141	0x3d920972	0.07130708
142	0xbd98911f	-0.07449555
143	0xbdc004ab	-0.0937589
144	0xbd8d9077	-0.0691232
145	0x3d61b2ef	0.055102285
146	0xbd42f5a9	-0.04759756
147	0x3dc3b5b7	0.09556144
148	0x3c1d8eb1	0.00961654
149	0xbd2a3fda	-0.0415648
150	0xbd4b9375	-0.049701173
151	0x3c8d0bf3	0.017217612
152	0xbb28c9b5	-0.0025754992
153	0xbd818a09	-0.06325156
154	0xbd63f7c5	-0.055656213
155	0xb9275849	-0.0001595925
156	0xbd1043af	-0.035220798
157	0xbce0c12d	-0.027435863
158	0xbbecb82c	-0.0072241034
159	0xbd4945a3	-0.049138676
160	0xbd789d8c	-0.060697123
161	0xbdbcb9cd	-0.09215126
162	0x3d3e9599	0.046529386
163	0xbdb6aba5	-0.08919457
164	0x3c7440a4	0.01490799
165	0xbd22e15d	-0.039765704
166	0xbd6fb6bf	-0.05852389
167	0x3a73ae8e	0.0009295725
168	0x3d7a982d	0.061180282
169	0xbcebe00a	-0.028793354
170	0xbd6b3fac	-0.05743377
171	0xbd589698	-0.052877992
172	0xbd6d336c	-0.057910368
173	0xbd885f8a	-0.06658848
174	0x3d9dc66c	0.077038616
175	0xbdc4d175	-0.09610263
176	0xbd81cde6	-0.063381
177	0xbd5a2dc5	-0.053266305
178	0x3b9e3bf6	0.0048289252
179	0xbda924b0	-0.08258951
180	0x3dbfe561	0.093699224
181	0x3db6c829	0.08924896
182	0x3ccd1ef2	0.02503917
183	0xbd3ab084	-0.045578495
184	0x3bb00616	0.0053718193
185	0x3dc8a401	0.09796906
186	0x3d491b70	0.049098432
187	0x3dc18fb3	0.094512366
188	0x3c6374dd	0.013882843
189	0xbc62d589	-0.013844856
190	0x3cd9dd9a	0.026594926
191	0xbc3d127e	-0.011540053
192	0x3d2f732c	0.042834446
193	0xbd39a812	-0.0453263
194	0xbd656dda	-0.056012966
195	0xbdc32318	-0.09528178
196	0xbda9ef92	-0.082976475
197	0x3d38dd9c	0.04513322
198	0xbda20746	-0.079115435
199	0x3c3b5f1f	0.011436253
200	0xbcf0cd49	-0.029394763
201	0x3dce754c	0.10080966
202	0x3c9f6c9d	0.01946097
203	0xbd0b7151	-0.034043614
204	0xbd9ad0d8	-0.07559365
205	0xbd148018	-0.036254972
206	0x3d91aaea	0.071126774
207	0x3d66849a	0.056278802
208	0xbdbffb81	-0.093741424
209	0x3da07b73	0.07836046
210	0xbdb05497	-0.08609884
211	0xbdbca97b	-0.09212013
212	0x3cc1a3d9	0.023637699
213	0xbd6700c1	-0.056397203
214	0x3d599946	0.05312469
215	0xbc3a43aa	-0.011368671
216	0xbd737637	-0.05943891
217	0x3d6fe0b3	0.0585639
218	0x3d2e3042	0.04252649
219	0x3cdff74a	0.027339596
220	0xbc00f0fc	-0.007869955
221	0xbd7fd350	-0.062457383
222	0x3c972b4c	0.018453263
223	0xbd8b1bb0	-0.0679239
224	0xbc937ae0	-0.018002927
225	0xbd856268	-0.0651291
226	0xbdc2b07c	-0.09506318
227	0xbdb12b36	-0.0865082
228	0x3d1864eb	0.037205618
229	0xbda3cc50	-0.07997954
230	0xbcf2efb8	-0.029655322
231	0xbd13d346	-0.036090158
232	0xba7e395e	-0.00096978794
233	0x3dc4c7e3	0.09608438
234	0x3dc8fffe	0.09814452
235	0xbca206a2	-0.019778553
236	0x3d419648	0.04726246
237	0xbdc5fd58	-0.09667462
238	0xbdc3bbbb	-0.09557291
239	0xbb27c46e	-0.002559926
240	0x3dbaa2e2	0.09113099
241	0x3d15ec4f	0.036602315
242	0xbd52d351	-0.05147106
243	0x3da9eb3e	0.08296822
244	0xbc1eb129	-0.009685793
245	0x3dbde387	0.09271913
246	0x3d9a33a1	0.07529379
247	0xbda13fe0	-0.07873511
248	0xbd041694	-0.032248095
249	0x3be0611c	0.006847514
250	0x3c0b9d9f	0.0085214665
251	0xbd243e8f	-0.040098723
252	0xbd4facd7	-0.050701942
253	0xbd8c39d4	-0.06846967
254	0xbdcb7714	-0.09934822
255	0xbbd5fb25	-0.006530183

rnn.bias_hh_l0 f4 [300]
0	0xbc9f84b6	-0.019472461
1	0x3d386db2	0.04502649
2	0xbdb7d018	-0.089752376
3	0x3d7e05d8	0.06201729
4	0xbdb1a64d	-0.086742975
5	0xbc337cdb	-0.010955061
6	0xbd942f7c	-0.072356194
7	0x3d8f7a4c	0.07005748
8	0xbda3b453	-0.079933785
9	0x3d694372	0.056949086
10	0xbdace7bd	-0.08442638
11	0x3d9e1c01	0.07720185
12	0xbdaefae9	-0.08543951
13	0xbd1616ea	-0.036642946
14	0x3d347886	0.044060253
15	0xbd79f44f	-0.061024006
16	0x3d95551a	0.072916225
17	0xbca4bbfe	-0.020109173
18	0xbdb5a51e	-0.08869384
19	0x3d9569d6	0.07295577
20	0x3db037e0	0.08604407
21	0x3cf0137e	0.02930617
22	0x3d12a063	0.035797488
23	0xbd4e08ae	-0.050301246
24	0xbca721e9	-0.020401912
25	0x3dc513f4	0.096229464
26	0x3bce0807	0.006287578
27	0xbca0f510	-0.019648105
28	0x3c5d7b90	0.013518229
29	0xbd7bc151	-0.061463658
30	0x3d0f3d7a	0.034970738
31	0xbd588530	-0.052861392
32	0x3db87c37	0.09008067
33	0x3cc5e805	0.024158487
34	0x3db6fd91	0.08935083
35	0xbd712eed	-0.058882643
36	0xbdc9c80a	-0.098526075
37	0x3d0c4ddd	0.034253944
38	0xbdb909e9	-0.09035093
39	0x3d733a15	0.059381563
40	0xbd1c74fc	-0.038197502
41	0x3d0658f7	0.032799687
42	0xbaeadb64	-0.0017918167
43	0x3dcc5f40	0.09979105
44	0x3d630bc4	0.055431142
45	0x3b7ac2d9	0.003826311
46	0xbc392bab	-0.011301915
47	0x3db31994	0.08745113
48	0x3bf6bff9	0.007530209
49	0xbd7fc4ff	-0.06244373
50	0x3d4a77ac	0.049430534
51	0xbd12e179	-0.03585956
52	0x3d124f3d	0.0357201
53	0xbd61f8bd	-0.055168856
54	0xbbf90cd0	-0.0076004043
55	0xbd91b0f6	-0.07113831
56	0x3cfaa85b	0.030597856
57	0x3db3998d	0.08769522
58	0x3db0dca8	0.08635837
59	0xbd840255	-0.06445757
60	0x3d5a202a	0.05325333
61	0xbcb78761	-0.02240342
62	0x3d406da7	0.046979573
63	0xbd42cffc	-0.04756163
64	0xbca0aba9	-0.019613104
65	0x3db5ecab	0.088830315
66	0xbd0010c6	-0.031265996
67	0xbcbfeb32	-0.02342758
68	0xbc8f60a5	-0.017502138
69	0xbca13a4d	-0.01968112
70	0x3d92a79a	0.07160874
71	0xbd5ce0fd	-0.053925503
72	0xbd8a45ef	-0.0675162
73	0x3d84c335	0.06482545
74	0x3d7640e8	0.060120493
75	0xbd2eb042	-0.04264856
76	0x3d2f1142	0.042741068
77	0x3bab4b6e	0.005227498
78	0xbda7da3a	-0.0819592
79	0x3c099a1a	0.008398557
80	0x3d839651	0.06425155
81	0x3b925ce4	0.00446664
82	0xbce4de10	-0.027937919
83	0xbdae6d69	-0.08516962
84	0xbd4e84b2	-0.050419517
85	0x3d8bf9c5	0.06834749
86	0x3da80705	0.08204464
87	0xbd0d1913	-0.03444774
88	0xbc2c1a68	-0.010504343
89	0xbda5c705	-0.080946006
90	0x3d1d40e6	0.03839197
91	0x3d4cff0e	0.050047927
92	0xbdb27b1c	-0.087148875
93	0xbd6c2497	-0.057652082
94	0xbd9edcb1	-0.07756937
95	0x3d88b2dc	0.0667474
96	0xbd64bf36	-0.055846415
97	0x3d8f7140	0.070040226
98	0xbcea5278	-0.028603777
99	0x3d189160	0.037248015
100	0xbd420109	-0.04736427
101	0xbdb3554a	-0.08756502
102	0x3d9a60c2	0.07537986
103	0x3d9343ec	0.071906894
104	0xbc4c9bfb	-0.0124883605
105	0xbda5f00e	-0.081024274
106	0xbdc1a6c1	-0.09455634
107	0x3d7b8192	0.061402865
108	0x3c973b7c	0.018460982
109	0x3db3add2	0.08773388
110	0xbcd33b56	-0.02578513
111	0xbd9ed2b3	-0.077550314
112	0xbc77e3a9	-0.015129962
113	0x3d0f6d4c	0.035016343
114	0xbd2cb3fa	-0.042163827
115	0xbdb3c70b	-0.08778199
116	0x3dad9594	0.084757954
117	0xbd05dfdc	-0.032684192
118	0x3d1660a8	0.036713272
119	0xbd248243	-0.04016329
120	0x3dc4828c	0.09595212
121	0xbd3cc847	-0.046089437
122	0x3db906cf	0.09034502
123	0xbd0acbf2	-0.033885904
124	0x3d818ec8	0.063260615
125	0xbb36e296	-0.0027906052
126	0x3d193e05	0.037412662
127	0x3c7c9ff4	0.015418995
128	0xbd517b3b	-0.051142912
129	0x3dab271b	0.08357068
130	0x3d4ac14a	0.04950074
131	0x3d6dd1f0	0.05806154
132	0xbb6cd408	-0.0036137123
133	0xbcd4298d	-0.02589872
134	0xbd8a4352	-0.067511216
135	0x3d8b67b9	0.06806893
136	0xbca1799e	-0.019711312
137	0x3db370b3	0.0876173
138	0x3cc672d7	0.024224682
139	0xbd2151d2	-0.03938467
140	0xba3a126b	-0.00070980814
141	0x3d9a548f	0.075356595
142	0x3da35a55	0.07976214
143	0x3da5f25e	0.081028685
144	0x3cb5a7b1	0.022174688
145	0xbce8b2ae	-0.028405514
146	0x3d62cd8a	0.0553718
147	0xbd955f60	-0.07293582
148	0xbd76872d	-0.060187507
149	0xbcf75ce1	-0.030195655
150	0x3d98188d	0.07426558
151	0x3dc119a3	0.09428718
152	0xb91a24ec	-0.00014700339
153	0x3d23d76a	0.040000357
154	0xbdc1cf4c	-0.09463367
155	0x3c482311	0.012215392
156	0x3d0b427e	0.03399896
157	0x3d88bdf4	0.06676856
158	0x3d8889a7	0.0666688
159	0x3d45858e	0.04822307
160	0x3d672ba5	0.056438107
161	0xbd039fc6	-0.032134794
162	0x3d924040	0.07141161
163	0x3d7159be	0.058923475
164	0xbd4a4e8d	-0.049391318
165	0x3cf96baa	0.030446846
166	0x3d01184e	0.03151732
167	0x3c2718f6	0.010198822
168	0x3d0a3376	0.033740483
169	0x3aec66df	0.0018036029
170	0x3ce2a0b4	0.02766452
171	0xbc996dc2	-0.018729094
172	0x3bba35bb	0.0056826747
173	0xbd9dc048	-0.0770269
174	0xbd3812fc	-0.04493998
175	0xbd727ba5	-0.059199948
176	0x3d60d263	0.05488814
177	0x3dca3a90	0.09874451
178	0xbc763d47	-0.015029258
179	0xbdc506b8	-0.09620422
180	0xbdb38681	-0.08765889
181	0xbc8c492c	-0.017124735
182	0x3d066ab2	0.032816596
183	0x3b810df6	0.003938432
184	0x3da108cb	0.07863005
185	0x3da9ba65	0.08287505
186	0xbd927d74	-0.071528345
187	0x3c9ed5ad	0.019388998
188	0xbda8e641	-0.082470424
189	0xba5442e8	-0.0008097128
190	0xbdb0d2bb	-0.08633944
191	0x3d3c5094	0.045975283
192	0xbad4f13f	-0.0016246213
193	0x3bcf168f	0.006319828
194	0xbb8ad7eb	-0.004237165
195	0xbcce7b67	-0.025205327
196	0x3d500a9a	0.05079136
197	0x3dcb0e25	0.09914807
198	0xbdbd7969	-0.09251673
199	0x3d469bbf	0.048488375
200	0xbcfa1d74	-0.030531622
201	0x3da1bc70	0.0789727
202	0x3d9ee4e2	0.077585
203	0x3d9172da	0.07101984
204	0xbd884a40	-0.06654787
205	0x3d5d68a2	0.054054864
206	0x3db1795c	0.086657256
207	0xbd3b250d	-0.04568963
208	0xbd45ba47	-0.04827335
209	0xbd958d2d	-0.07302318
210	0xbdbf343e	-0.09336136
211	0xbd640861	-0.055672053
212	0x3cefc4cb	0.029268643
213	0x3dba36be	0.090924725
214	0x3d5130ae	0.051071815
215	0x3dab0d39	0.083521314
216	0x3c4b9d94	0.012427706
217	0xbd231b6d	-0.039821077
218	0x3d8a9f7d	0.06768701
219	0x3d96b9bd	0.073596455
220	0x3da1a7c1	0.07893325
221	0xbdcc9a2c	-0.099903435
222	0xbdc98bc9	-0.09841115
223	0x3d228716	0.03967961
224	0x3ce7b92e	0.028286543
225	0x3c0aa24a	0.008461544
226	0xb99136da	-0.00027697423
227	0x3c983f64	0.018584915
228	0x3d8d2686	0.068921134
229	0xbd8821ea	-0.066470936
230	0x3b997c8e	0.0046840375
231	0x3dbbb9ef	0.091663234
232	0xbdac00ff	-0.083986275
233	0xbdc7a91b	-0.09749051
234	0xbd5bc04b	-0.05365018
235	0xbdaa2dfd	-0.08309553
236	0x3cc2483f	0.02371609
237	0xbd71193d	-0.05886196
238	0x3d824d83	0.063624404
239	0x3bb429bf	0.0054981406
240	0x3d06dc63	0.03292502
241	0xbd9b4357	-0.075812034
242	0x3d200a82	0.03907252
243	0x3c27339c	0.010205176
244	0x3cc77f94	0.024352826
245	0x3da5ee3b	0.081020795
246	0x3da81ff4	0.082092196
247	0x3ccb208d	0.024795795
248	0xbc3fd4ce	-0.011708451
249	0x3d2b7a8f	0.041864928
250	0x3d3fedd7	0.04685768
251	0xbd858858	-0.06520146
252	0xbc4e5c8e	-0.012595309
253	0xbd948a38	-0.07252926
254	0xbc037318	-0.008023046
255	0xbd033d87	-0.0320411

fc_out1.weight f4 [50, 100]
0	0x3d83ec10	0.0644151
1	0xbd9b9605	-0.07596973
2	0x3d355b4c	0.04427652
3	0x3b09a91e	0.0021005343
4	0x3cffdd49	0.031233447
5	0x3d8bd7ab	0.06828245
6	0x3c485686	0.01222766
7	0xbcc1f5be	-0.02367675
8	0x3d455d50	0.048184693
9	0xbd35e384	-0.04440643
10	0xbc941190	-0.01807478
11	0xbd46c35c	-0.048526153
12	0xbd272d9f	-0.040814992
13	0x3da593cd	0.080848314
14	0xbccd3df6	-0.02505396
15	0x3d6020d1	0.054718796
16	0x3ab4110e	0.0013737993
17	0xbdced844	-0.10099843
18	0x3db1f2df	0.08688902
19	0xbcbe8e82	-0.023261312
20	0x3d81ddac	0.06341109
21	0xbd9def12	-0.07711615
22	0xbd22962a	-0.03969399
23	0x3c4c6047	0.012474126
24	0x3c018592	0.007905381
25	0x3bad265c	0.005284114
26	0xbdaf2a67	-0.085530095
27	0x3d8632d7	0.06552666
28	0x3dbaa6ff	0.09113883
29	0xbd797244	-0.060899988
30	0x3b310fd0	0.0027017482
31	0x3dae7e79	0.085202165
32	0xbdb0e1dc	-0.08636829
33	0x3dbb276b	0.09138378
34	0x3d997a3b	0.07494017
35	0xba312443	-0.00067574176
36	0xbdb5959c	-0.08866426
37	0x3dbfb9c8	0.09361607
38	0xbc920dd8	-0.017828867
39	0x3dc3edbe	0.0956683
40	0xbda9605f	-0.082703345
41	0x3d833dbc	0.06408259
42	0xbc65b35a	-0.0140198115
43	0xbd9e0161	-0.07715107
44	0x3d4bccac	0.049755737
45	0x3d9d49b2	0.07680072
46	0xbc09ae23	-0.008403334
47	0xbdbb6505	-0.09150127
48	0xbd960bb3	-0.0732645
49	0x3c70ac25	0.01468948
50	0xbdb697c4	-0.08915666
51	0x3d88c8b5	0.06678907
52	0x3d03e2b4	0.032198623
53	0x3da40f8b	0.08010777
54	0x3d76f036	0.060287677
55	0x3c19e8e0	0.009393901
56	0xbbebf299	-0.0072005508
57	0xbccdec3a	-0.025137056
58	0x3d9e9dd3	0.07744946
59	0xbd780ccb	-0.060559075
60	0x3d3523c2	0.044223554
61	0xbd2eb6df	-0.04265487
62	0xbd8904d9	-0.06690378
63	0xbc9a67b6	-0.018848281
64	0xbc88c567	-0.016695691
65	0x3d1a9967	0.037743952
66	0x3db5b2c1	0.08871985
67	0xbdc72bd9	-0.0972516
68	0x3db57a4e	0.088612184
69	0xbd7b073c	-0.061286196
70	0xbc062911	-0.008188502
71	0xbd3b9a5a	-0.045801498
72	0xbdb1feeb	-0.086912
73	0xbd1dcd06	-0.038525604
74	0xbdc4f392	-0.0961677
75	0xbd78f827	-0.06078353
76	0xbc2394a4	-0.009984169
77	0xbda7d013	-0.08193984
78	0x3d45ec29	0.048320923
79	0xbc50b805	-0.012739186
80	0x3dbc5367	0.09195595
81	0xbdcd2f05	-0.10018734
82	0x3d3e8783	0.046515953
83	0x39b3a4ee	0.00034264423
84	0x3cf7f3d0	0.030267626
85	0x3d3dc94d	0.046334554
86	0xbd9a6864	-0.07539442
87	0xbcfc5b01	-0.030805113
88	0xbd3e27d6	-0.04642471
89	0xbb41a759	-0.002954921
90	0xbd9711ac	-0.073764175
91	0x3d679cfa	0.05654619
92	0xbd63ff14	-0.055663183
93	0x3cc4ac66	0.024007987
94	0x3db3e09d	0.08783076
95	0x3d861ff8	0.06549066
96	0xbdbd760c	-0.09251031
97	0x3d35b139	0.044358466
98	0x3c1694e1	0.009190769
99	0xbc21ac36	-0.009867718
100	0xbd8bcb4a	-0.06825884
101	0x3d72157a	0.059102513
102	0xbd9cab02	-0.07649805
103	0x3d0354f3	0.032063436
104	0x3d8004dd	0.062509276
105	0x3ce4b4ed	0.027918303
106	0xbdbf1745	-0.0933061
107	0x3d9cc373	0.076544665
108	0x3dc5248d	0.09626112
109	0x3d4cc5c7	0.049993303
110	0xbc81600d	-0.01579287
111	0x3cb4cdda	0.022070814
112	0x3d46e71d	0.04856025
113	0x3c433d40	0.011916459
114	0x3c1e1973	0.009649622
115	0xbdca511a	-0.0987875
116	0x3c07d4f3	0.008290517
117	0xbd2456a0	-0.040121675
118	0x3dbfdf83	0.09368803
119	0xbd108ed3	-0.035292458
120	0xbb537a33	-0.0032268881
121	0xbafd7067	-0.0019335867
122	0xbd6e3557	-0.058156338
123	0xbd6def6a	-0.05808965
124	0x3d2ef9f7	0.042718854
125	0xbd49d72d	-0.049277473
126	0x3ce75eda	0.028243471
127	0x3aae6267	0.0013304473
128	0x3d8bfea0	0.06835675
129	0x3d05fc77	0.032711472
130	0xbd9dd31f	-0.07706284
131	0x3dcc00ab	0.09961065
132	0x3db22ec2	0.087003246
133	0x3d8afdd7	0.06786697
134	0x3c27e4da	0.010247434
135	0xbdbf6d07	-0.09346967
136	0x3d84f660	0.06492305
137	0xbc5ef0e7	-0.01360724
138	0x3bf8c5b3	0.007591927
139	0x3d2d2700	0.04227352
140	0x3b9fb567	0.0048739198
141	0xbcde519a	-0.02713852
142	0xbdc49b6f	-0.09599959
143	0x3b99b567	0.0046908143
144	0x3cdcf427	0.02697189
145	0xbdb8f472	-0.09030999
146	0xbda9143a	-0.08255811
147	0xbd6845f0	-0.056707323
148	0xbd89a6fd	-0.067213036
149	0x3b099367	0.00209924
150	0x3dba9825	0.091110505
151	0xbdcb6832	-0.09931983
152	0x3db091c5	0.08621553
153	0xbd833dd3	-0.064082764
154	0xbc3d97b3	-0.011571812
155	0x3c0caf27	0.008586681
156	0xbceca82d	-0.028888786
157	0x3d39e547	0.04538467
158	0xbd6587b7	-0.05603763
159	0x3b94a380	0.0045360923
160	0x3cbf30d3	0.02333871
161	0xbd01c120	-0.03167832
162	0xbc854c9a	-0.016271878
163	0xbd2c5b40	-0.04207921
164	0x3d5003d0	0.050784886
165	0xbd876737	-0.066114835
166	0x3cfde080	0.030990839
167	0x3c377d27	0.011199272
168	0x3db2a4c8	0.08722836
169	0xbc559dda	-0.013038123
170	0x3ab64000	0.0013904572
171	0xbda50843	-0.080582164
172	0xbd4de223	-0.05026449
173	0x3d93962d	0.07206378
174	0xbcb131e0	-0.021630228
175	0x3d2eacda	0.042645313
176	0xbc0c149a	-0.008549834
177	0x3da268b5	0.079301275
178	0xbc9ab607	-0.018885626
179	0xbd8b68db	-0.06807109
180	0x3dbdebdf	0.092735045
181	0xbce14053	-0.027496492
182	0x3d60b617	0.054861154
183	0x3b7dc29a	0.0038720728
184	0x3cab7ce0	0.020933568
185	0xbdafb08b	-0.08578595
186	0x3bdcba67	0.006736088
187	0xbd6131c0	-0.054979086
188	0x3d6a1393	0.057147574
189	0xbd4c3d7a	-0.049863316
190	0xbdad63e2	-0.08466317
191	0xbc570767	-0.013124323
192	0x3d875df3	0.06609716
193	0x3d4926b7	0.049109187
194	0xbd31994a	-0.04335908
195	0xbd5802f7	-0.052737202
196	0xbd8c68c2	-0.068559185
197	0x3cea561a	0.02860551
198	0xbd0ad00d	-0.03388982
199	0x3d26dbd7	0.040737
200	0xbd93721b	-0.07199498
201	0xbcc27b5b	-0.023740461
202	0x3d2d5b2c	0.042323276
203	0xbd81767f	-0.063214295
204	0x3d96ec8f	0.07369339
205	0x39df7bd2	0.00042626128
206	0xbce162af	-0.027512876
207	0x3d99d57d	0.07511423
208	0x3ccfd280	0.025368929
209	0xbd9e9b44	-0.07744458
210	0x3db86dcf	0.09005319
211	0x3d0701c6	0.032960676
212	0xbd64b721	-0.055838708
213	0xbd3c684a	-0.045997895
214	0xbc7be766	-0.015374994
215	0xbd967fa9	-0.07348568
216	0x3d1043f0	0.03522104
217	0xbdc05b54	-0.093924195
218	0x3d1bcfc2	0.03803993
219	0x3d0e2626	0.03470435
220	0x3d71e279	0.05905387
221	0x3d8ad311	0.06778539
222	0xbc74a1c4	-0.014931146
223	0xbbf4f712	-0.007475742
224	0xbd854ffc	-0.065093964
225	0x3d0434bb	0.03227685
226	0xbce21857	-0.027599497
227	0x3d9fb5bd	0.07798336
228	0x39d748c3	0.00041062207
229	0xbda4879f	-0.0803368
230	0x3c432b51	0.011912183
231	0x3d1f6de8	0.038923174
232	0x3d1c9569	0.038228426
233	0xbd14130f	-0.03615099
234	0xbdc1693d	-0.09443901
235	0xbd395a11	-0.04525191
236	0xbd82a488	-0.06379038
237	0xbd17a937	-0.03702661
238	0xbdbcb317	-0.09213846
239	0x3d8ddbbc	0.06926677
240	0x3cc9ee4e	0.024649765
241	0x3d51f75b	0.051261287
242	0xbcec59df	-0.028851448
243	0xbcd58582	-0.026064638
244	0xbd8486d9	-0.06471033
245	0xbd1a36ab	-0.03764979
246	0x3dadfea7	0.08495837
247	0xbdc3f269	-0.095677204
248	0xbd61bc67	-0.055111315
249	0xbd56a1a8	-0.05240026
250	0xbda6ebe0	-0.08150458
251	0xbd5e8479	-0.054325555
252	0xbd07c2d4	-0.033144787
253	0xbd58167d	-0.05275582
254	0x3d51614f	0.05111819
255	0x3b33c540	0.0027430803

fc_out1.bias f4 [50]
0	0x3d8019a5	0.06254891
1	0xbcae340d	-0.021265054
2	0x3d2db99c	0.04241334
3	0xbcd685f8	-0.026186928
4	0x3d81ad52	0.06331886
5	0xbd810b0b	-0.063009344
6	0xbc439b9e	-0.0119389575
7	0x3d8c2398	0.068427265
8	0xbd400f83	-0.046889793
9	0x39d30667	0.00040249826
10	0xbc03abbe	-0.008036552
11	0x3dae9e3c	0.085262746
12	0xbdc396d5	-0.09550253
13	0xbd50548d	-0.050861884
14	0x3b892591	0.0041853865
15	0xbd89a0a2	-0.067200914
16	0xbba4033f	-0.00500527
17	0xbc3b135a	-0.011418188
18	0x3b6416a7	0.003480354
19	0xbd93b04b	-0.072113596
20	0xbdc63aa8	-0.096791565
21	0x3db46bb1	0.08809603
22	0xbd2600b3	-0.04052801
23	0x3db5bdbd	0.0887408
24	0xbdb0fb65	-0.086417
25	0xbb9c0dcd	-0.0047623874
26	0xbc8a9db3	-0.0169209
27	0xbd95f27a	-0.07321639
28	0xbc8ae5a4	-0.016955204
29	0x3a9446dd	0.0011312623
30	0xbc827d5a	-0.015928913
31	0x3c273654	0.010205824
32	0x3d8e6437	0.06952708
33	0x3d9774c0	0.07395315
34	0xbdb188df	-0.08668684
35	0x3d90e9fd	0.0707588
36	0xbbf08f9a	-0.0073413374
37	0xbdbe6028	-0.09295684
38	0xbdca2d5d	-0.098719336
39	0x3d1dfd52	0.038571663
40	0x3db33abc	0.08751437
41	0x3db2a36d	0.08722577
42	0x3da88350	0.08228171
43	0xbd637869	-0.055534754
44	0x3ca41277	0.020028336
45	0xbd5dd957	-0.05416235
46	0xbd02b676	-0.03191229
47	0xbdc0c193	-0.09411921
48	0xbdc44f6a	-0.095854595
49	0xbcf7ec1b	-0.030263951

fc_out.weight f4 [2, 50]
0	0x3debe511	0.115183
1	0xbc9b156e	-0.018931117
2	0x3de94cf9	0.113916345
3	0xbe0c7357	-0.13715874
4	0xbc069007	-0.00821305
5	0xbd4ba200	-0.049715042
6	0x3dda23e6	0.10651378
7	0xbe1181ed	-0.14209719
8	0xbc12deb5	-0.00896423
9	0xbe08b0d3	-0.13348703
10	0x3c9f2495	0.019426623
11	0x3dfb7727	0.12278586
12	0xbd988e9f	-0.07449078
13	0x3d071760	0.032981277
14	0x3dc04be2	0.093894735
15	0x3e0dde49	0.13854326
16	0xbd32d730	-0.04366225
17	0xbda77856	-0.08177249
18	0x3c54d081	0.012989164
19	0xbbe6a195	-0.007038305
20	0x3d71e2d4	0.05905421
21	0x3ddd129a	0.107945636
22	0xbd15da47	-0.03658512
23	0xbdcd6223	-0.10028484
24	0xbd3ab9b6	-0.045587264
25	0x3e07ee16	0.13274416
26	0x3d788860	0.060676932
27	0x3b68f7ef	0.003554817
28	0x3d141572	0.036153264
29	0xbe0a8765	-0.13528211
30	0xbd00ecf8	-0.03147599
31	0x3e0156f7	0.1263083
32	0x3d6cee50	0.05784446
33	0xbd5e5e63	-0.054289233
34	0x3ce8ddf3	0.028426146
35	0x3e081ad7	0.13291489
36	0x3d5842ee	0.052798204
37	0x3d13830a	0.03601364
38	0x3d72dc04	0.059291855
39	0xbdaf0f7d	-0.08547876
40	0x3ca27157	0.019829435
41	0x3cf9299c	0.030415349
42	0x3d420db0	0.047376335
43	0x3d099ffc	0.03359984
44	0x3dbc3542	0.091898456
45	0xbdd37aa2	-0.10326125
46	0x3de906b4	0.11378232
47	0xbd2da8f4	-0.042397454
48	0x3c913e9c	0.01773005
49	0xbdc267d4	-0.0949246
50	0x3d077bc8	0.03307703
51	0x3e08d5cb	0.13362806
52	0xbd192b59	-0.037394855
53	0xbb8090fa	-0.0039235326
54	0x3dc888b7	0.09791701
55	0xbd5a5c5d	-0.05331074
56	0xbdb08ada	-0.08620234
57	0x3c0ef1e7	0.008724666
58	0xbd4e7d6e	-0.050412588
59	0xbdf1eec3	-0.11813118
60	0x3d571685	0.05251171
61	0x3d866e42	0.06563999
62	0x3deeefcc	0.116668314
63	0x3d8ec172	0.069704905
64	0xbe10cc25	-0.14140375
65	0xbd18fab1	-0.037348453
66	0x3d50a02b	0.050933998
67	0xbe0784d2	-0.1323426
68	0x3d9defcc	0.07711753
69	0xbdd8452f	-0.10560071
70	0x3d8b8e9e	0.068143114
71	0x3de81b31	0.11333311
72	0xbd289d63	-0.04116572
73	0x3cc0ea7f	0.023549316
74	0xbdab2fd6	-0.08358733
75	0x3d2fecbb	0.042950373
76	0xbc00047e	-0.007813571
77	0xbbeb6e88	-0.007184807
78	0x3dfb4a99	0.12270088
79	0x3d58583c	0.05281852
80	0xbd659c1c	-0.05605708
81	0xbca09cc0	-0.019605994
82	0xbcfccd22	-0.030859534
83	0xbd7b5630	-0.06136149
84	0x3d81a5d3	0.063304566
85	0x3d8897f4	0.06669608
86	0xbd35fc48	-0.044430047
87	0xbda0d116	-0.0785238
88	0xbd894bc8	-0.06703907
89	0xbdfa3be6	-0.12218456
90	0xbd9df010	-0.07711804
91	0xbc9314d7	-0.017954273
92	0xbd522b59	-0.05131087
93	0xbd9145fc	-0.070934266
94	0x3e06cfde	0.13165233
95	0x3d6c8405	0.05774309
96	0xbddd410f	-0.108034246
97	0xbde8812d	-0.11352763
98	0x3d4a94f2	0.04945845
99	0xbdb95a7b	-0.09050461

fc_out.bias f4 [2]
0	0x3ce342a5	0.02774174
1	0x3d2a2bd5	0.041545708

exp_avg f4 [300, 2]
0	0xb65564b8	-3.17981e-06
1	0xb61e144a	-2.3555644e-06
2	0xb80b8c2f	-3.327074e-05
3	0xb7a3022b	-1.9432124e-05
4	0xb913e20f	-0.00014103226
5	0xb8fe4c0a	-0.00012125827
6	0x37c8bb00	2.3928937e-05
7	0x37a3661b	1.947866e-05
8	0x38f98230	0.000118974946
9	0x38dd9858	0.000105664774
10	0x38472da1	4.7487792e-05
11	0x38958203	7.12909e-05
12	0xb7ba4cbe	-2.2208664e-05
13	0xb6810ae6	-3.8457683e-06
14	0x390eba72	0.00013611632
15	0x391a160f	0.00014694802
16	0x3903ecad	0.00012581302
17	0x38fbcfb0	0.000120072975
18	0x36ed3fde	7.0705855e-06
19	0x370555a3	7.947357e-06
20	0xb8e7fa0b	-0.000110615125
21	0xb9028dbd	-0.00012450568
22	0x37e60275	2.741928e-05
23	0x3816a309	3.5914625e-05
24	0xb7983609	-1.8144974e-05
25	0xb7c0954f	-2.295771e-05
26	0x37990125	1.8239554e-05
27	0x376136b8	1.3423785e-05
28	0x35e24aab	1.6860043e-06
29	0x365a4454	3.2524304e-06
30	0xb86974c1	-5.5660264e-05
31	0xb89215b8	-6.965868e-05
32	0x38ecc7ad	0.000112905494
33	0x38ec1092	0.000112564434
34	0xb62380d1	-2.4363874e-06
35	0x367f6cb7	3.8061241e-06
36	0x37f0569a	2.8650556e-05
37	0x382272c4	3.8730694e-05
38	0x39a3cab4	0.00031240808
39	0x39a8b083	0.00032174969
40	0xba0bce30	-0.00053331535
41	0xba0b9b7e	-0.00053255993
42	0x38146d9b	3.5388028e-05
43	0x3808f553	3.2653403e-05
44	0xba143b2c	-0.0005654569
45	0xba12a9b9	-0.00055947487
46	0xb695188a	-4.4434028e-06
47	0xb7b14ade	-2.1134907e-05
48	0xb7ff44cf	-3.043041e-05
49	0xb80c2771	-3.3415334e-05
50	0xb8331c8d	-4.2703516e-05
51	0xb80ccc21	-3.356871e-05
52	0xb78687c6	-1.603727e-05
53	0xb788eb0a	-1.6321912e-05
54	0x39101bdd	0.0001374329
55	0x39071c64	0.0001288518
56	0xb8c0f205	-9.200353e-05
57	0xb8be828a	-9.084221e-05
58	0xb61e6d5a	-2.3607486e-06
59	0x34aea85e	3.253253e-07
60	0xb6a9b61e	-5.0577937e-06
61	0xb7335187	-1.06882135e-05
62	0x398ec553	0.0002723137
63	0x39a5b754	0.00031607843
64	0xb89d121b	-7.489716e-05
65	0xb887c9a8	-6.474863e-05
66	0x388df8cc	6.769746e-05
67	0x386ad42c	5.5987548e-05
68	0x38d7eeb1	0.00010296459
69	0x38c7dcd7	9.530194e-05
70	0xb808522a	-3.2501448e-05
71	0xb7f2f65d	-2.896337e-05
72	0xb990505e	-0.00027525699
73	0xb98c5aaf	-0.00026770445
74	0xb6a3e1fa	-4.8840857e-06
75	0xb70b6b9c	-8.3101e-06
76	0x38bac418	8.9056964e-05
77	0x38815938	6.1678176e-05
78	0xb732b00d	-1.0650617e-05
79	0xb70beacc	-8.3397135e-06
80	0x38c215da	9.254711e-05
81	0x38c576cc	9.41582e-05
82	0x39512d0d	0.00019948576
83	0x393d3323	0.00018043494
84	0xb854882b	-5.0671555e-05
85	0xb8706366	-5.731303e-05
86	0x383d3cf9	4.5117897e-05
87	0x384360df	4.658184e-05
88	0x390a7430	0.00013203989
89	0x39033ecc	0.00012516527
90	0xb6b1bfd5	-5.2973433e-06
91	0xb7020b9e	-7.751309e-06
92	0xb976f014	-0.00023549824
93	0xb981a621	-0.00024728573
94	0x378bb243	1.66531e-05
95	0x378ea768	1.7005674e-05
96	0xb7100eaf	-8.586488e-06
97	0xb76df24d	-1.4182716e-05
98	0xb9246275	-0.00015676937
99	0xb91fb5fc	-0.00015231216
100	0x399430f6	0.00028265239
101	0x398a7294	0.00026406778
102	0xb9820776	-0.0002480109
103	0xb98fefe8	-0.0002745383
104	0x391f060b	0.00015165673
105	0x3926abdf	0.0001589502
106	0x39020cae	0.0001240249
107	0x3907fe0c	0.00012969243
108	0xb811ccdc	-3.4761484e-05
109	0xb81e28b6	-3.770805e-05
110	0xb938dc34	-0.0001762964
111	0xb933652a	-0.00017108457
112	0xb63b8968	-2.7945152e-06
113	0xb662ce3a	-3.3796664e-06
114	0xb8aa7683	-8.128306e-05
115	0xb81c2926	-3.723162e-05
116	0x3788e5f5	1.6319545e-05
117	0x36a618ba	4.950064e-06
118	0x3762b894	1.3513625e-05
119	0x3754edcc	1.2691551e-05
120	0x39234962	0.00015572229
121	0x392943c3	0.00016142339
122	0x3894cdbc	7.095511e-05
123	0x3886272d	6.396915e-05
124	0x38a01b99	7.634535e-05
125	0x3890bce4	6.901639e-05
126	0x392275ee	0.00015493456
127	0x391ca94c	0.00014940387
128	0x387c7a26	6.019524e-05
129	0x38400b3b	4.5786826e-05
130	0x39e13011	0.00042951157
131	0x39db334a	0.00041809148
132	0xb93f4c9d	-0.0001824372
133	0xb9300c51	-0.00016789256
134	0x390f5b08	0.00013671455
135	0x390fa4f4	0.00013698993
136	0xb90dccf2	-0.00013523156
137	0xb9090caa	-0.00013070056
138	0x3968125f	0.00022132088
139	0x3958a09d	0.00020659198
140	0x381454aa	3.53648e-05
141	0x381acfac	3.690987e-05
142	0x38c962b2	9.60281e-05
143	0x38bbd6c5	8.956859e-05
144	0xb5da770a	-1.6276911e-06
145	0xb5b3e0b8	-1.3401941e-06
146	0x3861fe5c	5.388107e-05
147	0x3884f9d4	6.3407846e-05
148	0xb8a45399	-7.835701e-05
149	0xb89ce81c	-7.4818934e-05
150	0x381a889a	3.684368e-05
151	0x38904484	6.879217e-05
152	0xb9098aae	-0.00013117
153	0xb9021417	-0.0001240525
154	0x381f53de	3.798666e-05
155	0x380df755	3.3847366e-05
156	0xb777db7c	-1.477345e-05
157	0xb789c1f3	-1.6421987e-05
158	0x365a55a7	3.2534388e-06
159	0x36991d96	4.5631996e-06
160	0x396c0e18	0.00022511964
161	0x395e3e7b	0.00021194846
162	0xb96efa0e	-0.00022790601
163	0xb97bbf5e	-0.00024008515
164	0xb8151ee4	-3.5553137e-05
165	0xb813b86a	-3.521928e-05
166	0xb924934c	-0.00015695131
167	0xb9248796	-0.00015690768
168	0x38fe6896	0.000121311445
169	0x38ef00b1	0.00011396537
170	0x390d35cd	0.0001346685
171	0x39018525	0.00012351999
172	0x3649f3a0	3.0093142e-06
173	0x3588afe2	1.0183978e-06
174	0x37f59a47	2.9278117e-05
175	0x382702c7	3.981849e-05
176	0x38629fd3	5.4031447e-05
177	0x387999c9	5.950945e-05
178	0xb8c1ee07	-9.247293e-05
179	0xb8c210be	-9.253759e-05
180	0xb7c72e93	-2.3744336e-05
181	0xb824ebff	-3.9320435e-05
182	0x380fb8da	3.4266013e-05
183	0x3801b3a8	3.0923315e-05
184	0x35ebb8c6	1.756264e-06
185	0x36274a37	2.4928138e-06
186	0x379fc1ce	1.9044524e-05
187	0x379ebd3d	1.8923189e-05
188	0xb90c5501	-0.00013383107
189	0xb8a5e1aa	-7.909846e-05
190	0x38030bdf	3.124389e-05
191	0x380bd7e9	3.3341264e-05
192	0x390a9527	0.00013216269
193	0x38e995aa	0.00011138183
194	0xb8ee000a	-0.00011348732
195	0xb8ea21d1	-0.00011164288
196	0xb7304374	-1.0506123e-05
197	0xb7193d7c	-9.133826e-06
198	0x3687d1ba	4.047729e-06
199	0xb58f8e87	-1.0695811e-06
200	0x35049adb	4.9399176e-07
201	0x354adb45	7.5569943e-07
202	0x3617edd8	2.2639197e-06
203	0x358d7097	1.0538087e-06
204	0x36db9561	6.5440986e-06
205	0x36bb7648	5.586804e-06
206	0x34bcc321	3.5159704e-07
207	0x34d067e4	3.881861e-07
208	0xb6ddc93b	-6.6097396e-06
209	0xb6bd31c7	-5.638434e-06
210	0xb55b045c	-8.15902e-07
211	0xb5dc23c6	-1.6401689e-06
212	0xb4ce16ee	-3.8387174e-07
213	0xb5aca28e	-1.2862308e-06
214	0xb7353e53	-1.0802952e-05
215	0xb74dd68d	-1.2268906e-05
216	0xb7eade0a	-2.7998369e-05
217	0xb7eaba1c	-2.7981638e-05
218	0xb63066f9	-2.6285982e-06
219	0xb620555c	-2.3891544e-06
220	0xb7374a3b	-1.0924933e-05
221	0xb719bfdd	-9.164182e-06
222	0xb5d716f8	-1.6025433e-06
223	0xb60f762c	-2.1377446e-06
224	0xb58f1e1a	-1.0663091e-06
225	0xb549851a	-7.5072023e-07
226	0xb6aca1bf	-5.144829e-06
227	0xb6bab8d9	-5.564751e-06
228	0x351ec3dd	5.9144605e-07
229	0x354901d0	7.488097e-07
230	0xb5234a5c	-6.083044e-07
231	0xb5217610	-6.014898e-07
232	0xb639f3a6	-2.770897e-06
233	0xb6610ea7	-3.3536141e-06
234	0x370023c9	7.637726e-06
235	0x36f53364	7.3075516e-06
236	0xb6769d44	-3.6748397e-06
237	0xb692f48d	-4.3796085e-06
238	0xb775da52	-1.465397e-05
239	0xb76ea956	-1.4225332e-05
240	0x37a0682a	1.9121991e-05
241	0x379e5943	1.8876633e-05
242	0xb3a213c4	-7.547308e-08
243	0x34e14e8a	4.196666e-07
244	0x372f3429	1.0442957e-05
245	0x373aa94a	1.112588e-05
246	0x3716bb83	8.984355e-06
247	0x371b833c	9.269275e-06
248	0xb6007123	-1.913934e-06
249	0xb5fe89a4	-1.8964533e-06
250	0x35b2d87b	1.3325038e-06
251	0x3599f090	1.1469401e-06
252	0xb5eea766	-1.7781101e-06
253	0xb6116bb0	-2.1669366e-06
254	0xb8369041	-4.352653e-05
255	0xb8313b3d	-4.225526e-05
