test_dagster/mlruns/0/438f26fb5e944b4ab33f68097ca5feb4/artifacts/prediction_model/data/model.pth (torch, 155663 bytes, 8 tensors)

weight_ih_l0 f4 [300, 2]
0.06155459 -0.037249018 0.07434863 -0.02201289 0.036379363 0.057747293 0.00082436803 -0.061180856
-0.061059117 -0.0005936861 0.074359074 0.026701152 -0.04761387 0.085479 0.054886043 -0.08171612
-0.022607232 0.0005969882 -0.060847964 -0.03524561 -0.07639789 0.085429765 -0.06725992 -0.08069191
-0.001593423 0.027979303 -0.0694912 0.06520293 0.019899417 -0.020873357 0.09088782 0.037206244
0.0063069225 0.079382755 0.009753383 -0.07741574 0.098522544 0.09629277 -0.0027719499 0.007336974
-0.020478403 0.07543173 0.019172644 0.0615862 0.008604479 -0.084840834 0.09802141 0.07222575
0.012789416 0.074413754 0.096119635 -0.063217774 -0.07433009 0.08898175 -0.03567767 0.09512478
0.09328987 -0.039066076 0.0842149 -0.03380083 0.028082633 -0.0047605755 0.07748462 0.029265631
0.086020745 -0.055714037 -0.017797267 -0.097190894 0.0044880393 -0.056374192 -0.095622994 0.029404951
-0.08380927 -0.019023169 0.071455956 -0.08532041 0.07742126 -0.09842198 0.0430668 -0.09138942
-0.026875675 -0.045540977 0.038562443 -0.0019310713 -0.021564841 0.088097475 0.051064957 0.03741151
0.09807616 -0.02613753 0.07498242 -0.0028533936 0.060805406 -0.0046666744 -0.016568495 -0.0032304765
-0.092972495 0.08073622 0.07293429 0.011658526 0.041255273 0.0105325105 -0.04120151 -0.08607546
0.0098816035 0.013723326 0.08467495 -0.09923642 -0.023658812 0.08670092 0.0072908164 0.045165457
0.03984053 0.054730475 -0.05621902 0.021354748 -0.014883685 0.01471256 -0.020779753 -0.06478653
0.054882135 -0.013059366 0.011837197 -0.008596289 -0.022685302 0.029076923 -0.05691501 -0.01299038
0.026032139 0.07831053 -0.0055437684 -0.08816498 0.05869918 -0.04783411 0.021576619 -0.009501374
-0.09870732 -0.04450145 0.09497404 0.053045273 -0.03564514 -0.0087912325 0.018609047 -0.09682875
0.032541957 0.02787434 0.030366052 0.040163267 -0.014820099 -0.059428193 -0.0134756565 -0.06620475
0.040696084 0.03317832 0.04175204 -0.078505985 -0.04895674 -0.033766475 -0.011255181 -0.026496101
-0.03207743 -0.019094288 -0.046069052 0.06120522 -0.017390192 -0.02405467 0.057959855 -0.07061163
-0.026163852 0.08406466 -0.012039745 -0.09871378 0.043907847 0.035012987 0.032124307 -0.07555447
0.096688114 -0.06444969 -0.05395169 -0.040915348 0.07664418 -0.09613849 0.02373805 -0.060019683
-0.022431124 0.053163555 -0.0781879 0.013278782 0.047825243 0.008735097 -0.05492071 -0.056563117
-0.02789005 -0.051434197 -0.097811274 -0.05526177 0.06469531 0.058193456 -0.013312876 -0.093716584
0.05040226 -0.080533326 0.047291446 0.07316549 0.030115997 0.0138447285 -0.052846648 0.051835954
-0.03500074 -0.0835976 0.057292294 -0.014806569 -0.019181753 0.090321496 -0.0010669827 -0.04466672
-0.07533129 -0.09528736 0.028533448 0.0529683 0.04792725 0.027646495 0.032064177 0.096838675
0.014926195 0.019709373 0.040342867 -0.06183772 -0.012835932 -0.073266804 0.073642366 0.08986862
-0.08206946 0.021853853 0.07606461 -0.01762097 0.08142873 -0.037644576 0.067618564 0.039139282
0.07708144 0.054418087 -0.062134363 0.07727184 -0.033798218 0.0038834214 -0.07331985 0.06787788
-0.024713088 -0.049309194 -0.09716389 -0.020260155 -0.029066324 0.004397571 0.059572615 0.002745843
00000000: aa20 7c3d 6d92 18bd 1844 983d 6054 b4bc
00000010: 8702 153d 6d88 6c3d 671a 583a c798 7abd
00000020: 2019 7abd 9aa1 1bba 9249 983d 60bc da3c
00000030: c306 43bd 9d0f af3d 30d0 603d c85a a7bd
00000040: cd32 b9bc 337f 1c3a b73b 79bd b35d 10bd
00000050: 7f76 9cbd cdf5 ae3d 92bf 89bd cd41 a5bd
00000060: 67da d0ba da34 e53c 6751 8ebd 1d89 853d
00000070: 1a04 a33c 9afe aabc 6523 ba3d 9365 183d
00000080: 4daa ce3b 6d93 a23d a7cc 1f3c 258c 9ebd
00000090: 30c6 c93d 2535 c53d 9aa9 35bb 006b f03b
000000a0: 53c2 a7bc f37b 9a3d f30f 9d3c d041 7c3d
000000b0: cdf9 0c3c 08c1 adbd 73bf c83d 18eb 933d
000000c0: b38a 513c 3d66 983d 5fda c43d 5278 81bd
000000d0: 603a 98bd 103c b63d c022 12bd c8d0 c23d
000000e0: c20e bf3d c003 20bd dd78 ac3d bd72 0abd
000000f0: 8d0d e63c 9afe 9bbb 42b0 9e3d 7abe ef3c
00000100: a52b b03d 6734 64bd 93cb 91bc 050c c7bd
00000110: 6710 933b a0e8 66bd fdd5 c3bd a7e2 f03c
00000120: 32a4 abbd 7ad6 9bbc 8057 923d 78bc aebd
00000130: 0a8f 9e3d 7791 c9bd d066 303d 602a bbbd
00000140: 602a dcbc 2d89 3abd a7f3 1d3d 001c fdba
00000150: c0a8 b0bc 736c b43d 7d29 513d d03c 193d
00000160: 27dc c83d 601e d6bc 6290 993d 0000 3bbb
00000170: 170f 793d e7ea 98bb a7ba 87bc 67b6 53bb
00000180: 5d68 bebd 0859 a53d 935e 953d 6703 3f3c
00000190: 4afb 283d 8d90 2c3c eac2 28bd 5548 b0bd
000001a0: 73e6 213c cdd7 603c 0f6a ad3d 773c cbbd
000001b0: 20d0 c1bc 4090 b13d cde7 ee3b 6aff 383d
000001c0: d32f 233d 102d 603d ea45 66bd 27f0 ae3c
000001d0: b3da 73bc f30c 713c 4d3a aabc cdae 84bd
000001e0: 17cc 603d f3f6 55bc cdf0 413c 73d7 0cbc
000001f0: 87d6 b9bc ba32 ee3c b71f 69bd 9ad5 54bc
00000200: 5a41 d53c 4561 a03d 80a8 b5bb d78f b4bd
00000210: 8d6e 703d b3ed 43bd 73c1 b03c a7ab 1bbc
00000220: 1027 cabd 2747 36bd c081 c23d 0046 593d
00000230: a300 12bd 1a09 10bc 0072 983c 274e c6bd
00000240: b74a 053d ba58 e43c 3ac2 f83c 3d82 243d
00000250: 00d0 72bc fa6a 73bd 00c9 5cbc 5b96 87bd
00000260: f0b0 263d fde5 073d 3004 2b3d bfc7 a0bd
00000270: dd86 48bd b74e 0abd a767 38bc 5a0e d9bc
00000280: a063 03bd a06b 9cbc e7b2 3cbd 53b2 7a3d
00000290: e075 8ebc 4d0e c5bc 5067 6d3d d59c 90bd
000002a0: 9355 d6bc 182a ac3d 5a42 45bc 732a cabd
000002b0: b7d8 333d c769 0f3d c794 033d 4dbc 9abd
000002c0: 6b04 c63d 33fe 83bd 73fc 5cbd da96 27bd
000002d0: a0f7 9c3d 42e4 c4bd 4d76 c23c 33d7 75bd
000002e0: 7ac1 b7bc 07c2 593d fa20 a0bd 408f 593c
000002f0: 67e4 433d a71d 0f3c 8af4 60bd baae 67bd
00000300: ad79 e4bc aaac 52bd 4751 c8bd 2a5a 62bd
00000310: fa7e 843d 435c 6e3d 401e 5abc 7bee bfbd
00000320: 9a72 4e3d a8ee a4bd adb4 413d cad7 953d
00000330: d3b5 f63c 00d5 623c ba75 58bd f051 543d
00000340: f05c 0fbd 3835 abbd 53ab 6a3d 4097 72bc
00000350: 0d23 9dbc 7afa b83d 00da 8bba 73f4 36bd
00000360: 4b47 9abd 0526 c3bd fabe e93c 4af5 583d
00000370: 5d4f 443d e77a e23c ba55 033d 5b53 c63d
00000380: 008d 743c 8d75 a13c 903e 253d 8d49 7dbd
00000390: cd4d 52bc e80c 96bd cfd1 963d 0a0d b83d
000003a0: 0814 a8bd da06 b33c c3c7 9b3d da59 90bc
000003b0: 1bc4 a63d 3331 1abd 9a7b 8a3d 8350 203d
000003c0: e0dc 9d3d 80e5 5e3d 9a80 7ebd b340 9e3d
000003d0: 0070 0abd 0081 7e3b b828 96bd 8f03 8b3d
000003e0: 1a73 cabc 70f8 49bd ddfd c6bd a0f8 a5bc
000003f0: 801c eebc 8019 903b 6a02 743d 9af3 333b

weight_hh_l0 f4 [300, 100]
-0.07937771 0.06449115 -0.07733933 -0.08278034 0.04863099 0.088797465 0.061521795 -0.089697696
0.03158691 0.09418447 -0.0414758 -0.015162862 -0.016139304 -0.02736913 0.0022983195 0.0011594773
-0.055530418 -0.058291446 -0.0027931572 -0.07332393 -0.04345348 0.09226453 -0.03534515 -0.071846224
0.037697818 -0.09630813 -0.09308143 0.04286752 0.06394235 -0.0493212 0.011113751 0.028609013
-0.052809026 0.089840494 0.07682071 0.04395287 0.040384352 -0.049963642 -0.0138039235 -0.01612562
0.09862383 -0.084258415 0.059601285 -0.07486053 -0.0080451965 -0.09457711 -0.043482196 -0.092575215
0.07138248 0.0861209 0.073051296 0.06230842 0.016566372 0.029682446 0.042589236 0.09192639
0.0012608409 -0.02374295 0.0066289427 -0.028750552 0.026383197 -0.0060744407 -0.06988642 0.009390414
-0.055889536 0.08908987 0.08172854 -0.035243213 -0.078613594 -0.012301457 0.04886333 0.042609572
0.06951236 0.043743398 0.09739822 0.022541916 0.031089818 -0.06577142 0.08042451 0.08119003
-0.034270015 -0.07347291 -0.0096727135 -0.036949813 -0.09612473 0.09467389 0.059993338 -0.008369744
0.078458 0.08641528 -0.072536945 -0.05554037 0.049590766 0.0043080687 0.08607619 0.008062363
-0.04197966 0.05203253 0.014546526 -0.03334515 -0.09165596 -0.08802004 -0.045725144 -0.034203973
0.02963171 0.0051774266 -0.076594524 0.038654815 0.04968628 0.030282116 0.08654427 0.032397117
0.055449583 -0.011296845 -0.09485441 0.0418211 0.049208462 -0.008471883 0.09359237 -0.04218595
-0.03771304 -0.0984197 -0.06428554 0.034742128 0.008472514 -0.095907174 0.0019676804 -0.066807084
-0.051562835 -0.02487216 -0.05612842 -0.06989248 -0.0069794892 -0.05538633 -0.035610963 -0.026830947
-0.062299382 0.019933833 -0.009054589 0.02714597 0.075406685 -0.0456133 -0.04842521 -0.04513631
0.072499834 0.08370216 -0.05560943 0.037283685 0.05652932 0.020232856 0.09251831 -0.06025959
-0.08637847 -0.025474453 -0.020441974 0.032943178 0.023523021 -0.07874095 0.006346798 -0.07786409
0.035639334 0.023771275 -0.086596064 0.096017115 -0.0061698556 -0.013451124 -0.060998082 -0.03827522
-0.085762225 -0.051963698 0.004964435 0.040417768 0.095250666 0.053372025 -0.09546558 0.042544473
0.060444023 -0.02505343 0.026964867 0.034722686 0.051202346 -0.075932935 0.07570275 0.08412015
-0.015797162 -0.08870003 -0.021481752 -0.0010632515 0.035594583 0.037665345 0.04590508 0.09550668
-0.05016556 0.06501403 -0.066478506 -0.0058272122 0.055943348 -0.01268822 0.0076759458 0.03150735
-0.0031030774 -0.09139317 -0.09851076 0.06266423 0.05309869 0.04345497 -0.0003730774 0.0030126094
-0.0076078414 0.0991896 -0.012367117 -0.09840553 0.029101063 -0.04645145 -0.075086884 -0.071025014
0.07668977 0.016460348 0.05777364 -0.05617703 -0.05414734 0.002181363 0.0006177902 0.030421663
0.09206656 -0.0209499 -0.040245093 0.061710346 0.03924158 0.033427563 -0.08078436 0.020661438
0.07069349 0.026202679 -0.07866924 -0.021276547 -0.06032299 -0.02508179 0.09013184 -0.07014666
0.09798565 -0.06866073 -0.08927355 0.034214295 -0.032673456 0.005657125 -0.0962294 -0.070131205
0.019748498 -0.06510053 0.042402435 0.056659974 -0.024174858 0.018117726 0.030363703 0.04534012
00000000: c890 a2bd f013 843d 1564 9ebd bd88 a9bd
00000010: 4a31 473d 72db b53d 47fe 7b3d 6db3 b7bd
00000020: 4761 013d cae3 c03d 87e2 29bd a76d 78bc
00000030: 9336 84bc 3a35 e0bc 679f 163b 9af9 973a
00000040: dd73 63bd 03c3 6ebd 670d 37bb db2a 96bd
00000050: 47fc 31bd 30f5 bc3d 13c6 10bd 1d24 93bd
00000060: 0769 1a3d 323d c5bd 7aa1 bebd da95 2f3d
00000070: 35f4 823d 0705 4abd 7316 363c 735d ea3c
00000080: 474e 58bd 4bfe b73d 2d54 9d3d ed07 343d
00000090: 106a 253d ada6 4cbd da29 62bc e019 84bc
000000a0: 4afb c93d ad8f acbd 7a20 743d 7a50 99bd
000000b0: 00d0 03bc a5b1 c1bd 631a 32bd 1398 bdbd
000000c0: fa30 923d 2860 b03d eb9b 953d 1d37 7f3d
000000d0: 33b6 873c 9a28 f33c 0d72 2e3d e743 bc3d
000000e0: cd42 a53a 9380 c2bc 9a37 d93b 4786 ebbc
000000f0: 9321 d83c 1a0c c7bb 9d20 8fbd 40da 193c
00000100: 6dec 64bd c074 b63d 4b61 a73d 305b 10bd
00000110: 2a00 a1bd 0d8c 49bc ea24 483d 6087 2e3d
00000120: 7f5c 8e3d 472c 333d b878 c73d d3a9 b83c
00000130: 13b0 fe3c 2bb3 86bd 9bb5 a43d f546 a63d
00000140: b75e 0cbd f778 96bd 4d7a 1ebc b058 17bd
00000150: 0bdd c4bd 62e4 c13d 93bb 753d 4021 09bc
00000160: 97ae a03d 7ffa b03d 408e 94bd 4d7e 63bd
00000170: b01f 4b3d b32a 8d3b b748 b03d 0018 043c
00000180: ddf2 2bbd 1020 553d 8d54 6e3c ed94 08bd
00000190: 1fb6 bbbd da43 b4bd 4a4a 3bbd 7719 0cbd
000001a0: 33be f23c 67a7 a93b 97dd 9cbd 8354 1e3d
000001b0: d783 4b3d 3312 f83c 1f3e b13d d7b2 043d
000001c0: 1a1f 633d 6716 39bc 0743 c2bd 9a4c 2b3d
000001d0: d08e 493d a7cd 0abc 5bad bf3d 2dcb 2cbd
000001e0: fd78 1abd 4590 c9bd 23a8 83bd c34d 0e3d
000001f0: 4dd0 0a3c fb6a c4bd 33f4 003b 27d2 88bd
00000200: 8d33 53bd b3c0 cbbc eae6 65bd ca23 8fbd
00000210: 33b4 e4bb c7dc 62bd cddc 11bd 93cc dbbc
00000220: a32d 7fbd 474c a33c b359 14bc 3a61 de3c
00000230: d26e 9a3d 03d5 3abd 8359 46bd dae0 38bd
00000240: cb7a 943d 0a6c ab3d b7c6 63bd c7b6 183d
00000250: 4a8b 673d 60bf a53c 3d7a bd3d c3d2 76bd
00000260: 32e7 b0bd cdaf d0bc ed75 a7bc 6def 063d
00000270: 5ab3 c03c ef42 a1bd cdf8 cf3b 3577 9fbd
00000280: 8dfa 113d fabb c23c 4759 b1bd 9fa4 c43d
00000290: 802c cabb 1a62 5cbc 20d9 79bd 7ac6 1cbd
000002a0: 1ba4 afbd e3d7 54bd b3ac a23b 1a8d 253d
000002b0: c812 c33d a09c 5a3d 7583 c3bd 1d43 2e3d
000002c0: 2794 773d da3c cdbc 6de5 dc3c 6039 0e3d
000002d0: 8db9 513d ba82 9bbd 0b0a 9b3d 2f47 ac3d
000002e0: 0d69 81bc 5da8 b5bd 80fa afbc cd5c 8bba
000002f0: a0cb 113d fa46 1a3d f706 3c3d 0299 c33d
00000300: 677a 4dbd 1326 853d e225 88bd 33f2 bebb
00000310: da24 653d 40e2 4fbc 8086 fb3b da0d 013d
00000320: 005d 4bbb 582c bbbd 02c0 c9bd 1b56 803d
00000330: 037e 593d d7fd 313d 9a99 c3b9 336f 453b
00000340: 334b f9bb eb23 cb3d 739f 4abc d788 c9bd
00000350: 5a65 ee3c e043 3ebd 27c7 99bd 9075 91bd
00000360: 870f 9d3d dad7 863c 0da4 6c3d e319 66bd
00000370: 9ac9 5dbd 33f5 0e3b 33f3 213a da36 f93c
00000380: 658d bc3d 209f abbc 0ad8 24bd fdc3 7c3d
00000390: c7bb 203d 57eb 083d 4572 a5bd 2d42 a93c
000003a0: c0c7 903d 00a7 d63c 571d a1bd 274c aebc
000003b0: 3d15 77bd 5378 cdbc 0b97 b83d 0da9 8fbd
000003c0: b3ac c83d ff9d 8cbd 0dd5 b6bd 4a24 0c3d
000003d0: 9ad4 05bd 675f b93b eb13 c5bd f3a0 8fbd
000003e0: 9ac7 a13c 6d53 85bd 2dae 2d3d 4a14 683d
000003f0: 5a0a c6bc a06b 943c 4dbd f83c 90b6 393d

bias_ih_l0 f4 [300]
0.009946942 -0.036444426 -0.064014494 -0.096449316 0.090859294 0.08169061 0.012627375 0.027305305
0.09138533 -0.0711224 0.043814756 -0.06525133 0.04233706 0.00042682886 -0.097653024 0.01197474
0.019858396 0.08949184 -0.031923797 0.062894836 -0.020437062 -0.041188598 0.012444461 0.0072057964
-0.087009266 0.085984014 0.01864307 -0.09595894 0.058369543 -0.06738917 0.0041760327 -0.06819337
0.035026003 -0.0014797926 0.08353652 -0.06822647 -0.088596456 -0.030270755 -0.08834322 0.055279505
-0.06888068 0.026107157 -0.08175434 0.024463952 -0.030677665 0.093446635 -0.09957719 0.004848623
-0.056212164 -0.057909608 0.020096457 -0.06205442 -0.040837824 0.056925774 -0.084064 -0.051522233
0.0411338 -0.08452711 0.056817044 0.027420629 0.030283451 0.07929998 0.032934796 0.020178651
-0.06853882 -0.03933244 -0.06515324 -0.02720952 0.0064406632 0.005880916 -0.07009204 0.01970067
-0.04056275 0.040024664 -0.052340295 -0.04303633 -0.07356669 0.092172556 0.052754294 0.087610066
0.0021622896 -0.049670864 0.04863465 -0.013800538 -0.055912234 -0.0399979 -0.054077208 -0.0058220266
0.09571763 -0.062687695 0.08831314 0.021051992 0.022880638 0.046602834 0.06899343 0.018989278
0.0353284 -0.08327992 0.02656957 0.078590654 -0.079967916 -0.010867345 0.03452883 0.0043025375
0.028918898 -0.03424231 -0.030953228 0.006609404 -0.09908781 0.08934975 -0.057352543 0.0070649865
0.04032239 -0.059752632 -0.019690443 0.023231555 -0.08079647 -0.027063716 0.034163702 -0.082337774
0.01085192 -0.049248446 0.00862757 -0.085103564 0.050621856 -0.02799803 -0.03771794 -0.05091256
0.07003961 0.03153875 0.06360517 -0.0019258142 0.03101988 -0.09580977 0.008141458 -0.074808955
-0.052979935 0.080562286 0.015853072 0.037581958 0.0015004158 0.031573582 -0.0031990171 0.04199263
0.016676618 -0.083901666 -0.0141900545 0.07952906 0.009928334 0.081741504 0.061315715 -0.062994674
-0.039411772 -0.016856253 0.074702494 0.09021919 0.033636343 0.013640463 0.06720402 -0.024165763
-0.08074603 0.077767864 0.04980413 -0.0447909 0.07977565 0.01793288 -0.028265202 0.07241609
0.05737363 -0.079134785 0.040203083 0.07861251 -0.012287128 -0.06785669 0.08854534 0.023466814
-0.03690964 0.017924238 -0.0994448 -0.0022189736 -0.099216096 0.0750492 -0.01191355 0.06906953
-0.025230646 -0.08526995 -0.077868715 0.0067174914 -0.01112578 0.096934654 -0.05730591 -0.017581774
-0.010305667 -0.013659167 0.009216869 -0.03862169 -0.09123232 -0.048387982 -0.09569905 -0.03761363
-0.0419014 0.051123 -0.07136946 0.025176514 0.041371264 0.020054698 0.006349242 -0.009260989
-0.071795024 -0.008971417 -0.0094155315 0.026328122 -0.021789074 -0.0014462232 -0.038882673 -0.059706476
0.019059945 -0.08974981 0.055304706 -0.040698733 -0.045458615 0.07027886 0.080984116 0.027685702
0.013577664 0.019203259 0.019553626 0.012247193 -0.0024205565 0.015815664 0.065268375 0.046932664
0.06967244 -0.06843884 0.09744389 0.025956118 0.025586605 0.021653533 0.061547995 0.045234144
-0.0684723 -0.05453627 0.08426458 0.06785818 -0.010691118 -0.00046857595 0.0022715807 -0.011935353
0.024551213 0.060325325 0.098112725 0.09994166 0.03399049 0.070845544 0.091432594 -0.059536364
00000000: 80f8 223c c046 15bd 081a 83bd 3887 c5bd
00000010: 7014 ba3d 684d a73d 0de3 4e3c 60af df3c
00000020: 3b28 bb3d 9fa8 91bd 1a77 333d 7da2 85bd
00000030: a069 2d3d 00c8 df39 4ffe c7bd b331 443c
00000040: 13ae a23c 7f47 b73d 87c2 02bd 02cf 803d
00000050: a06b a7bc 60b5 28bd dae3 4b3c 9a1e ec3b
00000060: ea31 b2bd 6318 b03d 5ab9 983c 1f86 c4bd
00000070: e714 6f3d 5503 8abd 1ad7 883b f7a8 8bbd
00000080: 6d77 0f3d 9af5 c1ba 3215 ab3d 52ba 8bbd
00000090: 0f72 b5bd 60fa f7bc 4aed b4bd c36c 623d
000000a0: 5011 8dbd adde d53c d26e a7bd a068 c83c
000000b0: ba4f fbbc f360 bf3d 20ef cbbd 33e1 9e3b
000000c0: ba3e 66bd a032 6dbd 53a1 a43c c72c 7ebd
000000d0: 9045 27bd 002b 693d bf29 acbd fa08 53bd
000000e0: ea7b 283d 8d1c adbd fdb8 683d 3aa1 e03c
000000f0: 0015 f83c 0768 a23d a3e6 063d b34d a53c
00000100: 155e 8cbd 0d1b 21bd 106f 85bd 80e6 debc
00000110: 330c d33b b3b4 c03b 6a8c 8fbd 4d63 a13c
00000120: 2025 26bd e7f0 233d c762 56bd dd46 30bd
00000130: 22aa 96bd f7c4 bc3d e314 583d e86c b33d
00000140: 33b5 0d3b ad73 4bbd 2035 473d a71b 62bc
00000150: 3a04 65bd d7d4 23bd 1080 5dbd b3c6 bebb
00000160: 9b07 c43d 6862 80bd 85dd b43d 3a75 ac3c
00000170: 2d70 bb3c 9de2 3e3d 6d4c 8d3d 678f 9b3c
00000180: 83b4 103d aa8e aabd 6da8 d93c 23f4 a03d
00000190: 38c6 a3bd f30c 32bc 1a6e 0d3d 4dfc 8c3b
000001a0: 53e7 ec3c aa41 0cbd a091 fdbc b393 d83b
000001b0: 8dee cabd 00fd b63d 80ea 6abd 6781 e73b
000001c0: 1729 253d 2dbf 74bd da4d a1bc 1a50 be3c
000001d0: 9f78 a5bd bab4 ddbc 3def 0b3d b5a0 a8bd
000001e0: 40cc 313c bdb8 49bd a75a 0d3c c74a aebd
000001f0: dd58 4f3d 205c e5bc 207e 1abd b089 50bd
00000200: ed70 8f3d c72e 013d 6d43 823d 9a6b fcba
00000210: 671d fe3c ea37 c4bd c063 053c 7035 99bd
00000220: 7d01 59bd d7fd a43d 4dde 813c 8aef 193d
00000230: 9aa9 c43a 4d53 013d 9aa6 51bb 7700 2c3d
00000240: 679d 883c a3d4 abbd 677d 68bc 22e0 a23d
00000250: 73aa 223c 1768 a73d 3026 7b3d 5a03 81bd
00000260: 3d6e 21bd 2016 8abc 9ffd 983d d7c4 b83d
00000270: 43c6 093d 407c 5f3c 43a2 893d 47f7 c5bc
00000280: 2d5e a5bd c244 9f3d 6aff 4b3d aa76 37bd
00000290: 6a61 a33d fae7 923c 6d8c e7bc e34e 943d
000002a0: 9d00 6b3d 6b11 a2bd fdab 243d 98ff a03d
000002b0: f34f 49bc 73f8 8abd 4257 b53d 7a3d c03c
000002c0: 902e 17bd dad5 923c b7a9 cbbd 336c 11bb
000002d0: cf31 cbbd 65b3 993d 0d31 43bc 5374 8d3d
000002e0: 80b0 cebc 03a2 aebd a279 9fbd 671e dc3b
000002f0: e748 36bc ad85 c63d 9ab9 6abd a707 90bc
00000300: 1ad9 28bc b3ca 5fbc 5a02 173c c731 1ebd
00000310: 03d8 babd 7a32 46bd ddfd c3bd c010 1abd
00000320: cda0 2bbd 5a66 513d 272a 92bd fa3e ce3c
00000330: ea74 293d c049 a43c 4d0d d03b 67bb 17bc
00000340: 4509 93bd dafc 12bc 9a43 1abc 13ae d73c
00000350: 007f b2bc 338f bdba 7043 1fbd c78e 74bd
00000360: 9a23 9c3c c0ce b7bd 3087 623d b7b3 26bd
00000370: d032 3abd 5dee 8f3d 00db a53d 20cd e23c
00000380: da74 5e3c 2750 9d3c ed2e a03c 73a8 483c
00000390: 33a2 1ebb da8f 813c 6dab 853d 773c 403d
000003a0: 6db0 8e3d aa29 8cbd aa90 c73d eda1 d43c
000003b0: 009b d13c c062 b13c c019 7c3d 7047 393d
000003c0: 353b 8cbd 6d61 5fbd e892 ac3d 3bf9 8a3d
000003d0: cd29 2fbc 33ab f5b9 cdde 143b 808c 43bc
000003e0: a01f c93c b017 773d 53ef c83d 37ae cc3d
000003f0: 9d39 0b3d 7817 913d 0341 bb3d 67dc 73bd

bias_hh_l0 f4 [300]
-0.0035454512 0.07136213 0.072293036 -0.03686228 -0.04464407 -0.074891545 0.09402279 0.038593244
-0.05853808 -0.011002469 0.07299812 0.005944002 0.00072108506 0.0021642565 0.062782004 -0.094928265
0.017232751 -0.02561797 -0.001127863 -0.006267059 0.09881896 0.0016716123 0.012744284 0.055270493
0.032931246 -0.05022496 0.06742839 -0.08870745 0.08633894 -0.07091542 -0.037719477 0.05487747
-0.071373455 -0.021681488 0.08107511 -0.09318385 -0.031984676 -0.046335127 -0.056249034 -0.010632885
0.048413303 0.01625756 0.0037222744 -0.08356358 -0.017471934 -0.030516768 -0.003599751 -0.087105095
-0.047623087 0.09617724 -0.09640652 0.0015526175 -0.042658474 0.0004490495 -0.074365534 0.015253914
0.06362393 0.035921764 0.06795626 0.032911923 -0.054372992 -0.098417796 0.042542007 -0.08899998
-0.09875435 0.083000876 0.014225865 0.061600327 0.08894699 0.0038752675 -0.014370466 0.07534974
0.016330302 0.063164234 0.036997486 -0.097069405 -0.038997054 -0.060310006 0.049389698 0.013883806
0.056908574 0.043767657 -0.051623475 0.059911456 0.09504986 -0.027489329 -0.03853203 -0.094355024
0.07741375 -0.024001254 -0.0064387205 0.05742606 0.0040258886 -0.08847988 -0.016782248 -0.06334324
0.0436638 -0.045698084 -0.021198666 0.016196633 -0.019152058 -0.069640115 0.07772268 -0.011558867
0.08387875 -0.0025348307 0.02259599 0.032708824 0.066944614 0.06833296 -0.046252906 -0.058104184
0.049473535 0.094079494 -0.053927984 -0.07764858 -0.056104925 -0.019320345 0.06739366 0.05029105
0.042846322 0.07562374 0.099631645 0.022528708 -0.0025336386 -0.054058887 0.07198044 -0.07665981
0.062051963 -0.050797235 0.014418149 -0.022768034 -0.086401656 -0.051001932 0.09724601 0.047617305
-0.080102645 -0.0056856275 -0.03833505 -0.026860226 0.077733986 0.04568229 -0.068569236 -0.08208553
-0.043887436 0.02387159 -0.03565321 -0.0873284 -0.028044784 -0.020150363 0.09122818 -0.00040632486
0.08825425 -0.0029754282 0.016362822 -0.064900175 0.06729827 0.05909289 -0.05454079 -0.09850055
-0.09407778 -0.05345268 0.048186958 -0.050727773 0.08870127 0.084473245 -0.005496395 0.09140702
0.05157596 0.0020431995 -0.08588294 0.01123879 0.09753889 -0.07462324 0.02610377 0.048898757
0.0659001 0.064737156 -0.0014317036 -0.036964323 0.050320365 -0.07382736 -0.030129135 -0.056622114
0.046696153 -0.015022302 -0.041334797 0.05146532 0.07586395 0.017547859 -0.009248281 -0.03895842
-0.01554457 0.039707042 0.029323792 0.039529838 -0.063088 0.06084914 0.052826144 0.09474703
-0.04957482 0.035274364 -0.027358282 -0.018810475 -0.0138979675 -0.07101271 0.06928319 -0.059486248
0.05176257 -0.0427459 -0.07023553 0.048689283 0.04005462 -0.007978273 -0.014069534 -0.0030477406
-0.060470115 0.035369482 0.014664388 -0.046465434 0.060341146 0.08194482 0.015542007 0.043646228
0.005942738 -0.08059187 0.02348355 0.02806859 0.083647646 0.086354196 0.043746997 -0.030469883
-0.06281974 -0.075410664 0.047477998 0.07094675 -0.026640356 -0.06343676 0.099651895 -0.074424304
0.07556973 -0.07719902 -0.034537435 -0.032225944 0.01983515 -0.013192034 -0.040626146 0.046345163
0.084480755 0.0953359 -0.037219238 -0.038101982 0.003373909 0.01600914 -0.076788604 0.08466655
00000000: cd5a 68bb 4f26 923d 5f0e 943d e7fc 16bd
00000010: b3dc 36bd bd60 99bd 058f c03d f313 1e3d
00000020: a0c5 6fbd b343 34bc 0a80 953d e7c5 c23b
00000030: 3307 3d3a 33d6 0d3b da93 803d c069 c2bd
00000040: b32b 8d3c c7dc d1bc cdd4 93ba e75b cdbb
00000050: 9861 ca3d 001a db3a 67cd 503c 5063 623d
00000060: eae2 063d b0b8 4dbd e517 8a3d 40ac b5bd
00000070: 78d2 b03d 1b3c 91bd bd7f 1abd 33c7 603d
00000080: 3f2c 92bd 609d b1bc b50a a63d 2dd7 bebd
00000090: 5d02 03bd e7c9 3dbd 6365 66bd 8d35 2ebc
000000a0: 074d 463d 932e 853c 67f1 733b 6223 abbd
000000b0: 4d21 8fbc 4dfe f9bc cde9 6bbb 2864 b2bd
000000c0: 6d10 43bd 93f8 c43d c870 c5bd 3381 cb3a
000000d0: a7ba 2ebd 676e eb39 f54c 98bd 8deb 793c
000000e0: 434d 823d b322 133d a72c 8b3d a7ce 063d
000000f0: 37b6 5ebd 458f c9bd 8740 2e3d 9f45 b6bd
00000100: b83f cabd 5dfc a93d 9a13 693c a050 7c3d
00000110: d729 b63d 33f8 7d3b 1a72 6bbc f750 9a3d
00000120: 20c7 853c 405c 813d ad8a 173d 53cc c6bd
00000130: 60bb 1fbd a007 77bd da4c 4a3d e778 633c
00000140: f718 693d b745 333d 2373 53bd b765 753d
00000150: 80a9 c23d 4d31 e1bc c3d3 1dbd 353d c1bd
00000160: 1a8b 9e3d 479e c4bc e7fb d2bb 9737 6b3d
00000170: 9aeb 833b f034 b5bd ed7a 89bc 1aba 81bd
00000180: d0d8 323d ea2d 3bbd d3a8 adbc cdae 843c
00000190: c7e4 9cbc 7a9f 8ebd 122d 9f3d 6761 3dbc
000001a0: 9fc8 ab3d 671f 26bb 3a1b b93c b0f9 053d
000001b0: 421a 893d 27f2 8b3d b073 3dbd a7fe 6dbd
000001c0: c3a4 4a3d c0ac c03d 97e3 5cbd 3806 9fbd
000001d0: 47ce 65bd b345 9ebc b005 8a3d fdfd 4d3d
000001e0: a07f 2f3d 9fe0 9a3d ad0b cc3d 208e b83c
000001f0: 670b 26bb da6c 5dbd 7b6a 933d d2ff 9cbd
00000200: 332a 7e3d c310 50bd 1a3a 6c3c 0784 babc
00000210: 5af3 b0bd 67e7 50bd eb28 c73d 5d0a 433d
00000220: db0c a4bd 804e babb 3705 1dbd fa09 dcbc
00000230: ff32 9f3d 5a1d 3b3d 076e 8cbd 751c a8bd
00000240: 50c3 33bd 5a8e c33c 1a09 12bd 3bd9 b2bd
00000250: 2dbe e5bc 6012 a5bc d7d5 ba3d 0008 d5b9
00000260: a5be b43d 67ff 42bb 530b 863c 62ea 84bd
00000270: add3 893d 630b 723d 2a66 5fbd a8ba c9bd
00000280: daab c0bd 33f1 5abd b05f 453d edc7 4fbd
00000290: 03a9 b53d 4f00 ad3d 1a1b b4bb 9b33 bb3d
000002a0: 5041 533d 33e7 053b 65e3 afbd e722 383c
000002b0: 78c2 c73d 12d4 98bd 93d7 d53c 104a 483d
000002c0: a2f6 863d ea94 843d 00a8 bbba e767 17bd
000002d0: ba1c 4e3d cd32 97bd 60d1 f6bc 97ec 67bd
000002e0: 7744 3f3d 1a20 76bc ad4e 29bd 4dcd 523d
000002f0: 8f5e 9b3d 87c0 8f3c 1a86 17bc dd92 1fbd
00000300: a7ae 7ebc daa3 223d 7338 f03c 0aea 213d
00000310: 4834 81bd f33c 793d 3a60 583d bb0a c23d
00000320: f70e 4bbd da7b 103d 7a1e e0bc 6d18 9abc
00000330: 4db4 63bc 1d6f 91bd 58e4 8d3d daa7 73bd
00000340: fd04 543d 5316 2fbd a5d7 8fbd 6a6e 473d
00000350: 5010 243d 4db7 02bc e783 66bc 9abc 47bb
00000360: 83af 77bd 97df 103d e742 703c 8a52 3ebd
00000370: 4728 773d b0d2 a73d e7a3 7e3c 63c6 323d
00000380: 4dbb c23b 5a0d a5bd 9360 c03c 1af0 e53c
00000390: 754f ab3d 78da b03d 0d30 333d fa9b f9bc
000003a0: a3a7 80bd e870 9abd 4a78 423d 884c 913d
000003b0: e03c dabc 22eb 81bd 4b16 cc3d c56b 98bd
000003c0: 4dc4 9a3d 851a 9ebd 2077 0dbd 5aff 03bd
000003d0: 537d a23c 6723 58bc 9a67 26bd 6dd4 3d3d
000003e0: 3f04 ad3d 783f c33d 3373 18bd d310 1cbd
000003f0: cd1c 5d3b 9a25 833c 5843 9dbd a865 ad3d

weight f4 [50, 100]
0.083204605 0.03520173 0.045083594 0.09524393 0.011348868 -0.032268465 0.039681185 0.061428715
0.04008726 -0.06608696 -0.0005486131 0.09486779 -0.071188025 0.040527012 0.006974256 -0.070490144
-0.052264 -0.05845945 0.019644095 -0.053064525 0.07147497 -0.07478521 -0.085738376 -0.04707346
0.080352 -0.01710037 0.015832603 -0.04628948 0.007084978 -0.058312394 -0.005228031 0.0067012548
0.054941725 0.004541922 -0.061219063 0.05652752 -0.06838387 0.03453641 -0.04818667 -0.044793215
-0.0020864487 0.089927696 -0.028008103 0.098054506 0.06927895 -0.0023102523 0.00043724777 -0.01171037
-0.06786125 0.064289264 -0.07071251 0.093682006 0.029906595 -0.037692524 0.02554593 0.049534798
0.0103539 0.08281135 0.018942773 0.046331313 -0.04159013 0.050674595 -0.0051513314 -0.023458553
-0.006264639 -0.03046372 0.05567751 -0.010569513 0.08796783 0.0010732651 -0.044630565 -0.0031131268
0.09656638 -0.00847472 0.0615906 -0.039234865 -0.020476043 0.080918364 0.06019794 0.014439726
0.0928626 -0.017175902 0.059968926 -0.099226765 0.03421669 0.052658666 0.025678908 0.031060934
0.062134873 0.039975774 0.057544496 0.023676252 -0.035003282 -0.055417787 0.09519676 0.08515302
0.07049256 -0.06414118 0.02484268 0.040966894 0.022055054 -0.05783366 0.07965666 0.05217433
0.041632928 -0.07031117 0.09728857 -0.021954978 -0.038446285 -0.036440074 -0.013946545 -0.059725285
-0.009025931 -0.03700701 0.08421089 -0.08916986 0.03215995 0.06550788 0.05545453 0.080482684
0.08423197 0.060478177 -0.061057426 -0.04994302 -0.03233688 -0.037724495 -0.012287485 0.021387517
0.08405985 0.07453232 0.061888874 -0.027551055 -0.014946425 0.09754186 0.070123784 0.05163416
0.0172737 0.05495727 -0.081701055 0.07261703 0.053159427 -0.098183475 -0.05577607 -0.077579714
-0.08769584 0.03911525 -0.039655413 0.017158736 0.06057321 -0.07287206 -0.018798256 0.046173275
0.07794242 0.07574997 0.01367749 0.014983058 -0.09302526 0.09449772 -0.08038081 -0.04797704
0.038886394 -0.020894194 -0.0044073225 -0.07107269 -0.07268342 -0.023131276 -0.041916717 0.03793739
0.08150786 0.028089572 -0.07096789 0.046160556 -0.0845686 0.015806008 -0.009805965 0.024957133
0.07874276 0.013189435 -0.018182253 -0.067753635 -0.044176996 -0.08595461 0.0935476 -0.07275853
0.0894897 0.089639865 0.040802073 0.00404284 0.044872165 0.043263137 0.00077723264 0.085706666
0.05033026 0.018783068 -0.08881166 -0.0046896935 -0.078122996 0.08429223 0.030908728 0.090898626
0.06645562 0.089426175 -0.034377944 0.029138362 0.032385003 -0.084754266 -0.09046985 -0.0598222
-0.030146826 0.028204907 0.06863003 0.02625972 -0.02146951 0.0757378 -0.09697272 0.07589213
-0.091534786 0.05486014 -0.07878577 0.054809954 -0.061464872 -0.03850869 -0.038498666 0.042236414
0.02552545 -0.09177792 -0.07105396 0.022092748 -0.019997263 -0.08369019 0.07622812 0.0034133077
-0.06796072 -0.07520624 -0.018735671 -0.062891915 0.043341886 0.04415393 -0.09236894 0.02069589
-0.042996336 -0.05666559 0.014949095 0.05265068 -0.0007389188 -0.032068193 0.05740689 0.02696904
-0.007713616 0.016643727 -0.02186637 0.0104229925 -0.039741766 0.061207008 0.055711567 0.020102382
00000000: 2d67 aa3d b02f 103d 93a9 383d 400f c33d
00000010: 9af0 393c f02b 04bd bd88 223d ad9c 7b3d
00000020: 8a32 243d 9a58 87bd cdd0 0fba 0b4a c23d
00000030: 07cb 91bd a7ff 253d 4d88 e43b 235d 90bd
00000040: c712 56bd 2d73 6fbd a7ec a03c 305a 59bd
00000050: 7861 923d fd28 99bd 9a97 afbd 1ad0 40bd
00000060: 978f a43d 1316 8cbc 60b3 813c 0a9a 3dbd
00000070: 1a29 e83b fad8 6ebd e74f abbb 3396 db3b
00000080: 930a 613d 67d4 943b d7c0 7abd 6789 673d
00000090: d80c 8cbd 0d76 0d3d 635f 45bd 1779 37bd
000000a0: cdbc 08bb 032c b83d 4071 e5bc cdd0 c83d
000000b0: 1fe2 8d3d 9a67 17bb 673e e539 dadc 3fbc
000000c0: d7fa 8abd 17aa 833d b8d1 90bd 5adc bf3d
000000d0: adfe f43c 7a63 1abd b345 d13c 00e5 4a3d
000000e0: 67a3 293c ff98 a93d e02d 9b3c e7c5 3d3d
000000f0: 6a5a 2abd 2a90 4f3d 80cc a8bb 272c c0bc
00000100: 9a47 cdbb 0d8f f9bc 1a0e 643d c02b 2dbc
00000110: 7a28 b43d cdac 8c3a 8ace 36bd 9a05 4cbb
00000120: 98c4 c53d 8dd9 0abc 6d46 7c3d bdb4 20bd
00000130: 60bd a7bc 87b8 a53d 1d92 763d 9a94 6c3c
00000140: bf2e be3d 7ab4 8cbc faa1 753d 6737 cbbd
00000150: cd26 0c3d 9db0 573d 935c d23c 8073 fe3c
00000160: 2381 7e3d a3bd 233d c7b3 6b3d b3f4 c13c
00000170: 9a5f 0fbd c3fd 62bd 85f6 c23d b564 ae3d
00000180: 675e 903d 735c 83bd e082 cb3c e7cc 273d
00000190: cdac b43c fde2 6cbd 0823 a33d c0b4 553d
000001a0: 4a87 2a3d 4dff 8fbd 3b3f c73d edda b3bc
000001b0: da79 1dbd 3042 15bd 0d80 64bc 80a2 74bd
000001c0: 80e1 13bc aa94 17bd c276 ac3d b09e b6bd
000001d0: 27ba 033d ff28 863d 4a24 633d 1bd4 a43d
000001e0: d081 ac3d f7b7 773d 5a17 7abd 0d91 4cbd
000001f0: ad73 04bd 0085 1abd 7351 49bc e034 af3c
00000200: 9227 ac3d 67a4 983d 307f 7d3d c0b2 e1bc
00000210: dae1 74bc 07c4 c73d 0f9d 8f3d 577e 533d
00000220: 9381 8d3c e01a 613d e252 a7bd 3db8 943d
00000230: b3bd 593d 6b14 c9bd 7375 64bd 1de2 9ebd
00000240: e099 b3bd 5037 203d b76d 22bd 7a90 8c3c
00000250: 9d1b 783d f23d 95bd cdfe 99bc 3020 3d3d
00000260: 47a0 9f3d cd22 9b3d 8d17 603c 807b 753c
00000270: 0784 bebd 0588 c13d b29e a4bd 9383 44bd
00000280: 5747 1f3d 4d2a abbc 4d6b 90bb 8f8e 91bd
00000290: 0bdb 94bd cd7d bdbc ddb0 2bbd 3d64 1b3d
000002a0: 98ed a63d 1a1c e63c 9d57 91bd da12 3d3d
000002b0: 4d32 adbd 9a7b 813c 33a9 20bc e772 cc3c
000002c0: e243 a13d 8018 583c f3f2 94bc 6bc2 8abd
000002d0: f0f2 34bd f808 b0bd e295 bf3d 6d02 95bd
000002e0: 6046 b73d 1b95 b73d 1320 273d cd79 843b
000002f0: e0cb 373d b034 313d 33bf 4b3a fa86 af3d
00000300: 1a27 4e3d f3de 993c e3e2 b5bd 00ac 99bb
00000310: f3fe 9fbd 68a1 ac3d 4d34 fd3c 0f29 ba3d
00000320: e219 883d 1225 b73d e3cf 0cbd 93b3 ee3c
00000330: 23a6 043d a593 adbd 4248 b9bd 2008 75bd
00000340: 7af6 f6bc fa0d e73c e78d 8c3d a01e d73c
00000350: d3e0 afbc 6b1c 9b3d a299 c6bd 556d 9b3d
00000360: 9776 bbbd 07b5 603d 6f5a a1bd 6780 603d
00000370: 97c2 7bbd 4abb 1dbd c7b0 1dbd 1700 2d3d
00000380: c01a d13c 10f6 bbbd bd84 91bd dafb b43c
00000390: 4dd1 a3bc c365 abbd 7d1d 9c3d cdb1 5f3b
000003a0: fd2e 8bbd bb05 9abd 8d7b 99bc 7acd 80bd
000003b0: 4387 313d c0da 343d ed2b bdbd 6d8a a93c
000003c0: ed1c 30bd 2d1a 68bd 0ded 743c 3da8 573d
000003d0: 00b4 41ba f059 03bd 7d23 6b3d 2dee dc3c
000003e0: 80c2 fcbb 6d58 883c 1a21 b3bc 33c5 2a3c
000003f0: 43c8 22bd 33b4 7a3d d031 643d c0ad a43c

bias f4 [50]
-0.013537682 0.010816288 0.07704455 0.047383845 -0.007088435 0.02980044 0.08660545 -0.02283957
0.09829181 -7.773638e-05 -0.079348326 0.03834009 0.013249934 -0.0032185556 -0.022484852 0.095763125
-0.077796035 0.014874697 0.06844145 -0.09180242 -0.039284445 0.040783286 -0.003969991 0.048677575
-0.015451002 0.073609844 0.09267556 -0.07987696 -0.08546678 -0.093321875 0.06553079 -0.08875338
0.067298315 0.0011171818 -0.024339044 0.048095442 0.09080344 0.07634213 -0.011265206 0.061112072
0.025417078 -0.04735713 0.086162865 -0.07135586 -0.03907571 0.008348107 -0.005821872 0.07624795
0.09343507 0.07691772
00000000: 27cd 5dbc cd36 313c 88c9 9d3d 9015 423d
00000010: 1a46 e8bb 0d20 f43c 335e b13d 0d1a bbbc
00000020: 374d c93d 6706 a3b8 6081 a2bd 800a 1d3d
00000030: 4016 593c 67ee 52bb 2732 b8bc 751f c43d
00000040: 8753 9fbd 00b5 733c 082b 8c3d e802 bcbd
00000050: bae8 20bd 600c 273d b316 82bb 2362 473d
00000060: 3326 7dbc c2c0 963d afcc bd3d 8896 a3bd
00000070: 3509 afbd 8a1f bfbd 0235 863d 55c4 b5bd
00000080: b3d3 893d 676e 923a ad62 c7bc baff 443d
00000090: 27f7 b93d 4359 9c3d b391 38bc a750 7a3d
000000a0: 7a37 d03c 8df9 41bd 2876 b03d 0523 92bd
000000b0: da0d 20bd 80c6 083c 67c5 bebb e327 9c3d
000000c0: e35a bf3d 0a87 9d3d

weight f4 [2, 50]
0.037225682 0.04871097 -0.042301092 -0.047506697 0.08666881 -0.115536034 -0.12483457 0.08593989
-0.005472162 0.09431083 0.02945549 0.13540053 0.13521379 0.09413042 0.053234912 -0.045149475
-0.014112299 -0.012727 0.009240984 -0.054385047 -0.0670784 0.034291755 -0.13370568 -0.111613326
0.03243706 -0.09569903 -0.102966376 0.11733857 -0.12424253 -0.10232321 0.09657371 -0.08137975
0.086828195 -0.0060601607 -0.023862349 -0.08945182 0.06681334 0.14067899 0.0111019015 -0.09132798
-0.029371398 0.07558221 -0.03837442 -0.010147579 0.01542192 -0.026598321 0.054049205 -0.107808776
-0.016855706 -0.10379527 -0.09568402 0.06295983 -0.040611863 0.10594739 -0.035551913 0.088672236
0.04566102 -0.08690652 -0.009961409 0.124714285 -0.089383304 -0.08084405 0.08494039 0.001476421
-0.109819606 0.05808868 -0.12168463 -0.035767063 -0.06341631 -0.020300418 -0.029983994 0.029128885
0.1367357 0.065210685 -0.12184092 0.032107048 -0.045224078 -0.10938836 -0.117604315 0.10098618
0.027289174 0.088404045 0.1353455 0.09402704 -0.03661683 -0.121471435 -0.13850395 0.07242543
-0.11484931 0.13808657 0.10065391 -0.03722555 0.13980031 -0.023068707 -0.032765687 0.032631896
0.06738924 -0.122827925 0.0912659 0.09660304
00000000: f579 183d 2785 473d e943 2dbd 6296 42bd
00000010: 6b7f b13d 289e ecbd 44a9 ffbd 4101 b03d
00000020: d24f b3bb 0926 c13d a44c f13c 70a6 0a3e
00000030: 7c75 0a3e 73c7 c03d da0c 5a3d a8ee 38bd
00000040: 4637 67bc e884 50bc 7f67 173c dbc2 5ebd
00000050: 6660 89bd 8375 0c3d 24ea 08be 8795 e4bd
00000060: b9dc 043d dafd c3bd 09e0 d2bd 344f f03d
00000070: de72 febd d58e d1bd 70c8 c53d 6daa a6bd
00000080: fbd2 b13d 5094 c6bb f97a c3bc 8432 b7bd
00000090: 6fd5 883d 270e 103e c0e4 353c 2a0a bbbd
000000a0: 499c f0bc d9ca 9a3d 7f2e 1dbd 0842 26bc
000000b0: 39ac 7c3c b9e4 d9bc b362 5d3d d9ca dcbd
000000c0: fa14 8abc 9d92 d4bd fcf5 c3bd 15f1 803d
000000d0: a058 26bd f2fa d83d e29e 11bd ca99 b53d
000000e0: 0d07 3b3d 0cfc b1bd 2d35 23bc 346a ff3d
000000f0: 980e b7bd 9191 a5bd 3af5 ad3d 7884 c13a
00000100: 1ae9 e0bd 65ee 6d3d cb35 f9bd 7c80 12bd
00000110: 69e0 81bd 104d a6bc fea0 f5bc b39f ee3c
00000120: 7104 0c3e 2e8d 853d bb87 f9bd ae82 033d
00000130: e23c 39bd 0107 e0bd 88da f0bd d8d1 ce3d
00000140: 8c8d df3c 2e0d b53d 0398 0a3e 4091 c03d
00000150: 87fb 15bd 04c6 f8bd fbd3 0dbe c953 943d
00000160: 1d36 ebbd 9166 0d3e a323 ce3d d179 18bd
00000170: d027 0f3e 96fa bcbc 5035 06bd 06a9 053d
00000180: 5f03 8a3d 358d fbbd 9ee9 ba3d d1d7 c53d

bias f4 [2]
0.112888046 0.051105805
00000000: d931 e73d 5254 513d
