dagster_ais/mlruns/0/d016eafbfbc545628e84a260fa0c13a9/artifacts/prediction_model/data/model.pth (torch, 157327 bytes, 8 tensors)

weight_ih_l0 f4 [300, 2]
000000 52 aa c6 3d 4a e6 5b bd 40 d3 c6 bd da 60 d8 3c
       0.09700455 -0.053686418 -0.097082615 0.02641337
000010 47 76 79 3d 3a b0 7a 3d da a5 6f 3d 58 6d 89 3d
       0.060903814 0.06120322 0.058507778 0.06710309
000020 8a 01 a8 3d b7 cc 22 3d a7 d2 ac bd ab a6 80 bd
       0.082034186 0.039746013 -0.08438616 -0.062817894
000030 57 b9 ae 3d 33 4b bf 3c 4a 3a a6 3d 80 24 d4 bb
       0.085314445 0.023351287 0.081165865 -0.0064740777
000040 83 40 2e bd 1f 54 bc 3d f7 1c 1a 3d 27 f4 44 bc
       -0.042541992 0.09195732 0.03762528 -0.012021101
000050 f0 c3 7c 3d 0d 7f 6f bd 0d f8 b6 bc 7d 5b 5a bd
       0.061710298 -0.058470774 -0.022335077 -0.053309906
000060 78 e1 a5 3d 2a fb be 3d fa 7a 1d bd 9a eb 5f bc
       0.080996454 0.093252495 -0.038447358 -0.013667012
000070 8a 40 6d 3d af 0d af 3d ed 12 6a bd 0d 1c 8d bd
       0.057922877 0.08547532 -0.057146955 -0.06890116
000080 9a 8c 67 3d 07 57 13 bd 20 26 c9 3c fa c6 8a bd
       0.056530572 -0.035971668 0.024554312 -0.06776233
000090 18 8b a5 bd 5a c7 ee 3c e3 2b ca 3d a3 05 45 3d
       -0.08083171 0.029147793 0.09871652 0.04810108
0000a0 f5 fc c2 3d 10 a4 37 3d 45 5b 9c bd 53 ad 27 bd
       0.09520904 0.044834197 -0.07634596 -0.04093678
0000b0 1a f9 71 3c 5a 5b b7 3c 0d 98 c3 bc cd d6 f8 3c
       0.014768863 0.022382427 -0.023876214 0.030375862
0000c0 6d d6 fd bc 5b 3a aa 3d 9a 55 1c 3a 67 d9 ac 3c
       -0.030986035 0.08311912 0.00059636834 0.02109976
0000d0 63 3d 28 bd d8 eb cb bd 2d a9 a1 bd 8d 33 02 3d
       -0.041074168 -0.09957093 -0.07893596 0.031787444
0000e0 f3 a5 9f bd ba 89 83 bd 50 6c 9e 3d 0f 40 b6 3d
       -0.07795324 -0.06422754 0.07735503 0.08898937
0000f0 d7 99 5b bd 8d 49 62 3d 12 02 a9 3d c2 e5 b8 bd
       -0.05361351 0.055245925 0.08252348 -0.09028198
000100 fa e3 28 bd 83 0b 3f bd f3 aa f1 bc ab 1b b7 3d
       -0.04123304 -0.046641838 -0.02950046 0.08940824
000110 70 10 63 bd 57 d4 95 3d 67 80 04 3b 00 77 0c 3c
       -0.055435598 0.07315891 0.0020218135 0.008573294
000120 4d a7 0e bc 1a e2 6b bd 90 de 13 3d 53 45 66 bd
       -0.00870688 -0.057588674 0.036100924 -0.056218456
000130 67 5e fc bb b0 0e 8c bd 8d 1a f2 3c a7 de 99 bc
       -0.0077016833 -0.06838739 0.029553676 -0.018782927
000140 73 a5 c2 bd 5a f8 b9 bd 97 07 5f bd 73 43 60 3c
       -0.09504213 -0.090805724 -0.054450598 0.013687956
000150 1a f9 c5 bb e7 09 aa bd 67 13 b2 3d 9a 9e 57 3d
       -0.006041658 -0.0830267 0.08695107 0.05264149
000160 ef ac 98 3d 07 ee 14 bd ca cf 8f 3d a7 46 0d bc
       0.074548595 -0.036359813 0.070220545 -0.008622802
000170 e3 31 65 3d 70 e3 c7 3d c0 58 9f bc 72 e8 9a bd
       0.05595578 0.09760177 -0.019451499 -0.07563867
000180 9a df 05 3d cf 02 b7 3d 33 e3 18 bc e8 9b 94 3d
       0.032683946 0.089360826 -0.009331512 0.07256299
000190 f0 41 c6 bd fa 60 a3 3c 6a e0 a5 3d 47 03 c9 bd
       -0.09680545 0.019943703 0.08099444 -0.09815078
0001a0 f3 8d 72 3d ed ac de bc 00 b5 b9 bc d5 6f 90 bd
       0.059217405 -0.027182067 -0.022669315 -0.0705258
0001b0 a0 a3 b7 bd 3a be be bd 58 04 b7 3d 33 32 b6 3b
       -0.08966756 -0.093136266 0.089363754 0.0055601834
0001c0 cd e0 3b 3d fa e1 9a 3d f0 0a 93 3d 80 3b c6 bc
       0.045868684 0.07562633 0.071798205 -0.024198294
0001d0 97 80 8c 3d 4a 64 13 bd 40 b3 8b 3d e8 e9 a6 bd
       0.06860464 -0.035984315 0.068212986 -0.08150083
0001e0 ed a9 8b 3c f3 f4 06 bc 1a d4 84 bc da 48 7b 3d
       0.0170488 -0.008237111 -0.01621442 0.061348774
0001f0 17 ca 76 bd 97 6c 2f bd 03 55 69 3d f5 19 9c bd
       -0.06025132 -0.04282817 0.05696584 -0.076221384
000200 15 6f cb bd 0a 8c a0 3d 17 03 44 bd 0b 39 a4 3d
       -0.099332966 0.0783921 -0.04785451 0.080186926
000210 9a 86 6d 3c e7 e4 1a bc c8 63 c0 3d e0 35 42 3d
       0.014497424 -0.009453989 0.09394032 0.04741466
000220 33 ed 68 bb 1a f1 dc 3b 8d 67 70 3d 00 fb 86 3b
       -0.0035541772 0.0067426087 0.058692504 0.004119277
000230 9f 7b bc 3d e8 e0 9b bd c7 41 91 3d ba f2 0f 3d
       0.09203266 -0.07611257 0.07092624 0.03514359
000240 7b 24 a5 bd e7 20 2b 3c 5a 4d 68 bc a8 00 80 3d
       -0.08063599 0.010444856 -0.014178598 0.06250125
000250 dd ec 84 3d d3 69 b0 3d 9a 94 c2 3c 23 b6 c4 3d
       0.064904906 0.08613934 0.0237525 0.09605052
000260 d2 dc 9a bd 3d be c0 bd 63 b7 9f 3d 08 c2 a2 bd
       -0.075616494 -0.09411285 0.0779865 -0.07947165
000270 50 9f aa 3d 65 4c 9c bd 53 d9 af 3c 47 b7 c6 3c
       0.08331168 -0.076317586 0.021465933 0.024257315
000280 ba f3 b2 3c ed cb 05 bd 3d 0c c9 3d 77 00 32 3d
       0.021844734 -0.032665182 0.098167874 0.043457475
000290 0d 3c 9f 3c af 06 c8 3d bf fc b9 3d 83 59 92 bd
       0.019437814 0.097669 0.090814106 -0.07145979
0002a0 6d c2 9c bd 40 53 aa 3c a2 32 92 bd 47 49 8b bc
       -0.07654271 0.02079165 -0.07138564 -0.017002715
0002b0 80 9c b2 3d 0a 97 2a 3d a7 00 0f bd 88 a0 83 3d
       0.08721256 0.04164795 -0.03491273 0.06427103
0002c0 3b ef 93 bd 0f 9f bc bd 07 43 85 bd 87 e3 b8 3d
       -0.07223364 -0.092100255 -0.06506925 0.090277724
0002d0 dd 12 55 bd 67 37 d6 bb ad 17 69 3d b3 4f 53 3c
       -0.052019943 -0.006537366 0.056907345 0.01289742
0002e0 4a 19 42 3d 00 2f ce 3c e0 6d 54 bd 90 3b 1b bd
       0.0473874 0.025168896 -0.051862597 -0.0378986
0002f0 0d fe 96 bd a0 35 59 bd d7 1f 9a 3d 13 de 9a bc
       -0.07372675 -0.053029656 0.07525604 -0.018904721
000300 9a 62 48 3c 8d 68 89 3c a7 7e 2a 3c e0 83 36 bd
       0.01223054 0.016773487 0.010406173 -0.04455936
000310 20 ed 98 3c 37 3c 7a bd 40 ff c6 3c e7 7a fe bb
       0.018667758 -0.06109258 0.024291635 -0.007766116
000320 00 93 44 bb e8 04 92 3d 13 df 4b bd 15 c9 9b bd
       -0.0029994845 0.07129842 -0.049773287 -0.07606713
000330 25 9c a9 bd 6f 96 9e bd 47 3d c7 3d ca 38 2c 3d
       -0.08281735 -0.07743537 0.097284846 0.042046346
000340 9a cd b2 bc 93 e6 7a bd a3 82 9a 3d 02 a9 c3 bd
       -0.021826554 -0.06125505 0.07544448 -0.0955372
000350 3d 3e 0f 3d 40 fa 64 3c 72 b6 b9 3d e7 dd 03 3c
       0.034971464 0.01397568 0.09068002 0.008048511
000360 3a d0 c5 3d 1b 04 a3 3d ed 4c c9 3d b0 ee 28 3d
       0.09658857 0.079597674 0.098291256 0.041243255
000370 a5 dc 97 bd 3d e4 0b 3d 40 80 b6 bd 60 4e a2 3c
       -0.074151315 0.03415321 -0.089111805 0.019812763
000380 1a 5e b7 3d 2d 46 42 3d 50 8b 7d bd ad 83 9d 3c
       0.08953495 0.047430206 -0.061900437 0.019227827
000390 f2 04 ca bd 13 64 af bc 2d e7 7b bd 53 5e e1 bc
       -0.098642245 -0.021410024 -0.061499763 -0.027510798
0003a0 18 64 b3 bd 38 81 9c 3d a8 6b a6 3d a7 97 0b 3c
       -0.08759326 0.07641834 0.081260026 0.008520043
0003b0 fa 90 bf 3d cb f6 87 bd da ba f2 3c 07 df 73 3d
       0.09353824 -0.06638869 0.029630113 0.059538867
0003c0 4d 39 40 3c 87 42 47 3d a7 34 26 3c 7b ff 82 bd
       0.011732412 0.04864743 0.010144389 -0.06396385
0003d0 97 d8 52 3d af d5 85 bd 70 df 9f bd c3 24 b8 bd
       0.051476087 -0.065348975 -0.07806289 -0.08991387
0003e0 23 d1 ab 3d 9a 35 83 3c 88 3b 93 bd cd bf 28 bb
       0.08389499 0.01601677 -0.07189089 -0.0025749088
0003f0 7a 5d b6 3d ba c2 1e 3d 03 a6 a5 bd 33 b9 fc 3a
       0.08904548 0.038759924 -0.08088305 0.0019281268

weight_hh_l0 f4 [300, 100]
000000 ba a5 06 3d a8 61 a8 3d 08 17 98 bd 9a 15 11 3b
       0.032872893 0.082217515 -0.07426268 0.002213812
000010 e0 c6 ce bc 6d f0 44 bd ab 9c 8d 3d 0d 1f 64 bd
       -0.025241315 -0.04808085 0.06914648 -0.055693675
000020 4d ec d9 bb 1a a0 d8 3c fb c8 95 bd 78 d3 92 bd
       -0.0066504837 0.02644353 -0.073137246 -0.07169241
000030 b7 6d 81 3d da 57 7f bc 38 86 81 3d c5 be c0 3d
       0.063197546 -0.01558491 0.06324428 0.094113864
000040 17 fb 80 bd 8a 51 67 bd 5a 26 7f 3c 8d d1 82 bc
       -0.062978916 -0.056474246 0.015573109 -0.015969062
000050 d3 3a 8e bd 75 70 97 bd fa 98 06 3d 93 79 88 3d
       -0.069448136 -0.07394496 0.032860734 0.066638134
000060 5a 05 2c 3d d3 44 6f 3d ed dd 16 3d ed 9e e8 bc
       0.04199729 0.058415245 0.03683274 -0.028396094
000070 6d 62 90 3c c0 03 45 3c 57 9f 5a bd f3 1b db bc
       0.017625058 0.01202482 -0.053374615 -0.026746726
000080 32 2f a8 bd c7 64 be 3c 5d e5 98 bd 9d d8 57 3d
       -0.08212127 0.023241414 -0.074656226 0.052696813
000090 60 c1 de 3c 1a 02 17 bc 58 18 c7 bd 33 c7 c0 3a
       0.027191818 -0.00921681 -0.0972144 0.0014707803
0000a0 5a 78 d6 bc a7 c8 f6 bc e7 7b 50 3d 60 bf a5 bd
       -0.026180435 -0.030124975 0.050899412 -0.080931425
0000b0 e7 ae 22 bc 6d 65 ea 3c a0 df 29 3d 93 d5 c7 bd
       -0.009929395 0.028612817 0.04147303 -0.09757533
0000c0 2f b3 83 3d ba 9a ba bc e2 ec 85 3d 8d 7c 10 bd
       0.06430661 -0.022778857 0.065393224 -0.03527503
0000d0 1a 4d 25 3d f0 fd 18 3d dd ef 97 bd 67 f6 43 3b
       0.040356733 0.03735155 -0.07418797 0.0029901506
0000e0 2a cf 7d bd e3 5f 4f 3d e0 7e ce bc b8 a8 9a 3d
       -0.061965145 0.050628554 -0.025206983 0.07551712
0000f0 b0 54 1b 3d 5a cc 0d bc 47 ab 84 bd 13 ab 9f bc
       0.03792256 -0.008654678 -0.06477981 -0.019490754
000100 cd 9e b4 bb 3b f0 8e bd 2d 34 f9 bc 00 7d ff bc
       -0.0055120946 -0.06979414 -0.030420387 -0.031187534
000110 c7 87 35 bd 40 6b 2f 3d 93 c3 5b 3d da db 42 3c
       -0.04431894 0.04282689 0.05365331 0.011893237
000120 d3 1c be 3c f0 73 2e bd 20 d4 73 bd 33 95 08 bd
       0.023207104 -0.042591035 -0.05952847 -0.033345412
000130 33 e5 a8 3b 9a a6 16 3c ca e8 a1 bd 7d 58 8d 3d
       0.005154276 0.009194994 -0.07905729 0.069016434
000140 7b 86 91 3d d0 14 6b bd 32 9c ae 3d fb 95 9a bd
       0.07105728 -0.057392895 0.08525886 -0.07548138
000150 ca e3 86 3d 6d 56 85 3c 9a 9f 63 3d e8 15 b5 3d
       0.06586416 0.016276563 0.05557213 0.08842069
000160 9a 91 bf 3c a0 5d 86 3d 33 3d 6b bc 80 11 29 bc
       0.023384858 0.06560826 -0.014357853 -0.010319114
000170 a3 79 08 bd ad d8 1c 3d 67 fe 93 b9 c3 aa 73 3d
       -0.033319127 0.038292576 -0.0002822757 0.059489023
000180 9a 7b 79 3c 63 1d 03 3d 58 1e 88 3d 80 dc fc bc
       0.015227223 0.032010447 0.066464126 -0.030866861
000190 13 39 8b bd 00 cc 28 3a 70 2f 6a bd 5d 38 50 bd
       -0.067979954 0.000643909 -0.057174146 -0.050835002
0001a0 cd 14 5f 3a 53 2e b9 bc f7 d1 03 bd f3 e6 94 3d
       0.00085098745 -0.022605097 -0.03218266 0.072706126
0001b0 48 ec b9 bd d7 8a 00 3d fa 4a ec 3c af b5 85 3d
       -0.0907827 0.031382408 0.028844345 0.06528794
0001c0 93 3d c6 bc 80 b5 e0 3c 3d f6 60 3d 43 ac a2 3d
       -0.024199283 0.027430296 0.05492233 0.079430126
0001d0 9a b0 39 bd 38 a8 af bd 97 0e 09 bd cd e3 d9 3b
       -0.045334436 -0.08577007 -0.03346118 0.0066494704
0001e0 30 12 1a bd c8 ff 94 bd 97 9d 92 3d 1a be f4 bc
       -0.037615 -0.07275349 0.07158964 -0.029875804
0001f0 e7 15 a4 bd 03 34 98 3d 7d 87 1e bd 1a cc 9a 3c
       -0.0801199 0.074317954 -0.03870343 0.018896151
000200 18 37 ae 3d 1a 56 6c 3d ca ea 19 3d cd a7 81 3d
       0.08506602 0.0576993 0.037577428 0.063308336
000210 37 7b b4 bd 7a 13 09 3d 00 e1 42 3b d0 7d 01 bd
       -0.08812564 0.03346584 0.0029736161 -0.031614125
000220 00 e8 68 3a 83 b8 3c bd 33 90 20 3c c5 cd 84 3d
       0.00088846684 -0.0460744 0.009800005 0.0648456
000230 9b f2 a1 3d 72 f9 82 bd 70 7f bd bd c2 1e aa 3d
       0.079076014 -0.06395234 -0.092528224 0.08306648
000240 1a 6f ce bc 63 d4 ca 3d 93 82 ab bc 27 b3 ae bc
       -0.025199462 0.09903791 -0.020936286 -0.02132566
000250 9d 21 cb 3d 80 75 8b bb 33 03 0d ba 2d dd 0f 3d
       0.099185206 -0.0042559505 -0.00053792 0.03512304
000260 73 41 af 3c 77 65 28 3d ab 9d 88 bd 4d 72 fe 3b
       0.021393513 0.04111239 -0.06670698 0.0077650906
000270 ed 6d a7 bc 58 5a c6 3d 40 9f dc 3c 1a b6 35 3c
       -0.020438159 0.096852005 0.026931405 0.01109078
000280 af ee 8c 3d 57 25 12 bd d3 2d 99 bc 27 1b 8a 3c
       0.06881463 -0.03568014 -0.018698609 0.01685865
000290 c7 4f c7 3c e7 96 64 bd fd 43 50 3d af 33 b3 3d
       0.024330033 -0.055807974 0.05084609 0.08750092
0002a0 2a 27 30 bd 17 7f 23 bd 23 2b c9 bd 0b 8b a2 bd
       -0.0430061 -0.039916124 -0.09822681 -0.079366766
0002b0 32 3b 8c bd 83 63 63 bd cd c4 72 3a 40 83 5b bd
       -0.06847228 -0.055514824 0.0009260893 -0.053591967
0002c0 e7 97 f2 3c 58 75 9d 3d e7 e0 f6 3c 6d d7 b4 bc
       0.029613448 0.07688397 0.030136539 -0.02207538
0002d0 38 f2 cb bd 1d 74 17 3d 8d 3f f2 bc e0 c3 87 bd
       -0.09958309 0.03697597 -0.029571319 -0.06629157
0002e0 8a 16 17 3d c3 a3 6e bd 4d 56 c1 bd 07 d1 5b bd
       0.03688673 -0.058261644 -0.09440289 -0.05366614
0002f0 9a 33 0f bb 03 75 6e bd 8d 0c c0 bc 00 78 f7 bb
       -0.0021850825 -0.05821706 -0.023443485 -0.007552147
000300 4d 5c e3 bc 45 6e c0 bd e7 34 e8 bc 50 b0 82 3d
       -0.027753973 -0.09396032 -0.028345538 0.06381285
000310 40 dd 6f bd 8a d2 06 bd 9a 86 28 3d 30 6e 34 bd
       -0.05856061 -0.03291563 0.04114399 -0.044050395
000320 ff df 8f bd 67 96 3b 3c 6b 81 ba bd 73 6b ce 3c
       -0.07025146 0.011449433 -0.09106716 0.02519772
000330 ea f6 25 bd b7 f0 09 3d 07 3d 28 3d 67 28 42 3c
       -0.04051868 0.03367683 0.041073825 0.011850453
000340 4d c6 13 bc ad 27 25 bd ef 04 95 bd b3 c0 ec bb
       -0.009019447 -0.04032104 -0.07276332 -0.00722512
000350 fd cf 8b bd 10 e7 26 3d 53 20 98 bd f3 2a 76 3c
       -0.0682678 0.040747702 -0.0742804 0.015024888
000360 cd a4 41 ba 45 7e ac bd 07 8a 80 3d a7 ed 2f 3c
       -0.0007386923 -0.084225215 0.062763266 0.010737813
000370 6b 90 89 bd b7 02 0b bd e7 cc 85 3d 93 80 2c bd
       -0.06716999 -0.033938136 0.06533223 -0.042114805
000380 63 2c 3c 3d 0b f2 a9 bd 5a 31 4f 3d e7 58 61 3c
       0.045940768 -0.08298119 0.050584175 0.013754106
000390 5a 58 04 bc 50 a7 b1 bd b3 e0 18 3c 73 6b 72 3d
       -0.008077705 -0.086744905 0.009330916 0.059184503
0003a0 00 42 dc 3c 70 b8 65 3d 8d ae b4 3d a0 8f 87 3c
       0.02688694 0.056084096 0.088223554 0.016547978
0003b0 9a d2 b2 bb b2 63 9c bd e3 09 60 3d ea 9a 03 bd
       -0.0054572346 -0.07636203 0.05469693 -0.03213016
0003c0 cd 0d 2a 3b 95 82 92 3d da 97 7c bc 5a 19 34 3c
       0.0025948167 0.07153813 -0.015417064 0.010992372
0003d0 9a 92 63 bb 6d 83 b1 3d 2d 64 57 bd ca 21 84 3d
       -0.0034724833 0.086676456 -0.05258577 0.06451757
0003e0 03 75 81 3d a0 49 6c 3d f3 5a 5a bd 40 ee ab 3c
       0.06321146 0.0576874 -0.053309392 0.02098763
0003f0 b3 24 1f bd c3 1a 0b bd d8 03 a2 3d 73 ea 54 3d
       -0.03885336 -0.03396107 0.079108894 0.0519814

bias_ih_l0 f4 [300]
000000 88 60 a1 bd 1b e4 b8 bd 43 1e 55 3d 77 e2 c6 bd
       -0.0787974 -0.09027883 0.052030813 -0.097111635
000010 0d 94 ce 3c 67 ae 31 3b 57 ec c7 bd 1d f0 0b 3d
       0.02521708 0.0027112009 -0.09761875 0.034164537
000020 4a 3b 53 3d 83 03 30 3d 52 50 c7 3d 67 20 73 3c
       0.051570214 0.0429721 0.09732117 0.014839268
000030 ba 40 7c bd 8d 19 cc 3c 68 80 81 bd 23 48 52 3d
       -0.061585166 0.024914527 -0.0632332 0.051338326
000040 cd 80 53 3d 0b 28 bd bd 03 ee ab bd 80 dd cb bc
       0.051636506 -0.09236153 -0.083950065 -0.024885893
000050 32 0c c1 3d 0d 55 e5 bc 27 18 40 3d 13 c6 bd bd
       0.09426154 -0.027994657 0.046898033 -0.09266295
000060 63 c4 82 3d 33 d2 92 bc 33 48 0b bd b5 6b bd 3d
       0.06385114 -0.017922496 -0.0340044 0.09249059
000070 c0 87 8f bc 00 5d 9a bd 00 d8 59 ba fb 45 a6 3d
       -0.017520785 -0.075372696 -0.00083100796 0.081188165
000080 ad d5 ee bc 30 15 1e bd 3a 80 86 3c c0 fc e2 3c
       -0.029154623 -0.038594425 0.016418565 0.027708411
000090 b0 72 c1 bd d0 94 c3 3d a0 44 e2 3c 18 4b aa 3d
       -0.09445703 0.09549868 0.027620614 0.08315104
0000a0 8d 8f 7f 3c c2 dc ae 3d fa e7 8f 3d 4d 92 b1 bb
       0.01559819 0.085382 0.07026668 -0.0054190517
0000b0 cd 69 81 bd 80 f2 a7 bb 9f 09 c2 bd 47 63 52 bd
       -0.06319008 -0.005125344 -0.09474491 -0.05136421
0000c0 e0 e3 af 3c 00 94 2c bb 40 ef 9f 3d ba 44 87 3c
       0.021470964 -0.0026333332 0.07809305 0.016512264
0000d0 4d 19 eb 3c 93 44 8a 3d 0a f4 93 3d d8 f9 bc bd
       0.028698588 0.06751361 0.07224281 -0.092273414
0000e0 c3 e5 18 bd db 1e ac 3d 00 c0 da b8 cd cb d5 3c
       -0.037328493 0.08404323 -0.00010430813 0.026098156
0000f0 7f 4f 90 bd 95 27 9d 3d 48 62 b2 bd aa 12 32 bd
       -0.07046413 0.07673565 -0.08710152 -0.04347483
000100 c8 14 83 bd e0 40 ba 3c 83 40 84 3d bd 51 74 3d
       -0.06400448 0.022736013 0.06457617 0.059648264
000110 b3 e6 98 bd 83 83 ae 3d cd fa eb 3a e3 a3 22 3d
       -0.074658774 0.085211776 0.0018003822 0.039707076
000120 d7 4c c5 bd da cc ba 3c c0 ad 77 bd da 29 87 3c
       -0.09633797 0.022802759 -0.060468435 0.016499449
000130 9d ca 3b 3d 8b a8 ae 3d 9a 75 c1 bc 40 ff b7 bd
       0.045847524 0.08528241 -0.023615647 -0.08984232
000140 73 27 c3 3c 70 33 5c 3d f7 9a bb 3d c3 69 b0 bd
       0.023822522 0.053759992 0.091604166 -0.086139224
000150 7a 75 98 bc 33 ad 74 3c 95 3d 81 bd 53 d7 71 bd
       -0.018610705 0.014933872 -0.06310574 -0.05904324
000160 eb 44 88 bd 1a 45 54 bc ed b3 a8 bc 0d 94 79 3c
       -0.0665377 -0.012955928 -0.020593608 0.015233052
000170 60 98 ec 3c 73 83 4f bd 27 17 71 bd 6d 8d ac bc
       0.028881252 -0.05066247 -0.05885997 -0.02106353
000180 fa ea e0 3c 80 06 9f bc 9a a3 97 3b 0d 04 dd 3c
       0.027455796 -0.01941228 0.004627657 0.02697947
000190 33 15 a0 bd 23 c9 80 3d ca ca 67 3d d3 8a e2 bc
       -0.078165434 0.06288364 0.05658988 -0.027654087
0001a0 6b 04 ca 3d 80 89 8c bb 87 e8 bf bd b0 85 00 3d
       0.09864124 -0.004288852 -0.09370523 0.031377494
0001b0 60 3c fb 3c dd 2c 80 3d 62 12 cc bd 97 58 2d bd
       0.030668437 0.06258557 -0.09964444 -0.042320814
0001c0 3f fb 8d bd 6d 7d 9d 3c 8a 5d a8 3d d3 36 6d 3d
       -0.06932687 0.019224847 0.08220966 0.057913613
0001d0 13 43 97 bc 63 2a 39 3d 1a ea 5d 3c 47 71 0b bd
       -0.0184646 0.04520644 0.013544584 -0.034043577
0001e0 4b a9 c4 3d 5d 62 5f 3d 1b 72 a6 3d a7 5f a1 3d
       0.096026026 0.054537166 0.08127233 0.07879572
0001f0 ed df 02 3d 0d 3e 5d bd 00 70 51 3a 7f 69 80 3d
       0.031951834 -0.054014254 0.00079894066 0.06270122
000200 1a 74 cd 3c 7a 97 11 3d 9f f5 95 3d a3 05 8d 3d
       0.025079776 0.03554485 0.07322239 0.06885841
000210 a3 71 b0 3d c5 bc 8b bd 23 c6 cc bd 87 80 80 3c
       0.086154245 -0.06823114 -0.09998729 0.015686287
000220 e7 58 73 3d 7f dc 86 bd 3a 11 d1 3c 5d 18 0d 3d
       0.059410956 -0.06585025 0.02552091 0.034447063
000230 f0 73 64 bd e7 00 21 bd 33 fc e3 3c 9a 68 b1 bd
       -0.05577463 -0.0393075 0.027830219 -0.08662529
000240 33 e1 ae bc 70 27 4c 3d 17 18 1f bd 00 bb 56 3d
       -0.021347618 0.049842298 -0.038841333 0.05242443
000250 fa e1 3c bd 6d 25 84 3d b3 e6 8c bc 40 b3 5a bc
       -0.046113946 0.06452451 -0.01719985 -0.013348401
000260 d3 67 ac bc da 03 65 3c 20 b9 ff bc 27 83 6d 3c
       -0.021045601 0.013977969 -0.031216204 0.014496601
000270 8a 88 a3 3d 60 a8 af 3c 9a 5a 4b 3d 33 f9 dd bb
       0.07985027 0.021442592 0.04964695 -0.0067740916
000280 9d b7 31 bd bd bb 89 3d 9a 13 fe 3a d3 7c cc bc
       -0.043387998 0.06725261 0.0019384504 -0.024961865
000290 67 0e 42 3d e8 bf 92 bd 43 31 6f 3d ad d0 c2 3d
       0.047377016 -0.071655095 0.05839659 0.09512458
0002a0 a5 c0 b6 bd 4a a1 2c bd a3 ed 2a 3d fd a1 ae bd
       -0.08923463 -0.042146005 0.041730534 -0.085269906
0002b0 10 16 8d 3d 5f 34 9f 3d 27 34 2e bc b7 9b 26 3d
       0.06888974 0.07773661 -0.010632551 0.040675845
0002c0 20 29 4f 3d ca da c5 bd bd 73 66 3d 97 e1 a6 bd
       0.05057633 -0.09660871 0.05626272 -0.081484966
0002d0 13 0e ae 3c e7 d7 9b bd 7a ad 2c bd cd 90 1c bc
       0.021246945 -0.076095395 -0.042157628 -0.009556008
0002e0 ba 2b b5 bc f3 54 7c 3d 00 07 8f 3c dd 12 13 bd
       -0.022115577 0.06160445 0.017459393 -0.03590666
0002f0 9a 71 54 bb 9a a4 51 bc 5a eb 1c 3d f7 8b 58 3d
       -0.0032416345 -0.012795592 0.038310386 0.052867856
000300 67 f7 c2 3b 53 a9 82 bd f0 73 58 3d 57 6c 5b 3d
       0.005949903 -0.06379952 0.05284494 0.053570118
000310 ad bb 81 3d d8 cd af 3d 87 32 58 bd a3 9c 3a bd
       0.063346244 0.085841835 -0.05278256 -0.045559537
000320 ea 16 8d bd 7b d9 84 3d 40 8e e1 3c a7 b9 b5 3c
       -0.06889136 0.064867936 0.02753365 0.022183252
000330 63 9b 07 bd 9a 07 9b 3b 60 19 c1 3c 33 14 43 3b
       -0.033107173 0.004731131 0.02357167 0.0029766678
000340 40 04 3b 3c cd f2 c5 3c 1a 59 db bc 3b a7 ae bd
       0.0114145875 0.024163628 -0.026775885 -0.085279904
000350 13 b5 ba bd 2f 35 86 bd a3 cd 6d bd 8d da 27 bc
       -0.091165684 -0.06553113 -0.05805744 -0.010244978
000360 0d b6 45 bd 52 e0 ca 3d 08 b7 c0 bd 27 e0 8a bd
       -0.04826932 0.09906067 -0.094099104 -0.06781035
000370 80 24 5b bc 6a 01 73 bd ff cf 98 3d 27 24 d6 bc
       -0.0133754015 -0.05932752 0.07461547 -0.026140286
000380 3a ef 2c 3d 9a 68 81 bb 4d 3d 9f bb 87 d7 7b 3d
       0.04222033 -0.003949237 -0.0048596025 0.06148484
000390 9a 8a 30 3d 42 a0 81 bd e7 4d 43 3c 8d 08 f5 3c
       0.04310093 -0.06329395 0.011920429 0.029911304
0003a0 c8 54 b3 bd bd b9 b2 bd 20 10 ac bc d2 49 9b 3d
       -0.08756405 -0.08726833 -0.021003783 0.075824395
0003b0 e7 2d 53 bc 25 48 b9 3d 40 09 e7 3c 00 b6 b0 3b
       -0.012889362 0.090469636 0.028202653 0.00539279
0003c0 8d d9 92 3c 93 62 30 3d b0 1b b9 3d a3 d8 0d 3d
       0.017926002 0.043062758 0.09038484 0.03463043
0003d0 15 7b 9d bd d3 c6 88 3c b3 94 1a 3c 6d e3 2b bd
       -0.07689492 0.01669637 0.009434867 -0.041964937
0003e0 93 7a 54 3d ff d3 90 bd 78 34 ba 3d 0d bb 8b bc
       0.05187471 -0.07071685 0.09092039 -0.017056966
0003f0 77 40 bc bd 87 f9 89 bc 0a be 80 bd 7a d0 50 3d
       -0.09191983 -0.016842617 -0.06286247 0.05098007

bias_hh_l0 f4 [300]
000000 78 4e 9a 3d 9a d7 58 3b 7a 21 49 bd fa ca 0f 3d
       0.07534498 0.0033087493 -0.04910419 0.035105683
000010 53 73 09 bd 53 bf ff bc 7d 4b 06 bd 9a ad 91 3c
       -0.033557247 -0.03121916 -0.032786835 0.017782975
000020 33 c1 0b bd 87 d1 97 3c 7a ad 58 3d f3 65 bb bd
       -0.034119796 0.018532528 0.052899815 -0.09150305
000030 00 bf 86 3b 9d ee 26 3d 53 57 e2 bc b7 2c 8e bd
       0.0041121244 0.040754903 -0.02762953 -0.069421224
000040 3d c3 55 3d 55 65 c1 bd 25 08 c7 3d f3 de a3 bd
       0.052188147 -0.09443156 0.0971835 -0.080015086
000050 af 20 bd 3d 30 25 20 bd 67 af 6a 3b 90 c6 b2 3d
       0.092347495 -0.039097965 0.0035810114 0.08729279
000060 72 4a 9f bd 80 bd 38 3c 00 3d 1c bc e7 00 dc bc
       -0.07777871 0.011275649 -0.009536028 -0.026855899
000070 53 5c eb 3c 80 4e cd bc e3 87 b9 bd 4d cd 10 3d
       0.028730547 -0.025061846 -0.090591215 0.03535204
000080 e7 15 ae 3d 18 2f ab bd 23 ed b7 3d 30 fb c5 3d
       0.08500271 -0.08358592 0.08980777 0.09667051
000090 20 c0 99 3d fa 82 fc 3c 9a 92 20 3d 57 9d b1 3d
       0.07507348 0.030824173 0.03920231 0.08672588
0000a0 87 50 11 3d 40 dc db bc 73 52 75 bc d3 5c 99 bd
       0.035477187 -0.026838422 -0.014973271 -0.07488408
0000b0 67 22 7a ba a5 a9 cc bd 03 52 ab 3d 58 67 cc bd
       -0.00095418695 -0.099932946 0.08365252 -0.09980649
0000c0 55 1b a0 3d 2d b8 2f 3d e8 c2 b8 3d 5d 5d 83 bd
       0.07817713 0.042900253 0.090215504 -0.06414292
0000d0 67 5a 1f bc ad ff ea 3c 65 f3 ae bd 0d 85 72 3d
       -0.009726143 0.028686369 -0.085425176 0.05920892
0000e0 c0 ab c9 3c c0 01 5e bd e0 69 fe 3c 67 7a 05 3b
       0.02461803 -0.054200888 0.031056345 0.0020367147
0000f0 33 6f 01 3c e7 95 47 bc 27 aa b4 bc c3 8e b7 3d
       0.007900047 -0.012181736 -0.022053791 0.089627765
000100 5a 55 d7 3c 7f c4 b8 bd 00 b9 26 3d 42 f4 bd 3d
       0.026285816 -0.09021854 0.040703773 0.09275104
000110 6d 35 7d bd 73 fd 66 bc 5a 45 c3 bc 63 60 89 3d
       -0.06181853 -0.014098513 -0.02383678 0.067078374
000120 e7 34 f4 bc 68 05 a5 bd e2 85 87 3d 5a 97 5e bd
       -0.029810382 -0.08057672 0.06617333 -0.05434356
000130 a3 b2 bf 3d 03 25 c1 bd 93 d4 4b 3d 0d 98 59 3c
       0.09360244 -0.094308876 0.049763273 0.013280881
000140 7d 32 3c bd 9a 90 d7 3c 33 0e 31 3b 7a 8c 15 bd
       -0.045946587 0.026314069 0.002701652 -0.036510922
000150 00 f7 b9 3b 87 51 8e bd d7 7e c7 bd b7 ca 4e bd
       0.0056751966 -0.06949144 -0.0974099 -0.050486293
000160 c5 aa 9e 3d 3b 40 8a bd 33 44 07 bd 73 88 84 bd
       0.077474155 -0.06750532 -0.033024024 -0.06471338
000170 bd 1c 7d bd 0a 4e 6b 3d e7 3b 1a 3c ab f5 9d 3d
       -0.061794985 0.05744747 0.009413696 0.07712873
000180 00 7e 99 ba 37 23 68 3d 95 29 a4 bd aa d9 10 bd
       -0.0011710525 0.05667421 -0.08015744 -0.03536383
000190 a2 4b 89 bd b5 9c b5 3d 3a af c1 bd 00 9a 89 3c
       -0.06703879 0.0886778 -0.0945725 0.016797066
0001a0 7d ed a2 3d 67 09 a8 3b 58 61 a1 bd 8d 2a c6 3d
       0.079554535 0.005128074 -0.07879895 0.09676085
0001b0 b3 8f 4d bc e7 45 83 3b 15 8f b2 bd 00 51 d8 bc
       -0.012546468 0.0040061357 -0.08718697 -0.026405811
0001c0 c3 1d 8a 3d aa c2 b9 3d 97 34 0b bd 67 6e 24 bb
       0.06743958 0.09070332 -0.0339857 -0.002509022
0001d0 b0 bb 1a 3d 70 f2 74 bd 1b 2b 9f bd a7 a6 41 bc
       0.03777665 -0.05980152 -0.077718936 -0.011819518
0001e0 d7 4c af bd b0 c5 cc bd 53 75 1c 3d 2a f9 76 3d
       -0.08559578 -0.099986434 0.038197827 0.060296215
0001f0 38 1f cc bd 50 5e 0c bd d0 75 c0 3d 80 6d 95 bc
       -0.09966892 -0.03426963 0.09397471 -0.01824069
000200 1f 7d 8a 3d cd 99 4d bd ed b4 c4 bc 00 8c 2b 3a
       0.06762146 -0.050195504 -0.024012053 0.0006543994
000210 3d e7 4e 3d e5 43 c8 3d fa f4 aa 3d b3 9c a5 3c
       0.050513495 0.09778575 0.08347507 0.020216322
000220 70 a8 9f 3d 60 b9 c2 bd 8f 5b c8 bd f7 c9 42 bd
       0.07795799 -0.09508014 -0.097830884 -0.04755589
000230 0d 2c 5e bd a8 eb a2 3d a7 ca 6c bd c7 00 68 bd
       -0.05424123 0.07955104 -0.05781045 -0.056641366
000240 23 19 a7 bd 6b ca 9e bd 33 48 b2 3c 65 ef 87 3d
       -0.08159091 -0.07753452 0.021762943 0.06637458
000250 cd e1 02 3d 88 1b b4 3d 2d 61 dd 3c 4f ec af 3d
       0.03195362 0.08794314 0.027023876 0.08589994
000260 c0 ff 4e 3c a7 49 cc 3d 8d 1a d5 bc f2 85 80 3d
       0.012634218 0.099749856 -0.026013637 0.06275548
000270 fd 3b ad 3d ed 1c 46 3d ea 97 08 3d b7 71 08 bd
       0.084587075 0.04836743 0.033348 -0.033311572
000280 cd 62 71 bb 10 b0 2a bd ad 25 b2 bc 67 d4 f6 3a
       -0.0036832571 -0.041671813 -0.02174648 0.0018831611
000290 c0 de a0 3d 1d b3 20 bd ca 33 86 bd 67 99 39 bd
       0.07854986 -0.039233316 -0.06552847 -0.04531231
0002a0 33 63 5a ba 27 d1 dc bc 92 42 a9 3d a2 47 c4 3d
       -0.0008330822 -0.0269552 0.082646504 0.095839754
0002b0 a3 d7 c0 bd d2 e2 c0 3d c7 d2 3b bd 80 88 01 3d
       -0.094161294 0.094182625 -0.04585531 0.031624317
0002c0 9d 18 bd bd 73 0a a5 bd 9f 3d c6 3d b3 f6 55 bc
       -0.0923321 -0.08058634 0.09679722 -0.013059306
0002d0 f7 70 97 3d 10 27 08 3d 5b 23 87 3d 72 63 c6 3d
       0.07394593 0.033240378 0.065985404 0.096869364
0002e0 d3 bb 76 3d cd 8a b8 ba 5a cd 38 bd 07 7e 29 bd
       0.060237717 -0.0014079452 -0.045117714 -0.041379955
0002f0 2d 22 ff bc 67 66 bc 3b 3a 2b d0 3c b3 60 44 bd
       -0.031144226 0.005749512 0.025411237 -0.047943782
000300 28 2b c3 bd 93 f7 a1 3c 1d d4 63 3d c7 33 43 3d
       -0.09529716 0.019771373 0.05562221 0.0476568
000310 e0 49 07 bd 5f 44 a8 bd 45 98 c6 3d 67 ad 18 3b
       -0.033029437 -0.08216166 0.09697012 0.0023296715
000320 85 92 a5 bd 7d 2c a9 bd 23 8e 0b 3d 72 eb 93 3d
       -0.08084587 -0.082604386 0.0340711 0.07222642
000330 27 3f b2 bd 1a d7 68 3c ed a8 e6 3c 7a 77 6f bd
       -0.087034516 0.01421144 0.028156722 -0.05846355
000340 ea b1 c5 bd c2 74 bd bd 9a 71 74 3c 67 ce dd 39
       -0.09653075 -0.092507854 0.014919663 0.00042306187
000350 27 ad 5c bd ea 11 50 bd aa d7 be 3d 00 da bb 3d
       -0.05387607 -0.050798334 0.093184784 0.091724396
000360 e0 93 6c 3d a7 ee 2e 3d 43 82 7f bd 33 36 90 3b
       0.057758212 0.042708065 -0.062380087 0.0044009923
000370 67 3a 26 3b 9d 7f 70 bd c8 ba c8 3d 57 63 cb bd
       0.00253644 -0.05871545 0.09801251 -0.09931057
000380 bd 71 48 3d 5d 36 28 3d ea c0 84 bd d3 56 65 3d
       0.048936594 0.04106747 -0.06482108 0.055991005
000390 82 36 cb 3d 37 03 96 3d f2 6c b1 bd 67 a5 16 bd
       0.09922506 0.07324832 -0.08663358 -0.036778834
0003a0 9a e2 a1 bd 2d 03 17 bd e2 77 a6 bd 07 a4 93 bd
       -0.07904549 -0.036868263 -0.081283346 -0.0720902
0003b0 32 aa ba bd 32 48 8f 3d b7 15 82 bd 9a 9b 68 3d
       -0.091144934 0.06996192 -0.06351798 0.05678902
0003c0 00 ee 3a 3b cd 46 76 3b 30 9a 93 bd f0 8f ab bd
       0.0028523207 0.0037578822 -0.07207143 -0.08377063
0003d0 9a 65 1b bd 50 6b b5 bd 8a c3 34 bd 30 1e 89 3d
       -0.03793869 -0.08858359 -0.044131793 0.06695211
0003e0 c8 f2 86 bd f3 f3 33 3d ed c0 71 3d 3a 14 45 3d
       -0.065892756 0.04393382 0.05902188 0.048114993
0003f0 e0 65 9e 3d 2a 53 19 bd 30 a5 52 3d a0 e6 80 bd
       0.07734275 -0.037432827 0.051427066 -0.06293988

weight f4 [50, 100]
000000 cd 04 d8 39 b5 ed 8f bd 3a fd ed bc 27 b8 1a 3d
       0.00041202307 -0.07027761 -0.029051412 0.037773278
000010 00 3c 91 bd 5a 55 d8 bc 78 34 93 3d a8 9b 9d 3d
       -0.07091522 -0.026407886 0.07187742 0.07695705
000020 72 88 84 bd 33 eb 2e 3c 23 d8 7b 3d 0f fa 87 bd
       -0.064713374 0.010676193 0.06148542 -0.06639492
000030 07 05 97 3d cd 9c 4d bc 07 25 4e 3d 00 b2 50 bc
       0.07374006 -0.012549591 0.05032828 -0.012737751
000040 aa 27 af bd 77 cb 3e 3d 67 63 eb 3c b8 72 b0 bd
       -0.08552487 0.046580758 0.028733922 -0.08615631
000050 17 02 80 bd d0 98 50 3d c2 83 9a 3d f3 44 f0 bc
       -0.062503986 0.050926983 0.07544662 -0.029329753
000060 1d 89 99 3d 92 65 87 3d f3 75 1a 3c 1a 7b 2e 3c
       0.074968554 0.0661117 0.009427535 0.010649467
000070 03 93 53 bd a8 03 9b 3d 5a 58 aa bd 8d eb bc 3d
       -0.051653873 0.07569057 -0.08317633 0.09224615
000080 87 4b fe bc 1a 93 61 3d 5a 0a c1 3c 8a 97 08 3d
       -0.031041874 0.055071928 0.023564506 0.033347644
000090 05 21 8b 3d 0a 36 35 3d ad 9e 98 3d 23 a9 1d 3d
       0.06793407 0.04424099 0.0745214 0.03849138
0000a0 4f 66 a8 bd 7b 01 8c bd 60 39 b0 bc 6d 2c 93 3d
       -0.08222639 -0.0683622 -0.021511734 0.07186208
0000b0 6d ff 4f bd 6d 78 dd 3c 73 cc ad bd 37 3e 08 3d
       -0.050780702 0.027034963 -0.08486261 0.033262458
0000c0 92 da a4 3d 9a f4 26 3d 8d 12 08 3c 7a b8 ac 3c
       0.080495015 0.040760614 0.008305204 0.021084059
0000d0 60 8b ab 3c ba 42 a3 bc 70 ab a2 bd 32 d6 85 bd
       0.020940483 -0.019929279 -0.07942855 -0.06534995
0000e0 25 82 9e 3d 4b eb b1 bd 83 70 2d 3d 48 9c 8d bd
       0.07739667 -0.08687457 0.042343628 -0.06914574
0000f0 73 3d 44 3c 90 3b 6f bd 0d 13 9c 3d aa 22 bd 3d
       0.011977541 -0.058406413 0.07620821 0.09235127
000100 b7 b2 88 bd f8 92 9f bd e7 17 95 bd 2a d0 80 3d
       -0.06674712 -0.07791704 -0.0727995 0.06289704
000110 7a 31 9e bc 78 d7 b6 bd 80 95 aa bd cd 7f 27 bc
       -0.019310702 -0.08927816 -0.08329296 -0.010223341
000120 05 81 9a 3d 3d 1a 2d bd 80 56 6b 3c a2 f5 9c 3d
       0.0754414 -0.04226135 0.014363885 0.07664038
000130 45 d7 96 bd cf 35 c4 3d e7 ae 6d 3c 9a 2b 11 bc
       -0.07365278 0.09580576 0.014507032 -0.008860493
000140 eb 0d 83 3d bb 4d c3 3d a7 b3 f8 3c ea 1d 56 3d
       0.06399139 0.0953631 0.030359102 0.052274622
000150 2d 23 b3 3d a3 e2 06 bd 5d 25 7e 3d 8d 3e 38 bc
       0.087469436 -0.03293098 0.06204735 -0.011245382
000160 27 aa b7 bd 9a 42 62 bc 4f d6 95 3d 57 db 35 bd
       -0.08968001 -0.013809824 0.07316267 -0.044398632
000170 13 ff b0 bd 5a 0e c5 bd 9a 4d 3c bc 23 dd a7 bd
       -0.086424015 -0.09621878 -0.011493111 -0.08196475
000180 e3 46 5d bd 0d 88 50 3d f7 96 8e 3d f7 2b 64 bd
       -0.05402268 0.050910998 0.06962388 -0.05570599
000190 33 84 80 3b 3a df b0 bc 05 14 b4 3d 3b e7 8c 3d
       0.0039220094 -0.021590818 0.08792881 0.06880041
0001a0 ca 82 5d bd 2d dc b2 3d d7 e2 6d bd cf d2 b2 bd
       -0.05407981 0.087334014 -0.05807766 -0.08731615
0001b0 67 06 b8 b8 53 9e 71 3d 4f 2f 80 bd 1a 17 b9 3c
       -8.774996e-05 0.05898888 -0.062590234 0.022594023
0001c0 07 ff 93 3d 80 4a 42 3c bd 58 32 3d b3 c9 5b bc
       0.07226377 0.0118585825 0.04354166 -0.013414788
0001d0 b0 4a 98 3d 47 03 bb 3c 8d ee de 3c ef 75 81 bd
       0.074361205 0.022828711 0.02721336 -0.06321322
0001e0 72 93 82 bd d0 53 15 3d c5 7d 93 bd ad e2 c1 bd
       -0.06375779 0.036456883 -0.07201723 -0.09467063
0001f0 20 84 0f 3d f3 19 51 bd 70 ba 1c 3d 6f ac a1 3d
       0.035038114 -0.051050138 0.03826374 0.07894217
000200 c8 cb 89 3d 05 aa b8 3d 87 00 b5 bd c5 91 b3 bd
       0.06728321 0.09016804 -0.08837991 -0.08768038
000210 3d d9 a1 bd bd ca b0 3d f7 25 8a 3d 17 9e 60 bd
       -0.07902763 0.08632419 0.067455225 -0.054838266
000220 13 cc 9d bd 58 bb 8a 3d ff db c9 3d 83 7a 2b bd
       -0.0770494 0.06774014 0.09856414 -0.041864883
000230 b3 c6 fc bb 10 22 2f bd 18 9c b9 bd 47 7d 4e bd
       -0.0077141165 -0.042757094 -0.09062976 -0.050412443
000240 b3 8a 2c bc db 18 ac bd c3 f9 0c bd ed 98 24 bd
       -0.010531115 -0.08403178 -0.03441788 -0.040184904
000250 cd f0 32 bd 45 60 c2 bd ba 38 85 bd 10 4c 4c bd
       -0.043686677 -0.09491018 -0.0650496 -0.049877226
000260 d3 ad ac bc 00 0c ab bb cd 02 bc bd d7 c0 68 bd
       -0.02107898 -0.0052199364 -0.09180222 -0.05682453
000270 e3 b4 8d bd 6a 59 ab 3d b0 b9 7c bd 7f 67 8b bd
       -0.06919267 0.08366664 -0.061700523 -0.0680685
000280 28 5b ab bd cd 32 a4 bb 33 d6 04 3b e7 07 b6 bb
       -0.08366996 -0.0050109387 0.0020269274 -0.0055551413
000290 13 fe a9 3c 1a cb 8b 3d 93 ce 2e bd c7 1d 25 3d
       0.020751035 0.06825848 -0.042677473 0.0403116
0002a0 40 f3 52 3d 9a a4 75 bc da ac b9 bc 1a 78 15 3d
       0.051501513 -0.014992857 -0.02266543 0.03649149
0002b0 8a 8a 46 bd 3d 42 5f bd a3 34 13 bd 70 d8 27 bd
       -0.048471965 -0.05450653 -0.03593887 -0.040977895
0002c0 93 28 10 bd 72 3e be 3d 3a bc 10 3d 90 8e 4a bd
       -0.035194945 0.09289254 0.035335757 -0.049452364
0002d0 27 f7 83 bd 20 16 7c 3d af f6 94 bd 4d ad 85 3b
       -0.06443625 0.061544538 -0.07273614 0.004079497
0002e0 0d 32 2b bd 87 34 65 bd e3 73 c5 bd 88 42 b5 bd
       -0.04179578 -0.055958297 -0.09641244 -0.088505805
0002f0 cd cc 8a 38 c0 dd a9 3d 9a 8b de bb c0 f1 fb 3c
       6.6185e-05 0.082942486 -0.006791544 0.030754924
000300 f3 41 4b bc e8 d4 ac 3d 6a b6 30 bd 77 61 aa 3d
       -0.01240586 0.08439046 -0.043142714 0.08319371
000310 0a bc 97 bd eb 85 a0 bd f7 a9 bd bd fb b9 90 3d
       -0.074089125 -0.07838043 -0.09260934 0.07066723
000320 1a 50 66 3d 20 98 98 3d 4d 62 a9 bc 90 8d 4f 3d
       0.056228735 0.074508905 -0.020676756 0.050672114
000330 78 6b bf bd 33 a5 ed bc c7 c8 bc bc 20 fd 9a 3c
       -0.0934667 -0.029009437 -0.023044957 0.018919528
000340 e3 73 61 3d 9a 09 30 3c e0 70 60 3d 1a ed 41 bd
       0.05504216 0.010744477 0.054795146 -0.04734526
000350 2d 9b 94 bc 93 04 8a bc 67 14 d2 3c b7 63 91 3d
       -0.0181404 -0.016847884 0.025644494 0.07099097
000360 cd dd 3a bd 77 b4 af 3d 83 9a 05 3d 3f 4e 81 bd
       -0.045621682 0.08579343 0.032618057 -0.063137524
000370 0d 19 12 3d 4f 3d 8c 3d 4d df 9d 3b fb 96 a2 bd
       0.03566842 0.06847631 0.0048178793 -0.079389535
000380 cd b6 5e 3d 13 53 3b bd 57 05 5f 3d 38 9e ab bd
       0.05437355 -0.045733523 0.05444845 -0.08379787
000390 6d 5c f3 bc db a0 a3 bd 5a d7 c8 bc d0 f3 02 3d
       -0.029707158 -0.07989665 -0.02451675 0.0319708
0003a0 db ce 8f 3d 5a 3e 07 3c e8 57 c5 bd b3 aa 34 bd
       0.070218764 0.008254612 -0.096359074 -0.044108104
0003b0 a3 6f 26 3d c7 f5 b3 3d 4d 38 1d 3c a7 15 ba 3d
       0.04063381 0.08787113 0.009595943 0.09086161
0003c0 47 f6 a3 3c 27 7c fe 3c cd ed 15 3d d3 dc 3b 3d
       0.020014895 0.03106506 0.036603738 0.04586489
0003d0 e3 c6 85 3d 8d 5d 12 bc 00 bb a2 bd 5b 5a cc bd
       0.06532075 -0.008933437 -0.07945824 -0.099781714
0003e0 53 6b af bc b3 a1 08 bc 77 ad 30 3d 30 f1 28 3d
       -0.02141348 -0.008339333 0.04313418 0.04124564
0003f0 c8 cb 81 3d fa f9 f7 bc 2d e7 a3 bd 27 35 cc 3c
       0.06337696 -0.030270565 -0.08003078 0.024927689

bias f4 [50]
000000 4a 01 2c 3d 9a 62 7d bb 7a 0d 4f bd 3f 4d 9d bd
       0.041993417 -0.0038663507 -0.05054996 -0.07680749
000010 4d f7 60 3c 03 e4 01 3d e3 b8 c9 3d 10 de 49 bd
       0.013730836 0.03171159 0.098497175 -0.04928404
000020 7b a8 8e bd cd aa d3 3b c0 be 4b 3c ad cc 3a bd
       -0.06965729 0.00645957 0.012435615 -0.04560535
000030 c0 09 18 3d 30 0f 55 bd 20 23 92 3c ad f1 8b bd
       0.037118673 -0.052016437 0.017839015 -0.06833205
000040 ba 65 ea 3c ed e6 0d 3d ed bf 63 3d d3 2c 3d 3d
       0.02861296 0.034644056 0.055602957 0.046185326
000050 67 e2 ed bc 3d 2c 37 bd 7a 2e 89 3c a7 ab 11 bc
       -0.029038621 -0.044719923 0.016745795 -0.008891023
000060 62 0d c2 3d 98 68 ca 3d 2a 25 a6 bd 27 be 94 3d
       0.09475209 0.09883231 -0.08112557 0.07262831
000070 9a af a5 bd 05 24 ca bd af 34 b5 bd fa d0 8f 3d
       -0.08090134 -0.098701514 -0.08847939 0.07022281
000080 00 a0 cc bb 40 4a 37 3d 3a 1d 8e bc 2a c8 ac bd
       -0.0062446594 0.044748545 -0.01734792 -0.08436616
000090 0b 01 b4 bd 00 65 3e bb dd 30 62 3d e0 08 f1 bc
       -0.087892614 -0.00290519 0.05522238 -0.029423177
0000a0 f3 60 a2 bd cd 26 b4 ba e0 87 c9 bc 2a 45 79 bd
       -0.07928648 -0.0013744474 -0.024600923 -0.060856976
0000b0 d7 64 b7 bd 73 80 38 bd 1a 1a 98 bc cd 09 98 bc
       -0.089547805 -0.045044374 -0.018567134 -0.01855936
0000c0 2f 1e cb 3d 9f 60 a1 3d
       0.099178664 0.07879757

weight f4 [2, 50]
000000 ca 67 68 3d ab 0b 61 3d cb ce 25 3d dd 79 97 bd
       0.056739606 0.054942768 0.040480416 -0.073962905
000010 d2 dc ba bd 25 09 c5 3d 91 da 80 bc 22 ab 03 3e
       -0.091241494 0.09620885 -0.01572922 0.1285825
000020 f9 94 61 bd 2a d6 e4 bd b2 95 23 3c e3 8f 8d 3d
       -0.055073712 -0.11173661 0.009984421 0.0691221
000030 68 ee 07 bd ec 21 b1 3d 05 3e d0 bc 5b 28 86 3d
       -0.033186346 0.08649048 -0.025420198 0.06550666
000040 f4 60 e2 3d fe 93 9e bb 60 79 06 be 3b e8 c4 3d
       0.110536486 -0.0048394194 -0.13132238 0.09614607
000050 be aa d7 bd 1e 96 0d 3e 5a be 98 3d 77 e1 b5 bd
       -0.10530613 0.13826796 0.07458182 -0.08880895
000060 fa 74 df 3d 9c 60 2a 3b e3 a0 93 3d fe 49 0a bd
       0.109109834 0.0025997525 0.07208421 -0.03376197
000070 56 fc c7 bd 50 ba 08 be 75 c3 0b be 70 6b aa 3d
       -0.09764926 -0.13352323 -0.1364878 0.08321273
000080 81 63 03 3e 2b b1 d7 3d 08 57 b2 3d 3d 3f a8 bd
       0.12830926 0.10531839 0.08708006 -0.08215187
000090 09 bc 00 be 1d 18 21 3d a6 f9 b3 bd b3 aa 4b 3d
       -0.1257173 0.039329637 -0.08787851 0.04972334
0000a0 35 fb 03 3e 5b 4f d7 3d 8d 27 c8 3d f6 fb ad bd
       0.12888797 0.10513183 0.09773169 -0.08495323
0000b0 ec 8b ec bc 9b c5 14 3d a6 f3 cf 3d a9 6a 9e 3c
       -0.028875314 0.036321264 0.10153894 0.019337969
0000c0 94 b2 e6 3d e3 0e 0e be 77 a6 e1 bd 38 70 a3 bb
       0.1126453 -0.13872866 -0.11018079 -0.0049877428
0000d0 12 4f 98 3c df a8 a9 3c 9b 7e 39 bd bf 26 0f 3e
       0.018592391 0.020710407 -0.045286756 0.13979624
0000e0 57 c5 5f 3d ae 9b 97 bd 5e f1 9e 3d 72 fb 4f 3c
       0.054631557 -0.074027404 0.07760881 0.012694227
0000f0 d1 74 28 3c 4b 3b 9f bb fa 40 ab bc 66 4f 0d be
       0.010281757 -0.004859363 -0.020905007 -0.1379982
000100 33 9d 17 bd 40 d1 23 bd a6 e6 45 bd 09 98 b1 3d
       -0.03701515 -0.03999448 -0.048315667 0.086715765
000110 44 4d 9d 3d be b4 3a bc 3a 56 1e 3d b2 b7 9b 3d
       0.07680753 -0.011395631 0.03865645 0.076033965
000120 fd 2c da 3d e8 41 5f 3d 8e 75 d2 3d 1d 1c 9a 3d
       0.10653112 0.054506212 0.10276328 0.075248934
000130 91 8c aa bd 07 50 c2 3d d0 fc d3 bd ba f6 b7 bb
       -0.08327592 0.0948792 -0.103509545 -0.005614129
000140 9a 4c 75 bc 6c a3 82 bd e4 5e 1c 3d c7 83 62 bd
       -0.0149718765 -0.063788265 0.038176432 -0.055301454
000150 36 9a 0f 3e db ed b3 3d 26 25 cd bd b6 4f 33 bd
       0.1402367 0.08785602 -0.10016851 -0.04377719
000160 71 25 d8 3d 99 02 65 3d 77 67 51 bd 9b c4 b6 3d
       0.105540164 0.05591068 -0.051124062 0.08924218
000170 7f d0 e9 3d 80 68 2d 3d 47 f1 d3 bd e5 76 89 bd
       0.114167206 0.042335987 -0.103487544 -0.067121305
000180 04 76 04 be c9 0d 5e 3d df ab 06 3e e6 7c a4 bd
       -0.12935644 0.054212365 0.13151501 -0.08031635

bias f4 [2]
000000 da c4 d8 3d c1 10 60 bd
       0.105844215 -0.054703478
