test_dagster/mlruns/0/1484a41b95f84e95b12e2151a8f00b3a/artifacts/restored_model_checkpoint/epoch=9-step=10.ckpt (torch, 448127 bytes, 24 tensors)

rnn.weight_ih_l0 f4 [300, 2]
-0.012617665 0.04478235 -0.009033931 0.062856935 0.029791351 0.09045411 0.027765485 -0.08797131
-0.0132587245 0.0045791813 -0.053097982 -0.0046381545 0.06041592 -0.08460876 0.09161957 -0.0850156
-0.037838873 0.09040195 0.037195385 -0.021267684 0.04215037 0.043494437 -0.02979745 0.048494317
-0.022612622 0.005266567 -0.05834019 -0.048518535 -0.035172567 0.020970756 0.042878762 0.095609024
0.09244036 0.09078546 0.0022995868 -0.04547778 0.028509352 -0.030496202 -0.027038766 -0.04346519
-0.046060853 0.02709045 0.06662825 -0.01303253 -0.09483755 0.09140922 -0.069604084 0.00063748437
-0.099791326 -0.07209933 -0.07050975 -0.0034042378 -0.0293848 0.08845 -0.07260044 -0.025024293
0.076860785 0.089710765 -0.060906053 0.06586965 0.055539522 -0.07046731 -0.06577829 0.086106
0.03369596 -0.065739654 0.083535224 0.009365569 0.034393594 0.011900436 -0.016696442 0.0698041
-0.07773159 -0.032261293 0.026362699 0.0029014647 -0.08018287 -0.016348736 0.0733196 0.036812548
0.016280128 -0.07581725 -0.03356701 0.064839736 0.06437483 -0.05447469 0.0955796 0.006900524
0.05344032 -0.006411157 -0.040859163 0.054943003 0.064245254 -0.07528525 -0.017579783 -0.004332521
0.081558056 0.092291 0.04335157 0.07943646 0.03812426 0.0078111375 -0.03250149 -0.029957442
-0.016951125 0.07789346 -0.0930758 0.030319726 -0.017686173 -0.021827763 -0.08155453 -0.00958625
0.02014143 0.08165872 0.047486436 0.0037354338 0.07426667 0.06741575 0.012092441 -0.00015510249
0.07565468 -0.09014963 -0.06941153 0.038497183 0.044422425 0.093657814 -0.01416532 -0.046092138
-0.064566284 0.09970406 -0.08965621 0.015593325 -0.029152654 -0.0056583956 -0.083244875 0.017696777
0.06425242 0.09820791 -0.09500218 -0.015139761 2.716099e-05 0.06309318 -0.048092358 -0.09615586
0.08730526 0.06744515 -0.05449002 -0.073904775 0.068047345 -0.037989113 -0.061332073 0.044580832
-0.06979785 0.065182075 0.07777265 -0.033907823 0.047543384 -0.0019395313 0.08729674 -0.018475266
-0.012887518 -0.08087577 -0.0133121945 -0.084835656 -0.032242622 0.01469932 0.09739003 -0.082762934
-0.035740737 -0.006324745 0.0741708 0.059250057 -0.059548054 -0.01938709 0.016181234 -0.008179865
0.04110108 -0.012671189 -0.046048336 -0.076392405 -0.00021683864 -0.05752016 -0.0439944 -0.011082518
0.088564016 -0.051874276 0.034738053 -0.085535295 0.045020632 -0.07199398 -0.024554098 0.08252678
-0.021983145 0.017307617 -0.08684484 0.036001164 -0.02441861 0.084415115 -0.08966442 -0.06504875
0.07275276 -0.09022722 0.08315932 0.039410904 0.024836546 -0.019360682 -0.071004316 -0.08467728
-0.042431794 0.068794556 0.015220565 0.060473207 0.07044655 0.09420029 -0.0130559895 -0.06950604
0.021814708 -0.0253108 -0.053819723 -0.022333182 0.00537503 0.08498962 -0.07831421 0.011020882
0.061414883 0.094892055 0.008645087 -0.092553124 0.055803407 0.05898041 0.0083035445 0.023465676
-0.05513432 0.034429405 0.07773065 0.09323049 0.036608186 -0.066925324 0.025896572 -0.039744314
0.059263397 0.00285104 0.07062845 -0.054832056 0.06416177 0.068688475 -0.0939963 -0.05827148
0.01683386 -0.079579785 -0.035268255 0.036969807 -0.08516048 -0.049924996 -0.054303158 0.086268716
00000000: 53ba 4ebc b36d 373d 0e03 14bc 23bb 803d
00000010: fe0c f43c 0140 b93d 7174 e33c 4d2a b4bd
00000020: 1f3b 59bc f50c 963b 457d 59bd a9fb 97bb
00000030: af76 773d 5c47 adbd 0ba3 bb3d a91c aebd
00000040: effc 1abd a824 b93d 305a 183d 9139 aebc
00000050: dea5 2c3d 3927 323d c819 f4bc faa1 463d
00000060: 1b3e b9bc 2b93 ac3b 20f6 6ebd 5fbb 46bd
00000070: 1c11 10bd ddca ab3c a4a1 2f3d aace c33d
00000080: 5f51 bd3d baed b93d aab4 163b e946 3abd
00000090: 728c e93c 2cd3 f9bc 6780 ddbc 8e08 32bd
000000a0: 4eaa 3cbd cbec dd3c 6474 883d 6586 55bc
000000b0: 303a c2bd c234 bb3d 968c 8ebd da1c 273a
000000c0: 655f ccbd d0a8 93bd 6a67 90bd a219 5fbb
000000d0: 64b8 f0bc 4625 b53d 8aaf 94bd bfff ccbc
000000e0: 3069 9d3d 47ba b73d a078 79bd abe6 863d
000000f0: 697d 633d 2a51 90bd c5b6 86bd 5858 b03d
00000100: c604 0a3d 83a2 86bd 8414 ab3d 0b72 193c
00000110: 4ce0 0c3d 0cfa 423c fac6 88bc 74f5 8e3d
00000120: bd31 9fbd 6b24 04bd 96f6 d73c 8026 3e3b
00000130: eb36 a4bd c9ed 85bc 9628 963d c1c8 163d
00000140: e75d 853c 1346 9bbd 907d 09bd b2ca 843d
00000150: f3d6 833d da20 5fbd 3dbf c33d ca1d e23b
00000160: 3de4 5a3d af14 d2bb f05b 27bd ea0b 613d
00000170: 0493 833d 272f 9abd 7a03 90bc d2f7 8dbb
00000180: e907 a73d 1003 bd3d 6a91 313d 95af a23d
00000190: 2f28 1c3d 92f4 ff3b 4820 05bd 4f69 f5bc
000001a0: 16dd 8abc 9b86 9f3d 869e bebd 1361 f83c
000001b0: 98e2 90bc 23d0 b2bc 1006 a7bd a60f 1dbc
000001c0: a4ff a43c b03c a73d 2381 423d 2ece 743b
000001d0: 2019 983d 4511 8a3d 601f 463c 02a3 22b9
000001e0: d7f0 9a3d 5fa0 b8bd a227 8ebd 39af 1d3d
000001f0: 4af4 353d abcf bf3d a915 68bc 1ccb 3cbd
00000200: 543b 84bd a431 cc3d ad9d b7bd 257b 7f3c
00000210: 8cd1 eebc 106a b9bb 4a7c aabd d5f8 903c
00000220: c696 833d 3b21 c93d 8190 c2bd c30c 78bc
00000230: c8d7 e337 ff36 813d 7efc 44bd 5ded c4bd
00000240: 1acd b23d af20 8a3d ed30 5fbd 635b 97bd
00000250: 685c 8b3d 799a 1bbd 5737 7bbd 649a 363d
00000260: 2df2 8ebd 2e7e 853d 4447 9f3d eee2 0abd
00000270: dabc 423d df37 feba a2c8 b23d 7159 97bc
00000280: 2b26 53bc 32a2 a5bd 641b 5abc 51be adbd
00000290: d710 04bd 6bd5 703c 6d74 c73d 9d7f a9bd
000002a0: e164 12bd ce3f cfbb dce6 973d 30b0 723d
000002b0: a9e8 73bd add1 9ebc 828e 843c d704 06bc
000002c0: 9b59 283d d29a 4fbc 2e9d 3cbd 9f73 9cbd
000002d0: 2e5f 63b9 429a 6bbd 7933 34bd 7393 35bc
000002e0: 0d61 b53d 1f7a 54bd 7d49 0e3d 212d afbd
000002f0: 8e67 383d 9471 93bd ad25 c9bc cd03 a93d
00000300: ff15 b4bc b4c8 8d3c b5db b1bd f575 133d
00000310: 8909 c8bc d5e1 ac3d fba1 b7bd 4738 85bd
00000320: 66ff 943d 0cc9 b8bd 6f4f aa3d 546d 213d
00000330: 0376 cb3c 4b9a 9ebc b66a 91bd 486b adbd
00000340: f6cc 2dbd 29e4 8c3d ad5f 793c c1b2 773d
00000350: 4846 903d 15ec c03d cae8 55bc 2f59 8ebd
00000360: c2b4 b23c 9858 cfbc 1272 5cbd 14f4 b6bc
00000370: 0521 b03b 0a0f ae3d 3363 a0bd ee90 343c
00000380: 2c8e 7b3d c456 c23d 1fa4 0d3c 7e8c bdbd
00000390: 1d92 643d 7195 713d 970b 083c 173b c03c
000003a0: 86d4 61bd d905 0d3d 3f31 9f3d a1ef be3d
000003b0: 77f2 153d 2510 89bd 0c25 d43c efca 22bd
000003c0: 2dbe 723d 84d8 3a3b a6a5 903d 9497 60bd
000003d0: 3f67 833d 8bac 8c3d 2281 c0bd 13ae 6ebd
000003e0: 2ae7 893c bafa a2bd 7275 10bd a76d 173d
000003f0: 9e68 aebd 277e 4cbd fd6c 5ebd a7ad b03d

rnn.weight_hh_l0 f4 [300, 100]
-0.06845888 -0.04243976 0.038108334 -0.06439093 0.029112298 0.041443516 0.100302 -0.053694893
0.007417049 -0.0540066 -0.049851883 0.043057792 0.0063566193 -0.022321835 -0.051566653 0.039352655
0.10085332 0.08284128 -0.09551215 -0.0056356657 -0.045059673 -0.09021348 0.03505607 0.054818843
0.063318454 -0.056477092 -0.071973406 -0.06250554 -0.08527734 0.027169498 0.031694897 0.04204112
0.08595504 -0.04378044 0.029941028 0.00544195 -0.10014526 0.012602863 0.06388064 0.052600414
0.06004877 -0.020060498 0.0058394293 0.024994921 -0.092177086 -0.053747796 0.059830662 -0.07850476
-0.02590291 0.09650305 0.04134652 0.0140145905 -0.056116063 0.0031044167 0.013270065 -0.0536278
-0.080458984 0.0001533055 -0.05119064 0.053516127 -0.009779246 0.028290637 0.044057366 -0.06785661
0.019538384 0.046654955 -0.09289844 0.07668269 -0.09904933 0.06368408 -0.09496683 -0.04103392
-0.058122616 -0.07800535 -0.017376617 0.09306159 0.064506926 -0.0075604464 0.07908702 0.04304144
-0.097643316 -0.018483605 -0.040825885 -0.011698132 0.07241805 -0.04535545 -0.057974707 -0.043957308
-0.03966149 -0.09814342 -0.097373776 0.021073502 -0.090823784 0.07820576 -0.08589477 0.07903502
-0.08195505 -0.06772622 -0.057018943 -0.05177454 0.03212202 0.07137556 0.03285532 0.010580933
-0.046835188 0.064128466 0.0044565494 0.041188274 -0.027858566 0.045001585 -0.09226415 -0.035314374
0.088213965 -0.056952044 -0.042542383 0.028758163 -0.09102245 -0.09063894 0.09012773 0.068369776
-0.023619652 -0.07612364 0.011111906 -0.04045218 0.0745624 0.05711017 0.072706744 0.07951949
0.046668246 0.078579895 -0.08176012 -0.042237166 -0.01463119 0.042032167 0.016103305 -0.01516744
-0.024263024 -0.098587625 -0.032518853 -0.035752527 0.0019488308 -0.089385234 0.08882354 0.04443751
-0.024573836 -0.01361332 0.06897901 0.008444203 -0.03051266 -0.0074256253 0.055893727 -0.014172862
-0.064693965 0.09151614 -0.025656318 -0.022974214 -0.02878835 -0.0068867933 0.027394647 0.0017099025
0.08215044 0.041067336 -0.0064847404 0.026787613 0.03323944 -0.021434458 -0.025956113 -0.08251769
-0.039973762 0.015767608 -0.03238813 -0.08126314 -0.029754635 0.08151013 0.041807532 0.03851675
0.018916415 -0.0634173 -0.08661736 -0.09863528 0.007405621 -0.097387224 -0.011600313 -0.03458719
0.07919403 0.046720535 0.013766701 -0.041961607 0.073811695 0.07755533 -0.09746368 0.017178373
-0.08757019 0.095970616 -0.09189616 -0.009063789 0.036370736 -0.037073325 -0.06294591 0.08902834
-0.0643846 -0.05690604 -0.0580103 -0.015414027 0.04518567 -0.008990328 -0.036802407 -0.08039351
-0.07147694 0.021318404 0.013493103 -0.011985537 0.018750973 0.03857041 0.011969991 -0.0693109
0.06357583 -0.09559433 -0.03048785 0.026080439 0.0060772197 -0.00365568 0.028053535 -0.017385634
-0.06816379 -0.01596299 0.086131975 -0.088266596 -0.032422382 0.031316496 -0.037327413 -0.011965953
0.020186096 -0.024803039 0.019289317 -0.07120354 -0.060771525 -0.021063037 -0.042221375 0.045279823
-0.046748377 -0.019641902 -0.036362037 -0.007558042 -0.0040538143 0.07742607 -0.042910434 0.06780903
-0.09843438 -0.026315428 -0.096916065 0.06725651 -0.05887647 -0.08740403 0.0037662191 0.08900745
00000000: 2b34 8cbd 50d5 2dbd 7c17 1c3d 64df 83bd
00000010: ea7c ee3c adc0 293d 236b cd3d 2def 5bbd
00000020: b70a f33b 0636 5dbd 7d31 4cbd 5e5d 303d
00000030: 304b d03b 48dc b6bc 8e37 53bd 4030 213d
00000040: 2f8c ce3d b0a8 a93d e09b c3bd 64ab b8bb
00000050: 7e90 38bd d8c1 b8bd f496 0f3d b989 603d
00000060: 1bad 813d 8654 67bd cb66 93bd e802 80bd
00000070: e3a5 aebd 9192 de3c 82d2 013d 4f33 2c3d
00000080: 3209 b03d 1e53 33bd e346 f53c 6352 b23b
00000090: f518 cdbd 3d7c 4e3c dad3 823d 8873 573d
000000a0: b3f5 753d ea55 a4bc af58 bf3b 26c2 cc3c
000000b0: 57c7 bcbd a626 5cbd ff10 753d 1bc7 a0bd
000000c0: 5732 d4bc 64a3 c53d f85a 293d 749d 653c
000000d0: f5d9 65bd 7873 4b3b b06a 593c d3a8 5bbd
000000e0: aec7 a4bd a2c0 2039 47ad 51bd ba33 5b3d
000000f0: 2139 20bc c4c1 e73c 7f75 343d 68f8 8abd
00000100: f60e a03c 4419 3f3d 8a41 bebd d00b 9d3d
00000110: 60da cabd cd6c 823d f87d c2bd 2f13 28bd
00000120: fb11 6ebd 45c1 9fbd 6859 8ebc 1397 be3d
00000130: 351c 843d 9fbd f7bb 60f8 a13d 394c 303d
00000140: 38f9 c7bd ee6a 97bc 0b39 27bd 86a9 3fbc
00000150: ea4f 943d a3c6 39bd e376 6dbd 940c 34bd
00000160: 1674 22bd 6bff c8bd e76b c7bd 56a2 ac3c
00000170: d201 babd 572a a03d 99e9 afbd 1ddd a13d
00000180: 0dd8 a7bd 0bb4 8abd b28c 69bd 8a11 54bd
00000190: 6192 033d 592d 923d 4d93 063d a65b 2d3c
000001a0: 41d6 3fbd c955 833d 3f08 923b 09b5 283d
000001b0: a637 e4bc 9553 383d fdf4 bcbd cea5 10bd
000001c0: 86a9 b43d 8c46 69bd ec40 2ebd 3d96 eb3c
000001d0: fa69 babd e9a0 b9bd e394 b83d 7405 8c3d
000001e0: 007e c1bc b6e6 9bbd b60e 363c 2fb1 25bd
000001f0: 2cb4 983d 5bec 693d 46e7 943d 1ddb a23d
00000200: 3427 3f3d 7fee a03d da71 a7bd e100 2dbd
00000210: a9b7 6fbc ec29 2c3d 14eb 833c db80 78bc
00000220: 40c3 c6bc 4fe8 c9bd 7d32 05bd 3e71 12bd
00000230: e96f ff3a 9b0f b7bd 1ee9 b53d 1b04 363d
00000240: 124f c9bc 670a 5fbc de44 8d3d 8e59 0a3c
00000250: b0f5 f9bc a952 f3bb d2f0 643d 4b35 68bc
00000260: 457e 84bd d06c bb3d 332d d2bc 6b34 bcbc
00000270: 8cd5 ebbc 9caa e1bb bd6a e03c cf1e e03a
00000280: 7d3e a83d 3936 283d f27d d4bb b271 db3c
00000290: 1426 083d 5197 afbc eaa1 d4bc 09ff a8bd
000002a0: 87bb 23bd 122b 813c 6aa9 04bd 4a6d a6bd
000002b0: febf f3bc c8ee a63d 603e 2b3d bdc3 1d3d
000002c0: 99f6 9a3c eee0 81bd 7164 b1bd 4b01 cabd
000002d0: daaa f23b f472 c7bd 3d0f 3ebc 4cab 0dbd
000002e0: 7b30 a23d 085e 3f3d bb8d 613c efdf 2bbd
000002f0: 962a 973d 54d5 9e3d 0a9b c7bd a9b9 8c3c
00000300: 0058 b3bd 3e8c c43d 0e34 bcbd 4980 14bc
00000310: 7bf9 143d 33da 17bd c9e9 80bd 7e54 b63d
00000320: 13dc 83bd 4f16 69bd 359c 6dbd 1d8b 7cbc
00000330: 9c14 393d 2b4c 13bc 1fbe 16bd 5aa5 a4bd
00000340: 8062 92bd efa3 ae3c 2d12 5d3c fc5e 44bc
00000350: a49b 993c 02fc 1d3d c81d 443c e0f2 8dbd
00000360: 0b34 823d f6c6 c3bd a8c1 f9bc a5a6 d53c
00000370: 6a23 c73b 2294 6fbb 87d0 e53c 516c 8ebc
00000380: 7599 8bbd d1c4 82bc f665 b03d 1ec5 b4bd
00000390: 55cd 04bd ba45 003d a1e4 18bd d80c 44bc
000003a0: 505d a53c be2f cbbc a104 9e3c 29d3 91bd
000003b0: 90eb 78bd 648c acbc 52f0 2cbd 5677 393d
000003c0: 3a7b 3fbd 0ee8 a0bc 5cf0 14bd 74a9 f7bb
000003d0: dcd5 84bb 8f91 9e3d dac2 2fbd 76df 8a3d
000003e0: f797 c9bd 7493 d7bc ee7b c6bd c8bd 893d
000003f0: 7428 71bd e200 b3bd acd2 763b 8a49 b63d

rnn.bias_ih_l0 f4 [300]
0.07520175 0.024244368 0.029788738 -0.030912539 0.0909076 -0.07050639 0.0141380895 -0.058067113
0.060599003 0.06835411 -0.09606006 -0.016771942 0.078001715 0.034176446 -0.09688379 -0.018330228
-0.036170676 -0.04487156 -0.07213325 0.0067260177 -0.07460218 -0.07245945 0.0032450524 -0.03245152
-0.019276235 0.042943135 -0.028260428 -0.0061614932 0.03698756 -0.024438165 0.062839925 0.00063291617
0.060297307 -0.01604141 -0.089744404 -0.017825132 -0.035633467 -0.023549663 -0.031817436 -0.08148131
-0.081295356 -0.031532027 -0.0034544691 -0.01962989 -0.03826947 0.06844193 -0.039256655 -0.060269833
-0.06226853 0.05116686 0.012845951 0.059499633 -0.045711238 -0.08384972 -0.066343345 0.060356025
0.01553018 -0.07651787 0.052484334 0.07183168 0.080232054 -0.08329429 -0.013260327 0.042343315
-0.016829424 0.09575167 -0.04593028 -0.055718597 0.04341699 -0.015925668 0.0937007 -0.085935645
-0.018356647 -0.062284198 -0.07172756 0.010495967 0.027383966 -0.016661342 -0.05651182 -0.08173957
0.06382916 0.0542852 0.057972375 -0.07356271 -0.06820457 0.05767587 -0.05009644 0.09372834
-0.08956579 0.07802429 0.057121944 0.09657713 0.038217507 0.041533537 0.019295333 0.0323533
0.06919675 -0.041578528 -0.081409276 -0.09945561 0.06087774 0.053280503 0.041121326 0.067991175
0.05941073 -0.02777438 -0.09511997 -0.0771317 -0.004280453 0.09914535 -0.07772342 -0.033985578
-0.07398692 0.06540003 0.028311508 0.0071266396 -0.036014076 -0.021314936 -0.050095156 -0.0025935927
-0.089560315 0.00806188 -0.06066004 -0.09829868 -0.08279032 -0.014312382 -0.071564026 -0.026994554
0.028649036 0.01064853 0.07809033 0.06501691 0.09597774 0.015104849 0.018943314 0.07454164
0.07479667 0.032492787 -0.093613714 -0.08950771 0.054337814 0.067276396 0.09974408 -0.06709114
0.09743996 -0.030468345 -0.03378553 -0.09491621 0.06495415 -0.090774566 -0.0049111284 -0.07316384
0.060654238 -0.077211045 -0.016831217 0.071400635 0.09166289 -0.05217055 -0.05522994 -0.08146471
-0.046378966 -0.09417728 -0.065324254 -0.0088614 -0.08978555 0.09041127 -0.07459584 0.066540845
-0.08212696 -0.026998114 0.026884424 -0.0033737859 -0.07741098 -0.034430757 0.02055255 -0.04862353
0.08070178 -0.079643205 -0.09868668 -0.01349597 -0.07533677 -0.06419252 -0.08437853 0.06521116
0.087588 0.020170307 -0.077063866 0.07712067 -0.067092866 0.059147146 -0.010195245 0.03921212
-0.047879525 -0.01827958 0.012786241 0.06255919 0.087189086 0.04024785 0.02192708 0.031146336
-0.036024 0.037362117 -0.0732389 0.049275912 0.026731825 -0.04160107 -0.045212835 -0.015170626
-0.02213957 0.087804444 0.046236426 -0.0132379085 -0.026996644 -0.04450938 0.006837838 0.053188097
-0.074224904 -0.07136963 -0.057098713 0.005890483 -0.0024310008 0.078853175 0.08085715 0.06668478
0.033310395 0.013079269 0.039606526 -0.073887356 0.020498332 0.09256053 -0.09861794 -0.057955008
0.09384355 -0.012563548 -0.07515388 0.0299961 0.09228765 0.037439823 -0.07999221 0.02966212
-0.068225354 0.042633332 0.08457166 -0.049812295 0.06043455 0.0034800083 0.01087845 0.010418981
0.06036903 -0.09428254 -0.078263365 0.008831459 -0.04312993 0.008493378 -0.010656748 0.026552668
00000000: 6003 9a3d 209c c63c 8307 f43c 4b3c fdbc
00000010: c42d ba3d a765 90bd 72a3 673c c8d7 6dbd
00000020: a936 783d 3dfd 8b3d 23bb c4bd 5065 89bc
00000030: 5dbf 9f3d 9afc 0b3d 026b c6bd 4629 96bc
00000040: b427 14bd 3ecb 37bd 99ba 93bd ed65 dc3b
00000050: 07c9 98bd 9f65 94bd f2aa 543b e3eb 04bd
00000060: 32e9 9dbc 24e5 2f3d 6a82 e7bc 5ae6 c9bb
00000070: 4580 173d 8c32 c8bc 38b2 803d 49ea 253a
00000080: 4ffa 763d 4669 83bc eacb b7bd 0306 92bc
00000090: 66f4 11bd 39eb c0bc 0053 02bd acdf a6bd
000000a0: 2e7e a6bd ba27 01bd 6064 62bb ddce a0bc
000000b0: 73c0 1cbd 482b 8c3d 96cb 20bd 80dd 76bd
000000c0: 490d 7fbd 5794 513d d377 523c e3b5 733d
000000d0: b53b 3bbd 67b9 abbd 05df 87bd e137 773d
000000e0: 4c72 7e3c 67b5 9cbd d0f9 563d 7d1c 933d
000000f0: b450 a43d 3296 aabd d841 59bc 2f70 2d3d
00000100: dcdd 89bc 7419 c43d 6421 3cbd 2f39 64bd
00000110: 04d6 313d 8c76 82bc 27e6 bf3d 07ff afbd
00000120: ae60 96bc b71d 7fbd e6e5 92bd 47f7 2b3c
00000130: 5754 e03c 5e7d 88bc f078 67bd 1367 a7bd
00000140: ddb8 823d 285a 5e3d 7174 6d3d 0ca8 96bd
00000150: d6ae 8bbd 883d 6c3d ed31 4dbd a5f4 bf3d
00000160: 456e b7bd 33cb 9f3d b3f8 693d 3bca c53d
00000170: f689 1c3d 121f 2a3d 3f11 9e3c e584 043d
00000180: 07b7 8d3d 3f4e 2abd e8b9 a6bd 62af cbbd
00000190: f05a 793d a83c 5a3d d66e 283d f53e 8b3d
000001a0: aa58 733d 1987 e3bc 42ce c2bd 3af7 9dbd
000001b0: 0b43 8cbb b80c cb3d 752d 9fbd 7634 0bbd
000001c0: 7486 97bd 73f0 853d 89ed e73c 9686 e93b
000001d0: 7f83 13bd a99c aebc 9430 4dbd 44f9 29bb
000001e0: 666b b7bd fa15 043c a976 78bd d150 c9bd
000001f0: f98d a9bd 7b7e 6abc 2990 92bd af23 ddbc
00000200: 62b1 ea3c 2c77 2e3c d3ed 9f3d 9627 853d
00000210: fa8f c43d 547a 773c 022f 9b3c 4aa9 983d
00000220: ff2e 993d 2817 053d 8cb8 bfbd d14f b7bd
00000230: 5491 5e3d 35c8 893d a046 cc3d 1467 89bd
00000240: 9a8e c73d c098 f9bc b262 0abd 6e63 c2bd
00000250: ae06 853d 04e8 b9bd 88ed a0bb ecd6 95bd
00000260: 9470 783d d320 9ebd 9fe1 89bc 7f3a 923d
00000270: c1b9 bb3d c9b0 55bd ca38 62bd f8d6 a6bd
00000280: dff7 3dbd 05e0 c0bd b9c8 85bd 682f 11bc
00000290: 7de1 b7bd 8b29 b93d b4c5 98bd 9146 883d
000002a0: 2e32 a8bd 262b ddbc b93c dc3c bc1a 5dbb
000002b0: a689 9ebd 4407 0dbd d25d a83c 7729 47bd
000002c0: fa46 a53d fa1b a3bd 3e1c cabd 331e 5dbc
000002d0: 2a4a 9abd 5e77 83bd a7ce acbd 6e8d 853d
000002e0: 5661 b33d 333c a53c a9d3 9dbd 71f1 9d3d
000002f0: fc67 89bd 4744 723d f509 27bc e39c 203d
00000300: 521d 44bd 0fbf 95bc 627d 513c 081f 803d
00000310: 3190 b23d eeda 243d 6ba0 b33c 9a26 ff3c
00000320: e78d 13bd 0509 193d 47fe 95bd 8ad5 493d
00000330: b3fc da3c e265 2abd 1831 39bd 388e 78bc
00000340: 0b5e b5bc d1d2 b33d 6862 3d3d d0e3 58bc
00000350: 1128 ddbc 784f 36bd f10f e03b c3db 593d
00000360: 3a03 98bd 3e2a 92bd 57e0 69bd f404 c13b
00000370: 6d51 1fbb c67d a13d 6f98 a53d 0892 883d
00000380: 7b70 083d 6e4a 563c 743a 223d 4152 97bd
00000390: 1eec a73c 6090 bd3d 34f8 c9bd 3b62 6dbd
000003a0: 0c31 c03d 57d7 4dbc 47ea 99bd 62ba f53c
000003b0: 4f01 bd3d 805a 193d f5d2 a3bd f9fd f23c
000003c0: bcb9 8bbd 4aa0 2e3d e833 ad3d fa07 4cbd
000003d0: 388a 773d da10 643b 873b 323c 60b4 2a3c
000003e0: 8445 773d 3417 c1bd 8b48 a0bd d3b1 103c
000003f0: 02a9 30bd cf27 0b3c a499 2ebc fb84 d93c

rnn.bias_hh_l0 f4 [300]
-0.04565053 -0.032721404 -0.04436454 -0.020969208 -0.007997598 -0.015174291 0.03209732 -0.031796843
0.026781099 -0.083936155 0.0012074123 0.0028708414 0.004455905 0.08808832 -0.08638756 0.06489344
0.039179012 0.016882416 -0.0271025 -0.015913399 -0.09102626 0.09044702 0.05103223 -0.015591822
-0.029182706 -0.084077165 -0.09261701 0.07282908 0.034995418 -0.057427566 -0.02144633 -0.013793578
0.05187518 -0.06094515 0.07341984 -0.06354727 0.09096761 0.003705765 0.008022981 0.02903913
-0.030983374 -0.010229443 0.0032286183 -0.019052427 -0.018767947 0.057822306 0.09924398 -0.020570975
-0.0684664 -0.014746712 -0.04472562 -0.0252456 -0.00015132989 -0.052170772 0.06620023 -0.06304487
-0.07657254 -0.071018286 -0.083925 0.07242042 0.086733826 0.09984552 -0.009470343 -0.027382309
0.0047909003 0.05446652 -0.0317089 0.048615698 0.06469848 0.030990662 0.002811941 0.09692581
-0.010193854 0.07781644 0.05475277 -0.07707581 0.012869352 -0.034160543 -0.091696456 0.0046013277
-0.05104074 -0.004808663 0.034095194 -0.0016360779 0.06502269 0.098440036 -0.07197034 -0.08900839
0.027645059 0.020603059 -0.017580414 0.04576845 -0.07442317 0.003966117 -0.05121958 0.03687653
0.08859541 0.027234096 -0.05036575 0.00368204 0.0069774794 -0.100300275 0.01477525 0.047445677
0.07551056 -0.09939727 0.060439736 0.08653205 -0.051908102 0.05253786 -0.014337777 -0.049941704
-0.038790118 0.0041424483 0.00939154 -0.096000895 0.075898714 -0.023176389 0.030112162 0.027058423
-0.08989551 0.09874383 -0.065599464 -0.042082068 0.065661736 -0.019925045 -0.060314167 0.070404224
-0.030776491 -0.04806175 0.0045256135 -0.09887959 -0.053529534 -0.05170179 0.022209851 -0.009896568
-0.04664316 0.083036944 0.050473463 -0.08609967 0.00062147237 -0.017601904 -0.08697769 0.052985504
-0.09783012 -0.017409528 0.02145794 0.043538786 0.021945516 -0.006269673 -0.021142129 0.0026951216
-0.047674797 0.036373254 0.008931354 0.050189856 0.0020057512 -0.023081448 0.018466894 -0.02004661
-0.08444629 0.0976009 -0.030444715 0.066797405 0.0102085 -0.095857196 0.009498696 -0.04049404
-0.07295686 -0.030179666 -0.036795348 0.02300107 -0.03739205 0.090748064 0.07921867 0.019553814
-0.05373294 0.096815825 0.097851396 0.08831089 -0.011963409 0.053431075 -0.022850865 -0.07577864
0.09028663 -0.061824635 0.0842197 -0.03257595 0.011709334 0.0072361557 0.049200147 0.07722438
0.014468359 -0.07557892 -0.03326972 -0.07556637 -0.05528936 0.04361549 0.033739973 0.024789179
0.07542154 -0.04942214 -0.043001603 0.030119674 0.07537001 -0.03092988 -0.0075360797 0.07763831
-0.0753876 -0.09421118 -0.046279468 -0.022825569 -0.03358749 0.029731093 0.058246143 -0.09827389
-0.0982387 -0.01972759 -0.053131368 0.012992133 -0.054839417 0.039511144 0.053330425 -0.047763065
0.0011358494 0.079900354 0.02595357 0.04890298 0.090916954 0.097796045 0.014545195 -0.05827955
0.08712852 -0.0038531024 0.08484244 -0.058797434 -0.041756272 0.07991342 0.039950266 -0.031022292
0.04865876 0.08088273 0.028010424 -0.0048913546 -0.08455521 -0.017368346 0.099232756 -0.05286039
-0.06615901 0.059740916 -0.08759509 -0.00089446723 0.037557982 -0.011873725 -0.061274156 -0.0076362877
00000000: 0dfc 3abd e106 06bd 98b7 35bd 9ec7 abbc
00000010: 5b08 03bc 979d 78bc 7b78 033d 683d 02bd
00000020: 0964 db3c b8e6 abbd 0942 9e3a ba24 3c3b
00000030: d702 923b a667 b43d f6eb b0bd dae6 843d
00000040: 2c7a 203d fe4c 8a3c 1006 debc d15c 82bc
00000050: fa6b babd 4a3c b93d 2c07 513d d774 7fbc
00000060: 9210 efbc a630 acbd fdad bdbd 6a27 953d
00000070: 5b57 0f3d 2b39 6bbd 37b0 afbc 76fe 61bc
00000080: 127b 543d 9fa1 79bd 245d 963d 1225 82bd
00000090: 3a4d ba3d 6bdc 723b d272 033c 78e3 ed3c
000000a0: d8d0 fdbc 6599 27bc 3a97 533b d613 9cbc
000000b0: 3dbf 99bc 15d7 6c3d 6e40 cb3d 7684 a8bc
000000c0: 1d38 8cbd 319c 71bc 3632 37bd dccf cebc
000000d0: 4fae 1eb9 05b1 55bd fc93 873d ab1d 81bd
000000e0: 10d2 9cbd 0972 91bd dfe0 abbd 2851 943d
000000f0: 81a1 b13d cf7b cc3d 7f29 1bbc dd50 e0bc
00000100: fcfc 9c3b 4918 5f3d 31e1 01bd 4121 473d
00000110: a380 843d 21e0 fd3c 8b48 383b 0a81 c63d
00000120: 1f04 27bc 3a5e 9f3d 7144 603d ecd9 9dbd
00000130: f9d9 523c edeb 0bbd 5acb bbbd bcc6 963b
00000140: 1810 51bd fd91 9dbb 67a7 0b3d aa71 d6ba
00000150: 9e2a 853d ee9a c93d 3065 93bd 084a b6bd
00000160: e477 e23c bfc7 a83c cd04 90bc b377 3b3d
00000170: 2d6b 98bd 33f6 813b 9fcb 51bd d80b 173d
00000180: 8371 b53d 0a1a df3c 514c 4ebd 614e 713b
00000190: 57a3 e43b 3b6a cdbd e413 723c 6656 423d
000001a0: 48a5 9a3d cc90 cbbd a88f 773d b737 b13d
000001b0: 979d 54bd f031 573d ffe8 6abc ac8f 4cbd
000001c0: 63e2 1ebd 60bd 873b f9de 193c 1e9c c4bd
000001d0: c970 9b3d 69dc bdbc c8ad f63c a0a9 dd3c
000001e0: 231b b8bd 353a ca3d 0359 86bd 3f5e 2cbd
000001f0: a979 863d d939 a3bc fd0b 77bd 1730 903d
00000200: fb1e fcbc 66dc 44bd 994b 943b 6281 cabd
00000210: c941 5bbd 42c5 53bd 6ff1 b53c 3725 22bc
00000220: e60c 3fbd 460f aa3d 43bd 4e3d 0655 b0bd
00000230: 4eea 223a de31 90bc 5c21 b2bd 5407 593d
00000240: 285b c8bd 6d9e 8ebc 90c8 af3c ba55 323d
00000250: 15c7 b33c d471 cdbb 4232 adbc a3a0 303b
00000260: a646 43bd 1ffc 143d d054 123c e193 4d3d
00000270: ec72 033b 4e15 bdbc e247 973c ca38 a4bc
00000280: 2df2 acbd fbe2 c73d 3267 f9bc 14cd 883d
00000290: 8d41 273c c750 c4bd 6ba0 1b3c 14dd 25bd
000002a0: 686a 95bd 593b f7bc b8b6 16bd bd6c bc3c
000002b0: 6828 19bd 1fda b93d 663d a23d 522f a03c
000002c0: 1217 5cbd 6047 c63d 5066 c83d 57dc b43d
000002d0: 2d02 44bc 8bda 5a3d bd31 bbbc d531 9bbd
000002e0: 32e8 b83d d43b 7dbd 617b ac3d 5c6e 05bd
000002f0: 82d8 3f3c 461d ed3b 1886 493d d127 9e3d
00000300: b20c 6d3c 1fc9 9abd d445 08bd 8ac2 9abd
00000310: 1977 62bd 28a6 323d ed32 0a3d ad12 cb3c
00000320: 9c76 9a3d df6e 4abd 7322 30bd 89bd f63c
00000330: 985b 9a3d a960 fdbc 38f1 f6bb d600 9f3d
00000340: d064 9abd cbf1 c0bd 8a8f 3dbd b0fc babc
00000350: 0993 09bd 9f8e f33c 8293 6e3d d243 c9bd
00000360: 5f31 c9bd c19b a1bc 47a0 59bd f5dc 543c
00000370: 4c9f 60bd 70d6 213d 0171 5a3d 34a3 43bd
00000380: c8e0 943a cca2 a33d 959c d43c 7e4e 483d
00000390: ab32 ba3d 4b49 c83d f84e 6e3c 8ab6 6ebd
000003a0: 7070 b23d 5584 7cbb e0c1 ad3d 94d5 70bd
000003b0: a008 2bbd a6a9 a33d e4a2 233d 7622 febc
000003c0: 684e 473d d8a5 a53d 1e76 e53c a847 a0bb
000003d0: 482b adbd 1048 8ebc 8b3a cb3d 2384 58bd
000003e0: 607e 87bd e4b2 743d 0e65 b3bd ae7a 6aba
000003f0: 66d6 193d 038a 42bc 9cfa 7abd d339 fabb

fc_out1.weight f4 [50, 100]
0.04311768 0.02438238 0.05580616 0.017033564 0.024569243 0.04865508 -0.08433707 0.06974956
-0.09840572 -0.021590972 0.04497909 -0.089527726 -0.07600977 0.058312472 0.09881325 -0.09614905
-0.016473928 -0.0671561 -0.085018955 0.028091641 -0.06769496 0.007110079 -0.07793601 0.02560074
0.08854196 0.020009672 -0.042177077 0.06757039 -0.08100412 -0.03412003 0.021279568 0.026143018
0.08261242 -0.026482182 -0.09621827 -0.008137204 -0.057856623 -0.044425208 -0.03676792 -0.0054055173
0.019227024 -0.020361815 -0.009359947 0.016487041 0.06351057 0.05913397 -0.017731851 -0.036097404
0.056972574 -0.08208008 0.048827764 -0.060791027 -0.06814339 -0.01961704 0.0012392667 0.02387522
0.048763435 0.020995565 -0.065035716 0.055540178 -0.002040386 -0.07451642 0.01276694 0.010142185
0.03829231 -0.027246937 0.031863637 -0.012329686 -0.05317664 0.06610647 0.0604901 0.054726455
-0.002450966 0.013032907 0.080565855 -0.07765768 0.09701874 0.021884138 -0.035856977 -0.01957004
-0.055670068 -0.07184955 -0.000951716 -0.08972274 0.07934023 0.042789053 0.044648644 -0.07295848
-0.077770226 -0.09718375 -0.07805841 0.082679495 0.018591912 -0.07798525 -0.07733312 0.055397943
0.07735826 0.0011697413 -0.03405008 -0.09481821 0.08148281 -0.07494854 0.04131828 0.09766002
-0.0831562 -0.021718236 -0.08259092 -0.037032567 0.014226561 0.023086598 -0.05208665 0.08388162
0.086386405 0.055223938 0.09763647 -0.04300071 -0.0995291 0.025760133 -0.026310975 0.03948277
0.060936816 0.10044205 -0.0885338 0.04974319 0.076672934 -0.070405535 -0.08332786 0.064949885
0.009508169 0.042516075 0.025652608 -0.056488514 0.09103008 0.027264917 -0.08273286 -0.0009759166
0.062061075 -0.09807576 -0.079153664 0.064899966 0.03976964 -0.04301059 -0.027928384 -0.014273037
0.052619424 0.02315237 0.09161842 -0.07094788 0.028418599 0.088535145 -0.040475152 0.083861135
0.033597574 -0.04072543 -0.0031601961 -0.07598357 0.0018345275 -0.09198393 -0.03111663 -0.093701415
0.035884384 -0.050121415 -0.081339 -0.08987694 0.06368836 0.05084396 0.0707003 0.018846886
0.051537484 0.0060752924 0.0145364925 0.09595217 -0.016041042 -0.02862712 0.039063822 -0.022539537
-0.07406823 0.031393137 0.08103033 0.042356517 0.100620285 0.028416442 0.033405848 0.09499385
-0.05023611 -0.026613262 0.08763912 0.08655711 -0.08171719 0.06951714 0.079003334 0.032100745
-0.04146283 -0.070725776 0.007881586 0.039451253 -0.07372073 -0.00703118 0.069183886 -0.09883412
-0.09643976 -0.023255873 0.026164401 -0.0025464415 -0.098156095 -0.061134756 -0.058865666 0.092534184
-0.058436383 0.026171708 0.02069248 -0.012158835 0.053168178 0.09147755 -0.03018787 0.015953004
-0.08801456 -0.03594923 0.026386512 0.055197634 -0.022464503 -0.09528953 0.07630427 0.065710805
-0.03511534 -0.018001271 0.044437874 -0.075833276 0.007250834 -0.027930593 -0.05269579 -0.07062781
0.009763992 -0.03194697 0.0565585 0.08564835 0.006694877 0.026194131 0.07788612 0.051563658
-0.009857798 0.04502937 0.046278585 -0.005502045 0.00841918 -0.08547031 0.07010003 0.004423201
-0.08472265 0.019396378 0.031847358 -0.088194005 0.0732749 -0.019905234 -0.024848748 -0.06598859
00000000: 2a9c 303d 8fbd c73c 0095 643d f989 8b3c
00000010: 7045 c93c 8d4a 473d eab8 acbd dbd8 8e3d
00000020: f088 c9bd 8ddf b0bc ff3b 383d 505a b7bd
00000030: 03ab 9bbd 0fd9 6e3d 9a5e ca3d cbe9 c4bd
00000040: 55f4 86bc 2389 89bd 6b1e aebd 7120 e63c
00000050: a8a3 8abd aafb e83b ea9c 9fbd a5b8 d13c
00000060: 7d55 b53d 53eb a33c dfc1 2cbd 5862 8a3d
00000070: 7de5 a5bd 72c1 0bbd 7d52 ae3c e229 d63c
00000080: b330 a93d 29f1 d8bc 160e c5bd e851 05bc
00000090: 11fb 6cbd 35f7 35bd f599 16bd c420 b1bb
000000a0: fe81 9d3c d2cd a6bc 775a 19bc d50f 873c
000000b0: d411 823d 7636 723d 6342 91bc dfda 13bd
000000c0: 135c 693d 9a19 a8bd 9fff 473d 0300 79bd
000000d0: c38e 8bbd eab3 a0bc e46e a23a f795 c33c
000000e0: 2bbc 473d e4fe ab3c 7231 85bd 197e 633d
000000f0: ffb7 05bb 119c 98bd 6d2c 513c 682b 263c
00000100: 66d8 1c3d f834 dfbc 7283 023d 7402 4abc
00000110: c0cf 59bd d462 873d 78c4 773d d928 603d
00000120: 63a0 20bb f987 553c b6ff a43d fd0a 9fbd
00000130: c3b1 c63d 5d46 b33c c4de 12bd 5951 a0bc
00000140: 4c06 64bd db25 93bd 947c 79ba 8ec0 b7bd
00000150: 217d a23d 9343 2f3d 7fe1 363d 416b 95bd
00000160: ff45 9fbd 4608 c7bd 16dd 9fbd de53 a93d
00000170: 114e 983c bbb6 9fbd d460 9ebd f4e8 623d
00000180: 026e 9e3d 0152 993a 1978 0bbd 0d30 c2bd
00000190: 76e0 a63d 9f7e 99bd 5b3d 293d fa01 c83d
000001a0: cc4d aabd 71ea b1bc 6e25 a9bd 76af 17bd
000001b0: 8616 693c 1b20 bd3c d058 55bd 20ca ab3d
000001c0: 5beb b03d 7f32 623d a1f5 c73d 8321 30bd
000001d0: ead5 cbbd ea06 d33c 1d8a d7bc afb8 213d
000001e0: e298 793d 90b4 cd3d 3551 b5bd 84bf 4b3d
000001f0: b306 9d3d c730 90bd cca7 aabd 7204 853d
00000200: 27c8 1b3c 5625 2e3d 6b25 d23c 8060 67bd
00000210: fb6d ba3d ad5a df3c d96f a9bd a8d4 7fba
00000220: c133 7e3d f2db c8bd 511b a2bd 46ea 843d
00000230: 7de5 223d df2b 30bd 11ca e4bc 75d9 69bc
00000240: 7787 573d 0aaa bd3c 70a2 bb3d 1f4d 91bd
00000250: 1fce e83c ea51 b53d 46c9 25bd 63bf ab3d
00000260: 9c9d 093d b5cf 26bd 4b1b 4fbb 469d 9bbd
00000270: 8774 f03a 1262 bcbd 4ee8 febc 87e6 bfbd
00000280: 81fb 123d 1d4c 4dbd 1095 a6bd 6711 b8bd
00000290: 0b6f 823d c241 503d 52cb 903d c964 9a3c
000002a0: f818 533d 3f13 c73b 782a 6e3c 9282 c43d
000002b0: 8168 83bc 6c83 eabc 6301 203d d6a4 b8bc
000002c0: 16b1 97bd 1796 003d 3bf3 a53d 077e 2d3d
000002d0: 0212 ce3d 99c9 e83c 92d4 083d 238c c23d
000002e0: 61c4 4dbd 0e04 dabc 247c b33d db44 b13d
000002f0: 585b a7bd 015f 8e3d 80cc a13d 127c 033d
00000300: eed4 29bd add8 90bd c521 013c a397 213d
00000310: e5fa 96bd d065 e6bb 48b0 8d3d 8b69 cabd
00000320: 3582 c5bd 1a83 bebc ba56 d63c 33e2 26bb
00000330: 1006 c9bd 7068 7abd 201d 71bd 9082 bd3d
00000340: fd5a 6fbd 0d66 d63c 4783 a93c da35 47bc
00000350: e0c6 593d 9558 bb3d 8d4c f7bc e0af 823c
00000360: fa40 b4bd 803f 13bd 8728 d83c ea16 623d
00000370: 7a07 b8bc 2827 c3bd 6a45 9c3d 6393 863d
00000380: 1ad5 0fbd 6777 93bc 7d04 363d 7a4e 9bbd
00000390: 6798 ed3b b3ce e4bc 8ad7 57bd 50a5 90bd
000003a0: 27f9 1f3c d3da 02bd e3a9 673d 6768 af3d
000003b0: b360 db3b 1395 d63c c282 9f3d 6a34 533d
000003c0: 9a82 21bc b770 383d 9d8e 3d3d 804a b4bb
000003d0: 9af0 093c 0f0b afbd 9b90 8f3d 80f0 903b
000003e0: 1283 adbd 27e5 9e3c 6072 023d 0f9f b4bd
000003f0: 2711 963d 4d10 a3bc 9a8f cbbc 0725 87bd

fc_out1.bias f4 [50]
-9.4310875e-05 0.048996937 -0.07997179 0.024909664 0.03913815 -0.0019918203 0.0774189 0.044508066
0.07336541 0.037734244 -0.057322886 0.04637185 -0.0071976422 0.03340573 -0.082214236 -0.018566549
0.008291471 -0.06288775 -0.0018329219 0.0782661 -0.020625908 0.013859784 -0.0058383583 -0.03214591
0.023450222 0.06590429 0.06508577 0.09634999 0.0042886315 -0.025672052 -0.023411132 0.025993763
0.07227956 -0.057363905 -0.065228425 -0.033943772 -0.021592567 0.08583105 -0.06011026 -0.033364393
-0.066736534 0.04186054 0.087117255 0.007699435 -0.085407875 -0.08925476 -0.0020356507 -0.05790708
0.07076374 0.089344196
00000000: c4c8 c5b8 03b1 483d 40c8 a3bd 5a0f cc3c
00000010: 534f 203d 3389 02bb cd8d 9e3d 174e 363d
00000020: 9b40 963d 398f 1a3d 67cb 6abd 69f0 3d3d
00000030: 33da ebbb 72d4 083d f05f a8bd e018 98bc
00000040: f3d8 073c 4bcb 80bd a73e f0ba fa49 a03d
00000050: aaf7 a8bc 2614 633c b34f bfbb 6eab 03bd
00000060: ae1a c03c d4f8 863d b04b 853d 2553 c53d
00000070: a687 8c3b 324e d2bc b4c8 bfbc dff0 d43c
00000080: 4e07 943d 6af6 6abd 7b96 85bd a008 0bbd
00000090: e5e2 b0bc 31c8 af3d 2d36 76bd 1aa9 08bd
000000a0: 2aad 88bd f575 2b3d 886a b23d 8b4b fc3b
000000b0: 53ea aebd 33cb b6bd 8d68 05bb f92f 6dbd
000000c0: 94ec 903d 17fa b63d

fc_out.weight f4 [2, 50]
0.0013279179 -0.14121169 -0.066002406 0.08269453 -0.009964183 0.0003714992 -0.032063097 0.14117292
0.1231986 -0.007599446 0.10712713 -0.12089878 0.066951364 0.0066240816 -0.07758338 0.0637786
-0.13984089 0.028537933 -0.124177404 -0.0187801 -0.0673577 -0.010331089 -0.13782263 0.00991892
0.06667557 -0.09680659 -0.13893446 -0.09156423 -0.12984338 -0.12717682 0.1361689 -0.079434015
0.036766343 -0.11615593 -0.030242119 -0.08128959 -0.09972532 0.07838928 -0.11543004 0.029232988
-0.070744835 0.08312195 0.01956155 0.047059286 0.13225652 -0.0668959 -0.01299057 -0.1394918
0.0054184883 0.11161539 0.057538107 0.1243842 0.043011416 0.05074323 -0.022377986 0.079173125
0.11797966 0.009631904 0.10081355 -0.13923316 -0.13870737 0.013180659 0.037925843 0.07515301
-0.004618351 0.046350222 0.09550714 0.048248008 -0.11696168 0.115621455 -0.059432086 -0.10693106
-0.10919561 0.13362743 -0.017824186 -0.13756943 0.081973165 -0.096412435 0.10112484 -0.035591207
-0.103618376 -0.020650249 -0.009645152 -0.012977993 -0.086798474 -0.044784468 0.09407451 -0.1005553
-0.06549551 -0.1167668 -0.018048456 -0.018671468 0.042351473 -0.053333193 0.049919892 0.1141657
-0.01119361 0.07956769 0.11186067 -0.09480207
00000000: 880d ae3a cc99 10be 452c 87bd c05b a93d
00000010: d040 23bc c7c5 c239 9854 03bd a28f 103e
00000020: 8c4f fc3d c604 f9bb 7865 db3d c899 f7bd
00000030: cc1d 893d d30e d93b 09e4 9ebd 5b9e 823d
00000040: 7332 0fbe 62c8 e93c b950 febd b9d8 99bc
00000050: d5f2 89bd ba43 29bc 6021 0dbe f782 223c
00000060: 348d 883d 8942 c6bd d644 0ebe 0786 bbbd
00000070: aaf5 04be a43a 02be dc6f 0b3e 4dae a2bd
00000080: 4e98 163d 29e3 edbd 52be f7bc 287b a6bd
00000090: ca3c ccbd 8f8a a03d 9666 ecbd 057a ef3c
000000a0: abe2 90bd d73b aa3d 8b3f a03c 3dc1 403d
000000b0: 416e 073e b800 89bd 66d6 54bc f0d6 0ebe
000000c0: 938d b13b 9c96 e43d 14ad 6b3d 25bd fe3d
000000d0: bd2c 303d 22d8 4f3d 0a52 b7bc 8525 a23d
000000e0: 529f f13d 22cf 1d3c 5677 ce3d 2393 0ebe
000000f0: 4e09 0ebe b1f3 573c 2158 1b3d d2e9 993d
00000100: 8955 97bb bbd9 3d3d 3f99 c33d b49f 453d
00000110: 9b89 efbd f1ca ec3d 0f6f 73bd acfe dabd
00000120: f3a1 dfbd a1d5 083e 0704 92bc 00df 0cbe
00000130: 8ce1 a73d e273 c5bd 8a1a cf3d 16c8 11bd
00000140: df35 d4bd b62a a9bc b306 1ebc a6a1 54bc
00000150: 66c3 b1bd eb6f 37bd 23aa c03d f0ef cdbd
00000160: 8322 86bd 6f23 efbd 5bda 93bc e8f4 98bc
00000170: bd78 2d3d e873 5abd cd78 4c3d b5cf e93d
00000180: 6765 37bc 63f4 a23d 3517 e53d 9627 c2bd

fc_out.bias f4 [2]
-0.0867672 -0.12540615
00000000: 00b3 b1bd 786a 00be

exp_avg f4 [300, 2]
-3.66046e-05 -3.089327e-05 3.7494545e-05 2.8918044e-05 -9.138618e-06 1.1341623e-05 -3.297559e-05 -3.8950016e-05
0.0001300939 0.00012584784 3.523845e-05 8.7492035e-06 9.5030366e-05 8.8466244e-05 9.0820926e-05 7.001009e-05
2.3329416e-05 1.2404808e-05 3.2354565e-05 4.0254545e-05 2.5415398e-05 2.3984965e-05 2.0988675e-05 2.2237671e-05
7.906633e-06 1.0479268e-05 -0.0001453734 -0.00015884437 1.27843105e-05 1.2964316e-05 2.1598823e-06 -4.036934e-05
-0.00010449748 -0.0001420356 0.00027388934 0.0002827244 -0.0005877828 -0.0005465166 -1.5885451e-05 -2.220467e-05
-9.092013e-06 3.292352e-07 -3.7080623e-05 -4.51721e-05 0.000108573004 0.000110851724 3.740368e-05 3.9772185e-05
0.00013440548 0.000121890786 3.500264e-06 3.1527286e-06 4.8475016e-05 6.034152e-05 4.6861227e-05 4.8045913e-05
-0.00016720218 -0.00015922346 -6.8334986e-05 -7.158988e-05 0.00019167128 0.0001957547 1.4634882e-05 9.925077e-06
0.00019032555 0.00014579133 -2.6455507e-06 -9.479287e-06 -7.462583e-05 -4.030206e-05 -0.00014422715 -0.00014393691
-3.5016947e-05 -3.4124914e-05 6.788351e-05 8.077295e-05 -3.1261796e-05 -3.1061976e-05 -3.406746e-05 -2.853573e-05
-5.0802828e-05 -5.0892966e-05 -0.00023981005 -0.00024514977 -0.00020741603 -0.00017847576 7.7623285e-05 7.139451e-05
-0.00017954747 -0.00017300487 1.9201274e-05 2.0772333e-05 0.0001171505 7.323839e-05 4.7864246e-06 4.601105e-06
-3.3709886e-05 -4.2645523e-05 2.601833e-05 2.7022192e-05 5.5514984e-06 -2.4901592e-06 -3.851554e-05 -3.65753e-05
5.17973e-05 5.4244356e-05 3.2245607e-05 2.322368e-05 8.065023e-05 6.904266e-05 8.125183e-06 7.3176143e-06
0.00014067719 0.00013564581 1.0935797e-05 1.1073471e-05 6.518663e-06 1.6894322e-05 -0.00017406567 -0.00015959838
0.0001599205 0.00015573234 9.250621e-05 8.844847e-05 -0.00015979818 -0.00016837106 0.0001126427 0.00010256217
-3.1531898e-05 -3.6501122e-05 3.6929912e-05 4.513628e-05 -3.3147662e-05 -4.742195e-05 0.00014848939 0.0001419295
2.0539166e-05 6.9398575e-06 3.526796e-05 5.093469e-05 3.928367e-05 2.3731607e-05 1.4222008e-05 1.6412734e-05
3.4058314e-06 1.7883069e-05 -0.00012800879 -0.00015363866 -0.0004656027 -0.0004651281 4.6483783e-05 3.6322144e-05
7.4083735e-05 7.077572e-05 -0.0003561338 -0.00034236175 0.000107022686 7.239145e-05 5.681943e-06 6.6054404e-06
7.5893215e-05 8.800496e-05 4.6877805e-05 4.3304823e-05 -1.3360157e-05 -1.7032013e-05 3.945988e-05 4.1297335e-05
1.4396452e-06 6.825911e-07 5.9928825e-05 4.0356554e-05 5.1743653e-05 3.8862352e-05 -3.3704007e-05 -3.905584e-05
5.2871175e-05 2.8682984e-05 1.5704756e-05 7.5215576e-06 -0.00019289482 -0.00019879805 3.4912424e-05 3.7840597e-05
9.299939e-06 6.0097964e-06 0.00013221981 0.00010588543 4.605876e-05 5.198135e-05 -5.1277366e-05 -2.2538308e-05
-5.7062643e-06 -1.7291832e-05 -3.823643e-05 -7.5498545e-05 8.481854e-05 6.741225e-05 -4.194934e-05 -4.6353347e-05
-1.1175212e-06 -4.540659e-07 1.8202186e-07 2.9544086e-07 -2.4737096e-06 -4.9978985e-06 -6.4474557e-07 -4.7548627e-07
-5.50414e-06 -4.7588333e-06 -1.6814704e-06 -9.061912e-07 -6.4803867e-06 -6.041587e-06 -6.9289587e-07 -1.1996175e-06
9.636027e-07 1.4181037e-06 -4.3523974e-06 -2.6364087e-06 2.2433142e-06 2.497204e-06 -1.03914786e-07 2.905291e-07
-1.7948009e-06 -1.5639008e-06 8.3277055e-06 9.4030465e-06 -1.29277e-06 -3.717571e-07 5.7036145e-06 6.15267e-06
8.095092e-06 9.595923e-06 -1.1856527e-05 -1.1662178e-05 3.568207e-05 3.2741573e-05 6.289051e-07 1.6857855e-06
-4.41237e-06 -4.878057e-06 3.0518368e-06 4.17258e-06 -2.6301113e-06 -2.8301904e-06 -3.4987868e-06 -4.0351924e-06
-9.1792235e-06 -8.247807e-06 -3.3278706e-08 -4.6278458e-07 -5.6808867e-06 -6.0242205e-06 3.765835e-06 3.439793e-06
00000000: e487 19b8 6593 01b8 7643 1d38 0795 f237
00000010: 1152 19b7 e647 3e37 454f 0ab8 435e 23b8
00000020: d169 0839 06f6 0339 ffcc 1338 8bc9 1237
00000030: 0a4b c738 f486 b938 1d77 be38 62d2 9238
00000040: 8ab3 c337 3f1e 5037 73b4 0738 fdd6 2838
00000050: 2733 d537 5233 c937 d610 b037 098b ba37
00000060: bba6 0437 1dd0 2f37 606f 18b9 768f 26b9
00000070: 327c 5637 5081 5937 7ff2 1036 4052 29b8
00000080: a825 dbb8 64ef 14b9 ce98 8f39 a03a 9439
00000090: 7015 1aba 1c44 0fba bf41 85b7 2a44 bab7
000000a0: e689 18b7 bec1 b034 0487 1bb8 2c77 3db8
000000b0: b0b1 e338 1179 e838 e5e1 1c38 0fd1 2638
000000c0: 32ef 0c39 9e9f ff38 14e6 6a36 7793 5336
000000d0: a751 4b38 3717 7d38 dc8c 4438 e884 4938
000000e0: fe52 2fb9 39f5 26b9 114f 8fb8 8622 96b8
000000f0: 5efb 4839 8143 4d39 5788 7537 e283 2637
00000100: 2092 4739 90df 1839 378a 31b6 3a09 1fb7
00000110: 7080 9cb8 020a 29b8 ae3b 17b9 c5ed 16b9
00000120: 29df 12b8 5921 0fb8 af5c 8e38 a664 a938
00000130: 191f 03b8 8b48 02b8 a8e3 0eb8 0360 efb7
00000140: 1f15 55b8 e875 55b8 8575 7bb9 7287 80b9
00000150: d17d 59b9 3925 3bb9 afc9 a238 a3b9 9538
00000160: e844 3cb9 a468 35b9 6c12 a137 3f40 ae37
00000170: b2ae f538 9097 9938 139b a036 3163 9a36
00000180: b763 0db8 48de 32b8 f041 da37 b7ad e237
00000190: 0247 ba36 9c1c 27b6 bf8b 21b8 6e68 19b8
000001a0: ed40 5938 6f84 6338 753f 0738 79d0 c237
000001b0: c322 a938 ffca 9038 6551 0837 d489 f536
000001c0: bf82 1339 253c 0e39 e478 3737 32c8 3937
000001d0: e4ba da36 48b8 8d37 6685 36b9 dd59 27b9
000001e0: 55b0 2739 154c 2339 e5ff c138 697d b938
000001f0: 7f8f 27b9 c38c 30b9 973a ec38 a516 d738
00000200: 1e41 04b8 c818 19b8 31e5 1a38 b650 3d38
00000210: 0808 0bb8 eee6 46b8 d1b3 1b39 e9d2 1439
00000220: 864b ac37 ecdc e836 afec 1338 b5a2 5538
00000230: 85c4 2438 3d13 c737 0f9b 6e37 14ae 8937
00000240: bd8f 6436 9903 9637 193a 06b9 101a 21b9
00000250: 231c f4b9 70dc f3b9 95f7 4238 9b58 1838
00000260: 675d 9b38 6d6d 9438 78b7 bab9 047f b3b9
00000270: 5e71 e038 ddd0 9738 85a7 be36 4da4 dd36
00000280: dc28 9f38 4e8f b838 a99e 4438 33a2 3538
00000290: 7025 60b7 f8df 8eb7 b981 2538 ad36 2d38
000002a0: d539 c135 4e3b 3735 165c 7b38 8544 2938
000002b0: 5307 5938 2200 2338 675d 0db8 e4cf 23b8
000002c0: fec1 5d38 3d9c f037 b5bd 8337 b061 fc36
000002d0: cf43 4ab9 7274 50b9 ee6e 1238 08b7 1e38
000002e0: ef06 1c37 c2a7 c936 7ca4 0a39 cf0e de38
000002f0: 382f 4138 8d06 5a38 a712 57b8 a610 bdb7
00000300: 7078 bfb6 ed0d 91b7 0e60 20b8 f954 9eb8
00000310: 9be0 b138 ad5f 8d38 c3f2 2fb8 876b 42b8
00000320: bcfd 95b5 58c6 f3b4 ca71 4334 159d 9e34
00000330: 0202 26b6 9fb3 a7b6 9412 2db5 5646 ffb4
00000340: 34b0 b8b6 11ae 9fb6 e2ae e1b5 fc40 73b5
00000350: 1972 d9b6 d6b8 cab6 71ff 39b5 8b02 a1b5
00000360: 2355 8135 ac55 be35 cf0a 92b6 28ed 30b6
00000370: d88b 1636 a395 2736 c227 dfb3 04fa 9b34
00000380: e4e4 f0b5 39e7 d1b5 39b7 0b37 c7c1 1d37
00000390: 3d83 adb5 e895 c7b4 ad61 bf36 0873 ce36
000003a0: 28d0 0737 2dfe 2037 65eb 46b7 aca8 43b7
000003b0: 55a9 1538 ff53 0938 08d2 2835 2643 e235
000003c0: f80d 94b6 31ae a3b6 28ce 4c36 3002 8c36
000003d0: f880 30b6 4dee 3db6 b3cc 6ab6 0a66 87b6
000003e0: 7700 1ab7 1060 0ab7 53ee 0eb3 a174 f8b4
000003f0: 729e beb6 a923 cab6 8db8 7c36 32d7 6636

exp_avg_sq f4 [300, 2]
3.344915e-11 2.4369017e-11 3.948329e-11 2.4740947e-11 2.2614952e-12 2.8548327e-12 3.5140356e-11 4.6573884e-11
3.8054065e-10 3.5646924e-10 2.7845856e-11 1.6642703e-12 2.013352e-10 1.7426385e-10 1.8294134e-10 1.0791355e-10
1.2343113e-11 4.2927775e-12 2.8293532e-11 4.1737364e-11 1.4703924e-11 1.3005746e-11 1.07323326e-11 1.1865462e-11
1.5565182e-12 2.4880644e-12 5.3840743e-10 6.406805e-10 3.563027e-12 3.647941e-12 1.8576239e-13 3.7985653e-11
2.6912608e-10 4.954578e-10 1.7146804e-09 1.8233746e-09 8.223614e-09 7.1003132e-09 1.1922627e-11 1.8400722e-11
5.4335815e-12 2.6254277e-12 3.596167e-11 5.245864e-11 2.6267433e-10 2.745338e-10 3.1930292e-11 3.653498e-11
4.065444e-10 3.332514e-10 3.5998139e-13 3.6932097e-13 5.2385363e-11 8.078504e-11 5.0223988e-11 5.2665327e-11
7.40068e-10 6.7409306e-10 1.1345779e-10 1.2490226e-10 8.3506607e-10 8.704694e-10 4.7480015e-12 2.345832e-12
8.1572166e-10 4.7576193e-10 1.633172e-13 2.0745632e-12 1.3264476e-10 3.8031574e-11 4.9988397e-10 4.9901727e-10
3.7808378e-11 3.5754327e-11 9.953388e-11 1.4093231e-10 2.2889458e-11 2.25598e-11 2.8800955e-11 2.0316377e-11
5.7982e-11 5.826988e-11 1.3886566e-09 1.448709e-09 1.0608782e-09 7.869744e-10 1.3513689e-10 1.1418784e-10
7.915051e-10 7.3038947e-10 8.159153e-12 9.505435e-12 3.1430716e-10 1.2198448e-10 5.6220366e-13 5.299285e-13
3.0863125e-11 4.603275e-11 1.5937156e-11 1.7361971e-11 7.1431717e-13 1.4959861e-13 3.5813647e-11 3.2333417e-11
5.828383e-11 6.396183e-11 2.2574673e-11 1.1842659e-11 1.442293e-10 1.0507079e-10 1.4315181e-12 1.1963694e-12
4.4215334e-10 4.1072054e-10 2.9164416e-12 3.019724e-12 1.1921541e-12 6.8993726e-12 7.32176e-10 6.189248e-10
5.8675487e-10 5.559693e-10 1.88757e-10 1.7312311e-10 6.115809e-10 6.8124206e-10 2.9684014e-10 2.4651364e-10
2.5003229e-11 3.33688e-11 3.259926e-11 4.8911958e-11 2.8035527e-11 5.552013e-11 5.032258e-10 4.6020246e-10
1.3474199e-11 2.855099e-12 3.2796085e-11 6.298257e-11 3.4855424e-11 1.561173e-11 4.5374906e-12 6.1476956e-12
3.2717367e-13 7.003226e-12 4.1322681e-10 5.873994e-10 5.314394e-09 5.316538e-09 4.97743e-11 3.039766e-11
1.2299958e-10 1.120344e-10 2.9933611e-09 2.7623484e-09 2.599683e-10 1.1746948e-10 1.010757e-12 1.3287158e-12
1.2990009e-10 1.7511091e-10 5.2932447e-11 4.6025028e-11 5.926669e-12 8.762613e-12 3.6249767e-11 3.9663085e-11
5.3494166e-14 1.2105155e-14 7.9881005e-11 3.5471744e-11 6.0067194e-11 3.376973e-11 2.5594464e-11 3.461442e-11
6.6382594e-11 1.9600476e-11 5.3274564e-12 1.2506749e-12 9.2640584e-10 9.918675e-10 2.7002593e-11 3.2006623e-11
1.8723387e-12 8.126949e-13 3.884888e-10 2.4904154e-10 4.7170982e-11 5.994885e-11 5.753931e-11 1.1305271e-11
7.567728e-13 7.14773e-12 3.5966872e-11 1.3704206e-10 1.6860557e-10 1.0748072e-10 3.9963484e-11 4.884215e-11
2.7173796e-14 4.495176e-15 7.566279e-16 1.9869536e-15 1.3431906e-13 5.619223e-13 7.425367e-14 8.218465e-14
6.6793825e-13 4.9714405e-13 6.1725615e-14 2.1396259e-14 9.312766e-13 8.0705657e-13 1.4580839e-14 3.259272e-14
2.0203372e-14 4.4426116e-14 4.2227766e-13 1.5267841e-13 1.1783394e-13 1.4745804e-13 5.3011663e-16 1.9696093e-15
6.9979904e-14 5.3002545e-14 1.8953279e-12 2.3790152e-12 3.67218e-14 4.8819887e-15 7.9933423e-13 9.331614e-13
1.7617838e-12 2.4238931e-12 3.0847547e-12 2.9791525e-12 3.020816e-11 2.5411938e-11 8.0235826e-14 1.5994091e-13
4.2448605e-13 5.2039617e-13 2.679754e-13 4.75057e-13 1.5136488e-13 1.757056e-13 2.8740384e-13 3.8412201e-13
1.854183e-12 1.4937508e-12 7.8723666e-15 9.781822e-15 7.2214934e-13 8.1106796e-13 3.5980352e-13 2.9785479e-13
00000000: 651c 132e 265a d62d 3ca6 2d2e a99f d92d
00000010: 7a23 1f2c 18e4 482c 868c 1a2e 88d5 4c2e
00000020: 5634 d12f 96f8 c32f 4bef f42d a839 ea2b
00000030: d25e 5d2f ea9a 3f2f 6925 492f ee4d ed2e
00000040: 7024 592d e709 972c 5fdf f82d 1890 372e
00000050: 4b56 812d accc 642d 21ce 3c2d 4abd 502d
00000060: 7a0f db2b fc14 2f2c 0eff 1330 e21b 3030
00000070: cab9 7a2c bb59 802c 5d26 512a 0b10 272e
00000080: 21f4 932f be30 0830 f4a9 eb30 4a9a fa30
00000090: d647 0d32 04f7 f331 bdbe 512d beda a12d
000000a0: 5a2d bf2c 80bf 382c 3e29 1e2e 2eb7 662e
000000b0: 2068 902f 33ed 962f 506e 0c2e bbae 202e
000000c0: 0a80 df2f f734 b72f c9a6 ca2a c3e8 cf2a
000000d0: ad64 662e efa5 b12e 2fe3 5c2e e39f 672e
000000e0: a86d 4b30 154b 3930 0f7f f92e dc54 092f
000000f0: 8d8a 6530 d745 6f30 320e a72c c112 252c
00000100: 4f39 6030 c5c6 0230 fae0 372a 02fc 112c
00000110: 2ed8 112f bf43 272e 3568 0930 382b 0930
00000120: 7348 262e cb3f 1d2e 98e0 da2e ebf4 1a2f
00000130: 7a56 c92d 2770 c62d fc55 fd2d 6ab4 b22d
00000140: ee01 7f2e 0723 802e 03db be30 eb1b c730
00000150: 55ce 9130 6652 5830 a795 142f 0a1a fb2e
00000160: 3891 5930 97c4 4830 8f89 0f2d ac38 272d
00000170: cdca ac2f 941f 062f 0b3f 1e2b 5f29 152b
00000180: cabc 072e 4574 4a2e 492f 8c2d afb7 982d
00000190: fa0f 492b dd6e 282a 9582 1d2e 3134 0e2e
000001a0: e12a 802e 4fa7 8c2e a591 c62d 9856 502d
000001b0: f094 1e2f 990d e72e e077 c92b c05f a82b
000001c0: 8d13 f32f c7cb e12f f139 4d2c 837e 542c
000001d0: e1c7 a72b 06c0 f22c 4e42 4930 f620 2a30
000001e0: 3449 2130 ddd2 1830 5f8a 4f2f d359 3e2f
000001f0: 2e1c 2830 2642 3b30 8930 a32f b685 872f
00000200: 44ee db2d eec1 122e 815f 0f2e f81d 572e
00000210: 659a f62d 1c2e 742e 5e53 0a30 bdff fc2f
00000220: 660a 6d2d e4e8 482c 1c3d 102e 0980 8a2e
00000230: b84b 192e 7e52 892d 15a6 9f2c 854d d82c
00000240: b22e b82a 7467 f62c 812c e32f 8f76 2130
00000250: e799 b631 c3ac b631 e1e8 5a2e b9b0 052e
00000260: 4e3d 072f c35d f62e c4b3 4d31 bfd3 3d31
00000270: 49eb 8e2f b828 012f 5c40 8e2b 0800 bb2b
00000280: a0d3 0e2f 5789 402f a3cc 682e 936b 4a2e
00000290: b086 d02c 4d27 1a2d 9c6d 1f2e aa70 2e2e
000002a0: 93ea 7029 2d11 5a28 02a9 af2e a201 1c2e
000002b0: d316 842e 5685 142e 9c21 e12d 5f3c 182e
000002c0: 14fa 912e 5968 ac2d 7671 bb2c 5004 b02b
000002d0: 04a6 7e30 3c52 8830 6f84 ed2d 41c4 0c2e
000002e0: 0ec1 032c d7c0 642b f092 d52f 7be9 882f
000002f0: ce75 4f2e 34d4 832e 810f 7d2e 6ae2 462d
00000300: 3a03 552b 077d fb2c 192f 1e2e e9ad 162f
00000310: 4062 392f 445a ec2e e2c2 2f2e 5fcf 562e
00000320: 82c2 f428 aef4 a127 4915 5a26 d32c 0f27
00000330: d53a 172a c52a 1e2b 5434 a729 3a10 b929
00000340: 0602 3c2b 01ef 0b2b 65fe 8a29 6ab8 c028
00000350: c710 832b 8e2a 632b 2055 8328 d9c8 1229
00000360: cef9 b528 d313 4829 a0b8 ed2a 8ee6 2b2a
00000370: 52ab 042a e305 262a b4cb 1826 e1ec 0d27
00000380: ab94 9d29 c6b3 6e29 315f 052c 8768 272c
00000390: 5a61 2529 66e4 af27 1afe 602b af54 832b
000003a0: f3f2 f72b fa90 2a2c 0012 592c a4a3 512c
000003b0: 5ddb 042e 9986 df2d ceac b429 d413 342a
000003c0: e3f6 ee2a 7f7a 122b 53db 962a 77b7 052b
000003d0: f56b 2a2a b1d3 452a 42cb a12a d13d d82a
000003e0: fe79 022c 0b3a d22b e2d0 0d28 b136 3028
000003f0: 5844 4b2b 9b4b 642b 278d ca2a 66ad a72a
