test_dagster/mlruns/0/246b9464ec5a4466bc3e1674ddbe0b62/artifacts/prediction_model/data/model.pth (torch, 155663 bytes, 8 tensors)

weight_ih_l0 f4 [300, 2]
0	0x3d8edea8	0.06976062
1	0x3da44e77	0.080227785
2	0x3c6bff27	0.014404095
3	0x3d4f195a	0.050561287
4	0xbdac91f8	-0.08426279
5	0x3c1a068d	0.009400976
6	0x3da0dd10	0.07854664
7	0xbd87980d	-0.06620798
8	0x3dae031b	0.08496686
9	0x3d1a2a13	0.03763778
10	0x3c41ac00	0.011820793
11	0x3cc19293	0.023629462
12	0xbc99ee20	-0.018790305
13	0xbcdbc4b3	-0.026827192
14	0xbd91fe27	-0.07128554
15	0xbd771880	-0.0603261
16	0x3da88765	0.082289495
17	0xbd891908	-0.066942275
18	0xbdb57f28	-0.08862144
19	0x3dbe84b8	0.09302658
20	0x3d424867	0.04743233
21	0xbd237f10	-0.039916098
22	0xbd690b3a	-0.056895472
23	0xbc0c335a	-0.008557165
24	0x3d4fc6ed	0.05072682
25	0xbd46ceaa	-0.048536934
26	0x3c33141a	0.010930086
27	0xbdb40fed	-0.087921
28	0x3cf867ed	0.030322993
29	0x3cbdd200	0.023171425
30	0x3d184a27	0.037180092
31	0x3d99eaca	0.075154856
32	0xbb77aa67	-0.0037790777
33	0xbd11705d	-0.03550755
34	0xbda4590a	-0.08024795
35	0xbb477633	-0.0030435442
36	0x3c5bfa1a	0.013426328
37	0x3d0ac123	0.033875596
38	0xbdac4cc0	-0.084130764
39	0x3caacb00	0.020848751
40	0x3ceb0307	0.028687967
41	0x3dc76c3f	0.09737443
42	0xbc8b646d	-0.01701566
43	0x3d883d6d	0.06652341
44	0x3d95dd77	0.07317632
45	0xbc6b1c73	-0.014350045
46	0xbd00af53	-0.031417202
47	0xbdbd03df	-0.09229254
48	0x3d81ce9a	0.06338234
49	0xbda2ff88	-0.07958895
50	0xbdc40ef2	-0.09573163
51	0xbdc18fdb	-0.094512664
52	0xbcf15c7a	-0.029463042
53	0x3d889b13	0.06670203
54	0xbd97d398	-0.07413405
55	0xbc57eaa7	-0.013178504
56	0xbaa64c67	-0.0012687565
57	0x3939d333	0.00017721653
58	0x3c9baa27	0.019002033
59	0xbc90a3c7	-0.01765622
60	0x3be97833	0.0071249246
61	0xbd5abb07	-0.05340102
62	0x3cf440b3	0.029816007
63	0x3c17e0a7	0.00926987
64	0xbdaed92b	-0.08537515
65	0xbdaf577b	-0.085616075
66	0x3dc0e957	0.09419506
67	0xbc2c20f3	-0.010505903
68	0x3caacd3a	0.020849813
69	0xbd4065e0	-0.046972156
70	0xbdb76a58	-0.0895583
71	0x3dade715	0.08491341
72	0x3d810780	0.06300259
73	0xbd8d037a	-0.06885429
74	0xbdc149c8	-0.09437901
75	0xbc6fae80	-0.014629006
76	0x3d50bbad	0.05096023
77	0x3d604ea3	0.054762494
78	0xbd2556fd	-0.04036616
79	0x3a338ccd	0.0006849289
80	0x3bc30a67	0.005952168
81	0x3b8a5400	0.0042214394
82	0xbd3cad6d	-0.04606383
83	0x3d9892df	0.074498884
84	0xbc02b81a	-0.007978464
85	0x3d629d1a	0.055325605
86	0xbcef39ed	-0.029202426
87	0x3d126a5a	0.035745956
88	0x3d38b62a	0.0450956
89	0x3d89e275	0.067326464
90	0xbc5a738d	-0.0133332135
91	0xbd07e117	-0.033173647
92	0xbca66d9a	-0.020315934
93	0xbb9a741a	-0.0047135474
94	0xbaf7f133	-0.0018916487
95	0xbd072d37	-0.033002105
96	0x3bbd0167	0.0057679894
97	0xbd91b40f	-0.071144216
98	0xbd9af1ff	-0.07565688
99	0x3d8f485f	0.069962256
100	0xbdab9d73	-0.083796404
101	0x3ba6c880	0.0050898194
102	0x3da4a287	0.08038812
103	0x3d86a7a3	0.06574943
104	0x3d7a7293	0.061144423
105	0xbd80b29b	-0.06284066
106	0x3d302faa	0.043014206
107	0xbcf2cf0d	-0.029639745
108	0xbd453733	-0.048148345
109	0x3d23f8aa	0.040032066
110	0x3c4df4a7	0.012570537
111	0xbda674ed	-0.081277706
112	0x3cfcc9e7	0.030857993
113	0x3cd13a40	0.025540471
114	0xbc280ce7	-0.010256982
115	0xbd95f69f	-0.0732243
116	0x3d6ac2da	0.05731473
117	0xbc708f0d	-0.014682543
118	0x3d249d9d	0.040189374
119	0x3d11e120	0.035615087
120	0x3c77b8cd	0.0151197435
121	0xbd028ad7	-0.03187069
122	0x3d3cd0ca	0.046097554
123	0x3d835aad	0.064137794
124	0x3bf6d79a	0.007533026
125	0xbd877533	-0.06614151
126	0x3db0786d	0.086167194
127	0x3d4f232d	0.050570656
128	0x3bb78ee7	0.005601752
129	0xbd41da03	-0.047327053
130	0xbd88e99f	-0.06685185
131	0x3d634697	0.05548724
132	0xbc2e6e40	-0.010646403
133	0x3dbc7c6a	0.092034176
134	0xbc6a62da	-0.014305795
135	0xbd4e8783	-0.050422203
136	0xbd20000a	-0.039062537
137	0xbdb752d8	-0.08951348
138	0x3da63d3a	0.08117147
139	0xbc8e8c47	-0.017400874
140	0xbdc05c9d	-0.093926646
141	0x3d98167a	0.07426162
142	0xbd84662d	-0.06464801
143	0xbdaf9d00	-0.08574867
144	0xbd83ef33	-0.06442108
145	0xbca18540	-0.019716859
146	0x3d087773	0.03331704
147	0x3b829ae7	0.003985751
148	0xbdb463d8	-0.08808106
149	0xbbc6d2e7	-0.006067622
150	0xbd4771ba	-0.048692442
151	0xbcc691fa	-0.024239529
152	0xbd927e22	-0.07152964
153	0x3ca65afa	0.020307053
154	0x3ceb34f3	0.028711772
155	0xbca82367	-0.020524694
156	0x3ca2652d	0.019823635
157	0x3cb424cd	0.021990204
158	0x3da97842	0.082748905
159	0x3d8e88ef	0.06959712
160	0xbd918a6d	-0.07106481
161	0xbdb12925	-0.08650426
162	0x3da0709a	0.07833977
163	0xbdc78d7f	-0.09743785
164	0x3d278b6a	0.04090444
165	0x3d352f53	0.044234585
166	0x3ce4cf4d	0.02793088
167	0x3c4b4cb3	0.012408423
168	0xbd956f50	-0.07296622
169	0xbda7c4d7	-0.08191841
170	0x3db9122a	0.09036668
171	0x3d63e817	0.05564126
172	0xbdc29c1a	-0.0950243
173	0x3d9ad713	0.075605534
174	0xbc996efa	-0.018729676
175	0x3d3fea10	0.04685408
176	0xbcc361fa	-0.02385043
177	0xbdb0f652	-0.08640732
178	0xbd8dfc1a	-0.0693285
179	0xbdbc7cf5	-0.09203521
180	0x3dbfb1d0	0.09360087
181	0xbd5b1c4a	-0.053493775
182	0xbc921173	-0.017830586
183	0x3d1ff0c3	0.039047968
184	0xbd35c17d	-0.044373978
185	0x3cd91773	0.02650044
186	0xbd56a75a	-0.052405693
187	0x3dbb809d	0.091553904
188	0x3d2423a7	0.040073063
189	0xbdba67e0	-0.09101844
190	0xbd96f102	-0.07370187
191	0xbd0b68ad	-0.034035373
192	0x3c6fb80d	0.0146312835
193	0x3d754833	0.059883308
194	0xbdc6a218	-0.09698886
195	0x3b99511a	0.0046788575
196	0xbd8fb038	-0.07016033
197	0x3daa08f8	0.08302492
198	0xbd7f8d07	-0.062390354
199	0x3d848693	0.064709805
200	0xbd1d50c0	-0.038407087
201	0xbd4127e3	-0.04715718
202	0xbd1b7d13	-0.037961077
203	0x3d88161f	0.06644844
204	0x3bd0a6cd	0.0063675405
205	0x3d229cfa	0.039700486
206	0xbc5feab3	-0.0136667965
207	0x3cdc488d	0.026890064
208	0x3d23ca30	0.039987743
209	0x3db6d39f	0.08927082
210	0x3dac7467	0.084206395
211	0x3dade940	0.084917545
212	0x3b3bae33	0.0028637766
213	0xbd712747	-0.05887535
214	0x3d6300da	0.055420734
215	0xbd3cac43	-0.04606272
216	0xbdb8cab2	-0.09023036
217	0xbd03d7f0	-0.032188356
218	0xbd7d67b7	-0.06186649
219	0x3d4617ad	0.048362423
220	0xbd11f80d	-0.03563695
221	0xbbea541a	-0.007151139
222	0x3d437820	0.047721982
223	0xbd3d917d	-0.046281327
224	0xbc9585ed	-0.018252337
225	0x3a0b98cd	0.0005325198
226	0xbdaf14ca	-0.08548887
227	0xbc7d644d	-0.015465808
228	0x3dba801d	0.09106467
229	0x3d3c99d0	0.046045125
230	0xbd246eba	-0.04014466
231	0xbdb6314d	-0.08896122
232	0xbd9bbfa3	-0.07604911
233	0xbcdc3c1a	-0.026884127
234	0x3dbc0303	0.09180262
235	0xbdbf3a03	-0.09337237
236	0xbd587c30	-0.05285281
237	0xbd740867	-0.059578326
238	0x3da21de2	0.07915856
239	0xbd89910d	-0.06717119
240	0x3b78da00	0.0037971735
241	0xbc121c73	-0.008917916
242	0x3d023933	0.03179283
243	0xbd638027	-0.055542137
244	0xbd951b3f	-0.072805874
245	0xbca488a7	-0.020084692
246	0x3d0519e0	0.03249538
247	0xbdc968e2	-0.09834458
248	0x3d95017f	0.07275676
249	0x3dc48f2d	0.09597621
250	0xbda28a12	-0.07936491
251	0x3d5c3faa	0.053771652
252	0xbc2da64d	-0.010598731
253	0xbd326e0d	-0.043561984
254	0x3b58b400	0.0033066273
255	0xbd032867	-0.032020953

weight_hh_l0 f4 [300, 100]
0	0xbdad2ca0	-0.08455777
1	0x3d37c773	0.044867944
2	0x3d861f8a	0.06548984
3	0x3d477caa	0.048702873
4	0xbd8b0a2b	-0.06789049
5	0x3b0fe600	0.002195716
6	0x3dabe9f3	0.08394232
7	0xbd9d72df	-0.076879255
8	0xbca9e860	-0.020740688
9	0xbdcb5245	-0.09927801
10	0xbc330f27	-0.010928906
11	0xbdaeec92	-0.08541216
12	0xbc915787	-0.017741932
13	0x3ce9e95a	0.028553654
14	0x3d13379d	0.03594171
15	0xbdc0d053	-0.09414735
16	0xbccd8ada	-0.025090624
17	0xbcc14c93	-0.023596084
18	0x3bd7999a	0.00657959
19	0xbd074330	-0.03302306
20	0x3d1b921d	0.03798114
21	0xbd94f092	-0.07272448
22	0xbd6b2760	-0.057410598
23	0xbd969d3d	-0.073542096
24	0x3d161ff7	0.036651578
25	0xbd9fd712	-0.07804693
26	0xbd321987	-0.043481376
27	0x3d64a8d0	0.055825055
28	0xbd8161fa	-0.06317516
29	0x3b7a139a	0.0038158656
30	0x3cf1e160	0.029526412
31	0xbdad2ed3	-0.08456197
32	0xbc10abb3	-0.008829999
33	0xbd31272a	-0.04325024
34	0x3d8bf6bf	0.068341725
35	0x3d8b4fd2	0.06802334
36	0xbd9a2340	-0.07526255
37	0x3c38ab5a	0.011271322
38	0x3be2e233	0.0069239377
39	0x3db5654f	0.08857214
40	0x3cba57cd	0.022746945
41	0xbd682653	-0.056677174
42	0x3c4d3a0d	0.012526047
43	0xbd924e60	-0.07143855
44	0xbd5203bd	-0.051273096
45	0x3ccde05a	0.025131393
46	0xbdbf579f	-0.09342884
47	0x3dc51dc3	0.09624817
48	0x3d0735d0	0.033010304
49	0xbc985240	-0.018593907
50	0x3da7cac7	0.081929736
51	0xbd0ef82d	-0.034904648
52	0xbb32d300	-0.002728641
53	0x3db31b90	0.087454915
54	0xbd989b9b	-0.074515544
55	0xbdb90713	-0.090345524
56	0xbdc26300	-0.09491539
57	0x3c72171a	0.014776016
58	0xbd9540f7	-0.07287782
59	0x3d5a449d	0.05328809
60	0xbba01167	-0.004884887
61	0x3d3807fa	0.044929482
62	0x3c97017a	0.018433321
63	0x3cb34880	0.021885157
64	0xbc52d3f3	-0.012867915
65	0x3c8e2b00	0.017354488
66	0xbdbee8ca	-0.09321745
67	0xbda81aa2	-0.08208205
68	0x3d938870	0.07203758
69	0xbc0316cd	-0.008001042
70	0x3d1d260d	0.038366366
71	0xba036c00	-0.00050133467
72	0x3c810040	0.01574719
73	0x3da3d288	0.0799914
74	0xbd51ae00	-0.05119133
75	0xbd328550	-0.043584168
76	0xbc3b5cc0	-0.011435688
77	0xbb712d00	-0.0036800504
78	0xbcc875b3	-0.024470186
79	0xbd272f0a	-0.040816344
80	0xbc726700	-0.014795065
81	0xbd8f3313	-0.069921635
82	0x3d5b1d2d	0.05349462
83	0x3cb91a07	0.022595419
84	0xbc2fe100	-0.0107347965
85	0xbd53d780	-0.05171919
86	0x3d956dab	0.07296308
87	0x3da19d32	0.07891311
88	0x3d989e88	0.074521124
89	0x3d3277fd	0.04357146
90	0x3d2e2f6a	0.042525686
91	0x3d97d530	0.07413709
92	0xbd353c37	-0.04424688
93	0x3d96c0b8	0.07360977
94	0x3cb963a7	0.022630526
95	0xbd892030	-0.066955924
96	0x3ba008cd	0.0048838616
97	0xbd95ebb7	-0.0732035
98	0xbcca629a	-0.02470522
99	0x3d8bc27a	0.06824203
100	0x3da2fe1b	0.07958623
101	0x3c7f1bda	0.015570605
102	0xbc99f733	-0.018794632
103	0xbd22ab7d	-0.039714325
104	0xbdba5e3a	-0.091000035
105	0xbcbf2cd3	-0.023336804
106	0xbb245a67	-0.0025078298
107	0xbd01ad8d	-0.03165965
108	0xbd19f09d	-0.037582982
109	0xbd5807b0	-0.052741706
110	0x3d14e6a0	0.036352754
111	0x3d8b1f6d	0.06793103
112	0x3cd8318d	0.026390815
113	0xbdacfbd0	-0.08446467
114	0x3d904157	0.070437126
115	0x3d4a63b7	0.0494115
116	0xbdaee510	-0.08539784
117	0xbd67532a	-0.056475796
118	0xbd0bc567	-0.034123804
119	0x3d880dca	0.06643255
120	0x3da5d44a	0.080971316
121	0xbdaf13f7	-0.0854873
122	0xbd714f1a	-0.058913328
123	0x3dc97417	0.098365955
124	0x3c3c844d	0.011506152
125	0xbbbfbae7	-0.005851138
126	0x3da8e2f2	0.082464114
127	0xbc437bcd	-0.011931372
128	0x3d40f53d	0.047108877
129	0x3d1c4327	0.03814998
130	0xbda8a84f	-0.08235227
131	0x3d690fc3	0.056899797
132	0xbd84c6cd	-0.06483231
133	0xbc1431f3	-0.009045112
134	0xbd6aac47	-0.057293203
135	0x3dadefc5	0.08492998
136	0xbc2e3cb3	-0.010634589
137	0xbcbe0c07	-0.023199094
138	0xbcf272fa	-0.02959584
139	0x3d5956b3	0.0530612
140	0x3d603e47	0.054746892
141	0xbceae167	-0.028671933
142	0xbcc21fa7	-0.023696734
143	0xbd46474a	-0.04840783
144	0xbd774203	-0.060365688
145	0xbd9b5990	-0.07585442
146	0xbcd9beba	-0.026580203
147	0x3cfdf873	0.031002259
148	0xbd968157	-0.07348888
149	0xbd68eca3	-0.0568663
150	0xbcb49680	-0.02204442
151	0xbd772c9a	-0.06034527
152	0x3c999240	0.018746495
153	0xbd48280a	-0.04886631
154	0x3d2a4023	0.04156507
155	0xbc6356cd	-0.013875675
156	0xbda02923	-0.07820346
157	0x3d1434ca	0.036183156
158	0x3c631bcd	0.013861609
159	0x3d928132	0.07153548
160	0xbd05910d	-0.032609034
161	0x3d5bc0f7	0.053650822
162	0x3d183737	0.037162032
163	0x3d59cc27	0.05317321
164	0x3d5e9b87	0.05434754
165	0x3db9f5db	0.09080096
166	0xbccd118d	-0.025032783
167	0x3db5e2a0	0.08881116
168	0x3cfb5d93	0.030684268
169	0xbd571d37	-0.052518096
170	0x3db94933	0.09047165
171	0x3da58735	0.08082429
172	0xbc14568d	-0.009053838
173	0xbd3c269d	-0.045935262
174	0xbdc1ac55	-0.09456698
175	0xbd374d63	-0.044751536
176	0x3da46e37	0.08028834
177	0xbdb58f72	-0.08865251
178	0xbd4d7cc7	-0.050167825
179	0x3b7dab67	0.00387069
180	0x3c554c00	0.013018608
181	0x3d3d2a0d	0.04618268
182	0x3d56bf3d	0.052428473
183	0x3c81eea0	0.015860856
184	0xbdb090b8	-0.08621353
185	0x3d5bcbed	0.053661276
186	0xbb9137e7	-0.004431713
187	0x3cb8500d	0.022499109
188	0xbcee2247	-0.02906908
189	0x3c97b81a	0.018520404
190	0x3d845acf	0.06462633
191	0x3da5a5af	0.08088242
192	0xbd38e0fd	-0.04513644
193	0x3d4f64aa	0.05063311
194	0x3b925567	0.004465747
195	0x3c9dba40	0.01925385
196	0xbda4c37b	-0.080450974
197	0x3d25b2d0	0.040453732
198	0xbccc9060	-0.024971187
199	0xbd8d8a03	-0.06911089
200	0xbd995838	-0.074875295
201	0x3dafdf90	0.08587563
202	0x3da13942	0.07872249
203	0x3da4ff65	0.08056525
204	0xbca9f2a7	-0.020745588
205	0xbdb55fa3	-0.08856132
206	0xbca34a60	-0.019932926
207	0x3d50e833	0.051002692
208	0xbcfb4687	-0.030673278
209	0xbd742a2a	-0.059610523
210	0xbc79498d	-0.01521529
211	0xbbb57f80	-0.005538881
212	0xbbb32400	-0.005466938
213	0xbd552737	-0.05203935
214	0xbd985fa5	-0.07440118
215	0xbd3907a0	-0.045173287
216	0xbcd0d5a7	-0.025492502
217	0xbd1f30f3	-0.03886504
218	0xbd3a56c7	-0.045492914
219	0x3d749bf7	0.059719052
220	0xbdc512cb	-0.09622725
221	0x3d07c3d3	0.033145737
222	0xbd0fc030	-0.035095394
223	0x3d52fe2a	0.05151192
224	0xbd06cf1a	-0.03291235
225	0xbd8f9813	-0.07011428
226	0xbd33b827	-0.043876793
227	0xbdc785ca	-0.09742315
228	0x3d4c7e90	0.049925387
229	0xbcbb4327	-0.02285917
230	0xbd5f5f77	-0.0545344
231	0x3c9d01cd	0.019165898
232	0x3d2fa48d	0.042881537
233	0xbd105777	-0.035239663
234	0x3c989b8d	0.01862886
235	0xbc6cb400	-0.014447212
236	0xbbc23a4d	-0.00592736
237	0xbdb5ff13	-0.08886542
238	0x3dbd1d68	0.092341244
239	0x3d1e3fc0	0.038635015
240	0x3b4b77cd	0.0031046749
241	0xbbd3f14d	-0.0064679743
242	0xbb559b67	-0.0032593848
243	0x3dae2957	0.08503979
244	0x3c6d919a	0.014500046
245	0x3d5fc66a	0.05463258
246	0x3db91a07	0.090381674
247	0xbd70110d	-0.05861001
248	0xbd5f3df0	-0.054502428
249	0x3dae6072	0.08514489
250	0x3b3dbb9a	0.002895093
251	0xbd655320	-0.055987477
252	0xbd8ff9c7	-0.07030063
253	0xbd373aed	-0.04473393
254	0x3ce7c8cd	0.028293991
255	0x3d100d87	0.03516915

bias_ih_l0 f4 [300]
0	0x3dae66cb	0.085157
1	0xbd992418	-0.074775875
2	0x3d3e02fd	0.04638957
3	0xbd2445f3	-0.04010577
4	0x3c13345a	0.00898465
5	0xbd291383	-0.041278373
6	0x3d8ceacf	0.06880724
7	0xbd80a77f	-0.06281947
8	0x3dbeb342	0.093115345
9	0xbc5f8af3	-0.013643968
10	0xbd6c6da7	-0.05772176
11	0xbdbbc088	-0.09167582
12	0xbd894cc7	-0.06704097
13	0xbd130c7a	-0.03590057
14	0x3dc9ddcf	0.0985676
15	0x3d737523	0.059437882
16	0xbda288c8	-0.07936245
17	0xbdabdd85	-0.08391861
18	0x3d2f4497	0.04279002
19	0xbc7ce380	-0.0154351
20	0xbbec3c9a	-0.0072093727
21	0xbd69b540	-0.05705762
22	0x3c64c040	0.013961852
23	0xbbc88380	-0.0061191916
24	0x3d1a5080	0.037674427
25	0xbcaffeda	-0.021483827
26	0xbdc5e520	-0.09662843
27	0x3d13a64a	0.036047257
28	0xbd8ce758	-0.06880063
29	0x3cda9947	0.026684416
30	0x3da3715d	0.07980607
31	0xbda668b5	-0.0812544
32	0xbd13c903	-0.03608037
33	0x3c81249a	0.015764523
34	0x3d8a8a67	0.067646794
35	0x3d6138aa	0.05498568
36	0x3d8ae653	0.06782212
37	0xbdbf76f0	-0.093488574
38	0x3d2e20a7	0.04251161
39	0x3c6e2fc0	0.014537752
40	0xbd366370	-0.044528425
41	0xbd3fe810	-0.04685217
42	0xbdbf1843	-0.093307994
43	0xbc537fda	-0.0129089
44	0x3d8081ba	0.062747434
45	0x3cd4dd07	0.0259843
46	0xbcdd3f07	-0.027007593
47	0xbd0e5b20	-0.034754872
48	0x3dc5a728	0.09651023
49	0xbd9e8045	-0.07739309
50	0x3d3b708a	0.045761622
51	0xbdcae620	-0.09907174
52	0x3c4df4c0	0.01257056
53	0x3ccd8307	0.025086893
54	0x3d7a0b03	0.061045658
55	0xbc105373	-0.008808958
56	0x3d357a13	0.044305872
57	0xbd7b106a	-0.06129495
58	0x3d8415ff	0.06449508
59	0xbd82d74f	-0.06388723
60	0x3d44a180	0.04800558
61	0x3c88aeda	0.016684938
62	0xbd159640	-0.036520243
63	0x3c70eb00	0.014704466
64	0x3bed0267	0.0072329524
65	0xbd1fb8ca	-0.038994588
66	0xbc9fcb47	-0.01950611
67	0x3da2e2eb	0.079534374
68	0xbd0b8b40	-0.034068346
69	0xbd6e61f0	-0.05819887
70	0x3dab91ab	0.08377393
71	0x3cbc8fa7	0.023017718
72	0x3d10923a	0.035295703
73	0x3d917667	0.071026616
74	0x3c04bccd	0.008101654
75	0x3d1c374d	0.038138676
76	0x3cd77913	0.02630285
77	0x3b3ba0cd	0.002862978
78	0xbdad3268	-0.0845688
79	0xbb51b69a	-0.0031999708
80	0x3da1c6b2	0.07899226
81	0xbd210690	-0.0393129
82	0x3d2089da	0.039193965
83	0xbdb00a33	-0.08595695
84	0x3d21a7b3	0.03946657
85	0xbd08cba7	-0.033397343
86	0xbc68f540	-0.014218628
87	0xbbacd080	-0.0052738786
88	0x3c3dd54d	0.011586499
89	0x3d92b2cb	0.07163008
90	0x3cf9d48d	0.03049686
91	0xbd4616dd	-0.048361648
92	0x3d887735	0.06663362
93	0xbcbea493	-0.023271834
94	0xbd973cef	-0.07384669
95	0x3c5ded8d	0.013545406
96	0x3dca3de5	0.09875087
97	0xbd4975e0	-0.04918468
98	0x3a138733	0.0005627751
99	0xbd3b1397	-0.04567298
100	0xbd932990	-0.07185662
101	0x3c9adf00	0.018905163
102	0x3c74ee8d	0.014949453
103	0x3c7ad88d	0.015310419
104	0x3cc90773	0.024539685
105	0x3d33cf9d	0.043899167
106	0x3ca1933a	0.019723523
107	0xbd291f4a	-0.041289605
108	0x3d97b232	0.07407035
109	0xbd449e90	-0.04800278
110	0x3d5b1b37	0.05349275
111	0xbd9e7aa3	-0.07738235
112	0x3d957483	0.072976135
113	0xbce46c47	-0.027883662
114	0x3dc295fd	0.09501264
115	0x3d9cb48a	0.076516226
116	0xbd7e8cb0	-0.06214589
117	0x3d93541a	0.071937755
118	0xbd7bf893	-0.061516356
119	0x3dc0c8d2	0.094133034
120	0x3bb6004d	0.005554235
121	0xbd9786ea	-0.0739878
122	0x3c9e0680	0.019290209
123	0xbb7822cd	-0.003786254
124	0x3d0c804a	0.034302033
125	0xbdccb3b5	-0.09995214
126	0xbd66de13	-0.05636413
127	0xbd0c7ac3	-0.034296762
128	0xbd6e88fa	-0.0582361
129	0x3d84971b	0.064741336
130	0x3cf3406d	0.029693807
131	0xbc85e7b3	-0.016345834
132	0x3d77af73	0.060470056
133	0x3d8f5517	0.069986515
134	0xbc7591cd	-0.014988375
135	0xbda763e2	-0.08173348
136	0xbd8513d8	-0.064979255
137	0xbcb6752d	-0.02227267
138	0x3d8160c8	0.06317288
139	0xbc51160d	-0.012761605
140	0xbd873d1d	-0.06603453
141	0xbd390b8d	-0.04517703
142	0xbd66791d	-0.056267846
143	0xbdc1ebd5	-0.094688095
144	0xbd972c8b	-0.07381543
145	0xbd82697f	-0.06367778
146	0x3d7f62d3	0.062350105
147	0x3d5560a3	0.052094113
148	0xbda37128	-0.07980567
149	0x3da77c3f	0.08177995
150	0x3d0489b7	0.032357898
151	0x3cf3d4a7	0.029764486
152	0x3b638dcd	0.003472197
153	0x3d560117	0.052247133
154	0xbcde3ca0	-0.027128518
155	0xbc3cbeda	-0.011520112
156	0x3d8cf2c3	0.068822406
157	0x3dc73bb7	0.097281866
158	0x3d69f31a	0.057116605
159	0xbd555ded	-0.052091528
160	0x3cbb1fed	0.022842372
161	0xbd8bb84b	-0.068222605
162	0xbd10cd1d	-0.03535186
163	0x3daaeca3	0.08345916
164	0x3dcb3638	0.09922451
165	0x3cb5919a	0.022164155
166	0x3d1400d3	0.0361336
167	0xbd7eba70	-0.06218952
168	0x3d00f493	0.031483244
169	0xbd92ff75	-0.07177631
170	0xbda0cde3	-0.0785177
171	0xbd40f67a	-0.04711006
172	0xbc569dc0	-0.013099134
173	0x3d938e4b	0.072048746
174	0xbd98bf5d	-0.07458375
175	0xbd873033	-0.0660099
176	0xbda548df	-0.0807054
177	0x3dbe3648	0.09287697
178	0x3dbdad48	0.092615664
179	0x3c4950f3	0.012287366
180	0x3d8a504d	0.067535974
181	0xbd0c573d	-0.034262884
182	0xbb38ca00	-0.0028196573
183	0xbd8fa8c2	-0.0701461
184	0x3ca6a60d	0.020342851
185	0xbd1df2c7	-0.03856161
186	0xbd9687c5	-0.07350115
187	0xbc3c2b5a	-0.011484945
188	0xbdbaca78	-0.09120649
189	0xbd8031d8	-0.06259507
190	0xbc4e685a	-0.012598122
191	0xbbed8a4d	-0.0072491528
192	0x3d01c93d	0.031686056
193	0xbc9158f3	-0.01774261
194	0xbd8b307f	-0.06796359
195	0x3d8b1a15	0.06792084
196	0xbd9186e0	-0.071058035
197	0x3d550877	0.052010026
198	0xbd8b49ca	-0.068011835
199	0x3c093d4d	0.008376432
200	0xbdb0cf35	-0.086332716
201	0x3cef8c6d	0.029241765
202	0xbdaebfe8	-0.08532697
203	0x3cb1a320	0.02168423
204	0x3d6d9f33	0.058013152
205	0xbc586bda	-0.013209308
206	0xbd5f2000	-0.054473877
207	0xbd8487e8	-0.064712346
208	0xbc1db6f3	-0.009626138
209	0xbd74bb90	-0.059749186
210	0x3d8cef2d	0.06881557
211	0xbca78d93	-0.02045325
212	0x3d93a44b	0.07209071
213	0x3dbab142	0.091158405
214	0xbda2c7f7	-0.079482965
215	0xbcf74633	-0.03018484
216	0xbd989e7d	-0.07452104
217	0xbdae11bd	-0.08499477
218	0x3d4e0e00	0.05030632
219	0x3d9cb10b	0.07650956
220	0x3cc6bb4d	0.024259234
221	0xbd35d900	-0.0443964
222	0xbcf8c573	-0.030367589
223	0x3c8cd65a	0.017192055
224	0x3d9e13ed	0.07718644
225	0xbd496d3d	-0.049176443
226	0x3d94fe07	0.07275014
227	0xbb6edf67	-0.0036449076
228	0x3c66979a	0.014074231
229	0xbcf7cafa	-0.030248154
230	0x3db49603	0.08817675
231	0x3c8b4273	0.016999459
232	0xbdbd811a	-0.0925314
233	0xbd03b42d	-0.03215425
234	0xbd0ce017	-0.034393396
235	0xbd8f6717	-0.07002085
236	0xbdb9c628	-0.090709984
237	0x3b6df367	0.003630841
238	0x3d9e068a	0.07716091
239	0x3dc1e5d8	0.09467667
240	0xbd3ac393	-0.04559667
241	0x3d711b47	0.058863904
242	0xbd880aef	-0.066427104
243	0x3d8d7fc5	0.06909136
244	0x3dbac6c8	0.09119946
245	0xbdbce780	-0.092238426
246	0xbdbb7385	-0.09152893
247	0x3b479b33	0.0030457496
248	0x3d127f07	0.035765674
249	0xbcbce3a7	-0.023057772
250	0x3c47274d	0.012155366
251	0xbd97db5b	-0.074148856
252	0x3d31c860	0.043403983
253	0x3da75a43	0.08171513
254	0x3db818da	0.08989115
255	0x3c040cb3	0.008059668

bias_hh_l0 f4 [300]
0	0xbcc4f8e7	-0.024044467
1	0x3d24e10a	0.040253676
2	0x3bfbaa80	0.0076802373
3	0xbbd28433	-0.006424451
4	0xbdcb159b	-0.0991623
5	0x3d044d27	0.03230014
6	0x3dc301e5	0.09521846
7	0xbd35f4f0	-0.044423044
8	0x3db5ab42	0.088705555
9	0xbd9ea550	-0.077463746
10	0xbc9020e0	-0.017593801
11	0xbd24da63	-0.040247332
12	0xbc8bd8da	-0.017071176
13	0x3dac7f4a	0.08422716
14	0xbd2b8a0d	-0.041879702
15	0xbdc3cf0d	-0.09560976
16	0x3bf54567	0.00748508
17	0xbc57e80d	-0.013177884
18	0xbc356067	-0.011070347
19	0xbd369a9a	-0.044581033
20	0xbdb09478	-0.08622068
21	0xbd8f0190	-0.0698272
22	0xbd88f44a	-0.066872194
23	0xbcb63653	-0.0222427
24	0xbd8d068b	-0.068860136
25	0xbdb15a33	-0.08659782
26	0x3db961da	0.09051867
27	0x3d1d211a	0.038361646
28	0xbcac46da	-0.021029878
29	0x3dc1145a	0.0942771
30	0x3dae475f	0.08509707
31	0xbdcbd8e7	-0.0995348
32	0xbd90f253	-0.0707747
33	0xbdbb4bf7	-0.091453485
34	0xbc851440	-0.016245008
35	0xbc9b2000	-0.018936157
36	0xbcbf0a93	-0.023320472
37	0xbd1a3e43	-0.037657034
38	0xbd7fde50	-0.062467873
39	0x3bdf649a	0.0068174126
40	0xbdc41d35	-0.09575883
41	0xbb6a26cd	-0.0035728693
42	0x3dab6af2	0.083700076
43	0xbb7b969a	-0.0038389326
44	0xbcfd237a	-0.030900706
45	0xbca999f3	-0.020703292
46	0xbd71cc0d	-0.05903249
47	0xbd1f7fa7	-0.038940098
48	0xbd957f5a	-0.07299681
49	0x3ca42493	0.020036971
50	0xbce9ab40	-0.028524041
51	0xbd568ea3	-0.052382123
52	0x3db35a63	0.08757474
53	0x3dbca50f	0.0921117
54	0x3d1ea147	0.038728025
55	0x3d19925a	0.037493087
56	0xbbcf9be7	-0.0063357237
57	0x3c3355cd	0.0109457495
58	0xbd945e8f	-0.07244598
59	0xbc3756b3	-0.011190104
60	0x3d9b1b43	0.07573559
61	0xbd4541dd	-0.048158515
62	0x3d4e7b6d	0.050410677
63	0x3cd57840	0.026058316
64	0xbd513223	-0.051073205
65	0xbd7be76a	-0.06149999
66	0xbbf704e7	-0.007538426
67	0x3d39bf4d	0.045348454
68	0xbd7fea4a	-0.062479295
69	0xbbcb6580	-0.006207168
70	0x3dc03cfd	0.093866326
71	0x3d1a4510	0.03766352
72	0x3da935a7	0.082621865
73	0xbdc9c1a0	-0.09851384
74	0x3dc9f39d	0.09860919
75	0x3d47894d	0.048714925
76	0xbcd83fed	-0.02639767
77	0xbda3d9d5	-0.080005325
78	0x3ca1370d	0.01967957
79	0x3d548350	0.05188304
80	0x3d8c84b0	0.06861246
81	0xbd54ade3	-0.051923644
82	0x3dc0dbaf	0.09416901
83	0xbd40e920	-0.047097325
84	0xbd8f396a	-0.06993373
85	0xbb39fb00	-0.0028378367
86	0xbd9e5ad2	-0.07732166
87	0x3cdf33c0	0.027246356
88	0xbcf34e1a	-0.029700328
89	0xbcb49fd3	-0.022048866
90	0xbdbdbb6a	-0.09264262
91	0xbd1c7363	-0.03819598
92	0xbcdeacc7	-0.027181996
93	0x3ce62973	0.028095936
94	0x3d622657	0.055212345
95	0xbdbbbc42	-0.09166767
96	0xbd08eac0	-0.033427
97	0x3c8103fa	0.015748966
98	0x3bc0a833	0.005879426
99	0x3d948e55	0.0725371
100	0x3d31a04d	0.043365765
101	0x3db782e3	0.089605115
102	0x3a70dc00	0.0009188056
103	0xbb490633	-0.003067386
104	0xbd815692	-0.0631534
105	0xbd8ea68b	-0.06965359
106	0x3c084b27	0.008318699
107	0xbdb18d52	-0.08669533
108	0x3c38af80	0.011272311
109	0xbce2d2da	-0.027688432
110	0xbd3cdaea	-0.04610721
111	0xbd7deb17	-0.061991777
112	0x3d40b33d	0.047045935
113	0xbd1f16b3	-0.038840007
114	0x3d494a9a	0.04914341
115	0xbd0f0d3a	-0.034924723
116	0x3d595283	0.053057205
117	0x3dc44fb5	0.095855154
118	0x3dc1e24d	0.094669916
119	0xbcae3413	-0.021265065
120	0xbbb1cb80	-0.0054258704
121	0xbd10dda7	-0.035367634
122	0xbd282cca	-0.04105834
123	0xbda51d9f	-0.080622904
124	0x3c6ba41a	0.014382387
125	0x3cf59b87	0.029981388
126	0x3ba3c980	0.004998386
127	0xbda568b5	-0.08076612
128	0x3db24e1b	0.08706304
129	0xbd4fb68d	-0.050711203
130	0x3dcc6f07	0.09982114
131	0xbd02c7a3	-0.03192867
132	0x3db19842	0.08671619
133	0xbd8b70db	-0.06808635
134	0xbda58ea8	-0.0808385
135	0x3daf924a	0.08572824
136	0xbc74f6c0	-0.014951408
137	0xbc7e011a	-0.015503192
138	0xbdb2c998	-0.08729857
139	0x3b98f133	0.004667425
140	0x3c0d2ab3	0.008616137
141	0xbd311cfa	-0.043240525
142	0xbd5ac333	-0.053408813
143	0xbcdb7c4d	-0.02679267
144	0xbdb07ccb	-0.08617552
145	0xbd33a4f0	-0.04385847
146	0xbd8e7a57	-0.06956928
147	0xbd44d22d	-0.048052
148	0xbd928f4b	-0.07156237
149	0x3d293cb7	0.041317668
150	0xbd7ebfa0	-0.062194467
151	0xbd931d85	-0.07183365
152	0xbd29a8a7	-0.041420605
153	0xbbabbd1a	-0.0052410485
154	0x3d8d68dd	0.06904767
155	0xbdc230fd	-0.09482
156	0xbd9acfd5	-0.07559172
157	0x3b9aa24d	0.004719055
158	0x3d5d9af7	0.054102864
159	0x3d9e3435	0.077248015
160	0x3c0375f3	0.008023727
161	0xbc69eb00	-0.01427722
162	0xbd5e5030	-0.05427569
163	0xbd2f7c47	-0.04284313
164	0x3bc40133	0.0059815883
165	0xbd97b215	-0.07407013
166	0xbcbf1a4d	-0.02332797
167	0xbba411b3	-0.0050069927
168	0xbdc7a508	-0.09748274
169	0x3b65c133	0.0035057783
170	0xbd99bd98	-0.07506865
171	0xbd34a030	-0.04409808
172	0xbda83bff	-0.08214568
173	0x3c94659a	0.018114854
174	0xbd9dce6a	-0.07705386
175	0x3bac7cb3	0.0052638887
176	0xbce5afe0	-0.028037965
177	0x3d53de5a	0.051725723
178	0x3dc947b0	0.098281264
179	0xbdbaca27	-0.09120589
180	0x3c7039c0	0.014662206
181	0xbd794ba7	-0.060863163
182	0x3d281290	0.041033328
183	0xbda26cd0	-0.079309106
184	0x3d6be600	0.057592392
185	0xbc53e3da	-0.012932742
186	0x3d84683f	0.06465196
187	0xbdc0aaa8	-0.0940755
188	0xbc9bfefa	-0.01904248
189	0xbd83a8e7	-0.064287
190	0xbdb0fb8f	-0.08641731
191	0x3d4953ba	0.049152113
192	0x3d41aeb3	0.047285747
193	0xbbb19c4d	-0.005420244
194	0xbcf2e4c7	-0.029650105
195	0x3cde5d80	0.027144194
196	0xbd639c47	-0.05556896
197	0xbd922477	-0.07135861
198	0xbd3ad2a0	-0.045611024
199	0x3c23ab80	0.009989619
200	0x3c9c0dda	0.019049574
201	0xbc348dcd	-0.011020136
202	0x3dcc1db5	0.09966604
203	0xbd0d4d67	-0.034497645
204	0x3dbcf9ba	0.09227319
205	0xbcdb3ee7	-0.026763393
206	0xbc149080	-0.009067655
207	0xbd443307	-0.047900226
208	0x3dbc4425	0.09192685
209	0x3cf5ba20	0.029995978
210	0x3dba6210	0.09100735
211	0xbd73130d	-0.05934434
212	0xbd0e45fa	-0.034734704
213	0xbc7f43f3	-0.015580165
214	0xbccc49c7	-0.024937524
215	0xbd8a5923	-0.06755283
216	0x3d8445b3	0.064586066
217	0x3d0846d0	0.033270657
218	0x3d302357	0.043002453
219	0x3d445c30	0.04793948
220	0xbdc9b268	-0.098484814
221	0xbcfed24d	-0.031106139
222	0x3cda2707	0.026629938
223	0xbdad4e1a	-0.08462162
224	0x3dc9d957	0.098559074
225	0xbd9240a5	-0.07141236
226	0x3d5defdd	0.05418383
227	0xbd70d380	-0.058795452
228	0x3d4aa95a	0.049477912
229	0x3d21708d	0.039413977
230	0x3b6003cd	0.0034181953
231	0x3d609de0	0.05483806
232	0x3d81ac5d	0.06331704
233	0xbd918265	-0.07104949
234	0x3da0a6e5	0.078443326
235	0x3da309e0	0.07960868
236	0xbdc6eb43	-0.09712841
237	0xbd93829d	-0.07202647
238	0xbdb0042a	-0.08594544
239	0x3d5fffb0	0.054687202
240	0xbd7e31a0	-0.062059045
241	0x3d3240d0	0.04351884
242	0x3b75f1cd	0.0037528158
243	0xbc5fc6b3	-0.013658213
244	0x3c97721a	0.018487025
245	0xbd057edd	-0.03259169
246	0x3cc248c7	0.023716344
247	0xbd52e543	-0.051488172
248	0x3dba9bcb	0.091117464
249	0x3d11b99d	0.035577405
250	0xbd4b18b3	-0.049584102
251	0x3c5becb3	0.013423133
252	0xbdb762a8	-0.08954364
253	0x3cb961d3	0.022629654
254	0xbd907fa7	-0.07055598
255	0xbd2ea650	-0.042639077

weight f4 [50, 100]
0	0xbae98b33	-0.0017817974
1	0xbd1ddded	-0.038541723
2	0x3dc3c305	0.095586814
3	0xbc83caed	-0.016087973
4	0xbd157dd7	-0.036496963
5	0x3d8fcab0	0.070210814
6	0xbdb06fea	-0.08615096
7	0xbd5e53a0	-0.05427897
8	0x3d915efd	0.07098196
9	0xbda7940a	-0.08182533
10	0xbd801cda	-0.06255503
11	0xbd00772d	-0.031363655
12	0x3d4b8f9d	0.049697507
13	0x3cb42933	0.021992302
14	0x3d31675a	0.043311454
15	0x3d737450	0.059437096
16	0x3d586e4a	0.052839555
17	0xbc668680	-0.014070153
18	0x3cdf7407	0.027277006
19	0xbdc7eb78	-0.09761709
20	0xbd5e2810	-0.054237425
21	0xbcc37e93	-0.023864066
22	0xbd80985f	-0.062790625
23	0x3d02f0b7	0.031967845
24	0x3c98b840	0.018642545
25	0xb9c55e67	-0.00037645103
26	0xbdb3da70	-0.08781898
27	0xbd3c526d	-0.045977045
28	0x3da302c0	0.07959509
29	0x3c00854d	0.007844281
30	0x3c6784b3	0.014130759
31	0xbb387933	-0.0028148412
32	0xbbf08c9a	-0.0073409798
33	0xbdc0502d	-0.09390292
34	0xbd830f10	-0.06399357
35	0x3dc9683a	0.09834333
36	0x3d0b105d	0.033951152
37	0xbcc4029a	-0.023927022
38	0x3d6aea20	0.057352185
39	0x3d3ace00	0.045606613
40	0xbd275727	-0.0408546
41	0x3bd5f880	0.0065298676
42	0xbc934d60	-0.017981231
43	0x3d3b1e6a	0.045683302
44	0x3d653b7a	0.055964924
45	0x3cb15633	0.021647548
46	0x3c86c83a	0.016452897
47	0xbd53e0ea	-0.051728167
48	0x3d3aac40	0.045574427
49	0xbc691fa7	-0.014228738
50	0xbc72e940	-0.014826119
51	0xbd79b17a	-0.06096027
52	0xbd571b6a	-0.05251638
53	0x3d1039a7	0.03521123
54	0x3d8ecdf7	0.069728784
55	0x3ca633a0	0.020288289
56	0x3d80c168	0.06286889
57	0xbd728923	-0.059212815
58	0x3c86812d	0.016419018
59	0xbdc9696f	-0.09834563
60	0x3ba84400	0.0051350594
61	0x3d5fbe27	0.054624703
62	0xbd0da707	-0.034583118
63	0x3db71f00	0.0894146
64	0x3c1dad27	0.009623802
65	0xbd9b4ccb	-0.075830065
66	0xbdb9a9bd	-0.09065578
67	0x3dc24690	0.09486115
68	0xbda2b077	-0.07943814
69	0xbdbad97a	-0.091235116
70	0x3bc30d00	0.0059524775
71	0x3c886b47	0.016652716
72	0x3c49671a	0.012292648
73	0xbc9d6ac7	-0.019215954
74	0xbcb023e7	-0.021501495
75	0x3d208083	0.03918506
76	0xbcdea8c0	-0.027180076
77	0xbd5d24f3	-0.053990316
78	0x3d847877	0.06468289
79	0x3c59df8d	0.013297928
80	0x3ccaac53	0.024740374
81	0x3da43c0f	0.08019268
82	0x3c9f87c7	0.019473923
83	0x3cad6567	0.021166516
84	0xbd86591b	-0.06559964
85	0xbc1c6dcd	-0.009547663
86	0xbda6fa9a	-0.08153267
87	0x3d0286d3	0.03186686
88	0xbdb1256f	-0.08649718
89	0xbd664190	-0.05621487
90	0xbc630673	-0.013856518
91	0xbdc944b3	-0.098275565
92	0x3cb2a9d3	0.021809494
93	0xbd60f3e0	-0.054920077
94	0x3cf18713	0.029483354
95	0xbd064777	-0.032782998
96	0x3b42d100	0.0029726624
97	0xbd6367b0	-0.055518806
98	0x3cb8c087	0.022552742
99	0x3ba51d33	0.005038881
100	0x3d796373	0.060885858
101	0xbd08421a	-0.033266164
102	0x3d102a90	0.03519684
103	0xbb4ca9cd	-0.003122914
104	0xbcc5f3ad	-0.024164045
105	0x3d2a79b7	0.041619983
106	0x3cfa189a	0.030529309
107	0xbc8845a0	-0.016634762
108	0xbdb1fee7	-0.08691197
109	0x3c92e9da	0.017933775
110	0x3d32d117	0.043656435
111	0x3b2c7fcd	0.0026321292
112	0x3d3b673a	0.04575274
113	0xbc38078d	-0.011232269
114	0x3d5ca407	0.053867366
115	0x3ca7691a	0.020435859
116	0x3d16bf6a	0.03680364
117	0x3dc2d57a	0.09513374
118	0xbda039cf	-0.07823526
119	0xbb974c00	-0.004617214
120	0xbd9a60ff	-0.07538032
121	0x3ccf44ad	0.025301302
122	0xbd830828	-0.0639804
123	0x3dad24e8	0.08454305
124	0xbd99fd28	-0.07518989
125	0x3da1c5a2	0.078990236
126	0x3d0c60d0	0.034272015
127	0xbce18f47	-0.02753414
128	0xba5c9333	-0.00084142684
129	0xbccacfe0	-0.024757326
130	0xbd832f3d	-0.06405494
131	0xbdb16972	-0.0866269
132	0xbd876658	-0.066113174
133	0xbdcc9b48	-0.09990555
134	0x3d7430ed	0.05961697
135	0x3d2bd05a	0.041946746
136	0x3d8391a8	0.06424266
137	0xbda5957f	-0.08085155
138	0xbdb6f612	-0.08933653
139	0xbd0867e7	-0.033302214
140	0xbcec86d3	-0.028872883
141	0x3d11b010	0.035568297
142	0x3d8e4f40	0.069487095
143	0x3d9ea848	0.07746941
144	0xbd15b10d	-0.036545802
145	0xbd975102	-0.07388498
146	0xbd92da2a	-0.07170518
147	0x3d504f6a	0.050856985
148	0xbd854128	-0.06506568
149	0x3d706803	0.058692943
150	0x3dca77e7	0.09886151
151	0x3d0b7f8d	0.03405719
152	0xbc3f2e0d	-0.011668694
153	0xbd536407	-0.051609065
154	0x3d7af990	0.061273158
155	0xbd9521da	-0.07281847
156	0x3d55b327	0.052172806
157	0xbcebbb07	-0.028775705
158	0xbd957560	-0.07297778
159	0x3d1524dd	0.03641211
160	0xbd8ec545	-0.0697122
161	0xbdc66e3b	-0.096889935
162	0xbb0ab8cd	-0.0021167279
163	0x3cd1e553	0.025622046
164	0x3cfe9020	0.031074584
165	0x3d67d1aa	0.056596436
166	0xbd812d3f	-0.06307458
167	0x3c4c7067	0.012477971
168	0xbc90bdf3	-0.0176687
169	0x3dc84518	0.097788036
170	0x3d806995	0.06270138
171	0x3b1c89cd	0.0023885847
172	0x3ceedea0	0.02915889
173	0xbdab25c5	-0.08356813
174	0xbdca6738	-0.09882969
175	0x3bd5c2b3	0.006523454
176	0xbd9062b3	-0.070500754
177	0x3d8c80ad	0.068604805
178	0x3d92d042	0.07168628
179	0x3d5ea2ed	0.054354597
180	0x3d9302b0	0.07178247
181	0xbdc76047	-0.0973516
182	0x3d899087	0.067170195
183	0xbdc117df	-0.09428381
184	0xbd0ab3d3	-0.0338629
185	0xbd0ab3c7	-0.033862855
186	0x3dc75698	0.09733313
187	0x3d8cbf62	0.06872441
188	0xbdc6cc33	-0.09706917
189	0xbdcb27af	-0.099196784
190	0x3d239700	0.039938927
191	0xbd87bf23	-0.06628253
192	0xbd48f347	-0.049060132
193	0xbdb36658	-0.08759755
194	0xbda0e6b0	-0.078565
195	0xbdc7897a	-0.097430184
196	0x3d19346d	0.037403513
197	0x3dafc79f	0.085829966
198	0x3db39c88	0.0877009
199	0x3c36cba7	0.011156953
200	0x3da15605	0.07877735
201	0x3c21fff3	0.009887683
202	0xbd4063fa	-0.046970345
203	0xbd9c04b5	-0.07618085
204	0x3da116a0	0.078656435
205	0xbb40bc9a	-0.002940929
206	0xbd81a39a	-0.06330033
207	0x3d78b74a	0.060721673
208	0x3d83dfb0	0.064391494
209	0x3d8da42d	0.0691608
210	0x3d2df237	0.042467322
211	0x3c195f67	0.009361125
212	0xbd7b9753	-0.06142361
213	0x3dacf417	0.08444994
214	0x3cc5cd40	0.024145722
215	0xbd0fc257	-0.035097446
216	0xbd5e4bba	-0.054271437
217	0xbd4bb290	-0.049730837
218	0x3db6e998	0.08931273
219	0x3b846080	0.004039824
220	0x3d551c7d	0.05202912
221	0x3bcf5167	0.0063268426
222	0xbd525fc7	-0.05136087
223	0xbd49ee6a	-0.049299635
224	0xbd464a63	-0.048410784
225	0xbd16f23d	-0.03685211
226	0x3dc4b1ff	0.096042626
227	0xbc119340	-0.008885205
228	0x3d94364b	0.07236918
229	0x3d467377	0.04844996
230	0x3dc73b47	0.09728103
231	0xbcfc5420	-0.030801833
232	0xbdbdd885	-0.092698134
233	0xbda64a00	-0.08119583
234	0xbda3b72f	-0.07993924
235	0xbd8891ea	-0.06668456
236	0x3d5479dd	0.05187403
237	0xbd9deb9f	-0.07710957
238	0x3c8e90ba	0.017402995
239	0xbcd89a13	-0.026440656
240	0x3d87fb22	0.06639697
241	0x3d8760ef	0.066102855
242	0xbcb4f413	-0.02208904
243	0x3dc276cf	0.09495317
244	0x3db5d9cd	0.08879433
245	0x3d185b70	0.037196577
246	0xbd92aa4b	-0.07161387
247	0xbcd2fc7a	-0.025755156
248	0x3dbf011f	0.09326386
249	0xbdbedbd3	-0.09319272
250	0x3c9bf847	0.019039286
251	0x3dc7083f	0.0971837
252	0x3cc15073	0.023597931
253	0xbd80fb60	-0.06297946
254	0xbd296750	-0.041358292
255	0xbdb2162b	-0.086956345

bias f4 [50]
0	0x3db0fc75	0.08641902
1	0xbda138fb	-0.07872196
2	0x3cd79020	0.026313841
3	0x3d73da30	0.05953425
4	0x3db5b7b7	0.088729315
5	0xbd217177	-0.03941485
6	0xbc8119f3	-0.015759444
7	0xbd89db07	-0.06731229
8	0x3d52b3fa	0.05144117
9	0xbdae6e4b	-0.085171305
10	0xbd81d412	-0.06339277
11	0x3a871267	0.0010305167
12	0xbd840e3f	-0.0644803
13	0x3cf6d1cd	0.030129338
14	0xbdb8e260	-0.090275526
15	0x3d481ec7	0.048857477
16	0x3da1eb7d	0.07906244
17	0x3da6338a	0.08115299
18	0xbd6961c0	-0.056977987
19	0x3dc25a1a	0.09489842
20	0x3db5ebb2	0.08882846
21	0xbcf68cf3	-0.030096507
22	0xbd8f5e2a	-0.07000382
23	0xbd8c468f	-0.068493955
24	0xbc251ac0	-0.0100771785
25	0x3cd131ba	0.025536407
26	0xbbe998e7	-0.007128823
27	0xbd7c8557	-0.0616506
28	0xbcd45013	-0.025917089
29	0x3d7cef73	0.061751794
30	0xbd8f8a1b	-0.070087634
31	0xbda06a8b	-0.078328215
32	0x3d0f1167	0.034928706
33	0xbd2ce41d	-0.042209733
34	0xbd1228c7	-0.03568342
35	0xbd81538f	-0.06314766
36	0x3dac5b92	0.08415903
37	0xbcaff433	-0.021478748
38	0xbdc44062	-0.095825925
39	0x3dc61d7b	0.09673592
40	0xbd819c7f	-0.063286774
41	0xbd750890	-0.05982262
42	0xbd94e9a2	-0.072711244
43	0xbd86a342	-0.06574108
44	0xbd4b2260	-0.04959333
45	0x3c9013da	0.017587591
46	0x3d0967d7	0.033546295
47	0x3cca7d20	0.024717867
48	0xba622e67	-0.00086281303
49	0x3daba4fa	0.08381076

weight f4 [2, 50]
0	0x3d544f92	0.051833697
1	0x3cf3231d	0.02967983
2	0xbda06a4e	-0.07832776
3	0xbe0cd882	-0.13754466
4	0x3dd162aa	0.10223897
5	0x3df059f1	0.11735905
6	0x3e038a0b	0.12845628
7	0x3c9aea16	0.018910449
8	0xbdb1ee78	-0.086880624
9	0xbcabff03	-0.020995623
10	0x3dba63a8	0.09101039
11	0x3d56b333	0.05241699
12	0x3d170a08	0.0368748
13	0x3d8af6f1	0.067853816
14	0x3d657e45	0.056028623
15	0xbcb44a35	-0.02200804
16	0xbd5c9044	-0.05384852
17	0x3c07ac3d	0.008280811
18	0x3db51ffb	0.088439904
19	0x3c338632	0.010957288
20	0xbe10276c	-0.14077538
21	0xbc4ba745	-0.012430017
22	0xbdc173ba	-0.09445901
23	0x3df020e8	0.11725026
24	0xbde54ca8	-0.11196262
25	0xbc9abafe	-0.018887993
26	0x3db4d12d	0.088289596
27	0xbd1ed05d	-0.03877293
28	0x3e0392d2	0.12848976
29	0xbdf85bdf	-0.12126898
30	0x3ca3f3f4	0.020013787
31	0xbd5c7076	-0.05381819
32	0x3b088c88	0.0020835716
33	0xbce7b3a8	-0.028283909
34	0xbd3b2a71	-0.045694772
35	0x3caaed0b	0.020864984
36	0xbd15d42e	-0.036579303
37	0xbdf8d1b1	-0.121493705
38	0xbe08a512	-0.1334422
39	0x3d05aa94	0.03263338
40	0x3dc28d4c	0.094996065
41	0xbc050d32	-0.008120822
42	0xbdfd37e2	-0.123641744
43	0xbe02be10	-0.12767816
44	0x3d24ac54	0.040203407
45	0xbcb602a0	-0.022218049
46	0x3d6b68dc	0.05747305
47	0x3db1a1b6	0.08673422
48	0xbe0aed16	-0.13567004
49	0x3d4c3d55	0.04986318
50	0xbd5d0f87	-0.053969886
51	0x3b4c63ed	0.003118749
52	0xbe016229	-0.12635101
53	0xbdf79c0f	-0.12090313
54	0xbc7bad4f	-0.015361144
55	0x3de11048	0.109894335
56	0xbdf78f28	-0.12087852
57	0x3cc3d16b	0.02390357
58	0xbdc596a1	-0.09647871
59	0xbc84984f	-0.016185908
60	0x3daf689b	0.08564874
61	0xbd861e0a	-0.06548698
62	0xbdfcdc70	-0.123467326
63	0x3d4ec260	0.05047834
64	0xbdeb3f95	-0.11486737
65	0xbcc895ec	-0.02448555
66	0x3ca703a3	0.020387476
67	0x3cf27792	0.029598031
68	0x3d2330af	0.03984135
69	0xbd77903c	-0.060440287
70	0x3c21d15c	0.009876575
71	0xbdc002a5	-0.093755044
72	0xbd19bd5f	-0.037534114
73	0x3c154dab	0.009112756
74	0x3db689b4	0.089129835
75	0xbdaddfbb	-0.08489939
76	0x3e0c312f	0.13690637
77	0xbc91cbb7	-0.017797334
78	0xbe02a286	-0.1275731
79	0x3d3b807f	0.04577684
80	0x3d0a3041	0.033737425
81	0x3d4b8675	0.049688775
82	0x3c3b754a	0.011441538
83	0xbdbce9a7	-0.09224253
84	0xbd75c924	-0.060006276
85	0x3d5cae68	0.053877264
86	0xbdc1642a	-0.09442933
87	0x3cab3bf5	0.020902613
88	0x3dd850d3	0.10562291
89	0x3d5297c9	0.051414285
90	0x3d96a93d	0.073564984
91	0xbd7a2334	-0.06106873
92	0xbd097559	-0.033559177
93	0xbd42feaf	-0.047606166
94	0xbca26b70	-0.01982662
95	0x3d5f6fd5	0.05455001
96	0x3dd9c4eb	0.10633262
97	0x3ac577ea	0.0015065644
98	0xbd4005fa	-0.0468807
99	0xbdc650f8	-0.09683412

bias f4 [2]
0	0x3ddc2c9b	0.10750695
1	0x3d32ab15	0.043620188
