dagster_ais/mlruns/0/025d1f8f68324ed38f3318df0c620355/artifacts/restored_model_checkpoint/epoch=9-step=20.ckpt (torch, 448127 bytes, 24 tensors)

rnn.weight_ih_l0 f4 [300, 2]
0	0xbd4e1eaf	-0.05032223
1	0x3d3b156f	0.045674738
2	0x3cddc029	0.027069168
3	0x3b981c75	0.004642064
4	0x3d805235	0.0626568
5	0xbd88c75b	-0.06678649
6	0x3cf78266	0.030213546
7	0x3c26d349	0.01018221
8	0xbda835a8	-0.08213359
9	0xbd9e5f62	-0.077330366
10	0xbcda80f1	-0.026672812
11	0xbcd6085e	-0.026127037
12	0x3d53189e	0.05153715
13	0x3d72f569	0.059316073
14	0xbca9c358	-0.02072303
15	0xbcb5c336	-0.02218781
16	0xbced226a	-0.028947074
17	0x3d34b618	0.04411897
18	0x3c542fe7	0.012950874
19	0x3d3e3b95	0.04644354
20	0x3cd1d983	0.025616413
21	0xbcf785f0	-0.030215234
22	0x3db80360	0.08985019
23	0x3d8ae275	0.067814745
24	0xbda84acc	-0.08217391
25	0xbd230de6	-0.039808176
26	0x3c865d01	0.01640177
27	0xbd9bf82e	-0.07615696
28	0xbc83c4b4	-0.016085006
29	0x3d3d095e	0.04615151
30	0xbd7bfba9	-0.0615193
31	0xbdac8a2a	-0.0842479
32	0xbd16c932	-0.03681297
33	0xbb6b8b5a	-0.0035941214
34	0x3d18603a	0.037201144
35	0x3cae75e0	0.021296442
36	0x3dc53800	0.09629822
37	0xbda20dc8	-0.07912785
38	0x3d6df378	0.058093518
39	0xbce755da	-0.02823918
40	0x3d360925	0.044442315
41	0x3d4937bd	0.04912542
42	0xbda4952d	-0.080362655
43	0x3d76e949	0.06028107
44	0x3c10c9ed	0.008837205
45	0xbce1706f	-0.027519433
46	0x3d31f4bd	0.04344629
47	0x3d3a9c58	0.045559257
48	0x3d1be1cf	0.038057145
49	0x3c9ffc2e	0.019529428
50	0xbce722ee	-0.028214898
51	0xbdc674af	-0.096902244
52	0x3dca0a40	0.09865236
53	0x3c3ffdff	0.011718272
54	0x3c80cdfd	0.015723223
55	0xbc3e758d	-0.011624706
56	0x3b5eba59	0.0033985584
57	0x3c7a1f8e	0.015266312
58	0xbcae1cf4	-0.02125404
59	0xbd15f56b	-0.036611002
60	0x3b19d454	0.0023472505
61	0x3d1d80a0	0.038452744
62	0x3c95c283	0.018281227
63	0xbcabbe45	-0.020964751
64	0xbaa5a47d	-0.0012637522
65	0xbd491f26	-0.04910197
66	0xbd60d8f2	-0.054894395
67	0xbd012111	-0.031525675
68	0xbd06ddb5	-0.03292628
69	0x3bd700aa	0.0065613585
70	0xbd5bcc8c	-0.053661868
71	0x3af77301	0.0018878878
72	0xbcdb90d3	-0.026802456
73	0x3da2f6d7	0.07957237
74	0xbd907fc7	-0.070556216
75	0xbdbb8f60	-0.09158206
76	0xbb52bc4a	-0.0032155686
77	0x3d951d17	0.07280939
78	0xbce700b1	-0.028198572
79	0x3cc6081c	0.024173789
80	0x3d1fa881	0.038979057
81	0xbd1b1dce	-0.03787022
82	0xbd1e2247	-0.03860691
83	0x3dcf0942	0.10109188
84	0x3d44f2c8	0.048083097
85	0x3c478260	0.01217708
86	0xbd814368	-0.06311685
87	0xbdc8a826	-0.09797697
88	0x3dab7761	0.08372379
89	0x3c97b33d	0.018518085
90	0xbd687fe8	-0.056762606
91	0x3db5cd91	0.08877099
92	0xbdbf95e2	-0.0935476
93	0x3d06d1eb	0.032915037
94	0x3d1b46fc	0.037909493
95	0x3d0528a4	0.03250946
96	0xba86b9bd	-0.0010278743
97	0x3c012e5b	0.007884587
98	0x3d586abd	0.05283617
99	0x3cc34ee0	0.023841321
100	0xbdac4654	-0.084118515
101	0x3c5501f4	0.013000954
102	0x3ce3eb52	0.02782217
103	0xbd65ff1c	-0.056151494
104	0xbc2b4f09	-0.010455855
105	0xbc05fc48	-0.008177824
106	0xbcea87b9	-0.02862917
107	0xbdbb5469	-0.09146959
108	0xbd8cecdb	-0.06881114
109	0x3db9531a	0.090490535
110	0xbd8134b5	-0.06308881
111	0xbdc4b716	-0.09605233
112	0x3d025a8d	0.031824637
113	0xbdaea21d	-0.085270144
114	0x3db704ca	0.0893646
115	0xbdc563dc	-0.09638187
116	0xbd436390	-0.047702372
117	0xbd30168f	-0.042990264
118	0xbd8e2875	-0.0694131
119	0xbced9e2a	-0.029006083
120	0x3c79fd27	0.01525811
121	0x3da9a844	0.08284047
122	0x3d8c36f3	0.06846418
123	0x3d397c84	0.045284763
124	0x3b96d64f	0.0046031843
125	0xbdaeb716	-0.085310146
126	0x3b5d2fd9	0.0033750443
127	0x3dbacff0	0.09121692
128	0x3d95be03	0.073116325
129	0x3d3b01b9	0.04565594
130	0x3d85d844	0.0653539
131	0x3d9fd34f	0.07803976
132	0x3d1eeb27	0.038798478
133	0x3da2838f	0.07935249
134	0x3d613f83	0.05499221
135	0xbd699c3c	-0.057033762
136	0xbd8a52ee	-0.06754099
137	0xbc9fc2d0	-0.019502074
138	0xbcdfbecd	-0.02731266
139	0x3d63c6e9	0.055609617
140	0xbc9aad8b	-0.01888158
141	0xbc075aba	-0.008261377
142	0xbb5835b9	-0.0032991006
143	0xbdc2fa45	-0.095203914
144	0x3c38f008	0.011287697
145	0xbc0ef62a	-0.008725682
146	0x3cdf9c54	0.027296223
147	0x3d43382c	0.04766099
148	0xbd2bf7ba	-0.041984297
149	0xbda8dd06	-0.08245282
150	0x3cfd031f	0.030885277
151	0xbd0b00fc	-0.033936486
152	0xbd947a8c	-0.072499365
153	0xbd9cea9c	-0.07661936
154	0xbd524dbf	-0.051343676
155	0x3d75626d	0.05990832
156	0xbd622c3a	-0.05521796
157	0xbb0bef11	-0.0021352211
158	0xbda080e4	-0.07837084
159	0x3c917a73	0.017758584
160	0x3ca03d57	0.0195605
161	0xbd4bc114	-0.04974468
162	0xbd1ef642	-0.03880907
163	0x3d97fc3c	0.07421157
164	0x3cf5263b	0.029925456
165	0x3d99e7f3	0.07514944
166	0x3d82f5b2	0.06394519
167	0x3d83d1c9	0.06436498
168	0xbcb60e04	-0.02222348
169	0x3c711b7b	0.0147160245
170	0x3c823503	0.015894419
171	0x3cb325c7	0.0218686
172	0x3c565aac	0.013083141
173	0xbd0ffdd3	-0.035154175
174	0x3dc12438	0.09430736
175	0x3cff2152	0.031143818
176	0x3cba6541	0.02275336
177	0x3dc064e3	0.093942426
178	0x3d870d2f	0.065943114
179	0xbd262deb	-0.040571135
180	0xbd8a16ba	-0.06742616
181	0x3d800ca8	0.06252414
182	0xbd070b56	-0.032969795
183	0xbca48027	-0.020080639
184	0xbd9a46c1	-0.075330265
185	0x3ca936ab	0.02065595
186	0xbc80f8ac	-0.015743576
187	0x3da68153	0.081301354
188	0xbc59beaf	-0.013290091
189	0x3db49643	0.08817723
190	0xbc719fe3	-0.014747593
191	0x3dc837c4	0.097762614
192	0xbd60c42b	-0.05487458
193	0xbd13fc0e	-0.03612905
194	0x3d7523f6	0.05984875
195	0x3b0d497b	0.002155869
196	0x3d5e8272	0.05432362
197	0xbc37bba2	-0.011214169
198	0x3da7a7c8	0.081862986
199	0x3d971d81	0.07378674
200	0xbd0e22bf	-0.034701105
201	0x3d889937	0.066698484
202	0x3b9427fa	0.004521367
203	0x3dacf922	0.08445956
204	0x3c82dfec	0.015975915
205	0x3d4356cc	0.047690198
206	0x3cfe70fa	0.03105973
207	0xbd8a39ca	-0.06749304
208	0xbcce0fa3	-0.02515394
209	0x3c26813e	0.01016265
210	0xbb10a7b3	-0.0022072613
211	0xbcccb530	-0.02498874
212	0xbd860f8f	-0.06545936
213	0xbd8ecebb	-0.069730245
214	0x3d52fc87	0.05151036
215	0x3dad6d78	0.08468145
216	0x3db7c3e2	0.089729086
217	0xbd094465	-0.03351249
218	0x3cadf822	0.021236483
219	0xbd672e5c	-0.056440696
220	0xbd1efa64	-0.03881301
221	0xbd9f8037	-0.07788127
222	0x3d085a2e	0.033289127
223	0xbd1e5fb5	-0.038665492
224	0x3cdec714	0.027194537
225	0x3c99e836	0.018787485
226	0xbd369945	-0.044579763
227	0xbd7c34e6	-0.061573885
228	0xbdb48a52	-0.08815445
229	0xbd85240d	-0.06501017
230	0x3cf2294a	0.029560704
231	0xbd8c1d52	-0.0684153
232	0x3dab722b	0.08371385
233	0xbd9df06b	-0.07711872
234	0x3cdd4098	0.02700834
235	0x3dc12f0f	0.09432804
236	0x3d708aaf	0.05872601
237	0x3c033fd2	0.008010821
238	0x3d3c1378	0.045917004
239	0x3d3e45fa	0.046453454
240	0xbd02d55f	-0.031941768
241	0xbd356a1f	-0.044290658
242	0xbc1c347e	-0.0095339995
243	0xbdab3a58	-0.083607376
244	0xbd2f8d60	-0.042859435
245	0x3dc72a79	0.09724898
246	0xbbd54f28	-0.0065096803
247	0x3d886474	0.06659785
248	0x3d8b2a95	0.06795231
249	0xbb1da3ea	-0.0024054
250	0xbc9b93e5	-0.01899142
251	0xbd6182a5	-0.055056233
252	0xbc34fa25	-0.011045967
253	0x3c12cdec	0.008960228
254	0xbdbf550f	-0.093423955
255	0x3d67d59a	0.05660019

rnn.weight_hh_l0 f4 [300, 100]
0	0x3db0167a	0.08598037
1	0x3c88fa3f	0.01672089
2	0xbdc2bea5	-0.09509019
3	0x3d324fc1	0.04353309
4	0x3d24ea0e	0.040262274
5	0xbd3b8400	-0.045780182
6	0x3dafb428	0.08579284
7	0x3cd682b9	0.02618538
8	0x3d819732	0.06327666
9	0x3d919066	0.0710762
10	0xbdb93745	-0.09043745
11	0xbc86acb8	-0.01643978
12	0xbc593885	-0.013258104
13	0x3d864eaf	0.065579765
14	0x3d6bcc81	0.057568077
15	0xbca68a24	-0.020329542
16	0x3dacb7cb	0.08433493
17	0xbcca137e	-0.024667498
18	0x3d7b51dd	0.061357368
19	0xbd6b8831	-0.05750293
20	0xbd90b42b	-0.07065614
21	0xbd1d0ff3	-0.03834529
22	0xbc8463ea	-0.016160924
23	0x3da132a1	0.07870985
24	0xbcc98019	-0.024597215
25	0xbd741958	-0.059594482
26	0xbdb8a492	-0.09015764
27	0x3ccf77bf	0.025325654
28	0x3bf04813	0.0073328107
29	0x3d5fd6cc	0.054648206
30	0x3d33b088	0.043869525
31	0x3d46928f	0.048479613
32	0xbc6009fc	-0.013674255
33	0xbc490a84	-0.0122705735
34	0xbd3de78a	-0.04636339
35	0x3cce9f41	0.025222423
36	0xbb51ca20	-0.0032011345
37	0xbc1058f0	-0.008810267
38	0x3d1343d5	0.03595336
39	0x3dacc0e2	0.08435227
40	0xbabad20c	-0.0014253273
41	0x3d1ce6da	0.038306095
42	0xbca3e94b	-0.020008704
43	0x3b0d1853	0.002152939
44	0xbd8eb964	-0.06968954
45	0xbdba54db	-0.09098216
46	0xbd70c49c	-0.05878125
47	0x3cc6fb7e	0.024289843
48	0xbd9bcdfe	-0.07607649
49	0x3c7988db	0.015230383
50	0xbda1eba4	-0.07906273
51	0xbd3cbee5	-0.04608049
52	0xbc6f55ad	-0.014607829
53	0xbb6a6f19	-0.0035771786
54	0xbd408bb9	-0.04700825
55	0xbd567289	-0.052355323
56	0xbd39c3b1	-0.04535264
57	0x3d21e98e	0.039529376
58	0x3bcd1eb1	0.006259762
59	0x3d06afae	0.032882385
60	0x3c90b4cf	0.017664341
61	0xbceeb425	-0.029138634
62	0xbd84a536	-0.06476824
63	0x3d98a160	0.07452655
64	0xbd57e858	-0.052711815
65	0x3a0fe7b1	0.0005489542
66	0x3c6fbc0c	0.014632236
67	0xbd06250f	-0.032750186
68	0x3c1ea9e0	0.009684056
69	0xbd8db3fd	-0.06919096
70	0x3d07788f	0.033073958
71	0xbd323049	-0.04350308
72	0x3db0f16c	0.086397976
73	0x3d307294	0.04307802
74	0xbccbae10	-0.024863273
75	0xbd9071b7	-0.070529394
76	0xb96db3e7	-0.000226691
77	0x3ccb19ab	0.024792513
78	0xbc48f4c8	-0.012265392
79	0xbc119ba2	-0.008887203
80	0x3dcc85d3	0.099864624
81	0x3c9417b8	0.018077716
82	0xbdc48c54	-0.09597078
83	0x3d00073b	0.031256896
84	0x3c3e83de	0.011628119
85	0xbd778fd7	-0.06043991
86	0xbcb422d9	-0.021989273
87	0xbd5e0ceb	-0.05421154
88	0x3d539f29	0.05166546
89	0x3afcacb3	0.0019277543
90	0xbc8161fe	-0.015793797
91	0x3dc54ddc	0.09633991
92	0x3d56209c	0.052277192
93	0x3d3a864a	0.045538224
94	0x3c97c1db	0.018525055
95	0xbc5afccb	-0.013365935
96	0x3dae3f7c	0.085082024
97	0xbcc373c9	-0.023858922
98	0x3be56fd7	0.0070018577
99	0x3d3dff33	0.046385955
100	0x3d2ef76c	0.04271643
101	0x3cbf4c4a	0.023351807
102	0xbd44562a	-0.047933735
103	0xbd0385fd	-0.032110203
104	0x3d15c471	0.036564294
105	0xbdba4627	-0.09095412
106	0x3dc37f0b	0.09545716
107	0xbd856438	-0.06513256
108	0x3c92bf6b	0.01791354
109	0x3d988574	0.07447329
110	0xbce29806	-0.027660381
111	0x3dc69462	0.096962705
112	0x3d81f14b	0.06344851
113	0xbdb7c9b6	-0.0897402
114	0x3dc63010	0.09677136
115	0x3d84ce06	0.06484608
116	0x3d17709f	0.03697264
117	0xbc26aba1	-0.010172755
118	0xbdc513ae	-0.09622894
119	0xbcd771f0	-0.026299447
120	0x3dac373b	0.08408972
121	0xbd1ec74b	-0.03876428
122	0x3db86ce6	0.09005146
123	0xbdb96f3e	-0.09054421
124	0xbdb9db83	-0.09075072
125	0x3c877e59	0.01653974
126	0xbd88754c	-0.066629976
127	0xbdb2be4d	-0.08727703
128	0x3c0c90ea	0.008579472
129	0xbd997415	-0.07492844
130	0x3da9e53e	0.082956776
131	0xbda2f718	-0.07957286
132	0x3a5012db	0.000793738
133	0xbc8ba2a3	-0.017045325
134	0x3ce3fd6b	0.0278308
135	0x3d6584e0	0.056034923
136	0x3d5d7961	0.054070834
137	0xbd0662a2	-0.032808907
138	0x3dbafad3	0.09129872
139	0xbcf9ad1e	-0.030478057
140	0x3d7ffcec	0.062497064
141	0xbd65de0c	-0.056119964
142	0xbdb4cd33	-0.08828201
143	0xbd656c54	-0.056011513
144	0x3cf19a2a	0.029492456
145	0x3cc586d3	0.02411214
146	0x3d6e8fc1	0.058242563
147	0x3dc591af	0.096469276
148	0xbdaf7734	-0.08567658
149	0x3c5ea60a	0.0135893915
150	0x3db43da8	0.088008225
151	0xb8077ac2	-3.2300835e-05
152	0x3c30da30	0.010794207
153	0x3d029ed0	0.031889737
154	0x3d9ea90e	0.077470884
155	0x3d2c8229	0.042116318
156	0x3d969d68	0.073542416
157	0x3daa26f2	0.083082095
158	0x3cc73985	0.02431942
159	0x3dbd8040	0.09252977
160	0xbd8524a0	-0.06501126
161	0x3d74806e	0.059692793
162	0xbc4264ef	-0.011864885
163	0x3cfae623	0.030627316
164	0xbd13dffc	-0.03610228
165	0xbdc8cf4a	-0.09805162
166	0xbcfc500d	-0.03079989
167	0xbd4c9a4a	-0.04995183
168	0x3d8b8a9e	0.068135485
169	0x3db410ac	0.087922424
170	0x3d9ea45e	0.07746194
171	0x3d139505	0.036030788
172	0x3cce91ab	0.025215944
173	0x3d8a08a0	0.06739926
174	0xbcb14af3	-0.021642184
175	0xbd08efe8	-0.033431917
176	0x3c51ea69	0.012812235
177	0xbbcaeca6	-0.0061927615
178	0x3d4f9a72	0.0506844
179	0x3d25332e	0.040332012
180	0xbd38ea0e	-0.045145087
181	0x3dc6f8e8	0.09715444
182	0x3d9c509d	0.07632563
183	0x3dc1a4dc	0.094552726
184	0xbdbb1d93	-0.091365
185	0xbcb6e44d	-0.02232566
186	0xbcc079bd	-0.02349555
187	0x3db98cb3	0.09060039
188	0xbcaea001	-0.02131653
189	0xbcb7732c	-0.022393785
190	0xbda0d20f	-0.078525655
191	0x3bd1657a	0.006390271
192	0xbd372d50	-0.044720948
193	0x3d5882e5	0.052859206
194	0x3ce3b1fc	0.02779483
195	0x3da490be	0.0803542
196	0xbd99dbd7	-0.07512634
197	0xbd56a4a2	-0.0524031
198	0xbd674d0f	-0.056469973
199	0xbd45b03c	-0.048263773
200	0x3d5e624a	0.054292955
201	0xbd632aa6	-0.055460595
202	0xbdcc503e	-0.099762425
203	0x3c4e5818	0.012594245
204	0xbdc9260d	-0.09821711
205	0x3d360a83	0.04444362
206	0x3d7a4e47	0.061109807
207	0xbbc1de9b	-0.005916429
208	0xbdc503ff	-0.09619903
209	0xbb303468	-0.0026886705
210	0xbb8d6b06	-0.0043157367
211	0x3d201769	0.039084826
212	0xbd8e23e2	-0.06940438
213	0xbd8b44d6	-0.06800239
214	0x3c8ea495	0.017412463
215	0x3d4cf499	0.050037954
216	0xbd759804	-0.059959427
217	0x3d29e05d	0.041473735
218	0x3d042363	0.03226031
219	0xbda45cc3	-0.080255054
220	0xbdbb9365	-0.09158973
221	0x3c10e6b2	0.008844065
222	0x3da3e929	0.08003456
223	0xbd0e1909	-0.034691844
224	0xbda2731e	-0.07932113
225	0x3d5be520	0.053685308
226	0xbd9f0bd1	-0.07765926
227	0x3c64b75e	0.013959734
228	0xbbe9a850	-0.00713066
229	0x3c6629ba	0.014048034
230	0x3d1485b7	0.036260333
231	0xbd6114ca	-0.054951467
232	0x3cc74140	0.024323106
233	0x3cd4af36	0.025962453
234	0xbcf55654	-0.029948391
235	0x3cedf6db	0.029048374
236	0xbcfa5fb7	-0.030563219
237	0xbd916e35	-0.071010984
238	0xbd5c499b	-0.053781133
239	0x3d9c5c0f	0.07634746
240	0xbbf95dba	-0.00761005
241	0xbc0e9b7f	-0.008704065
242	0xbd070a29	-0.032968674
243	0xbdbe1140	-0.09280634
244	0x3d948e0f	0.07253658
245	0x3d98516b	0.07437404
246	0xbd8a8a15	-0.06764618
247	0x3d9b6e7b	0.07589432
248	0xbd835f01	-0.06414605
249	0xbd320fc2	-0.04347206
250	0x3d5e9e6f	0.054350313
251	0xbcfcbd66	-0.030852031
252	0x3d8d761e	0.06907295
253	0x3c2feb67	0.010737277
254	0x3d8f8d1f	0.070093386
255	0xbc2dadd5	-0.010600527

rnn.bias_ih_l0 f4 [300]
0	0xbabcc7fc	-0.0014402862
1	0xbd92e99a	-0.07173462
2	0xbd836ad2	-0.06416859
3	0x3d818631	0.06324423
4	0xbbba39f3	-0.0056831776
5	0xbd066e6c	-0.03282015
6	0x3d7e6084	0.062103763
7	0x3b965538	0.0045877956
8	0xbd875ed6	-0.066098854
9	0x3ca4d82f	0.020122616
10	0x3d95a1f7	0.07306283
11	0x3d5eb82d	0.054374862
12	0x3d72eb27	0.05930629
13	0x3cd3f466	0.025873374
14	0xbd6a4ad0	-0.057200253
15	0xbda18461	-0.078865774
16	0xbdbc35e5	-0.09189967
17	0xbd04a386	-0.03238251
18	0xbda72a1a	-0.08162327
19	0xbcb23570	-0.021753997
20	0x3d581914	0.05275829
21	0x3d7b66eb	0.061377447
22	0x3d231cb8	0.03982231
23	0x3c1505b7	0.009095601
24	0xbdab6f98	-0.08370894
25	0xbd0c4fb2	-0.03425569
26	0xbda04214	-0.078251034
27	0xbd109c3d	-0.03530525
28	0xbd42266c	-0.047399923
29	0xbd10d1e7	-0.03535643
30	0xbcdfc1fb	-0.027314177
31	0xbd4b0aab	-0.04957072
32	0xbcebe1c1	-0.028794171
33	0x3d94b524	0.07261112
34	0xbd8cee57	-0.06881397
35	0x3c30f541	0.010800661
36	0xbd292775	-0.041297395
37	0x3cc8df39	0.024520503
38	0xbc9d9ee4	-0.019240804
39	0x3da582ec	0.08081612
40	0xbd905c71	-0.07048882
41	0xbd4939ed	-0.049127508
42	0xbd85d2e6	-0.06534366
43	0x3dbbc9f0	0.09169376
44	0xbc1ff947	-0.009764022
45	0x3d2d14b1	0.04225606
46	0xbd7b7c38	-0.06139776
47	0xbd8d2cd1	-0.06893314
48	0xbb30d9ab	-0.002698521
49	0x3d5ae5d6	0.053441845
50	0xbd86a47f	-0.06574344
51	0x3d9dd5dc	0.07706806
52	0x3cf3f989	0.029782074
53	0xbd981743	-0.07426312
54	0xbdb62b2c	-0.08894953
55	0xbd2c44a3	-0.042057645
56	0x3b49e02a	0.0030803778
57	0x3da3d509	0.079996176
58	0xbbd6c8d1	-0.006554701
59	0xbd8b58a2	-0.06804015
60	0xbcc765c9	-0.024340527
61	0xbd1d1c71	-0.038357202
62	0x3ca11439	0.019662963
63	0xbd66fa25	-0.0563909
64	0xbbc5d254	-0.006037036
65	0xbd50755c	-0.050893173
66	0x3d95af05	0.07308773
67	0x3cd6140f	0.026132612
68	0x3dbd16e2	0.0923288
69	0x3b51c432	0.003200781
70	0x3d4de4fc	0.050267205
71	0xbda50423	-0.0805743
72	0x3d8bd431	0.06827582
73	0x3cf6af4e	0.030112889
74	0xbd280029	-0.041015778
75	0xbb673f42	-0.0035285507
76	0xbdcaaba5	-0.0989602
77	0xbd5d31ee	-0.054002695
78	0x3db2b1b9	0.08725304
79	0x3c391e9d	0.011298803
80	0x3d998db4	0.07497731
81	0xbdb954c6	-0.090493724
82	0xbd0a2243	-0.03372408
83	0xbc64e2d3	-0.013970095
84	0xbd559dd0	-0.052152455
85	0x3da87928	0.08226234
86	0xbcdbfd71	-0.026854249
87	0x3b78eb74	0.0037982138
88	0x3d90bfc8	0.07067829
89	0x3c52d69f	0.0128685525
90	0xbdb48b5a	-0.08815642
91	0x3d8bc7c7	0.06825214
92	0x3ceab6b3	0.02865157
93	0xbd8f9f49	-0.07012803
94	0x3d98c31d	0.0745909
95	0xbd6be466	-0.057590865
96	0xbd1fd513	-0.039021563
97	0xb9ccabb8	-0.00039037853
98	0xbcc96a25	-0.024586746
99	0x3dabd5cb	0.08390387
100	0xbd3440f8	-0.04400727
101	0xbbd8184e	-0.006594694
102	0xbd7724b7	-0.06033775
103	0xbd087dea	-0.033323206
104	0x3d9af0b9	0.075654455
105	0x3c73b00a	0.014873514
106	0xbd0a775d	-0.03380524
107	0xbda22922	-0.07918002
108	0x3b810c4f	0.003938235
109	0xbd099999	-0.033593748
110	0x3dcdc4cc	0.10047302
111	0x3d914d06	0.07094769
112	0x3ccd78bc	0.025081985
113	0xbda89a47	-0.08232551
114	0xbbc49ec5	-0.006000372
115	0xbdc06465	-0.09394149
116	0xbd417ea2	-0.047239907
117	0x3dc39a3e	0.09550904
118	0x3d1fa627	0.038976815
119	0xbc1079ea	-0.008818129
120	0xbd164c92	-0.036694117
121	0x3d2a9825	0.041649003
122	0x3d8962ef	0.06708323
123	0xbb138e05	-0.002251507
124	0xbd932ce8	-0.071862996
125	0xbdc126a1	-0.09431196
126	0xbd2660f1	-0.040619794
127	0x3bbbc643	0.0057304217
128	0x3ce36b09	0.027761
129	0xbbf11ae5	-0.0073579424
130	0x3dbe9500	0.09305763
131	0xbbe5d687	-0.007014099
132	0xbdb75721	-0.089521654
133	0x3d903c8c	0.070427984
134	0xbdc8b9fe	-0.098011
135	0x3d8f9027	0.07009917
136	0x3b92158f	0.0044581364
137	0x3d4394dd	0.04774939
138	0x3d4a41b5	0.04937907
139	0x3d41a180	0.04727316
140	0x3d81ea4f	0.06343519
141	0x3cdca5de	0.02693456
142	0xbd204813	-0.039131235
143	0x3ca1ed3f	0.019766448
144	0x39d8b940	0.00041336752
145	0xbd18ffa4	-0.037353173
146	0xbd761f36	-0.06008836
147	0xbc1c95d7	-0.009557209
148	0xbd9c5ec2	-0.07635261
149	0xbda0cf7d	-0.07852075
150	0x3cfee407	0.031114591
151	0xbd9f1fda	-0.07769747
152	0x3db4fdbc	0.088374585
153	0x3c7753e6	0.015095687
154	0xbceb9986	-0.02875973
155	0xbc87c0f0	-0.016571492
156	0xbd041f7a	-0.03225658
157	0xbdc0f17d	-0.0942106
158	0x3d009c52	0.03139908
159	0x3d43e475	0.047825295
160	0xbc16d95c	-0.009207096
161	0xbc826120	-0.015915453
162	0xbd5f7915	-0.054558832
163	0xbdc2ec83	-0.09517767
164	0x3d391b57	0.04519209
165	0xbd814fbd	-0.06314037
166	0x3d591b27	0.05300441
167	0x3d9ac59b	0.075572215
168	0xbc182d97	-0.009288213
169	0xbdc1fb04	-0.094717056
170	0xbd9a353c	-0.07529685
171	0xbc0fc7da	-0.008775676
172	0x3d0186c0	0.03162265
173	0x3daace05	0.08340076
174	0xbc8df6bc	-0.017329566
175	0x3d1ded54	0.03855641
176	0xbc9c480c	-0.019077323
177	0x3ce33a7a	0.027737845
178	0x3d855978	0.065112054
179	0xbdb853f1	-0.090003856
180	0x3d168011	0.036743227
181	0xbcd74757	-0.026279135
182	0xbd84c240	-0.06482363
183	0xbd235fcb	-0.039886277
184	0x3d51fef6	0.05126854
185	0xbb8d586e	-0.00431352
186	0x3d994ef2	0.07485761
187	0xbd6b8ea6	-0.057509087
188	0x3cf02345	0.029313693
189	0xbd944b3e	-0.07240914
190	0x3d9c5dcc	0.07635078
191	0xbc102b03	-0.008799317
192	0x3da8bfed	0.08239732
193	0x3d84b277	0.06479352
194	0x3da5f27c	0.08102891
195	0xbda70016	-0.08154313
196	0x3d80d87a	0.0629129
197	0xbd851d97	-0.064997844
198	0x3db3b8b9	0.087754674
199	0x3dc4680a	0.095901564
200	0xbd96f56f	-0.073710315
201	0x3c72fdbf	0.014831006
202	0x3dc9a2de	0.098455176
203	0x3dabe255	0.08392779
204	0xbd72eaaa	-0.059305824
205	0x3d9eea3a	0.07759519
206	0xbdbb116b	-0.091341816
207	0xbdb63406	-0.088966414
208	0x3dc5adc8	0.09652287
209	0xbd3a62df	-0.045504447
210	0xbd2502a1	-0.04028571
211	0xbdb2ac2f	-0.08724248
212	0x3d86da23	0.06584575
213	0xbd257895	-0.0403982
214	0x3d40edc7	0.047101762
215	0xbd405ecb	-0.0469654
216	0xbc179c53	-0.009253579
217	0xbb998386	-0.0046848683
218	0x3ce21428	0.027597502
219	0x3cd43f98	0.02590923
220	0xbd6ce83c	-0.057838663
221	0x3cfab1e2	0.0306024
222	0xbc5bd756	-0.013418039
223	0x3d05a903	0.032631885
224	0x3b2cb96a	0.0026355633
225	0xbbd4c1f1	-0.006492846
226	0xbd506d72	-0.050885625
227	0xbc9abb8a	-0.018888254
228	0x3d8582dd	0.06519101
229	0xbd261b71	-0.040553514
230	0x3bad6f61	0.0052928184
231	0x3d885d06	0.06658368
232	0xbda05524	-0.07828739
233	0x3d8eb418	0.06967944
234	0x3c15b07c	0.009136315
235	0x3d3f21dc	0.04666315
236	0x3d4bb651	0.049734417
237	0x3d5e8641	0.054327253
238	0x39422936	0.00018516634
239	0x3c85830d	0.016297841
240	0xbc9117c2	-0.017711524
241	0x3d393b7b	0.04522274
242	0xbd8cf0e1	-0.068818815
243	0x3c90cba9	0.017675238
244	0x3c93a635	0.01802359
245	0x3d60abee	0.054851465
246	0xbdb2bfc6	-0.08727984
247	0xbd6f9a39	-0.058496688
248	0xbd54df62	-0.051970847
249	0xbdab0508	-0.08350569
250	0x3dc15180	0.09439373
251	0x3d9482e9	0.07251532
252	0xbd9b3715	-0.075788654
253	0x3cce6915	0.025196591
254	0x3cfa8c9e	0.03058463
255	0x3d3f6efa	0.046736695

rnn.bias_hh_l0 f4 [300]
0	0xbd8e1a39	-0.06938595
1	0xbd4f512d	-0.050614525
2	0xbd3c1ad3	-0.04592402
3	0xbdc90e5e	-0.098171934
4	0xbca879dd	-0.020565921
5	0xbd5e85e3	-0.054326903
6	0xbccdcb10	-0.025121242
7	0x3cae99b6	0.02131353
8	0xbd607b0c	-0.054804847
9	0xbdc21d3b	-0.094782315
10	0xbd9c60ee	-0.07635675
11	0x3d5409a1	0.051766995
12	0xbdc708af	-0.09718453
13	0xbae57d47	-0.0017508649
14	0xbd2eb60d	-0.042654086
15	0xbdaf65bc	-0.08564326
16	0xbc0fefa9	-0.008785167
17	0x3d34daf4	0.044154122
18	0xbd00321f	-0.0312978
19	0xbd45e9a5	-0.048318524
20	0x3d9996db	0.074994765
21	0xbdaa3372	-0.08310594
22	0x3bd2daf4	0.0064347927
23	0x3d66fa01	0.056390766
24	0x3d8c06f7	0.06837266
25	0xbc018c20	-0.007906944
26	0xbd9135b7	-0.070903234
27	0xbdc4d8b1	-0.09611643
28	0x3d7ed87b	0.06221817
29	0xbca73a5b	-0.020413568
30	0x3dc81adf	0.0977075
31	0xbd5dce05	-0.054151554
32	0xbd1092a6	-0.035296105
33	0xbdbb52b6	-0.09146635
34	0xbcccb786	-0.024989855
35	0x3da2eca8	0.07955295
36	0xbbd31825	-0.0064420872
37	0xbdbd30d9	-0.092378326
38	0x3cd1b3a9	0.025598364
39	0xbdb7c38e	-0.08972846
40	0xbd887633	-0.0666317
41	0xbc975629	-0.018473702
42	0x3b8d591e	0.004313602
43	0xbd899082	-0.06717016
44	0x3db5d2e0	0.08878112
45	0x3db78fe3	0.08962991
46	0xbd20bdfb	-0.03924368
47	0xba113f0d	-0.00055407063
48	0x3d8d83b8	0.06909889
49	0xbbb1c5e7	-0.005425203
50	0x3d2d0b37	0.042247023
51	0xbcdaa28d	-0.026688838
52	0xbd43bc80	-0.04778719
53	0x3dc38ec7	0.09548717
54	0xbd77bacd	-0.06048088
55	0x3c6f568e	0.014608039
56	0x3d953289	0.072850294
57	0x3dbc210f	0.09185993
58	0xbd8d08c6	-0.06886439
59	0x3d787529	0.060658608
60	0x38fef1ad	0.000121566794
61	0xbd857f72	-0.06518449
62	0xbd429430	-0.047504604
63	0x3cd94883	0.026523834
64	0xbd9d3a17	-0.076770954
65	0xbd0a936f	-0.03383201
66	0xbdb49d9a	-0.088191226
67	0xbd109d0d	-0.035306025
68	0x3d4b412f	0.04962271
69	0xbd29806b	-0.041382235
70	0xbd940657	-0.07227772
71	0xbd984633	-0.074352644
72	0x3b776810	0.0037751235
73	0xbd4d2675	-0.050085504
74	0xbd8088ab	-0.06276067
75	0xbcb924f6	-0.022600632
76	0xbc5bcaaa	-0.013415018
77	0x3d5231cc	0.05131702
78	0xbcb55d50	-0.022139221
79	0xbd95ab7d	-0.073080994
80	0xbc25c896	-0.010118624
81	0xbda33301	-0.079687126
82	0xbd3b4703	-0.04572202
83	0x3d545808	0.051841766
84	0xbcfcd597	-0.030863566
85	0x3c56b1f8	0.0131039545
86	0x3d0ca080	0.034332752
87	0xbd37b5e6	-0.044851206
88	0x3d3bbc8c	0.04583411
89	0x3bf3b96d	0.007437876
90	0xbbb5916d	-0.0055410177
91	0x3db36b87	0.087607436
92	0xbca16a34	-0.019703962
93	0x3d830132	0.06396712
94	0xbce88bde	-0.028387006
95	0xbd8cdd26	-0.06878118
96	0xbcc1bab9	-0.023648607
97	0x3d980ba4	0.07424095
98	0xbdbdeaaa	-0.09273274
99	0xbdc8d5ff	-0.098064415
100	0x3c112de3	0.008861038
101	0x3ca610e1	0.02027172
102	0xbc927276	-0.017876845
103	0xbd92ae56	-0.07162158
104	0x3dac932e	0.0842651
105	0x3c9c64b7	0.019090993
106	0xbda3c6ac	-0.07996878
107	0x3d7254cc	0.0591629
108	0x3d15673d	0.03647541
109	0x3d4b7064	0.04966773
110	0x3d3aec70	0.04563564
111	0xbdbe9f23	-0.09307697
112	0x3a5110f5	0.0007975244
113	0x3d6500cf	0.055908974
114	0xbd84c514	-0.06482902
115	0xbd2927f6	-0.041297875
116	0xbd642e5f	-0.055708285
117	0x3d8a24a6	0.067452714
118	0x3d727521	0.059193734
119	0x3d050229	0.032472763
120	0x3d04522e	0.032304935
121	0x3bf7d4f2	0.007563227
122	0xbd9a6a26	-0.075397775
123	0x3d4ba817	0.04972085
124	0xbd169785	-0.036765594
125	0xbda42106	-0.08014111
126	0x3dc14cf2	0.09438504
127	0xbd43af14	-0.04777439
128	0x3d066b4f	0.03281718
129	0xbd66a351	-0.056308094
130	0xbd59cfbb	-0.053176623
131	0x3dbe6f3b	0.09298559
132	0x3d27071f	0.040778276
133	0xbd76b5a8	-0.060231835
134	0xbd0d24ed	-0.034459043
135	0xbc47df6e	-0.012199266
136	0x3b8eef43	0.0043620183
137	0xbc190281	-0.009338976
138	0xbb07d5a2	-0.00207267
139	0xbd4b11b7	-0.04957744
140	0xbc1ec6f0	-0.009690985
141	0x3d98fc6e	0.07470022
142	0xbd841c0f	-0.06450664
143	0xbce4d64f	-0.027934222
144	0x3d3c8134	0.046021655
145	0xbca75e45	-0.020430693
146	0x3dbe21bc	0.09283778
147	0x3dbdc25c	0.09265587
148	0x3b81ad54	0.00395743
149	0x3daca252	0.08429398
150	0xbcf8734f	-0.03032842
151	0xbc97ff9b	-0.0185545
152	0x3ab66e80	0.001391843
153	0x3c9c6848	0.019092694
154	0xbc6775f2	-0.014127241
155	0x3dc3f202	0.09567644
156	0xbc04e134	-0.008110333
157	0x3dad5b8c	0.08464727
158	0x3d279283	0.04091121
159	0x3d6dd442	0.058063753
160	0xbd8fc700	-0.07020378
161	0xbd591237	-0.052995887
162	0xbd29b8a2	-0.041435845
163	0x3c98d66a	0.018656928
164	0xba756ec3	-0.0009362513
165	0xbd3c0b8b	-0.045909446
166	0x3c4c4efc	0.012470003
167	0x3ccd17b3	0.025035715
168	0x3d4fb0a8	0.050705582
169	0xbd5b78af	-0.05358189
170	0xbd9d9152	-0.07693733
171	0xbba780fd	-0.005111812
172	0xbdb5cb82	-0.08876707
173	0xbdaee48d	-0.08539686
174	0xbd870eb0	-0.06594598
175	0xba069f99	-0.0005135476
176	0x3d803f71	0.062621005
177	0x3dbe984d	0.09306393
178	0xbd5e3492	-0.054249354
179	0x3d7bff59	0.061522815
180	0xbc35e129	-0.011101046
181	0x3cf2007c	0.029541247
182	0x3d5c7d49	0.05383042
183	0x3d488cf3	0.048962545
184	0x3cff566d	0.03116914
185	0x3cdee7bd	0.02721011
186	0x3d91cd77	0.071192674
187	0x3dafc028	0.08581573
188	0xbd6d1e2a	-0.057890095
189	0x3cc23916	0.023708861
190	0x3d86c91f	0.065813296
191	0xbd33b298	-0.043871492
192	0x3d54adc9	0.051923547
193	0x3d463376	0.04838892
194	0x3d130699	0.035894964
195	0x3d7e6661	0.062109355
196	0x3d35f427	0.044422295
197	0xbd02d8e8	-0.03194514
198	0xbd1aca3f	-0.037790533
199	0xbd608561	-0.0548147
200	0xbd5c2b1f	-0.05375206
201	0xbd20b12e	-0.03923147
202	0xbb3ac2b3	-0.0028497397
203	0x3d9310da	0.071809486
204	0xbd4d78ce	-0.050164036
205	0xbd392830	-0.04520434
206	0x3dcaf8cb	0.09910735
207	0x3d943faf	0.07238709
208	0x3d265651	0.04060966
209	0xbd57a4a3	-0.052647244
210	0x3d880467	0.06641465
211	0x3d835ec5	0.0641456
212	0x3da6911f	0.081331484
213	0xbd739059	-0.059463833
214	0x3c8f4deb	0.017493209
215	0xbd86b090	-0.065766454
216	0xbd7a6f78	-0.06114146
217	0xbc981bb5	-0.0185679
218	0x3da8ddf4	0.08245459
219	0x3caddb5d	0.021222765
220	0xbc07bfed	-0.008285505
221	0x3dbfe2e3	0.09369447
222	0xbd8a1490	-0.06742203
223	0x3d599ae2	0.053126223
224	0x3da9fe93	0.08300509
225	0x3d9dff41	0.077147014
226	0xbcf4c332	-0.029878233
227	0xbc1da70e	-0.0096223485
228	0x3dc415f6	0.09574501
229	0x3d1f9147	0.038956907
230	0x3c808ff5	0.015693644
231	0xbda8c522	-0.08240725
232	0x3bd8a0fe	0.0066109886
233	0xbce325ab	-0.027727922
234	0xbc6e2517	-0.01453521
235	0xbc2a0481	-0.01037705
236	0xbd66adbe	-0.056318037
237	0x3d5f27e9	0.05448142
238	0x3d071522	0.03297914
239	0xbdc15dd9	-0.09441728
240	0xbda9650b	-0.082712255
241	0xbcfbf230	-0.030755132
242	0xbce07f87	-0.02740456
243	0xbd5e1d2c	-0.05422704
244	0x3da37662	0.07981564
245	0xbd8d1572	-0.06888856
246	0xbd4dc105	-0.050232906
247	0xbd94db9f	-0.07268452
248	0xbd6cfd1e	-0.05785858
249	0xba0ecc48	-0.00054473104
250	0xbdafe7fc	-0.085891694
251	0xbdc37cb3	-0.09545269
252	0xbcd95df4	-0.026534058
253	0x3c63897d	0.01388776
254	0xbce4de25	-0.027937958
255	0x3db8ced5	0.09023825

fc_out1.weight f4 [50, 100]
0	0x3d5b59c0	0.05355239
1	0xbd2a62a4	-0.041597977
2	0xbdc6c59a	-0.09705658
3	0x39deb129	0.00042475134
4	0x3d852975	0.06502048
5	0xbdbb1aca	-0.09135969
6	0xbdb1a055	-0.08673159
7	0xbd6fd1e5	-0.05854978
8	0xbd82178f	-0.0635215
9	0xbdc5adf7	-0.09652322
10	0xbc9f4e29	-0.01944645
11	0xbc9074b0	-0.017633766
12	0x3d95dbdb	0.07317325
13	0xbd154e6e	-0.03645175
14	0xbdbbecde	-0.09176038
15	0xbd36979a	-0.044578172
16	0xbd033b5f	-0.032039043
17	0x3d986de8	0.07442838
18	0xbd411382	-0.047137745
19	0x3d4bddb9	0.049771998
20	0x3ba95a62	0.005168245
21	0xbce73ee8	-0.028228238
22	0xbd2abb0f	-0.0416823
23	0x3c7cefbf	0.015438019
24	0x3ba0b1ac	0.0049039926
25	0x3da44141	0.08020259
26	0xbbd0cb14	-0.006371865
27	0x3c80dedf	0.015731273
28	0x3d905e1c	0.070492
29	0xbd8f03f4	-0.06983176
30	0x3c3fc09f	0.011703639
31	0x3d3fcee7	0.046828177
32	0x3c18e785	0.009332542
33	0xbdafd34f	-0.08585226
34	0xbd077591	-0.033071104
35	0xbd933380	-0.07187557
36	0x3db79258	0.0896346
37	0x3dca0190	0.09863579
38	0xbd50e933	-0.051003646
39	0xbd149418	-0.036274046
40	0x3d0d008e	0.034424357
41	0xbdbcb6f7	-0.09214585
42	0x3cc168fb	0.023609629
43	0x3d1f78a8	0.038933426
44	0x3cc557e1	0.024089755
45	0x3ca4653b	0.020067802
46	0xbd2dbb8c	-0.042415187
47	0x3d8f72d8	0.070043266
48	0x3d8b2d23	0.067957185
49	0xbda91215	-0.08255402
50	0xbbe7ba2d	-0.0070717544
51	0x3d116ed9	0.035506103
52	0xbd66b326	-0.056323193
53	0xbd435c40	-0.0476954
54	0xbdb62d5e	-0.08895372
55	0x3db4d377	0.08829396
56	0x3d109ee6	0.035307787
57	0x3cd9b164	0.026573844
58	0x3c8db9ca	0.017300505
59	0x3ccbde44	0.024886258
60	0x3bb3aa2b	0.005482932
61	0xbd58b1ea	-0.052904047
62	0xbd5e0c1d	-0.05421077
63	0x3d9a86a6	0.075452134
64	0xbcf7af85	-0.030235061
65	0x3d829394	0.063758045
66	0xbd22d6fd	-0.03975581
67	0x3d5e3f6e	0.05425971
68	0xbd81547e	-0.06314944
69	0xbc3cbc5a	-0.011519516
70	0xbdc1449c	-0.09436914
71	0xbd7068a4	-0.058693543
72	0xbda5391e	-0.08067535
73	0x3d2f4a18	0.04279527
74	0x3db666e7	0.08906346
75	0xbdae2098	-0.085023105
76	0xbda56d93	-0.0807754
77	0x3d61cfdb	0.055129867
78	0xbdad5370	-0.0846318
79	0x3c32f037	0.0109215295
80	0xbd91a91d	-0.07112334
81	0xbc4a52d5	-0.01234885
82	0xb9bc99d4	-0.00035972765
83	0xbcfa1d82	-0.030531649
84	0xbd42a13e	-0.047517054
85	0xbc733f49	-0.014846631
86	0x3d8cc016	0.06872575
87	0x3d356756	0.044288002
88	0xbd5b85c2	-0.05359436
89	0x3db8d9a9	0.090258904
90	0x3d5dae5f	0.05412137
91	0xbce9693a	-0.028492559
92	0xbd0691e0	-0.03285396
93	0x3c89375f	0.016750036
94	0x3d61f740	0.055167437
95	0xbdbe6039	-0.09295697
96	0xbd4be3c9	-0.04977778
97	0x3b91d8b5	0.0044508823
98	0xbcfb6770	-0.030688971
99	0xbd5e67b3	-0.054298114
100	0x3c788b56	0.015169939
101	0xbdb0ec66	-0.086388394
102	0x3d8547d8	0.06507844
103	0x3d34652f	0.04404181
104	0xbcd976ff	-0.026546
105	0x3bcaa349	0.006184016
106	0xbd6590be	-0.05604624
107	0xbd5df65b	-0.05419002
108	0x3d0a05a5	0.03369679
109	0x3c448728	0.011995114
110	0xbd7575f8	-0.059926957
111	0xbd2229cf	-0.039590653
112	0x3da3d5b1	0.07999743
113	0x3d80a730	0.062818885
114	0xbd916f46	-0.07101302
115	0xbd1e0275	-0.038576562
116	0xbd227c5c	-0.03966938
117	0xbdc54be6	-0.09633617
118	0x3d71919f	0.058976766
119	0xbce4a111	-0.027908834
120	0xbc965a8d	-0.018353725
121	0x3d8f9f4c	0.07012805
122	0x3d5248f1	0.051339094
123	0xbd0b3741	-0.03398824
124	0xbd942e60	-0.07235408
125	0x3dab9192	0.08377375
126	0xbb90fc0d	-0.004424578
127	0x3d651669	0.055929575
128	0x3da5f17b	0.08102699
129	0x3d413b2e	0.04717558
130	0x3d161b13	0.036646914
131	0xbd86ddf5	-0.06585304
132	0xbd2f07c1	-0.042732004
133	0x3cf0fbe9	0.029416995
134	0x3d70ce6d	0.058790613
135	0xbdae3c18	-0.08507556
136	0x3da9df56	0.08294551
137	0xbdc20020	-0.0947268
138	0x3d1f097f	0.038827416
139	0xbd9e58dc	-0.07731792
140	0x3c9a715a	0.018852878
141	0x3d3cccb4	0.046093658
142	0xbafde701	-0.0019371213
143	0x3db3f2f6	0.087865755
144	0x3dbe0461	0.09278179
145	0xbd753355	-0.059863407
146	0x3d85ec08	0.0653916
147	0xbd9920a0	-0.07476926
148	0xbcd94e5e	-0.026526626
149	0xbd2eb854	-0.042656258
150	0x3d60fcd9	0.054928634
151	0x3c8791f0	0.01654908
152	0x3dab9d09	0.083795615
153	0xbda5fbe6	-0.081046864
154	0x3d1d5b1b	0.038416963
155	0xbcda72b5	-0.026666025
156	0x3c9ad865	0.018902013
157	0x3d4c38d7	0.049858894
158	0x3a6701aa	0.00088121986
159	0xbd2b66a6	-0.04184594
160	0x3d317754	0.04332669
161	0x3b2eac63	0.0026653043
162	0xbd54d044	-0.05195643
163	0x3d5570f6	0.05210968
164	0xbd7321b5	-0.059358317
165	0x3dc6321c	0.09677526
166	0xbd4613a1	-0.048358563
167	0xbc29067d	-0.010316488
168	0x3dc68d0b	0.096948706
169	0x3c0eae3b	0.008708532
170	0x3dad38a6	0.084580705
171	0x3dbf0768	0.093275845
172	0x3d221e66	0.03957977
173	0xbd4804ed	-0.048832823
174	0x3c9466c9	0.018115418
175	0x3ca77f62	0.020446483
176	0x3cb135de	0.021632131
177	0xbc8e6f9e	-0.017387208
178	0x3d095f58	0.033538193
179	0x3d804856	0.06263797
180	0xbd9490f3	-0.07254209
181	0x3c877756	0.016536396
182	0xbcc2b9be	-0.02377021
183	0xbd26d683	-0.040731918
184	0x3cb41992	0.02198485
185	0xbd423795	-0.04741629
186	0xbd9e1b40	-0.07720041
187	0xbd72eff7	-0.05931088
188	0xbdb11a2c	-0.0864757
189	0x3d4fdcb5	0.050747592
190	0xbd69dd71	-0.05709595
191	0x3c02827a	0.007965678
192	0xbd9b031b	-0.07568952
193	0x3da8316e	0.08212553
194	0x3d32141e	0.043476216
195	0x3d1f068f	0.038824614
196	0x3da87318	0.082250774
197	0xbd0c5043	-0.03425623
198	0x3d6052ea	0.054766573
199	0x3d083b51	0.033259694
200	0xbd258afa	-0.04041574
201	0xbceaa0da	-0.028641153
202	0x3d84a517	0.06476801
203	0xbdca0f38	-0.09866184
204	0x3dbdf45a	0.09275122
205	0xbdc9d35d	-0.098547675
206	0x3d2a62ca	0.04159812
207	0x3cf0a57a	0.02937578
208	0xbb119767	-0.0022215487
209	0x3cad64cd	0.02116623
210	0xbdb49413	-0.088173054
211	0xbd039253	-0.032121968
212	0x3ccbcd53	0.02487818
213	0x3ccc4ff3	0.024940467
214	0xbc8bdf87	-0.01707436
215	0xbda978f5	-0.08275024
216	0xbdb64175	-0.08899204
217	0xbd23f18d	-0.040025283
218	0x3d839ef2	0.06426801
219	0x3d001cea	0.031277575
220	0xbd03b207	-0.032152202
221	0xbd0323cd	-0.032016564
222	0xbd1d34d7	-0.03838047
223	0x3a89f0cd	0.0010524035
224	0x3da66212	0.08124174
225	0xbd190273	-0.03735585
226	0x3c05124d	0.008122039
227	0xbd3f4487	-0.046696212
228	0x3dc5aecf	0.09652483
229	0xbb890533	-0.004181528
230	0xbd1aa140	-0.037751436
231	0xbd677dfa	-0.056516625
232	0xbc3869b3	-0.011255669
233	0x3d0c550d	0.0342608
234	0xbd3ee0c0	-0.046601057
235	0xbd77578a	-0.060386218
236	0xbd5d67da	-0.05405412
237	0x3ccdfff3	0.02514646
238	0x3d264537	0.040593352
239	0x3dc11d60	0.09429431
240	0x3d9ed1cf	0.077548616
241	0x3908d99a	0.00013051034
242	0xbdbd1a28	-0.092335045
243	0x3d0bc75d	0.034125675
244	0xbc27d19a	-0.010242844
245	0x3d896dbf	0.067103855
246	0x3daf866b	0.0857056
247	0x3d73ec53	0.05955155
248	0xbc1ea900	-0.009683847
249	0xbd0beafd	-0.03415965
250	0x3d132ec3	0.035933267
251	0xbd898223	-0.06714275
252	0xbcb1c160	-0.021698654
253	0x3dcc3408	0.09970862
254	0xbd74b793	-0.059745383
255	0xbda0cc4d	-0.07851467

fc_out1.bias f4 [50]
0	0xbd16ee1e	-0.03684818
1	0xbd041ff5	-0.03225704
2	0xbdb7401a	-0.08947773
3	0xbd8f2e30	-0.069912314
4	0xbc6713b2	-0.014103817
5	0x3c3ea82f	0.011636778
6	0x3adce200	0.0016852021
7	0xbda86d13	-0.08223929
8	0x3cb59c60	0.022169292
9	0x3b9a68b0	0.0047121868
10	0xbd147582	-0.036244877
11	0xb8bd0a04	-9.014088e-05
12	0x3d121086	0.03566029
13	0x3d3d16e6	0.046164416
14	0x3d93d0ec	0.07217583
15	0xbd7a6997	-0.061135855
16	0xbca37c45	-0.019956717
17	0xbdbde12b	-0.09271463
18	0x3d432a8b	0.047647994
19	0x3d85922a	0.06522019
20	0x3cc35ee6	0.023848962
21	0x3d0d163d	0.034445036
22	0x3d9ff1fe	0.07809828
23	0x3d8556c2	0.06510688
24	0x3d669012	0.05628974
25	0xbc8c0646	-0.017092835
26	0x3d8b0047	0.06787162
27	0x3d8952d0	0.06705248
28	0xbd75321e	-0.05986225
29	0xbb890b28	-0.004182238
30	0xbbb3a3be	-0.005482166
31	0xbd9f1b65	-0.07768897
32	0x3d70de16	0.058805548
33	0x3caad4ec	0.020853482
34	0x3d7c2eed	0.06156819
35	0xbd433efa	-0.04766748
36	0xbcdd5773	-0.027019238
37	0x3dabf17f	0.08395671
38	0x3d5f1e23	0.0544721
39	0xbda9c83f	-0.08290147
40	0x3b052900	0.0020318627
41	0xbd52d0ea	-0.051468767
42	0x3d2734a7	0.040821698
43	0xbcf25260	-0.029580295
44	0x3cb863d4	0.02250854
45	0xbc89fb09	-0.016843336
46	0x3d040eea	0.032240786
47	0xbdbd46cf	-0.09242021
48	0xbd37d283	-0.044878494
49	0x3d82763c	0.06370208

fc_out.weight f4 [2, 50]
0	0x3cba75e2	0.022761289
1	0xbd391fa0	-0.045196176
2	0xbc8b1462	-0.016977493
3	0xbd1bcbe6	-0.03803625
4	0xbd2bc17d	-0.04193257
5	0xbe0f0a82	-0.13968852
6	0xbc42c165	-0.011886929
7	0x3b3ce709	0.002882423
8	0xbc9f6543	-0.019457465
9	0x3e034432	0.12818983
10	0xbd9932e6	-0.07480411
11	0xbd3c27ff	-0.04593658
12	0x3d3f8e97	0.046766844
13	0x3d68b707	0.056815173
14	0xbd4db1ec	-0.050218508
15	0xbda78ef2	-0.081815615
16	0xbd5c4294	-0.05377443
17	0x3d7ca45b	0.06168018
18	0x3de23802	0.11045839
19	0x3c3f00ec	0.011657935
20	0x3ccb65a3	0.024828738
21	0x3d149f03	0.036284458
22	0xbdc6207a	-0.09674163
23	0x3dfc3594	0.12314907
24	0x3daf2018	0.08551043
25	0x3d647ed0	0.055785
26	0x3d54b3e8	0.051929384
27	0xbe00ac3d	-0.12565704
28	0xbc5d9efd	-0.013526675
29	0x3e05e088	0.13073933
30	0x3cc7117c	0.02430033
31	0xbdb753fd	-0.08951566
32	0x3dd956fc	0.10612294
33	0x3d9cd9e8	0.0765875
34	0x3d676a18	0.056497663
35	0x3d0e8fa8	0.03480497
36	0x3d43d7da	0.047813274
37	0xbdbd02de	-0.092290625
38	0x3dea54ef	0.11441981
39	0x3db6ba9e	0.08922313
40	0xbd8d48d9	-0.0689866
41	0x3b9e3002	0.0048275003
42	0xbd0d8b36	-0.03455659
43	0xbe01abe4	-0.12663227
44	0xbd1bbf4b	-0.038024228
45	0xbe031b4c	-0.12803382
46	0xbe05efed	-0.13079806
47	0x3e009aef	0.12559102
48	0xbe0f6f90	-0.14007401
49	0xbd17d008	-0.03706363
50	0x3e099396	0.13435206
51	0x3df03934	0.11729661
52	0xbd9857e9	-0.074386425
53	0xbd45b2fe	-0.048266403
54	0xbe0783a9	-0.13233818
55	0xbc297558	-0.010342918
56	0xbdbab27b	-0.09116074
57	0xbd623655	-0.055227596
58	0x3de1657b	0.11005684
59	0xbcbee833	-0.02330408
60	0xbda8b38c	-0.08237371
61	0x3c56a235	0.013100197
62	0xbcb2588e	-0.021770742
63	0x3cb6452c	0.02224978
64	0xbd2c4d47	-0.042065885
65	0xbd846f1f	-0.06466507
66	0x3e02ba32	0.1276634
67	0xbde46a81	-0.111531265
68	0x3d5fbd1d	0.05462371
69	0xbe10b939	-0.14133157
70	0xbd265b0b	-0.04061417
71	0x3dbb9efb	0.091611825
72	0xbd999ed6	-0.07500999
73	0x3d5fcc35	0.054638106
74	0x3d390b5c	0.04517685
75	0x3d6599eb	0.05605499
76	0x3c9a6f45	0.018851886
77	0x3c10f6fd	0.008847949
78	0xbd621ee1	-0.05520523
79	0xbe01729a	-0.12641373
80	0xbd440d50	-0.04786426
81	0x3df63111	0.120210774
82	0xb96d5368	-0.00022633153
83	0xbdf7dfd1	-0.121032365
84	0x3df37a47	0.11888557
85	0xbd4f3bd2	-0.05059416
86	0xbd6fb16c	-0.058518812
87	0xbc1e28ea	-0.009653309
88	0x3db45d01	0.088068016
89	0xbc780e5d	-0.015140143
90	0xbd9b8764	-0.07594183
91	0x3bbf748b	0.0058427504
92	0x3de0f173	0.10983553
93	0x3dda31c7	0.106540255
94	0x3d868ba9	0.06569607
95	0xbdd9b0b7	-0.10629409
96	0x3ddd7dd3	0.10815015
97	0xbdf9edc1	-0.12203551
98	0x3b3bb986	0.0028644516
99	0x3dce6b70	0.10079086

fc_out.bias f4 [2]
0	0x3e0172fb	0.12641518
1	0x3c8e90e6	0.017403077

exp_avg f4 [300, 2]
0	0x37d6a0da	2.558569e-05
1	0x37f1fa19	2.88459e-05
2	0x38b51b47	8.6358334e-05
3	0x38d1a212	9.9960846e-05
4	0x3708bb0b	8.149781e-06
5	0x374f99e6	1.2373994e-05
6	0xb6cf7ce8	-6.1836217e-06
7	0xb7ab8549	-2.0446854e-05
8	0x3836e880	4.3608714e-05
9	0x388f2e8f	6.8274436e-05
10	0xb760f6e0	-1.34089205e-05
11	0xb790980e	-1.7236944e-05
12	0x363e8bf4	2.839367e-06
13	0x3857fcff	5.1495615e-05
14	0x388fbbcd	6.853752e-05
15	0x38ab3a80	8.164812e-05
16	0xb875a9d7	-5.8570728e-05
17	0xb8a79ef9	-7.9927915e-05
18	0xb7bc015c	-2.241198e-05
19	0xb87d8301	-6.0441907e-05
20	0x37c747a6	2.3756013e-05
21	0x3808e0d1	3.2634303e-05
22	0xb910e0f8	-0.00013816718
23	0xb952d8b9	-0.00020107896
24	0xb8f6bf99	-0.00011765882
25	0xb9103057	-0.00013750918
26	0x383b8fad	4.4718083e-05
27	0xb7119d08	-8.679235e-06
28	0xb491b09e	-2.713686e-07
29	0xb803bf04	-3.141073e-05
30	0x37d6c0ff	2.5600659e-05
31	0xb6d353e2	-6.2980553e-06
32	0xb7e5a0a8	-2.7373739e-05
33	0xb8191560	-3.649795e-05
34	0xb82e7cdf	-4.1601128e-05
35	0xb829edae	-4.0514096e-05
36	0xb88fd4f3	-6.858436e-05
37	0xb7e00e9c	-2.6709684e-05
38	0xb856f011	-5.1245155e-05
39	0xb866d168	-5.5031298e-05
40	0xb705a65d	-7.966152e-06
41	0xb81865f4	-3.6334575e-05
42	0xb8795f8d	-5.9455215e-05
43	0xb8809dd2	-6.132912e-05
44	0xb7da9a8a	-2.6059588e-05
45	0x37e0c380	2.6793918e-05
46	0xb8dba932	-0.00010474249
47	0xb8c01afa	-9.160298e-05
48	0xb98df0a8	-0.0002707292
49	0xb9a50521	-0.00031475074
50	0xb64d4867	-3.0589524e-06
51	0x372a1368	1.0137308e-05
52	0xb70f9778	-8.558731e-06
53	0x37493579	1.1992984e-05
54	0xb73c682b	-1.1229927e-05
55	0xb75e1844	-1.3237881e-05
56	0x390341de	0.00012517671
57	0x3884e46b	6.336797e-05
58	0x3824c526	3.9284256e-05
59	0x38f8dcec	0.000118667114
60	0x38c2a46c	9.281267e-05
61	0x38f9b3ef	0.000119067605
62	0xb8baf2b4	-8.914378e-05
63	0xb9602d67	-0.00021379218
64	0xb8d71b54	-0.00010257089
65	0xb8fab3ed	-0.00011954443
66	0x3897e32a	7.242554e-05
67	0x3813da5f	3.5250905e-05
68	0x36fb4023	7.4878494e-06
69	0x373272a1	1.0636316e-05
70	0x37b48b9b	2.1522681e-05
71	0x37bd1214	2.2538974e-05
72	0xb72cda51	-1.030283e-05
73	0xb6f013da	-7.1548684e-06
74	0x37f651aa	2.9363513e-05
75	0xb7bf6249	-2.2814742e-05
76	0xb3bb57db	-8.723847e-08
77	0xb7966b19	-1.7931265e-05
78	0x3933e030	0.00017154287
79	0x393a9dc4	0.00017797115
80	0x3723cde3	9.763494e-06
81	0x37e6eb1a	2.7527614e-05
82	0xb811a207	-3.4721594e-05
83	0xb8625296	-5.3959513e-05
84	0xb82a551f	-4.0610434e-05
85	0xb81a2b44	-3.6756755e-05
86	0xb7ae2dc6	-2.0763731e-05
87	0xb7b8a3b9	-2.2010749e-05
88	0xb8af1473	-8.348459e-05
89	0xb9064c68	-0.000128077
90	0x3799ef1b	1.8350363e-05
91	0xb78d9feb	-1.6882977e-05
92	0x366568f2	3.4184745e-06
93	0xb8af776b	-8.3668936e-05
94	0x388e33c1	6.7807276e-05
95	0x38a3d7d5	7.8126475e-05
96	0xb7d7b7ad	-2.5715528e-05
97	0xb6e7347e	-6.8904474e-06
98	0xb507cc46	-5.0588676e-07
99	0xb60bea01	-2.0848822e-06
100	0xb7161e5f	-8.947768e-06
101	0xb70e165e	-8.469067e-06
102	0x37dfe88d	2.6691961e-05
103	0x38248b37	3.92303e-05
104	0xb928c43c	-0.00016094832
105	0xb938e8b7	-0.000176343
106	0xb7004a25	-7.646658e-06
107	0xb76631f9	-1.37207035e-05
108	0xb82b598f	-4.0852985e-05
109	0xb6514f0d	-3.118944e-06
110	0x387e4332	6.06209e-05
111	0x392e7015	0.00016635687
112	0x396a8296	0.00022364626
113	0x3954b84a	0.00020286549
114	0x381b75e0	3.706466e-05
115	0x388a014a	6.580593e-05
116	0x380af517	3.313002e-05
117	0x368cfc02	4.2016627e-06
118	0x37fb0b03	2.992666e-05
119	0x383b84ef	4.470808e-05
120	0xb6ae6afb	-5.1980583e-06
121	0x3694d319	4.4353187e-06
122	0xb88b2dcb	-6.636566e-05
123	0xb8aa173d	-8.11056e-05
124	0x37e3b359	2.7144024e-05
125	0x387053d8	5.7298545e-05
126	0x386bf605	5.625749e-05
127	0x388655d7	6.405607e-05
128	0xb8309e1b	-4.2108917e-05
129	0xb87fb9e3	-6.0969858e-05
130	0x38abde79	8.195354e-05
131	0x38bb858b	8.941729e-05
132	0x38ae1d47	8.30242e-05
133	0x38cd54cf	9.7909586e-05
134	0x386382c4	5.4242802e-05
135	0x383285b7	4.256304e-05
136	0x381c8273	3.731479e-05
137	0x383b2fdd	4.462885e-05
138	0xb64118bb	-2.8773636e-06
139	0xb688f3f1	-4.0815144e-06
140	0xb6b1ea36	-5.302277e-06
141	0xb84d8629	-4.9000755e-05
142	0x370417dd	7.873369e-06
143	0xb5d1bad4	-1.5626088e-06
144	0x37fa713e	2.9855055e-05
145	0xb82e65d2	-4.157966e-05
146	0xb8b1740d	-8.461634e-05
147	0xb8dcb8b1	-0.00010524819
148	0x356b9a50	8.7768876e-07
149	0xb64c9102	-3.0482774e-06
150	0xb538fb87	-6.891136e-07
151	0x34c312ff	3.6335402e-07
152	0xb727c73a	-1.0000362e-05
153	0xb738b141	-1.1008525e-05
154	0xb7145d4f	-8.8432125e-06
155	0xb6e6e079	-6.880666e-06
156	0x38b7021c	8.726513e-05
157	0x38c1ac64	9.2350674e-05
158	0xb8105038	-3.4406985e-05
159	0xb8867960	-6.412226e-05
160	0x385d3cd6	5.2747164e-05
161	0x3898dd4c	7.2891446e-05
162	0x375ed305	1.3281363e-05
163	0x3464b70e	2.130075e-07
164	0x38b75bc1	8.7432105e-05
165	0x38ed9c26	0.000113301256
166	0xb8118b6a	-3.4700533e-05
167	0xb80f06e6	-3.410028e-05
168	0xb6a691e5	-4.96417e-06
169	0xb71b64ee	-9.2622195e-06
170	0x3809af6b	3.2826716e-05
171	0x381d31b4	3.7478007e-05
172	0xb7804c2d	-1.5294261e-05
173	0xb78fe06e	-1.7151437e-05
174	0x3808a9fc	3.2583237e-05
175	0x37a6a711	1.9866538e-05
176	0xb9c2fb66	-0.0003718987
177	0xb9f7db28	-0.00047274795
178	0x38846c8d	6.31447e-05
179	0x38c2933e	9.278067e-05
180	0xb61b71de	-2.316308e-06
181	0x36c2bf12	5.803894e-06
182	0x3931d4b7	0.00016959278
183	0x39541223	0.00020224652
184	0x394c630a	0.00019491851
185	0x3984fc23	0.00025364858
186	0xb6e48db1	-6.8114246e-06
187	0xb8b8f584	-8.8195346e-05
188	0xb85920d0	-5.176739e-05
189	0xb88b050d	-6.628977e-05
190	0xb8076915	-3.2284373e-05
191	0xb9016e72	-0.00012343543
192	0xb830709a	-4.206654e-05
193	0x3613e1b3	2.2036081e-06
194	0xb93a36d5	-0.00017758769
195	0xb95c41aa	-0.00021005297
196	0x37ee8de0	2.8437877e-05
197	0x38136072	3.5137353e-05
198	0x36884e98	4.0622654e-06
199	0xb7c58554	-2.3546316e-05
200	0xb5c76277	-1.4855312e-06
201	0xb626b55d	-2.4841495e-06
202	0xb76b1ed0	-1.4014266e-05
203	0xb79511f2	-1.777054e-05
204	0xb54f07ae	-7.7124685e-07
205	0xb58d0d43	-1.0509178e-06
206	0x359a82e2	1.1511986e-06
207	0x361666ee	2.2411655e-06
208	0x35d9c38f	1.6224675e-06
209	0x36184284	2.2688482e-06
210	0x35a0fe45	1.1994931e-06
211	0xb49f5f4d	-2.9685398e-07
212	0x355de218	8.2657925e-07
213	0x37106c4f	8.608286e-06
214	0x372afa7c	1.019111e-05
215	0x374fc1c3	1.2383275e-05
216	0x369eaf24	4.729156e-06
217	0x3676e8ff	3.6792478e-06
218	0xb6e3ff58	-6.794853e-06
219	0xb70c90b4	-8.378342e-06
220	0x370356cc	7.828417e-06
221	0x3727975a	9.989215e-06
222	0x370f0569	8.524724e-06
223	0x3727017c	9.954321e-06
224	0x371584d5	8.912019e-06
225	0x3716b847	8.983602e-06
226	0x34c0aa00	3.5886478e-07
227	0x362bd281	2.5603515e-06
228	0x35ffae3e	1.9049692e-06
229	0x36814d19	3.853475e-06
230	0xb5d63539	-1.5959732e-06
231	0xb5aec18c	-1.302034e-06
232	0xb5c2b8de	-1.450793e-06
233	0xb5f9a5b6	-1.8600174e-06
234	0x366a46a0	3.4909826e-06
235	0x3629b557	2.5288516e-06
236	0x363c2d92	2.8040708e-06
237	0x3695cc61	4.464339e-06
238	0xb50acda8	-5.1708275e-07
239	0xb5720c77	-9.0170164e-07
240	0x3651d911	3.1269776e-06
241	0x36a5931c	4.934509e-06
242	0xb6479a23	-2.974303e-06
243	0xb695de33	-4.4664134e-06
244	0x34978a87	2.8226734e-07
245	0x356f6d34	8.919335e-07
246	0x35f5d087	1.8314612e-06
247	0x361fd05d	2.381413e-06
248	0x368239c7	3.881028e-06
249	0x36a6875f	4.962945e-06
250	0x365346c8	3.148265e-06
251	0x3640415e	2.8648278e-06
252	0x3556d62f	8.003289e-07
253	0xb3c7abd5	-9.297916e-08
254	0xb482a7a3	-2.433636e-07
255	0xb4cf6dcd	-3.8636645e-07
