dagster_ais/mlruns/0/025d1f8f68324ed38f3318df0c620355/artifacts/prediction_model/data/model.pth (torch, 157327 bytes, 8 tensors)

weight_ih_l0 f4 [300, 2]
000000 f0 59 48 bd 6a 59 41 3d 8d fd e9 3c e7 02 ca 3b
       -0.048913896 0.047204413 0.028563285 0.006164897
000010 df b5 80 3d db cb 87 bd ed 67 eb 3c 00 d6 0a 3c
       0.06284689 -0.06630679 0.02873608 0.008473873
000020 b7 38 a5 bd 40 f9 9a bd ed c1 e6 bc e0 f3 e2 bc
       -0.08067458 -0.07567072 -0.028168643 -0.02770418
000030 40 ae 54 3d 6a f4 7a 3d 47 d3 9c bc d3 a8 a8 bc
       0.05192399 0.061268248 -0.019143714 -0.020588314
000040 00 19 fa bc 60 bb 2d 3d e7 ee 3c 3c bd 77 36 3d
       -0.030529499 0.042415023 0.011531568 0.044547785
000050 a7 0c de 3c 93 15 ea bc 9d e3 b4 3d 87 72 87 3d
       0.027105642 -0.02857474 0.08832476 0.06613641
000060 aa 4c ab bd 73 2b 29 bd c7 90 94 3c 5b 16 9c bd
       -0.08364232 -0.041301202 0.018135441 -0.076214515
000070 60 bd 89 bc b7 a0 35 3d 3a fa 74 bd 25 3f ae bd
       -0.016813934 0.044342723 -0.059808947 -0.085081376
000080 c3 78 1c bd e7 0d a7 bb 4a 49 12 3d 80 86 a4 3c
       -0.038201105 -0.005098093 0.035714425 0.020083666
000090 18 c4 c1 3d ca 84 a3 bd d0 3e 68 3d b3 af f2 bc
       0.0946123 -0.07984312 0.056700528 -0.029624796
0000a0 6a 36 31 3d 73 3f 41 3d c7 dd a7 bd 87 8e 70 3d
       0.043264784 0.04717965 -0.081965975 0.058729675
0000b0 33 95 fb 3b cd c7 df bc 8a 57 2b 3d 37 06 35 3d
       0.007677698 -0.027316952 0.04183153 0.04419538
0000c0 7a b1 15 3d f3 89 93 3c cd 29 ed bc a2 ef c6 bd
       0.036546208 0.018010115 -0.028950596 -0.09713675
0000d0 12 92 c7 3d 00 87 3c 3c 40 7e 6c 3c f3 bb 53 bc
       0.097446576 0.011506796 0.014434397 -0.012923229
0000e0 00 02 a3 3b ed 6e 84 3c f3 b7 ab bc 27 c2 0d bd
       0.0049746037 0.016166175 -0.020961737 -0.034608986
0000f0 9a ea 7b 3b 7d 29 24 3d b3 23 8a 3c 27 64 ba bc
       0.0038439394 0.04007863 0.016862726 -0.022752834
000100 00 fd 34 bb c3 35 4f bd 50 c4 5a bd 47 1c fa bc
       -0.002761662 -0.05058838 -0.053409874 -0.030531062
000110 53 c6 00 bd b3 df 07 3c 93 d8 55 bd 67 2b 5b 3b
       -0.031439137 0.00829308 -0.052208494 0.0033442618
000120 67 a5 e5 bc dd fe a0 3d 37 6e 8d bd 20 e6 bb bd
       -0.028032972 0.07861111 -0.069057874 -0.09174752
000130 9a 0f 88 bb 35 66 91 3d da 6e da bc d3 5b d2 3c
       -0.0041522505 0.070995726 -0.026664186 0.02567855
000140 20 13 25 3d 17 dd 13 bd 4d c7 23 bd 2f ee cb 3d
       0.040301442 -0.03609952 -0.03998499 0.09957539
000150 e0 03 3f 3d 80 2a 32 3c 12 7c 84 bd d8 11 cc bd
       0.046634555 0.010874391 -0.06468977 -0.09964341
000160 6f 6a a8 3d 4d 48 8a 3c 2a d1 63 bd 17 91 b6 3d
       0.082234256 0.016880179 -0.055619396 0.089143924
000170 0d 3c c0 bd 3a b2 fd 3c 3a 87 21 3d 10 c4 0b 3d
       -0.09386454 0.030968774 0.039435603 0.034122527
000180 33 47 19 bb b3 7f eb 3b 4d 32 55 3d 93 4a b9 3c
       -0.0023388385 0.007186854 0.052049924 0.022618568
000190 45 c3 ae bd e7 c9 42 3c ba 6f f1 3c 50 c2 5e bd
       -0.085333385 0.011888958 0.02947222 -0.05438453
0001a0 9a 67 42 bc 1a e8 1c bc 67 4c f5 bc 10 75 be bd
       -0.011865521 -0.009576822 -0.029943658 -0.09299672
0001b0 4b 97 90 bd eb aa b9 3d 20 0a 7d bd 35 ee c0 bd
       -0.07060107 0.09065803 -0.061777234 -0.094204344
0001c0 97 9e 08 3d 67 db ab bd 20 cd b8 3d 8b 88 c1 bd
       0.033354368 -0.08391457 0.090234995 -0.09449872
0001d0 c0 15 3d bd 13 93 2f bd e7 4f 8b bd 1a c3 e0 bc
       -0.04616332 -0.04286487 -0.068023495 -0.027436782
0001e0 00 75 74 3c 82 13 ac 3d 50 fc 88 3d 7d ce 32 3d
       0.014920473 0.08402158 0.0668875 0.043653954
0001f0 9a 29 c8 3b 07 ee aa bd e7 22 a0 3b 60 dd bd 3d
       0.006108475 -0.08346181 0.004886973 0.092707396
000200 60 b7 92 3d 93 84 34 3d 7b e3 88 3d b7 a3 a2 3d
       0.07163882 0.044071745 0.066840135 0.079413824
000210 c0 96 24 3d 23 54 a5 3d 0d e3 67 3d 73 55 65 bd
       0.04018283 0.080726884 0.056613017 -0.055989694
000220 cd 5c 87 bd 47 b9 93 bc 7a 5d e9 bc d3 ff 5d 3d
       -0.06609497 -0.018032683 -0.028486956 0.05419905
000230 53 4a a4 bc 00 3d 21 bc cd 0c b3 ba 1d d2 c4 bd
       -0.020054972 -0.009841204 -0.0013660431 -0.096103884
000240 27 16 55 3c f3 f4 28 bc c7 79 d4 3c 63 94 3d 3d
       0.01300577 -0.010312307 0.025936974 0.04628409
000250 33 c0 2e bd 0d 51 ab bd da 46 f7 3c 1a bf 05 bd
       -0.042663764 -0.083650686 0.030185152 -0.03265295
000260 25 68 97 bd fb f7 9f bd 7d a9 57 bd bd e8 70 3d
       -0.07392911 -0.078109704 -0.05265187 0.058815707
000270 1d fc 5b bd 9a 5d 2b ba bb 1b a3 bd da 17 85 3c
       -0.05370723 -0.000653708 -0.079642735 0.016246725
000280 2d 6b ab 3c c0 b4 45 bd 87 eb 17 bd 87 8a 97 3d
       0.020925129 -0.04826808 -0.03708985 0.07399469
000290 43 fe 00 3d ef 46 9d 3d d3 fb 7f 3d 05 3e 81 3d
       0.031492483 0.07679545 0.062496018 0.063106574
0002a0 e0 26 bd bc e7 22 58 3c b3 a6 8f 3c 1a df bf 3c
       -0.023089826 0.013191915 0.017535543 0.023421813
0002b0 e7 ad 3f 3c 7a b2 15 bd 6b ec c3 3d 87 b8 03 3d
       0.011699176 -0.03654716 0.095665775 0.0321584
0002c0 07 13 ae 3c 7f 23 bd 3d a0 f5 89 3d 73 9e 1f bd
       0.021249307 0.09235286 0.067363024 -0.03896947
0002d0 db ec 8d bd ef 81 82 3d 37 21 01 bd 3a 95 98 bc
       -0.06929942 0.06372439 -0.031525817 -0.018625844
0002e0 ea 51 97 bd f3 a7 b5 3c ed 40 88 bc 50 75 a2 3d
       -0.07388671 0.022174811 -0.016632522 0.07932532
0002f0 9a 0a 73 bc 13 30 b1 3d 00 50 84 bc c0 25 c4 3d
       -0.014834071 0.086517476 -0.016151428 0.09577513
000300 da f8 64 bd 6d 02 0f bd 4a 1c 6f 3d cd 84 34 3a
       -0.055901386 -0.034914423 0.058376588 0.0006886244
000310 77 c0 64 3d 00 08 1f bc 7d f7 a6 3d bd a5 93 3d
       0.05584761 -0.009706497 0.081526734 0.072093464
000320 9a de 13 bd 10 f1 84 3d 33 d6 46 3b 2f b7 a9 3d
       -0.03610096 0.064912915 0.0030340075 0.082868926
000330 da b6 71 3c 93 99 3d 3d 33 84 04 3d fd 43 87 bd
       0.014753068 0.046289038 0.032352637 -0.066047646
000340 7a dd c1 bc c0 f5 42 3c 67 c6 23 ba f3 58 cc bc
       -0.023665179 0.011899412 -0.0006247521 -0.024944758
000350 85 60 84 bd ea ac 8a bd 30 0e 59 3d ab a1 b0 3d
       -0.06463722 -0.06771262 0.052992046 0.08624586
000360 18 27 bb 3d 3d d4 04 bd cd f7 a1 3c c0 63 6d bd
       0.09138316 -0.03242897 0.019771481 -0.057956457
000370 c3 87 19 bd 82 95 9c bd b3 68 0e 3d b0 83 18 bd
       -0.037482988 -0.07645704 0.034767818 -0.037234962
000380 80 88 ea 3c 60 d4 a4 3c ad 12 33 bd 0a e6 74 bd
       0.028629541 0.0201208 -0.043718982 -0.059789695
000390 d2 10 b2 bd 18 0e 82 bd 47 37 e5 3c 02 c4 8e bd
       -0.086946145 -0.063503444 0.02798046 -0.06970979
0003a0 e5 52 a8 3d cd 20 a1 bd 13 73 e9 3c 07 62 c3 3d
       0.08218936 -0.078675844 0.028497254 0.095401816
0003b0 37 b7 75 3d 5a 25 1a 3c ad a2 3d 3d 83 b9 3d 3d
       0.05998918 0.009408319 0.046297718 0.046319496
0003c0 73 39 fa bc 4a 9c 2e bd 9a 2e 34 bc 13 65 ae bd
       -0.030544972 -0.042629518 -0.010997439 -0.08515372
0003d0 d3 66 2c bd 87 1b c9 3d 00 4e a1 bb 20 ba 8b 3d
       -0.04209025 0.098197035 -0.0049226284 0.0682261
0003e0 82 49 8e 3d 67 92 5f ba 8d e9 8f bc ba d7 5b bd
       0.06947614 -0.00085285906 -0.01756742 -0.05367253
0003f0 a7 05 22 bc da 3d 1e 3c 7d d7 bf bd 00 b3 64 3d
       -0.009889043 0.009658301 -0.09367273 0.05583477

weight_hh_l0 f4 [300, 100]
000000 ad ff b2 3d 67 e9 7b 3c d0 85 c5 bd aa 76 2c 3d
       0.087401725 0.015375472 -0.09644663 0.042105354
000010 9a 97 2a 3d 7d 9d 40 bd ca 0e b2 3d 40 06 e2 3c
       0.041648485 -0.047025193 0.08694227 0.02759087
000020 23 ac 7d 3d eb 86 94 3d 47 7d b6 bd b3 e5 92 bc
       0.06193174 0.07252296 -0.089106135 -0.017931795
000030 c0 4f 70 bc 18 10 89 3d 30 d0 66 3d 7a fc 9a bc
       -0.014667451 0.06692523 0.056350887 -0.018919218
000040 e5 78 af 3d 1a 16 bf bc 90 6b 75 3d 90 55 71 bd
       0.08567981 -0.023325969 0.059917033 -0.05891949
000050 a3 c9 8d bd c0 f8 22 bd 73 ea 76 bc 45 6e 9e 3d
       -0.06923225 -0.039788008 -0.0150705455 0.07735876
000060 b3 7b d5 bc 63 0a 7a bd 38 aa b5 bd b3 0f da 3c
       -0.026059961 -0.06104506 -0.08870357 0.026618814
000070 cd f3 c1 3b 53 5e 59 3d 8d b3 2e 3d d7 f9 3f 3d
       0.005918956 0.05306847 0.0426517 0.046869125
000080 8d 04 49 bc 80 2b 60 bc ca 14 44 bd 07 6a c5 3c
       -0.012269151 -0.013682246 -0.04787139 0.02409841
000090 e7 69 98 bb 1a c7 26 bc 13 ff 0c 3d d2 b6 af 3d
       -0.0046512964 -0.010179305 0.034422945 0.08579792
0000a0 00 40 c2 38 e0 10 17 3d c7 43 9c bc 33 1e 6d 3b
       9.262562e-05 0.036881328 -0.019075288 0.003618133
0000b0 78 8c 8c bd 8b 63 bd bd ca f3 6a bd 67 a7 d2 3c
       -0.0686273 -0.09247502 -0.0573614 0.02571459
0000c0 0d cc 98 bd 60 4a 88 3c 0d c9 a4 bd 1a b8 36 bd
       -0.074607946 0.016637027 -0.0804616 -0.044609167
0000d0 5a 11 58 bc 67 53 92 bb 80 85 46 bd 47 40 5c bd
       -0.013187731 -0.0044655087 -0.04846716 -0.053772237
0000e0 9a a3 33 bd fd a0 1e 3d e7 fc 9d 3b 30 aa 0c 3d
       -0.043857194 0.03872775 0.004821408 0.03434199
0000f0 60 dc 82 3c 40 c8 fa bc 4f ad 81 bd b2 8d 9b 3d
       0.015974224 -0.030613065 -0.06331884 0.075953856
000100 ad a8 5d bd cd f0 02 3b a0 85 83 3c fd b6 0b bd
       -0.05411594 0.0019979954 0.016054928 -0.034110058
000110 a7 f7 36 3c b5 5c 8f bd e0 42 00 3d 33 52 38 bd
       0.011167443 -0.07000104 0.031313777 -0.045000266
000120 22 cd b3 3d 4d c2 36 3d 1a 0e d2 bc 87 b3 93 bd
       0.0877936 0.044618893 -0.02564149 -0.072119765
000130 33 9d 9a 3a 47 85 d6 3c a7 e3 5f bc 00 2a f1 bb
       0.0011796117 0.026186598 -0.013665116 -0.007359743
000140 fd 3d c9 3d b3 4c 88 3c cb 8b c7 bd f3 02 05 3d
       0.098262765 0.016638136 -0.0974346 0.032473516
000150 1a 66 2f 3c 6a 9e 72 bd e0 98 bf bc 40 6a 63 bd
       0.010705495 -0.059233107 -0.023388326 -0.05552125
000160 90 d8 59 3d 00 54 53 3b c0 09 70 bc e3 26 c8 3d
       0.053185046 0.0032246113 -0.014650762 0.09773042
000170 00 15 50 3d a3 bf 34 3d ba 3c 8c 3c da 06 44 bc
       0.050801277 0.04412807 0.0171188 -0.011964524
000180 8b da aa 3d ed 70 b8 bc 73 9c 08 3c 1a 92 36 3d
       0.08342465 -0.022514785 0.008338082 0.044572927
000190 23 cc 34 3d 3a 68 b3 3c 8a 10 4a bd 53 4e 09 bd
       0.044139992 0.021900285 -0.04933218 -0.03352196
0001a0 5a 75 1b 3d e5 ef bc bd c2 e3 c5 3d 1a 7f 82 bd
       0.037953712 -0.09225444 0.09662582 -0.06371899
0001b0 5a 55 87 3c 5d 6b 9b 3d 73 e3 d6 bc d5 77 c3 3d
       0.016520191 0.07588837 -0.026231503 0.095443405
0001c0 ba fa 7d 3d 02 fa b4 bd c2 72 c4 3d 2a 9f 87 3d
       0.06200669 -0.08836748 0.09592201 0.06622155
0001d0 17 ef 1c 3d 0d 62 11 bc e8 15 c8 bd c0 5a e3 bc
       0.03831395 -0.008873475 -0.09769803 -0.027753234
0001e0 6a 3a af 3d da b1 24 bd c8 8e ba 3d bb 34 bc bd
       0.085560635 -0.040208675 0.091092646 -0.09189745
0001f0 7a ca bc bd 8d ed 76 3c cb b1 85 bd 4f dc af bd
       -0.09218307 0.015071285 -0.06528052 -0.085869424
000200 80 3d ea 3b 07 8d 9c bd d8 15 a7 3d d0 25 a6 bd
       0.0071484447 -0.07644086 0.08158463 -0.08112681
000210 33 9b 11 3b fa 8c 97 bc da ba d7 3c 6a 18 61 3d
       0.002221775 -0.01849984 0.026334215 0.054954924
000220 fd 71 57 3d 80 34 0c bd 4a d4 b7 3d f3 90 ed bc
       0.052598942 -0.034229755 0.08976038 -0.028999781
000230 ad 02 83 3d b7 ae 6b bd 8b 62 b3 bd 6d 56 5f bd
       0.06396995 -0.057539668 -0.0875903 -0.05452578
000240 17 2f 01 3d 1a 32 b9 3c 17 6c 74 3d 03 7e c8 3d
       0.03153905 0.022606898 0.059673395 0.0978966
000250 1b 13 ad bd e7 88 75 3c 2b 4c b1 3d 67 f6 01 3b
       -0.0845091 0.014986253 0.08657106 0.0019830705
000260 80 8b 48 3c 8d 81 fc 3c 5a 97 9b 3d 9d 93 26 3d
       0.012240291 0.030823493 0.075972274 0.04066812
000270 93 ca 99 3d b5 27 a9 3d 3a 59 bb 3c 5b 83 c0 3d
       0.07509341 0.08259527 0.022869695 0.09400054
000280 f7 75 88 bd f7 96 6e 3d 27 72 2a bc 50 66 03 3d
       -0.06663125 0.05824944 -0.010403193 0.032079995
000290 aa 3b 19 bd cd ce c5 bd c0 82 f0 bc fd 56 52 bd
       -0.037410416 -0.09658585 -0.029359221 -0.05135249
0002a0 5d 9a 8e 3d c7 f0 b4 3d 5b 22 9b 3d c0 63 0d 3d
       0.06963036 0.08834987 0.07574912 0.034518957
0002b0 47 c6 d9 3c 6a 29 8d 3d c0 2b ab bc 97 57 0f bd
       0.026583804 0.06892665 -0.020894885 -0.03499564
0002c0 0d 4f 69 3c 00 61 9c bb 60 c5 49 3d 2d 6c 2b 3d
       0.014240039 -0.0047723055 0.049260497 0.04185121
0002d0 73 8b 3f bd c2 06 c4 3d d8 67 99 3d 5b 43 c4 3d
       -0.04676385 0.095716015 0.0749051 0.095831595
0002e0 6b 44 bc bd d3 cb ac bc 4d 3c cc bc fb c0 b6 3d
       -0.09192737 -0.021093285 -0.024931097 0.08923527
0002f0 e7 18 a2 bc 7a 64 ad bc 63 86 9f bd 4d ed ff 3b
       -0.019787265 -0.021166075 -0.07789304 0.007810271
000300 13 23 3d bd 53 9f 52 3d f3 f9 d7 3c 22 7e a7 3d
       -0.046176028 0.051421475 0.026364302 0.08178355
000310 aa 33 9d bd f0 f9 50 bd ba 77 61 bd 97 4b 4c bd
       -0.0767587 -0.05101961 -0.05504582 -0.049876776
000320 93 30 59 3d 3d 63 5f bd c5 7d c9 bd 80 c4 63 3c
       0.05302484 -0.054538 -0.09838442 0.01390183
000330 12 2e cc bd 4d d1 3c 3d 47 15 73 3d 1a 2f eb bb
       -0.09969725 0.046098042 0.059346464 -0.007177246
000340 ab 1d c2 bd 00 8a 81 bb 4d 73 ab bb cd 91 1d 3d
       -0.09478315 -0.0039532185 -0.005232251 0.038469125
000350 8b 1f 8c bd a0 70 8e bd 9a 3d 9d 3c 9d 87 46 3d
       -0.06841954 -0.06955075 0.019194413 0.048469175
000360 9d d6 7b bd 4a 11 25 3d 07 39 06 3d 8a db a2 bd
       -0.061483968 0.04029969 0.03276923 -0.0795203
000370 b8 d3 bc bd 5a 0f 20 3c 12 31 a0 3d c3 90 07 bd
       -0.0922007 0.009769285 0.078218594 -0.03309704
000380 f5 3c a0 bd 7d 73 5e 3d b0 6f a2 bd 67 15 52 3c
       -0.07824127 0.054309357 -0.07931459 0.0128224855
000390 33 08 c2 bb c0 80 64 3c 9a 38 1a 3d 70 f0 63 bd
       -0.0059213876 0.013946712 0.037651636 -0.05564922
0003a0 2d f7 bd 3c fa c1 da 3c 47 a2 f8 bc ad 5a fc 3c
       0.023189152 0.026703823 -0.030350817 0.030804956
0003b0 9a c5 f6 bc 73 c7 8e bd 00 55 5f bd b2 5c 9b 3d
       -0.03012352 -0.06971636 -0.05452442 0.075860396
0003c0 4d 32 07 bc 00 e9 f6 bb a7 a6 0e bd d3 1e be bd
       -0.008251739 -0.0075351 -0.0348269 -0.09283223
0003d0 a5 76 98 3d 1a 9e 97 3d ff e4 8c bd 52 e2 98 3d
       0.07444505 0.07403202 -0.06879615 0.07465042
0003e0 3f 1a 87 bd b0 e5 37 bd ed e4 62 3d 60 4c ee bc
       -0.06596803 -0.04489678 0.055394102 -0.029089153
0003f0 e0 8e 8b 3d cd b2 4a 3c c0 81 8f 3d 9a 7f 1d bc
       0.068143606 0.012371731 0.0700717 -0.009612942

bias_ih_l0 f4 [300]
000000 9a bc 39 bb 5d cb 95 bd 45 94 80 bd 48 35 82 3d
       -0.0028341175 -0.07314179 -0.0627828 0.06357819
000010 80 db da bb 60 1c 02 bd 8f 7c 81 3d 67 d9 65 3b
       -0.0066789985 -0.03176534 0.06322586 0.003507221
000020 d2 5d 85 bd 80 80 a1 3c ba a1 93 3d 13 51 62 3d
       -0.065120354 0.019714594 0.07208581 0.0552531
000030 9d ac 77 3d 1a cd c3 3c 53 49 6d bd 5f aa a5 bd
       0.06046735 0.023901511 -0.057931256 -0.08089136
000040 02 54 ba bd 9a d3 fc bc f7 87 a3 bd c0 da a6 bc
       -0.090980545 -0.030862618 -0.079849176 -0.02036798
000050 ed 6a 56 3d cd 3e 80 3d 5d cc 28 3d 8d 8f 2b 3c
       0.052348066 0.06261978 0.04121052 0.010471237
000060 e8 b2 a8 bd 03 68 0e bd 10 5f 9c bd e0 5d 0b bd
       -0.08237249 -0.034767162 -0.07635319 -0.034025073
000070 2d db 49 bd cd ba 0d bd 0d 55 ea bc a0 dd 48 bd
       -0.049281288 -0.034601975 -0.028605008 -0.049039483
000080 b3 e2 e0 bc 00 47 91 3d 07 cb 8e bd f3 d5 17 3c
       -0.027451849 0.0709362 -0.06972318 0.009267318
000090 83 5f 22 bd 33 17 b9 3c 8d f9 a9 bc c0 b3 a2 3d
       -0.03964187 0.02259407 -0.020748878 0.07944441
0000a0 9b c5 8e bd d7 7f 44 bd 03 24 83 bd bf 7c bd 3d
       -0.06971284 -0.04797348 -0.06403353 0.09252309
0000b0 cd 5e 0d bc 9a f1 26 3d 60 d0 7f bd e3 85 8f bd
       -0.008628559 0.040757753 -0.06245458 -0.07007959
0000c0 67 92 8a ba 03 14 5b 3d 33 fb 83 bd 3d 4d 9c 3d
       -0.0010572196 0.05348588 -0.06444397 0.076319195
0000d0 27 f5 fe 3c 37 b6 95 bd ab 45 b2 bd 67 f9 2d bd
       0.031122757 -0.07310145 -0.08704694 -0.042474177
0000e0 67 cc d0 3a 45 d3 a3 3d f3 06 0c bc d8 ae 8d bd
       0.0015930057 0.07999281 -0.008546579 -0.069181144
0000f0 e0 27 bb bc 70 73 18 bd da 4c 9b 3c 8d 09 6c bd
       -0.022846162 -0.037219465 0.018957544 -0.057626296
000100 80 e4 a1 bb ea d0 56 bd 8f 3c 93 3d 13 0d c8 3c
       -0.0049405694 -0.05244533 0.07189285 0.024420297
000110 18 b5 ba 3d 67 21 47 3b fa d6 50 3d 48 ca a8 bd
       0.09116572 0.00303849 0.050986268 -0.08241707
000120 58 e2 87 3d 3a ae 00 3d ea b4 26 bd 9a 6f 15 bb
       0.066349685 0.031416155 -0.040699877 -0.0022802115
000130 8d 48 c8 bd ad a4 57 bd a7 c3 af 3d 5a 5f 4a 3c
       -0.09779463 -0.05264728 0.085822396 0.012351835
000140 1f 3c 97 3d 77 4c bd bd 70 c6 0e bd da f3 4a bc
       0.07384514 -0.092431 -0.034857213 -0.01238724
000150 f3 dc 53 bd 12 ef a5 3d e7 49 d1 bc 9a e3 18 3b
       -0.051724385 0.0810224 -0.025547935 0.002332902
000160 1f 75 93 3d 8d e1 45 3c 1f 9b b0 bd 1a 0f 89 3d
       0.072000735 0.012077701 -0.08623337 0.066923335
000170 3a a4 e0 3c d5 aa 92 bd ad 9f 9a 3d a3 65 6e bd
       0.02742206 -0.0716149 0.07549987 -0.058202397
000180 8d 99 19 bd 00 60 76 3a 13 f5 d4 bc e8 6a aa 3d
       -0.037499953 0.00093984604 -0.025995767 0.08321172
000190 a3 04 31 bd 80 07 ae bb 1a 5e 74 bd a0 b1 0b bd
       -0.043217313 -0.0053109527 -0.059660055 -0.034104943
0001a0 eb 81 99 3d b3 67 55 3c 7a c8 06 bd 2b bc a4 bd
       0.07495483 0.013025212 -0.032906033 -0.08043703
0001b0 33 a7 17 3b 5a e1 03 bd 03 43 cb 3d 0f 9b 8e 3d
       0.002314043 -0.032197334 0.09924891 0.06963169
0001c0 33 d2 c1 3c 62 18 a7 bd b3 1d df bb cd fb bc bd
       0.023659801 -0.081589475 -0.0068089603 -0.09227715
0001d0 fa 98 3c bd f5 75 c0 3d 70 72 1a 3d 73 5c 1d bc
       -0.046044327 0.093974985 0.037706792 -0.009604561
0001e0 f3 a4 1a bd ba 76 2f 3d a0 eb 88 3d cd f4 2d bb
       -0.037754964 0.042837836 0.06685567 -0.0026543618
0001f0 b5 b8 95 bd cb 70 c3 bd a7 07 2e bd 4d be 9e 3b
       -0.07310621 -0.09542998 -0.042487767 0.004844463
000200 b3 e7 e5 3c e7 c5 d5 bb 23 fd c1 3d e7 4e 05 bc
       0.028064584 -0.006523836 0.0947211 -0.008136488
000210 9b 32 ba bd 9b 26 8e 3d 1f d5 c4 bd c5 d6 8b 3d
       -0.090916835 0.06940957 -0.09610962 0.068280734
000220 cd 51 52 3b a3 54 4b 3d 77 43 52 3d fa 92 48 3d
       0.0032092214 0.049641263 0.05133387 0.048968293
000230 07 71 7e 3d ba 8b d2 3c d7 9f 25 bd a7 1d a3 3c
       0.06211951 0.025701392 -0.04043564 0.0199116
000240 00 66 86 ba 7a 5b 1b bd c7 67 75 bd da ad 06 bc
       -0.0010253787 -0.037929036 -0.059913423 -0.00822016
000250 03 11 a0 bd 55 18 9d bd f3 c0 f4 3c 35 fa a0 bd
       -0.07815745 -0.076706566 0.029877162 -0.07860223
000260 8d 35 b2 3d cd dd 6f 3c ad 3a e0 bc 07 8a 94 bc
       0.0870162 0.014640284 -0.027371729 -0.018132223
000270 53 84 f9 bc 8f 1d bf bd 1a e6 f9 3c 40 27 4a 3d
       -0.030458605 -0.0933181 0.030505229 0.049353838
000280 67 1b f9 bb 8d 0c 77 bc cd f6 5a bd f2 06 c0 bd
       -0.0076021436 -0.015078676 -0.053458024 -0.09376325
000290 6a 2c 34 3d da 86 7c bd 10 3b 53 3d 1d c2 9c 3d
       0.04398767 -0.061652042 0.05157 0.07654212
0002a0 40 02 2c bc b8 3b bf bd c7 a2 9b bd 00 3d 2d bc
       -0.010498583 -0.09337562 -0.07599407 -0.010573626
0002b0 bd fe 06 3d 22 91 a7 3d a7 a1 7b bc b0 49 22 3d
       0.03295778 0.08181979 -0.015358365 0.039621055
0002c0 00 e6 8e bc 1a 9d d7 3c aa 42 88 3d a7 3f bb bd
       -0.017443657 0.026320029 0.0665334 -0.09143
0002d0 93 be 1c 3d e0 f2 df bc 5b ac 82 bd 47 c7 22 bd
       0.038267683 -0.027337492 -0.063805304 -0.039740827
0002e0 10 18 59 3d cd b9 bc bb 78 c4 97 3d 17 02 64 bd
       0.053001463 -0.005759454 0.0741052 -0.055666056
0002f0 9a 31 e6 3c fb 12 92 bd f7 a3 9c 3d 33 0a ea bb
       0.028099824 -0.071325265 0.07648461 -0.007142329
000300 c5 7b a7 3d 0b 3b 87 3d ea 68 a3 3d 85 2c a4 bd
       0.08177904 0.066030584 0.07978995 -0.08016304
000310 67 a0 79 3d e0 99 87 bd b2 60 b4 3d d0 fe c7 3d
       0.060943987 -0.06621146 0.08807506 0.097653985
000320 d2 9a 93 bd 1a d4 5e 3c 20 14 cc 3d 22 df ac 3d
       -0.07207264 0.013600374 0.09964776 0.08440997
000330 bd 08 71 bd 12 22 9d 3d 9f 96 b9 bd 60 af b8 bd
       -0.058846224 0.07672514 -0.09061932 -0.09017825
000340 f0 cb c7 3d dd 88 3e bd d3 b8 29 bd 8f 2e b1 bd
       0.09755695 -0.04651724 -0.041436028 -0.086514585
000350 7f 40 89 3d e0 8d 1d bd 63 ce 3d 3d 07 34 38 bd
       0.06701755 -0.03846538 0.046339404 -0.044971492
000360 c0 99 2a bc e7 5a b8 bb 8d f0 ef 3c 87 29 e0 3c
       -0.010412633 -0.005626071 0.029289508 0.027363552
000370 f7 26 68 bd 2a ba 01 3d 4d ac 70 bc 5a 86 0b 3d
       -0.056677785 0.03167168 -0.014689517 0.034063675
000380 67 4f 7f 3b b3 ba e9 bb cd 23 4c bd 93 91 a6 bc
       0.003895724 -0.007132852 -0.04983883 -0.020333087
000390 dd 73 81 3d a0 b6 21 bd 67 67 95 3b 97 63 87 3d
       0.06320927 -0.039480805 0.0045594457 0.06610792
0003a0 13 f5 a2 bd ea 1c 92 3d b3 5d 2a 3c 0d 81 3a 3d
       -0.079569004 0.07134421 0.010398316 0.04553323
0003b0 0a 92 4f 3d 73 f2 56 3d 9a d9 f5 b9 f3 ec 90 3c
       0.050676383 0.05247731 -0.00046892167 0.017691111
0003c0 da c4 90 bc 97 20 3d 3d 5d d8 8f bd 27 04 87 3c
       -0.017671991 0.04617366 -0.0702369 0.016481472
0003d0 e7 3f 9a 3c 50 f4 66 3d 28 d0 b3 bd c7 c0 6a bd
       0.0188293 0.05638534 -0.08779937 -0.057312753
0003e0 1a 55 53 bd 12 d2 aa bd 35 0d c4 3d db fc 96 3d
       -0.05159483 -0.08340849 0.095728315 0.07372447
0003f0 73 de 9d bd 27 78 d5 3c a0 5f ec 3c 20 4f 3d 3d
       -0.077084444 0.02605827 0.028854191 0.046218038

bias_hh_l0 f4 [300]
000000 ff f4 90 bd b0 14 55 bd c0 6d 36 bd 47 5f c8 bd
       -0.07077979 -0.052021682 -0.04453826 -0.09783798
000010 40 a2 b0 bc d7 33 5a bd e0 99 c4 bc 93 bf a5 3c
       -0.021561742 -0.053272095 -0.023999155 0.020232951
000020 03 79 5c bd 25 f3 c2 bd 2b 61 9e bd 87 a2 57 3d
       -0.053826343 -0.095190324 -0.07733377 0.052645233
000030 f3 a7 c4 bd 00 f9 73 bb 90 b4 31 bd ba 8b b3 bd
       -0.09602346 -0.0037227273 -0.04338509 -0.08766885
000040 9a e0 00 bc ad 14 3b 3d b3 db f1 bc 4d 3c 40 bd
       -0.007866049 0.045674015 -0.029523706 -0.046932507
000050 c7 bf 98 3d 1b a8 a7 bd 0d 2c 00 3c 7a 9c 6c 3d
       0.074584536 -0.081863604 0.0078230025 0.057766415
000060 a7 c3 8e 3d 67 ed 09 bc b3 52 8d bd 82 39 c2 bd
       0.069709115 -0.008418418 -0.06900539 -0.09483625
000070 ba 23 77 3d 27 0c a1 bc 18 76 c5 3d fa a0 5b bd
       0.060336806 -0.019659115 0.09641665 -0.053620316
000080 20 13 0b bd da c0 be bd 4d 2a d4 bc bf c8 9f 3d
       -0.033953786 -0.09314127 -0.025899077 0.07801961
000090 80 d8 9c bb da 22 c1 bd 00 59 c5 3c ba 92 ba bd
       -0.004786551 -0.094304755 0.02409029 -0.09110017
0000a0 5d df 86 bd fa e1 8d bc 4d 47 b8 3b b3 dd 87 bd
       -0.06585572 -0.017319668 0.005623734 -0.06634083
0000b0 2f 26 b8 3d 58 7e b4 3d 23 12 25 bd 9a e3 de ba
       0.08991658 0.08813161 -0.0403005 -0.0017005086
0000c0 3b e0 90 3d 80 54 b0 bb ca 5d 32 3d 07 c5 e0 bc
       0.070740186 -0.005381167 0.043546475 -0.0274377
0000d0 b0 3e 3e bd d3 ef c5 3d d0 ef 6f bd 80 83 68 3c
       -0.046446502 0.096648835 -0.058578312 0.014191508
0000e0 b7 26 92 3d 4b 1f bc 3d 18 1d 91 bd c0 c8 73 3d
       0.071362905 0.09185656 -0.07085627 0.059517622
0000f0 9a cd d3 3a ed 2a 83 bd e0 77 45 bd ad 29 cf 3c
       0.0016159297 -0.06404672 -0.048210025 0.025288427
000100 3a fb 9a bd fd ee 10 bd 10 10 b7 bd 8a a0 17 bd
       -0.07567449 -0.035384167 -0.089386106 -0.037018336
000110 9a 7d 46 3d 97 2a 2a bd 58 8d 92 bd 58 0c 9c bd
       0.048459627 -0.041544523 -0.071558654 -0.07619542
000120 9a 59 f2 3a e3 cf 47 bd 17 c6 7f bd 00 eb ae bc
       0.0018489838 -0.04878224 -0.062444773 -0.021352291
000130 e7 b1 48 bc 0d bf 57 3d 93 15 c1 bc 65 83 93 bd
       -0.0122494465 0.052672435 -0.023569858 -0.07202796
000140 40 55 38 bc b2 2a a7 bd 30 eb 3f bd c7 d3 5a 3d
       -0.011250794 -0.0816244 -0.04685515 0.053424623
000150 e0 53 f9 bc 33 61 42 3c 43 fa 11 3d 63 b6 3d bd
       -0.030435503 0.011863994 0.03563906 -0.046316516
000160 33 27 41 3d 4d cf d9 3b 67 1b 6d bb da b2 b0 3d
       0.047156524 0.0066470266 -0.0036179663 0.08627863
000170 ad 7c ab bc 4d eb 7f 3d 9a 19 e1 bc c2 1d 8e bd
       -0.020933473 0.06248026 -0.027478028 -0.069392696
000180 b3 43 b5 bc 0f c5 9a 3d 67 cd c0 bd e2 40 ca bd
       -0.022127008 0.07557117 -0.094141774 -0.09875657
000190 33 1f 1e 3c 13 95 b0 3c 40 e5 8c bc 32 48 94 bd
       0.009650993 0.02155546 -0.017199159 -0.07240333
0001a0 60 24 ab 3d 8d 40 8d 3c 3d ef a1 bd ba 2e 6d 3d
       0.08356547 0.017242694 -0.07906959 0.05790589
0001b0 27 c0 0e 3d a3 28 51 3d e0 e8 35 3d 1a 51 c1 bd
       0.03485122 0.051064145 0.04441154 -0.09439297
0001c0 00 c0 23 ba 9a 04 68 3d 02 6d 86 bd ca 56 22 bd
       -0.0006246567 0.056645013 -0.0656376 -0.03963355
0001d0 b7 48 5f bd 5d 00 87 3d 6a 41 6d 3d 87 c9 01 3d
       -0.054512706 0.06591866 0.05792371 0.031686332
0001e0 9a f3 ff 3c c0 64 0f 3c 75 e1 9a bd aa 01 4a 3d
       0.031244088 0.008752048 -0.07562534 0.049317993
0001f0 23 af 1b bd 30 6b a6 bd 95 79 bd 3d 13 50 47 bd
       -0.03800882 -0.08125913 0.092517056 -0.04866035
000200 a3 a9 07 3d b0 38 63 bd 73 ff 52 bd c7 22 bc 3d
       0.033120763 -0.055473983 -0.051513147 0.09186321
000210 2a 50 21 3d 8a e1 7a bd 37 5b 05 bd 73 aa 65 bc
       0.03938309 -0.061250247 -0.032557692 -0.014017689
000220 33 05 4c 3b cd 06 f4 bb cd 2c f7 b8 3d 20 44 bd
       0.0031131029 -0.0074471 -0.000117862226 -0.047882307
000230 4d 55 34 bc e2 75 96 3d f3 c7 86 bd e7 a5 e3 bc
       -0.011006665 0.07346703 -0.06581106 -0.02778907
000240 90 9c 36 3d ed 15 ac bc 73 7d be 3d 5b 7f c0 3d
       0.044582903 -0.021006549 0.09301271 0.09399291
000250 67 12 0d 3b 7a 59 b0 3d 33 4b 01 bd 07 69 9f bc
       0.0021525861 0.08610816 -0.031565856 -0.01945926
000260 9a 59 0c 38 3a ad 98 3c 40 b8 50 bc bf bf c0 3d
       3.346205e-05 0.018637288 -0.012739241 0.09411573
000270 e7 d7 ce bb 7a 2f af 3d 40 e9 23 3d 0d 17 74 3d
       -0.0063123587 0.08553977 0.040017366 0.059592295
000280 8b 7d 8c bd c7 a4 55 bd 5a 36 25 bd a7 6c a4 3c
       -0.06859883 -0.052159097 -0.040335037 0.02007134
000290 9a 4a 0c bb ea f2 35 bd 9a ce 34 3c b3 09 d5 3c
       -0.002140677 -0.044421114 0.011035586 0.026005602
0002a0 80 bb 4a 3d 1d fa 55 bd dd fe 9e bd 4d 6b e2 bb
       0.04949522 -0.05224048 -0.07763455 -0.006909764
0002b0 83 0f b3 bd 70 21 b2 bd 35 05 83 bd 33 77 10 3a
       -0.08743193 -0.08697784 -0.063974775 0.0005510926
0002c0 f2 97 83 3d f5 b0 bb 3d 33 62 58 bd ea 27 76 3d
       0.06425466 0.09164611 -0.052828025 0.06009666
0002d0 1a e7 1c bc f3 54 e9 3c 10 a9 60 3d 77 25 49 3d
       -0.009576583 0.02848289 0.05484873 0.049107995
0002e0 50 c4 06 3d 67 0f d3 3c fd 42 90 3d 6f 86 b3 3d
       0.032902062 0.02576418 0.07044027 0.087658755
0002f0 00 17 72 bd 2d 1a cb 3c 4a 0f 87 3d 1d e9 2c bd
       -0.059103966 0.024792755 0.06594713 -0.0422145
000300 73 25 52 3d a0 44 4b 3d 73 f3 0d 3d c2 06 82 3d
       0.051305246 0.049625993 0.034656 0.06348945
000310 9a e3 2d 3d 7a d1 07 bd 50 7a 19 bd d0 57 59 bd
       0.042453386 -0.033158757 -0.037470162 -0.05306226
000320 5a 72 55 bd 43 b4 25 bd 9a b9 d8 ba 3a 05 94 3d
       -0.052111007 -0.040455114 -0.0016534806 0.072275594
000330 e7 76 4b bd da cf 3c bd 27 92 cc 3d 9d c0 91 3d
       -0.04967394 -0.04609666 0.09988814 0.07116816
000340 63 91 2a 3d d0 b2 5b bd f7 aa 85 3d 10 ca 84 3d
       0.041642558 -0.053637326 0.065267496 0.06483853
000350 93 fc a8 3d ad aa 6b bd 80 2e 89 3c 2a a1 82 bd
       0.082513 -0.057535816 0.016745806 -0.06378396
000360 c7 38 7f bd 3a 7f 9f bc 6b 4e ac 3d c0 c1 b9 3c
       -0.062310006 -0.019469846 0.084133945 0.022675395
000370 4d a4 e9 bb 7b 10 c2 3d 33 ac 8c bd dd 75 5f 3d
       -0.007130182 0.094758 -0.06868782 0.054555763
000380 ef 8c ac 3d 1a c4 9c 3d fa 61 ec bc 4d 4a 35 bc
       0.084253184 0.07654591 -0.028855313 -0.011065078
000390 60 07 c0 3d 13 d6 23 3d 0d 8c 75 3c b5 ce a9 bd
       0.09376407 0.03999908 0.014987004 -0.08291379
0003a0 cd 82 ae 3b d3 9d d5 bc 4d 65 59 bc 73 c2 3c bc
       0.0053256513 -0.026076233 -0.013268781 -0.01152097
0003b0 97 ea 62 bd b3 aa 57 3d 4d 9f 04 3d 68 82 be bd
       -0.055399504 0.052653026 0.032378484 -0.09302217
0003c0 02 59 a9 bd ba 80 f4 bc 93 18 ec bc 80 1e 63 bd
       -0.0826893 -0.029846538 -0.028820312 -0.05544901
0003d0 8a 11 a5 3d 62 e5 89 bd c7 fb 4f bd d7 72 92 bd
       0.08059986 -0.067332044 -0.050777223 -0.0715081
0003e0 63 7a 6b bd 9a 71 d0 b9 67 2c ad bd 8a 01 c1 bd
       -0.057489764 -0.0003975749 -0.08455735 -0.09424122
0003f0 fa fb e3 bc c0 68 72 3c 07 1f f3 bc c7 aa b7 3d
       -0.027830113 0.014795482 -0.02967788 0.0896812

weight f4 [50, 100]
000000 6d 39 5a 3d d7 d8 28 bd 38 df c6 bd 9a c9 3b 3a
       0.05327742 -0.04122242 -0.09710544 0.0007163525
000010 ff a8 85 3d 78 ea bc bd 92 73 af bd 17 15 71 bd
       0.06526374 -0.09224409 -0.08566965 -0.058858003
000020 9b 66 82 bd 37 9f c6 bd 73 34 a3 bc 9a e1 81 bc
       -0.06367227 -0.096983366 -0.01992247 -0.015854646
000030 ad 32 97 3d 60 63 13 bd 1a 46 bf bd 07 dc 34 bd
       0.073827125 -0.035983443 -0.09339543 -0.044155147
000040 d7 96 02 bd a7 32 96 3d aa 27 3c bd 53 c1 4f 3d
       -0.031882133 0.0733388 -0.045936264 0.050721478
000050 9a bc 87 3b f3 f8 df bc ea 24 26 bd b3 dc 74 3c
       0.004142356 -0.027340388 -0.040562548 0.014945197
000060 cd c7 ba 3b c8 91 a6 3d 9a 0d ba bb 8d b5 7f 3c
       0.0057000876 0.08133274 -0.005677891 0.01560725
000070 42 07 91 3d 27 3d 8b bd 40 e8 36 3c bd cb 47 3d
       0.070814624 -0.06798773 0.011163771 0.048778284
000080 73 4e 11 3c 9a f5 ad bd ad cf ff bc 1d b2 95 bd
       0.008868801 -0.084941104 -0.031226957 -0.07309363
000090 78 36 ba 3d f7 10 ca 3d 67 2e 49 bd da 65 19 bd
       0.0909242 0.09866517 -0.04911652 -0.03745065
0000a0 6d 11 07 3d 03 a0 bb bd 00 42 cc 3c fd 0c 19 3d
       0.032975603 -0.09161379 0.024933815 0.037365902
0000b0 ad f4 b6 3c b3 d7 b2 3c 1a ad 2f bd eb d4 8e 3d
       0.022333467 0.021831369 -0.042889692 0.06974205
0000c0 97 d2 8d 3d d2 06 a9 bd e7 4f d6 bb 77 ab 0a 3d
       0.069249325 -0.08253254 -0.006540287 0.033854928
0000d0 b0 cb 69 bd cd e0 47 bd 0b 18 b3 bd 62 1a b6 3d
       -0.057079017 -0.04879837 -0.0874482 0.08891751
0000e0 47 c3 08 3d c7 75 cc 3c f3 01 94 3c 53 21 c2 3c
       0.033389356 0.024958504 0.018067336 0.02369753
0000f0 80 b6 f2 3b fd ef 55 bd f7 15 62 bd 57 eb 98 3d
       0.0074070096 -0.052230824 -0.05519673 0.074667625
000100 fa 40 ff bc 8f 64 80 3d 60 b6 25 bd 67 79 5d 3d
       -0.031158913 0.0626918 -0.04045713 0.054070856
000110 c2 cb 84 bd a7 9f 57 bc 87 a5 bd bd 1a 67 69 bd
       -0.06484176 -0.013160623 -0.092600875 -0.05698309
000120 e0 2e a4 bd 73 8b 27 3d 6b ef b2 3d c8 31 aa bd
       -0.08016753 0.040904474 0.087370716 -0.08310276
000130 3d ea a5 bd aa a2 60 3d bb 28 ad bd 8d 4a 15 3c
       -0.08101318 0.05484263 -0.08455034 0.009112013
000140 1f a7 8d bd c0 4c 41 bc cd 6c 0b b9 b3 82 f3 bc
       -0.069166414 -0.011798084 -0.00013296604 -0.029725408
000150 dd 36 48 bd 8d 01 66 bc 2d e9 8d 3d 6d 50 33 3d
       -0.048880447 -0.014038456 0.069292404 0.043777872
000160 20 34 63 bd ba 01 bb 3d f0 75 64 3d ed 9a ea bc
       -0.055469632 0.09131189 0.055776536 -0.028638327
000170 cd 05 01 bd b3 41 8d 3c 13 0f 64 3d 6b 23 bf bd
       -0.031499673 0.017243242 0.05567844 -0.09332927
000180 70 15 44 bd 4d d4 98 3b f3 53 fb bc e7 c6 56 bd
       -0.047872007 0.00466398 -0.030679679 -0.05243578
000190 da f8 66 3c cd 31 ae bd 35 60 87 3d 7a 91 38 3d
       0.014097417 -0.085055925 0.06610147 0.045060612
0001a0 c7 bf e0 bc 33 83 d7 3b e0 98 65 bd 70 58 62 bd
       -0.027435197 0.0065769195 -0.056053996 -0.05526012
0001b0 73 14 0e 3d f3 cf 33 3c 03 c8 7a bd fa b3 1b bd
       0.03468747 0.010974872 -0.061225902 -0.038013436
0001c0 4a 5c a6 3d 7a 01 7e 3d e2 d2 93 bd a0 16 21 bd
       0.081230715 0.062013127 -0.07217957 -0.039328218
0001d0 2a d0 25 bd ff 3e c7 bd 93 2d 77 3d 20 d8 d9 bc
       -0.040481724 -0.097288124 0.060346197 -0.026592314
0001e0 60 ba a1 bc 8d 1b 92 3d d0 d8 52 3d 50 3f 08 bd
       -0.01974219 0.07134161 0.0514763 -0.033263505
0001f0 bd e5 91 bd d0 49 ae 3d 9a 8c a2 bb 03 05 60 3d
       -0.07123897 0.08510172 -0.0049606087 0.05469228
000200 62 3e a8 3d b0 05 47 3d 2d ea 19 3d a7 91 83 bd
       0.082150236 0.04858941 0.037576843 -0.06424265
000210 da c1 33 bd 67 d6 fb 3c 37 f9 76 3d b3 02 af bd
       -0.043886043 0.030741883 0.060296264 -0.08545437
000220 a7 af ac 3d 25 bf bf bd 87 b8 25 3d 7f 2f a1 bd
       0.084319405 -0.0936263 0.040459182 -0.07870387
000230 cd 19 90 3c ea 4b 41 3d cd 50 9b ba d7 fa b0 3d
       0.017590428 0.047191538 -0.0011849642 0.08641594
000240 75 92 ba 3d 0d f9 6e bd 70 98 83 3d 53 59 9b bd
       0.09109966 -0.058342982 0.064255595 -0.075853966
000250 13 1a d9 bc 53 8d 32 bd 3a f4 65 3d 67 3d 70 3c
       -0.026501691 -0.04359181 0.056141116 0.014663077
000260 f2 0f a9 3d 2a 00 a7 bd e3 84 23 3d 5a 50 d0 bc
       0.082549945 -0.08154328 0.039921653 -0.02542894
000270 ba 5e 8c 3c 10 af 45 3d 9a 0d 0a 3b 5d dd 30 bd
       0.017135013 0.048262656 0.0021065236 -0.04317986
000280 50 b1 38 3d 33 b9 77 3b 8d 12 5a bd 7a 47 50 3d
       0.045090973 0.0037799596 -0.053240348 0.050849415
000290 77 be 71 bd 85 80 c3 3d ed 07 4b bd 00 ee 18 bc
       -0.059019532 0.095459975 -0.049568105 -0.009334087
0002a0 bf 8a c3 3d 27 36 01 3c 23 44 b1 3d 20 26 c2 3d
       0.09547948 0.007886446 0.08655574 0.09479928
0002b0 87 38 1f 3d 57 83 4e bd 40 82 8a 3c 47 0f b5 3c
       0.038872268 -0.050418224 0.016907811 0.022102011
0002c0 67 21 a8 3c da 8d 97 bc 20 bf 0d 3d 60 55 7a 3d
       0.02052374 -0.018500257 0.0346061 0.061116576
0002d0 67 c3 90 bd 0d d3 90 3c 80 a9 ba bc 2d bb 28 bd
       -0.0706852 0.017678762 -0.022785902 -0.04119413
0002e0 b3 68 ad 3c 3d e5 43 bd 37 a1 9b bd 97 a6 6f bd
       0.021168089 -0.04782604 -0.07599109 -0.05850848
0002f0 ed 66 b4 bd 37 5f 4f 3d 33 d6 66 bd 33 5b e1 3b
       -0.08808694 0.050627913 -0.05635662 0.006877327
000300 73 6e 98 bd 83 a0 aa 3d 60 de 36 3d 43 53 1a 3d
       -0.074429415 0.083313964 0.044645667 0.03767706
000310 c7 48 ac 3d 03 2b 10 bd 57 93 5b 3d f7 8c 0e 3d
       0.08412319 -0.03519727 0.05360731 0.034802403
000320 fa 8a 25 bd da a0 ea bc 17 a5 84 3d 38 0f ca bd
       -0.04041574 -0.028641153 0.06476801 -0.09866184
000330 5a f4 bd 3d 5d d3 c9 bd ca 62 2a 3d 7a a5 f0 3c
       0.09275122 -0.098547675 0.04159812 0.02937578
000340 67 97 11 bb cd 64 ad 3c 13 94 b4 bd 53 92 03 bd
       -0.0022215487 0.02116623 -0.088173054 -0.032121968
000350 53 cd cb 3c f3 4f cc 3c 87 df 8b bc f5 78 a9 bd
       0.02487818 0.024940467 -0.01707436 -0.08275024
000360 75 41 b6 bd 8d f1 23 bd f2 9e 83 3d ea 1c 00 3d
       -0.08899204 -0.040025283 0.06426801 0.031277575
000370 07 b2 03 bd cd 23 03 bd d7 34 1d bd cd f0 89 3a
       -0.032152202 -0.032016564 -0.03838047 0.0010524035
000380 12 62 a6 3d 73 02 19 bd 4d 12 05 3c 87 44 3f bd
       0.08124174 -0.03735585 0.008122039 -0.046696212
000390 cf ae c5 3d 33 05 89 bb 40 a1 1a bd fa 7d 67 bd
       0.09652483 -0.004181528 -0.037751436 -0.056516625
0003a0 b3 69 38 bc 0d 55 0c 3d c0 e0 3e bd 8a 57 77 bd
       -0.011255669 0.0342608 -0.046601057 -0.060386218
0003b0 da 67 5d bd f3 ff cd 3c 37 45 26 3d 60 1d c1 3d
       -0.05405412 0.02514646 0.040593352 0.09429431
0003c0 cf d1 9e 3d 9a d9 08 39 28 1a bd bd 5d c7 0b 3d
       0.077548616 0.00013051034 -0.092335045 0.034125675
0003d0 9a d1 27 bc bf 6d 89 3d 6b 86 af 3d 53 ec 73 3d
       -0.010242844 0.067103855 0.0857056 0.05955155
0003e0 00 a9 1e bc fd ea 0b bd c3 2e 13 3d 23 82 89 bd
       -0.009683847 -0.03415965 0.035933267 -0.06714275
0003f0 60 c1 b1 bc 08 34 cc 3d 93 b7 74 bd 4d cc a0 bd
       -0.021698654 0.09970862 -0.059745383 -0.07851467

bias f4 [50]
000000 ad db 16 bd cd 0b 00 bd 1a 40 b7 bd 30 2e 8f bd
       -0.036830593 -0.031261254 -0.08947773 -0.069912314
000010 a7 60 76 bc cd f9 4b 3c 00 e2 dc 3a 13 6d a8 bd
       -0.015037692 0.012449694 0.0016852021 -0.08223929
000020 60 9c b5 3c 67 50 8f 3b b0 fe 18 bd 33 2b 4d ba
       0.022169292 0.0043735984 -0.037352264 -0.00078265666
000030 e0 62 19 3d 3d 55 42 3d 95 6f 91 3d 97 69 7a bd
       0.03744781 0.04744457 0.07101361 -0.061135855
000040 c0 fb 98 bc 00 65 bf bd 17 b4 44 3d ca 31 84 3d
       -0.018674731 -0.09345436 0.04802331 0.06454809
000050 e0 3d c6 3c 3d 16 0d 3d 33 88 9d 3d 10 ed 87 3d
       0.024199426 0.034445036 0.076919936 0.06637013
000060 50 a1 6b 3d 67 c8 82 bc eb a3 8d 3d c7 3e 86 3d
       0.057526886 -0.0159647 0.069160305 0.065549426
000070 dd 11 6e bd cd 79 1d bb 67 c6 b5 bb 65 1b 9f bd
       -0.058122505 -0.0024028898 -0.005547333 -0.07768897
000080 ed d0 76 3d 73 79 a2 3c 22 23 80 3d fa 3e 43 bd
       0.06025784 0.019833302 0.06256701 -0.04766748
000090 73 57 dd bc f3 01 a9 3d 1d a9 62 3d 3f c8 a9 bd
       -0.027019238 0.08252325 0.05533706 -0.08290147
0000a0 00 29 05 3b ea d0 52 bd 4a ec 28 3d 60 52 f2 bc
       0.0020318627 -0.051468767 0.041240968 -0.029580295
0000b0 3a 9d b7 3c 00 3d 7a bc 47 27 f8 3c cf 46 bd bd
       0.022413839 -0.015273333 0.030292166 -0.09242021
0000c0 83 d2 37 bd 53 26 83 3d
       -0.044878494 0.06403794

weight f4 [2, 50]
000000 73 12 ca 3c c1 7c 33 bd 62 14 8b bc e6 cb 1b bd
       0.024667 -0.043820146 -0.016977493 -0.03803625
000010 16 6d 25 bd 5c cd 0f be 65 c1 42 bc 09 e7 3c 3b
       -0.040387236 -0.14043182 -0.011886929 0.002882423
000020 43 65 9f bc e1 b9 01 3e 7f b8 95 bd 1e 88 39 bd
       -0.019457465 0.12668563 -0.073105805 -0.045295827
000030 20 73 45 3d 37 b5 6e 3d 9d c8 47 bd f2 8e a7 bd
       0.048205495 0.05827829 -0.048775304 -0.081815615
000040 7d e1 57 bd c2 72 7f 3d 28 a5 de 3d 8e ac 56 3c
       -0.052705277 0.0623653 0.10871345 0.013102664
000050 58 51 d7 3c 03 9f 14 3d 0e fd c2 bd 6b f3 fe 3d
       0.026283905 0.036284458 -0.095209226 0.12448772
000060 11 15 b2 3d 10 62 6a 3d 67 ab 5a 3d 82 24 fe bd
       0.08695424 0.057222426 0.05338612 -0.12409307
000070 50 c2 42 bc 81 4f 07 3e 88 20 d4 3c fd 53 b7 bd
       -0.011887148 0.13213922 0.025894418 -0.08951566
000080 17 36 dc 3d 06 d0 9f 3d f4 77 6d 3d a8 8f 0e 3d
       0.10752504 0.07803349 0.057975724 0.03480497
000090 da d7 43 3d 0d 7c b9 bd 44 d4 eb 3d 9e ba b6 3d
       0.047813274 -0.09056864 0.11515096 0.08922313
0000a0 d9 48 8d bd 02 30 9e 3b a7 98 07 bd e4 ab 01 be
       -0.0689866 0.0048275003 -0.033104565 -0.12663227
0000b0 99 ed 15 bd 0c 9e 04 be b5 6d 04 be ef 9a 00 3e
       -0.036603544 -0.12950915 -0.12932475 0.12559102
0000c0 90 6f 0f be ea c5 11 bd a4 d6 07 3e 50 fa f2 3d
       -0.14007401 -0.035589136 0.13265473 0.118641496
0000d0 e9 57 98 bd fe b2 45 bd 05 7b 06 be 93 93 35 bc
       -0.074386425 -0.048266403 -0.13132866 -0.011082548
0000e0 7b b2 ba bd 55 36 62 bd 7b 65 e1 3d 9e 4a b7 bc
       -0.09116074 -0.055227596 0.11005684 -0.022374447
0000f0 91 e3 a9 bd e3 d2 60 3c ba 1e ac bc e6 cc bb 3c
       -0.08295358 0.013722154 -0.021010745 0.022924852
000100 fe c8 27 bd 1f 6f 84 bd 65 d4 03 3e 5e 02 e3 bd
       -0.040963165 -0.06466507 0.12873991 -0.11084436
000110 90 96 58 3d 5a 6a 0f be d3 30 23 bd fb 9e bb 3d
       0.052877963 -0.14005414 -0.039841484 0.091611825
000120 6b c2 97 bd 66 c6 63 3d cd ce 3c 3d 91 70 69 3d
       -0.07410129 0.05560913 0.046095658 0.056992117
000130 e5 7c a1 3c 5a 9a 19 3c 6c 4f 69 bd fb 82 00 be
       0.019712875 0.009375179 -0.05696051 -0.12549965
000140 7b 16 41 bd 11 31 f6 3d a6 4d 81 3a 91 ec f4 bd
       -0.04714058 0.120210774 0.000986506 -0.11959184
000150 5e 0d f4 3d d2 3b 4f bd 6c b1 6f bd 7a 5f 37 bc
       0.11916612 -0.05059416 -0.058518812 -0.011192197
000160 b2 de b5 3d 5d 0e 78 bc 64 87 9b bd 8b 74 bf 3b
       0.088803664 -0.015140143 -0.07594183 0.0058427504
000170 3c 3e e3 3d c7 31 da 3d 8b db 88 3d af dc dc bd
       0.11095855 0.106540255 0.066824995 -0.107842796
000180 93 19 df 3d c1 ed f9 bd 86 b9 3b 3b 4d bb cf 3d
       0.1089355 -0.12203551 0.0028644516 0.10143147

bias f4 [2]
000000 03 f1 02 3e a5 b1 94 3c
       0.12787251 0.018151114
