dagster_ais/lightning_logs/version_4/checkpoints/epoch=9-step=20.ckpt (torch, 448127 bytes, 24 tensors)

rnn.weight_ih_l0 f4 [300, 2]
00000000: d44d 34bc b481 2fbd cb65 e23c 644d 673c
00000010: 5a9a 6a3d 572e 253d f58a a03d 922b 0c3d
00000020: d245 7d3d 5832 ac3d 2874 c3bd 3f11 4f3d
00000030: 7398 b6bd 3227 59bb c918 b13d 64d7 a73a
00000040: 5d68 30bd d51f bc3d 71ed 4dbb ca09 ccbd
00000050: 3f7a c2bd 9e87 9e3c 13d8 773d 90ff a6bd
00000060: 3c5b 863d 53d5 163c f427 863d 7fa9 0dbd
00000070: ad3c 7f3d 6c14 a33d 54c0 7ebd 5ef1 71bb
00000080: 0b4a 5a3c 683e ac3c 664d bb3d 6618 bb3b
00000090: a950 713d 8cb7 973d 210d ae3b 5841 8dbd
000000a0: 4d3c 223d ee0a c23d 05f4 37bd 804c c3bd
000000b0: 4cfc 9a3d dff2 a03c ce82 a13c 36eb c43d
000000c0: 56b6 42bd 7bd5 d5bb bd9d 93bd 497d 7cbd
000000d0: 2392 1439 9d90 02bd c69b 15bd 543a cebb
000000e0: 6395 b73d a7bd d9bc 1df1 b83d 4aa1 2dbd
000000f0: 005c 003d 7eba 5fbd 405c 8a3d f4f6 033c
00000100: 3801 9f3d 09bb 913b b4ae b73c b4b7 94bc
00000110: 4b6a 3e3d 92da 8abd 8cfd ebbc 6f6b e03c
00000120: 4f51 5c3d 8ed0 143d 8201 78bc 423f 29bd
00000130: b3e9 413d b516 88bd 5c7d fdba b9ee 6ebd
00000140: 63ad 453d 4e79 91bc b703 bb3d d4b5 21bd
00000150: c485 29bd 0cb1 99bd 0419 32bc d4b2 a73d
00000160: 6323 2d3c 5087 b2bd 878d 88bd ce63 103d
00000170: 613d 82bd 833f 593d 76c6 94bd 986f 703d
00000180: 3c3d fd3c 9528 83bc 2f4c 26bc 5340 173d
00000190: 590a 923d 5bea 733d 2634 c4bd 744d 623d
000001a0: 0fe5 49bd fae7 c1bc 72db a53d f288 86bd
000001b0: 5981 7e3d 262c dfbb d0ba 6f3d acdd e13b
000001c0: a88a cb3c f034 71bd e6d1 aebd 193a 973d
000001d0: bcd1 683d c332 5bbc 5108 3ebd 1ed2 b1bd
000001e0: 9682 c7bd 500f dfbb 07f2 773d b85f 3abd
000001f0: 450d b7bb 497f bf3d 7632 153d 14ef 80bd
00000200: 1ca3 47bd 6612 c8bd aef3 2dbd 5a7f e3bc
00000210: 52fe 053d 7290 b53d 7c4c 8c3d 5047 933d
00000220: 16e8 743d 246c 84bd 9618 19bd 8893 473d
00000230: 0cbc bdbc e826 d63c 1ce7 9b3d 00ae b8b9
00000240: 9ff6 813d ed69 67bd 65e8 0f3d ecea 393c
00000250: 8abd 913b 2253 2fbd 3c41 87bd d444 773d
00000260: 7a3d 943d 13f3 cd3d 4c77 8d3d 531d 483d
00000270: 6a35 783d bcfc 0d3d 11ff b53d 5b6b 69bc
00000280: b6c4 893d 829c 9dbd a398 223d 0d52 a6bd
00000290: 6ba9 313d e7e5 90bc 24e5 bbbd 30bf 02bc
000002a0: 32a6 a53d 92f9 433d 0fb4 083d 239f eabc
000002b0: f556 a83d 34a3 a23d b8e0 b1bd f463 a03d
000002c0: 4be7 cf3d ac99 c5bd 3178 86bc f5d3 b3bc
000002d0: 019c c63c 860d eb3c c6b8 bc3d 4d8a 663c
000002e0: 8110 b93d eaaf af3d 9eaa 1dbd 73ae bc3d
000002f0: a21f acbd b1c5 983d a46a 49bd a857 833d
00000300: 4ac6 acbd 4752 bfbd 4de1 6cbd c95e 94bd
00000310: 6c05 c33b f18f c5bd e460 2fbb 3df3 913c
00000320: ee0d 933d 62d9 0d3d 8fed 573d 9d3b c73d
00000330: 91bc bc3d 223f a9bd 9995 aabc b202 983d
00000340: bddc c13d 801e 193c 9e2a 553d 998e 09bd
00000350: f019 043c 18b7 05bc 1538 e0bc 1340 2cbd
00000360: 4152 42bd 5a8c b03d 5476 cabd c2c9 7b3c
00000370: 6bbd 5f3d 6b8c c4bd e97f 483d 71fe b13d
00000380: 8e72 a43d f9d4 b93d 5b70 cabc 03eb 9b3d
00000390: 1d8f 69bd 3195 6dbc afbe a0bd 0971 0ebc
000003a0: e09e 923d 37c1 debc a7b2 c2bd 1d08 c13d
000003b0: be01 95bc 5aed a1bd 241a a53d 704c 87bd
000003c0: 47fc 993d b54f e3bb 1bf4 b3bd 4c0f 323d
000003d0: f659 143d 059b b83d e400 a9bd 4cf9 7c3d
000003e0: 0919 5bbc f103 ebbc a416 98bd 7d4a b03d
000003f0: afc8 223d 6ff2 49bc 1bdd c3bd 2f0f 953c
-0.011004884 -0.042848304 0.02763643 0.014117572 0.057276107 0.040327396 0.07839004 0.03422124
0.061834164 0.0840804 -0.095436394 0.050553557 -0.08915796 -0.0033134934 0.086473055 0.001280528
-0.04306828 0.09185759 -0.0031422044 -0.099628046 -0.09495973 0.019351777 0.0605088 -0.081542134
0.0656037 0.009206134 0.06550589 -0.034585472 0.062313724 0.079628795 -0.062195137 -0.0036917548
0.013323317 0.021025851 0.09145622 0.0057096956 0.058914814 0.07408056 0.0053116237 -0.06897229
0.03960829 0.09474741 -0.04491045 -0.095360756 0.07567653 0.01964706 0.019715693 0.096151754
-0.04753717 -0.006525693 -0.072078206 -0.06164292 0.0001416882 -0.031876195 -0.03652551 -0.0062935743
0.0896404 -0.026579691 0.09030364 -0.042390145 0.031337738 -0.054621212 0.067558765 0.008054484
0.07763904 0.004447345 0.022422172 -0.018154003 0.046488088 -0.0677997 -0.028807424 0.027394978
0.05378848 0.036331706 -0.015137078 -0.041320093 0.047342014 -0.06644956 -0.0019339728 -0.058333132
0.048261058 -0.017758038 0.09131568 -0.039480045 -0.041387334 -0.07504472 -0.010870222 0.08188406
0.010567519 -0.08717215 -0.06667619 0.03525143 -0.06359363 0.053039085 -0.07264416 0.058700174
0.030912988 -0.016010562 -0.0101499995 0.03692658 0.0713088 0.05954967 -0.09580259 0.055249646
-0.049290713 -0.023670185 0.080984965 -0.06569089 0.062135074 -0.006810683 0.058527768 0.0068928804
0.02484639 -0.058888376 -0.08536129 0.07384128 0.056840643 -0.013378802 -0.04639465 -0.08682655
-0.09741704 -0.0068072453 0.06053355 -0.04550144 -0.0055862986 0.093504496 0.036425076 -0.062956005
-0.048739538 -0.09769134 -0.04246872 -0.027770687 0.032713242 0.088654414 0.06850526 0.07191336
0.059791647 -0.06465939 -0.037376963 0.04872468 -0.023160957 0.026141599 0.0761244 -0.00035224855
0.06345867 -0.056497503 0.035133738 0.011347514 0.0044476436 -0.04280389 -0.06604239 0.060368374
0.07238288 0.10056128 0.0690752 0.04885609 0.060597815 0.034664854 0.08886541 -0.014246787
0.06726973 -0.07695867 0.039696347 -0.08121119 0.04337446 -0.017687751 -0.091745645 -0.007980153
0.0808834 0.04784543 0.033374842 -0.028640335 0.08219711 0.07941285 -0.0868544 0.078315645
0.101515375 -0.09648451 -0.016414734 -0.021951655 0.02424431 0.028692972 0.0921493 0.014071059
0.09036351 0.08578475 -0.03849279 0.09212961 -0.08404471 0.07459582 -0.049173966 0.064132035
-0.08436258 -0.09341865 -0.05783205 -0.07244641 0.005951574 -0.09646595 -0.0026760632 0.01781618
0.07180391 0.03463114 0.052716788 0.09728167 0.09215654 -0.08263995 -0.020823287 0.07422389
0.094659306 0.009345651 0.052042596 -0.033583257 0.008062825 -0.008161329 -0.027370492 -0.042053293
-0.047441725 0.0862052 -0.098858505 0.015367927 0.054624002 -0.09597095 0.04895011 0.08691109
0.08029662 0.090738244 -0.024711778 0.07613184 -0.05702125 -0.014500902 -0.0784887 -0.008693942
0.07159209 -0.027191741 -0.095067315 0.094253756 -0.018189307 -0.07906599 0.080616266 -0.06606376
0.07518821 -0.006936992 -0.08786794 0.04347162 0.036218606 0.09013943 -0.08252123 0.061761186
-0.013372668 -0.028688403 -0.07426193 0.086079575 0.039742168 -0.012325867 -0.09563657 0.018195717

rnn.weight_hh_l0 f4 [300, 100]
00000000: 1a56 7a3d 2d6c c53d b80c c0bb 6d97 94bb
00000010: e9b3 f43c 90a3 9a3d db0a 91bd adef 303d
00000020: 1fc1 61bd 06ed c7bd 66a8 e23b 8762 523c
00000030: c628 a7bd ee73 193c 900e 1abd 5dec ad3d
00000040: 958c 42bc f312 b4bd cdbd 3fbd c453 48bd
00000050: ee9b 9f3d e0fc d8bb 586b 903d fee0 b73d
00000060: bcd4 c33d 9fe1 89bd 57e2 bcbd d14c 923c
00000070: c1cc 71bd 2812 a5bd 81d8 c9bc 97b4 09bd
00000080: 118c 703c 8bbe 9d3d bd75 203d 6ee0 d1bb
00000090: b933 20bd 2c2a afbd 6118 30bc 063e a6bd
000000a0: a974 bc3c 956d 0ebd 7627 993d 9f75 0b3c
000000b0: 2385 623d 6c25 bf3d cae0 97bd 8687 913a
000000c0: 4e14 bbbd 8736 06bd 0145 653d ea3f 623d
000000d0: d834 bc3d ea68 8c3d d114 b4bc c4b1 acbc
000000e0: ff76 053b f0e8 c73d 2557 a0bd 0060 c6bb
000000f0: 608a 5bbc d172 9cbc fc00 98bd a64d 79bb
00000100: 02df cf3c 06b4 26bd 28e8 be3d 16b4 dabc
00000110: 1a77 df3c 5709 afbd bcd1 53bc beb7 ccbd
00000120: 45bf 643d 04db 193d 1a7b 92bc 3801 30bd
00000130: b0a9 2ebd 5714 2fbd c191 843c d44f 5ebd
00000140: 99ae 883d 8a35 a0bd 3167 023d 6479 563d
00000150: 17e5 8cbd e867 133d 8115 763d 241d debc
00000160: cb55 803d e15b c1bd 2385 a33d 4be1 453d
00000170: 24af 563d 74da 57bc c972 74bd 6f98 b2ba
00000180: ba29 6abd 6b63 7e3c a7fe 07bd 9939 3ebd
00000190: 3f59 753d a613 a03d 4619 d63c 83bd 98bc
000001a0: cc1d c2bd 3486 bd3d 2421 e53c 8589 573d
000001b0: 590e 223d 137f ab3c 839c 66bd c9f4 9c3d
000001c0: 31b5 54bd 3d57 053c 3aea 73bd 94d5 283c
000001d0: 1b08 d03b f81c aebd 2305 283c 88b0 2bbc
000001e0: 3f91 273d 88dc 8a3d 8da4 6dbd 2816 c2bd
000001f0: 05cc abbd 5227 23bd d90f 483d 55d1 b3bd
00000200: d7fa e3bc 0413 753b 0305 273d d5f9 30bd
00000210: 486d 093c defc bcbd 7dcb 3c3d fa70 c4bd
00000220: 7989 cf3d 5c48 c13d 99a8 2fbd 22c5 a1bd
00000230: 0aa9 2fbc 158a 35bd 4efa f23c dc49 9abd
00000240: 2703 913d b85b cdbd b636 a23d 21d5 bfbc
00000250: 2a96 3e3b 94f4 503b c5d0 f13c 1867 703d
00000260: 949c c73c 3f1f d93c 4f58 23bc 1647 c63d
00000270: 141f 67bd 694b 273d 9147 bd3d c4ad 25bc
00000280: bafb 5b3d e25f 783d df1e a43d ae95 c6bc
00000290: 5f5e 48bc c6de 4cbd a2fc 72bc 5ddd 493d
000002a0: da4c 3c3c e46b 15bd b609 b2bd 892d b43d
000002b0: 9f7a a8bd dcdf 7bbd 248f 513d 5676 93bd
000002c0: 4a5f d4bc 490e 8cbd 86d5 8bbd ab54 b3bd
000002d0: 94eb a5bc b9bc 093d 70f6 73bd f180 6c3d
000002e0: 5ce1 c7bd 93e6 7d3c b92c bc3d 23ad 94bd
000002f0: 7327 f2bc bcf2 63bd 90b6 813d b3bf 7e3d
00000300: 9660 4e3d 4973 9cb8 543f abbd 0a98 203d
00000310: e4f6 bdbd 5a04 2cbd e055 6a3d a1bd 25bc
00000320: 6ca8 b5bd 818c 683d 7fee cd3b 7c23 8fbb
00000330: b11e 8a3b 8cda 80bc 66aa 7c3c 96d8 293d
00000340: 4a68 48bd 03a5 db3b 3a97 7f3a 9a15 1abd
00000350: 5302 a33d 6d49 a6bd 4b32 53bd 8956 c3bc
00000360: ca38 84bc 9939 ad3c 040a 03bd 18bf 683d
00000370: 7d7c 7e3d 9014 5b3c fbe0 483d a644 80bd
00000380: f4df 84bc 9c64 58bd d4f6 5d3d c283 493c
00000390: 27a5 2d3d a2fb 8d3b f139 c0bd 562d 503d
000003a0: 0f38 7b3c 5f40 cdbd e403 77bd 00d2 43bd
000003b0: 8af7 b23d a7a6 9fbb 2aad 5f3c 0b16 843d
000003c0: 7395 ee3c a476 c8bc 6960 59bd 0a83 64bd
000003d0: a691 16bd 2fea c4ba fba4 eebc fc92 7fbd
000003e0: 42a8 b03d 6520 c53c 22d9 763c 8988 e33c
000003f0: ec5e 883d 278a 773d 9390 cf3d 3a23 733d
0.06111727 0.096397735 -0.005860891 -0.004534653 0.029870944 0.07550728 -0.07082149 0.043197323
-0.055115815 -0.097620055 0.0069170473 0.012840874 -0.08162074 0.009366019 -0.037611544 0.08492348
-0.011874338 -0.08792677 -0.046811868 -0.04890801 0.07793413 -0.006621942 0.07051724 0.08978461
0.0956206 -0.06732487 -0.092228584 0.017858895 -0.05903316 -0.08060104 -0.02463937 -0.03361949
0.014681832 0.07702359 0.039174784 -0.006404928 -0.039111827 -0.085529655 -0.010748 -0.08117299
0.023004847 -0.034772474 0.0747823 0.00851193 0.05530275 0.093333095 -0.07415922 0.0011103011
-0.09134732 -0.032766845 0.05597401 0.055236734 0.09189767 0.06855948 -0.021982582 -0.021080859
0.0020365117 0.09761226 -0.078291215 -0.0060539246 -0.01339969 -0.019097717 -0.07422063 -0.0038040667
0.025374893 -0.040699027 0.09321624 -0.0266972 0.027278472 -0.08546703 -0.012928423 -0.099959835
0.05584647 0.037562385 -0.017880965 -0.042969912 -0.042642295 -0.042744007 0.016182782 -0.05427535
0.06673927 -0.07822712 0.031836692 0.05236186 -0.06879633 0.035987765 0.0600791 -0.027113505
0.06266364 -0.09441353 0.07984378 0.04831056 0.05241312 -0.013174642 -0.05967978 -0.0013625751
-0.0571687 0.015526633 -0.03320184 -0.04644165 0.059899565 0.07816248 0.026135098 -0.018645054
-0.094783396 0.09254113 0.027969904 0.052621383 0.039564464 0.020934617 -0.056301605 0.076638766
-0.05193061 0.008138475 -0.059549548 0.010304827 0.0063486225 -0.08501619 0.010255131 -0.0104791
0.04091 0.06780344 -0.058018256 -0.09476882 -0.08388523 -0.03983242 0.04884324 -0.08780161
-0.02782957 0.0037395367 0.040776264 -0.04320701 0.008387871 -0.09227918 0.0460925 -0.09591861
0.10133643 0.094376296 -0.042885397 -0.07898928 -0.010721454 -0.04432114 0.02966037 -0.07533619
0.070806794 -0.100272596 0.079205915 -0.023417057 0.0029081204 0.0031884061 0.029518494 0.058692068
0.024366654 0.026504157 -0.009969785 0.09681527 -0.056426123 0.0408434 0.09242166 -0.01011223
0.053706862 0.060638316 0.08013701 -0.024241295 -0.012229531 -0.05001714 -0.01483074 0.049283374
0.011492932 -0.036479846 -0.086932585 0.08797748 -0.08226513 -0.061492786 0.0511619 -0.07200305
-0.025924344 -0.06838662 -0.06827836 -0.087563835 -0.020253934 0.033627246 -0.059561193 0.057740156
-0.09759781 0.015496868 0.09188218 -0.07259586 -0.029559826 -0.05565141 0.06333649 0.062194537
0.05038508 -7.460133e-05 -0.08361688 0.039207496 -0.09275606 -0.041996337 0.057210803 -0.010116012
-0.088700145 0.05677462 0.0062845345 -0.0043682437 0.0042150845 -0.015729211 0.0154214855 0.041466318
-0.048927583 0.0067030205 0.00097500125 -0.037618257 0.07959428 -0.081194736 -0.051561635 -0.023844974
-0.01614036 0.021145629 -0.031991974 0.056822866 0.06213044 0.013371602 0.049042683 -0.06263094
-0.01622007 -0.052830324 0.05419047 0.01229948 0.04239383 0.0043329755 -0.093860514 0.050824486
0.01533319 -0.100220434 -0.060306445 -0.047807693 0.087386206 -0.0048721614 0.013652125 0.06449517
0.029123997 -0.024470635 -0.05307046 -0.05578903 -0.036759995 -0.0015023405 -0.029131403 -0.062396035
0.08625843 0.024063298 0.015066417 0.027775066 0.0665873 0.060434487 0.10134997 0.059359767

rnn.bias_ih_l0 f4 [300]
00000000: 6c9c 9f3d 596b 33bd 7cf8 4dbc 3176 ba3c
00000010: 656a 9e3d ac24 27bd 019f 233c 11d7 af3d
00000020: de9a 553d d0de 1fbc d422 74bd 1d56 05bd
00000030: 7231 a73d 2bb8 c0bd cc4f ab3d 80e4 45bc
00000040: c479 a33d 3433 b2bd 8fac 9dbd 72c2 aebd
00000050: 3994 99bd 7fb1 83bd 7a44 c83d a542 5e3b
00000060: 116f 923d dcaf 01bd e419 74bd 71c3 b73d
00000070: 2932 4c3d a1b4 723d b577 c53d 6715 b33d
00000080: 3e20 43bc eea8 52bc 68d5 c5bd dd8c 153c
00000090: 1358 8ebd 4b7a b43c a94d 1b3d 11ec ccbc
000000a0: 83aa 45bc e83f 6dbd df5f 183d 33ac dbbb
000000b0: a530 2cbd d789 023d e92a c43d 1f64 86bd
000000c0: 68f2 d33b 41b6 b13d 9a31 0e3d c16b 20bb
000000d0: 4361 5d3d 5597 d9bb e157 333d 4972 9f3d
000000e0: 8e45 913d 87dc 803d acb6 3dbc 7322 d13c
000000f0: ff28 c03d 9235 2c3d e047 9e3d d0c6 963d
00000100: 2990 e03c 64e8 fd3c 5e5f 403d 2a87 803d
00000110: 4fd3 db3b 5d49 f3bc 1f8e ca3d 8aa1 6bbd
00000120: 1c2a e13c c8d8 aa3c 73cf 35bd 1fa4 b2bd
00000130: 7468 4e3c 5d2c b0bd 22fe 9dbd 3108 25bc
00000140: 1fa9 8fbd 2dda ee3c cf27 fd3c 8e5e 2abd
00000150: 6280 85bd 858c 7bbd 8d44 643d e47f 82bd
00000160: 065f 41bd c28e 22bd 054d b8bd 88c3 08bd
00000170: 5c30 643d e167 e63c bbdb 263d 4359 973c
00000180: 0905 893d 0801 a6bc 175e c43d 4a5c c7bc
00000190: b406 c5bd 9dd2 a5bd 8578 8abd d388 eeba
000001a0: 2b65 eabb 8338 bc3d d6be 57bd d8b4 de3c
000001b0: 2aed f73c 31be 5b3d 2d47 b43d 915a 83bd
000001c0: e35b 32bd b9e6 183c fe26 96bc 4500 833c
000001d0: 3d23 e6bc baf8 aabd a216 a4bd ec2e 36bd
000001e0: d969 1d3d b013 993b dd1d 25bd df92 b13d
000001f0: b587 a33c 9cea bc3c 8abe a8bc ad6d 9f3b
00000200: 7645 91bd 117a b4bd 5d8c 5c3d 742c 873c
00000210: 11d7 773d ae45 b5bb 17e9 153d 511e f2bc
00000220: 0570 99bb 8477 a8bd 4ddc 59bd f899 bb3d
00000230: ad1b 89bd d191 ca3c 1ba8 82bc b1f1 8c3d
00000240: 8cde 283d b879 993c 22cd 0cbd 6a42 99bd
00000250: 961d b5bd 9fc4 683d 1f99 cabc 18f6 9a3d
00000260: b344 0abc e8cc dbbc 1608 3bbd a001 943d
00000270: 9b1a 42bd 0d47 5e3d 1d29 e83c a43e c1bd
00000280: c3af c2bd a5ad cbbd 6ff6 fabc f813 a13d
00000290: 9593 7d3d 861b 7cbd 3d9d ef3c 2677 acbd
000002a0: 18dc b03c 97eb b5bd 816e c23d 60fa 073d
000002b0: 5f7e 9cbc 5abf 243d 9cf3 22bd 8dc1 cdbd
000002c0: 4d68 2b3c 84f5 fbbb bd65 a7bd 9970 b6bd
000002d0: da85 a33d 82f4 bfbd 8b01 523d 5040 82bd
000002e0: d77c 8bbc 7b8f 92bb c762 8a3b a920 793d
000002f0: a376 0c3d 7184 1fbd 8e9b bbbd 7dd5 56bc
00000300: 7209 f33c f297 83bd 97f5 c33d bb37 95bd
00000310: 1355 f03c 739d 56bd c341 15bd 9de8 5ebc
00000320: 3504 c93d 5ec0 4bbd c656 89bd cbc0 b0bd
00000330: b1ad d2bc eeb4 aabd ea83 9fbd 3c6a 7bbd
00000340: 53c5 683d 682c a2bd 4592 e13c dd1a aebd
00000350: afb0 78bc caac 4cbd cbeb babd 1f88 cb3d
00000360: 3c39 35bd 06b8 213d 22c0 8e3d fd52 d7bc
00000370: 1d48 b43d 07db c43d 9b9f 33bd d015 38bd
00000380: 1457 273d 5d37 7e3d 8166 e23c 514a 293d
00000390: f645 303c 4b7c 18bd a30b 82bd 0c21 24bb
000003a0: 6fe5 b5bd 1a3c 963d 3fc2 0c3d 5f48 67bb
000003b0: 89c3 913d eb41 49bd 9652 8fbc 51c5 5fbc
000003c0: 83bf 373c 3e76 ca3d 1184 c53c 1292 8b3d
000003d0: 2bdc 90bd 0db0 20bd 1bef e63c 3eb0 903d
000003e0: a0ba 65bd e5ad 45bd 4b7a 323c 106e c73d
000003f0: 95e3 a8bc 8187 40bd bde3 8cbd ad35 9bbc
0.07793507 -0.043803547 -0.01257145 0.022761436 0.07735137 -0.040806457 0.00998664 0.085859425
0.052149646 -0.0097577125 -0.059603527 -0.032552827 0.08163728 -0.09410127 0.083648294 -0.012078404
0.07982209 -0.087011725 -0.076989286 -0.08533181 -0.07498974 -0.06430339 0.09778686 0.0033914235
0.071500905 -0.031661853 -0.059595004 0.08972824 0.049852524 0.059254292 0.09641973 0.087443165
-0.011909543 -0.012857659 -0.09659845 0.009127823 -0.069503926 0.02203097 0.03791586 -0.025014909
-0.012064579 -0.057922274 0.037200805 -0.0067038774 -0.04203858 0.031869736 0.09578497 -0.06562065
0.006468106 0.0867734 0.034715272 -0.0024478289 0.054047834 -0.0066403546 0.04378498 0.0778547
0.07093345 0.06292062 -0.011579197 0.025529122 0.093828194 0.042043276 0.07728553 0.07362139
0.02741249 0.030994602 0.04696595 0.062757805 0.0067085396 -0.029698068 0.09890389 -0.057527103
0.0274859 0.020855322 -0.044387292 -0.0872271 0.012598146 -0.086022116 -0.077144876 -0.010072754
-0.07014679 0.029156769 0.030902771 -0.04159408 -0.06518628 -0.061413307 0.055729438 -0.063720495
-0.047209762 -0.039686926 -0.08999065 -0.033389598 0.05571018 0.028125705 0.040736895 0.01847518
0.066904135 -0.020264164 0.09588259 -0.024335999 -0.09620419 -0.08096812 -0.067612685 -0.0018198736
-0.0071531734 0.09190466 -0.05267223 0.027185842 0.030264456 0.053648178 0.08802638 -0.064137585
-0.04354466 0.009332352 -0.01832914 0.01599134 -0.028092975 -0.08348222 -0.08012129 -0.044478342
0.038431022 0.0046715364 -0.040311683 0.086705916 0.019962171 0.02306109 -0.020598669 0.0048653693
-0.07093327 -0.08812345 0.0538448 0.01650069 0.060507838 -0.005531988 0.036599245 -0.029555472
-0.004682543 -0.08225921 -0.05318861 0.091602266 -0.06694732 0.024727734 -0.0159493 0.068820365
0.041227862 0.018734798 -0.034375317 -0.074833706 -0.08843534 0.056828137 -0.024731217 0.0756647
-0.008439231 -0.026831105 -0.04566201 0.072268724 -0.047388654 0.054266978 0.028339917 -0.09435776
-0.0950618 -0.099452294 -0.030635087 0.07865137 0.061908323 -0.061549686 0.029249782 -0.08421163
0.021589324 -0.08882826 0.09493733 0.03319776 -0.019103227 0.04022155 -0.039783105 -0.100466825
0.010461879 -0.00768918 -0.08173702 -0.08908195 0.079845145 -0.09372808 0.051271003 -0.06359923
-0.017027302 -0.0044726706 0.004223201 0.060822163 0.03429283 -0.038944665 -0.09160529 -0.013112423
0.02966759 -0.06425466 0.09568327 -0.0728602 0.029337442 -0.05239625 -0.03643967 -0.013605264
0.098152556 -0.049744003 -0.06706004 -0.08630522 -0.025717588 -0.08335291 -0.077888325 -0.06138061
0.056828808 -0.07918626 0.027535567 -0.085012175 -0.015178843 -0.049969472 -0.09127005 0.099380724
-0.044244036 0.03948214 0.0697024 -0.02628469 0.08802817 0.09612089 -0.043853384 -0.044942677
0.04085453 0.062064517 0.027636768 0.04133064 0.0107588675 -0.03722791 -0.06349876 -0.0025044112
-0.088816516 0.07335682 0.034364935 -0.003529094 0.071173735 -0.04913513 -0.017495435 -0.013657884
0.011215094 0.09885834 0.024110826 0.0681497 -0.07073244 -0.039230395 0.028190186 0.070648655
-0.056086183 -0.048261542 0.010893415 0.0973779 -0.020616332 -0.047004227 -0.06879375 -0.018946493

rnn.bias_hh_l0 f4 [300]
00000000: baa4 17bc 6f08 a7bc 9a22 a0bc 01d2 58bd
00000010: 9434 75bd aebe afbd 113d c5bd a1ff 99bd
00000020: e9b9 57bd 8c0b 1ebd 109f c43d fda4 353d
00000030: f54a b5bd 653b a63d 06eb 8dbd c9b0 37ba
00000040: 48f1 783c 6140 bcbd 1688 913d fae1 773c
00000050: 76dc ac3d 03e8 2cbc 6d22 bf3d 94e8 f9bb
00000060: b24d 80bc fd73 853d 4dc3 0fbd 5c15 b5bd
00000070: 10e8 9ebd eafb a5bd 1d71 8e3c 4abd a23c
00000080: a1e0 913c ec16 6d3c 97f3 c63d bf9d 803d
00000090: 34c8 a3bd 3b97 e7bc ae37 27bd a34d 613c
000000a0: 9a39 c0bd f61a d43c 91a9 85bd a40a 20bd
000000b0: fdea ab3d 6dcc 0f3d 713c 36bc 2445 f93b
000000c0: 6841 ad3d 6909 90bc 623f a63d e9ed c5bd
000000d0: 29ab bb3c c703 4c3d 3cef 5138 968c 6ebc
000000e0: 01b4 2f3d 18be 603a 610a 813d eaef c7bd
000000f0: 4433 11bd 8233 3abc 200c ccbd 1b51 813d
00000100: f761 a7bc 3d0a 453c 05f0 ac3d 64fc 8b3d
00000110: 7cad ac3d 11d2 b3bd 4907 6c3d 69f7 3b3c
00000120: da34 523d 7140 0cbd f1a1 493d 09ad b53a
00000130: 4457 2b3d a25b aebd 3d7a 823a 3372 1dbb
00000140: ec5b 863b a2c6 0a3d c04c 60bd 30f8 643c
00000150: d654 503d 625a 083d 1345 1ebd 4d66 90bd
00000160: 07b8 cbbd 6e8a 143d 34cb 59bd 05f9 54bd
00000170: d104 b5bc ad5e adbd b477 a43d 17f5 353d
00000180: 2551 a23d 3fad e63c d95f 453c 54e2 0fbd
00000190: 9874 3e3d a592 af3c 6cbe f63c 249d ac3c
000001a0: 0553 213c c655 4b3d 018b 68bc df32 de3c
000001b0: c8f7 723d 4817 b83d a242 a73d d33c ce3d
000001c0: c156 98bd 2ae8 acbd cbee cebd a33a 7abd
000001d0: 543a b93d 9863 11bd d079 6a3c 0cfc bebb
000001e0: c3f2 483d 16bf 8a3b 3e28 adbd bf15 be3d
000001f0: 9f03 5abd 9785 d2bb 51dc 2f3d f41a 6a3d
00000200: 5f5d 483d 5356 7bbc 2de8 75bd a0e5 cd3c
00000210: dfda 07bd cb06 4cbc cf0b 53ba 69c9 9cbd
00000220: 2403 57bd 73a6 993d b43f ab3d fd52 943d
00000230: e70d bdbd 3a4d 653c 59e3 3f3d 28f3 233b
00000240: 3aff 9c3d 0fb4 33bd ef23 0fbc 31fa eb3c
00000250: d04a cb3d 91e2 003b b025 253c 2d81 143d
00000260: 66ca 7d3d 7d0e 8abd 48a8 80bd 984e 8fbd
00000270: 6b58 963c 46b7 243d 4a30 77bd dce3 3abd
00000280: 3f26 2cbd dda2 3fbd 298a b7bc 0b14 15bd
00000290: 3628 c03d 9225 09bd c31f c83c 4349 283d
000002a0: e6b9 45bc 12aa 583d 748e ae3d 1c3d f6bc
000002b0: 7730 19bd 9149 1c3d ac78 9dbb af56 573d
000002c0: 9fbd a53d 0bf5 9cbd 9d5d 9bbd d3f0 983d
000002d0: 24f2 f3bb af28 2ebd 5684 afbd 77cc 50bb
000002e0: 9f58 9a3d 97b1 bd3d 109c 693d 9535 ba3a
000002f0: 2a9a 0f3d cd08 58bc b399 973d b7a7 9fbd
00000300: a46b 363c 98f6 04bd 6aa3 d93c 6654 b23d
00000310: b73c adbd 9a49 173d 8842 b6bc 14c7 113a
00000320: 0c93 f7bc 7a60 433d 3cde 423b e788 ab3d
00000330: 9e08 c1bd 9661 ac3d 0b3e 43bc 16ba d13c
00000340: f505 a63d 70df 2f3d 1c66 91bd 4b0d 5f3d
00000350: 68f5 a83d 0c27 5b3d 87c3 40bd 81d7 9abd
00000360: 8f76 ac3d 12b7 c7bc 017a 1e3d 9614 903d
00000370: 47db abbd 7f16 a73c e1e4 c23d c137 acbc
00000380: 8a27 cdbc 0505 4c3c 4f07 1b3c a39e 423b
00000390: 3d45 28bd daea 7cbd acd1 98bd 78d7 563c
000003a0: 770e 6f3d ffd0 cdbd 3c2a 9e3d e19e 8cbd
000003b0: 9416 57bd 7d0b 2f3c 3e59 963d ba2d 8b3d
000003c0: 68f7 843d fd4d 48bd 6fa4 393c 49c7 073c
000003d0: ca4a a23d 6ddc 3d3c cafb 923c 9bd6 7e3c
000003e0: f17a 493d 5972 b6bd 7140 a9bd ef8c 9dbd
000003f0: 9620 bdbc 2c1a 8d3d adbe 7abd c0ee 8c3d
-0.0092555825 -0.020389764 -0.01954775 -0.05293465 -0.059864596 -0.08581291 -0.09630788 -0.075194605
-0.052667532 -0.03858523 0.09600651 0.0443468 -0.088521875 0.08116797 -0.06929593 -0.0007007239
0.015194245 -0.09191967 0.071060345 0.015129561 0.08440487 -0.010553363 0.09332738 -0.0076266024
-0.015662048 0.06516264 -0.035098363 -0.088419646 -0.07759106 -0.081046894 0.017387921 0.01986565
0.017807307 0.014470797 0.0971443 0.06280088 -0.0799717 -0.028270354 -0.040824585 0.01375142
-0.093859866 0.025891762 -0.06526483 -0.039072648 0.0839443 0.035107065 -0.011122809 0.007607119
0.08459741 -0.017582612 0.08117558 -0.096645184 0.022908764 0.04980829 5.0052287e-05 -0.0145598855
0.042896274 0.0008573248 0.06300808 -0.09762557 -0.03544928 -0.0113648195 -0.0996325 0.06314298
-0.020432455 0.012026367 0.084442176 0.06835249 0.08431527 -0.08780301 0.057624135 0.011472561
0.051319934 -0.034241144 0.049226705 0.0013860773 0.04183127 -0.08513571 0.0009954643 -0.0024024367
0.0041003134 0.033880837 -0.054760695 0.013975188 0.050862156 0.03328932 -0.038640093 -0.07050762
-0.0994721 0.03626483 -0.053172305 -0.051995296 -0.022097023 -0.084653236 0.08030644 0.04442319
0.07925633 0.028158782 0.012046778 -0.035127953 0.04649791 0.02143223 0.030120097 0.021071024
0.009846454 0.049642347 -0.014193297 0.027123867 0.059318334 0.089888155 0.08167006 0.10070195
-0.07438422 -0.08442719 -0.1010414 -0.061091077 0.09044328 -0.03549537 0.014311269 -0.005828386
0.04905964 0.004234205 -0.08454941 0.092814915 -0.05322611 -0.0064246166 0.04293472 0.05715461
0.04891717 -0.0153404055 -0.060035873 0.025133908 -0.033167716 -0.012452791 -0.0008050771 -0.076556034
-0.05249323 0.07502451 0.0836176 0.07242391 -0.09231167 0.013995463 0.046847675 0.0025016759
0.07665868 -0.04387289 -0.008736595 0.028805824 0.09926379 0.0019666294 0.010079786 0.036256004
0.0619606 -0.06741045 -0.06282097 -0.069974124 0.018352708 0.040213846 -0.060348786 -0.04562746
-0.04202866 -0.046786178 -0.022404747 -0.036396068 0.0938267 -0.033483095 0.024429208 0.041085493
-0.012068247 0.052896567 0.085232645 -0.030058436 -0.037399735 0.038156096 -0.004805645 0.052572902
0.08092808 -0.07663926 -0.07586215 0.074678086 -0.007444637 -0.042519268 -0.08570163 -0.0031860152
0.075364344 0.09262388 0.0570336 0.0014206643 0.03505913 -0.013185692 0.07402363 -0.07795661
0.011134062 -0.032461733 0.02656718 0.08707504 -0.08458846 0.036935426 -0.022248521 0.0005560976
-0.030221485 0.04769943 0.0029734513 0.083757214 -0.09425472 0.084170505 -0.011916648 0.025601428
0.08106605 0.042937696 -0.07099554 0.054456037 0.082499325 0.053504035 -0.04706147 -0.07560635
0.08421051 -0.024379287 0.03869057 0.070351765 -0.08391433 0.02039647 0.095163114 -0.02102268
-0.025043268 0.012452369 0.009462192 0.0029696606 -0.041081656 -0.06174741 -0.07461867 0.013112895
0.058363404 -0.100496285 0.07722899 -0.06866241 -0.052511767 0.010683891 0.0734124 0.06795831
0.064925015 -0.0489025 0.011330708 0.008287259 0.07924421 0.011588198 0.017942328 0.015554096
0.04918951 -0.08908529 -0.08264244 -0.076928966 -0.023086827 0.068897575 -0.061217 0.068814754

fc_out1.weight f4 [50, 100]
00000000: 5da4 0cbd ebe0 c8bc 2465 babd 3bd6 773d
00000010: 40e9 04bd 61ee 47bd 12bf b7bd 1334 cdbd
00000020: 84e4 233d eab4 ac3d 5f1e 5c3d 9a28 8e3d
00000030: ee1d 363d ba59 6d3c c532 1d3d 57c8 e8bc
00000040: 9115 b2bd 5b83 81bd b878 843d f0cc b0bd
00000050: 12b7 c93d 1620 a4bd 6038 b33d ebb8 2bbd
00000060: 5827 903d f25a 85bd 1212 d13c 5199 0abd
00000070: 189e 9d3b 9253 be3d da27 aa3d 896c aebd
00000080: db54 9bbd dff8 03bd 6d4b 24bd f3f4 f03c
00000090: 826e 18bd 3032 8dbd 6e74 c53d 4572 b43d
000000a0: 7496 a43d 957e abbd c012 4bbd 859f 40bd
000000b0: cd91 0abd 8eb3 85bd 840d 913d c8a2 a4bd
000000c0: 439a a33d 58e9 8a3c 2bd7 1abd a5ed e4bc
000000d0: bab8 1a3d 6a31 3cbd 566b afbd 7228 0a3b
000000e0: 8840 c93d 0aab 8e3d 1431 783c a99a 28bd
000000f0: af38 0d3c 6e78 d8bc bd48 87bd 1062 813d
00000100: 617e 2f3c f3cf b53b f193 02bd fede c2bd
00000110: d61f 0dbd 548a 683b 7b2f 95bc eec2 2d3d
00000120: 5a4e 2e3d 3b81 353d 8650 b6bd 0dec 07bd
00000130: 3443 3d3d d242 c53d d41e e73c 856e ae3d
00000140: 7b59 9b3c 294b b23d c654 2e3d 4452 533d
00000150: f2df c9bd 15d7 d23b 0cc1 0d3d 2b82 7bbc
00000160: 0730 973d 8dca 66bd dd5f c0bd 7e26 92bd
00000170: 4047 1f3d 10d1 563d bc44 6c3d 1807 a93d
00000180: 7c06 3abc daa5 c6bc a45f 6cbd e718 0dbd
00000190: 4dc5 e0bc ddbe 0e3d 8719 19bd 2fe6 8dbd
000001a0: fa3a 2bbd 73aa 353c ba00 453d e78c 843c
000001b0: 270d 90bc 130f b83c 5529 ab3d 1a84 153c
000001c0: a01b 06bd 0743 8dbd 2724 793d c702 f73c
000001d0: f36a 15bd 7a84 c2bd da90 5d3d 7852 b93d
000001e0: 70b1 68bd 33c0 3bbb a39c 293d 5359 76bd
000001f0: 774a 133d 3347 f7ba 6a6c 11bd eb96 ad3d
00000200: 5a49 4bbc 0712 253d 607f f8bc 0bad 93bd
00000210: a08d fb3c e852 82bd 9d10 b9bd 8223 c7bd
00000220: 0029 53bd 13d8 5ebd 23a5 8cbd 5848 84bd
00000230: e77c cbbd 80be 73bd 57af bcbd d04b 4dbd
00000240: e830 adbd d5a5 be3d c023 143d 9d45 3a3d
00000250: 2ab9 2c3d 62c6 c2bd 6778 db3a 3726 8a3d
00000260: 808e 4bbc 5a88 47bc 80a8 833c 6043 943c
00000270: a0ef a93d 80f4 69bd 37ae 4b3d 6a13 64bd
00000280: 9001 743d fa8b d83c 8b83 b73d 8220 b6bd
00000290: 2add 00bd 6b93 833d 9a85 233c 488a 87bd
000002a0: f030 6c3d cd5c 263a 87d1 1dbd 73b2 2d3d
000002b0: 9d65 bfbd c5b7 c43d 80ca a33b c3b0 413d
000002c0: 8dc6 663d 18c5 babd 8f98 9abd 9379 09bd
000002d0: 9a0b 9d3c b334 66bc 6713 dc3b 337c 1dbd
000002e0: 6d14 093d a369 0a3d 6d43 a13c 278f c73c
000002f0: 9a33 9c3a 3a46 753d cdec 38bc a2c5 a53d
00000300: 3087 393d e7e1 47bc e327 b8bd c267 ba3d
00000310: f324 263c 33ef ef3c d73d 60bd 936b 9abc
00000320: 0ec5 00bd 9fd6 d83c 10e7 3d3d 677b 25bc
00000330: a3ee adbc 7c2f 8abd dd1d 52bd 2b1c be3d
00000340: 79f3 a83a de3c acbd f632 a8bd e9fc a5bc
00000350: 7c77 a9bd 1dbf 8cbc d912 713d b7f2 04bd
00000360: 5325 4bbd 8ddc b03c b218 b9bd 546b cfbd
00000370: 3f32 c8bb 6904 323d 85c5 26bc 786f 7e3d
00000380: f6d6 a73c 3acb 493d 2e05 19bd d66e 873d
00000390: 0443 0fbd fddf 933d deb3 06bd 80fe 45bd
000003a0: d7b6 af3d a74a d73c b3d4 c23d 744d 95bd
000003b0: 5f41 813d f70c d2bc 6ffb d4bc c26b 8e3d
000003c0: 493b 93bd 91ee c2bd 9ef7 1e3d cfea 273d
000003d0: 95cf e9bb 54e4 823d 06a7 4c3c 52e9 b53d
000003e0: 157e 78bb 7384 05bc 894f 8fbb b558 afbd
000003f0: 804a 83bd 2efb 283d b07b 893d ff83 a03c
-0.034336437 -0.024521312 -0.09101322 0.06050704 -0.032449007 -0.04881132 -0.08971991 -0.10019698
0.04001285 0.08432944 0.0537399 0.06941338 0.044462137 0.0144867245 0.038378496 -0.028415842
-0.0869552 -0.06323882 0.06468338 -0.08632839 0.09849371 -0.080139324 0.08750987 -0.0419244
0.07038754 -0.06511487 0.025521312 -0.03383762 0.004810106 0.092932835 0.08308382 -0.08516795
-0.07584544 -0.032219764 -0.040110994 0.029413676 -0.037214763 -0.06894338 0.09641348 0.08810858
0.08036509 -0.08373753 -0.04957843 -0.04702713 -0.033830453 -0.06528388 0.07082656 -0.080388606
0.079884075 0.01695697 -0.037802856 -0.027945349 0.037773825 -0.045945562 -0.085653946 0.0021081236
0.098267615 0.06966217 0.01514842 -0.04116312 0.008619471 -0.026424613 -0.066056706 0.06317532
0.010711283 0.005548471 -0.03187937 -0.09515189 -0.03445419 0.003548284 -0.018211117 0.042422228
0.04255519 0.044312697 -0.089020774 -0.0331841 0.046206668 0.096318856 0.028212942 0.08517174
0.018963566 0.08705742 0.042561315 0.051592126 -0.09857167 0.006434331 0.034607932 -0.015350859
0.07382207 -0.05634551 -0.093932845 -0.07136248 0.03888631 0.05244547 0.057682738 0.08253306
-0.011354085 -0.024249006 -0.057708398 -0.034447577 -0.02743783 0.03484999 -0.03737786 -0.0692867
-0.04180429 0.011088002 0.048096396 0.016180469 -0.017584397 0.022468125 0.08357493 0.009125734
-0.03274119 -0.0689755 0.060825493 0.030152692 -0.036478948 -0.09497924 0.05409322 0.09048933
-0.056809843 -0.0028648495 0.041409146 -0.06014378 0.035959687 -0.0018865824 -0.035503782 0.08476051
-0.012407625 0.040300395 -0.030334175 -0.0721074 0.03070718 -0.06363469 -0.09036372 -0.097235695
-0.051552773 -0.054405283 -0.06867435 -0.06459111 -0.099359326 -0.059507847 -0.09213131 -0.05012113
-0.08456594 0.09308974 0.036166906 0.045476545 0.042168774 -0.09510495 0.0016744257 0.0674557
-0.012424111 -0.012178505 0.016071558 0.018098533 0.08297658 -0.05711794 0.04972669 -0.055682577
0.059571803 0.026433934 0.08960637 -0.08892919 -0.03146092 0.06424602 0.009980584 -0.06618172
0.057663858 0.0006346226 -0.0385299 0.04240651 -0.09345553 0.09605364 0.004998505 0.047287714
0.056341697 -0.09119624 -0.075486295 -0.033563208 0.019170571 -0.01405065 0.00671618 -0.038448524
0.033466745 0.03379215 0.019685471 0.024360253 0.0011917234 0.059881426 -0.011286926 0.08094336
0.04529494 -0.012199855 -0.08991983 0.091018215 0.010140645 0.029288864 -0.054746475 -0.018850124
-0.031437926 0.026469527 0.046362936 -0.010100222 -0.021231955 -0.06747338 -0.05129801 0.09282716
0.0012889943 -0.08410047 -0.08212845 -0.020262199 -0.08274743 -0.017180974 0.058855865 -0.032458033
-0.049596142 0.021589542 -0.090379134 -0.10127893 -0.0061095054 0.043461237 -0.010178928 0.062118024
0.020488244 0.049266078 -0.037358455 0.06612937 -0.03497602 0.07220457 -0.03288638 -0.048338413
0.08579796 0.026280714 0.095132254 -0.07290164 0.06311297 -0.025640948 -0.0259988 0.06954147
-0.07189042 -0.09518159 0.038810365 0.040995415 -0.0071353414 0.063912064 0.012490993 0.08882393
-0.0037916948 -0.008149254 -0.004373495 -0.085618414 -0.06410694 0.04125517 0.06713045 0.01959419

fc_out1.bias f4 [50]
00000000: 88b1 353d a07f 43bd 8057 e43c 635a 94bd
00000010: 4871 95bb 8d5e 32bd 4ad6 833d ca66 b6bc
00000020: 1f44 aebd d7fd 43bc fa23 42bd 7abc 68bd
00000030: f35d b63d 7b7b 1a3d 27bb 8dbd 6376 493d
00000040: 8a87 a5bd dac5 a9bd 505f e43c 50d1 2bbd
00000050: ff1e 963d 76dd 973d 31d2 d03c f11d 923d
00000060: 0f28 52bc 182e abbd 677b c3bd 4f77 703d
00000070: 0791 c6bd 4d57 443d efba 583d 2611 063d
00000080: d96f 7b3d 525c adbb 27b3 443d d1b2 273d
00000090: 4ad5 22bd 6764 31bd f5dd 713d 6098 383b
000000a0: da4e c43d e803 013d e684 b7bc 99ef b73d
000000b0: 64ca 333c 0d62 c83d 6446 f8bc 6dde acbd
000000c0: b800 c8bd fe5b a1bd
0.04435876 -0.047729135 0.027873755 -0.072438024 -0.0045606233 -0.043547202 0.06437357 -0.02226581
-0.08509087 -0.011962376 -0.04739759 -0.05682037 0.08904638 0.037715416 -0.06920462 0.049185168
-0.08082493 -0.0828969 0.02787748 -0.041947663 0.07330131 0.07415287 0.025490852 0.07134617
-0.0128269335 -0.08358401 -0.095450215 0.05870753 -0.096956305 0.04793482 0.05291265 0.032731198
0.061385963 -0.0052905465 0.048022415 0.040942017 -0.03975419 -0.04330864 0.059049565 0.0028166994
0.09585352 0.031497866 -0.022402238 0.089812465 0.010973547 0.09784327 -0.030307002 -0.08440862
-0.09765762 -0.07878874

fc_out.weight f4 [2, 50]
00000000: 6c40 edbd 8535 eebd 10f3 8a3c 3b81 08be
00000010: a460 c6bd 6320 043e 5114 84bd b0c8 c4bd
00000020: d7f0 d7bd e0f8 c73d eacf 90bc 834e 3ebd
00000030: 6b7f bebd 1c39 573d c65a 83bd a253 adbd
00000040: 7edf eabd dec6 8cbc f47a c13d 3d34 dd3d
00000050: 117a d03d d009 363d 5e68 b2bd fc8d b13d
00000060: 2d16 e63d d241 47bd 556a d63d d084 b23c
00000070: 5d2a 9bbd 67de a03d f3a5 af3d db0c f53d
00000080: 1863 833d 71f3 4a3d 26e6 fabd 30a4 a3bd
00000090: c517 153d 5ef0 cd3d 330a c73d 2080 903d
000000a0: 06d0 3e3d 200a 31bc 52c2 d7bd aa27 ddbd
000000b0: 4f88 3a3c c186 9c3d 397d f73d 0f93 9abd
000000c0: 09c5 cc3d f77b dfbd e212 f2bd 27a8 6c3d
000000d0: 5d70 f8bd 24f7 5bbd 9c2f 0c3e c5c7 b6bd
000000e0: 3d54 dd3d d709 413d a029 06be a036 923d
000000f0: 37bc 823c 0e7a 593d 1dc2 883d 7d06 bb3d
00000100: dc3b d53d f570 7ebd 9d3a 15bd fe7c 00be
00000110: ddac d83d 01cc 573b b689 fd3d e8df bebb
00000120: 500e c43d c0ae c5bd 5b6e 80bd 1b42 e4bc
00000130: 8857 383d ac34 bbbd 306c 963b 51cf bb3c
00000140: a233 c9bc 806c 783d 6e3e 09be 8640 a63d
00000150: 8d98 9a3d 5292 83bd 7f81 643d c136 2bbc
00000160: 66af 4f3d 0141 06be ea2a b1bd 7a5d b23d
00000170: ba9b 013e ab6d dc3d 3ab4 b6bc 7278 1abd
00000180: 5d34 b23c c1ad fb3d 508c f53c c8c5 913d
-0.11584553 -0.11631302 0.016961604 -0.13330548 -0.096864015 0.1290298 -0.064491875 -0.096085906
-0.105439834 0.09764266 -0.017677266 -0.046461593 -0.09301647 0.052544698 -0.06413798 -0.08463217
-0.11468409 -0.017184671 0.094472796 0.10800979 0.10179532 0.04444295 -0.08711313 0.086696595
0.112346984 -0.048646756 0.104695 0.021791846 -0.075764395 0.0785492 0.08576574 0.119653426
0.06415385 0.04954857 -0.122509286 -0.07990301 0.03639962 0.10055612 0.09718742 0.07055688
0.046585105 -0.010805637 -0.105351105 -0.10798581 0.011385038 0.0764289 0.12084431 -0.075475805
0.09998519 -0.10912316 -0.11820008 0.05777755 -0.121308066 -0.05370249 0.13690037 -0.08924822
0.10807083 0.047128525 -0.13101816 0.07139325 0.015958888 0.053094916 0.06677649 0.09132097
0.10411808 -0.062119443 -0.03643285 -0.1254768 0.10579846 0.0032927992 0.12379782 -0.0058250315
0.095730424 -0.096524715 -0.06271049 -0.027863553 0.04500535 -0.09140906 0.0045905337 0.022926005
-0.024560753 0.06065035 -0.13402721 0.081177756 0.07548628 -0.06424393 0.05578756 -0.010450066
0.050704382 -0.13110735 -0.08650763 0.087092355 0.12657061 0.10763105 -0.022302736 -0.03771252
0.021753484 0.12289 0.029974133 0.07117802

fc_out.bias f4 [2]
00000000: 3c3b d93d 6ac7 b93c
0.10607001 0.022678096

exp_avg f4 [300, 2]
00000000: a701 9437 d4be 3938 22a0 4037 dda7 40b7
00000010: 9683 afb7 a306 17b5 706b 0538 0068 e537
00000020: 566b b138 0604 4e38 21ff 0db7 fc79 8ab7
00000030: cab3 fcb7 7bfd 5238 ed69 ba35 f420 bfb7
00000040: 0748 d5b5 92f2 9db6 6291 4737 899a 2e37
00000050: c204 0637 1936 00b8 0bb4 a0b7 ac25 2e38
00000060: 6be4 46b8 b12e a9b8 92e6 f437 9784 9237
00000070: 7565 f337 8bef 0e38 fb68 8736 7f14 8537
00000080: bf68 15b8 e6f5 48b7 39c4 8cb7 90e8 05b8
00000090: 6837 4937 7ceb f8b7 c822 6638 72ec 8338
000000a0: fae9 0cb9 2e04 3fb9 3c0d 74b6 b606 b837
000000b0: c55c c4b7 3a7d 69b8 006b 72b8 bb1e b2b8
000000c0: f472 ad36 1b7f 65b7 046f 8d38 e5e0 2738
000000d0: 9622 a0b5 ee16 c3b7 59c8 93b7 ce22 8fb6
000000e0: 7c40 ef36 b7e4 6b36 be51 2fb8 6f8d 25b8
000000f0: 2da8 5338 1147 1238 bdd3 3c38 70c5 a837
00000100: 7b80 9038 0d6e 6638 7d37 5839 1186 1439
00000110: 2f80 6738 8815 d138 c8e7 b038 91fa 9138
00000120: 02a8 25b5 1e09 6b37 f369 0d35 7d05 0db4
00000130: e3db da37 dc1d b137 98ca 5a37 5f6b 7138
00000140: 4d66 b5b8 0566 55b9 0f20 10b6 d773 7736
00000150: 3717 c936 b831 3937 1e77 fdb7 41d6 1ab8
00000160: 59e3 2338 4905 d3b8 74a0 40b8 e561 02b9
00000170: 1f26 bdb6 3e36 fab6 4626 f6b6 c469 e3b6
00000180: 446d 8fb6 2bfc 69b6 6625 9db7 bc68 abb7
00000190: 31e7 1b36 f85f 6e38 0448 8137 04d7 da37
000001a0: 1dc3 0db8 b470 31b7 9cbb d237 4bb8 7f37
000001b0: 9eaa 1737 f470 a5b7 6599 2cb8 91d3 7ab8
000001c0: c7f0 1a37 5650 4037 cd06 9bb7 7e4a 0537
000001d0: 5f99 8437 ab3c dc37 c13b 0038 02b2 b138
000001e0: 5071 7bb7 1c7c a6b7 f44c 0c38 a8ab 7138
000001f0: 3faa 2bb7 053e 82b6 cc38 57b7 0cc2 7b38
00000200: b0c8 e3b7 8b66 14b8 a7e1 4b38 32dc 4738
00000210: f58e 2438 a36a b037 449c 2939 ed59 8439
00000220: b885 9eb8 5e05 b5b8 da0e a736 ee74 79b8
00000230: 7b0f 5e38 694c 1739 8456 7b38 db46 b738
00000240: 6466 7935 94d1 c0b7 cb2b 9536 5ea8 8a37
00000250: 6b03 3237 eced a837 a80c 7638 ef5d e5b8
00000260: 8f57 22b8 fdd4 70b8 34b9 afb6 76d8 04b7
00000270: c41e c4b6 9940 6eb7 7f20 2db8 220f adb7
00000280: 8095 3d38 bca7 4438 41dc 4a39 8fcf 8339
00000290: 9f09 1238 0ba7 2d38 d2a8 0eb6 a1d1 11b7
000002a0: 4737 aa37 8b01 ee37 e754 63b8 a279 bbb8
000002b0: 907c 05b8 774c 54b8 4274 cfb8 bc01 5fb8
000002c0: fc75 beb7 92e0 deb7 e3ec 7836 0d95 9d36
000002d0: b2ac 7e38 d915 8738 95bb 04b9 2a1f 08b9
000002e0: c232 b6b8 51c7 e8b8 c631 97b6 6fd8 fab7
000002f0: bdf2 60b8 6508 8eb7 9b87 c5b7 2c2c 77b6
00000300: a56c 8737 681b 0e38 1686 bbb7 3123 5fb6
00000310: 16c6 8cb8 1ad0 39b8 8c3f 3237 5159 0c38
00000320: 0e49 14b5 aa16 0d36 d836 d634 49ea a236
00000330: 521a 7a36 7236 4836 88fc 4735 efb8 5cb5
00000340: 1d3d c1b5 3aed 9835 4fc2 3eb6 aa9c abb6
00000350: 87a5 8736 0ec0 8635 29a0 03b6 cae2 26b6
00000360: 22db 8b36 ffd4 c236 a2b6 2435 566f 9034
00000370: 7650 9436 6d81 3937 fcfe b836 37d5 9b36
00000380: 6f3b cfb4 89ff 5bb5 0736 5b35 8bc9 7635
00000390: 333e 35b5 5825 a132 018c a735 4de4 6e36
000003a0: 00da 89b5 c6a4 57b5 e71a f035 2ab2 16b5
000003b0: 80b1 6cb5 d937 d535 8a84 8635 539e a835
000003c0: 8b2f 1e36 26c5 d235 7442 f5b5 8cdb 8ab6
000003d0: 880c b235 71b6 2c35 3ada 7b36 aff6 0c37
000003e0: ee92 4db4 a73a 5b35 e108 c5b6 31df 19b6
000003f0: b007 9eb5 f165 d9b5 90ef bbb5 ecfa 8ab6
1.7643744e-05 4.428516e-05 1.1481376e-05 -1.14831755e-05 -2.09229e-05 -5.626154e-07 3.180973e-05 2.7347356e-05
8.4600106e-05 4.9117974e-05 -8.463657e-06 -1.6507685e-05 -3.0124462e-05 5.0303974e-05 1.3888908e-06 -2.278432e-05
-1.5890699e-06 -4.7072035e-06 1.1895174e-05 1.0407189e-05 7.98813e-06 -3.056796e-05 -1.9157325e-05 4.1519917e-05
-4.741961e-05 -8.067245e-05 2.9194434e-05 1.7466298e-05 2.9015102e-05 3.407853e-05 4.035535e-06 1.586438e-05
-3.562192e-05 -1.1978182e-05 -1.6780674e-05 -3.192626e-05 1.1993434e-05 -2.967356e-05 5.4868666e-05 6.290608e-05
-0.00013438603 -0.00018216736 -3.6366537e-06 2.1937634e-05 -2.340822e-05 -5.5668155e-05 -5.7796948e-05 -8.4934254e-05
5.169184e-06 -1.3679058e-05 6.744082e-05 4.0025352e-05 -1.1930995e-06 -2.3256489e-05 -1.761706e-05 -4.265784e-06
7.130262e-06 3.5150858e-06 -4.179938e-05 -3.9470786e-05 5.0462946e-05 3.48753e-05 4.501989e-05 2.01191e-05
6.8903864e-05 5.4938766e-05 0.00020620036 0.00014164324 5.5194072e-05 9.969907e-05 8.4355066e-05 6.9608104e-05
-6.1711773e-07 1.4009214e-05 5.268077e-07 -1.3133645e-07 2.6090018e-05 2.1113949e-05 1.3040983e-05 5.7558875e-05
-8.6498076e-05 -0.00020351268 -2.1476333e-06 3.6873296e-06 5.9929694e-06 1.1038435e-05 -3.0215419e-05 -3.6916e-05
3.9073962e-05 -0.000100622485 -4.59258e-05 -0.00012434235 -5.637077e-06 -7.456895e-06 -7.335827e-06 -6.77744e-06
-4.2744523e-06 -3.4866487e-06 -1.8733273e-05 -2.043356e-05 2.323137e-06 5.6833e-05 1.5411533e-05 2.608775e-05
-3.3798733e-05 -1.0576263e-05 2.5121313e-05 1.52420935e-05 9.040026e-06 -1.972213e-05 -4.1150855e-05 -5.980168e-05
9.235176e-06 1.14627965e-05 -1.8480607e-05 7.944762e-06 1.5807045e-05 2.6254294e-05 3.057323e-05 8.473174e-05
-1.49871485e-05 -1.9846535e-05 3.345027e-05 5.7618745e-05 -1.0232033e-05 -3.881522e-06 -1.2828223e-05 6.0023784e-05
-2.7153961e-05 -3.538145e-05 4.8609127e-05 4.765037e-05 3.9233786e-05 2.1030492e-05 0.0001617531 0.00025244002
-7.558934e-05 -8.631752e-05 4.978717e-06 -5.9475125e-05 5.2943342e-05 0.00014428947 5.9923637e-05 8.739318e-05
9.2908726e-07 -2.2985776e-05 4.445644e-06 1.6529284e-05 1.0610423e-05 2.0137952e-05 5.8662758e-05 -0.000109370674
-3.8705355e-05 -5.741882e-05 -5.236967e-06 -7.918212e-06 -5.844837e-06 -1.4200946e-05 -4.127668e-05 -2.0630254e-05
4.5200344e-05 4.6886256e-05 0.00019346272 0.0002514091 3.4818073e-05 4.1401985e-05 -2.1257915e-06 -8.6914815e-06
2.029132e-05 2.837253e-05 -5.420009e-05 -8.939511e-05 -3.182568e-05 -5.0615952e-05 -9.892184e-05 -5.316896e-05
-2.2704706e-05 -2.6569036e-05 3.7092766e-06 4.6963164e-06 6.0719154e-05 6.441371e-05 -0.00012658381 -0.0001298158
-8.687891e-05 -0.00011099748 -4.505945e-06 -2.9903107e-05 -5.363183e-05 -1.6931628e-05 -2.3547376e-05 -3.683158e-06
1.6143846e-05 3.3880962e-05 -2.2354576e-05 -3.3250074e-06 -6.7126166e-05 -4.4301247e-05 1.0624422e-05 3.3461783e-05
-5.5240605e-07 2.102383e-06 3.990051e-07 4.8552506e-06 3.7268223e-06 2.9834014e-06 7.450076e-07 -8.22255e-07
-1.4397407e-06 1.1393925e-06 -2.8425309e-06 -5.114435e-06 4.0425834e-06 1.0039673e-06 -1.9613747e-06 -2.4867936e-06
4.1680332e-06 5.8064466e-06 6.1360527e-07 2.6903098e-07 4.4201106e-06 1.1056994e-05 5.5133114e-06 4.6441814e-06
-3.8599998e-07 -8.195571e-07 8.166248e-07 9.1935425e-07 -6.7518266e-07 1.8759849e-08 1.2483216e-06 3.5597652e-06
-1.0270742e-06 -8.033352e-07 1.7889223e-06 -5.613862e-07 -8.817515e-07 1.588599e-06 1.0022352e-06 1.2563054e-06
2.3571508e-06 1.5703597e-06 -1.8273263e-06 -4.138279e-06 1.326568e-06 6.434048e-07 3.752894e-06 8.402086e-06
-1.9145565e-07 8.166921e-07 -5.872091e-06 -2.292869e-06 -1.1774155e-06 -1.6197429e-06 -1.4002308e-06 -4.1419316e-06

exp_avg_sq f4 [300, 2]
00000000: 079f fe2d 410c 952e 3aa5 7d2c 0484 7a2d
00000010: 93d5 ad2d 5653 8d2d 1e76 222e 867b ec2d
00000020: ecf4 992f 7311 812f 0684 8a2c a5cc 6c2d
00000030: 7823 a62e 9498 072f 7b96 2f2a 35fc 872d
00000040: 8eb0 4f2b 75c9 a22b bfa0 d52c 5fa5 122d
00000050: 5335 cb2b 4d30 0b2e 9b83 472d 804f bb2e
00000060: 0958 0f2f 0360 7d2f 58df 162e b698 0b2e
00000070: 830b 572e 51ee 912e 9694 192b 73e2 fd2c
00000080: d7ba 832e 9abc 772e cf7a 922d 01d9 222e
00000090: 1621 912c d128 f82d 9229 342f b217 6d2f
000000a0: 2de6 7f30 4c42 c530 cc59 402b e682 7d2d
000000b0: cd15 212e c7d6 bd2e a9c0 672f 307d b22f
000000c0: 500f 842b 009d 162d 6e22 6a2f 3458 a32f
000000d0: 25a3 d62b 89dd a72d cf4c 9b2d d819 d62d
000000e0: 6f01 542c c206 002d 3a2d b52e 41ea de2e
000000f0: 2f62 142f fa35 f72e a586 bb2e 8c2d 9e2e
00000100: 6570 702f 1bca 722f 029c 1f31 f183 1331
00000110: 51f1 202f 80c5 d02f 6013 bc2f 4521 b62f
00000120: 0ac4 052b df50 f62c ddd3 db2a 956b 092c
00000130: b498 f62d 66bc a22d a9b5 222d 3542 c12e
00000140: 4de7 1530 ddcf b330 fdb3 042b c0ff 372c
00000150: b1f0 682c 89dc cb2c 6f14 8c2e 48a6 a42e
00000160: 9e79 392e 6b92 cf2f b9f4 2a2f 6413 f22f
00000170: af9a 152c f1e8 942c 5a64 352d a754 622d
00000180: bbc1 662b 7602 b22b 38e1 562d 6039 a92d
00000190: d922 bf2c bc25 9d2e 8818 8e2d 6878 112e
000001a0: ee55 442e 3b89 682e 4f99 fb2d 2c9f 952d
000001b0: a795 782c b329 2b2d 38d5 ce2e 9942 292f
000001c0: 3755 cd2c 29bd 212d e277 b12d b157 7a2d
000001d0: bbb7 9a2d 69af 102e 4c7a aa2e c8ec 5f2f
000001e0: fa24 8a2d 1c67 aa2d 3854 7e2e b18b df2e
000001f0: 5245 5e2c b515 332d 92ac a62c 5eae dd2e
00000200: ee17 682e 6c22 742e 8c56 302f f317 892f
00000210: a799 902e e34a 982e 4184 ca30 2905 2931
00000220: 96d9 bb2f 764b fc2f 88de 592c 7c4c cc2e
00000230: ab01 3d2f af23 3230 68c8 4c2f baad aa2f
00000240: 8cd8 1229 14cf a72d 838c 472b 1c23 092d
00000250: 3d4b 222d 1d2a a12d 8175 ca2e 6b0f e72f
00000260: 03d3 982e 327e 052f b99c 762c a6aa c32c
00000270: b405 672c 2f52 d72c fad9 af2e 8622 8d2e
00000280: 4246 e12e 62cf 2d2f 7839 0431 990a 3e31
00000290: 971b ad2e 7635 e82e ae96 dc2a ed36 ee2b
000002a0: 1e6f d62d 397c 062e e24f 532f 5094 c02f
000002b0: c5db 542e 3157 d12e 27c6 1630 5ec6 d82f
000002c0: 8430 a12d 3711 e62d e5ec 9f2b ef48 002c
000002d0: b02a 5a2f 6b3e 952f e7a1 6d30 84f0 8430
000002e0: 7779 c72f c661 fd2f 9eca 3a2c 1403 c22d
000002f0: 7a23 132f 45ad 1e2f 7955 142e d51f 902d
00000300: e7a9 8b2d 9d5a 1d2e 5a82 a22d 696b 492d
00000310: c41e 672f cf1e 302f 8dd8 162d e41c 222e
00000320: 318d ee28 8874 8c2a e7c8 1c29 7580 172b
00000330: 32c0 2e2b 89dc 1b2b bee1 9328 fa14 4329
00000340: 6a3a a129 4126 a229 c9b5 0d2b 92d6 842b
00000350: f4f8 872b c094 452b 077f 462a ac06 432b
00000360: 59c8 8c2b 2948 e32b 9c1c 8a28 9489 cc28
00000370: cd69 f92b 725c a32c 33c7 e72b 783e 182c
00000380: afc8 5b28 648b a428 4505 4329 e0f6 4229
00000390: 127a fc28 5fa8 1729 64a0 172a fbe0 f32a
000003a0: 1275 7c29 653d aa29 f03d 2d2a 5f23 7f2a
000003b0: a607 2d29 e52a 412a 00d7 9b29 da18 cf29
000003c0: 2737 b52a b3e8 db2a d09d 6b2a 4653 042b
000003d0: 3bea aa29 353a cf29 a05b 852b b7ca 132c
000003e0: 4745 8a27 f9cc f428 e71f ee2b 9af4 0e2c
000003f0: e58b 012a 4a3d 1c2a 4598 f429 09ef 242b
2.8947079e-11 6.777912e-11 3.6045182e-12 1.4240168e-11 1.9762669e-11 1.6066853e-11 3.6939445e-11 2.6884949e-11
2.8004565e-10 2.3477362e-10 3.9368534e-12 1.3460487e-11 7.5551065e-11 1.2332385e-10 1.5595331e-13 1.5459726e-11
7.378619e-13 1.1566708e-12 6.0716705e-12 8.335859e-12 1.4438818e-12 3.164784e-11 1.1341063e-11 8.5178975e-11
1.303705e-10 2.3044326e-10 3.430442e-11 3.1740575e-11 4.8895565e-11 6.63617e-11 5.4562724e-13 7.2158334e-12
5.99038e-11 5.632881e-11 1.6652816e-11 3.7027274e-11 4.124821e-12 2.8212462e-11 1.6385673e-10 2.1563443e-10
9.309556e-10 1.4352479e-09 6.833672e-13 1.441045e-11 3.6626525e-11 8.632877e-11 2.1077774e-10 3.2466962e-10
9.383414e-13 8.561374e-12 2.1294408e-10 2.97122e-10 1.5250896e-12 1.9084083e-11 1.765557e-11 2.434046e-11
3.0127808e-12 7.277458e-12 8.238961e-11 1.0137003e-10 1.3495403e-10 1.1241848e-10 8.527693e-11 7.193099e-11
2.1867803e-10 2.2081574e-10 2.3226225e-09 2.1466315e-09 1.4637648e-10 3.7975312e-10 3.4210768e-10 3.3129247e-10
4.752315e-13 7.000719e-12 3.9049224e-13 1.952859e-12 2.8034776e-11 1.8500933e-11 9.2489705e-12 8.7883846e-11
5.453458e-10 1.3083042e-09 4.7145604e-13 2.6147834e-12 3.3102794e-12 5.7940913e-12 6.3700926e-11 7.487394e-11
4.2172148e-11 3.7757117e-10 1.5548353e-10 4.4033321e-10 2.126004e-12 4.2322747e-12 1.0310941e-11 1.2865409e-11
8.198127e-13 1.2648344e-12 1.22145e-11 1.9238555e-11 5.4324154e-12 7.1462364e-11 1.6154425e-11 3.3076125e-11
4.464156e-11 5.2872578e-11 2.8603479e-11 1.7010025e-11 3.5325993e-12 9.729484e-12 9.405671e-11 1.5394121e-10
5.835911e-12 9.193792e-12 2.0175809e-11 1.4230326e-11 1.7589366e-11 3.2897605e-11 7.752429e-11 2.0365853e-10
1.5705204e-11 1.9372552e-11 5.7827715e-11 1.016568e-10 3.1586578e-12 1.0179792e-11 4.737163e-12 1.008089e-10
5.2771947e-11 5.550975e-11 1.6037854e-10 2.4937172e-10 6.575656e-11 6.925462e-11 1.4735023e-09 2.459567e-09
3.4169706e-10 4.589215e-10 3.0961084e-12 9.290432e-11 1.7190042e-10 6.480673e-10 1.862489e-10 3.104626e-10
3.2606337e-14 1.9077663e-11 7.0894e-13 7.795344e-12 9.22534e-12 1.8322283e-11 9.2067694e-11 4.202961e-10
6.949643e-11 1.2141113e-10 3.5045701e-12 5.561179e-12 3.283024e-12 6.1197917e-12 7.996799e-11 6.41807e-11
1.0244296e-10 1.5807936e-10 1.9241195e-09 2.7654663e-09 7.87203e-11 1.0559635e-10 3.9184406e-13 1.6926162e-12
2.437833e-11 3.0578404e-11 1.9218718e-10 3.502998e-10 4.8398414e-11 9.519708e-11 5.4851274e-10 3.943112e-10
1.8325126e-11 2.6155618e-11 1.1363381e-12 1.823038e-12 1.984215e-10 2.7147293e-10 8.6450175e-10 9.672623e-10
3.6284195e-10 4.6089904e-10 2.6544665e-12 2.2056613e-11 1.3382176e-10 1.4431574e-10 3.372722e-11 1.6385041e-11
1.5877922e-11 3.5778148e-11 1.8475155e-11 1.1449377e-11 2.1020258e-10 1.6018052e-10 8.574597e-12 3.6860195e-11
2.648454e-14 2.4949856e-13 3.4813213e-14 5.3824246e-13 6.208394e-13 5.5373116e-13 1.6418179e-14 4.3316892e-14
7.1599695e-14 7.200881e-14 5.034554e-13 9.438719e-13 9.661425e-13 7.019489e-13 1.7630004e-13 6.9287176e-13
1.0003206e-12 1.6149349e-12 1.5333485e-14 2.2708215e-14 1.772188e-12 4.643002e-12 1.6468826e-12 2.1635176e-12
1.22004584e-14 1.8268109e-14 4.330327e-14 4.3290783e-14 2.803056e-14 3.3674774e-14 1.3467141e-13 4.3321583e-13
5.6056783e-14 7.560167e-14 1.5386976e-13 2.2660822e-13 3.842035e-14 1.7156726e-13 6.920679e-14 9.196958e-14
3.2190328e-13 3.9063682e-13 2.0926945e-13 4.7011386e-13 7.590149e-14 9.202744e-14 9.475649e-13 2.1002486e-12
3.8377805e-15 2.7178335e-14 1.6919772e-12 2.0315195e-12 1.1506037e-13 1.3876847e-13 1.0862191e-13 5.859623e-13
