test_airflow/dags/ML_data_pipeline/lightning_logs/version_8/checkpoints/epoch=99-step=300.ckpt (torch, 448191 bytes, 24 tensors)

rnn.weight_ih_l0 f4 [300, 2]
-0.05844469 -0.04683967 -0.044587936 -0.08235222 -0.076923706 -0.051915377 -0.0523727 0.06390049
0.063261576 -0.0013776963 0.0026414893 0.044123217 -0.06320185 -0.08199872 -0.021556843 0.054828238
-0.02192182 -0.052277055 -0.019425543 0.0068293633 -0.0032612858 -0.027992392 -0.018302573 0.018077955
0.08869317 -0.059225343 0.07474897 -0.01702689 0.042607754 -0.05612552 -0.030416625 -0.10227481
-0.022183003 -0.026810935 -0.02927407 -0.013876281 0.028699651 0.0653361 0.08493801 -0.031160932
0.09803484 -0.012982616 -0.035826493 -0.10433532 -0.07549878 0.007425944 -0.027071817 -0.07274279
-0.04158633 -0.027049003 0.09140668 -0.09764724 0.06000826 0.08286838 0.006463768 0.00551158
0.047990527 -0.059164654 -0.05928475 -0.072549656 -0.017821774 0.08785301 -0.0018494828 0.10519837
0.06794569 0.0072681336 0.06946452 -0.00014688057 0.028430307 -0.08768386 -0.022028452 0.04225583
-0.06487496 -0.08747572 0.06536312 0.03274211 -0.08150006 0.038937427 0.029333882 -0.034739755
0.041788563 -0.012318338 -0.04486827 -0.0898081 0.019496197 -0.08139282 -0.01815627 -0.059948713
0.07122869 0.00014305049 -0.009032224 0.07317214 -0.016491307 0.009656558 0.048289612 0.066015944
-0.02626101 -0.09643948 0.021840427 0.067840636 -0.03345428 -0.015067464 0.059093863 -0.088154145
-0.026189517 0.096822426 -0.0002978233 0.07173407 0.06921642 0.010929918 0.022901993 0.05595171
0.018610368 0.020869093 -0.042452455 0.016142907 0.04464533 0.006622078 0.063936785 -0.113690965
-0.0780614 -0.005959246 0.09121564 -0.047786005 -0.07646312 0.05785916 0.04004438 -0.07753725
0.04502391 0.09224078 -0.115648605 0.04856699 0.051654164 0.06485306 0.042732857 -0.11226675
-0.02696451 0.0582455 -0.09711019 -0.044581052 0.0047828606 0.106519006 -0.056979295 0.071481876
0.04192068 -0.03842087 0.07012141 -0.059959657 -0.105070636 -0.03348123 -0.102561854 -0.01915993
-0.07407848 -0.06334301 -0.048248306 -0.010557725 -0.044539396 0.028679257 0.043891683 0.06252688
0.07001404 0.053907648 -0.0352723 -0.117579795 -0.059865784 -0.03784039 -0.062098924 -0.08881194
-0.039685436 -0.02702624 0.06008952 0.08948112 0.0072857393 0.0423914 -0.11006688 0.03163403
0.001550781 -0.0735269 -0.0011710289 -0.0022013546 0.033969186 0.051801026 -0.08895725 0.030025657
-0.060746364 0.021797098 -0.0630736 -0.026765779 0.011821807 -0.04743671 -0.106280215 0.06729185
-0.014572126 0.07040809 0.061215755 0.07746656 -0.113142595 0.078169204 0.01855815 0.033523876
-0.04020271 0.098276205 -0.0010179938 0.072973914 0.03350604 -0.016853297 0.08009461 0.042830884
0.12081941 0.04061817 -0.020903964 -0.071926326 0.117633715 -0.046378326 -0.02871699 0.06253767
0.05410282 -0.089779854 -0.08432978 0.019428184 0.028340036 0.01878927 -0.04365154 -0.019820336
0.0017657235 -0.03953969 0.035141323 -0.02850243 -0.023058636 -0.028974524 -0.0818052 -0.092027985
-0.048503518 0.043666977 0.024053093 0.020123793 0.037692748 0.099019624 -0.0012998681 -0.042570952
-0.008108203 -0.0032752794 0.005921782 0.033979163 0.06608333 -0.029037554 0.047582224 -0.045737494
0.11196286 -0.06693091 0.06374004 0.052996702 0.021542504 -0.07392319 0.04731693 0.049209915
00000000: b363 6fbd f4da 3fbd d7a1 36bd 48a8 a8bd
00000010: 2d8a 9dbd 38a5 54bd c284 56bd 43de 823d
00000020: 498f 813d d193 b4ba d61c 2d3b 8cba 343d
00000030: f96f 81bd f2ee a7bd fa97 b0bc 9393 603d
00000040: 6395 b3bc 7720 56bd 5122 9fbc dac8 df3b
00000050: 4cbb 55bb 4d50 e5bc 47ef 95bc 3818 943c
00000060: c4a4 b53d 4696 72bd fd15 993d fa7b 8bbc
00000070: 7885 2e3d e0e3 65bd 492c f9bc 7575 d1bd
00000080: 21b9 b5bc 9ba2 dbbc 2dd0 efbc 5759 63bc
00000090: 881b eb3c efce 853d fbf3 ad3d 3645 ffbc
000000a0: 7dc6 c83d 0ab5 54bc cdbe 12bd c2ad d5bd
000000b0: 1b9f 9abd 5555 f33b b7c5 ddbc 2cfa 94bd
000000c0: 6d56 2abd df95 ddbc 6d33 bb3d 47fb c7bd
000000d0: 39cb 753d e6b6 a93d 04ce d33b 7c9a b43b
000000e0: b791 443d a356 72bd 91d4 72bd ea94 94bd
000000f0: f8fe 91bc 47ec b33d 586a f2ba 3e72 d73d
00000100: 1c27 8b3d 8629 ee3b 6a43 8e3d f403 1ab9
00000110: ade6 e83c 9893 b3bd 0375 b4bc 7314 2d3d
00000120: 2add 84bd 7826 b3bd 19dd 853d 971c 063d
00000130: 81e9 a6bd da7c 1f3d 9c4d f03c 464b 0ebd
00000140: 7c2a 2b3d dbd2 49bc cbc7 37bd 4fed b7bd
00000150: 7db6 9f3c 47b1 a6bd 75bc 94bc c88c 75bd
00000160: 59e0 913d d3ff 1539 e5fb 13bc 46db 953d
00000170: c718 87bc 8a36 1e3c 54cb 453d 5e33 873d
00000180: 5421 d7bc 1082 c5bd b2ea b23c 08f0 8a3d
00000190: 5b07 09bd 86dd 76bc 680c 723d 298a b4bd
000001a0: 668b d6bc d64a c63d 2b25 9cb9 50e9 923d
000001b0: 57c1 8d3d 6613 333c f69c bb3c 9f2d 653d
000001c0: c574 983c a9f5 aa3c a0e2 2dbd 213e 843c
000001d0: 06de 363d 04fe d83b 4af1 823d cfd6 e8bd
000001e0: a8de 9fbd c745 c3bb 44cf ba3d 42bb 43bd
000001f0: b298 9cbd bafd 6c3d 9305 243d dacb 9ebd
00000200: fe6a 383d bce8 bc3d 2dd9 ecbd 2eee 463d
00000210: 5193 533d aed1 843d a608 2f3d 1cec e5bd
00000220: ade4 dcbc d592 6e3d b5e1 c6bd 9f9a 36bd
00000230: 8bb9 9c3b a326 da3d 1f63 69bd 1765 923d
00000240: 05b5 2b3d 345f 1dbd d09b 8f3d 4298 75bd
00000250: 462f d7bd 9d23 09bd f30b d2bd 49f5 9cbc
00000260: 75b6 97bd fbb9 81bd 04a0 45bd 4ffa 2cbc
00000270: f16e 36bd c3f0 ea3c c4c7 333d 180e 803d
00000280: 8563 8f3d 44ce 5c3d b079 10bd adcd f0bd
00000290: d335 75bd 86fe 1abd 715b 7ebd 09e3 b5bd
000002a0: 328d 22bd 2266 ddbc 6e20 763d e141 b73d
000002b0: 36bd ee3b 9ba2 2d3d bf6a e1bd af92 013d
000002c0: 9343 cb3a 4595 96bd 367d 99ba 9a44 10bb
000002d0: 4623 0b3d 502d 543d 382f b6bd 5ef8 f53c
000002e0: 2ed1 78bd d48f b23c bb2c 81bd e843 dbbc
000002f0: 41b0 413c ff4c 42bd 71a9 d9bd 4fd0 893d
00000300: edbf 6ebc 1e32 903d 5fbd 7a3d caa6 9e3d
00000310: 4eb7 e7bd 2d17 a03d 4307 983c 5550 093d
00000320: 99ab 24bd 0945 c93d 346e 85ba 5973 953d
00000330: a13d 093d ed0f 8abc a508 a43d 706f 2f3d
00000340: 2b70 f73d 3d5f 263d ca3e abbc 1c4e 93bd
00000350: f2e9 f03d 33f7 3dbd e53f ebbc c013 803d
00000360: eb9a 5d3d 80de b7bd 17b5 acbd db27 9f3c
00000370: 5d29 e83c f5eb 993c f5cb 32bd 425e a2bc
00000380: d96f e73a 5ff4 21bd 59f0 0f3d ee7d e9bc
00000390: 77e5 bcbc fb5b edbc 7c89 a7bd 2b79 bcbd
000003a0: a0ab 46bd 25dc 323d fe0a c53c a7da a43c
000003b0: b663 1a3d cdca ca3d 5660 aaba e15e 2ebd
000003c0: 45d8 04bc 12a6 56bb 820b c23b bc2d 0b3d
000003d0: b256 873d 2ae0 edbc 94e5 423d 3d57 3bbd
000003e0: c94c e53d 1313 89bd 238a 823d 1213 593d
000003f0: e879 b03c 0b65 97bd 66cf 413d 5690 493d

rnn.weight_hh_l0 f4 [300, 100]
0.010511923 0.05985249 0.07141681 -0.04133099 -0.038453355 0.08548177 0.046691276 0.07457329
-0.09967778 -0.0023645933 -0.035228137 -0.018266132 0.04902122 -0.018746408 0.051788267 0.07022215
0.051021878 -0.056651063 -0.010656252 0.011199214 0.11102831 -0.022350673 0.030815644 0.1147804
0.013265454 0.075354 -0.057693344 -0.033483308 -0.030966222 -0.019937973 0.06083921 0.071414486
-0.053685907 -0.0057648076 0.09626618 -0.04856782 -0.042737387 0.029526204 0.07653662 0.10346019
-0.1126588 0.050387803 -0.01204794 -0.02958104 0.058307126 -0.07408105 0.031235583 0.05073457
-0.075636305 -0.063376576 0.06100016 -0.04325469 -0.03372379 -0.07632667 0.09611645 0.03344048
-0.08694684 -0.052397083 -0.059974883 0.084529966 -0.05667996 -0.056374624 -0.05151074 -0.08401398
-0.042639475 0.11901327 0.024842514 0.004798314 -0.05936316 -0.056830604 -0.10293791 -0.04229306
0.04925263 0.0110660875 -0.11150031 -0.030459419 -0.054792546 -0.051166117 -0.09383726 0.019262059
-0.096022986 0.018167311 -0.039792668 0.06590324 -0.055430416 -0.0017391345 -0.025331574 -0.002454114
0.060299937 -0.008076506 0.044787034 0.045229305 -0.06764923 0.05178024 -0.034018237 -0.0872378
-0.0076802988 -0.06332278 0.08868982 -0.047447685 0.034060616 -0.0637281 -0.080066964 -0.10580986
0.02812024 0.0009563566 -0.006903928 0.02401133 -0.0970225 0.015318158 -0.089378096 0.009070492
-0.0328745 0.08254028 -0.043754734 -0.10795945 -0.01490801 -0.053578302 -0.0015425056 -0.00048606336
-0.04177862 0.059085842 0.05677444 -0.045028333 0.03062722 0.10589452 -0.02900621 -0.05753559
0.119940944 -0.030449431 0.09081805 0.037764672 -0.013948562 0.07363456 0.104272135 0.03381232
0.043173473 0.091086686 0.06526879 -0.023290556 -0.007473606 0.013719294 0.06966622 -0.028269336
0.05428565 -0.015923733 -0.020932 -0.086138844 -0.020722102 0.073887184 0.106543064 0.0134137375
-0.060481705 0.017686725 0.017846072 0.08865068 0.030596796 -0.05999233 0.08616598 0.111626185
-0.09223594 -0.07896027 -0.0008586238 0.002808268 0.082761236 0.019110302 -0.064099744 0.1123344
-0.056775704 -0.07294796 -0.017636871 0.12098322 0.093445316 -0.031999554 -0.028897686 -0.032556854
0.050826326 0.11276784 0.07729032 0.039751653 -0.06409351 -0.001529607 -0.10675128 -0.065539055
-0.008329649 0.0009741025 0.06486947 0.026721593 -0.069207914 0.020314725 -0.013566238 0.10862928
0.10257484 -0.012000963 -0.017685087 0.0737293 0.08253453 0.027254844 0.12043244 -0.03964163
-0.022440095 0.050514545 -0.01672332 -0.07157394 0.099364884 -0.028314734 -0.07043121 0.03254872
0.080992475 0.007665908 -0.061979063 -0.033332918 -0.030352065 0.03990455 0.03771936 -0.083957165
0.09167183 -0.027906159 -0.0922264 -0.025296692 -0.09805057 0.092140354 -0.080249675 0.10327647
0.02320442 0.062176548 0.039170925 0.0647312 0.06620599 0.06524788 0.0059752725 0.0474385
0.041818358 -0.00913134 0.0695753 -0.009342261 0.06226721 0.07320116 0.0556663 0.10049254
0.015834313 0.09540257 -0.014851976 0.048126653 -0.039253592 -0.06800441 0.08078892 -0.05312328
-0.10514403 0.09992821 0.07997164 -0.06106871 -0.007942257 -0.046455875 -0.06632329 0.0476929
00000000: 333a 2c3c e227 753d fa42 923d af4a 29bd
00000010: 4481 1dbd 1111 af3d 5a3f 3f3d e2b9 983d
00000020: dd23 ccbd 4bf7 1abb 614b 10bd dba2 95bc
00000030: 7aca 483d 1192 99bc ef1f 543d a1d0 8f3d
00000040: 51fc 503d f20a 68bd 8f97 2ebc e87c 373c
00000050: d062 e33d c218 b7bc 1771 fc3c fd11 eb3d
00000060: 5957 593c 3353 9a3d db4f 6cbd cb25 09bd
00000070: e0ac fdbc f654 a3bc 8932 793d c241 923d
00000080: c1e5 5bbd b6e6 bcbb 3427 c53d 0def 46bd
00000090: 660d 2fbd f0e0 f13c 3bbf 9c3d f0e2 d33d
000000a0: a8b9 e6bd 7163 4e3d b964 45bc f053 f2bc
000000b0: 74d3 6e3d ceb7 97bd c4e1 ff3c 0dcf 4f3d
000000c0: 35e7 9abd 94cb 81bd 4edb 793d d42b 31bd
000000d0: f521 0abd 2851 9cbd b4d8 c43d e2f8 083d
000000e0: 2f11 b2bd 539e 56bd 39a8 75bd 0c1e ad3d
000000f0: 3f29 68bd 14e9 66bd edfc 52bd 860f acbd
00000100: bba6 2ebd 3bbd f33d 8782 cb3c 2d3b 9d3b
00000110: c926 73bd 35c7 68bd 1cd1 d2bd 7d3b 2dbd
00000120: 20bd 493d 894e 353c 465a e4bd 0886 f9bc
00000130: 266e 60bd 9093 51bd c02d c0bd 77cb 9d3c
00000140: b3a7 c4bd 9dd3 943c a3fd 22bd 47f8 863d
00000150: 010b 63bd acf3 e3ba 2984 cfbc 33d5 20bb
00000160: 11fd 763d 5253 04bc 9c72 373d 5d42 393d
00000170: ae8b 8abd 8417 543d b556 0bbd bba9 b2bd
00000180: 04ab fbbb 60af 81bd 02a3 b53d 8158 42bd
00000190: 2583 0b3d e183 82bd 26fa a3bd d7b2 d8bd
000001a0: 6b5c e63c 01b4 7a3a 583a e2bb 69b3 c43c
000001b0: bcb3 c6bd 03f9 7a3c dd0b b7bd 679c 143c
000001c0: 69a7 06bd e10a a93d 2a38 33bd d819 ddbd
000001d0: ba40 74bc ec74 5bbd e62d caba 52d6 feb9
000001e0: 0f20 2bbd ff03 723d 518c 683d a16f 38bd
000001f0: f0e5 fa3c 3adf d83d 6e9e edbc 70aa 6bbd
00000200: 99a3 f53d 1671 f9bc d0fe b93d 21af 1a3d
00000210: 8288 64bc b7cd 963d a18c d53d ca7e 0a3d
00000220: abd6 303d a88b ba3d a5ab 853d d6cb bebc
00000230: 27e5 f4bb e4c6 603c 2aad 8e3d 1895 e7bc
00000240: a15a 5e3d 7d72 82bc 9679 abbc 9069 b0bd
00000250: 66c1 a9bc 2a52 973d 4033 da3d 4bc5 5b3c
00000260: aabb 77bd c0e3 903c ed31 923c 7d8e b53d
00000270: 22a6 fa3c 84ba 75bd ca77 b03d 459c e43d
00000280: 32e6 bcbd ecb5 a1bd 4515 61ba eb0a 383b
00000290: b97e a93d 358d 9c3c ba46 83bd 940f e63d
000002a0: a48d 68bd bd65 95bd 337b 90bc 0dc6 f73d
000002b0: 4260 bf3d f711 03bd d7ba ecbc 565a 05bd
000002c0: 442f 503d d3f2 e63d 634a 9e3d a1d2 223d
000002d0: 7543 83bd 187d c8ba 6aa0 dabd 5739 86bd
000002e0: 1579 08bc ea5a 7f3a 49da 843d 3ee7 da3c
000002f0: e1bc 8dbd 116b a63c ed44 5ebc 0779 de3d
00000300: c212 d23d b09f 44bc 51e0 90bc 63ff 963d
00000310: dd07 a93d 8d45 df3c 48a5 f63d 435f 22bd
00000320: 4ad4 b7bc 57e8 4e3d 58ff 88bc 5c95 92bd
00000330: d17f cb3d 4df4 e7bc 3d3e 90bd ce51 053d
00000340: 62df a53d 4c32 fb3b c2dd 7dbd 1988 08bd
00000350: e5a4 f8bc f472 233d 9e7f 1a3d bcf1 abbd
00000360: 71be bb3d 759b e4bc 32e1 bcbd 023b cfbc
00000370: bdce c8bd 15b4 bc3d f159 a4bd 9d82 d33d
00000380: 3217 be3c d6ac 7e3d b171 203d cb91 843d
00000390: 0297 873d aea0 853d 38cc c33b df4e 423d
000003a0: ba49 2b3d 9e9b 15bc 7f7d 8e3d 4810 19bc
000003b0: e70b 7f3d 7dea 953d 5902 643d 08cf cd3d
000003c0: f6b6 813c 6c62 c33d b455 73bc 7420 453d
000003d0: 60c8 20bd e545 8bbd a974 a53d cc97 59bd
000003e0: c155 d7bd 29a7 cc3d 2cc8 a33d 2f23 7abd
000003f0: 3e20 02bc 8448 3ebd 81d4 87bd a159 433d

rnn.bias_ih_l0 f4 [300]
-0.043657135 -0.009925816 0.02112204 0.074451104 0.03741534 -0.030206423 -0.06596418 0.054926816
-0.053084604 -0.054068606 -0.02215633 0.054770198 -0.07853263 -0.056010634 0.059323106 -0.012705261
0.06507599 0.085854374 -0.002992394 -0.0048302813 -0.054944564 0.06417097 -0.066473216 0.02145638
0.098101385 -0.05693786 0.021657137 0.11630241 -0.042925306 0.051866096 -0.034817833 0.07913519
-0.07860613 -0.011365293 0.009698952 -0.033256993 -0.05183642 0.011812144 -0.008359693 0.008385078
-0.014123548 -0.010608594 0.07808337 -0.011084398 -0.018281417 0.04188527 -0.03219451 0.10327234
-0.09287228 -0.066805035 0.061481323 0.09741299 0.017658897 0.07415323 0.03235347 0.045892186
0.022213282 -0.07180456 0.041613482 0.0870812 -0.026738312 -0.020494102 0.10063624 0.080885194
0.04992572 0.07829882 0.10062074 0.09537463 -0.060717244 0.1063666 -0.03389376 0.030003788
-0.016442122 0.011247788 0.05555963 0.10353194 0.09567116 0.004066699 -0.011226114 0.04538541
-0.016781647 -0.025540566 0.007584998 -0.018725043 0.10697403 0.05527719 0.12011442 -0.046808552
0.054251246 0.029074019 0.07450392 -0.064400144 0.11726202 0.034009088 -0.043370754 -0.037882347
-0.02137178 -0.0071064667 -0.05860534 0.072767526 0.05058034 0.054289225 -0.007927885 0.00028454527
0.031203184 -0.0016569445 -0.10493597 0.018996954 0.07956676 0.025751678 0.058135625 0.011639349
-0.04463774 0.06804746 0.022034796 0.08010275 0.045509737 -0.07975384 0.06122168 0.0037479624
0.025448797 -0.060609564 -0.030831585 -0.0057149883 -0.09489886 0.08738231 0.10024505 0.062151067
-0.062391624 -0.07647738 -0.10560106 0.04465504 -0.020593915 0.028657595 0.0055079404 -0.007090697
-0.043072324 -0.065462165 -0.012389 -0.09865068 -0.008218464 0.06496503 0.056840055 -0.039570935
-0.08606837 -0.017812543 -0.06519862 -0.09246515 0.0427589 0.045937765 -0.0023343328 0.043148763
0.025680633 -0.03800083 -0.026466703 -0.038295075 -0.074865006 -0.08029513 0.049647894 0.014209905
-0.103965245 0.049881622 -0.0338563 -0.013779947 -0.091298364 -0.093609475 0.015594828 -0.081769556
-0.02905281 0.063363194 -0.032554585 -0.07817098 -0.063458234 -0.022334011 -0.11811406 -0.11905972
-0.06774111 0.0021183512 0.059861004 -0.085505165 -0.10589728 0.07735644 -0.04097978 -0.1051923
-0.1092567 -0.039589986 -0.09309019 -0.09775552 -0.0974813 0.0887205 -0.016184827 -0.07308986
-0.0575954 0.01296478 0.011946064 0.0036408848 0.033910673 -0.108376786 -0.097955145 -0.031604484
0.020793874 0.09675818 -0.020786287 0.014239093 0.10910524 0.055545796 0.07668123 -0.034012802
-0.058387864 -0.023844339 0.06866979 -0.0070417924 0.019630075 0.08350765 -0.006302206 0.07939135
0.011698319 0.04152316 -0.053189617 -0.074066766 0.08970504 -0.07963125 0.07521241 0.030749384
-0.06675471 0.09070462 -0.056950517 0.060304303 0.07266068 -0.013480506 0.07242844 0.043362908
-0.04863429 -0.03291507 0.07526744 0.05695768 -0.045572557 -0.03427333 -0.10559337 -0.050518464
-0.036971554 -0.080541514 -0.09865053 -0.007934794 0.0036270204 -0.07717332 0.0073935175 -0.075870916
-0.050161112 0.04478506 0.0869516 0.039500877 0.09234915 0.033472836 0.07922441 0.077849515
00000000: d3d1 32bd e49f 22bc 2108 ad3c d279 983d
00000010: d440 193d 7673 f7bc 3a18 87bd f1fa 603d
00000020: 3e6f 59bd 0b77 5dbd 3181 b5bc b756 603d
00000030: b7d5 a0bd 686b 65bd c9fc 723d ba29 50bc
00000040: 9046 853d 6bd4 af3d 0a1c 44bb 5647 9ebb
00000050: 8d0d 61bd 126c 833d 1c23 88bd 4ac5 af3c
00000060: 61e9 c83d ac37 69bd 4f6a b13c f52f ee3d
00000070: 72d2 2fbd 8b71 543d 259d 0ebd a111 a23d
00000080: 40fc a0bd 7e35 3abc 5ae8 1e3c 7c38 08bd
00000090: 6d52 54bd b987 413c 18f7 08bc 9161 093c
000000a0: 7466 67bc abcf 2dbc 2dea 9f3d 569b 35bc
000000b0: e9c2 95bc e48f 2b3d 64de 03bd 7380 d33d
000000c0: d233 bebd 14d1 88bd d7d3 7b3d 7680 c73d
000000d0: 64a9 903c a6dd 973d 1285 043d 72f9 3b3d
000000e0: a1f8 b53c 450e 93bd e672 2a3d a157 b23d
000000f0: 4e0a dbbc 3fe3 a7bc 5f1a ce3d 23a7 a53d
00000100: e97e 4c3d 225b a03d 3f12 ce3d c653 c33d
00000110: a5b2 78bd bbd6 d93d 2fd4 0abd 81ca f53c
00000120: a1b1 86bc a448 383c 7f92 633d 8e08 d43d
00000130: 3eef c33d f241 853b bced 37bc 0de6 393d
00000140: aa79 89bc 733a d1bc 938b f83b 4365 99bc
00000150: 3315 db3d 566a 623d 8dfe f53d 53ba 3fbd
00000160: 8e36 5e3d a32c ee3c 8395 983d 39e4 83bd
00000170: 1227 f03d 1d4d 0b3d 88a5 31bd 852a 1bbd
00000180: df13 afbc 5ddd e8bb 270c 70bd 2407 953d
00000190: 552d 4f3d 615e 5e3d f6e3 01bc 052f 9539
000001a0: d29d ff3c d52d d9ba abe8 d6bd 809f 9b3c
000001b0: e6f3 a23d 2ff5 d23c 9f1f 6e3d f8b2 3e3c
000001c0: 10d6 36bd 775c 8b3d 5182 b43c e90c a43d
000001d0: 6b68 3a3d fb55 a3bd 96c3 7a3d 60a0 753b
000001e0: ff79 d03c bc41 78bd 8592 fcbc cc44 bbbb
000001f0: 555a c2bd 7ff5 b23d 474d cd3d 1e92 7e3d
00000200: 5c8e 7fbd 2ca0 9cbd 5e45 d8bd 34e8 363d
00000210: 92b4 a8bc 55c3 ea3c f47b b43b 1459 e8bb
00000220: 9b6c 30bd 0711 86bd 3bfb 4abc 5e09 cabd
00000230: bda6 06bc 630c 853d 1ed1 683d 2215 22bd
00000240: 9d44 b0bd 9ceb 91bc db86 85bd 5e5e bdbd
00000250: f523 2f3d 3d29 3c3d 9bfb 18bb c2bc 303d
00000260: 3160 d23c c2a6 1bbd b3d0 d8bc 4cdb 1cbd
00000270: d352 99bd c671 a4bd 975b 4b3d a9d0 683c
00000280: bbeb d4bd ac50 4c3d e7ac 0abd 49c5 61bc
00000290: a3fa babd 53b6 bfbd 7381 7f3c cc76 a7bd
000002a0: 2900 eebc 90c4 813d f557 05bd 1b18 a0bd
000002b0: 64f6 81bd d1f5 b6bc c9e5 f1bd 95d5 f3bd
000002c0: dabb 8abd 09d4 0a3b d030 753d 551d afbd
000002d0: ace0 d8bd 0e6d 9e3d 6ada 27bd 106f d7bd
000002e0: fac1 dfbd 1c29 22bd 12a6 bebd 0c34 c8bd
000002f0: 47a4 c7bd 18b3 b53d 0b96 84bc 23b0 95bd
00000300: 27e9 6bbd 3b6a 543c 6db9 433c e99b 6e3b
00000310: ebe5 0a3d a6f4 ddbd b59c c8bd b473 01bd
00000320: ea57 aa3c 2729 c63d 0148 aabc 164b 693c
00000330: 9172 df3d fd83 633d 0c0b 9d3d 0251 0bbd
00000340: 1d28 6fbd 3455 c3bc bfa2 8c3d d6be e6bb
00000350: 40cf a03c 0f06 ab3d bc82 cebb ef97 a23d
00000360: 4eaa 3f3c 3014 2a3d 5bdd 59bd 51b0 97bd
00000370: 47b7 b73d b515 a3bd f708 9a3d 22e6 fb3c
00000380: b2b6 88bd 58c3 b93d f244 69bd a501 773d
00000390: 1fcf 943d 57dd 5cbc 5d55 943d 4e9d 313d
000003a0: c034 47bd f4d1 06bd d125 9a3d 754c 693d
000003b0: 4aaa 3abd 3162 0cbd 5641 d8bd 73ec 4ebd
000003c0: 7c6f 17bd f3f2 a4bd 4a09 cabd f000 02bc
000003d0: 4eb3 6d3b 0c0d 9ebd 5245 f23b 3662 9bbd
000003e0: bd75 4dbd 8a70 373d ae13 b23d accb 213d
000003f0: 8d21 bd3d d01a 093d 6840 a23d 916f 9f3d

rnn.bias_hh_l0 f4 [300]
0.10260933 -0.07419621 0.051751595 -0.010871744 0.07334394 -0.09182947 0.022508636 0.08447929
-0.040156003 0.04349889 0.10281491 -0.070126414 -0.07212184 -0.0040595066 0.10259392 0.056677535
0.02631471 -0.016829368 -0.022471292 0.044189487 0.13026652 -0.0788228 0.009219148 -0.07692952
0.044252414 -0.05677128 -0.07542274 0.00768119 0.058933884 -0.029882971 0.008641694 0.017336566
0.11380128 -0.060761742 -0.0054211654 -0.012315407 0.022497458 0.05117198 0.09171872 0.093027204
0.045833047 -0.016325353 0.040712286 0.11702316 -0.061554834 0.034412082 0.018883305 0.09925123
0.077704206 -0.036904164 0.008134341 0.102145284 0.09591228 0.056208808 -0.05916596 0.020715652
0.063628145 0.07871291 0.038807794 0.07864762 0.024198487 0.008273762 -0.02371186 -0.083148114
0.044745613 -0.07117697 0.07548212 -0.059367746 -0.006995083 0.09031623 -0.054597083 -0.014797872
-0.05647656 0.046452854 0.08321337 -0.049598124 -0.07159762 -0.023593917 -0.064662196 0.01574958
-0.07520092 -0.043426402 -0.004958144 -0.07463027 0.1097022 -0.0029991847 -0.0026167736 0.061043944
-0.038244277 -0.07624489 -0.06884206 -0.036346853 -0.029739942 0.075138055 0.08065379 -0.03727713
-0.04072982 -0.06694 0.07943058 0.105537765 0.051705085 -0.009211139 -0.06616049 -0.011111056
0.03139818 -0.1067428 0.010261962 0.06325886 0.029640574 -0.08742476 0.05945042 0.062661365
-0.052162256 0.015110317 -0.10261225 -0.02555501 -0.034156054 0.048018392 0.03871014 -0.056265723
0.051279604 0.05423926 -0.020221205 -0.09847607 -0.0962221 -0.08604482 -0.06384124 -0.04759293
0.07575442 0.07090193 -0.004079766 -0.016076025 0.026715305 -0.047457736 0.033796027 -0.030032082
0.033932403 0.067047566 0.07339211 -0.0017590066 -0.03937876 -0.04931996 -0.09477959 -0.081584305
-0.11427974 0.03875462 0.027792905 -0.103963904 -0.009939998 -0.0937029 0.092028156 -0.048045255
-0.08637303 -0.06602544 -0.09096102 -0.081752986 -0.044711947 0.040955927 -0.002095107 -0.070844404
-0.0828012 -0.08553758 -0.11058931 -0.08154624 -0.0035022525 0.012979658 -0.0051636505 -0.014305307
-0.062486388 -0.09317032 0.074049 -0.092101336 0.022978218 0.07372946 0.016592937 -0.025640659
-0.09861762 -0.016398616 -0.02838832 0.022038653 -0.09064638 -0.118244395 -0.07768505 0.04278453
-0.014316853 -0.042063497 -0.055085275 -0.08460047 -0.025463484 -0.045037232 -0.0031080805 0.08491352
0.023000889 -0.061169438 -0.0103172455 -0.11191995 0.062120643 0.025928525 -0.07130088 -0.11355174
0.07683894 -0.0651302 0.0501439 0.069010764 0.028385201 0.08096781 -0.01559408 0.09370238
0.011585393 -0.042664487 0.0042299964 0.030074101 0.031813573 -0.022219332 -0.05913527 -0.08378008
-0.066679016 -0.053759433 0.079351716 0.05469222 -0.059410464 0.044667266 0.08483818 -0.00036316112
-0.06689933 0.056670815 0.0786089 0.05826776 0.010929159 -0.00061456993 -0.0758238 -0.022134975
0.080480926 0.041851446 -0.048705176 0.088375136 -0.10731963 -0.09946821 -0.03214468 0.10534155
-0.05432697 -0.106682114 0.033808585 -0.08142206 0.000750774 0.013512792 0.074851096 -0.0015620468
-0.09858751 0.07603803 0.03784197 0.016309692 0.09530564 0.038749214 -0.026516771 0.04535662
00000000: d724 d23d 2ff4 97bd 7bf9 533d 661f 32bc
00000010: 5935 963d 1711 bcbd 0864 b83c 7a03 ad3d
00000020: 9f7a 24bd e42b 323d a090 d23d 709e 8fbd
00000030: 9eb4 93bd 9c05 85bb c31c d23d b426 683d
00000040: f291 d73c bedd 89bc b715 b8bc 0900 353d
00000050: 9664 053e d96d a1bd e90b 173c 398d 9dbd
00000060: 0542 353d 0089 68bd 3d77 9abd 7eb2 fb3b
00000070: a864 713d 22cd f4bc e495 0d3c 6a05 8e3c
00000080: a510 e93d 4ee1 78bd 08a4 b1bb 90c6 49bc
00000090: 974c b83c b699 513d 06d7 bb3d 0c85 be3d
000000a0: 6fbb 3b3d bfbc 85bc edc1 263d d7a9 ef3d
000000b0: ec20 7cbd aff3 0c3d 29b1 9a3c 3b44 cb3d
000000c0: 6223 9f3d d228 17bd e645 053c 8c31 d13d
000000d0: a86d c43d 353b 663d 0158 72bd dfb3 a93c
000000e0: 794f 823d 3c34 a13d ecf4 1e3d 0112 a13d
000000f0: e83b c63c ac8e 073c 603f c2bc 8f49 aabd
00000100: 2d47 373d 3bc5 91bd 5f96 9a3d 982b 73bd
00000110: 0237 e5bb b7f7 b83d 31a1 5fbd c672 72bc
00000120: f753 67bd 5945 3e3d c56b aa3d 6727 4bbd
00000130: c6a1 92bd 0848 c1bc 9d6d 84bd 4305 813c
00000140: f102 9abd e2df 31bd ed77 a2bb c1d7 98bd
00000150: 8cab e03d f88d 44bb 2d7e 2bbb 3709 7a3d
00000160: 08a6 1cbd 4826 9cbd 11fd 8cbd 70e0 14bd
00000170: 2ea1 f3bc fbe1 993d d02d a53d e7af 18bd
00000180: 50d4 26bd d717 89bd 80ac a23d 2f24 d83d
00000190: b6c8 533d 51ea 16bc 277f 87bd 260b 36bc
000001a0: 619b 003d f89b dabd ca21 283c dc8d 813d
000001b0: cad0 f23c c10b b3bd 4982 733d 9a54 803d
000001c0: 17a8 55bd 4391 773c 5f26 d2bd be58 d1bc
000001d0: 38e7 0bbd efae 443d 868e 1e3d e376 66bd
000001e0: 900a 523d fc29 5e3d f1a6 a5bc d2ad c9bd
000001f0: 1810 c5bd 4438 b0bd 32bf 82bd cef0 42bd
00000200: 2225 9b3d 0835 913d 8faf 85bb deb1 83bc
00000210: 0eda da3c 0b63 42bd b46d 0a3d d705 f6bc
00000220: b4fc 0a3d 3c50 893d 9a4e 963d 788e e6ba
00000230: 9f4b 21bd ba03 4abd cd1b c2bd ac15 a7bd
00000240: 7f0b eabd 2abd 1e3d f2ad e33c 07eb d4bd
00000250: 60db 22bc 4ee7 bfbd 4279 bc3d 1acb 44bd
00000260: 58e4 b0bd 5938 87bd c549 babd 1c6e a7bd
00000270: e023 37bd 67c1 273d 104e 09bb df16 91bd
00000280: ad93 a9bd 542e afbd a67c e2bd b701 a7bd
00000290: 0c86 65bb a2a8 543c d733 a9bb ce60 6abc
000002a0: baf1 7fbd 15d0 bebd 01a7 973d a09f bcbd
000002b0: d13c bc3c 79ff 963d e9ed 873c 5c0c d2bc
000002c0: 09f8 c9bd 6456 86bc 9f8e e8bc 688a b43c
000002d0: cfa4 b9bd 1e2a f2bd 5719 9fbd d53e 2f3d
000002e0: 3c91 6abc c64a 2cbd 19a1 61bd 0343 adbd
000002f0: cc98 d0bc f678 38bd f0b0 4bbb 24e7 ad3d
00000300: 5c6c bc3c ce8c 7abd aa09 29bc 4936 e5bd
00000310: 3772 7e3d 0f68 d43c 3206 92bd d18d e8bd
00000320: bc5d 9d3d fb62 85bd b163 4d3d 8455 8d3d
00000330: 1588 e83c 73d2 a53d 507e 7fbc 09e7 bf3d
00000340: a9d0 3d3c f5c0 2ebd c89b 8a3b f65d f63c
00000350: f34e 023d 5105 b6bc d337 72bd e494 abbd
00000360: 028f 88bd da32 5cbd 2783 a23d f304 603d
00000370: 6358 73bd 06f5 363d a4bf ad3d a966 beb9
00000380: 8402 89bd a81f 683d b4fd a03d 2daa 6e3d
00000390: 3710 333c 171b 21ba 8249 9bbd 6854 b5bc
000003a0: 2fd3 a43d 6c6c 2b3d 147f 47bd 06fe b43d
000003b0: 65ca dbbd fdb5 cbbd 24aa 03bd 50bd d73d
000003c0: f585 5ebd 277c dabd df7a 0a3d 9cc0 a6bd
000003d0: 97cf 443a c264 5d3c 884b 993d 98bd ccba
000003e0: 40e8 c9bd d4b9 9b3d 2e00 1b3d e79b 853c
000003f0: 9a2f c33d 7fb7 1e3d b339 d9bc ddc7 393d

fc_out1.weight f4 [50, 100]
0.0016368659 0.09525966 0.005348426 0.07576971 -0.035771377 0.053533845 0.047963712 -0.09906611
-0.017529156 0.043355975 0.079196885 0.057047047 -0.054206926 0.10591394 0.06451225 0.078433946
0.080387555 0.05509137 0.03144022 0.035094414 -0.0015701085 0.039081156 0.062162105 -0.010289098
0.038736183 -0.06897404 -0.048132867 -0.07404971 -0.05837757 -0.06399803 -0.08635066 -0.020579763
-0.09373445 0.07668868 -0.08641176 0.10368681 0.021719486 -0.09936118 -0.091796964 0.08053132
-0.10022772 -0.060167953 -0.038414937 -0.12838586 0.1051843 -0.080339976 0.1298502 0.052300822
0.011513084 -0.049924303 0.00824311 0.062203415 0.110350706 -0.07366141 0.029075177 0.06501756
0.04050765 -0.07388805 -0.09798568 0.052750368 0.026475139 0.12609825 0.08842775 -0.020774046
-0.04792564 0.033049464 -0.020458778 -0.066567436 -0.009947232 0.025664143 -0.008609041 -0.0029671993
-0.10028313 -0.032725677 -0.03994073 0.03787434 -0.016055945 0.04358908 0.05785922 0.071072996
-0.1099051 0.0701065 0.023678496 0.022980938 -0.03683997 0.060800683 0.068417914 -0.069183014
0.09268081 -0.121604405 -0.053840287 0.04284729 -0.07332446 0.07871371 -0.10015318 0.017049246
-0.049379803 0.05922418 0.06648926 -0.08301208 0.11111774 -0.015461715 0.0048939423 0.030935481
-0.009923242 0.012795488 0.04582274 0.037240773 -0.071978614 0.054485254 0.072457135 -0.004231383
-0.07101306 0.03644602 -0.09822614 -0.0154607985 -0.045928754 0.0066442573 -0.084001206 0.05015476
0.027392345 0.09238209 -0.022160001 -0.034067288 -0.10839447 0.020442301 0.05378581 0.08038951
-0.08612756 0.0042911246 0.02546023 -0.10682398 -0.029871715 0.0055869278 0.04279704 -0.007515209
0.031853456 0.071533576 -0.011151372 0.09812843 0.0096445605 -0.040847007 -0.06384285 -0.07451609
0.10752864 -0.08467853 0.038149625 0.007241278 -0.0776994 0.057498995 0.039628647 -0.014060661
-0.02097555 -0.012821937 -0.055854704 -0.048584983 0.011614737 0.04997944 0.09506746 0.07327918
0.048023175 0.08191288 -0.06701009 0.07889921 0.058600888 -0.07622599 0.035314836 -0.10483931
0.072523676 -0.065326005 0.03463532 0.023890633 0.0102592865 0.008075025 0.080492415 -0.027716871
-0.037527964 0.035927568 -0.020408338 0.084343426 0.039149445 0.070206486 0.09538752 -0.08115294
0.028555071 -0.024808794 0.077684626 -0.06358559 -0.07575809 0.063943006 -0.03285077 -0.08482946
0.071932286 -0.034458425 0.011357066 0.043240346 0.09192553 0.08247203 0.049932037 -0.086816795
-0.07935817 -0.045554783 0.048440203 -0.082396254 -0.09380183 -0.09098268 0.08396035 -0.095079824
0.08968997 0.10145272 0.063299276 -0.051023975 0.019323949 0.004679791 0.054764822 -0.07383821
-0.05528956 0.067555636 -0.06086754 0.04092535 0.06628321 0.09520791 -0.09789728 0.045624338
0.021855757 0.05674069 -0.07960871 0.035224453 -0.027272679 0.066639155 0.060988285 0.05941828
0.06898274 -0.072321944 -0.0027627838 0.034774046 0.01757198 0.081134595 0.058857188 -0.09084613
-0.03675464 0.026127245 0.09685416 -0.046472166 0.018094828 0.06440003 -0.10234295 0.008575056
-0.032027047 -0.013485888 0.06892125 -0.06148082 0.075504035 0.07600126 -0.021406652 -0.058241334
00000000: 1b8c d63a 7f17 c33d d941 af3b 262d 9b3d
00000010: 0285 12bd 4e46 5b3d 9975 443d 2ce3 cabd
00000020: 4e99 8fbc 0996 313d fa31 a23d 2aaa 693d
00000030: 1508 5ebd 68e9 d83d 001f 843d faa1 a03d
00000040: 3ba2 a43d 7da7 613d 76c7 003d 29bf 0f3d
00000050: 19cc cdba 9013 203d b19d 7e3d 9b93 28bc
00000060: d5a9 1e3d 4342 8dbd f826 45bd 60a7 97bd
00000070: 521d 6fbd 6611 83bd 9dd8 b0bd e496 a8bc
00000080: d9f7 bfbd f40e 9d3d a6f8 b0bd c059 d43d
00000090: 10ed b13c e07d cbbd 0c00 bcbd 9bed a43d
000000a0: 3144 cdbd ac72 76bd fb58 1dbd 9577 03be
000000b0: de6a d73d 4989 a4bd 73f7 043e 6339 563d
000000c0: 60a1 3c3c 6d7d 4cbd 1c0e 073c 02c9 7e3d
000000d0: 8dff e13d cbdb 96bd 112f ee3c ed27 853d
000000e0: 59eb 253d 9e52 97bd b7ac c8bd c510 583d
000000f0: 64e2 d83c e61f 013e 9c19 b53d 552e aabc
00000100: ad4d 44bd e05e 073d 2b99 a7bc 8254 88bd
00000110: b7f9 22bc 9c3d d23c ef0c 0dbc 5875 42bb
00000120: 3e61 cdbd 5c0b 06bd e498 23bd 2022 1b3d
00000130: c287 83bc 778a 323d cafd 6c3d b88e 913d
00000140: ed15 e1bd ff93 8f3d 68f9 c13c 8542 bc3c
00000150: 82e5 16bd 230a 793d b11e 8c3d d3af 8dbd
00000160: 70cf bd3d bb0b f9bd a287 5cbd a480 2f3d
00000170: 222b 96bd a734 a13d 1c1d cdbd dcaa 8b3c
00000180: 7a42 4abd 0e95 723d 852b 883d 3d02 aabd
00000190: b391 e33d 2253 7dbc 5d5d a03b 686c fd3c
000001a0: 1895 22bc 2ba4 513c a0b0 3b3d c889 183d
000001b0: 8669 93bd ee2b 5f3d 6864 943d 6aa7 8abb
000001c0: 4c6f 91bd 6c48 153d c92a c9bd 4a4f 7dbc
000001d0: ca1f 3cbd 12b8 d93b d308 acbd 146f 4d3d
000001e0: e965 e03c d232 bd3d e488 b5bc 248a 0bbd
000001f0: ebfd ddbd 9d76 a73c 824e 5c3d 41a3 a43d
00000200: a563 b0bd 909c 8c3b f991 d03c 88c6 dabd
00000210: 87b5 f4bc 8c12 b73b f34b 2f3d 2442 f6bb
00000220: c578 023d 3280 923d 3fb4 36bc 8ff7 c83d
00000230: 3804 1e3c 314f 27bd 0ac0 82bd e49b 98bd
00000240: fa37 dc3d f06b adbd c842 1c3d 3e48 ed3b
00000250: dd20 9fbd 1184 6b3d a651 223d b05e 66bc
00000260: ebd4 abbc 1a13 52bc e7c7 64bd 0c01 47bd
00000270: bd4b 3e3c 3eb7 4c3d bab2 c23d 6513 963d
00000280: f3b3 443d f1c1 a73d 963c 89bd e995 a13d
00000290: 7c07 703d 5f1c 9cbd 4aa6 103d feb5 d6bd
000002a0: 4b87 943d a4c9 85bd c4dd 0d3d 4ab6 c33c
000002b0: 9116 283c 1c4d 043c 35d9 a43d 7e0e e3bc
000002c0: ecb6 19bd c928 133d 632f a7bc 3fbc ac3d
000002d0: 2b5b 203d 6bc8 8f3d 885a c33d 8333 a6bd
000002e0: 53ec e93c d03b cbbc 1e19 9f3d 2939 82bd
000002f0: 0f27 9bbd 8df4 823d 878e 06bd 11bb adbd
00000300: 3c51 933d 4724 0dbd fd12 3a3c ca1c 313d
00000310: 7443 bc3d 18e7 a83d 8985 4c3d 01cd b1bd
00000320: 8986 a2bd a797 3abd 3c69 463d 5ebf a8bd
00000330: 2d1b c0bd 2155 babd 67f3 ab3d 36b9 c2bd
00000340: 60af b73d 72c6 cf3d 0da3 813d 84fe 50bd
00000350: 424d 9e3c ef58 993b 1451 603d 7d38 97bd
00000360: 4e77 62bd 9c5a 8a3d 3e50 79bd 57a1 273d
00000370: 7ebf 873d 5dfc c23d 5e7e c8bd 96e0 3a3d
00000380: d80a b33c ed68 683d e409 a3bd 8447 103d
00000390: f46a dfbc 1c7a 883d dace 793d 9560 733d
000003a0: d346 8d3d 871d 94bd d20f 35bb 3b6f 0e3d
000003b0: 1df3 8f3c e529 a63d 3c14 713d 890d babd
000003c0: 098c 16bd ce08 d63c 795b c63d 9959 3ebd
000003d0: 9b3b 943c 2ae4 833d 2e99 d1bd 647e 0c3c
000003e0: cb2e 03bd eaf3 5cbc 9626 8d3d 50d3 7bbd
000003f0: dca1 9a3d 8ca6 9b3d 015d afbc 778e 6ebd

fc_out1.bias f4 [50]
0.06315489 -0.024251627 -0.014028107 -0.0762198 0.048987113 -0.0040428312 -0.054162454 0.08729828
-0.09422362 0.097794786 -0.017543504 -0.027771963 -0.063312374 0.017444469 0.00014626399 -0.050354093
-0.08335256 -0.05214133 -0.05870462 0.09432187 -0.028860193 0.022511328 0.018585585 -0.050722737
-0.055186264 0.051303867 0.08710794 0.089700386 -0.088595904 -0.02371235 -0.033647247 0.034675922
0.019548612 0.092304625 -0.10356517 -0.037837747 0.063351 -0.037874047 -0.04681507 -0.06338698
0.0650963 -0.061738025 -0.016076788 0.03287165 0.06758812 -0.055698432 0.005342897 0.05487542
0.09189382 0.042611603
00000000: 5a57 813d 59ab c6bc 25d6 65bc 2019 9cbd
00000010: b6a6 483d ba79 84bb 73d9 5dbd 71c9 b23d
00000020: 50f8 c0bd a248 c83d 65b7 8fbc 0782 e3bc
00000030: eba9 81bd b4e7 8e3c 715e 1939 1840 4ebd
00000040: bfb4 aabd 2692 55bd 4174 70bd d32b c13d
00000050: 366c ecbc ad69 b83c cc40 983c a5c2 4fbd
00000060: fe0a 62bd 0124 523d a665 b23d d6b4 b73d
00000070: c571 b5bd 6740 c2bc b2d1 09bd 5708 0e3d
00000080: 6924 a03c 350a bd3d fa19 d4bd c1fb 1abd
00000090: 2bbe 813d d121 1bbd 29c1 3fbd 08d1 81bd
000000a0: 3551 853d 03e1 7cbd 78b3 83bc 6ca4 063d
000000b0: a46b 8a3d 0a24 64bd 7813 af3b 0cc5 603d
000000c0: d432 bc3d 8189 2e3d

fc_out.weight f4 [2, 50]
0.1564132 0.13272882 -0.119516 0.10718979 0.009821429 0.14892077 0.008563583 -0.14894879
-0.09141817 -0.10117102 -0.032925438 0.022606688 0.0031589402 -0.08831466 -0.024248473 -0.1375672
-0.10097194 -0.051259484 0.013812604 0.06385188 -0.09924248 -0.13745634 -0.12646894 0.08783007
0.005063795 0.041501746 0.017475743 0.003054862 0.119142435 -0.02621672 0.012909108 0.0722789
0.0965626 -0.14973699 -0.07153879 0.05143244 -0.044623833 -0.15766847 -0.076273255 0.11329822
-0.046207692 0.15144953 -0.03507597 0.061403617 0.0671153 -0.084587604 -0.0010263594 0.11151881
0.029881466 -0.048799913 0.08030715 -0.016422477 0.12798321 -0.093108624 0.12078651 -0.09603831
-0.0309777 -0.118200324 -0.0035667869 -0.016076861 0.098185085 0.07762046 0.053166583 0.0039334926
0.057781488 0.06161043 0.11037193 -0.0015079197 -0.12362052 -0.009591028 -0.04160434 0.14531969
-0.09981495 -0.11415125 -0.124665245 0.15333985 -0.15609589 -0.01264435 0.026514972 -0.04483429
0.12364221 0.024356732 0.09980839 -0.1314505 -0.11340283 0.07411871 -0.11344825 0.022093154
-0.08704069 0.15882517 -0.093669206 -0.10698694 -0.0070469156 0.061847623 0.1616767 -0.08225506
-0.07424113 -0.029064829 -0.05428436 0.14548458
00000000: c82a 203e 10ea 073e cec4 f4bd 5286 db3d
00000010: 0fea 203c b07e 183e 454e 0c3c 0886 18be
00000020: 7339 bbbd c032 cfbd d3dc 06bd a931 b93c
00000030: 3906 4f3b 51de b4bd bca4 c6bc 6bde 0cbe
00000040: 60ca cebd 77f5 51bd 434e 623c c6c4 823d
00000050: a43f cbbd 5bc1 0cbe 1381 01be 40e0 b33d
00000060: 31ee a53b bcfd 293d 4a29 8f3c 1434 483b
00000070: f300 f43d 72c4 d6bc b980 533c f606 943d
00000080: 9dc2 c53d a754 19be ee82 92bd d2aa 523d
00000090: 7bc7 36bd d873 21be 2735 9cbd e608 e83d
000000a0: 4744 3dbd 9615 1b3e d2ab 0fbd 5c82 7b3d
000000b0: bf73 893d 443c adbd e886 86ba f963 e43d
000000c0: fac9 f43c 6be2 47bd 1378 a43d 6e88 86bc
000000d0: 080e 033e bcaf bebd eb5e f73d bcaf c4bd
000000e0: f2c4 fdbc 0313 f2bd c1c0 69bb 9fb3 83bc
000000f0: 4315 c93d 7af7 9e3d 34c5 593d 87e4 803b
00000100: 48ac 6c3d 385b 7c3d ae0a e23d 64a5 c5ba
00000110: c12c fdbd b023 1dbc 5069 2abd afce 143e
00000120: c86b ccbd 21c8 e9bd 7e50 ffbd 1f05 1d3e
00000130: 9ad7 1fbe 3f2a 4fbc ed35 d93c 29a4 37bd
00000140: 2138 fd3d c587 c73c 5768 cc3d f69a 06be
00000150: be3f e8bd 8dcb 973d 8e57 e8bd b4fc b43c
00000160: 6442 b2bd 11a3 223e a4d5 bfbd f81b dbbd
00000170: d0e9 e6bb ef53 7d3d 948e 253e 5775 a8bd
00000180: bc0b 98bd 5d19 eebc 4759 5ebd e9f9 143e

fc_out.bias f4 [2]
0.004243577 0.11307826
00000000: b40d 8b3b 9395 e73d

exp_avg f4 [300, 2]
-6.1851395e-05 -0.00010057419 -2.1714215e-05 -7.616821e-05 -1.883932e-05 -4.1108975e-05 -2.3130646e-05 -0.000112157075
-4.8620095e-05 3.4729553e-06 -9.350781e-05 -9.2883514e-05 1.7741015e-05 -2.0276464e-05 -4.1428666e-05 -7.437178e-05
3.3120657e-05 -6.3428546e-05 -3.9354178e-05 -8.577858e-05 -5.2949417e-05 -9.520797e-05 3.9932653e-05 -8.9069414e-05
-1.6714006e-05 -3.415993e-05 -6.057557e-05 -1.0805177e-05 -9.7005344e-05 -5.7377445e-05 5.421613e-05 -6.0949445e-05
-0.00010525874 -9.018207e-05 -3.1475553e-05 -1.2837225e-05 -3.2483073e-05 -9.69071e-06 -8.4262356e-05 -2.2696051e-06
-0.00019675269 -5.0525447e-05 -5.9455753e-05 -1.4132488e-05 2.7583263e-05 -3.7100974e-05 -3.9072933e-05 -1.3500882e-05
-8.374944e-05 3.5978228e-05 1.7179099e-06 2.2221782e-06 1.6134372e-05 -7.51505e-06 2.0626996e-05 -3.5920348e-05
-2.2993356e-06 -1.3787998e-05 -1.8090122e-05 -6.965084e-06 2.5492885e-05 -8.4540625e-05 -2.095854e-05 -4.6715435e-05
-3.7735626e-06 -8.4126266e-05 -5.6332665e-06 -3.3741435e-05 -4.9166203e-05 -1.388988e-06 4.5725228e-05 -5.7899484e-05
-2.6092903e-05 -7.559232e-05 3.9507566e-05 -9.949924e-05 -1.4235851e-05 -6.664807e-05 -0.00010529674 -1.753184e-05
-9.302156e-06 -4.3624226e-05 -8.889235e-05 -1.4202659e-05 -1.077262e-05 -9.348869e-05 -0.00020160343 -4.6518715e-05
-2.8774195e-06 -0.0001102153 4.707687e-05 -7.971025e-05 -0.00027311273 7.5100426e-05 4.53784e-05 -0.00011030293
-4.330372e-05 -9.787816e-06 -9.806776e-05 1.1647822e-05 2.0716509e-05 -2.7689348e-05 -4.14312e-05 -4.1503165e-05
-7.531918e-05 -3.7269867e-05 2.1953005e-05 -4.4717806e-05 -4.0908e-05 4.110993e-05 -9.642749e-05 1.4950166e-05
7.967477e-06 -7.096581e-05 -6.0964547e-05 -5.7953588e-05 3.3220236e-05 -6.5466986e-05 3.6244626e-06 -4.353378e-05
-6.263704e-05 1.0079168e-05 -4.5988054e-05 -5.5219512e-05 3.7416008e-05 -3.715023e-05 2.3818337e-05 -0.00011221356
6.674779e-05 -6.537392e-05 -1.2738556e-05 -3.3011427e-05 -4.7526388e-05 -5.335941e-05 -2.5490881e-05 -1.9892022e-05
-0.00010694256 -9.378697e-05 -5.3567353e-05 -1.5948131e-05 3.128981e-05 -1.5901624e-05 2.0788735e-05 -8.7961e-05
-5.4962176e-05 3.769884e-06 -0.00014737439 -9.721217e-05 1.8737175e-05 -6.460596e-05 -1.3210945e-05 -4.707372e-05
-4.7729896e-05 2.4524008e-05 4.593644e-05 -8.2366474e-05 -1.7489643e-05 -5.8658836e-05 -3.9544662e-05 -2.371868e-05
-2.9020774e-05 -6.1623614e-05 -5.818922e-05 -6.878955e-05 -4.7738347e-05 -7.069023e-05 -7.943576e-06 -1.1981826e-05
-3.1379193e-06 -7.180352e-05 1.1354795e-05 -9.988612e-05 -8.39023e-05 -6.165606e-05 -2.933057e-06 -2.5385363e-05
-3.639732e-06 -7.321312e-05 1.2095869e-05 -1.0769859e-05 -2.1182435e-05 6.693471e-06 1.0413275e-05 -3.8313705e-05
4.119485e-06 -3.814038e-05 -0.000115458126 -2.9554303e-05 -2.6153464e-05 -6.659388e-06 -8.527944e-05 -6.5282015e-06
-5.637051e-05 9.7720085e-06 6.5452994e-05 -9.125671e-05 -2.4343186e-05 -0.0001064556 -2.10383e-05 3.8774697e-06
1.8283861e-05 3.232657e-05 -2.4418052e-06 3.142923e-05 5.3890017e-06 1.2869347e-05 1.3645281e-05 2.7457483e-05
5.758305e-06 -5.97587e-07 1.6706268e-05 2.9110155e-05 4.4965896e-06 1.3600457e-05 1.0246247e-05 3.395325e-05
-5.888029e-06 1.4883764e-05 9.944936e-06 2.4442374e-05 1.6658096e-05 3.841019e-05 5.1689794e-06 4.201978e-05
5.5897533e-07 7.0722153e-06 9.452651e-06 8.201669e-06 1.9394269e-05 2.5592386e-05 -1.1146e-05 1.4438478e-05
2.7488977e-05 3.1139392e-05 -3.156902e-06 7.1046716e-06 7.4287746e-06 1.0404692e-05 1.5025718e-05 6.830343e-06
3.752603e-05 2.9215986e-05 1.4251971e-05 9.290792e-06 -4.8452966e-06 2.5151537e-06 5.264234e-06 4.515167e-06
4.0134696e-06 -4.399022e-06 2.9655116e-06 -6.2551504e-07 -1.0182554e-06 5.9520556e-07 3.1138848e-06 8.929346e-06
00000000: 37b6 81b8 5beb d2b8 ec26 b6b7 7fbc 9fb8
00000010: 2209 9eb7 6d6c 2cb8 af08 c2b7 df35 ebb8
00000020: 6eed 4bb8 eb10 6936 a019 c4b8 75ca c2b8
00000030: 8ad2 9437 6017 aab7 b1c3 2db8 0cf8 9bb8
00000040: 09eb 0a38 f104 85b8 3a10 25b8 06e4 b3b8
00000050: 0116 5eb8 64aa c7b8 5c7d 2738 c7ca bab8
00000060: 0e35 8cb7 f246 0fb8 8612 7eb8 e247 35b7
00000070: 596f cbb8 90a8 70b8 2066 6338 f8a3 7fb8
00000080: 5bbe dcb8 2120 bdb8 9e04 04b8 765f 57b7
00000090: 6f3e 08b8 4895 22b7 02b6 b0b8 854f 18b6
000000a0: 664f 4eb9 49eb 53b8 2160 79b8 931a 6db7
000000b0: 9b62 e737 de9c 1bb8 3ee2 23b8 d981 62b7
000000c0: a3a2 afb8 54e7 1638 ef92 e635 bb20 1536
000000d0: 4d58 8737 ca29 fcb6 2308 ad37 2ea9 16b8
000000e0: 494e 1ab6 0053 67b7 3ec0 97b7 9eb5 e9b6
000000f0: 8ed9 d537 674b b1b8 1fd0 afb7 51f0 43b8
00000100: 503d 7db6 f26c b0b8 6405 bdb6 9785 0db8
00000110: cf37 4eb8 446d bab5 17c9 3f38 19d9 72b8
00000120: 15e2 dab7 5187 9eb8 edb4 2538 3faa d0b8
00000130: 84d6 6eb7 69c5 8bb8 c2d2 dcb8 5711 93b7
00000140: 7510 1cb7 28f9 36b8 b86b bab8 f547 6eb7
00000150: 0dbc 34b7 5c0f c4b8 8265 53b9 171d 43b8
00000160: b119 41b6 6323 e7b8 6774 4538 1d2a a7b8
00000170: 9230 8fb9 3c7f 9d38 b054 3e38 6f52 e7b8
00000180: 04a1 35b8 5a36 24b7 baa9 cdb8 046b 4337
00000190: 5dc8 ad37 6c46 e8b7 6ac6 2db8 af13 2eb8
000001a0: adf4 9db8 3752 1cb8 b827 b837 618f 3bb8
000001b0: a194 2bb8 746d 2c38 1d39 cab8 79d2 7a37
000001c0: 0eac 0537 7bd3 94b8 2fb4 7fb8 3113 73b8
000001d0: f555 0b38 524b 89b8 cb3b 7336 0a98 36b8
000001e0: 015c 83b8 b219 2937 4ce3 40b8 809b 67b8
000001f0: 22ef 1c38 c1d1 1bb8 7dcd c737 3254 ebb8
00000200: f2fa 8b38 5b19 89b8 aeb7 55b7 c075 0ab8
00000210: 1257 47b8 3bce 5fb8 40d5 d5b7 cbdd a6b7
00000220: 5a46 e0b8 7faf c4b8 82ad 60b8 5ac8 85b7
00000230: 2d3d 0338 7a64 85b7 7863 ae37 b477 b8b8
00000240: 3087 66b8 1dfe 7c36 8388 1ab9 63de cbb8
00000250: c72d 9d37 107d 87b8 94a4 5db7 0671 45b8
00000260: 9631 48b8 e8b8 cd37 e0ab 4038 2abc acb8
00000270: b9b6 92b7 7208 76b8 c2dc 25b8 7af7 c6b7
00000280: a371 f3b7 ed3b 81b8 3310 74b8 1c43 90b8
00000290: a93a 48b8 873f 94b8 6645 05b7 8d05 49b7
000002a0: 0b95 52b6 3995 96b8 7980 3e37 f479 d1b8
000002b0: b4f4 afb8 584d 81b8 89d5 44b6 a7f2 d4b7
000002c0: 1f42 74b6 ff89 99b8 5def 4a37 31b0 34b7
000002d0: efb0 b1b7 7a98 e036 adb4 2e37 07b3 20b8
000002e0: 1b3a 8a36 ecf8 1fb8 1c22 f2b8 62eb f7b7
000002f0: 2364 dbb7 b573 dfb6 0dd8 b2b8 d30c dbb6
00000300: 606f 6cb8 75f2 2337 cf43 8938 1361 bfb8
00000310: 9834 ccb7 ea40 dfb8 687b b0b7 361b 8236
00000320: 4b60 9937 6496 0738 e5dd 23b6 e1d2 0338
00000330: 2cd3 b436 6de9 5737 09ee 6437 7f54 e637
00000340: 7737 c136 de69 20b5 7024 8c37 9531 f437
00000350: 69e1 9636 852d 6437 4ce7 2b37 0669 0e38
00000360: c991 c5b6 48b5 7937 2dd9 2637 9909 cd37
00000370: fdbc 8b37 a11a 2138 3271 ad36 653e 3038
00000380: 7e0c 1635 de4d ed36 d496 1e37 e699 0937
00000390: e0b0 a237 3baf d637 b5ff 3ab7 ca3c 7237
000003a0: 2198 e637 ab9b 0238 2adb 53b6 aa64 ee36
000003b0: b044 f936 d08f 2e37 f816 7c37 3330 e536
000003c0: 4565 1d38 da14 f537 c01b 6f37 a6df 1b37
000003d0: c894 a2b6 03ca 2836 6da3 b036 fd80 9736
000003e0: 71ab 8636 509b 93b6 1a03 4736 11e9 27b5
000003f0: fdaa 88b5 37c6 1f35 22f8 5036 40cf 1537

exp_avg_sq f4 [300, 2]
8.267567e-09 8.923008e-09 7.368699e-09 1.1463716e-08 2.302213e-09 2.478351e-09 2.4616945e-08 2.7595322e-08
3.9110923e-08 6.009925e-08 2.5757288e-08 3.1036176e-08 3.1713854e-09 4.851186e-09 9.044344e-08 1.1659465e-07
1.2958837e-09 2.0103654e-09 1.4708946e-09 2.5121552e-09 4.134307e-08 5.381125e-08 7.903035e-08 1.190635e-07
1.8274107e-09 2.922536e-09 3.271682e-08 5.0138866e-08 5.1608875e-08 6.4855634e-08 5.9387633e-09 6.2748455e-09
1.7584259e-07 2.2855649e-07 2.5786415e-09 6.575569e-09 1.9632493e-10 1.3521766e-10 2.1529545e-09 1.8283521e-09
4.9382973e-09 2.3730926e-09 4.2065085e-09 4.8108113e-09 1.6948627e-08 2.208853e-08 2.1656577e-08 4.1453784e-08
5.2751233e-08 9.812311e-08 4.583711e-09 8.303096e-09 2.166698e-08 2.639149e-08 2.3819613e-09 2.1717201e-09
6.510869e-09 7.967997e-09 7.762404e-09 1.1746421e-08 3.2100184e-10 1.6413831e-09 3.7073493e-09 5.761428e-09
2.5856213e-09 2.7899216e-09 1.8875777e-08 1.7150601e-08 9.627812e-09 8.862034e-09 5.9455573e-08 6.973494e-08
8.519455e-08 9.1215334e-08 1.5210726e-09 3.6577836e-09 1.11897286e-07 1.3504102e-07 6.3304e-08 1.1217102e-07
4.455212e-08 6.0857055e-08 1.5989329e-07 2.343884e-07 8.998572e-09 9.087219e-09 1.0400769e-08 6.3830847e-09
1.7376138e-08 1.35993945e-08 1.2159534e-08 1.525146e-08 6.810966e-09 1.1622623e-09 2.5615832e-09 5.183252e-09
1.4727399e-09 2.5769038e-09 2.8536962e-09 1.966031e-09 1.497619e-08 1.6263414e-08 1.5439471e-07 2.0945768e-07
7.319329e-10 5.1742843e-10 3.1839982e-09 3.7386756e-09 2.4872895e-10 8.6642304e-10 1.26225705e-08 2.3100643e-08
4.5490392e-08 6.119676e-08 1.18204014e-07 1.6749236e-07 2.5277753e-08 2.7925394e-08 5.58612e-09 7.7948865e-09
7.3922514e-08 1.15870364e-07 2.594382e-09 2.5373241e-09 3.6265007e-08 4.4676497e-08 4.7469637e-08 6.352901e-08
4.4060522e-10 6.9315853e-10 1.0668417e-07 1.3801697e-07 8.5447425e-08 1.3072294e-07 3.8826343e-08 6.022688e-08
2.9882777e-08 4.4336044e-08 5.266185e-08 6.332279e-08 1.8411732e-09 2.5791786e-09 1.1514449e-08 2.2459545e-08
3.1457816e-09 2.2545836e-09 8.472013e-09 8.084653e-09 1.0291944e-08 1.4335026e-08 3.8220613e-09 5.461354e-09
8.0696845e-09 1.8458577e-08 5.0137766e-10 9.900349e-10 6.077528e-09 9.339081e-09 3.4275086e-08 5.2349566e-08
3.964862e-10 7.0796835e-10 1.2003494e-07 1.6571673e-07 1.6616333e-07 2.2473795e-07 1.3140329e-08 2.131679e-08
1.5817333e-08 2.3181126e-08 5.9014954e-10 3.2962417e-09 4.2187175e-08 8.7705516e-08 9.8016336e-08 1.3851852e-07
3.3645464e-09 5.0772173e-09 4.1674406e-09 4.8761386e-09 1.2840504e-09 1.5244122e-09 3.0622587e-08 3.8649404e-08
4.1596973e-08 5.7490915e-08 4.24634e-09 5.0718465e-09 1.5385083e-10 1.9588509e-10 7.3580972e-09 1.3642972e-08
2.6813622e-08 3.637393e-08 5.9508487e-10 2.21328e-09 1.2211841e-07 1.6313693e-07 3.5650878e-08 5.4295604e-08
1.0649934e-09 1.12294e-09 2.4158685e-11 1.3458985e-10 3.8112644e-10 5.3395977e-10 1.0773407e-09 1.3012134e-09
1.4127554e-09 2.180544e-09 4.7848125e-10 6.4504807e-10 8.183929e-10 1.2299193e-09 2.9760363e-09 3.6613836e-09
4.0057062e-11 7.374743e-11 2.8018254e-10 3.2658193e-10 1.5167898e-09 1.7757121e-09 7.023513e-09 9.383036e-09
1.2497796e-11 3.0721575e-11 2.7878813e-09 4.274306e-09 4.6203223e-09 6.278526e-09 9.9307035e-11 9.6585705e-11
4.6617634e-09 6.0402363e-09 6.9241756e-12 1.5407968e-11 2.291771e-10 3.360957e-10 2.91378e-10 3.8636125e-10
1.8955332e-10 1.931623e-10 8.527805e-10 1.0997191e-09 3.7364437e-10 4.4525578e-10 5.022e-10 9.31713e-10
2.4470304e-10 4.3369336e-10 3.1033348e-10 6.2153005e-10 1.4295144e-11 1.8763848e-11 4.8268695e-10 6.8609746e-10
00000000: 2509 0e32 ce4b 1932 c32f fd31 f5f1 4432
00000010: f634 1e31 9d4f 2a31 3c75 d332 c10a ed32
00000020: eafa 2733 e90f 8133 e040 dd32 a34c 0533
00000030: 9aef 5931 7caf a631 cf39 c233 9662 fa33
00000040: db1a b230 b926 0a31 8128 ca30 4da2 2c31
00000050: 3091 3133 181e 6733 65b7 a933 daaf ff33
00000060: 4c28 fb30 ccd5 4831 8684 0c33 4458 5733
00000070: 8fa8 5d33 c346 8b33 ea0d cc31 209a d731
00000080: 3ecf 3c34 2169 7534 f133 3131 51ef e131
00000090: 8edc 572f 63ac 142f 2df3 1331 6c49 fb30
000000a0: b9ad a931 e313 2331 d788 9031 584c a531
000000b0: 6d96 9132 31bd bd32 5107 ba32 eb0a 3233
000000c0: 9890 6233 c0b7 d233 c07e 9d31 67a5 0e32
000000d0: 311e ba32 80b3 e232 e8af 2331 4e3d 1531
000000e0: 36b6 df31 9fe3 0832 6a5b 0532 4ecd 4932
000000f0: fe78 b02f 0997 e130 61c4 7e31 0ef6 c531
00000100: bbae 3131 d2b8 3f31 4624 a232 9252 9332
00000110: 9167 2532 a33f 1832 185c 7f33 30c1 9533
00000120: 33f4 b633 29e2 c333 fc0d d130 695c 7b31
00000130: 2f4c f033 cbff 1034 bef1 8733 ace2 f033
00000140: 9359 3f33 85b0 8233 22af 2b34 31ac 7b34
00000150: 2398 1a32 031e 1c32 11af 3232 3552 db31
00000160: 8842 9532 c5a2 6932 32e6 5032 5102 8332
00000170: e405 ea31 78bd 9f30 d907 3031 5e18 b231
00000180: 6e69 ca30 5f15 3131 c11a 4431 c81a 0731
00000190: fda4 8032 a0b3 8b32 b2c7 2534 4ae7 6034
000001a0: 3331 4930 ca3a 0e30 7dcd 5a31 bd75 8031
000001b0: 7dbd 882f 1a29 6e30 a7da 5832 da6e c632
000001c0: 3761 4333 466b 8333 58d7 fd33 f3d7 3334
000001d0: 5e22 d932 97e0 ef32 08f0 bf31 46ea 0532
000001e0: 55bf 9e33 68d4 f833 da48 3231 145d 2e31
000001f0: ccc1 1b33 54e2 3f33 6be1 4b33 716d 8833
00000200: ac39 f22f b288 3e30 3e1a e533 d131 1434
00000210: 387f b733 d95c 0c34 04c2 2633 1456 8133
00000220: 7658 0033 ff6b 3e33 512e 6233 12fc 8733
00000230: 860c fd30 643d 3131 15d1 4532 10ed c032
00000240: 2d2d 5831 0eef 1a31 4f8c 1132 aee4 0a32
00000250: 73d0 3032 1c46 7632 3553 8331 94a6 bb31
00000260: d9a2 0a32 d78e 9e32 51d1 0930 c211 8830
00000270: 80d2 d031 b671 2032 db35 1333 f5d6 6033
00000280: 79f8 d92f d89a 4230 f4e2 0034 deef 3134
00000290: a16a 3234 7f4f 7134 c7bf 6132 1e1c b732
000002a0: afde 8732 d61f c732 1538 2230 1984 6231
000002b0: 4a31 3533 9e58 bc33 0d7d d233 aebb 1434
000002c0: ba35 6731 ad73 ae31 3231 8f31 f88a a731
000002d0: 827a b030 7c83 d130 e485 0333 78ff 2533
000002e0: 5ba8 3233 eeeb 7633 34e7 9131 6f44 ae31
000002f0: 2929 292f c060 572f 82d2 fc31 6d62 6a32
00000300: c753 e632 8f39 1c33 6093 2330 6f18 1831
00000310: a71f 0334 bd2a 2f34 8e1e 1933 a632 6933
00000320: 205f 9230 f055 9a30 8680 d42d adfb 132f
00000330: c786 d12f 14c6 1230 8e11 9430 60d6 b230
00000340: e92a c230 89d8 1531 2086 0330 394f 3130
00000350: 48f5 6030 f009 a930 fc82 4c31 be9b 7b31
00000360: 3e2c 302e 1d2c a22e 3008 9a2f 528a b32f
00000370: 4c77 d030 510d f430 7953 f131 0733 2132
00000380: 12dd 5b2d 6b1d 072e ed94 3f31 31dd 9231
00000390: c9c0 9e31 80ba d731 e460 da2e eb64 d42e
000003a0: 4e2d a031 7b8a cf31 6e9f f32c a987 872d
000003b0: 9efb 7b2f 44c5 b82f cf2f a02f 8367 d42f
000003c0: 846a 502f 5b62 542f 1869 6a30 ed24 9730
000003d0: c569 cd2f 2ec8 f42f 2f0b 0a30 bd0d 8030
000003e0: e486 862f ea6c ee2f 8e9b aa2f 4ad8 2a30
000003f0: 9b7b 7b2d 6e0c a52d 13ae 0430 d197 3c30
